new_saved_models/3Dspiral_d4v1_sk1000.pt (torch, 474251 bytes, 30 tensors)

net.0.weight f4 [64, 3]
0	0xbed391dd	-0.41322222
1	0xbd50b871	-0.050957147
2	0xbf0329bf	-0.51235574
3	0x3f135a61	0.5755978
4	0xbeceb2ff	-0.40370938
5	0xbe39d73d	-0.18148513
6	0xbe51a797	-0.20474087
7	0x3cb7126e	0.022347655
8	0x3e314244	0.17310435
9	0x3e8d0fa7	0.27551004
10	0x3e530b4e	0.20609781
11	0x3e954349	0.29152897
12	0x3e708357	0.23487602
13	0x3efd8e4b	0.49522623
14	0x3e7c0d14	0.24614364
15	0xbef18059	-0.47168234
16	0x3f01c4b4	0.5069077
17	0xbf200fcf	-0.6252412
18	0x3c0bc010	0.008529678
19	0xbee8f0f9	-0.45496348
20	0x3eb41764	0.35174096
21	0x3ee91cdd	0.45529833
22	0x3ede314f	0.43396994
23	0x3d8c8b02	0.06862451
24	0xbeb867e8	-0.36016774
25	0xbf0074f2	-0.50178444
26	0x3f05b7df	0.5223369
27	0xbee48f9c	-0.44640815
28	0xbe3f107d	-0.18658634
29	0x3e0a8ee9	0.13531078
30	0xbf0844ec	-0.53230166
31	0xbf0865a7	-0.5328011
32	0x3e4d1c1d	0.20030256
33	0x3ea8f1cb	0.32996973
34	0xbea2ed67	-0.3182175
35	0x3ef928d2	0.48663956
36	0xbe6855d1	-0.22688986
37	0x3f12f25a	0.5740105
38	0xbed2e27b	-0.41188416
39	0x3e03d8cf	0.12875675
40	0x3d4c2d26	0.049847744
41	0x3f0e0bf0	0.55486965
42	0xbd900034	-0.07031289
43	0x3f053a71	0.520423
44	0x3c7217d0	0.014776185
45	0xbef6f6ea	-0.48235255
46	0x3f04dfea	0.51904166
47	0xbd5d442a	-0.054020084
48	0xbecaf7b2	-0.39642102
49	0x3f072d34	0.5280335
50	0x3e1f0e21	0.15532734
51	0xbe89020a	-0.26759368
52	0x3ed7bf96	0.42138356
53	0xbd0870ce	-0.033310704
54	0x3d8f0bfd	0.069847085
55	0x3efd9407	0.49526998
56	0xbcf43617	-0.029810948
57	0xbe6c8295	-0.23096688
58	0x3ed4dfd8	0.4157703
59	0x3e8b18f3	0.27167472
60	0x3dac3e91	0.08410371
61	0xbe5236f1	-0.20528771
62	0x3f12762e	0.5721158
63	0x3f007dd3	0.5019199
64	0xbdee78d3	-0.11644139
65	0xbe5e9901	-0.21738054
66	0xbdda65e0	-0.10663962
67	0x3f06ff5f	0.52733415
68	0x3e933239	0.28749254
69	0x3eded6a3	0.4352313
70	0x3e0f5c01	0.1399994
71	0xbe037630	-0.12838054
72	0xbe6ea13a	-0.2330369
73	0x3d92d6bb	0.07169863
74	0x3cd999bb	0.026562562
75	0x3f165805	0.5872806
76	0x3db2dd82	0.087336555
77	0xbefc35f0	-0.492599
78	0xbea7891f	-0.32721803
79	0x3e30564f	0.17220424
80	0x3c7203df	0.014771431
81	0xbed8fcb6	-0.42380303
82	0xbc8675bf	-0.016413568
83	0xbe2d4912	-0.16922405
84	0x3f214fbb	0.63012284
85	0x3ed92d4e	0.42417377
86	0xbebdbe6f	-0.37059352
87	0xbf0ef230	-0.558383
88	0xbe858ddc	-0.26084793
89	0x3eac6101	0.33667758
90	0xbefdd6d5	-0.49577966
91	0xbe6236de	-0.22091243
92	0x3efc168c	0.49235952
93	0x3f05015a	0.5195519
94	0xbe6e17d6	-0.2325128
95	0xbf08c264	-0.53421617
96	0x3dfce0a1	0.12347532
97	0x3f1a9e83	0.6039812
98	0x3eb101b2	0.34571606
99	0xb9bf0633	-0.00036434978
100	0x3f0ca017	0.5493178
101	0xbd748990	-0.059701502
102	0x3d9ec601	0.0775261
103	0xbef8cc2f	-0.4859328
104	0xbe9f964b	-0.31169352
105	0xbd31bce4	-0.04339303
106	0xbe9940ed	-0.29932347
107	0xbce2d77f	-0.027690647
108	0xbdbb545c	-0.0914695
109	0x3e53e4be	0.20692727
110	0xbf04dcbb	-0.5189931
111	0xbf0ea6fa	-0.55723536
112	0x3e9ac6a2	0.3022967
113	0xbea5d716	-0.3239066
114	0xbd3b1666	-0.045675658
115	0x3eb6e5be	0.35722154
116	0x3d09d10f	0.03364664
117	0xbd456ab6	-0.04819747
118	0x3df8a5dd	0.12141011
119	0xbd2f6e95	-0.04283007
120	0xbedce5d5	-0.43144098
121	0xbe81deeb	-0.25365385
122	0x3f0ebbe3	0.5575544
123	0xbefd3cb5	-0.49460378
124	0xbedeb540	-0.43497658
125	0xbe74145e	-0.23835894
126	0xbeec0aa3	-0.46101865
127	0x3d352b39	0.044230673
128	0xbe29a800	-0.16567993
129	0x3e6c0e13	0.23052244
130	0xbefab40c	-0.4896549
131	0x3ec0f21d	0.37684718
132	0x3eff0764	0.49810326
133	0x3e7d60fe	0.24744031
134	0x3f1ea1ed	0.6196583
135	0x3e721d97	0.236441
136	0xbef5150f	-0.4786763
137	0xbeefba87	-0.46821997
138	0xbe7c86cc	-0.24660796
139	0xbe8e1221	-0.27748206
140	0x3ec42b2e	0.38314193
141	0x3f1329cd	0.5748566
142	0xbefbc909	-0.49176815
143	0x3e772408	0.24134839
144	0x3eec30bb	0.46130928
145	0x3ea00a3f	0.31257817
146	0x3e897a60	0.26851177
147	0xbf1543c9	-0.58306557
148	0xbd8dd9a0	-0.06926274
149	0x3d6b15ac	0.057393715
150	0xbdb4e1da	-0.0883214
151	0x3e3df693	0.18551092
152	0xbed2ec08	-0.41195703
153	0xbeb3684a	-0.35040504
154	0x3ee3f510	0.44522905
155	0xbe780be4	-0.24223286
156	0x3f120b4c	0.5704849
157	0xbec57623	-0.38566694
158	0x3ad31fd3	0.0016107507
159	0xbf154b7a	-0.58318293
160	0x3eec901f	0.46203706
161	0x3f135e45	0.5756572
162	0x3eac8135	0.33692327
163	0x3e982ff7	0.29724094
164	0xbe9b477b	-0.30327973
165	0xbf1dc94c	-0.6163528
166	0xbe65edf0	-0.22454047
167	0x3f03ac05	0.51434356
168	0xbdcd446e	-0.100228176
169	0x3f157ca5	0.5839332
170	0x3ec6f82f	0.38861224
171	0xbf0f4893	-0.55970114
172	0x3ea12667	0.3147461
173	0xbed1c4c4	-0.40970433
174	0x3d1ce974	0.038308576
175	0x3d7edbaa	0.062221207
176	0x3e07837d	0.13233753
177	0x3e2e4bc1	0.17021085
178	0x3d9d43cc	0.07678947
179	0x3efb2e8f	0.4905896
180	0xbec83a69	-0.39107063
181	0x3eddc54f	0.43314597
182	0x3e8cbe65	0.2748901
183	0x3eb22ebd	0.34801283
184	0x3ef4f9d3	0.4784685
185	0x3e3cb46a	0.18428198
186	0xbc0e3de2	-0.008681746
187	0x3de3b58f	0.11118614
188	0xbdaba4e9	-0.083810635
189	0x3de3b610	0.1111871
190	0x3ee26438	0.44217086
191	0x3e9370a5	0.28796878

net.0.bias f4 [64]
0	0x3e3e738c	0.18598765
1	0x3d75be4a	0.059995927
2	0x3ea358ce	0.3190369
3	0xbe66089c	-0.22464222
4	0xbdc71919	-0.09721584
5	0xbe6cb88b	-0.23117273
6	0xbe0c81af	-0.13721345
7	0xbe57a315	-0.21058305
8	0xbe3cbad0	-0.18430638
9	0xbee9808d	-0.4560589
10	0xbef5e986	-0.48029727
11	0xbeba885f	-0.36432168
12	0x3ef9b676	0.4877202
13	0xbe168d21	-0.14702274
14	0x3e8a209c	0.26978004
15	0x3eda071e	0.42583555
16	0x3dcd57e0	0.100265265
17	0x3ececd72	0.40391117
18	0xbe833d1e	-0.25632566
19	0x3ea5b11f	0.32361695
20	0xbe7ff137	-0.2499436
21	0x3f07fcaa	0.5311991
22	0xbe1f7cb5	-0.15574916
23	0xbd90ef17	-0.07076853
24	0x3efce5d2	0.4939409
25	0xbe3fcbea	-0.18730131
26	0xbf131594	-0.574548
27	0x3f00e3fa	0.50347865
28	0xbe91d293	-0.28480968
29	0x3e43730c	0.19086856
30	0x3e92ecd3	0.28696308
31	0xbea57bb8	-0.32320952
32	0x3ef1bfec	0.47216737
33	0xbe9578fa	-0.2919386
34	0x3d5bf1bc	0.053697333
35	0x3e12a896	0.14322123
36	0xbef9f8c0	-0.48822594
37	0xbd9e575c	-0.07731506
38	0x3e99f352	0.3006845
39	0xbe886165	-0.26636806
40	0xbef80720	-0.48442936
41	0x3f1cecf8	0.61299086
42	0xbf1b0497	-0.6055388
43	0xbf068a06	-0.5255436
44	0x3ecc873d	0.3994693
45	0xbe9add89	-0.30247143
46	0x3cb85663	0.02250213
47	0x3e63650c	0.22206515
48	0xbf0ddaa8	-0.5541177
49	0xbe26bc93	-0.16282873
50	0x3ec2a62f	0.38017413
51	0xbea6874b	-0.32525095
52	0x3dfa4f63	0.12222173
53	0x3eefce68	0.46837163
54	0x3e490d6a	0.19634023
55	0xbe7bbef6	-0.24584565
56	0x3e118cca	0.14213863
57	0x3f04cf8a	0.5187918
58	0x3e87cacc	0.2652191
59	0x3f055978	0.52089643
60	0xbec554a8	-0.3854115
61	0xbe7b9c4d	-0.24571343
62	0xbe609e51	-0.21935393
63	0x3ef4c2e4	0.4780494

net.2.weight f4 [64, 64]
0	0x3de0f29c	0.10983774
1	0xbd171511	-0.036885325
2	0xbde24974	-0.11049166
3	0x3d056ec5	0.03257634
4	0xbd427206	-0.047472022
5	0xbdbd3a5b	-0.09239646
6	0x3e012a4e	0.12613794
7	0xbd45cb28	-0.048289448
8	0xbd29916c	-0.04139845
9	0xbd157380	-0.036487103
10	0xbda2ba2c	-0.07945666
11	0xbd51c483	-0.0512128
12	0x3d1ad47a	0.03780029
13	0xbda6be51	-0.08141769
14	0xbde21a0f	-0.110401265
15	0xbbc38567	-0.0059668305
16	0x3dd15b53	0.10222497
17	0x3da8155d	0.082072
18	0x3e27f921	0.16403629
19	0x3db4e0ea	0.088319615
20	0x3dd95869	0.10612566
21	0x3d896dfb	0.0671043
22	0xbc847ffb	-0.016174307
23	0x3c801fd0	0.01564017
24	0x3dc41ec9	0.09576184
25	0x3e20534b	0.15656774
26	0x3d17527f	0.03694391
27	0xbc19d0a9	-0.009388127
28	0x3d4e4aab	0.050364178
29	0xbc1bff45	-0.00952131
30	0x3dabdccf	0.08391725
31	0x3c345ec6	0.011008924
32	0xbdafa445	-0.08576254
33	0xbb4cfd48	-0.0031278897
34	0xbbc1d127	-0.0059148255
35	0x3db0cbb8	0.08632606
36	0x3e1f6b34	0.15568238
37	0x3df2457f	0.118296616
38	0x3bc67b09	0.0060571474
39	0xbdab1da6	-0.08355264
40	0x3e2755bf	0.16341303
41	0x3d55ab80	0.05216551
42	0xbd86b810	-0.06578076
43	0xbc3f90bd	-0.011692223
44	0xbdc5822a	-0.096439674
45	0x3dac96d9	0.084272094
46	0x3cff4f97	0.031165881
47	0x3e10d34b	0.14143102
48	0xbd9c91f7	-0.07645028
49	0xbdb212ab	-0.08694967
50	0x3d96021f	0.07324623
51	0x3d3aed5d	0.045636524
52	0xbd631536	-0.05544015
53	0x3e16579a	0.14681855
54	0x3d1734a3	0.036915433
55	0x3d6c4927	0.05768695
56	0x3e0556c8	0.13021386
57	0xbde6083f	-0.112320416
58	0xbd7dfc91	-0.062008444
59	0x3d73197c	0.059350476
60	0x3dcd6ad9	0.10030145
61	0xbd274623	-0.040838372
62	0x3ce7fbf2	0.02831838
63	0xbd951429	-0.07279236
64	0x3e250492	0.16115025
65	0x3dab218e	0.083560094
66	0xbd411c5d	-0.04714619
67	0xbd725346	-0.059161447
68	0xbe030e02	-0.12798312
69	0x3d4a3604	0.04936792
70	0xbd51ed2d	-0.05125158
71	0x3d05e8bb	0.032692652
72	0xbd9cacbf	-0.07650136
73	0x3d88892e	0.0666679
74	0xbd10a544	-0.03531386
75	0xbd9e23cc	-0.077216715
76	0x3dc93950	0.098253846
77	0xbd94b67f	-0.07261371
78	0x3cc4d7ac	0.024028622
79	0xbdf03f57	-0.11730831
80	0xbc9e9374	-0.01935742
81	0x3dbdf973	0.09276094
82	0xbc64419c	-0.013931658
83	0x3d82d257	0.063877754
84	0xbd09494b	-0.033517163
85	0x3dcf94bb	0.1013579
86	0xbd70a0ef	-0.05874723
87	0x3d18cc5c	0.037304267
88	0x3d3a14d6	0.045430027
89	0x3e0bc533	0.13649444
90	0xbdcc0534	-0.0996193
91	0x3dc954d1	0.098306306
92	0x3dbf0b17	0.09328287
93	0x3c0b1fe4	0.00849149
94	0x3d31899f	0.043344136
95	0x3c23376a	0.009961942
96	0x3dc141c7	0.09436374
97	0x3df19041	0.117950924
98	0x3dddad99	0.10824127
99	0xbdcc4759	-0.09974546
100	0xbc222842	-0.0098972935
101	0xbe0cb787	-0.13741885
102	0xbdc6809f	-0.09692501
103	0xbd8ff904	-0.07029918
104	0xbd65072c	-0.055915043
105	0x3c6f55ae	0.01460783
106	0xba8a9144	-0.0010571857
107	0xbda8db53	-0.08244958
108	0xbdbf3b4d	-0.093374826
109	0xbc94538e	-0.018106248
110	0x3cd46bdf	0.025930343
111	0x3d45bdd1	0.048276726
112	0xbdad8b59	-0.08473844
113	0xbe000bc8	-0.12504494
114	0x3d4e3cff	0.05035114
115	0x3dca0cd1	0.09865726
116	0x3da9e2fc	0.08295247
117	0x3d84a15d	0.0647609
118	0x3c61f9dc	0.013792481
119	0x3d8e4156	0.069460556
120	0xbd928852	-0.07154907
121	0xbde3ce20	-0.111232996
122	0x3df6af6b	0.12045177
123	0xbc397660	-0.011319727
124	0xbdc2b4b5	-0.095071234
125	0x3d2fe177	0.04293963
126	0x3d90c40b	0.07068642
127	0xbdcd89e2	-0.10036065
128	0x3de9ee4e	0.11422406
129	0x3d823402	0.06357576
130	0x3d941a41	0.0723157
131	0xbdc28626	-0.09498243
132	0x3db60464	0.08887556
133	0x3bb73d70	0.0055920407
134	0xbdce811d	-0.1008322
135	0x3c9f5b1b	0.019452622
136	0x3cf7ecbf	0.030264257
137	0x3c2fd006	0.010730749
138	0xbd9abcea	-0.07555564
139	0xbc85e99f	-0.01634675
140	0x3dbbb615	0.09165589
141	0x3c125038	0.008930258
142	0xbde2f3cb	-0.11081656
143	0xbd8d16ae	-0.068890914
144	0x3d98c801	0.07460023
145	0xbdd58abb	-0.10426851
146	0x3cecce2d	0.028906906
147	0x3df6c32c	0.12048945
148	0xbc85963d	-0.01630699
149	0xbd936676	-0.07197277
150	0xbd91e29c	-0.071233004
151	0x3d902bfe	0.07039641
152	0x3d7f617e	0.062348835
153	0x3dddbf4e	0.10827504
154	0xbdd7dc94	-0.10540119
155	0xbccceac6	-0.025014292
156	0x3e2adaf5	0.16685088
157	0xbc888f94	-0.016670026
158	0x3b035c31	0.0020043964
159	0x3ddab8e2	0.10679795
160	0xbc773398	-0.0150879845
161	0x3dd0ca5a	0.101948455
162	0xbd384a51	-0.04499275
163	0x3dd74319	0.10510845
164	0xbc56bced	-0.013106567
165	0xbcc33901	-0.023830893
166	0xbdaac33f	-0.083380215
167	0x3ce60ddd	0.028082782
168	0xbdd1c092	-0.10241808
169	0x3e185b07	0.14878474
170	0xbdfaa202	-0.12237932
171	0xbcc18039	-0.023620712
172	0xbd750eaa	-0.059828438
173	0x3d0ff5e4	0.03514661
174	0xbdb3d50e	-0.08780871
175	0xbcfabe04	-0.030608185
176	0xbe29326a	-0.16523138
177	0xbddd565b	-0.108074866
178	0x3c59c0ba	0.0132905785
179	0xba086d32	-0.00052042597
180	0x3ca3cf9e	0.01999646
181	0x3d21ed21	0.039532784
182	0x3e04a9e3	0.12955432
183	0xbdf3f70f	-0.11912357
184	0xbd88b99c	-0.06676027
185	0xbd94eba5	-0.07271508
186	0x3b3c3c0c	0.0028722314
187	0x3d9169d9	0.07100267
188	0xbcf50e07	-0.029913915
189	0x3d176db0	0.03696984
190	0x3c6d576e	0.014486177
191	0xbcf80b43	-0.030278808
192	0xbdd3d498	-0.103432834
193	0x3bda3c2b	0.0066600046
194	0x3d9e9ea7	0.07745104
195	0x3da8851a	0.08228512
196	0xbd744d2e	-0.059643917
197	0x3e34ab95	0.17643578
198	0xbd18cb46	-0.03730323
199	0x3c9ed05d	0.019386465
200	0xbdb2939c	-0.087195605
201	0x3db8b91d	0.090196826
202	0x3ce6aff8	0.02816008
203	0xbc889e1e	-0.016676959
204	0x3ccec31e	0.025239524
205	0x3cd7704b	0.026298663
206	0x3d79e6ad	0.061011005
207	0x3d1b2bc3	0.03788353
208	0xbd267da9	-0.040647183
209	0x3d61709c	0.055039033
210	0xbcf0da21	-0.029400887
211	0xbc3c60d5	-0.011497696
212	0xbcb497f5	-0.022045115
213	0xbd8b066f	-0.067883365
214	0xbcffe2c8	-0.031236067
215	0x3b8ddf9f	0.004329636
216	0x3d8e906b	0.06961139
217	0x3ddc73cc	0.10764274
218	0xbe090eb2	-0.13384512
219	0x3da37906	0.07982068
220	0x3ca6b873	0.020351624
221	0xbd96aeca	-0.07357557
222	0x3dcf190a	0.10112198
223	0x3c9e7b07	0.019345773
224	0x3dcf0c3a	0.10109754
225	0x3e065a75	0.13120444
226	0x3e036447	0.12831222
227	0x3d59a18a	0.05313257
228	0x3dd1f97c	0.102526635
229	0x3d9d6281	0.07684804
230	0x3d277486	0.04088261
231	0xbdb20165	-0.08691672
232	0x3d9a65a6	0.07538919
233	0xbd9dbd7c	-0.07702157
234	0xbdfae4e3	-0.12250688
235	0xbd724059	-0.059143398
236	0xbd1fdd41	-0.039029364
237	0xbd7df9f3	-0.06200595
238	0x3dc84f4a	0.09780748
239	0xbbf8abab	-0.007588824
240	0xbdb5b261	-0.08871914
241	0xbab78f4e	-0.00140045
242	0xbdb90a23	-0.090351366
243	0xbba6c004	-0.005088808
244	0xbd200c96	-0.039074503
245	0xbb335060	-0.002736114
246	0x3d6c6553	0.057713818
247	0x3d57cc71	0.052685205
248	0x3a8b7a45	0.0010641298
249	0x3a1e852f	0.00060470676
250	0xbc08947a	-0.008336181
251	0x3e07880c	0.13235492
252	0xbd9f1f2c	-0.077696174
253	0x3c034b3d	0.008013544
254	0xbc2e61cf	-0.010643437
255	0x3de41008	0.1113587

net.2.bias f4 [64]
0	0x3d20e65a	0.03928218
1	0xbd44a78d	-0.04801135
2	0x3c17f32d	0.009274286
3	0x3bf93b0a	0.007605915
4	0x3d7f1ef1	0.062285367
5	0xbd4f47c5	-0.050605554
6	0xbd62c40c	-0.055362746
7	0x3d99b2ce	0.075048074
8	0x3d976bac	0.07393584
9	0xbe030ff9	-0.12799062
10	0x3bab1b57	0.005221765
11	0xbdc81550	-0.0976969
12	0xbd0a4fc3	-0.033767473
13	0x3df4a741	0.11945964
14	0xbdd38a7f	-0.103291504
15	0x3db3f0a2	0.087861314
16	0x3e138310	0.14405465
17	0xbc412233	-0.011787939
18	0xbcfbbb14	-0.030728854
19	0x3b157630	0.002280604
20	0x3e06adfd	0.13152309
21	0xbcc07f1a	-0.023498107
22	0x3d4aaf35	0.049483497
23	0x3c938720	0.018008769
24	0x3dc1c7a0	0.094619036
25	0x3d9e62f8	0.077337205
26	0x3e05d633	0.13069992
27	0x3daf78e7	0.08567982
28	0x3dd5d444	0.10440877
29	0x3dbc4577	0.09192937
30	0xbb780b4a	-0.0037848526
31	0xbd9a243e	-0.07526444
32	0x3c7c3abe	0.015394865
33	0x3c984939	0.018589603
34	0xbd4ea524	-0.05045046
35	0xbcb80cf0	-0.022467107
36	0xbdc19c09	-0.094535895
37	0xbd98cfbe	-0.07461499
38	0xbc9fc58c	-0.019503377
39	0x3e219137	0.15778051
40	0xbc904326	-0.017610144
41	0xbd359e17	-0.04434022
42	0x3df1d1b8	0.11807579
43	0x3dac4ade	0.08412717
44	0x3d2c4ac6	0.042063497
45	0xbd6ddd95	-0.058072645
46	0x3d2fc692	0.04291398
47	0xbd9e31bf	-0.07724332
48	0x3b0e95c5	0.002175675
49	0x3df400e0	0.119142294
50	0x3c55f488	0.013058789
51	0x39900200	0.0002746731
52	0x3d076321	0.03305352
53	0xbbcdda9b	-0.0062821633
54	0xbdfb0618	-0.12257022
55	0x3d7ff032	0.062484927
56	0x3c77c120	0.015121728
57	0x3db78f54	0.089628845
58	0xbdfe3216	-0.12411897
59	0xbdc55034	-0.09634438
60	0xbc266bf7	-0.010157577
61	0x3c828055	0.015930334
62	0xbcc5d2f0	-0.024148434
63	0x3d0e1a3f	0.034693

net.4.weight f4 [128, 64]
0	0x3d395b00	0.0452528
1	0x3e0470bc	0.1293363
2	0xbbba2734	-0.005680943
3	0x3de73086	0.11288552
4	0x3dfea357	0.12433498
5	0xbd8711ba	-0.06595178
6	0x3d5668ab	0.052345913
7	0xbdb8e857	-0.0902869
8	0xbc4ff983	-0.012693766
9	0xba89e6e3	-0.001052108
10	0x3e019680	0.12655067
11	0xbcab8a1d	-0.020939881
12	0x3d295539	0.04134104
13	0xbdaf3de7	-0.08556729
14	0x3e1ea7d3	0.15493707
15	0x3e2fdd4c	0.17174262
16	0x3d6fb588	0.05852273
17	0xbc83f89e	-0.01610976
18	0x3e205378	0.15656841
19	0x3da510a6	0.08059816
20	0x3d12397d	0.035699356
21	0x3d86338e	0.06552802
22	0x3e0398d1	0.12851264
23	0x3c1cee00	0.009578228
24	0x3d8c859c	0.068614215
25	0x3dc5b580	0.09653759
26	0x3db69796	0.089156315
27	0xbdbd698a	-0.092486456
28	0x3da1b0f8	0.07895082
29	0x3dfde3f7	0.123969965
30	0x3d9727bb	0.07380625
31	0xbc93f11c	-0.018059306
32	0x3d83a406	0.06427769
33	0xbd8677b2	-0.06565799
34	0x3ca8fe30	0.020629019
35	0x3e3424d0	0.17592168
36	0x3d833d03	0.064081214
37	0xbc1d30b9	-0.009594136
38	0x3b9cbb7e	0.004783093
39	0xbcb4759b	-0.022028735
40	0x3e4ba28c	0.19886225
41	0x3c18bf5e	0.009322969
42	0xbd3909d1	-0.045175377
43	0x3ca50c84	0.02014757
44	0xbdf3914b	-0.11892947
45	0x3e352dbd	0.17693229
46	0xbce9d976	-0.028546076
47	0x3d208883	0.039192688
48	0x3da8dc67	0.082451634
49	0x3e0a928b	0.13532464
50	0x3d50eea1	0.051008824
51	0x3dcd7da8	0.10033733
52	0x3e0e3115	0.13885911
53	0xbd156aa8	-0.03647867
54	0xbdf30c3e	-0.118675694
55	0xbd160e8e	-0.036634974
56	0x3dd5e4f8	0.10444063
57	0xbd9cfc98	-0.07665366
58	0xbde78104	-0.11303905
59	0xbbb91ee6	-0.0056494353
60	0x3d481bad	0.04885452
61	0x3c50e658	0.012750231
62	0xbd8be5e3	-0.06830957
63	0x3d3dc8a0	0.04633391
64	0x3d483eb1	0.048887912
65	0x3e3ace57	0.18242775
66	0x3e3d3169	0.1847588
67	0xbba4d0d6	-0.005029778
68	0x3de56dbb	0.1120257
69	0xbd84b32e	-0.06479488
70	0xbda6e506	-0.081491515
71	0xbd122b46	-0.0356858
72	0xbdb4c663	-0.08826902
73	0xbdc1a46e	-0.094551906
74	0x3e2f2986	0.17105684
75	0xbd5688af	-0.052376445
76	0xbdeed552	-0.11661781
77	0x3ddfe435	0.10932199
78	0x3c6ccc79	0.014453047
79	0x3e44e0f4	0.19226438
80	0x3e0f7257	0.14008461
81	0x3d256349	0.04037789
82	0x3d0eda74	0.034876302
83	0xbccec607	-0.025240911
84	0x3d178762	0.036994345
85	0x3dc83b70	0.09776962
86	0x3cb42cd7	0.021994038
87	0xbd2a260c	-0.04154019
88	0xbdd83d24	-0.10558537
89	0x3cd508b8	0.026005134
90	0x3debde1c	0.115169734
91	0x3c27fa6a	0.010252574
92	0x3e42474b	0.18972509
93	0xbd635af1	-0.05550665
94	0x3d629e86	0.05532696
95	0x3e3672fd	0.17817302
96	0x3e1dcb98	0.15409696
97	0xbe05cc33	-0.13066177
98	0xbdcc1a64	-0.09965971
99	0x3e33e74d	0.17568703
100	0x3de9a10a	0.11407669
101	0x3d81b6fd	0.0633373
102	0xbd4774b1	-0.04869527
103	0xbd2a2430	-0.041538417
104	0x3c4bc37c	0.012436744
105	0xbd6243d9	-0.055240486
106	0xbc9711aa	-0.01844104
107	0x3d9e4e91	0.07729829
108	0x3dbacf8c	0.09121618
109	0x3d2e9016	0.04261788
110	0x3cd9846c	0.026552401
111	0xbcb892d9	-0.02253096
112	0xbd63ecb6	-0.055645667
113	0x3da5d443	0.08097126
114	0xbcd96842	-0.026538972
115	0xbd0bca28	-0.034128338
116	0x3e2da3fb	0.16957085
117	0xbcb743bf	-0.022371171
118	0x3bd79c58	0.006579917
119	0xbcfcffa2	-0.030883614
120	0xbc6258b0	-0.01381509
121	0x3d338631	0.043829147
122	0xbda0bbdc	-0.07848331
123	0xbd8e1e9a	-0.069394305
124	0x3e167eca	0.14696804
125	0xbd8123df	-0.0630567
126	0x3dfaf469	0.12253649
127	0x3e07221c	0.13196605
128	0x3ceac344	0.028657563
129	0xbd3741a4	-0.044740334
130	0x3e3c365a	0.18380108
131	0x3cf15c43	0.02946294
132	0xbc8e0693	-0.01733712
133	0x3b174442	0.0023081456
134	0xbc678f9b	-0.014133359
135	0x3ca9cbc4	0.020727046
136	0xbe174716	-0.14773211
137	0xbdb55261	-0.08853603
138	0x3dabf933	0.0839714
139	0xbd19161a	-0.037374593
140	0x3dce68f3	0.10078611
141	0x3c8af08c	0.016960405
142	0x3dd4fe78	0.104000986
143	0x3d13d5ad	0.03609245
144	0x3d17f275	0.03709646
145	0xbe054b92	-0.13017109
146	0x3df46c0e	0.11934672
147	0xbbf27a84	-0.007399859
148	0xbdd9b3ef	-0.10630023
149	0xbd2f4e2d	-0.042799164
150	0x3de47809	0.111557074
151	0x3cc38d10	0.023870975
152	0x3d1c0b00	0.038096428
153	0xbd9a681c	-0.075393885
154	0xbcbe5024	-0.023231573
155	0xbde7d0b2	-0.11319102
156	0x3dcb5f5e	0.09930299
157	0xbd0da699	-0.034582708
158	0xbbcdb3f9	-0.006277558
159	0x3e1aafb9	0.15106095
160	0xbd028d25	-0.031872887
161	0x3db40296	0.08789556
162	0xbdeb098e	-0.11476432
163	0x3e257da5	0.16161211
164	0x3d887df8	0.06664652
165	0x3d178f57	0.037001934
166	0x3dbda0e0	0.092592
167	0xbc153311	-0.009106413
168	0x3d552ea2	0.052046426
169	0x3e2bd298	0.16779554
170	0x3ddb48b1	0.10707224
171	0xbd68bc2f	-0.05682009
172	0xbdddd0d5	-0.10830847
173	0xbd0f44d2	-0.03497774
174	0x3d42875a	0.047492363
175	0xbcafbfaa	-0.021453697
176	0x3ce0524b	0.02738299
177	0x3e0c350e	0.13692114
178	0xbddca1e9	-0.107730694
179	0xbcbda8f0	-0.023151845
180	0xbd24426a	-0.0401024
181	0xbc1a6088	-0.009422429
182	0xbe01c5d4	-0.12673122
183	0x3d6dd5d3	0.058065247
184	0x3dc9ec46	0.09859519
185	0xbdf860b5	-0.121278204
186	0xbd185554	-0.03719075
187	0x3dbef64f	0.093243234
188	0x3db5246d	0.08844838
189	0x3c18435b	0.009293403
190	0x3c3f9013	0.011692065
191	0x3df770b9	0.12082047
192	0xbd890602	-0.06690599
193	0x3dca7d32	0.0988716
194	0xbd8f82c8	-0.070073664
195	0x3d316bdf	0.043315765
196	0xbde7e45c	-0.11322853
197	0x3afea5d5	0.0019428084
198	0x3d54bb24	0.051936284
199	0x3de0949f	0.10965847
200	0xbc15b90d	-0.009138358
201	0xbda6bea3	-0.0814183
202	0x3dd0861d	0.1018183
203	0xbc09a968	-0.008402206
204	0x3caee6b0	0.021350235
205	0x3d6a4451	0.057194058
206	0xbd2ad3b8	-0.041705817
207	0x3d6fe330	0.058566272
208	0xbd938312	-0.07202734
209	0xbde1736f	-0.11008345
210	0x3c412538	0.011788659
211	0x3d648e3d	0.05579971
212	0xbd18508b	-0.037186187
213	0x3db3d3a4	0.087806016
214	0x3d9306de	0.07179044
215	0x3da84b9e	0.08217548
216	0x3d5e4521	0.054265145
217	0x3dd3ed18	0.103479564
218	0xbcfe2c50	-0.03102699
219	0xbd5a24d0	-0.053257763
220	0xbd4e5d9b	-0.050382238
221	0x3d949413	0.072548054
222	0xbdfc6f1d	-0.12325881
223	0xbdea2d84	-0.11434463
224	0xbc29ad40	-0.010356247
225	0xbcb0b10c	-0.021568798
226	0x3dd09236	0.101841375
227	0x3d55dd2d	0.052212883
228	0xbdf5986f	-0.11991965
229	0xbd785b1e	-0.06063377
230	0xbca9aec5	-0.02071322
231	0x37814d72	1.5414062e-05
232	0xbd1bd4d1	-0.038044754
233	0xbd88ba0e	-0.06676112
234	0xbde3a5e5	-0.11115626
235	0x3dd3945d	0.103310324
236	0x3d13b4cd	0.036061097
237	0xbdca43cf	-0.09876215
238	0xbcc3425e	-0.023835357
239	0x3ddd9927	0.10820227
240	0xbcc63ec2	-0.024199847
241	0x3db8994f	0.09013616
242	0xbd013dc5	-0.03155305
243	0xbd325de4	-0.043546572
244	0x3d3cf052	0.046127625
245	0x3d953298	0.072850406
246	0x3d3444d4	0.044010952
247	0x3d9cf7a3	0.076644205
248	0x3dece702	0.11567499
249	0x3b8db71f	0.0043248083
250	0x3ce5ec98	0.028066918
251	0x3db4ac6e	0.08821951
252	0xbda1b684	-0.0789614
253	0xbd8eb749	-0.069685526
254	0xbd99eb63	-0.075155996
255	0x3db6197d	0.0889158

net.4.bias f4 [128]
0	0xbc7ef27e	-0.015560744
1	0xbdacfa4d	-0.084461786
2	0x3bd91a78	0.00662547
3	0xbdf1bd40	-0.11803675
4	0x3c5ae470	0.013360128
5	0x3e0800dc	0.13281578
6	0xbc072231	-0.008247898
7	0xbd50e56e	-0.05100005
8	0x3d5434e1	0.05180824
9	0xbcd3d09e	-0.025856312
10	0xbd43ad1a	-0.047772504
11	0xbccae35b	-0.024766615
12	0x3db8e95e	0.09028886
13	0xbd14e8f8	-0.03635499
14	0x3d626808	0.055274993
15	0xbce18c87	-0.027532829
16	0x3dec5897	0.11540335
17	0xbd333148	-0.04374817
18	0xbd9dce78	-0.077053964
19	0x3d8b92b5	0.068150915
20	0x3d935c15	0.07195298
21	0xbd63f8a2	-0.055657037
22	0xbde3c0c9	-0.11120755
23	0xbd7340bd	-0.05938791
24	0xbd5dcc6d	-0.054150034
25	0x3ddb831d	0.10718367
26	0xbdef0b22	-0.11672045
27	0x3bea1337	0.007143404
28	0xbdc29aeb	-0.095022045
29	0x3dc5adf2	0.09652318
30	0x3d3a92f3	0.045550298
31	0xbd59f0ee	-0.053208284
32	0x3dfb2ed0	0.12264788
33	0x3d932185	0.07184128
34	0xbdb7e371	-0.08978928
35	0x3d8ff0c2	0.07028343
36	0xbd97858f	-0.07398521
37	0xbd2bb555	-0.04192098
38	0xbdfb4cd6	-0.12270515
39	0xbca4c818	-0.020114943
40	0xbbdea48e	-0.006794519
41	0x3de606a5	0.11231736
42	0x3d9f2c25	0.07772092
43	0x3d0467ef	0.03232568
44	0xbde5d04f	-0.11221372
45	0xbc337126	-0.01095227
46	0x3d60011b	0.054688554
47	0xbe006062	-0.12536767
48	0xbdb8efcc	-0.090301126
49	0xbd65aeda	-0.056074955
50	0xbd819867	-0.063278966
51	0x3d9b1cb9	0.07573838
52	0x3dc50428	0.09619933
53	0xbdaeb736	-0.085310385
54	0xbdb96e67	-0.09054261
55	0x3c9c743d	0.019098395
56	0x3bd73700	0.006567836
57	0xbcc263bb	-0.023729196
58	0xbdc0caf7	-0.094137125
59	0x3d849e58	0.06475514
60	0x3e0af74f	0.13570903
61	0x3c9eae73	0.019370293
62	0xbd6d6447	-0.05795696
63	0x3d9ea85d	0.077469565
64	0x3d684ab7	0.05671188
65	0x3dec336b	0.11533245
66	0xbdf1ff8a	-0.11816318
67	0xbd10bf59	-0.035338733
68	0xbde3b252	-0.11117996
69	0xbc896b2e	-0.01677474
70	0xbd900c18	-0.07033557
71	0xbdad9b11	-0.08476842
72	0x3bcebb0b	0.0063089184
73	0x3d94be3e	0.07262848
74	0xbdfff8e2	-0.124986425
75	0xbd8bad99	-0.068202205
76	0x3df53b7d	0.11974237
77	0xbda81559	-0.08207197
78	0x3cfcb31e	0.030847128
79	0x3daf4b5b	0.08559295
80	0x3d953fbc	0.07287547
81	0xbd35c99c	-0.044381723
82	0xbc899a11	-0.016797097
83	0xbdc9f66a	-0.09861453
84	0xbc3799db	-0.011206116
85	0xbdbafb68	-0.09129983
86	0xbd3d46ea	-0.046210207
87	0xbdb008cc	-0.08595428
88	0x3dbf04f2	0.09327115
89	0xbd2cb63a	-0.042165972
90	0xbdc2fe79	-0.09521193
91	0xbc7180e3	-0.014740202
92	0x3ce73198	0.02822189
93	0x3da24f4f	0.07925283
94	0xbda4c484	-0.08045295
95	0x3d325a2d	0.04354303
96	0xbd28a50e	-0.041173033
97	0x3c8a21bf	0.016861795
98	0xbd9a8968	-0.075457394
99	0x3d34d077	0.04414412
100	0xbd7d52b6	-0.061846457
101	0xbde4ec12	-0.11177839
102	0x3da30cf6	0.079614565
103	0xbd401c94	-0.046902254
104	0x3dc8aa22	0.09798075
105	0x3da85206	0.0821877
106	0xbdd8bd28	-0.10582954
107	0x3b0d53e2	0.002156489
108	0xbd2a26f8	-0.04154107
109	0xbd06f310	-0.032946646
110	0x3dc2cdb2	0.095118895
111	0xbd1d9414	-0.038471296
112	0x3e15cf4c	0.14629859
113	0xbd71a384	-0.05899383
114	0x3cbdee14	0.023184814
115	0x3d44487c	0.04792069
116	0x3e08200f	0.1329348
117	0xbe052d36	-0.13005528
118	0x3e1e2fa3	0.1544786
119	0x3cdcd6d7	0.026957912
120	0xbcb46f78	-0.022025809
121	0x3d8dd468	0.06925279
122	0x3da193f1	0.07889546
123	0x3d03bc3c	0.032161936
124	0xbc53907c	-0.012912866
125	0xbe02c748	-0.12771332
126	0xbd21e3a0	-0.03952372
127	0x3e21d87b	0.15805237

net.6.weight f4 [192, 128]
0	0x3d987907	0.07444959
1	0x3d23b273	0.039965104
2	0x3e113691	0.14180972
3	0xbd140f6f	-0.03614753
4	0xbd217223	-0.03941549
5	0x3dfdfabd	0.1240134
6	0x3de8f8b3	0.113755606
7	0x3de1540d	0.110023595
8	0x3d0223be	0.031772368
9	0x3df4db39	0.11955876
10	0x3d45afbd	0.0482633
11	0x3dd68ff0	0.10476673
12	0x3c8a7f36	0.016906362
13	0xbc98d043	-0.018653994
14	0x3d8e314e	0.06942998
15	0x3db93476	0.09043209
16	0xbd2d9aee	-0.04238408
17	0xbd0d4048	-0.03448513
18	0x3d202c8f	0.039104994
19	0x3dd5d01d	0.10440085
20	0x3d851b1a	0.0649931
21	0x3df6682f	0.1203159
22	0x3d96e0ca	0.07367094
23	0x3d6d9c96	0.05801066
24	0x3e07ccb7	0.13261686
25	0x3d5d8521	0.05408204
26	0xbbccff9c	-0.006256057
27	0xbd3495a2	-0.044088013
28	0x3d96bdea	0.07360442
29	0xbc9abfd3	-0.018890297
30	0x3d2676cb	0.040640634
31	0x3dfd6e48	0.1237455
32	0xbdcf13b5	-0.10111181
33	0x3c2c2dd7	0.010508976
34	0x3dd20c8b	0.10256299
35	0x3db0f77b	0.08640953
36	0xbc282573	-0.010262835
37	0x3db485b8	0.08814567
38	0xbd7451b7	-0.05964824
39	0x3c6fa73c	0.014627274
40	0x3cb95439	0.022623168
41	0x3e18de65	0.14928587
42	0xbd8644ea	-0.06556113
43	0x3e1f56da	0.15560475
44	0xbc59ab96	-0.013285538
45	0x3ded2c11	0.115806706
46	0x3d02e28d	0.031954337
47	0x3daf6d59	0.08565778
48	0x3dd04e11	0.1017114
49	0xbde53857	-0.111923866
50	0x3ce3f52e	0.027826872
51	0x3d81da60	0.0634048
52	0xbddaa184	-0.10675338
53	0x3c1cbbf7	0.009566299
54	0x3d58b293	0.052904677
55	0x3e062ce5	0.13103063
56	0xbd486ece	-0.048933797
57	0x3c070664	0.00824127
58	0x3e08ae6e	0.1334779
59	0xbc25af67	-0.01011262
60	0x3ce51994	0.027966298
61	0x3dee0a53	0.11623063
62	0x3d8c4d3f	0.06850671
63	0x3e029e04	0.1275559
64	0x3adc611e	0.0016813611
65	0xbd347c85	-0.044064064
66	0x3d21c0b1	0.039490405
67	0xbc861938	-0.016369447
68	0x3df66789	0.120314665
69	0x3c96887e	0.018375631
70	0x3e04ef35	0.12981875
71	0x3e027628	0.12740386
72	0x3e0c4397	0.13697658
73	0x3d64bd83	0.055844795
74	0x3c23d18e	0.009998692
75	0x3d55fba2	0.05224193
76	0x3d0ec77c	0.034858212
77	0x3e01d76a	0.1267983
78	0x3be79038	0.0070667528
79	0x3d74dbab	0.059779804
80	0x3d95bf27	0.0731185
81	0x3d5b2933	0.053506088
82	0x3db44405	0.08802036
83	0x3d5f4aa8	0.054514557
84	0x3d2e17fd	0.042503346
85	0x3e141fe9	0.14465298
86	0x3bc0ed3e	0.0058876565
87	0x3dcf8dfe	0.10134505
88	0xbb89aede	-0.004201754
89	0x3ded073d	0.11573646
90	0x3dd6718d	0.10470877
91	0xbc3cb70c	-0.011518251
92	0x3dde680e	0.108596906
93	0xbc135dbb	-0.008994515
94	0x3c83f67d	0.016108746
95	0x3e0d6827	0.13809262
96	0xbca3095c	-0.019901924
97	0x3e17e3d9	0.1483301
98	0xbd6992e2	-0.057024844
99	0x3d0e0091	0.03466851
100	0x3d90becf	0.07067644
101	0x3d0af1d5	0.033922035
102	0x3dc757a6	0.097335145
103	0x3d5e11d2	0.054216214
104	0x3dee89c3	0.1164737
105	0x3dba92f8	0.09110063
106	0x3ced0351	0.028932245
107	0xbb60461c	-0.0034221476
108	0x3d9396b5	0.072064795
109	0xbcc44dce	-0.023962881
110	0x3de0ced2	0.10976948
111	0x3d5e5da8	0.054288536
112	0xbcc53565	-0.024073312
113	0x3d61c87f	0.05512285
114	0x3d4ee496	0.050510965
115	0x3e158901	0.14603044
116	0xbde42949	-0.11140687
117	0x3db1a052	0.08673157
118	0xbc3bd273	-0.011463749
119	0x3bc45141	0.0059911315
120	0xbd3d1e65	-0.046171565
121	0x3c44816f	0.01199375
122	0xbc144f85	-0.009052162
123	0xbc609111	-0.0137064615
124	0x3cd215c8	0.025645152
125	0x3e07dd06	0.13267908
126	0x3da1aa97	0.078938656
127	0x3cb36319	0.02189784
128	0xbd3a3218	-0.04545793
129	0x3b07f567	0.0020745636
130	0xbd94d28c	-0.07266721
131	0xbd978e40	-0.07400179
132	0xbdb4e2bb	-0.08832308
133	0xbdb995d5	-0.09061781
134	0x3d203590	0.03911358
135	0xbc46116a	-0.012089113
136	0xbde19f3b	-0.11016699
137	0x3d4d19f5	0.050073583
138	0xbd730620	-0.059332013
139	0xbdf751f3	-0.120761774
140	0xbc135ad1	-0.00899382
141	0x3d6c72fe	0.057726853
142	0x3b0c0b63	0.0021369092
143	0xbd64b92d	-0.05584066
144	0xbd87b34d	-0.06625996
145	0xbd8b8f40	-0.06814432
146	0x3cd29447	0.02570547
147	0xbcbba21e	-0.022904452
148	0xbdcb69b6	-0.09932272
149	0x3ca17b79	0.019712197
150	0xbca6c419	-0.020357179
151	0x3c7cecc8	0.015437312
152	0xbc6f25ad	-0.014596385
153	0xbcb5f056	-0.022209328
154	0xbd9de424	-0.0770953
155	0x3c60f4ec	0.013730269
156	0x3d1331b4	0.035936072
157	0xbdc95d53	-0.09832253
158	0x3ba2810e	0.004959232
159	0xb9e05c31	-0.00042793297
160	0x3dd99de6	0.1062582
161	0xbcf2985c	-0.029613666
162	0x3abddaf4	0.0014484809
163	0xbcabae43	-0.020957118
164	0xbdb7d401	-0.089759834
165	0x3cd68ffd	0.026191706
166	0x3d0c78ff	0.03429508
167	0x3b80aa5c	0.0039265584
168	0x3d39d8eb	0.045372885
169	0xbddcf7e5	-0.1078947
170	0x3da29ad0	0.079396844
171	0xbd6d9c24	-0.058010235
172	0xbd95c604	-0.07313159
173	0x3cd859fa	0.026410092
174	0xbb009a1b	-0.0019623104
175	0xbd2b0361	-0.04175127
176	0xbda82a53	-0.08211198
177	0xbd68de78	-0.056852788
178	0xbd985740	-0.074385166
179	0x3ce5f5c9	0.028071301
180	0x3ca75be5	0.02042956
181	0x3cee10d7	0.029060764
182	0xbd2fb767	-0.042899515
183	0x3bc1f079	0.005918559
184	0x3d9518c7	0.072801165
185	0x3ca21af9	0.019788252
186	0xbdbe3e96	-0.09289281
187	0xbcef4cab	-0.029211363
188	0x3cad2db2	0.021139953
189	0xbd493aee	-0.049128465
190	0x3d78142c	0.060566112
191	0xbdd74281	-0.105107315
192	0xbd7c4e85	-0.06159832
193	0x3d98d013	0.07461562
194	0x3d3d06cc	0.04614906
195	0xbd79db5d	-0.061000217
196	0xbdf27d57	-0.11840313
197	0x3c2df261	0.01061687
198	0xbb4d218b	-0.003130051
199	0xbddcdae1	-0.10783935
200	0xbb87b660	-0.004141614
201	0xbd903471	-0.070412524
202	0x3c9647ff	0.018344877
203	0xbdcc678a	-0.09980686
204	0x3d5a44af	0.053288158
205	0xbb982791	-0.0046433886
206	0xbd80fbaa	-0.06298001
207	0xbc7481d4	-0.014923532
208	0xbd2f3e6b	-0.042784136
209	0xbd88a03c	-0.06671187
210	0xbd3ff715	-0.046866495
211	0xbd73e0e3	-0.05954064
212	0xbb28c491	-0.0025751928
213	0xbda04485	-0.07825569
214	0xbcbff151	-0.023430498
215	0xbdf20061	-0.118164785
216	0x3ba31265	0.004976558
217	0xbcbc0a48	-0.022954121
218	0x3cde6f56	0.027152698
219	0x3d367f74	0.044555143
220	0xbd4bdfa2	-0.04977382
221	0x3d2ea78d	0.042640258
222	0x3c918b23	0.01776654
223	0x39c999de	0.00038452348
224	0xbd65d23f	-0.05610871
225	0xbceb9b13	-0.028760469
226	0xbd88e6f6	-0.06684677
227	0x3c937cc7	0.018003834
228	0xbddf1aa3	-0.108937524
229	0x3d146ab2	0.036234565
230	0xbdc1bad9	-0.094594665
231	0xbd786ca7	-0.060650494
232	0x3ba6c4de	0.0050893864
233	0x3c9c6343	0.0190903
234	0xbccc1561	-0.024912538
235	0xbcdf346c	-0.027246676
236	0xbd1fd4b0	-0.039021194
237	0xbdc201c0	-0.0947299
238	0xbd9b01e5	-0.07568721
239	0xbd617813	-0.055046152
240	0xbcb56d89	-0.022146957
241	0x3c797871	0.015226469
242	0xbca74769	-0.020419793
243	0xbd6cc277	-0.057802644
244	0x3d11ea31	0.035623733
245	0x3cccd098	0.025001809
246	0x3d901ee8	0.07037145
247	0x3cf172ce	0.029473688
248	0xbcd28cfb	-0.02570199
249	0xbdd5244c	-0.10407314
250	0xbbfcd6aa	-0.0077160196
251	0xbdaa21b4	-0.083072096
252	0xbd9e7862	-0.07737805
253	0xbd4fcfb7	-0.0507352
254	0x3d7f33a3	0.062305104
255	0x3dc29702	0.09501459

net.6.bias f4 [192]
0	0xbd7f7a2c	-0.06237237
1	0x3d7b7ab4	0.061396316
2	0x3b9b7993	0.0047447174
3	0x3cfd687d	0.030933613
4	0x3c220d9e	0.009890942
5	0x3d89a8bf	0.06721639
6	0x3b294274	0.0025826963
7	0x3dafa3e5	0.08576182
8	0x3b004696	0.0019573322
9	0xbcc18732	-0.023624036
10	0xbc337761	-0.010953755
11	0x3ca93993	0.020657336
12	0xbc70f000	-0.014705658
13	0xbd8ab68e	-0.06773101
14	0x3cb0bfa1	0.02157575
15	0xbd949c0f	-0.07256328
16	0x3c011724	0.007879052
17	0x3d517486	0.051136516
18	0xbcb15f3d	-0.021651858
19	0xbd4c0d5b	-0.049817424
20	0xbcc4dd9f	-0.024031458
21	0x3da90330	0.08252561
22	0xbd86fa24	-0.06590679
23	0xbd4e3081	-0.050339226
24	0xbdbe283e	-0.09285019
25	0x3c6e35ce	0.014539195
26	0xbd3f318c	-0.04667811
27	0x3a3cb94c	0.0007199242
28	0xbda9038c	-0.0825263
29	0x3bcd4c82	0.006265224
30	0x3d5d168d	0.053976584
31	0x3cf71886	0.03016306
32	0xbd58d734	-0.05293961
33	0xbc1e72a6	-0.009670889
34	0xbd59b45d	-0.053150523
35	0xbd997603	-0.07493212
36	0xbd306bfe	-0.04307174
37	0xbd42213c	-0.047394976
38	0x3d9386a3	0.07203414
39	0x3d4e8b9e	0.050426118
40	0xbde05184	-0.10953048
41	0x3dfef328	0.12448722
42	0xb9a23ad1	-0.0003094287
43	0x3d896c45	0.06710104
44	0xbdb39f09	-0.08770568
45	0x3a9f1bc4	0.0012139012
46	0xbd3a9ee8	-0.0455617
47	0x3bdcd59f	0.006739333
48	0x3c7c32b1	0.015392945
49	0xbd90ffed	-0.07080064
50	0xbdae2603	-0.08503344
51	0x3d58cd76	0.052930318
52	0x3a55c8ec	0.0008155245
53	0x3de9a211	0.11407865
54	0xbda3337e	-0.07968806
55	0xbd7cfd54	-0.06176503
56	0x3d53a587	0.05167153
57	0xbc556ee4	-0.013026927
58	0x3cb9f9db	0.022702148
59	0xbd4209fc	-0.047372803
60	0xbda292f6	-0.07938187
61	0x3d66a144	0.05630614
62	0xbdb2b68f	-0.087262265
63	0x3cac8d9e	0.021063622
64	0x3d43daae	0.04781597
65	0xbdca6e8e	-0.09884368
66	0x3ddba6e3	0.107251905
67	0x3ce06f97	0.02739696
68	0x3ce89277	0.028390152
69	0xbc880c18	-0.01660733
70	0xbca07435	-0.019586662
71	0x3cbcdd44	0.023054726
72	0xbdb46abf	-0.08809423
73	0xbd7f3413	-0.06230552
74	0xbd86639a	-0.06561966
75	0xbdb27edd	-0.087156035
76	0x3d4448e2	0.04792107
77	0xbde49239	-0.11160702
78	0x3bbab7c4	0.005698176
79	0xbc8afb04	-0.016965397
80	0xbd558f7c	-0.05213879
81	0x3d5a133b	0.053240996
82	0xbace6b65	-0.0015748559
83	0xbcf574fa	-0.029963005
84	0x3dec6ce7	0.11544209
85	0xbd980a25	-0.0742381
86	0x3d0f9ab5	0.03505965
87	0xbd8a1661	-0.0674255
88	0xbd416812	-0.04721839
89	0xbd1884b9	-0.03723595
90	0xbd977dff	-0.07397079
91	0xbbedf6a9	-0.00726207
92	0xbdca43df	-0.09876227
93	0xbc09b5ea	-0.008405188
94	0xbd196478	-0.03744933
95	0x3d4b53e8	0.049640566
96	0x3d36f3d8	0.04466614
97	0x3d2fd95d	0.042931903
98	0xbd1004ab	-0.0351607
99	0x3c9c105f	0.019050775
100	0x3ddcb73c	0.10777137
101	0xbc63466f	-0.013871773
102	0xbd1dea7e	-0.038553707
103	0xbd13a2b8	-0.036043853
104	0x3ddb8d3a	0.10720296
105	0x3c479e04	0.01218367
106	0xbcb84043	-0.02249158
107	0xbdc78fe0	-0.09744239
108	0x3d192f44	0.03739859
109	0xbd0cb5dc	-0.034353122
110	0x3c422371	0.01184927
111	0xbc88b11e	-0.016686019
112	0xbc1548fb	-0.009111638
113	0x3dd70221	0.10498453
114	0xbd5fc173	-0.054627847
115	0xbd8c1519	-0.068399616
116	0x3c835fc2	0.016036872
117	0x3d1702a8	0.036867768
118	0xbd6cb074	-0.057785466
119	0xbcab3890	-0.020900995
120	0xbdb7f6d2	-0.08982624
121	0xbd914b42	-0.070944324
122	0xbcb5f8b2	-0.022213314
123	0xbbd238d4	-0.006415466
124	0xbd77aa5f	-0.060465213
125	0x3d528a33	0.05140133
126	0xbdb25f83	-0.08709624
127	0xbd457523	-0.048207413
128	0xbd534f1a	-0.05158911
129	0x3cd8c76b	0.026462277
130	0x3d2111d2	0.039323635
131	0x3d16a386	0.03677704
132	0xbb8c5270	-0.0042822883
133	0xbc691815	-0.014226933
134	0xbd4fc12c	-0.050721332
135	0xbd83a626	-0.06428175
136	0xbdae3935	-0.08507005
137	0x3dd2d3d5	0.1029431
138	0xbd005499	-0.03133068
139	0x3dd35744	0.10319379
140	0xbd901454	-0.07035127
141	0xbccfb8cb	-0.02535667
142	0xbd7b07ed	-0.061286855
143	0x3d8d9baf	0.0691446
144	0xbdb719a6	-0.08940439
145	0x3c8c23e0	0.01710695
146	0xbd173a9d	-0.036921132
147	0x3d22488b	0.039619964
148	0x3c3ce237	0.011528543
149	0xbdae5072	-0.085114375
150	0x3d54c202	0.051942833
151	0x3ddecc4a	0.10878809
152	0xbd6898d2	-0.056786366
153	0xbd45615f	-0.048188563
154	0xbc9b5798	-0.018962666
155	0x3c774ccb	0.015093992
156	0xbd432211	-0.04763991
157	0xbd3f0a0a	-0.046640433
158	0xbd88b795	-0.066756405
159	0xbdd3c6cf	-0.10340654
160	0xbc27aa17	-0.010233424
161	0x3cb71219	0.022347497
162	0x3d754cf9	0.05988786
163	0x3d7ad797	0.06124076
164	0xbd439122	-0.04774583
165	0xbc36a898	-0.011148594
166	0x3c817c15	0.015806237
167	0x3cd2fed9	0.025756286
168	0x3b4588ca	0.0030141347
169	0xbc026516	-0.007958671
170	0x3bd83d41	0.006599099
171	0xbc65f287	-0.014034874
172	0xbd3222b4	-0.043490127
173	0xbd55f481	-0.05223513
174	0xbd048301	-0.032351498
175	0xbd123666	-0.03569641
176	0xbd604670	-0.054754674
177	0xbd2a030a	-0.041506805
178	0x3d98838b	0.07446965
179	0xbb336d91	-0.002737854
180	0xbd8b05ac	-0.06788191
181	0xbd928178	-0.071536005
182	0x3dc48cb7	0.09597152
183	0x3ccbb88f	0.024868278
184	0xbd64e557	-0.055882778
185	0xbd40525d	-0.046953548
186	0x3cbfd25c	0.023415737
187	0xbd658bc3	-0.05604149
188	0x3d315abe	0.04329943
189	0xbc77fa89	-0.015135416
190	0xbd27bbf5	-0.040950734
191	0xbd3e1766	-0.046409033

net.8.weight f4 [3, 192]
0	0xbe0dd545	-0.13850887
1	0x3db080b9	0.08618302
2	0xbd6fe702	-0.058569916
3	0xbd9b59ee	-0.07585512
4	0xbdff7137	-0.12472766
5	0x3d249288	0.040178806
6	0xbd221a3c	-0.0395758
7	0xbba259a0	-0.004954532
8	0xbba0434e	-0.004890836
9	0xbe01e273	-0.1268404
10	0x3db40123	0.08789279
11	0xbdcfc0f7	-0.10144227
12	0xbca89965	-0.020580957
13	0xbdef844d	-0.11695156
14	0xbc905256	-0.017617386
15	0xbdf6186a	-0.12016375
16	0xbda16502	-0.07880594
17	0xbbdd9b4d	-0.006762898
18	0xbb4a8c42	-0.0030906354
19	0xbd9cde56	-0.07659595
20	0x3d461c86	0.048367046
21	0x3d4b2af6	0.049601518
22	0xbda16697	-0.078808956
23	0xbda8e016	-0.08245866
24	0xbb3f3fd2	-0.0029182327
25	0xbd8e87f7	-0.06959527
26	0xbd92d0f5	-0.07168762
27	0x3dd1e65b	0.10249015
28	0xb81ad68f	-3.6916284e-05
29	0xbb83b70b	-0.004019623
30	0xbc41736d	-0.011807305
31	0xbd92475d	-0.07142518
32	0xbd18d536	-0.03731271
33	0xbd8d9960	-0.069140196
34	0x3d91afff	0.07113647
35	0xbdee77e6	-0.116439626
36	0xbcb34a89	-0.021886127
37	0xbc30b225	-0.0107846605
38	0xbcf7db8b	-0.030256053
39	0xbe15af5d	-0.14617677
40	0xbd7fa082	-0.06240893
41	0x3d886c67	0.06661301
42	0xbdf751bd	-0.12076137
43	0xbc6df1c8	-0.014522977
44	0xbe16eca4	-0.14738709
45	0x3d1d5bcc	0.038417622
46	0xbc9d776d	-0.019221986
47	0xbbd50102	-0.0065003643
48	0xbcd5df7f	-0.026107548
49	0xbdcd7b98	-0.10033339
50	0xbd7559eb	-0.059900206
51	0x3d42ef17	0.047591295
52	0xbdfbc814	-0.12294021
53	0x3d42e98c	0.04758601
54	0x3d46dd70	0.048551023
55	0x3db730f7	0.08944886
56	0xbdc1be1d	-0.09460089
57	0x3d90a78c	0.07063207
58	0xbd0475c9	-0.03233889
59	0x3d663476	0.056202374
60	0x3c08467b	0.008317585
61	0x3ca3e44d	0.020006323
62	0x3be86530	0.0070921406
63	0xbe1968e8	-0.14981425
64	0x3ddbd3e0	0.10733771
65	0xbd511056	-0.05104097
66	0xbc80cb54	-0.015721954
67	0xbd7d83f6	-0.061893426
68	0xbdb8551c	-0.09000608
69	0x3d3c1ce9	0.04592601
70	0xbd9409de	-0.072284445
71	0x3c8afc8e	0.01696613
72	0x3d12a230	0.035799205
73	0xbe110e97	-0.14165722
74	0x3bf5a8ac	0.007496914
75	0xbca99fee	-0.020706143
76	0xbd931311	-0.07181371
77	0xbdf923c5	-0.121650256
78	0x3db3805b	0.08764716
79	0xbdc119bd	-0.09428737
80	0xbd63717f	-0.05552816
81	0x3d1754c2	0.036946066
82	0xbd5daa65	-0.05411758
83	0xbd8cf91d	-0.06883452
84	0x3de44864	0.1114662
85	0xbd5d504c	-0.054031655
86	0xbdd7d50a	-0.10538681
87	0x3d635f34	0.055510715
88	0xbd462b33	-0.04838104
89	0x3d614402	0.054996498
90	0xbe16c3f7	-0.14723192
91	0xbe0ee641	-0.13955022
92	0xbdcd9f95	-0.100402035
93	0xbc1cabe9	-0.009562471
94	0xbdc465fd	-0.09589765
95	0xbdd4181f	-0.10356163
96	0x3dd133a4	0.10214928
97	0xbd7b6272	-0.06137318
98	0xbe15fc0d	-0.14646931
99	0x3d02751d	0.03184997
100	0x3d677c54	0.056515053
101	0xbe10f1c3	-0.14154725
102	0xbd2de154	-0.042451218
103	0xbdcb8f7a	-0.09939475
104	0xbc343a01	-0.011000157
105	0xbddf16f4	-0.1089305
106	0x3b26c358	0.0025446024
107	0xbdd4c40b	-0.10388955
108	0xbc191cec	-0.009345274
109	0x3d14fbba	0.036372878
110	0xbdd72eb6	-0.10506956
111	0xbdb5120d	-0.088413335
112	0xbe0d4f99	-0.13799895
113	0x3dcdcf74	0.10049334
114	0x3b9d656b	0.0048033497
115	0xbd7dda61	-0.06197584
116	0xbddb31f1	-0.10702885
117	0x3ddef585	0.10886673
118	0x3cbf91cf	0.023384957
119	0x3d4c38a4	0.049858704
120	0x3d013f87	0.031554725
121	0xbd2aa784	-0.04166366
122	0xbd7c36fe	-0.061575882
123	0x3d19f08d	0.037582923
124	0xbe155d29	-0.14586319
125	0x3b465a47	0.0030266212
126	0x3d29e04a	0.041473664
127	0x3daedaf7	0.08537858
128	0xbe0cb683	-0.13741498
129	0x3c1cd3f2	0.009572016
130	0xbde48b16	-0.11159341
131	0xbdcb09e8	-0.09913999
132	0xbd8c55bd	-0.06852291
133	0xbd560845	-0.05225398
134	0xbd9e4b52	-0.0772921
135	0x3d534599	0.051580045
136	0x3c203bf0	0.009779915
137	0x3d4ffc76	0.050777875
138	0xbd1faf29	-0.038985405
139	0xb8fc8b8f	-0.00012042291
140	0xbda8a734	-0.082350165
141	0xbd8635f1	-0.06553257
142	0xbd7953f4	-0.06087108
143	0xbc08ea8b	-0.008356701
144	0x3c118bdb	0.008883442
145	0xbdabfb28	-0.08397514
146	0xbe0bab47	-0.13639556
147	0x3d0e7866	0.03478279
148	0x3d7a3246	0.0610831
149	0x3d0cdd8a	0.034390964
150	0x3d8d2b2a	0.068929985
151	0x3b283551	0.0025666545
152	0xbe04fe68	-0.12987673
153	0xbd51901a	-0.051162817
154	0xbe11e2d5	-0.14246686
155	0xbcd6d21f	-0.02622324
156	0xbd583369	-0.052783404
157	0xbd82facc	-0.06395492
158	0xbd727037	-0.059189048
159	0xbc7a3c7b	-0.015273209
160	0xbce15b74	-0.027509429
161	0x3b650655	0.00349464
162	0x3b490c90	0.0030677654
163	0xbd9d25ba	-0.076732114
164	0xbdbaf917	-0.09129541
165	0xbbc7a967	-0.0060931924
166	0x3c8c51b9	0.017128812
167	0xbd360d19	-0.044446085
168	0xbc35ccd1	-0.011096195
169	0xbd15f901	-0.03661442
170	0xbdd54624	-0.10413769
171	0xbdc734cd	-0.09726868
172	0xbdcc2dad	-0.099696495
173	0xbdb26b6c	-0.08711895
174	0x3c83305f	0.016014276
175	0xbd607134	-0.05479546
176	0xbd0fb8ef	-0.035088476
177	0xba917050	-0.0011096094
178	0x3d78b235	0.060716826
179	0xbd20a057	-0.039215412
180	0xbd683e2b	-0.056699913
181	0x3b8635a2	0.004095749
182	0x3d827c92	0.06371416
183	0xbbbb031c	-0.005707158
184	0xbde52477	-0.11188596
185	0x3d88ebb0	0.06685579
186	0xbdc55da8	-0.09637004
187	0xbdd1e82e	-0.10249363
188	0x3d480c47	0.048839834
189	0xbccb2fef	-0.02480313
190	0xbdef5c0a	-0.11687477
191	0xbdd9e8df	-0.1064012
192	0x3c197aeb	0.009367685
193	0xbdc2e297	-0.09515875
194	0x3c85716a	0.016289432
195	0x3e001828	0.12509215
196	0x3ccea458	0.02522485
197	0x3c85db0f	0.016339807
198	0x3dbe3c8c	0.09288892
199	0xbcd69199	-0.026192473
200	0x3d87df0c	0.0663434
201	0x3d25f694	0.04051836
202	0x3c9f6fdb	0.019462517
203	0x3c7a32a4	0.015270863
204	0x3d846fa4	0.06466606
205	0x3d945e31	0.07244528
206	0x3d69d7d2	0.057090588
207	0x3e0b7a9e	0.13620993
208	0x3bbf1f3c	0.005832581
209	0xbd4f1470	-0.0505566
210	0x3d5d7121	0.054062966
211	0x3daf8a59	0.085713096
212	0x3d4d4d70	0.05012268
213	0xbdd1d0f0	-0.1024493
214	0x3dd50ecd	0.10403214
215	0x3dc9a297	0.09845465
216	0x3d94501c	0.07241842
217	0x3db6867c	0.089123696
218	0x3e065dd6	0.13121733
219	0xbde45c59	-0.111504264
220	0x3d6867a8	0.05673948
221	0x3ddd0bc1	0.107932575
222	0x3de3ff2a	0.11132653
223	0x3def664f	0.11689436
224	0x3e0f3fca	0.13989177
225	0x3d8de04a	0.06927545
226	0x3d8e18c6	0.06938319
227	0x3e022426	0.12709102
228	0x3d27995c	0.04091774
229	0x3dfdc542	0.123911396
230	0x3afcda1c	0.0019291076
231	0x3e01c411	0.1267245
232	0x3dd806d9	0.10548181
233	0xbda29492	-0.07938494
234	0x3d5866ac	0.05283229
235	0xbd9541b8	-0.072879255
236	0x3e17777f	0.14791678
237	0xbd2c9972	-0.042138524
238	0x3d3a3401	0.04545975
239	0xbdb2ecca	-0.0873657
240	0xbc32fa97	-0.010924003
241	0x3debeba9	0.11519558
242	0xbcf3ef04	-0.029777057
243	0xbd232572	-0.039830633
244	0x3ce706a6	0.028201412
245	0xbdaf0315	-0.0854551
246	0x3ca6c74e	0.020358708
247	0xbda16558	-0.07880658
248	0x3e140d23	0.14458136
249	0x3cc66591	0.024218353
250	0x3d9b4611	0.075817235
251	0xbd219e28	-0.03945747
252	0xbd3d8757	-0.04627165
253	0x3cf7e0ce	0.030258562
254	0xbd92c67c	-0.07166764
255	0x3df6b28b	0.12045773

net.8.bias f4 [3]
0	0x3d2b7229	0.04185692
1	0x3bf70e0b	0.007539516
2	0xbc895e08	-0.01676847

exp_avg f4 [64, 3]
0	0x37ce3d4b	2.4585655e-05
1	0xb7f9fc34	-2.9800554e-05
2	0xb771acfc	-1.4404995e-05
3	0x376169e8	1.3435703e-05
4	0x38848bed	6.320314e-05
5	0x37339d79	1.0705896e-05
6	0xb7625c4c	-1.3492139e-05
7	0xb69bf16a	-4.6474643e-06
8	0xb7379076	-1.0941285e-05
9	0x366f2236	3.5633689e-06
10	0x36bae525	5.569908e-06
11	0x35f08171	1.7919066e-06
12	0x364a6af1	3.0162594e-06
13	0x37067a82	8.015546e-06
14	0xb50b5fb3	-5.1920796e-07
15	0x37591545	1.293916e-05
16	0x36c0d743	5.7471057e-06
17	0xb715d2dc	-8.930187e-06
18	0x37de018a	2.6465179e-05
19	0xb6d41813	-6.320895e-06
20	0xb7d21226	-2.5042402e-05
21	0x35f9895f	1.8591926e-06
22	0xb804153b	-3.1491025e-05
23	0x36e4bad0	6.8166773e-06
24	0x37b5a81b	2.1655162e-05
25	0x371eeb70	9.472351e-06
26	0x383831b9	4.3915326e-05
27	0x384db6ac	4.9045935e-05
28	0xb6b3aeeb	-5.354979e-06
29	0xb7537cd6	-1.2605646e-05
30	0x360baf27	2.0814566e-06
31	0x37d5f787	2.5506843e-05
32	0xb83371f3	-4.278305e-05
33	0x370c00a0	8.344796e-06
34	0x3778e8d9	1.4836166e-05
35	0xb6f3f745	-7.2707503e-06
36	0xb78ecdfd	-1.702364e-05
37	0xb808370e	-3.24762e-05
38	0x364e0246	3.0697715e-06
39	0x37bf04ac	2.277115e-05
40	0x380c5c33	3.346447e-05
41	0x373d6218	1.1288117e-05
42	0xb76bed69	-1.4062368e-05
43	0xb79e1f7f	-1.8849734e-05
44	0xb666eccb	-3.4410502e-06
45	0xb7eb1d90	-2.802795e-05
46	0xb861e43c	-5.385674e-05
47	0x3759dc27	1.2985466e-05
48	0xb77a4d87	-1.4919212e-05
49	0xb8779620	-5.9029204e-05
50	0x38015ba5	3.0841347e-05
51	0x37165e4f	8.962655e-06
52	0xb778cf89	-1.4830272e-05
53	0xb7283a05	-1.0027089e-05
54	0xb8077edb	-3.230465e-05
55	0x36da3379	6.5028985e-06
56	0xb79a0be3	-1.8363766e-05
57	0x38db7759	0.00010464964
58	0xb8dc925c	-0.00010517679
59	0x38ca5500	9.647943e-05
60	0x37aece75	2.0838555e-05
61	0x3800f361	3.0744242e-05
62	0x37bb952d	2.2361603e-05
63	0x375867b7	1.2898751e-05
64	0xb8225af3	-3.8708513e-05
65	0xb600802f	-1.91481e-06
66	0xb79c863f	-1.8659162e-05
67	0xb4dc48bb	-4.1031112e-07
68	0xb73df541	-1.13223805e-05
69	0x37aa8879	2.032913e-05
70	0x3606ce74	2.0087728e-06
71	0x382430d2	3.9146114e-05
72	0x377bcd0c	1.5008507e-05
73	0x3766f184	1.37653005e-05
74	0xb66d4ad1	-3.53593e-06
75	0x35d8374e	1.610935e-06
76	0x38549c13	5.0690094e-05
77	0x37647fae	1.3619587e-05
78	0x34327382	1.6619563e-07
79	0x34a8c2e7	3.143425e-07
80	0x346b21b0	2.1898336e-07
81	0x36fe09af	7.570917e-06
82	0x36dd6a78	6.598708e-06
83	0x3668ea56	3.4707095e-06
84	0xb883b97d	-6.281117e-05
85	0x3902cefd	0.00012474875
86	0x376b587f	1.4027696e-05
87	0xb72f3be0	-1.0444754e-05
88	0x3766a55f	1.3747572e-05
89	0x36c5586f	5.8813525e-06
90	0xb8afaf17	-8.377263e-05
91	0xb67f7a09	-3.8068995e-06
92	0xb84601c2	-4.7208516e-05
93	0x3742b94b	1.1606443e-05
94	0xb65e73b6	-3.314793e-06
95	0x36be84db	5.6779077e-06
96	0xb616ef39	-2.2490988e-06
97	0xb7a2015b	-1.9312536e-05
98	0x382a5d21	4.061789e-05
99	0xb823bf66	-3.9040482e-05
100	0xb828733e	-4.016165e-05
101	0xb78dcc56	-1.6903661e-05
102	0xb8a946a2	-8.071704e-05
103	0xb710fde4	-8.642182e-06
104	0xb78de05e	-1.6912989e-05
105	0x371866f3	9.083876e-06
106	0xb79d5f4d	-1.8760236e-05
107	0xb604c971	-1.9786787e-06
108	0x33f12ec8	1.12309465e-07
109	0x3486ea4d	2.512992e-07
110	0x3416d003	1.4045513e-07
111	0xb8036636	-3.1328025e-05
112	0xb88934e7	-6.542523e-05
113	0xb7b49f28	-2.1531785e-05
114	0x354f92f4	7.7327354e-07
115	0xb784e766	-1.584338e-05
116	0x37de2187	2.6480075e-05
117	0x336e76b2	5.5521646e-08
118	0xb48b8810	-2.5989766e-07
119	0xb4076ac1	-1.2611692e-07
120	0xb7243cb2	-9.7892935e-06
121	0x3815c30a	3.5706013e-05
122	0x385c5f41	5.25408e-05
123	0x36dd313e	6.592046e-06
124	0xb6869e2e	-4.0119257e-06
125	0xb816e934	-3.5979974e-05
126	0x3335edcb	4.2358618e-08
127	0xb462fcbd	-2.1139836e-07
128	0xb2f62c4a	-2.865831e-08
129	0x38046b51	3.15712e-05
130	0x384f432c	4.9415205e-05
131	0xb65cc6db	-3.2898304e-06
132	0x37899f18	1.6405756e-05
133	0x3721c464	9.642074e-06
134	0x36890125	4.0830514e-06
135	0x393a4b29	0.00017766342
136	0x3887d0d3	6.476198e-05
137	0xb6865072	-4.0028763e-06
138	0xb8477fce	-4.7564325e-05
139	0x3734bf0b	1.0773317e-05
140	0xb83af064	-4.4569737e-05
141	0xb7afddcd	-2.096491e-05
142	0x37b3e9cc	2.1447333e-05
143	0x37f0b62a	2.8695056e-05
144	0x36c868ff	5.9726876e-06
145	0xb40af2d0	-1.2940586e-07
146	0x37200612	9.5381565e-06
147	0xb737ddb4	-1.0959269e-05
148	0x37a127c8	1.921122e-05
149	0xb84deb13	-4.909474e-05
150	0xb6d3e2bc	-6.3146854e-06
151	0xb6f906d6	-7.421574e-06
152	0xb74c6a03	-1.218403e-05
153	0x372b8718	1.0223848e-05
154	0xb70ecb2c	-8.511164e-06
155	0xb7df48d4	-2.6617585e-05
156	0x362c4baa	2.567404e-06
157	0xb788bc99	-1.6300286e-05
158	0x370e61ca	8.486628e-06
159	0x37889035	1.6279615e-05
160	0x3742deb2	1.1615151e-05
161	0xb5e838d2	-1.7301884e-06
162	0xb83e13ee	-4.531809e-05
163	0x37b1a23f	2.1175596e-05
164	0xb7464df8	-1.1819873e-05
165	0x385e0a8c	5.2938747e-05
166	0xb8976373	-7.218765e-05
167	0x38293513	4.034217e-05
168	0x36c37bc0	5.8258593e-06
169	0xb7ba925f	-2.2241087e-05
170	0x383386ea	4.2802574e-05
171	0xb71f92d5	-9.5113255e-06
172	0x37ced0df	2.4654377e-05
173	0xb84e780c	-4.922603e-05
174	0xb81d864f	-3.75568e-05
175	0xb7d65774	-2.5551511e-05
176	0x3679d5e4	3.7228392e-06
177	0xb8034e57	-3.1305794e-05
178	0xb66a5b37	-3.4921811e-06
179	0x37dd0122	2.634578e-05
180	0xb6a42ae6	-4.892575e-06
181	0xb7fb245d	-2.9938465e-05
182	0xb764c4ba	-1.3635663e-05
183	0xb729c6ca	-1.0119469e-05
184	0x35cbbb43	1.5179179e-06
185	0x378cac70	1.6769598e-05
186	0x32bb7ed8	2.1827347e-08
187	0x342cdca8	1.6099023e-07
188	0x3394f10a	6.935632e-08
189	0xb6ba6610	-5.5551136e-06
190	0xb8200098	-3.8147526e-05
191	0xb5c6ec61	-1.4820945e-06
