new_saved_models/data_guitar_audio_d5_g2_it2.pt (torch, 947641 bytes, 36 tensors)

net.0.weight f4 [64, 3]
000000 2a af 0d 3e 6e 37 69 be 6e 87 26 bf d4 3a 1b 3d
       0.13836351 -0.22775051 -0.650504 0.0378979
000010 62 c7 eb 3e 8b 78 36 bd 86 1b 3d be dc 63 0f 3f
       0.46050555 -0.044548552 -0.1846753 0.5601175
000020 92 c8 e6 3e e1 b0 70 be ee e3 37 3d e6 80 3b be
       0.45074898 -0.23504974 0.044895105 -0.1831089
000030 42 db 1b 3f c5 4f fb be 31 8a 81 3e c9 24 6a be
       0.60881436 -0.49084297 0.25300744 -0.22865595
000040 b9 eb e3 3e 42 70 c0 be e2 1b fe be ae 1e d4 be
       0.4451578 -0.37585646 -0.49630648 -0.41429657
000050 52 12 b5 be 1a 89 92 be 8f 30 d7 3d 7a d3 1b 3e
       -0.3536554 -0.28620225 0.10507309 0.1521739
000060 ea 05 50 3d a2 55 7d be 1d 86 e6 be 77 3e 63 be
       0.05078689 -0.24739698 -0.45024195 -0.22191797
000070 5b 38 14 3f 7a b6 2a 3e 8c 30 66 be 10 a4 12 3f
       0.5789849 0.16671172 -0.22479457 0.5728159
000080 8b f0 9e be 86 34 0d 3f ce 5c 0d bf 79 5f b4 be
       -0.31042895 0.5515827 -0.55219734 -0.3522909
000090 00 0c 0f 3e 89 c3 f6 be 2c 7f bb bd 02 f6 a3 3d
       0.13969421 -0.48196056 -0.091551155 0.08005907
0000a0 10 ac 17 bf 31 c0 5c 3d 46 b8 98 be 7b cc 09 3f
       -0.5924692 0.053894226 -0.2982809 0.5382764
0000b0 70 69 71 be 84 1e 05 bd 50 fd b3 be e6 96 ef be
       -0.23575377 -0.032499805 -0.351542 -0.46794814
0000c0 10 a8 e0 be d8 9b 13 be a4 1a 98 be ac 7e dd be
       -0.43878222 -0.14414918 -0.29707825 -0.43260705
0000d0 d4 17 05 3f 7f 0a 96 be 4b c9 a2 3d 62 ba 02 bf
       0.51989484 -0.29304883 0.0794855 -0.5106565
0000e0 a5 be 36 3e ea 6f 19 be e2 97 cc be e6 78 17 3f
       0.17846163 -0.14984098 -0.39959627 0.5916885
0000f0 01 dc 29 be db e0 d8 3d 1e 29 08 3f 20 8d e3 3d
       -0.16587831 0.10589763 0.5318774 0.11110902
000100 63 c0 05 3e cb 95 e2 be 5a 1c 80 3e 12 76 75 3e
       0.13061671 -0.44254908 0.2502163 0.23970821
000110 c8 85 df 3e 57 71 7c bd f9 bf 22 3f ea 6f fc bb
       0.43656754 -0.061631527 0.6357418 -0.007703771
000120 e1 ba 4d 3e 0e 05 00 3f a9 5b a5 bd 58 1c b1 be
       0.2009082 0.5000771 -0.080741234 -0.34591937
000130 38 b1 c6 be fb 5e af be 6d 78 6d be d0 27 dd be
       -0.38807082 -0.34252152 -0.2319047 -0.43194437
000140 51 2c bb be 2d cb b9 be fc 11 e2 3e 3e 2e d6 be
       -0.36557248 -0.36287823 0.44154346 -0.41832155
000150 15 58 41 3e 05 6b ba 3c fb 27 58 be 52 2c 07 bf
       0.18881257 0.022756109 -0.21109001 -0.52802
000160 80 b5 10 3f 71 36 dc bd b5 2a 17 bf d3 ad bb be
       0.5652695 -0.107525714 -0.5904954 -0.36656055
000170 fa a0 0d bb b1 1d 0b 3f 59 f1 b4 3d fd 2b b3 bc
       -0.0021610842 0.5434218 0.08835096 -0.021871561
000180 c0 7a d7 3e de 88 a6 be a7 37 3f 3e 8d 3e 8b 3e
       0.42085838 -0.32526296 0.18673573 0.2719616
000190 29 23 20 be b2 ca 50 bc b6 b4 58 be e2 c6 b2 be
       -0.15638413 -0.012743639 -0.21162686 -0.3491736
0001a0 ef 9e 03 3f e9 92 a4 be 62 6a d5 be 54 56 03 bf
       0.5141439 -0.32143334 -0.41682726 -0.513036
0001b0 ba e9 11 bf da 1d a2 3e a9 9b 13 bf 55 71 24 3e
       -0.56997263 0.316634 -0.57659394 0.16058858
0001c0 17 78 4d 3e af 6e 0f 3d 95 2b 23 be 28 3d 60 be
       0.20065342 0.035017665 -0.15934594 -0.2189833
0001d0 cd c3 a0 be b3 ce dc 3d 76 f6 98 be a0 7a 0a 3f
       -0.31399384 0.10781612 -0.29875535 0.5409336
0001e0 eb 55 9e be e0 4a 5c 3e f0 03 93 3e 37 83 8d be
       -0.30924925 0.21512938 0.28713942 -0.2763917
0001f0 1b 9d b3 3d 7d e2 10 be 5e 98 d9 be 44 47 02 be
       0.087702 -0.14148898 -0.4249906 -0.12722498
000200 4a fc ac 3e c3 0f 08 3f c0 12 47 3e df 94 13 3f
       0.3378623 0.5314905 0.19440746 0.57649034
000210 d2 34 13 3f 56 d9 8e 3e d5 d1 43 3e d8 68 bc bd
       0.5750247 0.2790019 0.19123013 -0.09199685
000220 39 5f e7 3e da ed 41 3e 35 6f d8 3d 24 ba ea 3e
       0.45189837 0.1893839 0.10568086 0.4584514
000230 ce 55 f0 be 40 02 b1 3e 81 a2 e5 bd 45 36 0c bf
       -0.46940464 0.3457203 -0.11212636 -0.5477031
000240 a4 80 39 3e 7c cd 11 bf ca ec ed 3d 62 bb 0f bf
       0.18115479 -0.5695417 0.116174296 -0.561453
000250 e3 b6 43 3e 07 5f 97 bc 2d 7a 21 bf f0 e5 e7 3e
       0.19112734 -0.01847793 -0.6307705 0.45292616
000260 a0 67 ae be 65 58 d2 3e cb bb 0e 3e ee 25 fa bd
       -0.34063435 0.41083065 0.13938825 -0.12214266
000270 08 f6 d6 3e e1 81 be 3d ab 85 72 bd 8d b3 8a 3e
       0.41984582 0.09302116 -0.059209507 0.2709011
000280 1c b4 07 bf e1 27 04 bf 6f 30 0f bf cb e1 03 3f
       -0.530092 -0.5162335 -0.5593328 0.5151641
000290 09 b9 11 bf aa 7e 10 bf 9e d4 03 3f f4 e4 4b bc
       -0.56922966 -0.56443274 0.51496303 -0.012444723
0002a0 04 f5 8a 3e 40 a9 22 3f 49 1f f2 be ef 92 31 be
       0.27140057 0.63539505 -0.47289494 -0.17341207
0002b0 5d 91 bb be 21 14 b6 3e cb ff 56 3e 45 e7 83 3e
       -0.3663434 0.35562232 0.20996015 0.25762382
0002c0 8a 69 75 be 26 80 80 3e b4 5f 73 3e 8e f7 a7 be
       -0.23966041 0.2509777 0.23766977 -0.32806057
0002d0 84 d7 0d 3f 35 53 f8 be 06 82 29 3e 56 5c 94 be
       0.55406976 -0.48500982 0.16553506 -0.28976697
0002e0 a7 8d 16 be 80 b0 9f be 90 26 50 3e c6 d1 a8 be
       -0.14702474 -0.31189346 0.2032721 -0.32972544
0002f0 72 a5 0b be 5c 98 ff be 3d 05 1a 3f a3 e8 45 3d
       -0.13637331 -0.49920928 0.60164243 0.048317563

net.0.bias f4 [64]
000000 63 06 b5 3d 41 95 c5 3c f9 64 00 bf 25 f9 03 3d
       0.08839109 0.024119021 -0.5015407 0.032220025
000010 09 f8 10 3f 60 54 fa bd 98 23 21 3e c2 74 9d bd
       0.5662847 -0.122231245 0.15736234 -0.076882854
000020 8a 69 ae bd 5f 3f e5 bc 32 66 00 3f b2 50 d7 3d
       -0.08516224 -0.02798432 0.5015594 0.10513438
000030 16 30 b6 3e e7 5e 0d 3d 71 6f 0c bf 86 1c 09 be
       0.35583562 0.034514334 -0.54857546 -0.13389787
000040 e2 80 e5 bc c4 70 fb be 2c 5d a5 bd 3a 7b 27 bd
       -0.028015558 -0.4910947 -0.08074412 -0.040889002
000050 29 02 cf be 67 50 0c bf eb 07 81 3d d2 bb 2b bd
       -0.40431336 -0.54810184 0.06300338 -0.041927166
000060 72 4c ef 3c da 4d 08 3f de 46 f5 3e 33 4a 44 be
       0.029211257 0.5324379 0.4790563 -0.1916893
000070 07 e4 83 3e 20 00 54 3e 88 e3 a0 3e f1 7b 3a be
       0.2575991 0.20703173 0.31423593 -0.18211342
000080 28 3a af 3d f3 a4 e1 bc a5 46 f0 3e da bb 8c 3d
       0.08556014 -0.027544474 0.46928898 0.06871767
000090 56 3d d1 3c 02 c2 11 bf 47 d4 80 be c6 b6 65 3e
       0.025541943 -0.5693666 -0.25161955 0.22433004
0000a0 e6 1a c2 3e 34 cd a5 3e fc be be 3e ba a7 c8 3e
       0.37911147 0.3238312 0.37255085 0.39190465
0000b0 cd 9e a8 3e 13 97 09 3e d3 83 f2 3e 25 f0 75 3e
       0.32933655 0.13436536 0.473662 0.24017389
0000c0 05 49 42 bd 4e 8a 08 bf 8c 51 27 be a8 47 47 be
       -0.047432918 -0.53336036 -0.16339701 -0.19460928
0000d0 06 a7 d3 3e 2d 6f 92 bc fb 89 db be 4f 6f 1d bf
       0.41338366 -0.017875278 -0.42878708 -0.6149797
0000e0 c3 22 0b 3d 6f fd f0 3e 2d c8 e1 3e dd 73 96 3d
       0.0339687 0.47068354 0.44098035 0.07346318
0000f0 cf 32 04 bd aa 03 71 be 49 c9 7a be 4e bd ae be
       -0.032275017 -0.23536554 -0.24490847 -0.34128803

net.2.weight f4 [64, 64]
000000 80 1c c4 bb f0 a7 12 bd f8 d6 a0 3d 64 9e 5f bd
       -0.005984843 -0.03580469 0.07853502 -0.054594412
000010 18 5a 9d bd 0a 79 b1 3d da 31 e0 bd f8 00 05 bd
       -0.076832 0.086656645 -0.109470084 -0.032471627
000020 d0 fe 22 3d ac ba 85 bd 18 06 0c bd 44 7e 6c bd
       0.03979379 -0.065297455 -0.0341855 -0.057737604
000030 50 cc d2 bc d8 ad 3a 3d 7c c8 52 3d b4 eb a8 3d
       -0.02573219 0.045575947 0.051460728 0.08248082
000040 80 ee 20 bd 9e 9d 93 bd 40 86 ea 3b 00 c5 78 3c
       -0.03928995 -0.072077975 0.007157117 0.015183687
000050 00 15 b3 3d f6 bf 90 3d c2 86 bd bd 40 d9 6f 3b
       0.0874424 0.07067864 -0.09254219 0.0036597997
000060 4c 5b cc 3d f6 a2 f5 3d 00 46 ca 39 b8 62 1f bd
       0.09978351 0.11993973 0.00038580596 -0.038912505
000070 a8 d4 ff 3c e6 ad b6 bd 1c ba 8c 3d 8c ac 4f 3d
       0.031229332 -0.08919887 0.06871435 0.050701663
000080 20 b3 36 3d 78 08 9f bd 80 f3 6d 3c 70 39 e2 bd
       0.04460442 -0.07765287 0.014523387 -0.110461116
000090 b8 50 47 bd b0 d1 87 bc 98 90 83 3c 60 fc 7f 3c
       -0.048660964 -0.016579479 0.016060159 0.015624136
0000a0 aa 65 a8 bd c0 cb ed 3b d0 4f 8c bd 80 e7 f1 3b
       -0.08222516 0.007256955 -0.068511605 0.0073823333
0000b0 4c ed c8 bd fc b2 35 bd 1c 19 d6 bd e2 d9 f9 bd
       -0.09810886 -0.044360146 -0.10454008 -0.12199761
0000c0 0a 8b ad bd d2 90 aa 3d d0 ca e4 3d a0 bb 83 3b
       -0.08473785 0.083284035 0.11171496 0.0040201694
0000d0 40 bb be bd 20 fd cc bc 94 a3 c6 bd bc 2b ec bd
       -0.09313059 -0.025023043 -0.09699169 -0.11531779
0000e0 f2 e7 a9 bd 44 7e 2b bd 74 0b cb 3d 98 22 b2 3c
       -0.08296193 -0.041868463 0.09914294 0.021745011
0000f0 f0 b3 c0 3d 46 86 84 bd 5c e7 16 3d b6 d2 b1 3d
       0.0940932 -0.06470923 0.036841735 0.08682768
000100 61 12 34 bd 6a 9d 17 3e 3b aa b1 bd ef 35 0d be
       -0.04396284 0.14806142 -0.08675047 -0.13790105
000110 6e c4 bd bd 67 81 eb 3d 58 2e b7 bc 77 94 33 bd
       -0.092659816 0.11499291 -0.022360966 -0.04384276
000120 cf 6e ae bd 64 15 93 bd 2d 63 8c bd 0f 4e 81 3d
       -0.08517229 -0.07181814 -0.06854854 0.063137166
000130 11 47 e1 bd 35 85 89 3d 62 d4 19 3e ff 5b 94 bc
       -0.10999883 0.0671486 0.15022424 -0.018110273
000140 0e 4c ff 3d 2f 31 86 3d 96 2d 03 3e 81 b4 4f bd
       0.12465678 0.0655235 0.12810358 -0.05070925
000150 56 62 2a 3d 10 aa f8 3c 50 40 ca bd 8f 57 d9 3c
       0.041597687 0.03035453 -0.09875548 0.026531009
000160 82 9b f0 bc 01 86 d6 bc 66 da de bd 1d 75 10 bd
       -0.029371027 -0.026186945 -0.108815 -0.035267938
000170 86 9c 90 3b 21 ae e6 bc c1 96 63 bd f3 0c 14 be
       0.0044131903 -0.028159203 -0.055563692 -0.14458065
000180 02 9a ac 3d 30 a3 b5 bd 23 4d eb 3d c5 5a 00 3d
       0.08427812 -0.08869016 0.11489322 0.031336565
000190 61 97 bf bd 1c 75 ca bd ca 54 f9 3d 1e 7a 95 3d
       -0.09355045 -0.09885618 0.12174375 0.07298683
0001a0 80 6a 9a 3d 72 12 ec 3d 10 a7 1c 3d ae 9d d3 bd
       0.075398445 0.11526956 0.03824526 -0.103328094
0001b0 04 c9 bb 3d 3d a0 aa 3d fe ec 22 bd 30 5d bb 3d
       0.091692 0.08331344 -0.039776795 0.091486335
0001c0 ff f5 48 3d c0 92 a0 3b 92 ff 22 3d 55 b9 06 bd
       0.049062725 0.0049003065 0.039794512 -0.03289159
0001d0 a1 5e 14 3c 9b 84 ff 3d 16 d7 88 3d 3d 1b 03 bd
       0.009055764 0.12476464 0.066816494 -0.0320084
0001e0 5b 66 a9 3d 34 a8 7d 3b c7 c5 d7 3c da bf 15 3e
       0.08271476 0.0038704993 0.026339425 0.14623967
0001f0 de ae fb 3d 0c ff fa 3c b3 f2 a1 3d f8 fe a7 3c
       0.12289213 0.030639194 0.07907619 0.02050732
000200 4b 5e be bd d5 8d 18 bd a3 a5 ac bd 80 e5 b3 3b
       -0.09295329 -0.037244637 -0.0843003 0.005490005
000210 03 4b 94 bd 27 d0 13 3e 51 b7 5b bd d4 f2 42 3e
       -0.0724087 0.14434873 -0.05364162 0.19037944
000220 7c 6e 86 bd b5 6b 01 3e 9c 23 24 3d 83 bc 81 bd
       -0.06564042 0.12638743 0.040073022 -0.06334784
000230 64 69 09 be fe e1 cf bb ef 30 79 bd f3 5c 83 3d
       -0.1341911 -0.006344079 -0.060837682 0.06414213
000240 89 b5 24 3d 40 4b 68 3d 7d fe 1b bc 24 5d 32 3d
       0.040212188 0.05671239 -0.009521124 0.043545857
000250 c5 b7 d5 bd 4a d7 ab 3d 99 71 18 3e 47 00 f4 3d
       -0.10435442 0.083906725 0.14887084 0.119141154
000260 5a 45 a2 3d 45 fe f8 3b 26 8a 7c bd a2 98 c4 bb
       0.07923384 0.0075986707 -0.061655186 -0.0059996406
000270 89 4a 04 3c df da 86 bc 9a a0 ca 3d b5 6d 9c 3d
       0.008074411 -0.016461788 0.098939136 0.076381125
000280 2b 59 06 3d e3 50 97 bc 49 d5 45 3d fa 7d 81 3c
       0.03279988 -0.018471187 0.048299108 0.01580714
000290 38 43 9e bc 06 e2 eb bd d7 4b 25 bd 2e 46 60 ba
       -0.019319162 -0.1151772 -0.04035553 -0.00085553795
0002a0 7d 7d e3 3d 67 47 38 3d f4 9e f6 3c 1a 69 ef 3d
       0.11107919 0.04498997 0.030105092 0.116899684
0002b0 67 a4 04 3e f0 8a d8 3c 66 3f f1 3d 27 47 bd 3b
       0.1295334 0.026433438 0.117796704 0.0057763043
0002c0 4e 1e db 3d 3a 58 8b 3d 3b 2c 55 bd 59 4c bd 3c
       0.106991395 0.06803937 -0.052044135 0.023107694
0002d0 3c f0 97 bd 95 c5 d0 3c fb a1 ee ba d5 34 71 bd
       -0.07418868 0.02548484 -0.0018206233 -0.058888275
0002e0 45 c9 46 bd 5e 9f 61 bd c4 f4 95 bd 2a bb 53 bd
       -0.04853179 -0.055083625 -0.07322076 -0.051692165
0002f0 f8 4c 04 be ff 72 2e bd 86 9c e4 3d 28 2d 81 bd
       -0.12919986 -0.042590138 0.11162667 -0.06307441
000300 ea 00 60 3d a0 70 9a bd 26 79 0c bd ee 4d 4e bd
       0.05468837 -0.07541013 -0.034295224 -0.05036729
000310 8d 9b d0 3d 93 ff 40 3e 1a 11 71 bc b3 c5 b9 bd
       0.10185919 0.18847494 -0.01471355 -0.09070911
000320 ee 15 c2 3d eb bb ff 3c 84 e5 61 3d 19 bc 7a bc
       0.09476839 0.031217536 0.055150524 -0.015303635
000330 b7 64 b4 3c 79 3a cc bb bf 6d 24 3c d0 de ca 3d
       0.02202068 -0.0062325564 0.010035931 0.09905779
000340 c4 61 fa bd c2 d7 12 3e 98 89 11 3e 5a ed 8b 3d
       -0.122256786 0.14340118 0.14212644 0.068323806
000350 7b 67 31 3d fc 73 a5 3d 93 dc 5e 3d 54 d5 70 bc
       0.043311577 0.08078763 0.054409575 -0.014699299
000360 af e1 09 3e 4b 63 7f 3d 78 fb d5 3d 6e 24 67 bd
       0.13464998 0.062350553 0.104483545 -0.056431226
000370 4f 29 17 bd 0b 8e 9d bc 21 fb fe 3d c4 92 ea 3d
       -0.03690463 -0.01923277 0.12450243 0.114537746
000380 ea 22 a8 bc 60 38 19 3e f1 59 d0 3d b1 fc cd bd
       -0.02052446 0.14962912 0.10173405 -0.10057963
000390 4d 67 98 bd 40 96 12 bc e8 e2 f2 bd a1 aa 6e bd
       -0.07441578 -0.008946955 -0.11859685 -0.058268193
0003a0 8c ef eb 3d a1 c5 d5 bd b8 6b ae 3d 7d aa 1c 3d
       0.11520299 -0.10438085 0.085166395 0.038248528
0003b0 ea 70 ce 3d d8 60 f7 3d 5c 03 86 bd 9a 4c 19 be
       0.100801304 0.12079018 -0.065436095 -0.14970627
0003c0 c1 92 42 3d 5c f8 41 3d e7 f0 4b 3d b5 a7 4a bd
       0.047503237 0.047355995 0.04979029 -0.049476344
0003d0 e0 50 d6 bd cd 18 3e 3d 80 e8 71 3e e2 62 70 3d
       -0.104646444 0.04641037 0.23623848 0.058688052
0003e0 d0 ca a4 3b 93 36 f6 3d 5c ad a2 bd 17 6d c1 bd
       0.00502906 0.12022128 -0.07943222 -0.09444635
0003f0 62 d8 42 3d cc 31 f0 3c d8 8a 8d 3d 68 07 2e bd
       0.04756964 0.02932062 0.06911248 -0.042487532

net.2.bias f4 [64]
000000 08 e9 84 3c 5e 00 0f 3d 6b dc 02 3e 36 49 b1 3d
       0.0162244 0.03491246 0.12779395 0.08656542
000010 a5 0c 72 3d 44 73 b8 3d d4 f1 27 bd 40 3f e0 3b
       0.05909409 0.0900636 -0.04100211 0.0068434775
000020 d0 7d 5b 3d bc 87 44 bd 03 9f 12 3d fd e8 06 be
       0.05358678 -0.04798101 0.035796177 -0.13174815
000030 d4 b5 9a bd 74 94 2f bd 90 96 a5 3d df b9 d6 bd
       -0.07554212 -0.042866185 0.08085358 -0.10484671
000040 cc 7e c2 bd 0f 5f e9 3c 76 76 00 3e 71 bf 7b 3d
       -0.09496841 0.02848771 0.1254519 0.06146187
000050 68 5b 7d bd 68 34 10 bd e8 a4 38 bd bb 0e 06 3d
       -0.06185475 -0.03520623 -0.04507914 0.03272889
000060 fe 2b e9 3d ba 91 0e 3d b0 45 00 bd 5b cc 25 bc
       0.11385344 0.034806944 -0.03131646 -0.010119523
000070 10 68 a4 3d fc 3f a4 bd d2 ca 8b bd b0 1f c0 bd
       0.08027661 -0.080200166 -0.06825794 -0.09381044
000080 57 d4 af bc 7c cf 0e bd 60 4b 37 bc af 3f 88 bd
       -0.021463556 -0.03486584 -0.011187404 -0.06652772
000090 c0 38 ed 3d bc 3b a9 bd c3 dc 37 3d ae 40 b1 bd
       0.1158309 -0.082633466 0.04488827 -0.08654915
0000a0 7d b4 db bd 27 19 1e bd 5e a3 b6 bd fe 57 ef bd
       -0.10727785 -0.038598206 -0.089178786 -0.11686705
0000b0 9e 4c 02 3e a1 03 da bd 0e bd df bd b1 2b 84 3d
       0.1272454 -0.106452234 -0.10924731 0.06453646
0000c0 99 3d 80 bd 38 b5 db bc 96 82 c4 bd 6e dc f5 3d
       -0.06261749 -0.02681981 -0.0959522 0.12004934
0000d0 40 c7 6f 3d e0 7e eb 3c 4a c9 20 bc 6a 56 93 bd
       0.05853963 0.028747022 -0.009813616 -0.071942165
0000e0 c9 1d 06 bd a3 18 df 3d a0 96 e7 bb c9 f4 8d 3d
       -0.03274325 0.10893371 -0.0070675164 0.06931455
0000f0 51 12 50 bb 42 fb 1e bd 21 1d 89 bc 94 8a 78 bd
       -0.0031749199 -0.038813837 -0.016737523 -0.060679033

net.4.weight f4 [128, 64]
000000 00 e5 07 ba 2a 57 5b 3d 44 93 ca bc af 70 76 3d
       -0.0005183965 0.053549923 -0.024728425 0.060166057
000010 f6 d0 2a bc 78 5c c2 bd 50 aa f7 3d 00 f7 7b bb
       -0.010425797 -0.09490293 0.120930314 -0.0038446784
000020 48 e3 ad 3d 14 96 dd bc f7 a9 53 3e 81 ea c5 be
       0.08490616 -0.027049102 0.20670305 -0.38655475
000030 be b6 14 bd 10 90 26 bc b8 c2 b8 bc 9d a5 91 3d
       -0.03630709 -0.010166183 -0.022553787 0.07111666
000040 ef 70 e8 3d 94 24 76 be ae 2d 2d 3e 27 74 ec bd
       0.113496654 -0.24037391 0.16911957 -0.11545592
000050 88 bb a8 bc 45 46 d9 3c 7b 93 9a 3d 66 43 f3 3d
       -0.020597234 0.026522765 0.07547661 0.118780896
000060 5b ff 02 3d 6f fe e1 3c 11 05 00 3e d1 59 87 3d
       0.031981807 0.027587144 0.12501933 0.06608928
000070 67 2b 7c 3d c7 9c 11 3e 00 a3 35 bd c0 26 ba bc
       0.06156483 0.14219962 -0.044344902 -0.022723556
000080 b5 57 75 bc a5 9e 5f bd d8 c7 f4 bd b6 0d 5a bd
       -0.014974524 -0.054594655 -0.1195218 -0.053235732
000090 a1 da 44 bd 77 cd b8 bd 66 87 98 3d 2c 51 6d bc
       -0.048060063 -0.09023564 0.074477 -0.014484685
0000a0 ea 68 0c 3d 92 ec 2e 3e 70 f8 b4 bc a4 cb 3a 3d
       0.03427974 0.17082432 -0.02209112 0.045604363
0000b0 81 df e1 bd 5a ed d0 3d 40 b4 2b be 9e be 2d bd
       -0.11028958 0.10201521 -0.16767979 -0.042418115
0000c0 9e 00 c3 bd c4 20 06 3e f8 58 cb bd 03 d6 cf bd
       -0.09521602 0.13098437 -0.09929079 -0.10148241
0000d0 5f af b2 be 47 c2 3d 3b b8 8c 8a 3e 67 8d ab bd
       -0.34899423 0.002895491 0.27060485 -0.0837658
0000e0 02 9b b3 bd 13 64 57 3d c0 c7 09 3b 0f 0c 9b bd
       -0.087698 0.052585673 0.0021023601 -0.07570659
0000f0 86 22 14 3d e0 eb b3 3b a2 88 9b 3d d8 95 97 bd
       0.036165737 0.005490765 0.0759442 -0.07401627
000100 7e ca f6 3d b4 d2 bb 3d e1 c4 36 bd 5a ea 59 3d
       0.12050341 0.09171048 -0.044621352 0.05320201
000110 9d ca ba 3d a3 c7 eb bd f8 bd aa bd 84 ed 0b bd
       0.09120677 -0.11512687 -0.08337015 -0.03416206
000120 18 7a 8d 3d 23 06 aa bd df 9a e1 3d a4 64 c8 3d
       0.06908053 -0.08301952 0.110158674 0.09784821
000130 af 87 30 bd 40 27 f6 3b 69 5f d7 3c ee 21 0e 3e
       -0.043098148 0.007512003 0.026290612 0.1388013
000140 97 95 fd 3d 30 3e dd 3d 57 c9 c1 bd ed d2 24 bd
       0.123820476 0.10802877 -0.09462231 -0.040240217
000150 50 8d a8 bd 48 e7 49 3d 75 8c 01 bd e5 c4 d9 3d
       -0.08230078 0.049292833 -0.03162809 0.10633258
000160 d6 fd 2a 3d 69 a9 39 bd b0 9c dd 3d 2a 1c 78 bd
       0.041745983 -0.045327578 0.108209014 -0.060573734
000170 47 dc 2b 3d 71 84 ea bd 20 ce a3 3d 92 5b d2 bd
       0.04195812 -0.114510424 0.079982996 -0.10271372
000180 a7 c1 c9 3d 77 c3 fd 3d 5b 3b 63 3d c1 31 d6 3d
       0.098513894 0.123907976 0.055476528 0.104587086
000190 8d 63 9f bc 54 cb da bc b9 45 83 bd f5 12 5e 3c
       -0.01945665 -0.026708283 -0.06409783 0.013554324
0001a0 31 f1 95 bc 3c ec f5 3d fe 5c fc bd 7d 6f c8 3d
       -0.018303486 0.12007949 -0.12322424 0.0978689
0001b0 05 67 9e 3d 07 75 94 3d 84 8a 4e bd 2e b0 40 3d
       0.07734493 0.07248884 -0.050425068 0.047043018
0001c0 70 77 43 bd bb 2a e2 3c 8c f1 c4 bd 2c 78 e9 3d
       -0.047721326 0.027608266 -0.09616384 0.11399874
0001d0 20 5c 6d bd 88 dc 8f bd 00 c4 8b bc 57 14 bb bd
       -0.057949185 -0.07024485 -0.017061234 -0.09134739
0001e0 1c e2 03 bd de b0 d5 bd d0 4d bb 3c 1e f1 75 bd
       -0.032198057 -0.10434125 0.022864252 -0.0600444
0001f0 51 04 c0 3d 0c 0e d4 3d 30 94 52 bd 10 8a 7a bd
       0.09375823 0.10354242 -0.051410854 -0.061166823
000200 52 52 c2 3d f9 e4 80 3c 32 fe 7f 3d 1c 58 0d 3e
       0.094883576 0.015734183 0.06249828 0.13803142
000210 60 46 44 bd f7 6a 9f 3d 54 d3 bb 3d c8 d7 e0 3c
       -0.047918677 0.07784074 0.09171167 0.027446643
000220 ee 9d 78 bd b6 fd ed bc 25 ee be 3d a1 f7 6e bc
       -0.06069749 -0.029051643 0.09322766 -0.0145854065
000230 f5 9e aa 3d 24 a4 66 bd ea fb 5e bd e9 33 de 3d
       0.083311 -0.05630888 -0.054439463 0.10849745
000240 68 47 99 bd ae a7 c8 bd 40 37 23 bc c0 d4 8d 3c
       -0.07484323 -0.09797607 -0.009961903 0.017313361
000250 c2 50 98 bd 40 0d c1 bd e2 7e 81 bd 73 e2 6b bd
       -0.07437278 -0.09426355 -0.06323029 -0.057589006
000260 24 73 24 be 7f 2b 95 bd c9 a1 6c 3d b4 e1 23 3d
       -0.16059548 -0.07283687 0.057771478 0.04001017
000270 93 3f 50 3d 88 6e b9 bc 20 44 57 bd d1 b1 ae bd
       0.05084188 -0.022635713 -0.052555203 -0.085300095
000280 a6 07 b5 bc eb ce 5a ba 5b 5f 1b bd df 19 05 3d
       -0.022098374 -0.0008346873 -0.037932735 0.032495376
000290 d2 42 3a 3e c3 ce 00 3e 7b 0e d3 bc 11 4b d5 3d
       0.18189552 0.12578873 -0.02576374 0.104147084
0002a0 57 a8 ec 3c 9b 93 8e bd 90 82 c3 3c 4a e3 17 be
       0.028888864 -0.06961747 0.023865968 -0.14832798
0002b0 d7 54 bb 3d 78 c7 2e 3d 3b 89 5f bd fd 32 b4 3d
       0.09147041 0.042670697 -0.054574233 0.08798788
0002c0 92 12 86 bd 11 d4 97 bb a4 de d4 bd 9b 1e 2a bd
       -0.06546511 -0.0046334346 -0.10394028 -0.041533094
0002d0 86 91 3b 3d 9f cb d8 bd e8 6c 10 bd 2e 2f 79 bd
       0.04579308 -0.10585713 -0.03526011 -0.06083601
0002e0 d9 22 2c 3d 9f ee 0a 3e a0 69 9b 3c 7b 94 9a bd
       0.04202542 0.13567589 0.018971264 -0.07547852
0002f0 15 5f ac bd 86 94 b1 3d 03 da 1d be 24 21 01 bd
       -0.08416573 0.08670907 -0.15415196 -0.031525746
000300 08 58 fc 3c 1c 05 d5 bd 3b 90 b1 bd 52 bc d5 3d
       0.030803695 -0.10401365 -0.08670088 0.1043631
000310 f7 8d 8b 3d 87 f8 1d bb 20 a5 a4 3c 40 b1 f3 bb
       0.06814187 -0.0024104433 0.020098269 -0.0074369013
000320 87 85 d1 3c e8 a1 37 3d eb 13 d6 bd 78 cd b2 3c
       0.025576366 0.04483214 -0.10453018 0.02182649
000330 f3 54 30 bc e0 08 5f bc 37 ad 3c 3d bc e8 05 3e
       -0.010762441 -0.013612956 0.046063628 0.13077062
000340 10 a7 d5 3d 30 73 41 bd 2e 01 c2 3b f3 68 b9 3d
       0.10432255 -0.047228992 0.005920551 0.090532206
000350 08 81 f7 bd 9b 8f 27 3e 5d 95 21 3e af 67 84 bd
       -0.12085158 0.16363375 0.15779634 -0.064650886
000360 6b 20 b1 bd 18 31 7b bd b3 cd c4 bc e5 96 39 bd
       -0.08648761 -0.061326116 -0.024023866 -0.04530992
000370 73 74 01 3d 7f ad 09 be c4 58 5a 3d fa b9 b3 bd
       0.031605195 -0.1344509 0.05330731 -0.087757066
000380 1c a2 30 3d a4 a2 6e bc 03 ec b3 bd 25 78 c4 3c
       0.04312335 -0.014565144 -0.0878525 0.02398307
000390 c2 89 f5 bd de 39 75 bd e7 54 9a bc ab 34 5f 3c
       -0.11989166 -0.05986964 -0.018839313 0.013623397
0003a0 a6 03 ae bd 46 b7 f1 bd 30 ec f9 bc aa 32 e1 bc
       -0.0849679 -0.11802535 -0.03050813 -0.027489979
0003b0 8f 84 67 bc 69 8b bf 3d f8 0e 8b bd 10 34 02 be
       -0.0141307255 0.09352762 -0.067899644 -0.12715173
0003c0 57 90 c1 3b fd be e8 bc 5c c1 de 3d f3 85 fd bd
       0.005907099 -0.028411383 0.10876724 -0.123790644
0003d0 1c 85 89 bd d5 72 82 3c 1a 9b 29 3d 1c bc e9 bd
       -0.06714842 0.015923897 0.041407682 -0.11412832
0003e0 9f dc cf 3c a5 4c b8 3c d8 97 cc 3c c2 6c e7 3d
       0.025373755 0.022497484 0.024974748 0.11300041
0003f0 81 c7 07 3e 60 88 65 3d c3 d9 02 3e d8 04 1f bc
       0.13259698 0.05603826 0.12778382 -0.009705745

net.4.bias f4 [128]
000000 9a de b4 bd 41 3a d5 3d 4e 8c 3c 3d 3d 12 e3 3d
       -0.088315204 0.10411502 0.046032242 0.11087463
000010 50 c2 fb bd ea 70 88 3c e2 ff ce bd d0 12 73 bd
       -0.122929215 0.016655404 -0.101073995 -0.059344113
000020 70 8c af bd 72 38 dd bd e8 3d a2 3c 5e b7 05 bd
       -0.08571708 -0.10801782 0.01980491 -0.032645576
000030 8b ce 7b 3d a1 b1 1c bd e6 5c bb 3d e9 d9 90 bd
       0.06147627 -0.038255338 0.09148578 -0.07072813
000040 64 bd f1 bd 12 f2 d0 bd 3e ca b5 bd 8c bf dc bd
       -0.118037015 -0.10202421 -0.08876465 -0.10778722
000050 79 41 c6 bc 99 cd 69 bd 06 5d b7 bd 25 54 db 3c
       -0.024201142 -0.05708084 -0.0895329 0.026773522
000060 9b 32 26 3d eb 78 3a 3d 5d d9 d5 bb 25 9c f7 bd
       0.040575605 0.045525473 -0.006526156 -0.12090329
000070 dd 33 1b 3b bd b7 52 3d 83 3d 9e 3d 8b da 48 bd
       0.0023682036 0.051444758 0.07726576 -0.049036544
000080 3e 74 0e 3e 60 26 92 3d 26 f7 49 bd ce 9c 19 3d
       0.1391153 0.07136226 -0.049307965 0.037503056
000090 a5 55 a7 3d 5c a9 96 3d 21 1d 7e 3d 8d e9 8e 3d
       0.08170632 0.073565215 0.0620395 0.0697814
0000a0 d4 f2 da bd f1 c2 57 bd 26 79 72 3d 41 e4 b4 3d
       -0.10690847 -0.052676145 0.059197567 0.088325985
0000b0 cc cf a5 bd 93 e5 62 bd 31 60 13 3d 92 49 dc 3d
       -0.08096275 -0.05539472 0.035980407 0.1075622
0000c0 95 90 a4 3d 7d 62 5b 3d 5f 31 ff 3c f6 32 f8 3d
       0.08035389 0.053560723 0.031151472 0.12119095
0000d0 79 fb ec 3d c0 a7 e2 3d cf 4b 29 bd 51 94 ac 3a
       0.11571402 0.11067152 -0.041332062 0.001316676
0000e0 b8 1e 07 3e 7e 00 07 bd 37 8a 06 be a1 13 3d 3d
       0.13195312 -0.032959454 -0.13138662 0.046161298
0000f0 c0 b8 10 3d 87 54 80 3d a6 7b a1 bd 81 11 b6 3d
       0.03533244 0.06266122 -0.07884912 0.08890057
000100 94 ec be 3d 54 8c c2 bd 5c 86 00 be 3c 95 83 3d
       0.093224674 -0.09499422 -0.12551254 0.064249486
000110 84 c2 0c bd b7 a2 d4 3d 32 ae b0 3d bd 6b 82 3d
       -0.034365192 0.10382598 0.08626975 0.06368206
000120 9f c9 a3 bc 80 68 42 3d 68 5d a4 bc 44 11 a0 3d
       -0.019993601 0.04746294 -0.02006407 0.07815793
000130 44 f1 0a 3d 3c b1 a7 bb a6 e1 9d bc 4e cd e8 bd
       0.033921495 -0.0051175635 -0.019272637 -0.11367284
000140 47 07 a4 3d ab 9c ac bd ab 05 90 bc 93 25 ad 3d
       0.080092005 -0.084283195 -0.017580828 0.08454432
000150 00 93 89 bc 45 a4 c0 3d 98 67 89 bd 37 53 37 bd
       -0.016793728 0.09406332 -0.06709212 -0.044757094
000160 d1 c1 c5 3d 6a 4a ce bd 1f f4 d4 bd d0 12 ad bd
       0.09656108 -0.10072787 -0.10398125 -0.08450854
000170 87 65 b6 3d 46 8d 80 3d 76 9f c8 3d db b2 02 3c
       0.089060836 0.06276946 0.0979604 0.007977213
000180 07 c3 30 3d df bc 81 3c df 6d cd bd 93 4a 90 bd
       0.043154743 0.015837131 -0.10030722 -0.07045474
000190 b2 8e e4 3c 25 38 79 bd b6 0a 10 bd ec 69 c9 3d
       0.027900074 -0.06084456 -0.035166465 0.09834656
0001a0 fa 19 dc 3d f1 9c 96 bc 0c ba 82 bd 20 bf 51 bd
       0.10747142 -0.018385382 -0.06383142 -0.05120766
0001b0 b9 11 cf bd c8 06 88 3c f3 2e b4 3d 12 e0 f3 3d
       -0.10110802 0.016604796 0.08798017 0.119079724
0001c0 a9 29 20 3d 94 eb d2 bc 1d 69 11 bd 3b dd b0 3d
       0.03910223 -0.025747098 -0.035500634 0.08635946
0001d0 34 78 81 bd 0c e8 85 bd e9 6c 40 3d 4e 1d b6 bc
       -0.06321755 -0.065384 0.046978865 -0.02223077
0001e0 51 c1 67 3b 11 d9 8b bd 35 d3 71 3d af fe 25 bc
       0.0035363028 -0.068285115 0.059039313 -0.010131522
0001f0 14 24 ba bc d6 a0 a3 bd f1 16 aa 3d 59 3e 73 3d
       -0.022722282 -0.079896614 0.08305157 0.05938563

net.6.weight f4 [192, 128]
000000 58 ec 51 bc 19 75 c8 bd 26 27 01 3d 98 60 0f 3c
       -0.012812696 -0.097879596 0.031531475 0.008751057
000010 09 0d 85 bd 29 57 d8 3c 23 63 9d 3d 6c 74 af 3d
       -0.06496627 0.026408749 0.076849245 0.085671276
000020 09 3a 96 3d 48 86 f0 bc 2b 9f 0f 3c b9 fc c3 bb
       0.07335288 -0.029360905 0.008765976 -0.0059810546
000030 9a 90 e7 bb f4 91 42 bc ad 6c 58 bd e4 98 2a 3c
       -0.0070667984 -0.011875618 -0.052838016 0.0104124285
000040 88 31 80 ba e8 13 47 bd de 6b 96 bd be de 41 bd
       -0.0009780386 -0.04860297 -0.07344793 -0.047331564
000050 5b 77 f3 bc e8 87 8c bc 60 5f 73 bd d8 15 e3 bd
       -0.029719999 -0.017154649 -0.05941713 -0.11088151
000060 1d 41 0f 3c a1 f8 ac 3d 78 8a a6 3d f4 9c 7b be
       0.008743552 0.0844586 0.081318796 -0.24571592
000070 fa 13 2f bd 4a c0 c1 bb e8 d0 92 bc 46 f4 d3 bd
       -0.04274366 -0.005912815 -0.01792188 -0.10349326
000080 61 10 a1 bd 8f df 68 bd 19 35 ea 3d be 5d 83 3d
       -0.07864452 -0.056853827 0.11435909 0.06414364
000090 e0 06 94 bc 9b 03 15 3d 41 36 6a 3c 8f 8a 5f 3c
       -0.018069685 0.03638039 0.014295162 0.013643875
0000a0 1b 42 a9 bd ab 86 a6 3c 6c d2 d6 3c b6 03 23 bc
       -0.08264562 0.020327887 0.026223384 -0.009949615
0000b0 8d f0 78 bd dc 6b ab 3c 20 6d 5f 3d 0b 38 99 3d
       -0.060776282 0.020925455 0.05454743 0.074813925
0000c0 32 05 49 bd 9e 77 73 bd 4e e3 9f 3b e4 8f 63 3d
       -0.04907722 -0.059440248 0.0048793918 0.055557147
0000d0 84 4c 4b 3d 2c df 90 3d 97 c4 e6 3c d4 96 11 bd
       0.049633518 0.07073817 0.028169913 -0.03554423
0000e0 85 54 9b bd cd 8f 8d bd c8 75 0c 3e e6 5f 87 3d
       -0.0758448 -0.069121934 0.13716805 0.06610088
0000f0 05 17 6a 3b 4c ce f0 3c 21 25 6b bd 90 e3 1d 3c
       0.0035719287 0.029395245 -0.057408456 0.009636775
000100 e0 b7 1d 3d e3 33 3f 3d a0 7f 68 bd f0 ff f1 bd
       0.038505435 0.046680342 -0.056762338 -0.11816394
000110 75 af b7 3d ea 85 26 bd 43 5f 45 3d 73 1f 89 3d
       0.08969013 -0.040655054 0.04818655 0.066954516
000120 a5 8a 86 bd cb 9f 44 bd c4 89 ef bc 7f f3 7b 3c
       -0.06569413 -0.048003953 -0.029240496 0.015377878
000130 fc 02 a9 3d c6 6a e5 3c 87 0f b9 3c 5a ea 5f 3d
       0.08252522 0.028005015 0.022590412 0.054666854
000140 c2 68 94 3d f9 97 e6 3d 47 8c 17 bd 15 c0 0b bd
       0.072465435 0.11259455 -0.036999013 -0.03411873
000150 07 09 8b 3d 43 3a 61 3c 5a 75 8d bd 1c 55 65 3d
       0.06788831 0.013746801 -0.06907149 0.05598937
000160 a3 ee b3 bd 86 92 a0 bc 58 f1 3d bd ae dd 5f bd
       -0.08785751 -0.019601118 -0.04637274 -0.05465477
000170 ec 83 52 bd 4f a2 a1 bd 25 1e eb 3d 2c 1c 53 bc
       -0.05139534 -0.07892286 0.11480359 -0.012885135
000180 76 d2 21 bc f5 e2 68 bc 3b 47 a2 bc 5f 3d af bd
       -0.009876838 -0.014214267 -0.019809356 -0.085566275
000190 67 7e b8 bd 27 31 22 3d ca d7 e4 3c ec f5 a5 bd
       -0.09008484 0.039597657 0.027934927 -0.081035465
0001a0 ce 88 fc 3c 06 fe 27 3a 17 91 af bd 73 e2 2d bc
       0.030826952 0.0006408397 -0.085725956 -0.010613072
0001b0 e9 56 ad bd b5 9b 94 bd 75 44 13 bd 1f a4 9e bb
       -0.084638424 -0.07256261 -0.035953958 -0.004841342
0001c0 42 d7 2b 3d dc c2 9c bd b3 9b 68 3d 6f 58 87 bc
       0.041953333 -0.07654354 0.05678911 -0.01652166
0001d0 0f 97 7e 3d 4d 68 d4 bd f8 7c 5c bb 80 29 8d 3d
       0.06215578 -0.10371456 -0.0033643823 0.06892681
0001e0 95 ee b2 bd b9 ad e7 bd 70 e4 9a bd 5a 2d 8b bd
       -0.08736912 -0.11312432 -0.07563102 -0.067957595
0001f0 8a ea ee bd 5a 1c 7a 3d c2 e1 cd bd e2 93 2f bd
       -0.116658285 0.061062194 -0.100528255 -0.04286564
000200 94 e4 d0 3d c4 03 2c bc 65 2b 7f 3d 9e 86 3c bd
       0.10199848 -0.010498945 0.062297244 -0.04602682
000210 1d 1c 94 bc f3 20 35 3d b3 fb a1 3d bf 92 1a bd
       -0.018079812 0.044220876 0.07909336 -0.037737604
000220 f1 08 52 bd e3 b6 94 3d bf f0 74 3c 8c 59 b8 3c
       -0.05127806 0.072614454 0.0149499765 0.022503637
000230 71 07 7e 3d 16 03 c0 3d b9 c1 18 bd 0b b4 b3 3d
       0.062018815 0.093755886 -0.037294123 0.08774575
000240 ec ee 29 3d c7 f2 34 bc ec 72 a7 3d 07 1b a5 3d
       0.04148762 -0.011044211 0.081762165 0.08061796
000250 e9 7d a6 3c b0 fc 80 bc c1 0c 13 3d 07 2d ca bd
       0.02032371 -0.01574549 0.035900835 -0.098718695
000260 77 79 36 3d ee c0 7e 3d 52 91 a3 3d 83 47 58 bd
       0.04454943 0.06219571 0.07986702 -0.052802574
000270 d1 27 8f 3d 6f aa 63 3d 80 1c fb bb 46 9f 34 bd
       0.06990016 0.05558246 -0.0076633096 -0.044097207
000280 d0 27 24 3c 0a 9c be 3b 9a 72 9a 3c c3 4f 04 3d
       0.010019258 0.005816941 0.018853474 0.03230263
000290 f3 53 f9 bc 1d 14 58 3d 64 42 35 bd 95 c0 42 bd
       -0.030435538 0.052753557 -0.04425277 -0.04754694
0002a0 c6 ac 80 bd cc 8c ca 3d e2 64 90 3d 9d 7f f5 3c
       -0.06282954 0.09890136 0.07050492 0.029968077
0002b0 73 3b 83 3d 0d ea c5 3c e7 2b 26 bc 8f 7b 55 bd
       0.064078234 0.024159456 -0.010142303 -0.052119788
0002c0 bb 2e 86 bc ee 64 a0 3d d4 e8 4f 3d a9 d5 f8 bc
       -0.016379705 0.07831751 0.05075915 -0.030375319
0002d0 f8 02 39 3d c0 8d d8 bc 66 15 a0 3d c5 ea 49 3d
       0.045168847 -0.02643478 0.078165814 0.04929616
0002e0 19 b7 93 bb 5a 1e da 3c ca 16 8b bd 7e ba 72 3d
       -0.004507911 0.0266258 -0.06791456 0.059259884
0002f0 81 5a b0 3c 00 ea a4 bc ce 8a be bc db c2 bf 3d
       0.02152753 -0.020131111 -0.023259547 0.093633376
000300 11 71 8f 3c 48 64 89 3d eb a1 24 3d 68 50 61 3c
       0.017509969 0.0670858 0.04019348 0.0137520805
000310 d4 1f fe bc 2a 39 b3 bd 37 f0 c1 3d da ee 86 3d
       -0.031021036 -0.087511376 0.094696455 0.06588526
000320 7c bf 99 3c f9 01 89 3d 01 75 5f bd c8 48 75 bd
       0.018768065 0.066898294 -0.054554943 -0.059883863
000330 d4 84 a3 bb 1e 82 d0 3d 9f 65 de 3d 69 be 6c 3d
       -0.0049901996 0.10181068 0.108592264 0.057798777
000340 c3 34 dc bc fa 78 a8 3d 98 0d 32 3d 89 a5 88 3d
       -0.026880627 0.082261994 0.043469995 0.06672198
000350 14 b8 89 bb 52 c1 7e bd 7c 7b 9e bd d6 fc 96 bc
       -0.004202852 -0.062196083 -0.077383965 -0.018431108
000360 9a ef ce bc d3 a3 16 3d 98 48 80 bc 5e eb cc bb
       -0.025260735 0.03677733 -0.015659615 -0.006253644
000370 36 f7 c2 bc 11 83 1a 3d f3 20 71 bd b4 19 97 bd
       -0.02379952 0.03772265 -0.058869313 -0.07377949
000380 ff 92 52 3d 8c 37 08 3d c1 92 26 bd d1 95 31 3d
       0.051409718 0.0332561 -0.0406673 0.043355767
000390 67 2e 82 3d 44 d1 05 bd 40 a3 df bc 04 aa a9 3c
       0.06356507 -0.032670274 -0.027299523 0.020710953
0003a0 7c 97 e2 3c 08 ab b9 bc 50 ea 31 3d 80 c2 22 3d
       0.027660124 -0.022664562 0.04343635 0.03973627
0003b0 14 c2 03 3e ec eb a8 3d 41 e5 b6 bd 09 42 c3 3d
       0.12867004 0.082481235 -0.089304455 0.095340796
0003c0 ca d8 44 bd e5 a4 81 bd f4 63 e8 bc 76 0a 86 3d
       -0.04805831 -0.06330279 -0.028367974 0.06544964
0003d0 d1 5c 87 bc a6 37 e2 3d c6 5c 05 3d 5d 9a e7 3c
       -0.01652375 0.1104577 0.03255918 0.028271848
0003e0 68 6b 8a bd c7 54 83 3d 7c 7b bd bd b2 58 5f 3c
       -0.06758767 0.06412654 -0.092520684 0.013631986
0003f0 58 cd e6 3c 6c bc 7a bd 1e ad 12 bc d5 d4 89 3d
       0.028174087 -0.06121485 -0.008952407 0.067300476

net.6.bias f4 [192]
000000 40 33 81 3d 3a c3 31 bd d5 0a 66 bd 2e dd 1b 3c
       0.06308603 -0.043399073 -0.056162674 0.009513183
000010 db 0c a6 bb 12 cf 04 bd ed 3f 0e bd e0 7a a2 bd
       -0.0050674505 -0.03242404 -0.034728933 -0.07933593
000020 8a 97 94 bd fa b8 a9 3c bb 6a 66 3d 18 df 24 bd
       -0.07255466 0.020718087 0.05625413 -0.04025182
000030 4f 92 b6 3d 86 5e b4 bd 35 6b 82 3c 01 82 b5 3c
       0.08914625 -0.088070914 0.01592026 0.022156717
000040 e1 7f 2c bd 44 c2 82 bb 13 d5 62 3c e5 30 d8 bc
       -0.042114142 -0.0039904434 0.013844746 -0.026390502
000050 d2 6d 7e 3c d8 98 af 3d b3 08 a3 bb 91 ec 57 3c
       0.015529113 0.085740745 -0.0049754023 0.01317896
000060 7a 5e 93 bd 5e 09 03 bd 3c 9e 0b 3d 8f 86 9f 3d
       -0.07195754 -0.031991355 0.03408645 0.07789337
000070 21 d1 91 3d 4c 89 3f bd 23 1c 27 bd 6e 6d 9a bc
       0.07119966 -0.046761796 -0.040798318 -0.018851008
000080 81 8c 3d 3c 54 56 99 bd 03 c7 f9 3b 61 07 a4 b9
       0.011569143 -0.07487169 0.007622601 -0.00031286015
000090 4f 2a 39 bc d5 d6 bb bc d0 c0 3c 3c 48 84 73 bd
       -0.011301591 -0.022929588 0.011520579 -0.059452325
0000a0 4e 10 70 bb 39 ab 99 3d 24 0a a2 bb 74 07 bf 3d
       -0.0036630812 0.07503361 -0.0049450565 0.093275934
0000b0 fd e9 47 bd 96 72 39 3d 7d a8 a7 3d 89 6a cf bc
       -0.048807133 0.045275293 0.081864335 -0.025319355
0000c0 16 75 b4 3d 27 3c 11 bd aa a1 a8 bd d0 0f 5c bc
       0.08811395 -0.035457756 -0.0823396 -0.013431504
0000d0 a8 41 bf 3d 7c 91 9c bd 90 d7 43 bc ad b4 12 bd
       0.09338695 -0.076449364 -0.01195325 -0.035816837
0000e0 f9 7c b9 3d f7 0b 22 bd 84 af db 3d 7b 31 ad 3b
       0.0905704 -0.03956219 0.10726836 0.0052854395
0000f0 92 4c 06 bd b6 1f 2c 3c 50 49 ae bc 7c bd aa bd
       -0.032787867 0.010505607 -0.021275192 -0.083369225
000100 14 5d 36 bd 09 c3 a3 3d b5 ed 43 bb 2b eb 82 3d
       -0.04452236 0.079961844 -0.0029896323 0.06392511
000110 7f 50 74 bd ba c6 db 3c 00 d4 26 bd 82 7c 22 bd
       -0.05964708 0.026828159 -0.040729523 -0.03966952
000120 ec ca f3 3b 6b f2 62 3d 01 12 13 3d 65 f2 05 3d
       0.0074399617 0.05540697 0.03590584 0.03270187
000130 49 d6 de bc 83 79 12 3d 09 89 a7 bd 60 2a b4 3d
       -0.027201788 0.035760414 -0.08180434 0.08797145
000140 22 fe 69 bd c5 41 95 3d c3 56 a7 bd e9 80 d8 3c
       -0.057127126 0.07287935 -0.08170845 0.026428657
000150 08 52 98 bd 4e b7 9f bd cb 9c 19 3b ba de 09 bd
       -0.07437521 -0.077986345 0.0023439403 -0.033659674
000160 63 57 59 bd ef 8b 8a bd af 3b 9d bd f6 2f 26 bd
       -0.053061854 -0.067649715 -0.07677399 -0.040573083
000170 58 ac fb bc 8e a0 97 bc bb d3 55 3d 87 9a 5c 3d
       -0.030721828 -0.018509176 0.052203875 0.053858306
000180 6a 30 0a bd cd 34 2f 3d 09 6f 8e bd f2 5c 46 3d
       -0.033737577 0.042774964 -0.06954772 0.048428483
000190 f0 d2 bb 3d 5d 70 2b 3d 18 c1 c8 3c 5a 40 26 bd
       0.091710925 0.041855205 0.024506137 -0.040588714
0001a0 d9 3b 16 3d 39 a7 9e bd 27 6a 56 3d 8a 65 b9 bb
       0.03667817 -0.07746739 0.05234733 -0.0056578564
0001b0 5f 21 75 3d c9 07 9c 3b 2a 23 8b bd c4 0d c1 bc
       0.05984628 0.0047616703 -0.067938164 -0.023566134
0001c0 83 06 e7 bb 22 3f c4 3d 4e 6f a7 3c 50 f9 2f 3d
       -0.007050337 0.09582354 0.020438816 0.042962372
0001d0 5e c7 a7 bd 32 ea 92 3d 87 66 93 3c d9 09 37 bd
       -0.08192323 0.071735755 0.017993225 -0.044687126
0001e0 4d 42 9b bd 53 f2 79 3d 21 ab e8 3c e7 8e 09 bd
       -0.07581005 0.061022114 0.028401913 -0.033583548
0001f0 6d f2 f3 3a cd be 0b bd 99 2d 81 bd e5 22 ad bd
       0.0018611677 -0.03411751 -0.06307525 -0.08453921
000200 b8 9d 38 3c 5c d0 18 3d 83 a4 91 3d 62 ce 35 3d
       0.011268072 0.037308082 0.07111456 0.044386275
000210 57 89 a5 3b 4b 16 39 bd db 29 c1 bc 81 3b 92 bd
       0.0050517726 -0.045187276 -0.023579529 -0.07140256
000220 5e 74 b2 bc 1c 56 4f bd 4f 87 bc 3d e5 c4 49 3d
       -0.021784004 -0.05061923 0.092054956 0.04926004
000230 ba b9 48 bd c7 ef a4 bd f4 3c 72 bc b3 68 9a bd
       -0.049005248 -0.080535464 -0.01478504 -0.07539501
000240 69 c6 ee 3c 7d 3a 45 3d 54 a6 88 3d 45 70 95 3d
       0.029147344 0.048151482 0.066723496 0.07296804
000250 23 bf e4 bc 28 ec c6 3d f7 5e 31 3d ce f3 ae bd
       -0.027923172 0.09713012 0.043303456 -0.08542596
000260 29 f9 a4 bd b1 b7 2b 3c ac 8b 78 bc 64 77 55 3d
       -0.08055336 0.010480807 -0.015170019 0.052115813
000270 88 d9 5c 3d 64 6b 9c bd cb 03 a4 bd 48 2e a0 bd
       0.05391839 -0.07637671 -0.08008536 -0.078213274
000280 3d d8 e6 3c 89 78 fc bb 7d 35 83 3c ee a0 0b bd
       0.028179282 -0.0077047986 0.016016716 -0.03408902
000290 1d 63 1b 3d 7e 06 ed 3c b3 b4 20 bd 2f 1d 1e bd
       0.03793632 0.02893376 -0.03923483 -0.03860205
0002a0 8d 2a 7a bd 32 53 5b 3d 09 a0 a6 bc 65 bf ac 3d
       -0.061075736 0.053546138 -0.020339983 0.08434943
0002b0 e7 74 8a bd ba 5f 8d bc 0f c7 ac bd 59 8b a3 3d
       -0.067605786 -0.01725756 -0.08436405 0.07985563
0002c0 9e fa 9a 3d a5 4e 0c 3d eb f7 16 bd 5c 03 3d 3c
       0.07567333 0.03425469 -0.036857527 0.0115364455
0002d0 98 0b 96 bd 64 e9 9b 3d 13 71 21 3d 75 2c 10 3d
       -0.0732643 0.07612875 0.039414477 0.035198648
0002e0 94 af 52 3d 89 57 b4 3d 69 f6 5d bd 50 53 ed 3c
       0.051436976 0.088057585 -0.054190073 0.02897039
0002f0 22 f2 22 bc 54 f3 e1 bc f8 c1 95 bd c9 6e 45 3d
       -0.009945424 -0.027581848 -0.07312387 0.048201356

net.8.weight f4 [192, 192]
000000 7c d5 09 bd bb 55 5d ba 48 41 12 bd 5d 2c 2c 3b
       -0.03365086 -0.0008443256 -0.03570679 0.002627156
000010 d1 37 87 bd a5 8d c6 3c 4a 27 a9 3c 80 1b 9e bb
       -0.06602443 0.024237463 0.020648617 -0.0048250556
000020 ec b8 88 3d b4 aa 2c bd 2e dc 59 bd 60 7c 1c bd
       0.06675896 -0.042154983 -0.053188495 -0.03820455
000030 50 1f 85 3d 09 34 67 bc 42 aa 02 bd e1 0f cc bc
       0.06500113 -0.014111527 -0.03190065 -0.024909915
000040 30 fc 74 3d ce ad 93 bd ea 58 9a 3b f0 2f 30 3c
       0.059810817 -0.07210885 0.0047103064 0.010753617
000050 97 11 c8 3c fe 8c 24 3d f1 05 79 3d 7a 7c cd 3c
       0.02442245 0.040173523 0.06079668 0.02508377
000060 ac 93 e1 3c 4f 93 8d bc ef 3f be 3c 34 23 e9 bc
       0.027536236 -0.017282156 0.023223845 -0.028459169
000070 26 6b 11 3c fb db 8d 3c c6 bf 80 37 5f e3 74 bd
       0.008875644 0.017316809 1.534809e-05 -0.05978715
000080 a1 9a 39 bb ac 47 3c bd 99 84 84 bc b3 0d 4f bd
       -0.0028320926 -0.04596679 -0.016176509 -0.050550174
000090 79 01 8d 3d f6 b8 f2 bb c6 21 54 bd 3a 94 d7 bc
       0.068850465 -0.007407303 -0.05179002 -0.026315797
0000a0 a4 8e 2f bc 7f 86 86 3d 70 62 80 3c ba d9 f2 3c
       -0.0107151605 0.06568622 0.015671939 0.029644836
0000b0 71 71 c0 3c 57 26 4d bd 58 b8 61 bd 16 ae 76 3d
       0.023491593 -0.05008539 -0.055107445 0.060224615
0000c0 0c 24 81 3d de 41 f5 bc 53 49 4b 3d 45 67 2d bd
       0.063057035 -0.029938634 0.049630474 -0.042334814
0000d0 19 bb 0c bd f8 2f 8e bc 91 bb 33 bd 3d 1a 12 bd
       -0.034358118 -0.017356858 -0.04388005 -0.035669554
0000e0 20 51 16 bd d4 c4 04 3d e5 05 86 3d 17 c1 8d bd
       -0.03669846 0.032414272 0.06544093 -0.069215946
0000f0 b1 99 3a bd 4e e1 f6 3b 01 58 88 bd 3f 12 38 3d
       -0.045556728 0.0075341826 -0.066574104 0.044939276
000100 c3 bc 1c bd 9a 5e 9f bc d9 ee 52 bc 0a 86 d0 bc
       -0.038265955 -0.01945429 -0.0128743285 -0.02545454
000110 9c b4 a0 3c 63 90 2a 3d 35 e7 47 bd b9 5e ce bc
       0.019617371 0.041641604 -0.04880448 -0.025191652
000120 ca 93 9f bc ac 12 c9 3c 0f ab ff 3c 90 8e 89 bd
       -0.019479651 0.024545036 0.031209497 -0.06716645
000130 88 57 a6 bc de 94 81 3c 1c 0d 8e 3d f9 c1 59 bd
       -0.02030541 0.015818056 0.06936094 -0.053163502
000140 db 8b f0 bc d9 d8 3b 3d 9b 89 6d 3d a3 fa 76 bb
       -0.029363563 0.0458611 0.05799256 -0.0037686012
000150 45 a8 be bc 5d 31 4a bd 51 dc 9a 3c b1 ae d2 bc
       -0.023273597 -0.049363483 0.018903883 -0.025718065
000160 30 08 df 3a 00 7d 2a 3d bf 60 13 bd cf 68 64 bc
       0.001701599 0.041623116 -0.035980936 -0.013941004
000170 00 c4 70 3d f5 71 1a bc 9e 67 84 bd 03 2a 8a bd
       0.05878067 -0.009426584 -0.06465076 -0.06746294
000180 6f 38 2f 3c 17 ea 72 bd 24 0a 7c 3c 55 9a 32 3d
       0.010694607 -0.059305277 0.015383277 0.043604214
000190 26 41 46 3d 1b d8 10 bd 37 d6 49 bc a9 8f 89 3c
       0.048401974 -0.035362344 -0.012319139 0.016792135
0001a0 da 6a 6b bb 4a 42 5a bd 09 3c 09 bd 87 ec 2b bc
       -0.0035921843 -0.053285874 -0.03350452 -0.010493404
0001b0 df 00 50 bd be a0 69 bd 21 99 3a bd 97 32 e5 bb
       -0.05078208 -0.05703806 -0.04555619 -0.006994556
0001c0 46 db 08 bc ce 2f 89 bd 8a a6 87 3d e9 9b 25 3c
       -0.00835306 -0.06698571 0.06623562 0.010107973
0001d0 77 c2 88 3d 46 b8 7a 3d 3f f7 78 bc ce 7e 2b bd
       0.06677716 0.061210893 -0.015195667 -0.041868977
0001e0 82 3a e2 bc 51 02 0a 3d ca 51 0e bd f7 3d 15 bd
       -0.02761579 0.033693615 -0.03474597 -0.036436047
0001f0 60 b5 dd bc c0 5f 49 3d 9a 1b 15 bd b6 f4 1f bd
       -0.027064025 0.04916358 -0.036403276 -0.039051734
000200 b3 f9 c6 bc 19 5f 93 3b 39 c1 25 bd 32 fb aa bc
       -0.024288988 0.0044974205 -0.040467475 -0.020871732
000210 f9 d8 81 3d 37 ba 99 bc 6a 72 d8 bc 0a fe 52 bd
       0.063402124 -0.018765552 -0.026421744 -0.0515118
000220 31 e1 46 bd 8a 05 e2 3c bc 46 d9 3c cf ae ac 3c
       -0.048554603 0.027590532 0.026522987 0.021079449
000230 f4 cd 71 bd e1 6c 1c bd 51 0a 6d bd 32 32 89 3d
       -0.059034303 -0.038189773 -0.057871167 0.06699027
000240 16 9a 9e 3b 0e 44 7d 3d e5 bb 34 3d 45 4e b7 bc
       0.004840146 0.06183248 0.044124503 -0.022376189
000250 29 bc fa bc 62 55 3b bd b0 47 91 3d a6 bd 8c 3d
       -0.0306073 -0.045735724 0.070937514 0.0687211
000260 4e 95 08 3c 13 eb 0e bd 46 15 99 bc d4 8d 96 3c
       0.008336378 -0.034892153 -0.018686902 0.018378176
000270 dd 7b 4e 3d 10 9b 3d bd 83 18 27 bd 99 45 65 3d
       0.050411094 -0.046290457 -0.04079486 0.055974577
000280 5a 3b c1 3c 9c fb 81 bd 51 c0 ba 3c 7a b6 de 3c
       0.023587871 -0.06346819 0.022796782 0.027186621
000290 b7 19 5d 3d ac b3 85 3d a3 fe 88 3c 0b fa 6d 3d
       0.0539796 0.0652841 0.016722983 0.058099788
0002a0 6c 75 37 3c 7e 26 84 3d e0 ce 44 bd ff e4 36 bd
       0.011197429 0.06452654 -0.048048854 -0.04465198
0002b0 90 4c c0 3b e7 dd 88 3d 82 11 84 3d 8c c1 8a 3c
       0.005868502 0.066829495 0.06448652 0.016937993
0002c0 d0 43 5b bd 69 b9 6d 3d 59 20 82 bd 41 bc 18 bd
       -0.053531468 0.05803815 -0.06353826 -0.037288908
0002d0 b4 e4 2f b9 e1 c5 71 3d d1 44 42 3d df 5e 6b bd
       -0.00016774499 0.059026603 0.04742891 -0.057463523
0002e0 4e fd 72 3c 70 44 75 bd 2b 05 71 bd bc b0 f2 3c
       0.0148309 -0.05987972 -0.05884282 0.02962529
0002f0 5d b7 fb bb 68 02 39 3d 7c 38 83 3d 74 29 a7 bc
       -0.0076817707 0.04516831 0.06407258 -0.020405509
000300 41 f7 56 3d e3 59 6c bd 17 2d c4 bd 06 3c 64 bc
       0.052481893 -0.05770291 -0.09578913 -0.013930326
000310 39 51 25 bc 32 c1 9c 3c 8d c4 5e 3d d7 70 12 bd
       -0.010090166 0.019135091 0.054386664 -0.035752144
000320 f7 c3 5a 3d 8a 3f 02 3d 12 70 b9 3b c2 98 f1 bb
       0.053409543 0.031798877 0.005659112 -0.0073729465
000330 5e d8 68 3d b9 fe 82 bc 66 b3 76 3d 2c 65 c1 3d
       0.05684697 -0.015990602 0.06022968 0.09443125
000340 aa 94 5d ba d5 5a 65 bc ca 0f 07 be 3f f1 17 3c
       -0.00084526336 -0.013998707 -0.13189617 0.009273826
000350 ab 1d 53 bd fb 02 85 3d aa f4 35 bc ad b8 7f bd
       -0.051541965 0.06494709 -0.011105696 -0.06243198
000360 53 cc 18 bc 1a bf cb bc d1 fc 55 3c af 57 b8 3b
       -0.009326058 -0.024871398 0.013060764 0.005625687
000370 1c 20 c2 3c 7c 3c 9b bd 97 86 91 3d b3 b7 a9 bd
       0.023696952 -0.07579896 0.07105749 -0.08286991
000380 60 46 97 bd 19 74 bf bd 4d e9 9d bd 7d 52 82 bc
       -0.0738647 -0.09348316 -0.07710514 -0.015908474
000390 bb e7 74 3d ab 46 26 bd 16 bb c3 bd da 26 e1 bd
       0.059791308 -0.040594738 -0.09557168 -0.109937385
0003a0 06 4c 4d 3d 8c de 54 bd d8 0f 62 3d d8 65 76 bd
       0.05012133 -0.05197005 0.05519089 -0.06015572
0003b0 0b a5 ed 3c 0c 87 01 bd 45 3d 3c 3c 86 e3 49 bc
       0.029009363 -0.03162293 0.011489217 -0.012322312
0003c0 df 2d 82 3c 26 3e 3c 3b 87 ee 68 be 78 48 14 3e
       0.015891014 0.0028723567 -0.22747241 0.1448077
0003d0 ad 2e a7 bc 82 1c 63 3d 5c 0f b8 bd 96 e5 4b 3d
       -0.020407999 0.05544711 -0.089873046 0.049779497
0003e0 e1 a9 32 bd f3 4a 5a 3c 52 83 08 bd 5b 74 a2 bd
       -0.04361904 0.013323533 -0.03332836 -0.07932349
0003f0 d2 e4 4b bd 4e cf 31 bb fe c5 5a 3d 70 8c 46 3d
       -0.049778767 -0.002713162 0.053411476 0.048473775
