new_saved_models/guitar_audio_d5_g2_it2sk200.pt (torch, 929657 bytes, 36 tensors)

net.0.weight f4 [64, 3]
-0.3247925 0.12356722 0.586651 0.37426567 0.40372217 -0.17395614 -0.26964965 -0.02132135
-0.3673264 -0.5436803 0.28215933 -0.5703244 0.2850209 0.4557246 0.038871337 0.5070354
-0.55525804 -0.2557529 0.16914448 0.09575783 0.1766743 0.34344563 -0.033965804 -0.54352903
0.28302854 -0.4117368 0.47205466 0.024784207 -0.27366784 0.50612086 0.17069802 0.096201345
-0.27065903 0.14716452 -0.057352472 -0.269868 0.3579951 0.31755498 0.58793885 0.52533454
-0.20778468 -0.53557533 0.26875058 0.60201967 -0.11059312 0.11068922 -0.26589227 -0.37551454
0.07592713 0.3370396 -0.28164116 -0.38413188 -0.30940768 -0.5406388 0.27665734 -0.36584544
-0.44626516 -0.51728165 0.08659652 0.26252043 0.15205175 -0.0009074745 -0.22249056 -0.5211283
-0.33606845 0.4216145 -0.42936942 0.5034792 0.20718674 0.26388276 -0.4446793 0.23734109
0.3309091 -0.15944697 0.1642226 0.012762455 -0.32286114 0.33191976 0.53568226 -0.0069257114
0.06294985 0.48841348 -0.041705646 -0.42259422 -0.38280818 -0.09226367 -0.18403219 0.07074582
0.26485887 0.12342163 -0.17613783 0.27672082 0.49327922 -0.06881619 0.4930822 -0.21781759
-0.48119637 -0.20074475 0.053921126 -0.041501004 0.09699865 0.48052832 -0.12234404 -0.2549059
-0.4486929 -0.40311095 0.25810665 0.06975638 -0.093957745 -0.5494701 0.51803833 0.4401028
-0.030857746 0.22112437 0.38432175 -0.110813744 -0.2199855 0.26099443 0.59346074 0.22854696
0.23611227 -0.12751749 0.5775864 -0.34870136 0.027014568 -0.37326497 -0.54037195 0.60359323
0.22258894 -0.020956473 0.47796044 -0.038696114 0.40697417 -0.3235727 -0.37909716 -0.1594285
-0.09593324 0.46837956 -0.06939482 0.09938174 -0.48805156 0.21841039 0.07948682 -0.22827514
0.29766953 -0.26377404 -0.08789526 0.08216194 0.049181815 0.42555544 0.48894352 0.28552872
-0.47215432 0.41316587 -0.43747297 -0.63908964 0.028324526 -0.30662397 -0.35608435 0.5447527
0.19839244 0.42805684 -0.10596524 -0.32898417 0.08149437 -0.2711968 -0.5379491 -0.03132584
-0.5777175 -0.48947662 -0.45591182 0.089083776 0.16228548 0.39280593 0.49223912 -0.5743542
0.09944118 -0.10865833 0.13597488 -0.5510417 -0.45118603 -0.52704924 -0.08957994 -0.005581474
0.017974952 -0.41864654 0.5111482 0.4967544 -0.32034153 0.57463247 0.17380773 0.42245504
00000000: 344b a6be d010 fd3d c32e 163f c09f bf3e
00000010: acb4 ce3e 8f21 32be 850f 8abe 1daa aebc
00000020: 3512 bcbe a22e 0bbf 3077 903e c800 12bf
00000030: 42ee 913e bc54 e93e 8d37 1f3d 12cd 013f
00000040: 6425 0ebf 0bf2 82be 3634 2d3e ae1c c43d
00000050: 1cea 343e 1bd8 af3e ba1f 0bbd b824 0bbf
00000060: 1ee9 903e 2acf d2be 26b1 f13e 4008 cb3c
00000070: 311e 8cbe 2391 013f 76cb 2e3e 3605 c53d
00000080: d293 8abe 4cb2 163e 6dea 6abd 232c 8abe
00000090: 224b b73e 9196 a23e 2983 163f 537c 063f
000000a0: 82c5 54be 771b 09bf ad99 893e f61d 1a3f
000000b0: a57e e2bd 08b1 e23d 0823 88be 7143 c0be
000000c0: af7f 9b3d 7490 ac3e 4533 90be efac c4be
000000d0: af6a 9ebe 4e67 0abf 08a6 8d3e 1850 bbbe
000000e0: de7c e4be 926c 04bf 8459 b13d 1469 863e
000000f0: 74b3 1b3e 95e3 6dba 91d4 63be aa68 05bf
00000100: 2a11 acbe dbdd d73e 4fd6 dbbe 03e4 003f
00000110: c328 543e a41b 873e 01ad e3be 8b09 733e
00000120: eb6c a93e 1146 23be f829 283e 9e19 513c
00000130: 0e4e a5be 63f1 a93e 7922 093f 14f1 e2bb
00000140: daeb 803d 5511 fa3e 8ad3 2abd 455e d8be
00000150: 6fff c3be bcf4 bcbd ef72 3cbe 2fe3 903d
00000160: 959b 873e 7bc4 fc3d 7a5d 34be 5aae 8d3e
00000170: 188f fc3e 81ef 8cbd 4575 fc3e 930b 5fbe
00000180: 5f5f f6be 0890 4dbe 66dc 5c3d f5fc 29bd
00000190: 3aa7 c63d cf07 f63e 838f fabd 0783 82be
000001a0: 13bb e5be 8f64 cebe 8e26 843e 6fdc 8e3d
000001b0: eb6c c0bd 13aa 0cbf 299e 043f 2755 e13e
000001c0: 62c9 fcbc 6d6e 623e d2c5 c43e 51f2 e2bd
000001d0: e143 61be 10a1 853e 0bed 173f 3708 6a3e
000001e0: 6ac7 713e f293 02be b4dc 133f fc88 b2be
000001f0: a84d dd3c 961c bfbe d155 0abf 1685 1a3f
00000200: 5bee 633e e9ac abbc 3bb7 f43e d17f 1ebd
00000210: eb5e d03e 52ab a5be 0619 c2be 3a41 23be
00000220: a678 c4bd 72cf ef3e df1e 8ebd a788 cb3d
00000230: e5e1 f9be f9a6 5f3e fcc9 a23d f5c0 69be
00000240: 2468 983e 640d 87be 6e02 b4bd 8544 a83d
00000250: df72 493d 67e2 d93e ce56 fa3e d230 923e
00000260: 36be f1be 7a8a d33e 75fc dfbe 619b 23bf
00000270: d608 e83c d1fd 9cbe b050 b6be ea74 0b3f
00000280: 6327 4b3e 442a db3e 4e04 d9bd 9d70 a8be
00000290: 85e6 a63d 4fda 8abe 08b7 09bf 864f 00bd
000002a0: 4be5 13bf ae9c fabe 466d e9be 8e71 b63d
000002b0: 2a2e 263e dc1d c93e c406 fc3e e008 13bf
000002c0: d1a7 cb3d 4288 debd 003d 0b3e 1211 0dbf
000002d0: db01 e7be b3ec 06bf b075 b7bd cce4 b6bb
000002e0: 3540 933c d758 d6be 9cda 023f 9856 fe3e
000002f0: ce03 a4be 1d1b 133f a7fa 313e 074c d83e

net.0.bias f4 [64]
0.47559842 -0.5258881 0.46977967 0.008612726 -0.30622438 0.46545833 -0.004929548 -0.023771137
-0.41693923 0.5777337 -0.46965966 0.091928855 0.36990452 0.028057396 0.08333621 -0.14348598
0.22688179 -0.48506382 0.5093358 0.29142657 0.39181906 -0.50664926 -0.29768386 -0.13006146
-0.18374737 0.34576827 0.3223688 -0.2695233 0.2343978 -0.4496706 0.011036727 -0.15002637
-0.088229686 -0.30744728 -0.22396185 0.31223276 0.32660425 0.17126814 -0.3589651 0.32408476
0.4288291 -0.29830348 0.4826719 -0.40753493 -0.23216228 0.20209488 -0.20455445 -0.40925565
0.4173901 -0.15314212 0.28273523 -0.40601012 0.2832101 -0.20154932 0.48496512 0.30414414
0.11965853 0.43935525 -0.16609445 0.23271264 -0.52566814 -0.30606052 0.13831851 0.028503431
00000000: a381 f33e 9aa0 06bf f686 f03e 641c 0d3c
00000010: 71c9 9cbe 8e50 ee3e 0c88 a1bb b0bb c2bc
00000020: 0f79 d5be 5be6 133f 3b77 f0be 3245 bc3d
00000030: 2064 bd3e a0d8 e53c 2dac aa3d fded 12be
00000040: b353 683e 495a f8be d563 023f dd35 953e
00000050: 829c c83e c4b3 01bf 056a 98be d52e 05be
00000060: 4528 3cbe 8a08 b13e 860d a53e f5fe 89be
00000070: fa05 703e 3a3b e6be 63d3 343c 83a0 19be
00000080: c4b1 b4bd bb69 9dbe 4156 65be f9dc 9f3e
00000090: ac38 a73e ea60 2f3e 46ca b7be 70ee a53e
000000a0: 7d8f db3e 3cbb 98be c520 f73e 6ba8 d0be
000000b0: f3bb 6dbe f6f1 4e3e b976 51be f589 d1be
000000c0: 28b4 d53e 4ad1 1cbe acc2 903e 8fe0 cfbe
000000d0: ea00 913e f262 4ebe 594d f83e c8b8 9b3e
000000e0: 880f f53d 2cf3 e03e aa14 2abe 394c 6e3e
000000f0: 3092 06bf f7b3 9cbe 5ea3 0d3e 0780 e93c

net.2.weight f4 [64, 64]
-0.06532011 0.08500307 0.0022789103 0.03489825 -0.07201213 -0.117793456 -0.0021045248 -0.06621088
0.090752415 0.102048256 0.045602724 -0.03028975 -0.011861764 0.0040825233 0.07435379 -0.15000172
0.021642728 0.07159992 -0.029107654 0.12509656 -0.05892665 -0.011723417 0.17093672 -0.11415834
-0.13130991 0.089863285 -0.1168836 -0.09338205 0.06513685 0.07494427 -0.103274755 -0.100693546
-0.030874468 -0.03312642 0.0045459424 0.11033184 0.039383102 -0.08270566 0.00943178 0.039673787
0.10536756 -0.002883057 0.050945565 0.075258166 0.13002059 -0.048668455 0.08642533 -0.060286243
0.03589983 -0.0259689 -0.1034513 -0.07699366 0.056875512 0.14610444 0.05153331 -0.097108096
-0.09655605 0.03784695 0.061690707 0.0034207508 -0.0019738574 0.10903871 0.09433151 0.047649536
-0.060283236 0.07717475 0.15684108 -0.0064793834 0.16131322 -0.0954392 0.0008454372 -0.0031526585
-0.03554647 -0.084699154 -0.0023062825 -0.059641596 0.07445912 0.017207548 0.038686093 -0.03634752
0.09953264 -0.07206412 0.010863214 0.092010885 0.13002081 0.017702809 -0.0032256125 0.08694947
0.038432874 -0.05981677 -0.12315047 0.034064464 0.054907765 0.021956146 0.02448145 0.011246001
-0.066655524 -0.0023788344 0.11851506 -0.0036521128 -0.0858561 -0.09831577 -0.08509145 0.15494125
-0.06046324 0.13907862 -0.023004446 0.054213837 -0.042150103 0.055282198 -0.09363666 0.015281499
0.03835201 0.100112304 0.021580892 0.05663124 -0.05113335 0.033957485 -0.0012823731 0.0022114161
-0.041723505 0.008564935 -0.010210376 0.01435327 0.098284826 -0.054398686 0.0090091955 0.063586995
-0.09139479 0.08531589 0.0939759 0.12645696 0.008405208 -0.025342476 0.10024516 0.15263835
0.10585791 -0.052792184 0.12451123 -0.0024725944 0.05928492 0.06497575 -0.08084896 -0.037231382
0.015908327 -0.07620571 -0.00077131303 -0.042616997 0.07477641 0.08595476 0.16801947 -0.06893876
0.10383062 0.0032994235 0.05912665 0.09507885 0.1625982 -0.07573193 -0.014115136 0.093028344
-0.028189342 -0.0867906 -0.020730393 0.037113454 -0.08926081 -0.11452817 -0.06820093 0.14210257
0.055417746 0.0056640543 0.09501263 0.09725024 -0.0030989915 -0.07079048 0.11865537 0.020150734
-0.056035236 -0.05211131 -0.08712956 0.06593247 0.07901519 -0.092792 0.0569954 -0.14063683
-0.114304684 -0.0028088458 -0.05102282 0.06268917 0.06494468 -0.04072015 0.08123058 0.10434683
0.102758914 -0.04601965 0.063995846 0.003614 -0.15299945 0.13628252 0.044479392 0.10732053
0.029386295 0.055674303 0.026102617 0.04442946 0.09799827 -0.055268988 -0.15002559 0.006941221
0.10409244 -0.01331011 -0.041064017 -0.0021060058 -0.05035545 0.10951091 -0.12356192 0.026993541
0.030365925 0.00028964516 0.06218817 0.08696242 -0.050006315 0.015095875 -0.13124193 0.13668197
0.091837004 0.054640938 -0.09688963 -0.07557192 0.009661095 -0.038280487 -0.14401548 0.113804415
-0.018040678 -0.051028177 0.05978349 0.041850388 0.048839945 -0.004067294 0.12968636 0.07575221
0.12610461 -0.05442908 0.06047517 -0.029283276 0.035966765 0.04506507 -0.09732152 0.034037206
0.095242515 0.047423024 -0.093512855 -0.024501339 0.071629845 0.024460837 0.011800559 0.14654347
00000000: 8dc6 85bd 1716 ae3d c559 153b 78f1 0e3d
00000010: 187b 93bd b23d f1bd 11ec 09bb 9299 87bd
00000020: 67dc b93d adfe d03d ecc9 3a3d 3622 f8bc
00000030: d857 42bc b0c6 853b cd46 983d 0d9a 19be
00000040: 174c b13c fba2 923d 2d73 eebc 5019 003e
00000050: 125d 71bd 9313 40bc 090a 2f3e d9cb e9bd
00000060: 1b76 06be 3e0a b83d ab60 efbd 173f bfbd
00000070: 7866 853d 627c 993d b781 d3bd 6b38 cebd
00000080: 74ec fcbc 92af 07bd 21f6 943b a9f5 e13d
00000090: 2d50 213d 9661 a9bd c187 1a3c fb80 223d
000000a0: f3ca d73d acf1 3cbb 4cac 503d f420 9a3d
000000b0: 1e24 053e 9358 47bd c3ff b03d b5ee 76bd
000000c0: b30b 133d bbbc d4bc 46de d3bd daae 9dbd
000000d0: 4cf6 683d 679c 153e 9814 533d 9ce0 c6bd
000000e0: 2ebf c5bd 6705 1b3d 65af 7c3d ad2e 603b
000000f0: d55b 01bb b04f df3d e130 c13d 292c 433d
00000100: 8eeb 76bd cc0d 9e3d f39a 203e 0251 d4bb
00000110: 4b2f 253e a175 c3bd 54a0 5d3a d59c 4ebb
00000120: 2d99 11bd c076 adbd 0025 17bb bf4a 74bd
00000130: 067e 983d d8f6 8c3c 4f75 1e3d 23e1 14bd
00000140: c5d7 cb3d 5a96 93bd 9ffb 313c 3470 bc3d
00000150: 2d24 053e 7b05 913c cc64 53bb 9012 b23d
00000160: ca6b 1d3d 6e02 75bd 5036 fcbd 2e87 0b3d
00000170: f7e6 603d 60dd b33c 528d c83c 2641 383c
00000180: b182 88bd 38e6 1bbb 06b8 f23d 4958 6fbb
00000190: 53d5 afbd c759 c9bd 6d44 aebd eba8 1e3e
000001a0: 4da8 77bd a06a 0e3e d273 bcbc 540f 5e3d
000001b0: 96a5 2cbd 966f 623d 94c4 bfbd 415f 7a3c
000001c0: ff16 1d3d ae07 cd3d 69ca b03c 29f6 673d
000001d0: 3471 51bd 0117 0b3d 4d15 a8ba 68ed 103b
000001e0: 44e6 2abd f153 0c3c 6c49 27bc fa29 6b3c
000001f0: 8e49 c93d 28d1 5ebd 4e9b 133c e639 823d
00000200: 312d bbbd 19ba ae3d 7076 c03d ef7d 013e
00000210: ffb5 093c 069b cfbc 564d cd3d 3a4d 1c3e
00000220: 08cc d83d 9e3c 58bd beff fe3d 400b 22bb
00000230: bfd4 723d 0212 853d 2494 a5bd ef7f 18bd
00000240: 2e52 823c bd11 9cbd f131 4aba 298f 2ebd
00000250: 6024 993d 0d09 b03d 4c0d 2c3e c42f 8dbd
00000260: 26a5 d43d 243b 583b c92e 723d b3b8 c23d
00000270: 2480 263e 5819 9bbd 2c43 67bc a585 be3d
00000280: 56ed e6bc 45bf b1bd c9d2 a9bc 4704 183d
00000290: 5fce b6bd bf8d eabd eeac 8bbd 5683 113e
000002a0: b8fd 623d 8899 b93b fb95 c23d 222b c73d
000002b0: 7318 4bbb 99fa 90bd 9601 f33d 2713 a53c
000002c0: 3485 65bd ab72 55bd fc70 b2bd 9a07 873d
000002d0: b7d2 a13d bb09 bebd 0274 693d 1a03 10be
000002e0: 9318 eabd 9d14 38bb 4efd 50bd 2e63 803d
000002f0: b701 853d 2cca 26bd 385c a63d cab3 d53d
00000300: 4473 d23d 1a7f 3cbd 4110 833d dcd8 6c3b
00000310: e3ab 1cbe a58d 0b3e 0630 363d deca db3d
00000320: 87bb f03c bd0a 643d 28d5 d53c aafb 353d
00000330: 51b3 c83d bc61 62bd 4fa0 19be 2f73 e33b
00000340: 6b2e d53d a612 5abc be32 28bd ea04 0abb
00000350: 8441 4ebd 4247 e03d 080e fdbd 8f21 dd3c
00000360: f6c1 f83c 84db 9739 06b9 7e3d 5a19 b23d
00000370: 6cd3 4cbd b054 773c 4964 06be 5cf6 0b3e
00000380: 0a15 bc3d 2dcf 5f3d 126e c6bd 73c5 9abd
00000390: 9249 1e3c 00cc 1cbd cb78 13be 4a12 e93d
000003a0: 0bca 93bc ec02 51bd 88df 743d 506b 2b3d
000003b0: 650c 483d ef46 85bb 80cc 043e fa23 9b3d
000003c0: 9121 013e 07f1 5ebd d0b4 773d 7be3 efbc
000003d0: e351 133d 2796 383d 8150 c7bd 996a 0b3d
000003e0: 820e c33d a53e 423d ab83 bfbd 08b7 c8bc
000003f0: abb2 923d 1862 c83c 2257 413c 7e0f 163e

net.2.bias f4 [64]
0.12991321 0.0037680697 -0.011257029 -0.08851996 0.072866365 -0.10652681 0.10371737 -0.009880556
-0.005840838 0.088246554 -0.0511176 -0.014742805 0.099820174 -0.03360831 0.094943434 0.04235445
-0.10905127 -0.026779743 0.08042863 0.059498064 -0.03367798 -0.089372575 0.1101657 0.05301021
-0.12190552 0.013523191 -0.08939261 -0.060954563 0.031584505 -0.05944281 -0.051907502 0.12254383
-0.11516213 -0.09489195 0.12329284 -0.00095373415 -0.012395946 0.052103 -0.066751346 0.035499305
0.09615831 -0.023288213 -0.12069638 -0.051752895 -0.03983414 0.00018411884 0.08096304 -0.0996404
0.010863124 -0.10884352 0.044445194 -0.055983003 0.05292386 -0.10496809 0.086592145 0.057335302
0.06645423 -0.039534356 0.09367968 -0.07537012 -0.0356358 -0.0577695 -0.043523073 -0.04078802
00000000: f807 053e b8f1 763b 676f 38bc f449 b5bd
00000010: f63a 953d ba2a dabd c669 d43d 0ee2 21bc
00000020: 8064 bfbb 9cba b43d b060 51bd ce8b 71bc
00000030: 856e cc3d dea8 09bd b471 c23d dc7b 2d3d
00000040: 4656 dfbd 3161 dbbc c4b7 a43d 3eb4 733d
00000050: ecf1 09bd f808 b7bd 8e9e e13d 3c21 593d
00000060: 9aa9 f9bd 6090 5d3c 7913 b7bd 7eab 79bd
00000070: c15e 013d 4e7a 73bd f69c 54bd 42f8 fa3d
00000080: 1fda ebbd b656 c2bd f580 fc3d 0404 7aba
00000090: 5e18 4bbc f569 553d eeb4 88bd b867 113d
000000a0: a6ee c43d ecc6 bebc aa2f f7bd d8fa 53bd
000000b0: 2029 23bd 0610 4139 f3cf a53d 4410 ccbd
000000c0: 3ffb 313c 5ae9 debd 2a0c 363d 6f4e 65bd
000000d0: b0c6 583d 83f9 d6bd 3957 b13d 6cd8 6a3d
000000e0: 2819 883d c7ee 21bd 22db bf3d a65b 9abd
000000f0: d8f6 11bd b69f 6cbd 4045 32bd 5711 27bd

net.4.weight f4 [128, 64]
0.09132692 -0.02955085 0.03880784 0.036769494 0.023791894 -0.070340574 -0.04313533 -0.084963575
-0.123893514 0.030598655 -0.015760168 -0.096307546 0.107005864 -0.093388095 -0.006920889 0.015090138
-0.026363268 -0.08812982 0.0594697 -0.05287628 0.022626862 0.0069211572 0.019379035 -0.020436764
-0.0859185 0.03988719 -0.039035827 0.004321784 -0.015648976 -0.041775092 -0.056932464 -0.06261948
-0.020865291 0.05020751 -0.020328194 -0.10940753 -0.09312791 -0.03915371 0.11141151 0.050373435
-0.114842 -0.017162919 0.0983603 0.10000554 -0.057940826 0.042433888 -0.07356523 -0.11477238
0.066260785 -0.0021286905 -0.10556312 -0.11856292 0.09977502 0.0156333 -0.010256305 -0.032645658
0.03559923 0.12420812 -0.011050537 -0.10964492 -0.0014316589 -0.08361164 0.07313663 -0.10375577
-0.08878321 -0.09009223 0.048413273 0.07582839 0.059212893 -0.119246215 0.0790942 -0.09199676
0.039083555 -0.017055934 0.12952466 0.03073769 -0.03891744 -0.092505336 0.028197661 -0.119394794
0.15026781 0.010095618 0.085691996 0.0681567 0.1602269 -0.047034413 0.11060032 -0.0022533375
0.024848431 0.015693799 0.14092994 0.14152716 -0.02013186 0.17001288 0.07447123 0.07908397
0.08648414 -0.15100105 -0.0074853795 -0.0075854077 -0.080188535 0.14241822 -0.027661858 0.047130592
0.1338951 0.03491252 0.094939545 0.07442008 -0.03873205 -0.017252708 -0.0695867 -0.07865995
-0.09581692 0.1628968 0.08893571 -0.0046460023 0.13088717 -0.083916076 -0.047892023 -0.048404567
0.11300784 -0.007909526 -0.042026967 0.061071537 -0.03736364 -0.003556819 0.095292196 -0.0054939
0.009541273 0.09787984 -0.074231595 0.10250287 -0.10258266 0.11066659 0.09344408 -0.10188094
-0.010643035 0.03879413 -0.03210701 0.07975054 -0.05343698 0.09795152 -0.009552002 -0.08566497
0.035030782 -0.042773157 0.102082714 -0.08385211 0.10716322 -0.0051632226 -0.097603634 -0.121329755
0.034771726 0.07219668 -0.061784565 0.08696434 0.029946253 0.00037035346 0.09640573 -0.017123029
-0.056782022 0.11425388 -0.10553394 0.07094137 -0.095280915 -0.07373698 -0.077308476 0.12440176
-0.12484531 -0.092322364 0.083574295 -0.12385313 -0.012260526 0.038201854 -0.044963747 0.050658062
0.0060393214 0.11817497 -0.10471603 -0.035091758 -0.07859081 -0.02173005 -0.11405754 0.09956311
0.060965493 0.04639305 0.008209169 0.025629371 -0.0062594414 -0.006322846 -0.09469311 -0.049285665
-0.12668107 0.14152953 0.052592915 -0.115263715 0.03299625 -0.008152142 -0.029049441 0.014061585
0.12249811 0.04625025 0.13403511 -0.0077176904 -0.07973929 0.07224636 -0.12087983 0.1018236
-0.032006044 0.12864713 0.033127412 -0.008960025 0.007370196 0.061979406 -0.09418377 0.16017807
-0.05836494 0.08796576 -0.050421163 0.13380545 -0.017178372 -0.00014322475 0.0768869 -0.042015925
0.12643501 -0.039040092 0.0062626223 -0.008374872 -0.069303 0.11201481 0.11205781 0.10587352
0.040759765 0.07449224 -0.0390013 -0.010401525 0.05889024 0.049161352 0.1132682 -0.07428396
0.11888694 0.044856198 0.0848957 -0.0060257036 0.08000337 0.107118174 -0.0404439 -0.05071124
-0.11643939 0.13762468 0.06690356 -0.1330088 0.12370787 -0.15722454 0.052385867 -0.0852385
00000000: 9c09 bb3d a014 f2bc f8f4 1e3d 9c9b 163d
00000010: 38e7 c23c b80e 90bd acae 30bd 6201 aebd
00000020: e2bb fdbd 08aa fa3c 781b 81bc e43c c5bd
00000030: e425 db3d 4242 bfbd a0c8 e2bb a03c 773c
00000040: c8f7 d7bc 687d b4bd 8096 733d cc94 58bd
00000050: f85b b93c e0ca e23b c8c0 9e3c 006b a7bc
00000060: 0af6 afbd c060 233d 08e4 1fbd c09d 8d3b
00000070: 4832 80bc 5c1c 2bbd 0432 69bd a43e 80bd
00000080: b0ed aabc 64a6 4d3d 5087 a6bc 0e11 e0bd
00000090: d8b9 bebd a45f 20bd b82b e43d 6054 4e3d
000000a0: 4832 ebbd 4099 8cbc 2071 c93d b4cf cc3d
000000b0: 5c53 6dbd 28cf 2d3d 5ea9 96bd c80d ebbd
000000c0: bcb3 873d 8081 0bbb 7a31 d8bd 1ed1 f2bd
000000d0: d856 cc3d 6811 803c 100a 28bc 74b7 05bd
000000e0: 80d0 113d d460 fe3d 500d 35bc 848d e0bd
000000f0: 80a6 bbba 943c abbd a8c8 953d e87d d4bd
00000100: f9d3 b5bd 4682 b8bd ff4c 463d ea4b 9b3d
00000110: 3889 723d 5c37 f4bd 24fc a13d cc68 bcbd
00000120: 1416 203d e3b8 8bbc 1da2 043e 9ccd fb3c
00000130: e567 1fbd 7073 bdbd c8fe e63c 4285 f4bd
00000140: cedf 193e 1768 253c 497f af3d bd95 8b3d
00000150: 8512 243e 28a7 40bd 6c82 e23d bbac 13bb
00000160: f08e cb3c 4890 803c f04f 103e 7fec 103e
00000170: 92eb a4bc db17 2e3e 5f84 983d c7f6 a13d
00000180: 991e b13d 05a0 1abe ea47 f5bb 038f f8bb
00000190: e339 a4bd 15d6 113e 1f9b e2bc 020c 413d
000001a0: cc1b 093e 6e00 0f3d aa6f c23d 8e69 983d
000001b0: 80a5 1ebd 8d55 8dbc 7983 8ebd 7818 a1bd
000001c0: a93b c4bd 6bce 263e ed23 b63d 7e3d 98bb
000001d0: 4907 063e 31dc abbd 6d2a 44bd de43 46bd
000001e0: a870 e73d f596 01bc 7824 2cbd 2626 7a3d
000001f0: 9e0a 19bd 8519 69bb 8e28 c33d 2c06 b4bb
00000200: 0053 1c3c 3a75 c83d bc06 98bd 06ed d13d
00000210: dc16 d2bd 2aa5 e23d 9c5f bf3d f4a6 d0bd
00000220: 2060 2ebc 98e6 1e3d a482 03bd 4054 a33d
00000230: bce0 5abd ce9a c83d 0080 1cbc 1e71 afbd
00000240: 707c 0f3d e832 2fbd be10 d13d a8ba abbd
00000250: 6478 db3d 4030 a9bb 6ae4 c7bd bc7b f8bd
00000260: cc6c 0e3d dadb 933d d011 7dbd 5c1a b23d
00000270: d851 f53c 002c c239 5e70 c53d 9845 8cbc
00000280: 4494 68bd f0fd e93d 2e22 d8bd b649 913d
00000290: a422 c3bd 6a03 97bd e853 9ebd 5ac6 fe3d
000002a0: e6ae ffbd 8213 bdbd 0029 ab3d b6a6 fdbd
000002b0: 60e0 48bc 8c79 1c3d e82b 38bd d47e 4f3d
000002c0: 80e5 c53b b805 f23d 5c75 d6bd 60bc 0fbd
000002d0: 38f4 a0bd 3803 b2bc 0097 e9bd bee7 cb3d
000002e0: f4b6 793d a406 3e3d c07f 063c b0f4 d13c
000002f0: 001c cdbb e02f cfbb 76ee c1bd c4df 49bd
00000300: afb8 01be 1eed 103e ab6b 573d 620f ecbd
00000310: 1327 073d 9090 05bc 18f9 edbc 9062 663c
00000320: 4ae0 fa3d e770 3d3d 8040 093e aee4 fcbb
00000330: 5a4e a3bd e6f5 933d d88f f7bd e488 d03d
00000340: c518 03bd 13bc 033e 9cb0 073d 12cd 12bc
00000350: af81 f13b 1ede 7d3d 6ce3 c0bd b805 243e
00000360: 1310 6fbd 6427 b43d 6c86 4ebd 4c04 093e
00000370: a8b9 8cbc 9a2e 16b9 e176 9d3d e418 2cbd
00000380: 2e78 013e 81e8 1fbd af36 cd3b c236 09bc
00000390: bbee 8dbd 0568 e53d 917e e53d 37d4 d83d
000003a0: b6f3 263d 638f 983d d4bf 1fbd 286b 2abc
000003b0: e436 713d 6a5d 493d 28f9 e73d 3022 98bd
000003c0: ff7a f33d 22bb 373d ccdd ad3d 4473 c5bb
000003d0: cfd8 a33d c660 db3d 81a8 25bd 97b6 4fbd
000003e0: c677 eebd 7ced 0c3e bc04 893d 7533 08be
000003f0: 8d5a fd3d 78ff 20be 9092 563d 8691 aebd

net.4.bias f4 [128]
-0.052199274 -0.014843827 -0.07904668 -0.11269764 0.10287687 0.113240965 -0.06781235 0.052031662
0.07518262 0.009197298 0.045495905 -0.038906455 -0.10920867 0.09697589 -0.10414961 -0.067920834
0.08725795 -0.1060524 -0.022478279 -0.025979377 -0.07419391 -0.08704495 -0.053297244 -0.0390492
0.11550135 0.011009668 -0.047633834 -0.12455164 -0.016149918 -0.04982662 0.041988064 0.06407239
0.091485865 0.06459976 0.05189413 -0.12023538 0.121479444 0.033857215 -0.061143998 -0.02833402
0.0013167737 0.06277124 0.06971339 0.085767075 -0.11272876 0.03584406 -0.072358705 -0.0675416
0.02777429 0.016288249 0.0741154 -0.066975765 0.058490556 0.040012043 0.04285835 -0.054129664
0.11430892 -0.01700645 0.067445844 -0.08588139 -0.07391482 -0.0048749037 -0.062148377 -0.02174507
-0.051841393 -0.03281349 0.10323491 0.1024228 0.109865844 -0.0072869225 0.0029415276 0.14818773
-0.046070315 -0.024790334 0.10040278 -0.11507287 -0.047575705 0.09885411 0.06721487 0.023346892
0.036767624 0.052427836 0.019612407 -0.11854884 0.08037977 -0.077074654 0.0044299467 0.09387623
0.021765325 0.09036796 0.09207478 -0.090974994 0.13899338 0.1060246 0.018792955 0.023212112
-0.10710901 -0.034687225 0.05658925 -0.08491789 -0.09940016 0.055072647 0.06538656 0.05512719
-0.015817514 -0.09669673 -0.035664424 -0.05881144 -0.081971616 0.026845112 0.026680546 0.041035574
0.045482423 -0.08414691 0.044149984 0.08491755 0.076769225 0.07481688 0.04702319 -0.022107173
0.0031752838 -0.029075954 -0.014735733 0.035537984 0.033889506 -0.03759106 -0.017108697 0.10164652
00000000: e8ce 55bd 8633 73bc 3ae3 a1bd 05ce e6bd
00000010: 1cb1 d23d e1ea e73d 34e1 8abd 271f 553d
00000020: 58f9 993d 44b0 163c ea59 3a3d 605c 1fbd
00000030: cca8 dfbd 4c9b c63d 644c d5bd 141a 8bbd
00000040: 4cb4 b23d 0032 d9bd 5e24 b8bc b4d2 d4bc
00000050: faf2 97bd 9f44 b2bd 364e 5abd 0ef2 1fbd
00000060: f98b ec3d e561 343c b21b 43bd ee14 ffbd
00000070: d54c 84bc ff16 4cbd adfb 2b3d 6338 833d
00000080: f15c bb3d e14c 843d f08e 543d f83d f6bd
00000090: 37ca f83d ddad 0a3d 2172 7abd bf1c e8bc
000000a0: 9897 ac3a 358e 803d e5c5 8e3d a6a6 af3d
000000b0: 56de e6bd 39d1 123d cd30 94bd 4053 8abd
000000c0: e886 e33c ef6e 853c d1c9 973d 972a 89bd
000000d0: cb93 6f3d abe3 233d 3d8c 2f3d 11b7 5dbd
000000e0: cc1a ea3d 1c51 8bbc 0c21 8a3d 95e2 afbd
000000f0: a760 97bd a8bd 9fbb 4c8f 7ebd b822 b2bc
00000100: a457 54bd 7067 06bd d36c d33d 0cc3 d13d
00000110: 5801 e13d 23c7 eebb a5c6 403b 86be 173e
00000120: 3ab4 3cbd 1915 cbbc f99f cd3d 53ab ebbd
00000130: bede 42bd 0674 ca3d f3a7 893d fb41 bf3c
00000140: a699 163d 92be 563d 33aa a03c bcc9 f2bd
00000150: 269e a43d 51d9 9dbd 1629 913b 2e42 c03d
00000160: 324d b23c d612 b93d b491 bc3d 1951 babd
00000170: 4854 0e3e 6d23 d93d aff3 993c 5427 be3c
00000180: f85b dbbd 3114 0ebd 21ca 673d 6ee9 adbd
00000190: 5092 cbbd db93 613d 64e9 853d 0ccd 613d
000001a0: bb93 81bc ef08 c6bd dc14 12bd 44e4 70bd
000001b0: bce0 a7bd 48ea db3c 2991 da3c eb14 283d
000001c0: c74b 3a3d 3755 acbd 9dd6 343d 41e9 ad3d
000001d0: 2f39 9d3d 9839 993d 639b 403d 1a1a b5bc
000001e0: 6c18 503b b230 eebc 256e 71bc 4790 113d
000001f0: b9cf 0a3d 15f9 19bd 8a27 8cbc 0d2c d03d

net.6.weight f4 [192, 128]
0.015081565 0.03228851 0.00236192 0.08519214 0.09700583 0.06924655 -0.018734885 0.051793326
-0.022402162 0.18886927 0.00017653627 0.0735512 0.02996704 -0.07464182 0.008358805 -0.045665532
0.120877445 0.019845327 0.09555737 0.02598993 0.06330348 0.13888238 -0.038642604 -0.05393371
0.026943866 0.122617155 0.03225335 0.045270234 0.045278076 0.08891399 0.03395041 0.02434643
0.11498369 0.003294593 0.08695088 -0.04351405 0.0058441334 0.112058304 0.044290155 -0.004912587
-0.020599931 -0.058856037 0.06317622 -0.0068931635 0.07951426 -0.07145879 0.21166149 0.05096716
0.10566714 0.012011974 0.032684382 0.00410918 0.007296365 0.034957513 0.0103969425 -0.0018332448
0.1331315 -0.022060143 -0.032132864 0.041633647 -0.00714297 -0.008600014 0.014097907 0.016910907
0.03712935 -0.00044724127 -0.035033748 0.08711583 -0.013345471 0.040689133 0.072927006 -0.06051785
0.031077612 0.026336111 -0.050523736 0.09575695 0.05585362 0.06914242 0.052800875 -0.01986771
-0.028476238 0.024800476 -0.096643955 0.1357612 -0.059979334 0.09066069 -0.034122385 0.06935596
0.12863314 0.0026008778 -0.008103948 0.054735374 -0.07875691 -0.036617976 0.05801466 0.03869846
-0.06544141 0.13936232 0.072456434 -0.03176664 0.04245948 0.085685305 -0.028865775 0.02535052
-0.07046641 0.09237455 0.1198926 -0.045802064 0.11277615 -0.00983522 -0.023102568 -0.11346988
0.024352452 0.056838118 -0.010203367 0.04162782 0.01585758 -0.024344146 -0.11549877 0.05555183
0.1516953 0.06801476 -0.06670756 0.020489529 0.094233595 0.026982838 0.10498223 -0.020173589
-0.05031678 0.019067023 -0.03405027 0.14315943 -0.056018874 -0.0022883692 -0.09190374 0.057462923
0.053294968 0.059079446 0.0011215124 0.080911964 0.09659541 0.00028744343 0.07067138 -0.040214103
0.022333277 -0.0654647 -0.00300979 -0.011036209 -0.07826791 0.14380258 0.036887698 -0.050081342
0.027323028 0.11785682 0.094364986 0.020825274 0.15391417 0.0017543277 0.01026386 0.021028154
0.048660252 -0.020019077 0.076526694 -0.022502897 -0.0025940868 0.111290626 0.017505493 0.024323303
0.08901717 0.05428723 0.07780651 0.0871999 0.040952437 -0.031874813 0.03605541 0.13806657
0.054234 0.040825598 0.14065956 0.11160463 0.16169745 0.11080759 0.1395759 -0.054169923
0.004749705 0.004972315 -0.08251879 0.06272255 0.04248855 -0.07052529 0.0024863505 0.023345793
0.045903068 -0.07844086 -0.03922294 -0.04714759 0.05535816 -0.048760746 0.01204725 0.03714465
0.057694886 -0.037525225 -0.030734835 0.0467317 0.11007206 -0.07388145 -0.082102984 0.0057015736
-0.047002073 0.068483695 -0.085884504 0.09522938 0.07468535 0.00120849 0.0387342 0.0035340034
0.0590242 0.03346352 -0.09518249 0.042077024 0.06919671 0.0117433565 -0.010663455 -0.016256634
-0.034870617 0.11458845 0.114316344 0.076107696 0.0012725656 0.07325863 0.07698545 0.11789844
-0.07498699 0.07866721 0.010998284 -0.009556608 -0.011059936 -0.04067563 -0.024099123 0.02150569
0.037386794 0.12791179 0.13032997 0.066061 -0.03217116 0.11338295 0.04832786 -0.03994582
0.16947025 0.033683844 -0.054350283 0.0676373 0.058993552 -0.0036753542 0.080780506 0.06826755
00000000: ab18 773c f540 043d 71ca 1a3b 3779 ae3d
00000010: feaa c63d 23d1 8d3d e779 99bc 3d25 543d
00000020: bd84 b7bc f266 413e 981c 3939 03a2 963d
00000030: 707d f53c cfdd 98bd 5ff3 083c c80b 3bbd
00000040: 988e f73d ab92 a23c 95b3 c33d d5e8 d43c
00000050: 41a5 813d 2f37 0e3e b547 1ebd 98e9 5cbd
00000060: 62b9 dc3c b41e fb3d 171c 043d 486d 393d
00000070: 8175 393d 8a18 b63d 960f 0b3d 2a72 c73c
00000080: 927c eb3d 19ea 573b 4e13 b23d ca3b 32bd
00000090: 2580 bf3b d37e e53d 9869 353d c4f9 a0bb
000000a0: 30c1 a8bc 0713 71bd 8962 813d 0ce0 e1bb
000000b0: 5fd8 a23d fc58 92bd cabd 583e f1c2 503d
000000c0: 0368 d83d dfcd 443c 0fe0 053d 4da6 863b
000000d0: 5916 ef3b 9c2f 0f3d f057 2a3c 7d49 f0ba
000000e0: a053 083e 79b7 b4bc c09d 03bd 0b88 2a3d
000000f0: 930f eabb 13e7 0cbc e8fa 663c be88 8a3c
00000100: f214 183d b57b eab9 8c7f 0fbd c969 b23d
00000110: f6a6 5abc a6a9 263d c15a 953d 91e1 77bd
00000120: 7a96 fe3c d4be d73c faf1 4ebd 381c c43d
00000130: c4c6 643d 8b9a 8d3d bb45 583d 9cc1 a2bc
00000140: 0047 e9bc 5e2a cb3c 44ed c5bd fc04 0b3e
00000150: e4ac 75bd 50ac b93d eac3 0bbd 7f0a 8e3d
00000160: 68b8 033e 7d73 2a3b 6cc6 04bc 3332 603d
00000170: 4e4b a1bd bbfc 15bd c8a0 6d3d 4782 1e3d
00000180: 2506 86bd ffb4 0e3e 0a64 943d bc1d 02bd
00000190: fee9 2d3d c77b af3d eb77 ecbc e5ab cf3c
000001a0: b150 90bd de2e bd3d 408a f53d f29a 3bbd
000001b0: 2ff7 e63d e723 21bc 9941 bdbc e562 e8bd
000001c0: cb7e c73c 16cf 683d 062c 27bc ef81 2a3d
000001d0: c1e7 813c 606d c7bc 9e8a ecbd 518a 633d
000001e0: 0356 1b3e 534b 8b3d f99d 88bd a8d9 a73c
000001f0: 8bfd c03d 1d0b dd3c ec00 d73d 1543 a5bc
00000200: f818 4ebd 7232 9c3c 4c78 0bbd 6398 123e
00000210: 0c74 65bd 77f8 15bb 0738 bcbd 3e5e 6b3d
00000220: d34b 5a3d 4afd 713d b6ff 923a 2cb5 a53d
00000230: d0d3 c53d 01b4 9639 28bc 903d 8bb7 24bd
00000240: 47f4 b63c 5b12 86bd e63f 45bb 37d1 34bc
00000250: ed4a a0bd fc40 133e 8e17 173d 1822 4dbd
00000260: 8bd4 df3c eb5e f13d 6e42 c13d c499 aa3c
00000270: ad9b 1d3e 78f1 e53a c029 283c 3c43 ac3c
00000280: f94f 473d 0cff a3bc 07ba 9c3d ff57 b8bc
00000290: 8e01 2abb 57ec e33d ae67 8f3c aa41 c73c
000002a0: a24e b63d 495c 5e3d 0559 9f3d dc95 b23d
000002b0: bebd 273d 2a8f 02bd d6ae 133d 5361 0d3e
000002c0: 7924 5e3d be38 273d 0f09 103e f890 e43d
000002d0: 0494 253e 17ef e23d fcec 0e3e 48e1 5dbd
000002e0: 6aa3 9b3b cdee a23b 9dff a8bd ae74 803d
000002f0: 7908 2e3d 906f 90bd 0af2 223b ad3f bf3c
00000300: db04 3c3d 9aa5 a0bd 3ca8 20bd d51d 41bd
00000310: 3dbf 623d 59b9 47bd d461 453c fd24 183d
00000320: 7951 6c3d 0db4 19bd 9fc7 fbbc bd69 3f3d
00000330: 766d e13d 284f 97bd 9c25 a8bd 44d4 ba3b
00000340: 3f85 40bd 2e41 8c3d 37e4 afbd 9f07 c33d
00000350: a2f4 983d 3266 9e3a c1a7 1e3d bd9a 673b
00000360: 5cc3 713d 0b11 093d 0aef c2bd f558 2c3d
00000370: 01b7 8d3d 3567 403c c6b5 2ebc a22c 85bc
00000380: 7ed4 0ebd 59ad ea3d b01e ea3d 5ade 9b3d
00000390: 37cc a63a 9f08 963d 8caa 9d3d bd74 f13d
000003a0: c792 99bd 461c a13d 2632 343c 5293 1cbc
000003b0: bc34 35bc 7d9b 26bd 866b c5bc b32c b03c
000003c0: e522 193d 4ffb 023e 3875 053e fd4a 873d
000003d0: e8c5 03bd 5235 e83d 6ff3 453d 3a9e 23bd
000003e0: 9c89 2d3e 12f8 093d 679e 5ebd 6d85 8a3d
000003f0: 39a3 713d 36de 70bb 4070 a53d dbcf 8b3d

net.6.bias f4 [192]
0.05154084 -0.06579832 -0.01820032 -0.06031539 -0.0062122005 -0.041081037 0.038619477 -0.06347866
-0.035444286 0.015100614 -0.06302812 -0.040077526 0.02663273 0.0375262 0.06096321 -0.07969585
-0.029919967 -0.07479477 -0.082207635 -0.030691154 -0.07845678 -0.067537464 0.08541488 0.067704044
0.03129987 -0.08887138 0.034576878 -0.0577495 -0.086780064 -0.017234465 -0.03672627 -0.012505992
0.08657599 0.047482293 0.04804594 -0.059078895 0.017600644 0.0010028214 -0.0068130293 0.035271853
-0.0126713235 -0.008308419 -0.060604375 -0.08527391 0.09211088 0.048776876 -0.07437389 -0.0048709693
0.0715388 0.015932139 -0.03758212 0.0381377 -0.09562762 0.0020974844 0.03334154 -0.045809798
-0.028508332 0.039822854 -0.043612324 0.09318837 -0.014823105 -0.005192355 -0.007575042 0.0439903
-0.09809307 0.08892975 0.0155234365 0.02878101 0.02949157 0.064429626 -0.015032182 0.107179336
-0.0034484763 -0.08606906 -0.05427194 0.06560359 -0.008567166 0.028834665 -0.0068570683 -0.07737546
-0.02533427 -0.0046422393 0.014543241 0.05116158 -0.035439167 -0.025019143 -0.022508658 -0.032367013
0.032569073 -0.060625304 0.09372926 -0.067362614 -0.0012921906 0.024335913 0.018636106 -0.028334148
0.016293667 -0.045254327 -0.083004035 0.057855196 0.049756154 -0.07927387 -0.084646896 0.10722332
0.026870275 0.08223942 0.018960387 0.06103342 0.054029472 0.033176478 -0.045221444 -0.04229446
-0.026125558 -0.03957683 -0.081264906 0.056672733 -0.0042721485 -0.07445824 -0.059068535 -0.061429884
-0.04708357 0.06174635 0.0033127363 -0.0272337 -0.08364244 -0.032368734 -0.08552038 -0.013926256
0.026135407 -0.008139015 0.004460233 -0.07161594 -0.07769172 -0.01981408 -0.080059946 0.030638777
0.014085771 -0.027381461 -0.052129887 0.031800188 -0.014829437 -0.0054800333 0.0485811 0.027492981
-0.033141557 0.06495184 -0.009367392 -0.026789721 -0.09127723 -0.056486234 -0.054085564 0.0089164665
-0.056663226 0.008149976 0.052677795 -0.07469977 0.098928005 0.101380244 -0.07811015 -0.062193964
-0.0783199 0.0056676487 -0.03786102 -0.05592706 -0.02430264 0.043552767 0.027097728 0.02888134
-0.0066578654 -0.07277068 0.111922234 -0.04359799 0.028348979 0.004831601 0.006845042 0.053378314
-0.054386433 -0.09793665 -0.031576462 0.045052525 -0.07506259 -0.10071195 -0.06515095 -0.065777816
0.0453553 -0.011159043 0.010474841 0.024883887 0.052335348 -0.06947435 0.058690168 -0.057334505
00000000: 7d1c 533d 45c1 86bd d618 95bc 450d 77bd
00000010: b78f cbbb 9744 28bd 752f 1e3d 1a01 82bd
00000020: 072e 11bd 9168 773c e314 81bd 5528 24bd
00000030: e22c da3c 13b5 193d 8fb4 793d 9437 a3bd
00000040: b81a f5bc 002e 99bd 7a5c a8bd 046c fbbc
00000050: f3ad a0bd 1551 8abd ffed ae3d 6ba8 8a3d
00000060: 4b34 003d 3302 b6bd 7ca0 0d3d bd8a 6cbd
00000070: bfb9 b1bd 4b2f 8dbc 496e 16bd efe5 4cbc
00000080: c14e b13d cb7c 423d d2cb 443d b6fc 71bd
00000090: 3a2f 903c 1a71 833a d53f dfbb 3879 103d
000000a0: 629b 4fbc 0920 08bc 4b3c 78bd 16a4 aebd
000000b0: a1a4 bc3d 43ca 473d 5751 98bd a79c 9fbb
000000c0: ef82 923d 1e84 823c b6ef 19bd 4736 1c3d
000000d0: 6ad8 c3bd f375 093b 2391 083d 0ea3 3bbd
000000e0: 4e8a e9bc 4a1d 233d d6a2 32bd 8bd9 be3d
000000f0: 9cdc 72bc a124 aabb 0f38 f8bb 2c2f 343d
00000100: 05e5 c8bd cd20 b63d 0356 7e3c 27c6 eb3c
00000110: 4e98 f13c aef3 833d 8b49 76bc d780 db3d
00000120: d5ff 61bb fa44 b0bd 414c 5ebd 2d5b 863d
00000130: 4c5d 0cbc ad36 ec3c 42b1 e0bb 0677 9ebd
00000140: d189 cfbc ed1d 98bb c646 6e3c ce8e 513d
00000150: a928 11bd f2f4 ccbc 1464 b8bc 4693 04bd
00000160: 2667 053d 3d52 78bd 20f5 bf3d 69f5 89bd
00000170: b95e a9ba 1c5c c73c bfaa 983c 041d e8bc
00000180: 4c7a 853c 9a5c 39bd 05fe a9bd 92f9 6c3d
00000190: 1ccd 4b3d 575a a2bd 5a5b adbd e697 db3d
000001a0: 0d1f dc3c 246d a83d d052 9b3c 2efe 793d
000001b0: 024e 5d3d 0fe4 073d 1f3a 39bd f53c 2dbd
000001c0: 4405 d6bc 501b 22bd 376e a6bd ab21 683d
000001d0: 61fd 8bbb 907d 98bd d9f1 71bd e79d 7bbd
000001e0: b4da 40bd bee9 7c3d 7e1a 593b 3519 dfbc
000001f0: ba4c abbd 1495 04bd 4f25 afbd f42a 64bc
00000200: ec19 d63c 8159 05bc 2527 923b 61ab 92bd
00000210: d61c 9fbd 2351 a2bc 78f6 a3bd 2cfe fa3c
00000220: 01c8 663c 164f e0bc 2686 55bd ea40 023d
00000230: 2bf7 72bc da91 b3bb fafc 463d f638 e13c
00000240: 71bf 07bd 7805 853d b179 19bc 1e76 dbbc
00000250: 8eef babd 1c5e 67bd d388 5dbd 5f16 123c
00000260: b317 68bd 7a87 053c acc4 573d 31fc 98bd
00000270: c49a ca3d 72a0 cf3d 37f8 9fbd 19bf 7ebd
00000280: 2f66 a0bd afb7 b93b 2814 1bbd c613 65bd
00000290: 5516 c7bc 6364 323d 0efc dd3c 8f98 ec3c
000002a0: 392a dabb cb08 95bd 7c37 e53d ce93 32bd
000002b0: 1e3c e83c 6852 9e3b 604c e03b 38a3 5a3d
000002c0: 4fc4 5ebd 0393 c8bd 5256 01bd ff88 383d
000002d0: 6aba 99bd 1142 cebd dc6d 85bd 85b6 86bd
000002e0: 7bc6 393d 6bd4 36bc ab9e 2b3c 4bd9 cb3c
000002f0: 975d 563d 9148 8ebd 1a65 703d 96d7 6abd

net.8.weight f4 [192, 192]
0.045798417 -0.029129513 0.07116177 0.04863618 0.0002508948 -0.012251931 -0.030233912 0.028401107
0.05074457 -0.0055339327 -0.036129594 0.010422316 -0.07045527 -0.043991093 -0.027314808 0.06795214
0.060486786 -0.006439487 -0.026589843 -0.023156887 -0.061694615 -0.026684564 0.011521159 -0.055912152
-0.028264506 0.02561276 -0.06261962 0.07026165 -0.04578454 0.049186893 0.06982276 0.0686487
0.014351539 0.027844781 0.056730222 0.034158345 -0.0013420201 -0.06425094 0.04481975 -0.05351066
-0.029604074 0.025146408 -0.061313003 -0.03561667 -0.052853685 0.06783221 0.02778074 0.0020513185
-0.047373936 0.018151887 0.011920562 -0.053905685 0.00086961896 0.016537575 0.022934511 -0.043215584
0.0062208115 0.0037850677 -0.055755954 -0.051122326 -0.06562052 -0.053718373 -0.04948797 0.018160928
-0.022182515 -0.05725726 0.033911966 0.05038961 -0.0017776511 -0.010919908 -0.04057873 0.0026400005
0.023748063 -0.013619494 -0.05124452 0.015398143 -0.012558892 -0.043523956 0.033208836 0.039316695
0.018178461 -0.046298932 0.03724707 0.01582727 -0.07191125 -0.016675407 0.0160506 0.0679538
0.007867806 -0.07102726 -0.0655429 0.011866525 0.044440452 -0.055525593 -0.03373895 -0.071136445
-0.029931897 0.025476934 0.056510195 -0.06500682 0.05437867 0.049333554 -0.017200597 -0.03963541
0.055728063 -0.05116561 0.07108746 -0.019763952 -0.004277024 -0.0506581 -0.04068689 -0.067752935
0.0014348829 0.005931443 -0.06528385 -0.05041831 -0.071755916 -0.015318719 -0.025182446 -0.055346295
-0.020805782 0.014784005 0.014590346 0.040634178 0.0702488 -0.061421204 -0.052752383 -0.036699098
0.04853355 0.025115093 -0.00529639 -0.0036027404 -0.009749556 0.036092807 -0.015471967 -0.005309398
0.011421517 -0.027250154 0.071545914 -0.006058271 0.06419628 0.030467473 -0.069723636 0.030124877
0.037722234 -0.0533082 0.04254592 0.0043965736 -0.06444657 -0.014872083 -0.030078737 -0.032789085
-0.019668173 0.01979845 0.020353097 -0.057466354 0.07055521 -0.014794509 0.0648537 -0.068749815
0.031383395 -0.04006204 0.048533637 0.036229182 -0.06010035 0.068409346 -0.0070921336 0.023825474
-0.053201064 -0.026628101 -0.02858198 0.06510846 0.07201283 0.03435361 0.043135297 0.055089094
0.062100004 0.051375087 -0.050230175 -0.026524432 -0.059059888 -0.0070641907 0.010370981 0.033831973
0.04874444 -0.03544101 0.06936698 -0.026386274 -0.06697843 -0.03710226 0.04209447 0.001532684
0.13433005 0.12103435 0.036841545 0.046647727 0.10178674 0.014182684 0.04579441 -0.042012993
-0.018096387 0.08101349 0.0820389 0.10380224 0.113651395 0.1208565 0.06526198 0.021455212
0.14136031 0.10085284 0.053451285 -0.027362535 0.043112595 0.113026604 -0.06676103 0.06639777
0.034742035 0.108434565 0.026519885 0.16062555 0.004184273 -0.053129602 0.037104856 0.0969513
-0.013247486 0.115578376 0.09168793 0.120236896 0.03831468 0.088887945 0.03858082 0.11413155
0.0047499156 -0.03939181 0.029847044 0.06406107 -0.04415134 0.10199598 -0.03545223 0.05637616
0.0709652 -0.015658965 -0.06408693 0.17037803 0.009292308 0.18000467 -0.11920883 0.06192474
0.18612684 0.09198094 0.11749912 -0.123936206 0.11961704 0.009508726 0.10407972 0.037411984
00000000: 1f97 3b3d 04a1 eebc 43bd 913d bb36 473d
00000010: 888a 8339 53bc 48bc 1cad f7bc 70a9 e83c
00000020: 8ad9 4f3d fe55 b5bb a0fc 13bd 5dc2 2a3c
00000030: da4a 90bd 0130 34bd 4ec3 dfbc 7e2a 8b3d
00000040: fec0 773d 5502 d3bb f1d2 d9bc 83b3 bdbc
00000050: 7eb3 7cbd 9699 dabc 3ec3 3c3c 2404 65bd
00000060: f78a e7bc dad1 d13c b73e 80bd 57e5 8f3d
00000070: 9288 3bbd 3278 493d 3cff 8e3d b197 8c3d
00000080: b822 6b3c bd1a e43c f35d 683d 9fe9 0b3d
00000090: b9e6 afba ff95 83bd ea94 373d fe2d 5bbd
000000a0: 3e84 f2bc d7ff cd3c 5823 7bbd c9e2 11bd
000000b0: 1b7d 58bd 9deb 8a3d 6f94 e33c 6a6f 063b
000000c0: 2c0b 42bd 44b3 943c 764e 433c 35cc 5cbd
000000d0: 24f7 633a cf79 873c 28e1 bb3c d302 31bd
000000e0: f3d7 cb3b e60e 783b 5b60 64bd a565 51bd
000000f0: 0d64 86bd cc07 5cbd e6b3 4abd 3ac6 943c
00000100: 1bb8 b5bc 9786 6abd 46e7 0a3d 5665 4e3d
00000110: 1300 e9ba 6ae9 32bc e235 26bd dc03 2d3b
00000120: 4c8b c23c 4c24 5fbc c6e5 51bd 7e48 7c3c
00000130: d0c3 4dbc 2d46 32bd fd05 083d 8b0a 213d
00000140: ffea 943c f3a3 3dbd 6290 183d 31a8 813c
00000150: 3546 93bd dd9a 88bc 8c7c 833c 5d2b 8b3d
00000160: f8e7 003c bd76 91bd 5b3b 86bd d06b 423c
00000170: 3107 363d ce6e 63bd da31 0abd fcaf 91bd
00000180: bd33 f5bc 01b5 d03c 3c77 673d 4c22 85bd
00000190: 2bbc 5e3d fb11 4a3d 44e8 8cbc bd58 22bd
000001a0: 1c43 643d 0893 51bd 4d96 913d 03e8 a1bc
000001b0: 4726 8cbb de7e 4fbd 4ca7 26bd 0dc2 8abd
000001c0: ae12 bc3a 8d5c c23b 8ab3 85bd 6e83 4ebd
000001d0: c4f4 92bd 5dfb 7abc 6b4b cebc ccb2 62bd
000001e0: e370 aabc 9c38 723c 590c 6f3c 0670 263d
000001f0: 9ade 8f3d cd94 7bbd e212 58bd cb51 16bd
00000200: 1ecb 463d 2bbe cd3c 578d adbb f41b 6cbb
00000210: 9abc 1fbc 0dd6 133d 227e 7dbc 75fa adbb
00000220: 5021 3b3c b73b dfbc aa86 923d 7684 c6bb
00000230: 5779 833d ec96 f93c 44cb 8ebd 72c8 f63c
00000240: a182 1a3d b359 5abd a144 2e3d 2211 903b
00000250: 90fc 83bd 0aaa 73bc af67 f6bc d94d 06bd
00000260: 261f a1bc 5c30 a23c 8abb a63c d761 6bbd
00000270: 407f 903d ab64 72bc 04d2 843d b4cc 8cbd
00000280: e08b 003d 1818 24bd 35cb 463d 0d65 143d
00000290: c92b 76bd 331a 8c3d 2165 e8bb a42d c33c
000002a0: 5ce9 59bd 2d23 dabc c224 eabc 9657 853d
000002b0: 767b 933d 5fb6 0c3d a3ae 303d 1aa5 613d
000002c0: 935c 7e3d af6e 523d 28be 4dbd c449 d9bc
000002d0: c8e8 71bd ba7a e7bb 0ceb 293c 6593 0a3d
000002e0: 40a8 473d 982a 11bd 4610 8e3d 0728 d8bc
000002f0: fd2b 89bd 8af8 17bd 406b 2c3d 57e4 c83a
00000300: d18d 093e dbe0 f73d 29e7 163d b011 3f3d
00000310: 9175 d03d 7d5e 683c eb92 3b3d d115 2cbd
00000320: e03e 94bc 67ea a53d 0304 a83d 4596 d43d
00000330: 10c2 e83d 9d83 f73d 13a8 853d d7c2 af3c
00000340: c2c0 103e ef8b ce3d bcef 5a3d 6527 e0bc
00000350: d596 303d 7e7a e73d 02ba 88bd 8efb 873d
00000360: aa4d 0e3d f112 de3d 3b40 d93c 067b 243e
00000370: 3a1c 893b 6d9e 59bd 43fb 173d 678e c63d
00000380: fc0b 59bc 5bb4 ec3d e2c6 bb3d c33e f63d
00000390: dbef 1c3d e20a b63d ec06 1e3d cdbd e93d
000003a0: 2ea5 9b3b 4e59 21bd ca81 f43c 7332 833d
000003b0: 09d8 34bd 45e3 d03d 5c36 11bd b0ea 663d
000003c0: 3456 913d 3b47 80bc 0240 83bd 9477 2e3e
000003d0: c43e 183c 2553 383e c223 f4bd cca4 7d3d
000003e0: 0998 3e3e 8160 bc3d 61a3 f03d 44d2 fdbd
000003f0: c7f9 f43d 7dca 1b3c c027 d53d 4f3d 193d

net.8.bias f4 [192]
-0.06633788 -0.023175333 -0.010971695 -0.0333655 -0.04957123 -0.043458212 0.0778459 -0.006536023
-0.0066972226 0.065567926 0.07514058 0.02138759 0.068191774 -0.06554123 0.0285705 -0.049299266
-0.057881095 -0.06656768 0.023002835 0.067814186 -0.0017816693 0.06667447 -0.08175172 -0.046830263
-0.025591334 0.028225156 -0.013900853 -0.05781863 0.019356668 -0.003201717 -0.005919083 -0.029965304
-0.048499476 -0.015945697 0.00083718105 0.02229643 -0.025787832 -0.0724391 0.019706473 -0.018101793
-0.07886375 -0.010002515 -0.04095146 -0.07192088 0.068997204 0.061367076 -0.06496163 0.0026877301
0.044479195 -0.045790188 -0.039809488 0.020259203 -0.0822317 -0.025650417 -0.043715384 -0.06349965
-0.019038444 -0.0047556167 -0.052373208 -0.04002885 0.008133006 -0.052825928 0.020694796 -0.06584365
-0.01533509 0.061728895 -0.06896099 0.01194667 -0.060120568 0.069416694 0.06576972 -0.0046880227
-0.034520723 0.07260798 -0.017799342 0.027761826 -0.029547492 -0.042266577 -0.08079555 0.007269178
-0.03883917 -0.03870419 -0.019090984 -0.062250372 -0.06289432 0.08473466 0.0045895623 0.019912606
-0.036589958 0.042438876 -0.026096983 0.018167257 -0.068836324 -0.10101522 -0.034039304 0.065619245
-0.08367571 0.033819675 -0.022765433 0.031810336 0.01899885 -0.068645574 -0.0034432476 0.033865172
0.010895223 -0.07356355 0.035413854 -0.04606101 0.031179262 0.039926443 0.012977406 -0.035142437
-0.078045554 0.08786877 -0.052944086 0.0041243862 -0.008483152 -0.03220759 0.032604013 -0.06406219
-0.0445397 -0.011239486 -0.021557687 -0.0028637364 0.08501793 -0.020953644 -0.032351915 -0.05616453
0.0036883492 0.027562605 -0.034546178 0.03290622 0.028073827 -0.0354093 -0.06191987 -0.064297974
-0.022357726 -0.05893066 -0.018629206 -0.071759455 0.091476604 -0.021461964 0.034795456 -0.05002641
-0.023794727 -0.07202165 -0.026844608 -0.028199898 -0.08280387 0.0014623667 -0.05018586 -0.06666198
-0.060137615 0.001884902 -0.014293851 0.026850969 -0.070830524 -0.04056987 0.03883761 0.029197559
-0.036520988 0.09989494 -0.06836055 0.0013741292 0.020538365 0.027160946 -0.049544998 0.024213346
-0.039073277 0.043987337 0.01689305 0.011993627 -0.014772106 -0.020068407 0.01627591 0.006345563
0.024364362 0.038812082 0.031681113 0.060851768 -0.008309847 0.022606816 0.040329643 -0.03250057
-0.06474707 -0.0020663135 -0.05744432 0.03597465 0.016000874 -0.0013753489 -0.064504504 -0.04845454
00000000: 28dc 87bd 32da bdbc a0c2 33bc 43aa 08bd
00000010: 340b 4bbd 3d01 32bd ac6d 9f3d 232c d6bb
00000020: 6074 dbbb 7a48 863d 4ee3 993d 0735 af3c
00000030: 21a8 8b3d 7b3a 86bd ae0c ea3c 07ee 49bd
00000040: ba14 6dbd a354 88bd 7170 bc3c 2ae2 8a3d
00000050: e786 e9ba a08c 883d 726d a7bd 17d1 3fbd
00000060: eba4 d1bc 7138 e73c 67c0 63bc 3ad3 6cbd
00000070: e091 9e3c e6d3 51bb def4 c1bb cc79 f5bc
00000080: 63a7 46bd 8da0 82bc 4576 5b3a 01a7 b63c
00000090: 0141 d3bc f35a 94bd 786f a13c 364a 94bc
000000a0: 5183 a1bd 97e1 23bc b8bc 27bd 414b 93bd
000000b0: 684e 8d3d 0b5c 7b3d 9a0a 85bd a124 303b
000000c0: d12f 363d 7e8e 3bbd 460f 23bd a1f6 a53c
000000d0: 1869 a8bd d320 d2bc e70e 33bd 1b0c 82bd
000000e0: 83f6 9bbc 01d5 9bbb 4a85 56bd 4bf5 23bd
000000f0: 4d40 053c 0060 58bd 2288 a93c 09d9 86bd
00000100: 0840 7bbc 70d7 7c3d 6b3b 8dbd f7bb 433c
00000110: fc40 76bd 572a 8e3d 46b2 863d fc9d 99bb
00000120: 9a65 0dbd 7eb3 943d edcf 91bc c56c e33c
00000130: 950d f2bc b81f 2dbd 2378 a5bd 4932 ee3b
00000140: d215 1fbd 4988 1ebd b264 9cbc 3ffa 7ebd
00000150: bdce 80bd 5e89 ad3d 0a64 963b c31f a33c
00000160: 5adf 15bd 63d4 2d3d 57c9 d5bc 80d3 943c
00000170: 0ffa 8cbd 11e1 cebd cc6c 0bbd 6263 863d
00000180: 2c5e abbd 8086 0a3d 937e babc 8e4b 023d
00000190: 7aa3 9b3c 0d96 8cbd 1ca8 61bb 35b6 0a3d
000001a0: e181 323c 7da8 96bd 1e0e 113d 78aa 3cbd
000001b0: a76b ff3c e989 233d 309f 543c 84f1 0fbd
000001c0: 59d6 9fbd 8bf4 b33d e6db 58bd dc25 873b
000001d0: ebfc 0abc 1bec 03bd c98b 053d 0a33 83bd
000001e0: 436f 36bd d225 38bc bf99 b0bc 86ad 3bbb
000001f0: e11d ae3d faa6 abbc 7183 04bd c70c 66bd
00000200: 3bb8 713b f9ca e13c 4b80 0dbd acc8 063d
00000210: 15fb e53c 5809 11bd b19f 7dbd a8ae 83bd
00000220: 8d27 b7bc 4761 71bd 479c 98bc 9ff6 92bd
00000230: 1658 bb3d 00d1 afbc ae85 0e3d 7ee8 4cbd
00000240: 29ed c2bc 1680 93bd 39e9 dbbc 7903 e7bc
00000250: 1395 a9bd e2ac bf3a b08f 4dbd 1386 88bd
00000260: dc52 76bd d10e f73a c230 6abc 90f6 db3c
00000270: 980f 91bd 982c 26bd 3014 1f3d b82f ef3c
00000280: 0897 15bd b895 cc3d 9e00 8cbd 201c b43a
00000290: 1340 a83c a280 de3c b2ef 4abd 115b c63c
000002a0: 4d0b 20bd 112c 343d 4b63 8a3c eb80 443c
000002b0: b406 72bc 8066 a4bc 0f55 853c 71ee cf3b
000002c0: c597 c73c 6bf9 1e3d 0ec4 013d b43f 793d
000002d0: 0626 08bc ee31 b93c b230 253d 511f 05bd
000002e0: 1d9a 84bd fd6a 07bb bc4a 6bbd 285a 133d
000002f0: 4414 833c 0d45 b4ba f01a 84bd 4578 46bd
