new_saved_models/guitar_audio_d5_g2_it2sk200_lr-test.pt (torch, 920633 bytes, 36 tensors)

net.0.weight f4 [64, 3]
0	0xbee09366	-0.43862456
1	0xbe87da1b	-0.2653359
2	0xbeca81bb	-0.39552101
3	0xbf01fafe	-0.5077361
4	0x3ec66332	0.38747555
5	0x3ee9bf87	0.45653936
6	0xbe8c1b5c	-0.27364624
7	0xbea1e0d2	-0.31616837
8	0xbec837e3	-0.39105138
9	0x3e9b4d4d	0.30332413
10	0x3f0c177b	0.5472333
11	0xbf0fc2f5	-0.56156856
12	0x3e80c250	0.2514825
13	0x3ee59121	0.44837287
14	0xbf1f98bb	-0.62342423
15	0x3ee242fb	0.44191727
16	0xbdbcfa12	-0.092273846
17	0x3f284047	0.6572308
18	0xbec7ccef	-0.3902354
19	0xbe30727c	-0.17231172
20	0x3e38ee59	0.18059672
21	0x3e8bd59f	0.27311417
22	0xbeb950b9	-0.361944
23	0x3efe2934	0.4964081
24	0xbd8a5415	-0.067543186
25	0x3d2cf113	0.042222094
26	0xbecf466e	-0.4048342
27	0xbd88d3a5	-0.06680993
28	0xbf20ac58	-0.62762976
29	0xbebc5ae0	-0.36788082
30	0xbe537b9a	-0.20652619
31	0x3eb090e1	0.34485534
32	0xbee65ed9	-0.44994238
33	0xbf126351	-0.57182795
34	0xbdcc79bf	-0.09984159
35	0xbefe6d82	-0.49692923
36	0x3edf8735	0.43657842
37	0xbec98bfd	-0.39364615
38	0x3e0dff6e	0.1386697
39	0xbeb58405	-0.35452285
40	0xbe4488fd	-0.19192882
41	0xbe93652c	-0.28788126
42	0x3e09e605	0.13466652
43	0x3f03c811	0.5147715
44	0x3cfb56ff	0.030681131
45	0x3cb2e0ee	0.02183577
46	0x3e899d5c	0.26877868
47	0x3e88fcfc	0.26755512
48	0x3dafe82b	0.085892044
49	0xbf0b1277	-0.5432505
50	0xbee08ab4	-0.43855822
51	0x3e8b0019	0.27148512
52	0xbebcc36a	-0.3686784
53	0xbea5c613	-0.3237768
54	0xbe8782ae	-0.26466888
55	0x3c6a48ba	0.014299566
56	0x3f24d57f	0.6438827
57	0x3e46a343	0.19398217
58	0xbf26e6e0	-0.6519604
59	0xbf24fbb2	-0.64446557
60	0x3e9175e9	0.2841027
61	0x3e90c31b	0.28273854
62	0xbe126a5d	-0.14298387
63	0xbeec8fb2	-0.4620338
64	0x3e5309f3	0.20609264
65	0xbebe5310	-0.37172747
66	0x3eb869ad	0.36018124
67	0xbdd3e68d	-0.103467084
68	0x3db5dae9	0.088796444
69	0xbe5e1ecb	-0.21691434
70	0xbe66075e	-0.22463748
71	0x3ea42429	0.32058838
72	0x3f123d34	0.5712464
73	0xbecf76f7	-0.4052045
74	0xbefbd51c	-0.49186027
75	0xbf2ad4b7	-0.6673083
76	0x3f0212b6	0.508098
77	0x3edf72d3	0.4364229
78	0x3e8b93d2	0.27261215
79	0xbec6efc1	-0.38854793
80	0x3f1c9ed5	0.6117986
81	0xbe221710	-0.1582911
82	0xbed40248	-0.4140799
83	0x3edccb4d	0.43123856
84	0x3ef576e6	0.47942275
85	0xbea03dc5	-0.31297126
86	0x3de9f625	0.114239015
87	0x3eeeb23c	0.46620357
88	0xbe4499d5	-0.19199307
89	0xbef77033	-0.4832779
90	0xbe70bd63	-0.23509745
91	0x3eb4de5f	0.35325906
92	0x3ea3b5a7	0.31974527
93	0xbef1f34c	-0.47255933
94	0xbc56a46f	-0.013100727
95	0x3e695765	0.22787245
96	0x3ef61635	0.48063818
97	0xbebc5001	-0.36779788
98	0x3ec2cbba	0.38046056
99	0x3ec7817c	0.38965976
100	0x3e41d87a	0.18930236
101	0xbf0bf7e3	-0.5467512
102	0xbf07e8bd	-0.53089505
103	0x3db66d2a	0.0890754
104	0x3d0aaf15	0.033858377
105	0x3e065735	0.13119204
106	0xbecc9f6b	-0.39965376
107	0x3eb3d360	0.35122204
108	0xbf0cac4a	-0.5495039
109	0xbeb089b6	-0.34480065
110	0x3dea15c6	0.11429934
111	0xbd04fc15	-0.032466967
112	0xbe3df17b	-0.18549149
113	0x3f1ffd2f	0.624957
114	0x3ea6b2af	0.325582
115	0xbed05e0d	-0.40696755
116	0xbea6d0e7	-0.32581255
117	0xbdb40faf	-0.08792054
118	0xbd6576ad	-0.05602138
119	0xbe3f1d46	-0.1866351
120	0xbe3b586a	-0.18295446
121	0x3df06821	0.11738611
122	0xbeb9e352	-0.36306244
123	0x3e5f23a4	0.2179094
124	0x3ec85a17	0.39131233
125	0x3f03ae5d	0.5143793
126	0x3da40593	0.08008876
127	0x3c64c222	0.0139623005
128	0xbee9fa13	-0.45698604
129	0x3ee3859b	0.4443787
130	0x3e81bdd6	0.25340146
131	0xbd8bae2c	-0.0682033
132	0xbe1b5a77	-0.15171228
133	0x3e9de702	0.30840307
134	0xbe5a47c8	-0.21316445
135	0x3df52239	0.11969418
136	0xbdd15ae0	-0.10222411
137	0x3f14ab14	0.58073545
138	0x3e67802c	0.22607487
139	0x3e64f12b	0.22357623
140	0x3e5ea94a	0.21744266
141	0x3ed48c52	0.41513306
142	0x3db00e78	0.0859651
143	0x3e93dbeb	0.28878722
144	0xbef23c78	-0.4731176
145	0x3f389d93	0.7211544
146	0xbf0b3ad8	-0.54386663
147	0x3e9cac7a	0.3060034
148	0x3f2e7f03	0.68162555
149	0xbeca33c6	-0.39492625
150	0x3eb21b9f	0.34786698
151	0x3df9c8db	0.12196513
152	0x3e7e53fc	0.24836725
153	0x3ed6de63	0.41966543
154	0x3deeb4ce	0.116555795
155	0xbefc18cb	-0.49237666
156	0xbee2d936	-0.44306344
157	0x3ee70836	0.45123452
158	0xbee37ad7	-0.44429657
159	0xbe857fab	-0.26073965
160	0x3e02dffa	0.12780753
161	0xbeefb06d	-0.4681429
162	0xbe420e5e	-0.18950793
163	0xbc11e353	-0.008904296
164	0x3f02dcdf	0.5111827
165	0xbeaf63b4	-0.34255755
166	0xbca909a4	-0.02063448
167	0xbe29e64d	-0.16591759
168	0x3d6b2da7	0.057416584
169	0x3ec15179	0.3775747
170	0xbcff1e70	-0.031142443
171	0xbeb910cc	-0.36145627
172	0x3eeac02e	0.45849746
173	0x3f1f5f52	0.6225482
174	0xbe85d3f1	-0.2613826
175	0x3d192211	0.037386004
176	0xbde7e2ed	-0.113225795
177	0xbe85cf8b	-0.26134905
178	0x3ed88aba	0.4229334
179	0xbf00b7e8	-0.5028062
180	0xbef924a1	-0.48660758
181	0xbea9e882	-0.33185202
182	0x3ef992f4	0.4874493
183	0x3e9108fe	0.28327173
184	0x3c98839a	0.01861744
185	0xbe3ece13	-0.18633299
186	0xbd36e549	-0.044652257
187	0x3e9a148e	0.30093807
188	0x3ed13bda	0.40865976
189	0xbdddcda0	-0.108302355
190	0x3ed8b1d0	0.4232316
191	0xbb9b4a35	-0.004739071

net.0.bias f4 [64]
0	0xbe814c22	-0.25253397
1	0x3f0ff028	0.56225824
2	0x3cc568f9	0.024097906
3	0x3f1217ec	0.5706775
4	0xbebcbb7f	-0.36861798
5	0x3d4dd426	0.05025115
6	0xbeb8b7da	-0.36077768
7	0x3ee39805	0.4445192
8	0x3e6bcb4c	0.2302677
9	0x3ec7de57	0.3903682
10	0x3ee0c749	0.43902043
11	0xbe705264	-0.2346893
12	0x3ee08300	0.43849945
13	0xbe53341b	-0.20625345
14	0x3de014f9	0.109415
15	0xbea0c6aa	-0.3140157
16	0x3ebf9a5d	0.37422457
17	0xbeb76a3a	-0.35823232
18	0xbd8661a8	-0.06561595
19	0xbdadbaaf	-0.08482873
20	0xbe556501	-0.20839311
21	0xbe0b1240	-0.1358118
22	0xbe42ffb7	-0.1904286
23	0xbea1ca72	-0.31599766
24	0x3f028c9e	0.50995815
25	0xbec21dec	-0.37913454
26	0x3eeab46d	0.4584078
27	0xbd8115a8	-0.06302959
28	0x3e6b59b7	0.22983442
29	0xbf14a23c	-0.5806005
30	0xbe3974ec	-0.18111008
31	0xbea8483f	-0.3286762
32	0x3f06ae17	0.5260939
33	0x3f0c11fd	0.5471495
34	0xbe07d3bb	-0.13264363
35	0x3edc1cbc	0.42990673
36	0xbed133cc	-0.4085983
37	0xbdd38a52	-0.10329117
38	0xbed409bf	-0.41413686
39	0x3e5573c9	0.2084495
40	0xbeee47fd	-0.46539298
41	0x3e3b2e66	0.18279418
42	0x3e550c0e	0.2080538
43	0xbe49fab7	-0.19724546
44	0xbed68b9e	-0.41903394
45	0x3e95e63b	0.29277214
46	0xbecc104c	-0.39856184
47	0x3f14673a	0.5797001
48	0xbe86ce57	-0.263293
49	0x3e4fa3a2	0.20277265
50	0x3ebb3661	0.36564925
51	0xbe042e60	-0.12908316
52	0x3e6e246c	0.23256081
53	0x3ea80c35	0.32821813
54	0xbe041a7d	-0.1290073
55	0xbd8aec69	-0.06783373
56	0xbea7eedd	-0.32799426
57	0xbe8267bb	-0.25469765
58	0x3e77988a	0.24179283
59	0x3c59ae89	0.013286241
60	0x3e53be79	0.20678128
61	0xbe24c393	-0.1609023
62	0x3eb330e5	0.3499824
63	0x3e97d3af	0.2965369

net.2.weight f4 [64, 64]
0	0xb99a1200	-0.0002938658
1	0xbdd67a80	-0.10472584
2	0xbdf769e2	-0.120807424
3	0xbdaeab9c	-0.08528826
4	0x3d2c0b14	0.042002752
5	0xbd27dd74	-0.04098268
6	0x3dcac87c	0.099015206
7	0x3c47e9d0	0.012201741
8	0x3d8e4a58	0.06947774
9	0xbd94d63e	-0.07267426
10	0x3dbdfb7a	0.09276481
11	0x3d9fdbf8	0.078056276
12	0x3d81f910	0.06346333
13	0x3dd66c78	0.104699075
14	0xbdfbcfe8	-0.12295514
15	0xbd052114	-0.03250225
16	0xbda1e2f0	-0.07904613
17	0xbd27e1b4	-0.04098673
18	0x3d98992e	0.07451092
19	0xbd35cfc8	-0.04438761
20	0x3dbd4b12	0.09242834
21	0x3d5a68d8	0.053322643
22	0x3c77d5c0	0.015126646
23	0xbdc7f216	-0.09762971
24	0x3d5a423c	0.053285822
25	0xbc5de960	-0.0135444105
26	0xbd451638	-0.048116893
27	0x3da938d2	0.08262791
28	0x3d88518e	0.0665618
29	0x3d22c438	0.03973791
30	0xbda556ce	-0.08073197
31	0x3dadce44	0.08486608
32	0xbd2b96c0	-0.041891813
33	0x3bc580c0	0.006027311
34	0x3d9e84ca	0.07740171
35	0xbdb4a34a	-0.088202074
36	0xbb9210a0	-0.0044575483
37	0xbd8c6b9e	-0.06856464
38	0xbdc31afa	-0.0952663
39	0xbd9e5988	-0.077319205
40	0x3cb00d18	0.021490619
41	0x3de9d0b4	0.1141676
42	0xbdd2d914	-0.102953106
43	0xbddddd74	-0.108332545
44	0xbd536b30	-0.051615894
45	0x3c6e7810	0.014554992
46	0xbd0c4314	-0.03424366
47	0xbcfbd500	-0.030741215
48	0xbb948da0	-0.0045334846
49	0xbd02de28	-0.031950146
50	0xbcb63558	-0.022242233
51	0xbd169c80	-0.036770344
52	0xbcedcfb8	-0.029029712
53	0xbb1a2840	-0.0023522526
54	0xbcc6bd98	-0.024260327
55	0xbd9ba332	-0.075994864
56	0x3ccf33d0	0.02529326
57	0xbd92e206	-0.07172017
58	0x3dafbb14	0.08580604
59	0xbb8349c0	-0.0040065944
60	0xbbdc87a0	-0.006730035
61	0x3db5cd44	0.08877042
62	0x3c4dce20	0.012561351
63	0x3dddbb5e	0.10826753
64	0x3ea92f7a	0.33044034
65	0x3c6cc289	0.014450678
66	0xbe257920	-0.16159487
67	0xbdaad18b	-0.083407484
68	0x3ddf97a8	0.10917598
69	0x3daae6d8	0.08344811
70	0x3d76ef67	0.060286906
71	0x3dd85bce	0.10564385
72	0xbdb7c29f	-0.08972668
73	0xbd4b61eb	-0.04965393
74	0x3d06ba91	0.032892767
75	0xbde241f3	-0.11047735
76	0xbd8bf239	-0.0683331
77	0x3ea2f384	0.31826413
78	0x3de60aea	0.112325504
79	0xbced4007	-0.028961195
80	0xbdbd14a3	-0.09232452
81	0xbd47ffbb	-0.048827868
82	0x3d851532	0.06498183
83	0xbe5942c8	-0.21216881
84	0x3c35c8e7	0.011095262
85	0xbd9f21f0	-0.07770145
86	0x3c6976d5	0.014249523
87	0xbba2e19b	-0.004970742
88	0xbe1a4a7f	-0.1506748
89	0xbd035653	-0.032064747
90	0x3e13eb89	0.14445318
91	0x3d9b648f	0.075875394
92	0xbd90d380	-0.070715904
93	0x3de5c978	0.11220068
94	0x3d1a85ce	0.037725262
95	0x3dd03ef4	0.10168257
96	0xbc442709	-0.011972197
97	0xbdb472ce	-0.0881096
98	0xbe21650b	-0.15761201
99	0x3d50674a	0.050879754
100	0x3c8da448	0.01729025
101	0x3e1e06de	0.15432307
102	0xbda88a1e	-0.08229469
103	0x3ba241aa	0.0049516754
104	0x3dc880d2	0.097901955
105	0xbd2eb650	-0.042654335
106	0x3d4eb121	0.050461892
107	0x3dbcdba5	0.09221581
108	0xbb080cc0	-0.0020759553
109	0x3e2f84ed	0.17140551
110	0xbd232c41	-0.039837126
111	0x3d6b4f08	0.057448417
112	0x3de7911f	0.113069765
113	0x3d42a425	0.04751982
114	0x3df4baf8	0.11949724
115	0xbcfd41bf	-0.03091514
116	0xbda3c64c	-0.079968065
117	0x3dc43a5a	0.09581442
118	0x3e07688d	0.13223477
119	0xbc44cfda	-0.012012446
120	0x3d80ed58	0.0629527
121	0x3d2ea2b3	0.04263563
122	0x3e177531	0.14790799
123	0xbe44faea	-0.19236341
124	0x3b9abe52	0.004722395
125	0xbd142b7a	-0.036174275
126	0xbb0ba2b9	-0.0021306707
127	0x3d92e4ba	0.071725324
128	0x3eb8c286	0.3608591
129	0xbd20ab9b	-0.039226156
130	0xbdbe58f1	-0.09294308
131	0x3dac86ec	0.08424172
132	0x3d33dbb4	0.043910697
133	0x3d922eb1	0.07137812
134	0x3cd8e530	0.026476473
135	0x3da3d0df	0.079988234
136	0xbd989cd6	-0.07451789
137	0xbd80d0b3	-0.06289806
138	0x3cfd489b	0.03091841
139	0x3e482565	0.19545515
140	0xbdbea343	-0.093084835
141	0x3ea7e569	0.32792214
142	0x3dd22164	0.10260275
143	0x3d064b9a	0.032786943
144	0xbe05dd1b	-0.13072626
145	0x3ea794e5	0.32730785
146	0xbd7a5aea	-0.06112186
147	0xbe14b8fd	-0.14523692
148	0x3e00eafd	0.12589641
149	0xbd06006d	-0.03271525
150	0x3d6935fb	0.056936245
151	0xbd28f3e9	-0.041248236
152	0xbe0a6828	-0.13516295
153	0x3d69fae4	0.057124034
154	0x3dcfba78	0.10142988
155	0x3cfe5744	0.03104747
156	0xbdf7813c	-0.120851964
157	0x3d0a582d	0.033775497
158	0x3e19d8dc	0.15024132
159	0xbd66eb4d	-0.056376744
160	0x3dc90f3d	0.098173596
161	0x3db67c50	0.089104295
162	0xbd832afd	-0.06404684
163	0x3da28cdd	0.07937024
164	0x3daff254	0.08591142
165	0xbcd5b58b	-0.026087543
166	0x3ed54b5c	0.41659057
167	0x3dc92589	0.098216124
168	0x3dce787e	0.10081576
169	0xbd6da2de	-0.05801665
170	0xbcfcc26f	-0.030854432
171	0x3ce78860	0.02826327
172	0xbd261ca0	-0.040554643
173	0xbda3270b	-0.07966431
174	0xbc191001	-0.009342195
175	0x3dc248c7	0.094865374
176	0xbdf2739c	-0.11838457
177	0xbde71d00	-0.11284828
178	0x3de64863	0.112442754
179	0x3d9b541d	0.07584403
180	0x3cdabf88	0.026702657
181	0x3d33de56	0.043913208
182	0x3e1d7e15	0.15380128
183	0x3def5a97	0.116872005
184	0xbd590fd0	-0.052993596
185	0x3d2aea9b	0.041727643
186	0x3db417f9	0.08793635
187	0xbdf200ab	-0.11816534
188	0xbd65f74b	-0.05614404
189	0x3cd89b67	0.02644129
190	0xbd5843da	-0.052799083
191	0x3d82b935	0.06382982
192	0xbd3529cc	-0.044229314
193	0xbd90761c	-0.070537776
194	0xbc9568d5	-0.018238464
195	0xbdb1f31c	-0.086889476
196	0xbcf9a4b0	-0.030474037
197	0x3d4d116a	0.050065435
198	0x3da1b450	0.0789572
199	0x3dcecc4f	0.100975625
200	0xbd95e385	-0.073187865
201	0xbdfd5bcb	-0.12371024
202	0x3d3f68b5	0.046730716
203	0x3d9c56a6	0.076337144
204	0x3d2e69b1	0.042581264
205	0x3d6e54f0	0.05818647
206	0x3bde170f	0.006777651
207	0xbd8971ca	-0.06711157
208	0xbd9caeab	-0.07650503
209	0xbc931040	-0.017952085
210	0xbc8b545e	-0.017008003
211	0xbdf98ad7	-0.12184685
212	0xbc8da535	-0.01729069
213	0x3df867a4	0.12129143
214	0x3dbf7f35	0.09350435
215	0x3cc5a666	0.024127197
216	0xbd95c0fb	-0.07312199
217	0x3cacc9bc	0.021092288
218	0xbd38ab54	-0.045085266
219	0xbe024f94	-0.12725669
220	0xbd643523	-0.055714738
221	0x3df8de5e	0.12151788
222	0x3da56518	0.08075923
223	0x3dd59611	0.104290135
224	0x3da5ab0d	0.08089266
225	0xbce18e82	-0.027533773
226	0xbdf5c2ce	-0.12000047
227	0xbdae6356	-0.085150406
228	0xbc9062f8	-0.017625317
229	0xbc942283	-0.018082863
230	0xbdab121c	-0.083530635
231	0xbd2b8ac5	-0.041880388
232	0xbdca8244	-0.098881274
233	0x3dcc675a	0.0998065
234	0x3daa7446	0.08322959
235	0xbd7590b8	-0.059952468
236	0xbda7bbd4	-0.08190122
237	0xbd3e609e	-0.04647886
238	0x3dc1715d	0.094454505
239	0x3cb71890	0.02235058
240	0xbdb2fc74	-0.08739558
241	0x3c8e1890	0.017345697
242	0xbd1910d9	-0.037369583
243	0x3d3b1259	0.045671795
244	0xbd663149	-0.056199346
245	0x3d974105	0.07385448
246	0x3de3f1c2	0.11130096
247	0xbbbce8c0	-0.0057650506
248	0x3cf2cef0	0.029639691
249	0xbdf77297	-0.12082403
250	0xbda2d084	-0.079499274
251	0x3ddc1d1a	0.10747738
252	0x3d5161b8	0.051118582
253	0xbdbbcd2a	-0.09169991
254	0xbcfc555d	-0.030802423
255	0xbc4a1b5a	-0.012335623

net.2.bias f4 [64]
0	0xbab99600	-0.0014159083
1	0x3ce88a03	0.028386122
2	0xbda3caee	-0.0799769
3	0xbcb16631	-0.021655174
4	0xbd010f44	-0.0315087
5	0xbbc7529f	-0.0060828472
6	0x3d8f1c20	0.06987786
7	0x3916d06d	0.0001438276
8	0xbdedd991	-0.11613763
9	0xbdc91f16	-0.09820382
10	0xbc0a1708	-0.008428343
11	0x3dfb914c	0.122835726
12	0x3b83070a	0.003998642
13	0xbd9c2160	-0.07623553
14	0xbce50c8a	-0.02796008
15	0xbd752a8c	-0.05985503
16	0x3db62d4a	0.08895357
17	0x3d9d948c	0.07694349
18	0x3e00e4e5	0.12587316
19	0x3d6bff12	0.0576163
20	0x3d3809fd	0.0449314
21	0xbce3953b	-0.02778112
22	0xbc9cb6b1	-0.019130083
23	0xbdc11602	-0.09428026
24	0xbcfa30c5	-0.030540833
25	0x3dc12b0b	0.09432038
26	0xbd9ad1b1	-0.07559527
27	0x3e0ef642	0.13961127
28	0x3d8bf2a3	0.06833389
29	0x3cdf804e	0.02728286
30	0xbd02a035	-0.031891067
31	0x3d8f6ab4	0.07002774
32	0x3d08cf30	0.033400714
33	0xbdb96ba2	-0.090537325
34	0xbdaa5acb	-0.08318099
35	0xbd9612dc	-0.07327816
36	0x3dbe3876	0.09288113
37	0xbd8e403f	-0.06945848
38	0x3d8e3ba6	0.06944971
39	0x3d254ba9	0.04035536
40	0x3e014bff	0.12626646
41	0x3e0691d7	0.13141571
42	0xbdb9efd3	-0.09078946
43	0x3ddffd47	0.10936981
44	0xbbd11449	-0.006380592
45	0xbd1520ba	-0.036408164
46	0xbda4fd4d	-0.08056126
47	0x3cbb6052	0.022873078
48	0xbdd2b73a	-0.10288854
49	0xbcadfd55	-0.021238962
50	0xbd328941	-0.043587927
51	0x3df36109	0.11883742
52	0x3de4c5d8	0.11170548
53	0xbd2025fc	-0.039098725
54	0x3dc0da0e	0.09416591
55	0xbd47a100	-0.048737526
56	0xbd70d387	-0.05879548
57	0x3dd8b164	0.105807096
58	0xbde6a7b8	-0.112624586
59	0x3d482f95	0.048873503
60	0x3cff3508	0.031153217
61	0x3e04d057	0.129701
62	0xbc613ca7	-0.013747371
63	0xbdd83f55	-0.105589546

net.4.weight f4 [128, 64]
0	0x3de4689e	0.11152767
1	0x3d89a15a	0.067202285
2	0x3ce1195a	0.027477909
3	0x3d42902f	0.047500785
4	0x3d256678	0.040380925
5	0xbd7aa4a2	-0.061192162
6	0xbdf4652f	-0.11933362
7	0xbca2b4b0	-0.01986155
8	0xbca009ec	-0.019535981
9	0xbde2de40	-0.11077547
10	0x3e3aae82	0.18230632
11	0x3de58efe	0.11208914
12	0xbd12c82d	-0.035835434
13	0xbbd99812	-0.0066404426
14	0x3baa11a0	0.0051900893
15	0xbdfe90dc	-0.124299735
16	0xbd80e947	-0.06294494
17	0x3d5eccce	0.054394536
18	0x3dfad318	0.12247294
19	0xbd5b2eb1	-0.053511325
20	0x3db65d4e	0.08904515
21	0x3e325701	0.17416002
22	0x3d854255	0.065067925
23	0x3d800370	0.06250656
24	0xbd67ccea	-0.056591906
25	0x3db47126	0.08810644
26	0x3dc450ab	0.09585699
27	0x3a8c3576	0.0010697085
28	0x3b9373b7	0.0044998783
29	0xbb87f4c2	-0.0041490505
30	0xbd8a389e	-0.0674908
31	0x3dbe46bd	0.09290836
32	0xbd824252	-0.06360306
33	0xbda409fc	-0.08009717
34	0x3d9b4dc7	0.07583194
35	0x3c9e93f8	0.019357666
36	0xbd7ab30f	-0.06120592
37	0xbb3cc1ec	-0.002880211
38	0x3d986abf	0.07442235
39	0xbd4303d3	-0.04761107
40	0x3b0da3f5	0.0021612619
41	0xbd98f6b0	-0.07468927
42	0x3cbf2df6	0.023337346
43	0x3d94533b	0.072424375
44	0xbd1aa88b	-0.03775839
45	0x3cc1b2ba	0.023644794
46	0xbdc5556e	-0.09635435
47	0xbdcbd969	-0.09953577
48	0x3d77e6d0	0.060522854
49	0x3de48783	0.11158659
50	0x3db94c91	0.09047807
51	0x3c099ae8	0.008398749
52	0xbc2ac94f	-0.010423972
53	0x3e22d815	0.15902741
54	0x3de8da78	0.113697946
55	0x3d55dc87	0.052212264
56	0xbcc22b81	-0.023702385
57	0x3dcb0980	0.09913921
58	0x3cece8c8	0.028919592
59	0x3ddd42e1	0.10803772
60	0x3e403fb2	0.18774298
61	0x3d691996	0.056909166
62	0x3e1c1574	0.15242559
63	0x3cd0ed87	0.025503887
64	0xbdec512a	-0.11538918
65	0x3e494ef2	0.19659021
66	0x3e1059b9	0.14096726
67	0xbd3d7fff	-0.046264645
68	0xbd7c2e10	-0.061567366
69	0x3dcbfdc4	0.09960511
70	0xbbb35f43	-0.0054740026
71	0x3d397e18	0.045286268
72	0xbd2570ab	-0.04039065
73	0x3c7c1230	0.015385196
74	0x3ddc89ac	0.10768446
75	0xbc3b1929	-0.011419573
76	0xbc04f6ae	-0.008115454
77	0x3d6b8c46	0.057506822
78	0x3d45e091	0.048309866
79	0xbde86064	-0.1134651
80	0xbc96baa7	-0.01839955
81	0xbc68b276	-0.014202705
82	0x3e08c0c9	0.13354792
83	0xbdb74ff9	-0.089508004
84	0x3c5a7d41	0.013335527
85	0x3e01c736	0.12673649
86	0x3e019d08	0.12657559
87	0xbbc8ec8c	-0.006131714
88	0xbda59b1d	-0.08086226
89	0x3bd3caa4	0.0064633656
90	0xbd9cd327	-0.076574616
91	0x3c5bb63d	0.013410148
92	0x3db117f6	0.08647148
93	0x3c17f10b	0.009273778
94	0xbd69d9f6	-0.05709263
95	0x3da3027e	0.0795946
96	0x3df287c4	0.118423015
97	0x3de532d0	0.11191332
98	0x3d8d9d08	0.06914717
99	0xbd84c560	-0.06482959
100	0xbd3c326c	-0.045946524
101	0x3d08d289	0.033403907
102	0xbd5a0cc8	-0.053234845
103	0xbd208671	-0.039190713
104	0x3e018adb	0.12650625
105	0xbcbcd3eb	-0.02305027
106	0xbd30b8d5	-0.04314502
107	0x3dd511db	0.10403796
108	0xbd0fe574	-0.035130933
109	0x3e6b99bf	0.23007868
110	0xbc46ee64	-0.012141798
111	0x3ce58525	0.02801759
112	0xba626f45	-0.0008637796
113	0x3e324093	0.17407446
114	0xbd8e1ddf	-0.06939291
115	0x3e0879e0	0.13327742
116	0x3d425613	0.047445368
117	0x3e1b0833	0.15139847
118	0x3de71e5b	0.11285087
119	0x3a912c15	0.001107576
120	0x3e3092d4	0.1724351
121	0xbdbe8040	-0.093018055
122	0x3cf81b00	0.030286312
123	0x3d854c54	0.06508699
124	0x3dc5ddb6	0.09661429
125	0xbcc97e65	-0.024596402
126	0x3d9cc39d	0.07654498
127	0x3e3260ce	0.1741974
128	0xbdee6b92	-0.11641611
129	0xbd123464	-0.035694495
130	0x3e0ed2d9	0.1394762
131	0x3db976c8	0.09055859
132	0x3d042824	0.032264844
133	0xbc79af64	-0.01523957
134	0x3ce47324	0.027886935
135	0xbdafecea	-0.0859011
136	0xbde88043	-0.11352589
137	0xbd9db26e	-0.077000484
138	0x3e5c4512	0.21510723
139	0x3db96a78	0.090535104
140	0x3d3ede05	0.046598453
141	0x3e04ccca	0.12968746
142	0xbdc41d1d	-0.095758654
143	0x3d77c414	0.06048973
144	0x3d614d63	0.055005442
145	0x3c4c5f8c	0.012473952
146	0xbccd8e8a	-0.025092382
147	0xbe257990	-0.16159654
148	0x3d8d305a	0.06893988
149	0xbd0a744a	-0.03380231
150	0xbd95172f	-0.072798125
151	0x3bd216e3	0.0064114197
152	0x3d8da054	0.06915346
153	0x3cd0ca49	0.025487082
154	0x3ddb2819	0.107010074
155	0x3d087059	0.033310268
156	0x3d349fdc	0.044097766
157	0x3d857642	0.065166965
158	0x3d0fb428	0.03508392
159	0xbdba1d57	-0.090876274
160	0x3cda8b63	0.026677793
161	0x3ddf1206	0.108921096
162	0xbd6461d4	-0.05575736
163	0xbaaa4900	-0.0012991726
164	0xbda7c894	-0.08192554
165	0xbce00751	-0.027347239
166	0x3db0be15	0.08630005
167	0x3d2764cb	0.040867608
168	0x3e034cd0	0.1282227
169	0xbd6e39e6	-0.058160685
170	0x3d8f175e	0.06986879
171	0x3deeee1f	0.11666512
172	0x3de40495	0.111336865
173	0x3e39edaf	0.18157075
174	0x3c3f03fd	0.011658666
175	0xbd454464	-0.048160926
176	0xbcd026e5	-0.025409171
177	0x3e2e641a	0.17030373
178	0x39bc0a7f	0.00035865974
179	0xbce77196	-0.028252404
180	0x3de44c57	0.11147373
181	0x3e01a026	0.12658748
182	0x3df6fda5	0.120600976
183	0xbd82ee55	-0.063931145
184	0x3e491a77	0.19639002
185	0xbb85f293	-0.004087755
186	0x3d1b5868	0.037926108
187	0x3e28f1a1	0.16498424
188	0x3df8ea22	0.12154032
189	0xbce1695a	-0.027516056
190	0x3dce9d30	0.10088575
191	0x3db57c55	0.08861605
192	0x3db926dc	0.09040615
193	0x3e0a7cfe	0.13524243
194	0xbd75f860	-0.060051322
195	0xbdae7bc4	-0.085197
196	0xbc8cdd90	-0.017195493
197	0xbcf5c206	-0.029999744
198	0x3b1c9177	0.0023890415
199	0x3dee49e0	0.11635184
200	0xbdae8924	-0.08522251
201	0xbdd10268	-0.10205537
202	0x3d309a6a	0.04311601
203	0x3df4a99b	0.11946412
204	0xb7b31507	-2.1348254e-05
205	0x3df45afe	0.11931418
206	0xbcaef867	-0.021358682
207	0x3d37f94c	0.044915482
208	0x3df31fe6	0.118713185
209	0xbdcde53e	-0.1005349
210	0x3d2258e3	0.03963555
211	0xbcae4c77	-0.021276696
212	0x3d861fe7	0.06549054
213	0x3e2671bf	0.16254328
214	0xbd2cd992	-0.04219968
215	0xbc7a6c95	-0.015284677
216	0xbd245f3a	-0.040129878
217	0xbcce6221	-0.025193276
218	0x3c7df62d	0.015500587
219	0x3e03848e	0.12843534
220	0x3cee3cdd	0.029081756
221	0xbddd0de1	-0.10793663
222	0xbdbb2692	-0.09138216
223	0xbd560847	-0.052253988
224	0xbd99cb07	-0.075094275
225	0x3ddea91a	0.10872097
226	0x3bd7fb43	0.006591232
227	0xbde08534	-0.109629065
228	0x3d6761db	0.056489807
229	0xbd9d8563	-0.07691457
230	0xbc831d39	-0.016005145
231	0x3dd65798	0.10465926
232	0x3daa7c13	0.083244465
233	0xbd992e97	-0.074795894
234	0xbd35f31d	-0.044421304
235	0x3de611d2	0.11233868
236	0xbdc69694	-0.09696689
237	0x3dfd11c8	0.12356907
238	0x3d67b3a3	0.0565678
239	0x3de3b506	0.11118512
240	0xbd3e06fa	-0.046393372
241	0x3d79ac49	0.06095532
242	0xbd757ba5	-0.05993237
243	0xbd15a052	-0.036529846
244	0xbdc5f7ee	-0.096664295
245	0x3da89915	0.08232323
246	0xbda8f794	-0.08250347
247	0x3d9a5682	0.07536031
248	0x3d6a34c5	0.05717923
249	0x3d014ced	0.031567503
250	0x3d4ccdcc	0.05000095
251	0x3d08d1e2	0.033403285
252	0x3e10dd4f	0.14146923
253	0xbc9acea2	-0.018897358
254	0xbd373908	-0.044732124
255	0x3e0a90f4	0.13531858

net.4.bias f4 [128]
0	0x3c63cf6c	0.013904434
1	0xbd22c651	-0.03973991
2	0x3cd11620	0.025523245
3	0x3d56ada7	0.0524117
4	0x3d27f9eb	0.041009825
5	0x3d8650b6	0.06558363
6	0xbc82ff60	-0.015990913
7	0xbcb57640	-0.022151113
8	0xbd465eec	-0.04843037
9	0x3dd89ea6	0.10577135
10	0x3d1a51d6	0.0376757
11	0x3b36446a	0.0027811774
12	0x3d2a54df	0.041584846
13	0xbdac2f75	-0.08407489
14	0xbc8ae27d	-0.016953701
15	0x3d81c751	0.06336845
16	0x3e022db0	0.12712741
17	0x3db44cb6	0.08803694
18	0xbdf81592	-0.12113489
19	0xbdfd4998	-0.123675525
20	0xbb8e8e5a	-0.0043504657
21	0x3cd7c688	0.026339784
22	0xbbedc25e	-0.0072558364
23	0x3d326fed	0.043563772
24	0x3de412f1	0.11136425
25	0x3d80e98b	0.06294545
26	0xbde0d3dc	-0.10977909
27	0x3de02b4b	0.109457575
28	0x3c8d7ec0	0.017272353
29	0x3d4c30c6	0.0498512
30	0x3cd3ff11	0.025878461
31	0xbda5585e	-0.08073495
32	0x3c5cc345	0.01347429
33	0x3d887dca	0.06664617
34	0x3cb57d4b	0.02215447
35	0xbd9b6c47	-0.07589012
36	0x3e027978	0.12741649
37	0xbd94dde4	-0.07268885
38	0x3d96b909	0.073595114
39	0xbdf7bfec	-0.12097153
40	0xbdbbf52b	-0.091776215
41	0x3db5f856	0.08885257
42	0x3cdee7fc	0.027210228
43	0xbd90a52e	-0.070627555
44	0xbcb4d6c2	-0.02207506
45	0x3dcca2d8	0.099919975
46	0x3ccdd5f4	0.025126435
47	0x3c7c0eaa	0.015384356
48	0x3db99dac	0.09063277
49	0xbd90bd9a	-0.07067414
50	0xbdc9b51c	-0.09848997
51	0x3da3278a	0.07966526
52	0xbddc4bde	-0.10756658
53	0xbdc168dd	-0.09443829
54	0xbd359abb	-0.044337016
55	0x3dddec39	0.108360715
56	0xbd92692f	-0.071489684
57	0x3d8174c0	0.063210964
58	0x3d029101	0.031876568
59	0xbd230758	-0.039801925
60	0xbad916c6	-0.0016562573
61	0x3de26630	0.11054647
62	0xbc964d71	-0.018347474
63	0x3dc4dfad	0.09612975
64	0x3d5983dc	0.053104267
65	0x3dd6922f	0.10477101
66	0x3cdc01f2	0.026856396
67	0x3dffab5b	0.12483855
68	0xbda25f2b	-0.07928308
69	0x3deb30dd	0.11483929
70	0x3baa2a53	0.0051930337
71	0x3d76fc8f	0.060299452
72	0x3dd8524a	0.105625704
73	0xbdbe807c	-0.0930185
74	0xbd22f878	-0.03978774
75	0x3dba7f7f	0.09106349
76	0x3d8f1938	0.06987232
77	0x3c85f46f	0.016351907
78	0x3cda4d2a	0.026648123
79	0x3df5a9de	0.1199529
80	0x3ce7ded7	0.0283045
81	0xbd00c2cf	-0.031435784
82	0xbd615d68	-0.05502072
83	0xbdb26879	-0.08711333
84	0xbd891a20	-0.06694436
85	0x3d98dc49	0.07463891
86	0x3df86a6a	0.12129672
87	0xbd750f90	-0.059829295
88	0x3b21f6d1	0.0024713764
89	0x3c0d01ae	0.0086063575
90	0xbce55890	-0.027996331
91	0x3cdca43b	0.02693378
92	0xbdaaf4f9	-0.08347506
93	0xbd587225	-0.05284323
94	0x3dae3b69	0.08507425
95	0xbde76e14	-0.113002926
96	0xbd99528e	-0.07486449
97	0x3caa4a4b	0.020787379
98	0x3e062b79	0.13102521
99	0x3dc3769f	0.095441096
100	0xbb2d3bda	-0.002643338
101	0xbba420c0	-0.005008787
102	0x3dc50bc2	0.09621383
103	0x3dacf7f8	0.08445734
104	0xbddabd25	-0.10680608
105	0x3dffffb7	0.124999456
106	0x3cf98d21	0.030462803
107	0x3d0dba3e	0.034601443
108	0x3dbef6a9	0.093243904
109	0x3dcc1c59	0.099663444
110	0x3dff0a32	0.124531165
111	0xbd61aa76	-0.055094205
112	0x3dc68d74	0.09694949
113	0xbdf08618	-0.11744326
114	0x3d3c2839	0.045936797
115	0xbdee7d91	-0.11645044
116	0x3dacaaa9	0.08430988
117	0x3d9c0a2b	0.07619127
118	0xbcea4f60	-0.028602302
119	0x3cf15a88	0.029462114
120	0xbda7f637	-0.08201259
121	0xbd2e2b77	-0.04252192
122	0xbdc02bd2	-0.09383358
123	0x3bd16991	0.0063907583
124	0x3dfca908	0.12336928
125	0xbd019383	-0.03163482
126	0x3c574920	0.013139993
127	0x3db8c53b	0.09021994

net.6.weight f4 [192, 128]
0	0x3cb25ac5	0.021771798
1	0x3cab228c	0.020890497
2	0x3bf6d244	0.00753239
3	0xbd9aebe7	-0.07564526
4	0xbd379a9a	-0.044825174
5	0x3d02b544	0.03191115
6	0xbc18cbd2	-0.009325938
7	0x3d05b351	0.032641713
8	0xbd71f5a8	-0.059072167
9	0x3da50cca	0.0805908
10	0x3cd480a4	0.025940247
11	0xbd2a8f9f	-0.041640874
12	0xbcfda24d	-0.03096118
13	0x3dac18e9	0.08403189
14	0xbd0b86f8	-0.034064263
15	0x3d1101db	0.03540216
16	0x3d868890	0.06569016
17	0xbd4caef4	-0.049971536
18	0x3d4fe453	0.050754856
19	0x3d9230ee	0.07138239
20	0xbda1891a	-0.07887478
21	0x3c12e544	0.008965794
22	0x3d268c21	0.04066098
23	0x3d81f760	0.06346011
24	0xbdb3933e	-0.087683186
25	0x3d8ff13c	0.07028434
26	0x3cbf6089	0.023361461
27	0xbd800050	-0.062500596
28	0xbd71f26c	-0.059069082
29	0xbb251ba9	-0.0025193489
30	0x3d990963	0.074724935
31	0x3d678107	0.056519534
32	0x3a53ecc4	0.0008084292
33	0xbd5e5d36	-0.05428811
34	0xbda6460c	-0.08118829
35	0xbd23e3a4	-0.040012017
36	0x3ca1ba7e	0.019742247
37	0x3da51d37	0.08062213
38	0xbc9cece1	-0.019155921
39	0xbda919df	-0.08256888
40	0x3d4f19d9	0.05056176
41	0x3a525798	0.0008023917
42	0x3d5f70a7	0.054550793
43	0xbc46ecba	-0.012141401
44	0x3d40b488	0.047047168
45	0xbd893b8a	-0.06700809
46	0x3d44ee7e	0.048079006
47	0x393430d1	0.00017184323
48	0x3ca6a837	0.020343883
49	0xbd5c4139	-0.05377314
50	0xbc84ab66	-0.01619501
51	0xbd94ff1e	-0.07275222
52	0x3d1de77b	0.038550835
53	0xbd3c8e12	-0.046033926
54	0x3da83e9c	0.08215067
55	0x3d3a89a9	0.04554144
56	0x3af24e3c	0.001848645
57	0x3d84cb46	0.06484084
58	0x3d7475c1	0.05968261
59	0xbd54a6de	-0.05191695
60	0x3c597cf8	0.013274424
61	0xbd542087	-0.051788833
62	0xbd8ad116	-0.06778161
63	0xbc15b3ba	-0.009137088
64	0xbd987eb4	-0.07446042
65	0xbc20a445	-0.00980479
66	0xbcacacc2	-0.021078471
67	0xbc0db66c	-0.00864945
68	0x3c222533	0.009896564
69	0xbc569b47	-0.013098544
70	0x3dac1377	0.0840215
71	0xbd61df8e	-0.05514484
72	0xbd109be7	-0.03530493
73	0xbd87ffa8	-0.066405594
74	0xbd6a6462	-0.05722464
75	0xbd688a67	-0.056772616
76	0x3bf185c5	0.007370683
77	0x3c531010	0.012882248
78	0x3bc4d5aa	0.006006916
79	0xbda766f5	-0.08173934
80	0x3dae550d	0.08512316
81	0xbcfc83c4	-0.03082455
82	0x3bfad04d	0.007654226
83	0x3d5dc25b	0.05414043
84	0xbc5cb662	-0.013471218
85	0xbc470431	-0.012146995
86	0xbc115d16	-0.008872291
87	0x3c9b887a	0.018985976
88	0x3ba188c1	0.0049296324
89	0x3d879f9f	0.06622242
90	0xbd8f43d2	-0.069953576
91	0x3db24fb0	0.087066054
92	0x3d832138	0.0640282
93	0x3d935124	0.07193211
94	0xbd81cc1d	-0.0633776
95	0xbd585de5	-0.05282392
96	0x3d3a0bdf	0.045421477
97	0xbc851873	-0.01624701
98	0xbda7de7a	-0.08196731
99	0xbd69c5c3	-0.057073366
100	0xbc813ed4	-0.01577703
101	0xbd6101c7	-0.054933336
102	0xbd653ad6	-0.055964313
103	0x3d765cd2	0.060147114
104	0x3d3c680d	0.045997668
105	0xbd76dd45	-0.060269613
106	0xbd92fa1b	-0.0717661
107	0xbc9ace38	-0.01889716
108	0xbd31bd6d	-0.04339354
109	0x3d5731b7	0.052537646
110	0xbd8a2a20	-0.06746316
111	0xbd9ead1d	-0.077478625
112	0xbdacd6d5	-0.084394135
113	0xbc74a615	-0.014932175
114	0xbc8b2a67	-0.016987992
115	0xbd1b4205	-0.037904758
116	0xbdaf389f	-0.085557215
117	0xbc52da74	-0.012869466
118	0xbd410cad	-0.04713123
119	0x3cf8db89	0.03037812
120	0xbb8e71c3	-0.0043470575
121	0x3d44607f	0.04794359
122	0x3d30dd5c	0.043179855
123	0x3c5e6251	0.013573245
124	0x3d04db3d	0.032435644
125	0xbda893d3	-0.0823132
126	0x3d889e1c	0.06670782
127	0xbb300160	-0.0026856288
128	0x3c7b2cee	0.015330536
129	0xbd3b866b	-0.045782488
130	0xbd0388a5	-0.032112736
131	0x3d2c2de6	0.04203596
132	0xbd0efcfc	-0.034909233
133	0x3d407744	0.04698874
134	0xbd9de7f6	-0.07710259
135	0x3d301395	0.042987425
136	0xbac8df47	-0.0015325331
137	0xbcd399dc	-0.025830202
138	0xbd3d8b8b	-0.046275657
139	0x3c9f8d29	0.01947649
140	0x3cb85870	0.022503108
141	0x3cec6682	0.028857473
142	0xbae8679c	-0.0017731073
143	0xbc9c96b9	-0.019114839
144	0xbd39c3bf	-0.045352694
145	0xbd9b5efa	-0.07586475
146	0xbc4429f9	-0.011972898
147	0xbda4770e	-0.080305204
148	0xbd57067f	-0.05249643
149	0xbd90c6fc	-0.07069203
150	0xbd802b35	-0.06258241
151	0x3da94831	0.082657225
152	0xbbb77a19	-0.005599272
153	0xbd5cd8cf	-0.053917702
154	0xbce6e2a8	-0.02818425
155	0x3c15c0ad	0.009140176
156	0x3d925e9b	0.07146951
157	0x3d832e9e	0.06405376
158	0xbd20f69d	-0.03929769
159	0x3d77f803	0.060539257
160	0x3cd7db50	0.026349694
161	0xbc46b7bc	-0.012128767
162	0x3d596b42	0.053080805
163	0x3cbad48c	0.022806428
164	0x3d3586ef	0.044318136
165	0xbd68cb2b	-0.05683438
166	0x3ca1ccfd	0.019751066
167	0xbc81d7c9	-0.015849965
168	0xbd46a3b2	-0.048495956
169	0x3d03ccd6	0.03217777
170	0x3cc6b482	0.024255995
171	0x3cf31f68	0.029678062
172	0xbd46f790	-0.048575938
173	0xbdabaef6	-0.083829805
174	0x3d6e7ac2	0.05822254
175	0x3d58453f	0.052800413
176	0xbc4a1e8a	-0.012336383
177	0xbc3fdb3d	-0.011709985
178	0x3dab9c7c	0.083794564
179	0x3d6e6463	0.058201205
180	0xbd9d852f	-0.076914184
181	0xbc7b946f	-0.015355214
182	0xbdb0837e	-0.0861883
183	0xbda46d47	-0.080286555
184	0xbd842ccf	-0.06453859
185	0x3d20af19	0.039229486
186	0xbd163b3a	-0.036677577
187	0xbdb2535c	-0.08707306
188	0x3d805d9c	0.062678546
189	0xbd87b3cc	-0.066260904
190	0xbd84eaf2	-0.06490125
191	0x3ba61e05	0.0050694966
192	0xbd2347b9	-0.039863322
193	0x3d4f2de1	0.050580863
194	0x3d9d8341	0.0769105
195	0xbda4a536	-0.08039324
196	0x3daedb2e	0.08537899
197	0xbd93ce58	-0.07217091
198	0x3d428620	0.047491193
199	0x3cb21097	0.021736426
200	0x3d8f1d1e	0.069879755
201	0x3cd20455	0.025636831
202	0xbd3e99a6	-0.04653325
203	0x3d1a2db2	0.037641235
204	0x3d97a2b8	0.07404083
205	0xb81beac3	-3.717352e-05
206	0x3d0e8db7	0.03480312
207	0xbce5a5f6	-0.028033238
208	0xbd86fe82	-0.06591512
209	0x3d0ee6fc	0.034888253
210	0xbd98db40	-0.074636936
211	0x3cca8e10	0.024725944
212	0xbd0f466c	-0.03497927
213	0xbbfc3f77	-0.0076979953
214	0xbda3a104	-0.07989696
215	0x3db21509	0.086954184
216	0x3c67b4c2	0.014142217
217	0x3d268e43	0.040663015
218	0xbd60e042	-0.05490137
219	0x3d8c8821	0.06861902
220	0x3d729766	0.059226416
221	0xbd5e9302	-0.054339416
222	0x3d6aeae6	0.057352923
223	0x3d9e198a	0.07719715
224	0x3d8f5dff	0.0700035
225	0x3d040c72	0.03223843
226	0xbd628a9f	-0.05530798
227	0x3d1989a5	0.037484784
228	0xbd344068	-0.044006735
229	0x3d97af3e	0.07406472
230	0xbda77d9d	-0.08178256
231	0xbda06414	-0.078315884
232	0xbc44b567	-0.01200614
233	0x3cabda9d	0.020978266
234	0x3d5fefb3	0.054671954
235	0x3d674f33	0.056472015
236	0xbd818257	-0.063236885
237	0xbcd5e62c	-0.026110731
238	0x3d39f032	0.045395084
239	0xbd62fc1d	-0.055416215
240	0x3c394026	0.011306798
241	0x3ba8acb6	0.005147542
242	0x3c48d446	0.012257641
243	0xbb87c9d0	-0.004143931
244	0xbd818900	-0.06324959
245	0xbd23700f	-0.03990179
246	0x3b1c1dad	0.00238214
247	0x3db38ec2	0.08767463
248	0x3c9a116c	0.018807136
249	0xbd07b351	-0.033129994
250	0xbd464fa0	-0.04841578
251	0x3c90a30d	0.017655874
252	0x3bae03fe	0.0053105345
253	0xbb446ae5	-0.002997094
254	0x3a4653ae	0.000756557
255	0xbd01359b	-0.031545263

net.6.bias f4 [192]
0	0x3cf36826	0.029712748
1	0xbd1aa00f	-0.0377503
2	0x3cd48e9b	0.025946906
3	0xbd2e939a	-0.042621233
4	0x3c8af818	0.016964003
5	0x3d67d159	0.056596134
6	0x3c953127	0.018211914
7	0xbda3a8ca	-0.07991178
8	0x3d8e5502	0.06949808
9	0x3c143d9b	0.009047891
10	0x3dab6da4	0.08370522
11	0xbda3276c	-0.079665035
12	0x3d185246	0.037187837
13	0x3bc33013	0.0059566586
14	0x3da30845	0.07960562
15	0x3bddacf6	0.0067650033
16	0xbcaac292	-0.020844731
17	0x3d0c5706	0.03426268
18	0xbd8da7ec	-0.06916794
19	0x3bfbcc3b	0.0076842583
20	0x3da39781	0.079878815
21	0xbdb3a73f	-0.08772134
22	0x3d8dd61d	0.069256045
23	0xbc1c1917	-0.009527466
24	0x3d8a9fda	0.067687705
25	0xbb3571d3	-0.0027686253
26	0x3c5ea8ee	0.013590081
27	0x3da1772b	0.078840576
28	0x3c678bc4	0.014132444
29	0xbd1da91a	-0.038491346
30	0xbd4fe68f	-0.050756987
31	0x3dc11249	0.09427316
32	0xbdaedf32	-0.08538665
33	0xbd0a42e3	-0.033755194
34	0xbd1f516d	-0.038896013
35	0xbda0fac3	-0.07860329
36	0xbc5229e6	-0.012827372
37	0x3da28d50	0.079371095
38	0xbd2a4851	-0.041572873
39	0xbc845f02	-0.016158585
40	0x3cb99f5e	0.022659
41	0x3c6f0dd2	0.014590697
42	0xbda156f6	-0.078779146
43	0x3d8b37a4	0.06797722
44	0x3c82ce3b	0.015967479
45	0x3d72a469	0.059238825
46	0xbc143b2d	-0.009047312
47	0xbc6931af	-0.014233037
48	0x3d3a5044	0.045486704
49	0xbd9d5177	-0.07681554
50	0xbca15582	-0.019694094
51	0xbd51e64d	-0.051245023
52	0xbd3412a8	-0.043963104
53	0xbd9ff9a2	-0.078112856
54	0x3da78f89	0.08181674
55	0xbd9d44aa	-0.07679112
56	0xbddb97ce	-0.10722314
57	0xbc84e409	-0.016222017
58	0x3d8593b6	0.06522314
59	0x3daf0c7d	0.08547304
60	0x3db4a29e	0.08820079
61	0x3c904cd9	0.017614769
62	0xbd9350b3	-0.071931265
63	0x3c60e7d5	0.013727148
64	0x3d3c055f	0.04590356
65	0x3c47db6b	0.012198309
66	0xbc9035c5	-0.017603764
67	0xbc54e98d	-0.012995136
68	0x3d0eb3e5	0.03483953
69	0xbc0e454f	-0.008683517
70	0xb9a53ba4	-0.00031515688
71	0xbc6bdb2b	-0.014395515
72	0xbc892fad	-0.016746366
73	0xbcddccc9	-0.027075188
74	0xbc8da228	-0.017289236
75	0xbd8898ca	-0.06669767
76	0x3da532f0	0.08066356
77	0x3d152e17	0.036420908
78	0xbcbb8cc5	-0.022894273
79	0x3daa4776	0.08314411
80	0xbd378e7b	-0.044813614
81	0xbd9df3c0	-0.07712507
82	0x3cdeb344	0.02718509
83	0x3ac33816	0.0014894034
84	0x3d37a928	0.044839054
85	0xbb7c3eae	-0.0038489508
86	0xbdb221b7	-0.08697837
87	0x3c035189	0.008015045
88	0xbd6dfb22	-0.058100827
89	0x3d8121dd	0.06305287
90	0x3c764a7b	0.015032406
91	0xbc5e3e60	-0.013564676
92	0x3d03150b	0.03200249
93	0x3dacaf4b	0.08431872
94	0x3d276350	0.040866196
95	0xbd8a4bcd	-0.06752739
96	0x3d37a129	0.04483143
97	0xbd97dfaf	-0.07415711
98	0x3d5f2185	0.054475326
99	0xbda97adf	-0.08275389
100	0xbd2e2fbc	-0.04252599
101	0x3caaa20e	0.020829227
102	0xbd8929bc	-0.06697413
103	0x3d90a532	0.070627585
104	0x3d10c6ad	0.035345722
105	0xbd9f87cb	-0.07789572
106	0xbd8e9428	-0.06961852
107	0xbd41d996	-0.047326647
108	0x3d98618c	0.074404806
109	0xbd2770ca	-0.04087905
110	0x3d0ac110	0.033875525
111	0xbcb67fbe	-0.02227771
112	0xbd853995	-0.065051235
113	0xbcf72872	-0.030170653
114	0xbcab5323	-0.020913666
115	0x3d94d062	0.07266308
116	0xbd14d180	-0.036332607
117	0xbd06a851	-0.032875363
118	0x3ced3197	0.02895431
119	0xbce0003c	-0.027343862
120	0x3d0f82d3	0.035036873
121	0x3d7d6c73	0.061871003
122	0xbc90391f	-0.017605362
123	0x3ca3edc7	0.020010842
124	0xbb8bb023	-0.0042629405
125	0xbd7cf885	-0.061760444
126	0x3d034fa1	0.032058362
127	0x3d1d8039	0.03845236
128	0xbd16aa5b	-0.036783557
129	0x3db3c0ba	0.08776994
130	0x3d443b05	0.047907848
131	0x3d8dbb76	0.06920521
132	0x3d99e153	0.0751368
133	0xbb62100d	-0.003449443
134	0xbda4fbf4	-0.08055869
135	0xbc9fba94	-0.019498147
136	0xbd7b5400	-0.061359406
137	0xbdaa3b93	-0.08312144
138	0xbd61f946	-0.055169366
139	0x3cef4236	0.029206377
140	0x3d41e637	0.04733869
141	0x3d854ed1	0.06509174
142	0xbd5e420c	-0.054262206
143	0xbd3ad8e2	-0.04561699
144	0x3d58b651	0.052908245
145	0x3c821c3b	0.015882602
146	0x3dbf7062	0.09347607
147	0xbaa94c13	-0.0012916349
148	0xbc16b2aa	-0.00919787
149	0x3b63ac0d	0.0034740001
150	0xbd5d5935	-0.054040153
151	0xbd16f2f1	-0.03685278
152	0xbd9af601	-0.07566453
153	0xbc2848ce	-0.010271264
154	0xbd2c8998	-0.042123407
155	0xbd138e15	-0.03602417
156	0xbd2924d9	-0.041294906
157	0x3d7510b9	0.0598304
158	0xbda76ba1	-0.081748255
159	0xbc8c3e4a	-0.017119545
160	0xbcee0052	-0.029052887
161	0x3c0392c2	0.008030595
162	0xbc491ca0	-0.012274891
163	0xbc137626	-0.009000337
164	0x3da04de5	0.07827357
165	0xbd052576	-0.03250643
166	0xbd2680fe	-0.04065036
167	0xbda03c67	-0.07824021
168	0x3ce2a673	0.02766726
169	0x3db14541	0.08655787
170	0x3cab8b4d	0.020940447
171	0xbc1f023d	-0.0097051235
172	0xbcc39c7c	-0.023878329
173	0xbd9a0db4	-0.07522145
174	0x3d4a9f40	0.04946828
175	0xbd5377f1	-0.051628057
176	0x3d72c28b	0.059267562
177	0x3c5387ac	0.012910765
178	0x3d8eca72	0.06972207
179	0x3d02f54c	0.031972215
180	0x3c10bbd7	0.008833847
181	0x3cdedf88	0.027206197
182	0xbd55a910	-0.052163184
183	0xbd67ebb7	-0.05662128
184	0xbd4d7b71	-0.05016655
185	0xbc2f0d55	-0.010684331
186	0xbd943bfb	-0.07238003
187	0xbd884e5d	-0.066555716
188	0x3ce81392	0.028329644
189	0xbd750d81	-0.05982733
190	0x3d2f5116	0.04280194
191	0xbd4b286e	-0.049599104

net.8.weight f4 [192, 192]
0	0x3d8ebd43	0.069696926
1	0x3d78ccaf	0.060742076
2	0xbd88328e	-0.066502675
3	0xbc5adf0c	-0.013358843
4	0xbb9b2629	-0.0047347737
5	0x3d5aa27d	0.053377617
6	0x3d7fe265	0.062471766
7	0x3d276ad2	0.040873356
8	0xbc9944da	-0.018709589
9	0x3d460654	0.04834588
10	0xbca64235	-0.020295242
11	0x3d50bfdb	0.050964218
12	0x3b747831	0.0037303085
13	0xbd58af76	-0.052901708
14	0xbd345581	-0.044026855
15	0xbc94ccb4	-0.018164016
16	0xbd583162	-0.05278147
17	0x3d89d46b	0.06729969
18	0xbb021d5b	-0.0019853923
19	0xbd1554fa	-0.036457993
20	0x3d52ca60	0.05146253
21	0x3baf6406	0.0053525
22	0xbb3c8e86	-0.0028771474
23	0x3cd116e2	0.025523607
24	0xbd0c2436	-0.03421422
25	0x39d1264f	0.0003989213
26	0x3c1f09cd	0.0097069265
27	0x3d92a0d1	0.071595795
28	0xbd83f2e0	-0.06442809
29	0xbb88d1e4	-0.0041754115
30	0xbcd15c46	-0.025556695
31	0xbd07dd69	-0.033170138
32	0xbd754aba	-0.059885718
33	0x3cf28dd7	0.02960865
34	0xbd8f20a8	-0.069886506
35	0xbd85a5c2	-0.065257564
36	0x3a44d3ab	0.00075083476
37	0xbc27d926	-0.010244643
38	0xbcb11dc0	-0.021620631
39	0xbbcda7b4	-0.0062760953
40	0x3cb92a2c	0.022603117
41	0xbb8fbda3	-0.00438662
42	0xbc73552c	-0.0148518495
43	0xbc35eaa9	-0.011103311
44	0xbc8d027b	-0.017213097
45	0x3d7216a3	0.05910362
46	0x3b838895	0.0040140846
47	0xbd8d97c6	-0.06913714
48	0xbd88217f	-0.06647014
49	0xbd6bf0c3	-0.057602655
50	0x3d304ec1	0.043043856
51	0xbcb4fb79	-0.022092568
52	0xbb4feef9	-0.0031728132
53	0xbd7164b6	-0.058933936
54	0xbd53e743	-0.05173422
55	0x3d7db6de	0.061941974
56	0x3d841d58	0.064509094
57	0x3bde8083	0.006790222
58	0xbc9e3479	-0.01931213
59	0xbc724cc8	-0.014788814
60	0x3c8c68bf	0.01713979
61	0x3d0914a4	0.03346695
62	0x3c1fecd8	0.009761058
63	0x3d620871	0.05518383
64	0xbd75ddc7	-0.060025956
65	0x3d297aff	0.041377064
66	0xbd87024c	-0.06592235
67	0xbcdcfed3	-0.026976978
68	0xbd1e6b42	-0.038676508
69	0x3ca08ef4	0.019599415
70	0x3d9245cf	0.07142221
71	0xb9928d60	-0.00027952623
72	0xbd04aefc	-0.03239344
73	0x3bab3d8e	0.0052258437
74	0xbd34bc0a	-0.04412464
75	0xbd518827	-0.051155236
76	0x3c99fcc1	0.01879728
77	0xbd8748cc	-0.06605682
78	0x3b97c11b	0.0046311743
79	0xbc466475	-0.012108912
80	0xbd41be18	-0.04730043
81	0xbd26db2d	-0.040736366
82	0xbc10f7c9	-0.008848139
83	0xbc898e2e	-0.01679143
84	0x3ce6bed5	0.028167168
85	0x3ccb6d7b	0.024832478
86	0xba8fbcd7	-0.0010966313
87	0xbd16ea91	-0.036844794
88	0x3c9d053c	0.019167535
89	0x3cec1833	0.028820133
90	0xbb7efdad	-0.0038908527
91	0x3d0ab256	0.03386148
92	0x3ca03b50	0.019559532
93	0x3c6b6272	0.014366733
94	0xbc86221b	-0.016373685
95	0x3d11c557	0.03558859
96	0xbbdde071	-0.0067711403
97	0x3cb617ad	0.022228086
98	0xbca52f68	-0.020164207
99	0x3cbc3c45	0.022977958
100	0x3d5e2fef	0.05424493
101	0x3c925438	0.017862424
102	0xbcbfdd55	-0.023420969
103	0x3d91728e	0.07101928
104	0xbd8b9a02	-0.06816484
105	0x3cf4d0e7	0.029884769
106	0xbc822b29	-0.015889721
107	0x3c40359d	0.011731532
108	0x3d42a9d6	0.04752525
109	0x3c2e3a70	0.01063405
110	0x3ca3ecd0	0.020010382
111	0x3bcd37ea	0.006262769
112	0xbd06c65c	-0.032904014
113	0x3cc143ff	0.023591993
114	0x3d716162	0.058930762
115	0xbd2a38a6	-0.04155793
116	0xbd51d209	-0.051225696
117	0x3c796635	0.015222122
118	0x3d2d470e	0.04230409
119	0xbc378f02	-0.011203529
120	0x3be19859	0.0068846163
121	0xbb4edab6	-0.0031563467
122	0xbc3ad1e4	-0.011402581
123	0xbcf96241	-0.030442359
124	0xbd5cf158	-0.0539411
125	0xbd1ac68a	-0.037786998
126	0xbd46a42c	-0.04849641
127	0x3d363d72	0.044492193
128	0x3d4c0694	0.04981096
129	0xbcba3bc8	-0.022733584
130	0x3d3070e8	0.043076426
131	0x3d8c4141	0.06848384
132	0xbd8af961	-0.067858465
133	0x3cf148e2	0.029453699
134	0x3cbe38a9	0.023220377
135	0x3c605c52	0.013693886
136	0x3c97616d	0.018479073
137	0x3d4290e2	0.047501452
138	0xbd8d8c0b	-0.06911477
139	0xbd24caa6	-0.040232323
140	0x3d8a5ad1	0.06755603
141	0xbd1daa34	-0.038492396
142	0xbd33e8af	-0.043923076
143	0xbd36d5a6	-0.044637345
144	0x3d7c9491	0.06166512
145	0xbbd40071	-0.006469779
146	0xbd5ba37c	-0.053622708
147	0xbd2a9d6e	-0.041654043
148	0xbca23266	-0.019799422
149	0xbd4170cd	-0.047226716
150	0xbc5cde1d	-0.01348069
151	0x3ceba608	0.028765693
152	0x3c8f1e09	0.017470377
153	0x3d7e4a66	0.06208267
154	0x3c7d989e	0.015478281
155	0xbb5e3067	-0.0033903362
156	0xbd68c534	-0.056828693
157	0x3cc40e69	0.023932653
158	0x3cf29fd9	0.029617237
159	0xbd90b2ca	-0.07065351
160	0xbd48680c	-0.04892735
161	0xbc36af49	-0.01115019
162	0xbb98ef6c	-0.004667213
163	0xbd41aacf	-0.047282036
164	0xbd52de44	-0.0514815
165	0xbd74fab5	-0.059809405
166	0x3bed0783	0.0072335615
167	0x3c250e2c	0.01007418
168	0x3d43bbfc	0.047786698
169	0x3bd06722	0.0063599506
170	0x3cae7d03	0.021299845
171	0xbd0a0d8f	-0.033704337
172	0xbca6429f	-0.02029544
173	0x3c6406b2	0.013917612
174	0xbc2dde91	-0.010612146
175	0xbd1ab849	-0.037773404
176	0xbd8bbf9d	-0.06823657
177	0x3d9036d1	0.070417054
178	0x3d35ce9f	0.044386502
179	0xbd52ea3d	-0.05149292
180	0xbd8e9b40	-0.06963205
181	0x3c8e29d5	0.017353931
182	0xbd095878	-0.033531636
183	0x3be42b3f	0.006963163
184	0xbca0ca70	-0.01962778
185	0xbd570174	-0.05249162
186	0xbd5af264	-0.053453818
187	0x3d1ea306	0.03872969
188	0x3d9239ad	0.07139907
189	0x3d5cade5	0.053876776
190	0x3c3bdaf8	0.01146578
191	0x3d0bfc26	0.034176014
192	0x3d336680	0.043798923
193	0xbce76616	-0.02824692
194	0x3d3d4e7f	0.046217438
195	0x3d39b622	0.04533971
196	0xbca7a014	-0.020462073
197	0xbd028da5	-0.031873364
198	0x3cd07594	0.02544669
199	0x3c6f326d	0.014599425
200	0xbd54190c	-0.0517817
201	0xbd83b104	-0.064302474
202	0xbd73a112	-0.05947978
203	0x3d500f77	0.050796
204	0xbcab9013	-0.020942723
205	0xbb421172	-0.002961245
206	0x3ba2a689	0.0049637
207	0x3d8de10c	0.0692769
208	0xbc526312	-0.012841003
209	0x3d689f3d	0.056792486
210	0x3b95a060	0.0045662373
211	0x3d8b9cbf	0.06817006
212	0xbcfddfae	-0.030990448
213	0xbd7df119	-0.061997507
214	0x3cd9d39c	0.026590161
215	0xbd904bbd	-0.07045696
216	0xbd5b00ff	-0.053467747
217	0x3d4d03f9	0.050052617
218	0xbd12d0ab	-0.035843533
219	0xbc58310c	-0.013195287
220	0xbd805d7f	-0.06267833
221	0x3c192c55	0.0093489485
222	0xbc9a0047	-0.01879896
223	0x3d54ab9c	0.051921472
224	0xbc231b0e	-0.009955181
225	0x3d4ee40e	0.05051046
226	0xbd8a978f	-0.06767189
227	0x3c4c85fc	0.012483116
228	0xbb2b2be0	-0.002611868
229	0xbd5806c8	-0.052740842
230	0xbd3445c8	-0.04401186
231	0x3cf2fec9	0.029662507
232	0x3bb781c4	0.005600186
233	0x3cdbd7d0	0.026836306
234	0x3d1d4f80	0.038405895
235	0x3d2729b2	0.040811248
236	0x3c82d03f	0.01596844
237	0xbb89fbd3	-0.004210928
238	0xbc9f52b3	-0.019448614
239	0xbd667d0a	-0.05627159
240	0xbd79da18	-0.060999006
241	0xbd7520ce	-0.059845738
242	0xbd075930	-0.03304404
243	0x3d6875e1	0.056753043
244	0x3d488fd9	0.04896531
245	0xbd8bac57	-0.068199806
246	0xb826acbb	-3.9738352e-05
247	0xbd6d34f1	-0.057911817
248	0x3c297cab	0.010344665
249	0xbd8c5acc	-0.06853256
250	0x3d041c68	0.032253653
251	0xbd97fc19	-0.07421131
252	0xbbe8013c	-0.0070802253
253	0xbc9a3fa8	-0.018829182
254	0xbd1df7fa	-0.038566567
255	0x3d6beb78	0.057597607

net.8.bias f4 [192]
0	0xbc892c3f	-0.016744731
1	0xbc223b63	-0.009901854
2	0xbca875ce	-0.020563986
3	0xbd6af56a	-0.05736295
4	0xbd2ef112	-0.04271037
5	0x3d016338	0.031588763
6	0x3a90fe9c	0.0011062208
7	0x3c93f50d	0.018061185
8	0xbc88c481	-0.016695263
9	0x3d625046	0.055252336
10	0xbd75fae3	-0.060053717
11	0xbd479fbc	-0.04873632
12	0xbd7b82e0	-0.06140411
13	0xbd171b99	-0.036891554
14	0x3c2b3381	0.010449291
15	0xbcda283f	-0.026630519
16	0xbd907ff3	-0.070556544
17	0xbd8fb36b	-0.07016643
18	0xbc552042	-0.013008179
19	0x3d507d16	0.05090054
20	0x3d0935d7	0.03349861
21	0x3ca4e65b	0.020129373
22	0x3d6d1c83	0.05788852
23	0x3d71f00c	0.059066817
24	0xbd743218	-0.059618086
25	0x3d11dada	0.035609104
26	0xbcad87e5	-0.021182964
27	0xbd9a7921	-0.07542635
28	0x3d135b81	0.035975937
29	0x3d186bfa	0.03721235
30	0x3acc3e3e	0.0015582514
31	0xbc02adf8	-0.007976048
32	0x3ca0c684	0.01962591
33	0x3d2b7247	0.04185703
34	0x3c3f1895	0.011663576
35	0xbd1f7725	-0.038931984
36	0x3aa95fd7	0.0012922239
37	0xbbb7a272	-0.005604082
38	0x3d8f101c	0.069854945
39	0x3c82f930	0.015987962
40	0xbd295527	-0.041340973
41	0xbc95a54a	-0.018267293
42	0x3d4646fc	0.04840754
43	0xbaae2627	-0.0013286517
44	0xbcf7abe0	-0.030233324
45	0xbc43f596	-0.011960408
46	0xbd5b1577	-0.053487267
47	0xbcfef2f7	-0.031121714
48	0x3d8d4a12	0.068988934
49	0xbd295908	-0.041344672
50	0xbd3791ee	-0.044816904
51	0xbc840e5f	-0.016120134
52	0x3c9a3064	0.018821903
53	0xbd8044b7	-0.06263106
54	0x3d8fbcd2	0.070184365
55	0xbce639ad	-0.028103674
56	0xbd612fe4	-0.054977313
57	0xbc5fd292	-0.013661044
58	0x3d10ceb4	0.035353377
59	0x3d1bdf27	0.03805461
60	0xbd75b582	-0.059987552
61	0xbd6da855	-0.058021862
62	0x3cba7900	0.022762775
63	0x3c01951b	0.007909085
64	0x3d799bcf	0.060939606
65	0x3d1b7d01	0.03796101
66	0x3d2e1680	0.042501926
67	0x3c7e72df	0.015530317
68	0xbcd4849a	-0.025942136
69	0xbd91e5b5	-0.07123891
70	0x3d740a2f	0.059580024
71	0xbbda8850	-0.0066690817
72	0xbc4f458b	-0.012650858
73	0xbd16d26a	-0.03682176
74	0x3d90a5b2	0.07062854
75	0x3d7fcb03	0.062449466
76	0xbc7f1c13	-0.015570658
77	0xbc137cc2	-0.009001913
78	0x3d87a7e5	0.0662382
79	0x3ce3af30	0.027793497
80	0x3d4ba018	0.049713224
81	0x3d2f6dfd	0.042829502
82	0xbd2373f5	-0.039905507
83	0x3d56a200	0.05240059
84	0xbd9215b2	-0.07133044
85	0x3c047755	0.008085092
86	0xbbf4a879	-0.0074663726
87	0xbc063511	-0.008191363
88	0xb9c85fa3	-0.00038218228
89	0x3d50ca7d	0.050974358
90	0xbbc0a530	-0.005879067
91	0x3ce9069e	0.028445538
92	0x3a9ebf1b	0.0012111397
93	0xbc927e6b	-0.017882546
94	0x3d11012a	0.0354015
95	0x3d6df5da	0.05809579
96	0xbd6ae5af	-0.05734795
97	0xbd065aa5	-0.03280129
98	0x3d3f8267	0.04675522
99	0xbd7118c4	-0.05886151
100	0xbd43748b	-0.047718566
101	0xbd48c47d	-0.04901551
102	0x3b84e325	0.004055398
103	0xbcf2d413	-0.02964214
104	0x3d2eb03c	0.04264854
105	0xbb2d113d	-0.002640798
106	0xbd5424b7	-0.051792827
107	0xbd428c0a	-0.047496833
108	0xbc01799c	-0.007902529
109	0x3ce9b4fe	0.028528687
110	0xbd246a3e	-0.040140383
111	0x3cf1ca66	0.029515456
112	0xbca7633d	-0.020433063
113	0xbd573316	-0.052538954
114	0x3c76c369	0.015061238
115	0xbd809e7d	-0.06280229
116	0x3c6d7332	0.014492797
117	0x3c0462e1	0.008080215
118	0x3d0b7900	0.03405094
119	0x3d1f90fb	0.038956624
120	0xbbc85de4	-0.0061147083
121	0x3c9c937c	0.019113295
122	0x3c6e0a10	0.014528766
123	0x3c2d2b34	0.010569382
124	0x3d7159b9	0.058923457
125	0xbd8f9baf	-0.07012116
126	0xbaec1060	-0.0018010251
127	0xbdbb7e86	-0.09154992
128	0x3d882c96	0.06649129
129	0xbd5236ed	-0.051321913
130	0x3c5a7962	0.013334604
131	0xbc4abc29	-0.012373962
132	0xb9ca385b	-0.0003857043
133	0x3d798d8f	0.060926016
134	0x3c92a8e8	0.017902806
135	0x3c8a1525	0.016855786
136	0xbc281c60	-0.010260671
137	0xbd1dcf5b	-0.038527828
138	0x3d61c8b3	0.055123042
139	0xbd2e9a32	-0.04262752
140	0xbd84ee89	-0.064908095
141	0x3c5891bb	0.013218339
142	0x3d95f238	0.0732159
143	0x3d2ccf12	0.042189665
144	0xbc3a1ca4	-0.0113593675
145	0x3d60e536	0.054906093
146	0x3d4ed654	0.050497368
147	0x3b36bedb	0.0027884755
148	0xbd2bfd5f	-0.04198968
149	0x3d740934	0.05957909
150	0x3ca0044f	0.019533304
151	0x3d8aadc9	0.06771428
152	0x3c4284b3	0.011872458
153	0xbd503e2b	-0.050840538
154	0xbd84a9ff	-0.06477737
155	0x3d0632b1	0.032763187
156	0xbbc25864	-0.005930947
157	0x3c512cb2	0.012767004
158	0x3d5046c3	0.050848734
159	0xbcbfe436	-0.02342425
160	0xbd6f1256	-0.058367096
161	0x3bc5957e	0.0060297837
162	0xbd078224	-0.033083096
163	0x3d1016a8	0.035177857
164	0x3aa1e57a	0.0012351715
165	0x3cd8c8f8	0.026463017
166	0x3cefe4ea	0.02928396
167	0xbb996e77	-0.004682358
168	0x3c8f54ca	0.017496485
169	0xbd2d09b2	-0.042245574
170	0xbde54ac8	-0.11195904
171	0xbd2795fa	-0.040914513
172	0x3d5a4772	0.05329079
173	0x3d4798f4	0.04872985
174	0x3d666edc	0.056258067
175	0x3d4b1ddc	0.049589023
176	0x3b714c2f	0.003681909
177	0xbbe546a7	-0.006996948
178	0xbca41c8e	-0.020033147
179	0x3c6c6c2e	0.014430089
180	0xbd087ca2	-0.033321984
181	0xbd41fde0	-0.047361255
182	0x3c73c20d	0.014877808
183	0x3d0b34f8	0.03398606
184	0xbd4d3de6	-0.05010786
185	0x3d7dc66f	0.06195682
186	0x3c9786af	0.01849684
187	0x3cb9d7d2	0.022685919
188	0xbc7ccd92	-0.015429871
189	0x3d3a13f2	0.045429178
190	0xbd128b51	-0.035777394
191	0xbd78023c	-0.060549006
