new_saved_models/sk_spiral_v1.pt (torch, 179869 bytes, 24 tensors)

net.0.weight f4 [64, 2]
00000000: dc43 7c3e 94d0 683e 3a8c ffbe 890f 0abf
00000010: 7e28 dd3e 7568 14bf e4f9 c6bd 7f51 e33e
00000020: 7b17 f43e 8caf eb3a 9388 42bf 95df 0e3e
00000030: d112 243e 5148 0a3f f475 423f 1556 10bf
00000040: 425e 0ebf f1ef 33bf d3c6 30bd 68bf 34bf
00000050: 90a7 a33e b293 443e 7881 bdbd afc8 8cbe
00000060: 412f 023f 109b 6a3e 1fb1 cc3e d4b3 5ebd
00000070: 3a9d a53e 7817 02bf 37b8 423f dbdf 7b3e
00000080: 0e26 67be 9842 073f c202 2ebf 6a1d 31bf
00000090: d0df 1d3f d7df 0cbe 72f8 973e 1f8a 243f
000000a0: 9def eabe 95de 4bbe 27fa 313e 8478 de3e
000000b0: 461a 73be 8be9 883e 5bb5 3d3f d94c bfbe
000000c0: 0e25 9cbe 4d69 50be d3a4 bd3d 831e 2b3f
000000d0: f250 0f3f c4af 4cbe 24fd dd3d adaf 213f
000000e0: 5949 163f d641 013f 48f3 14bf 5d97 f2bd
000000f0: a176 483f e7a3 02bf be98 07bf 82a8 2ebf
00000100: ab80 073f 40ad dfbe f3e6 313e 17aa 1b3e
00000110: 8da5 bf3e a5a5 3f3f 09ee 19bf b5ed 2b3d
00000120: 064c b2be 5552 15bf ec54 a83d 45c7 d0be
00000130: 8150 99be 635d f53e 2b20 86bd be30 bd3e
00000140: fd66 18bf 8e34 143f 8aae 6b3e d841 1bbf
00000150: 51e1 2abf 1da4 c9be aba6 52be c07e aabe
00000160: 5345 e6bd 499d 88be 978d 9abd 5818 913c
00000170: 33da 9c3e bdd3 e73e f518 07bf 1ce6 5a3d
00000180: 36bc 83be 0fb6 07bd f070 50bd 1fb0 033d
00000190: 04f2 183f 6df8 43bf 0f0d a63e 388f dfbe
000001a0: c8b3 9f3e e1b3 9fbe 9d72 f83e df6b 3ebf
000001b0: 12f5 82ba 9adc 1d3f 0885 26be 74e1 893e
000001c0: a6c4 5c3e b484 e0be af7f 323d 767d 483e
000001d0: 689a 4ebf 1f9c 96be e220 3bbf c8a7 2ebf
000001e0: 0ad0 133f 10de 5b3e 20ef b7bd e72f 08bf
000001f0: 7399 603e 83ce 1dbf 03e8 3abd 8653 2b3e
0.24635261 0.22735816 -0.49911672 -0.53929955 0.43194956 -0.5797189 -0.097156316 0.44398114
0.47674164 0.0017981394 -0.75989646 0.13952477 0.16022803 0.54016596 0.7596123 -0.5638135
-0.55612576 -0.70287997 -0.043158364 -0.7060456 0.31963778 0.19196966 -0.0925321 -0.2749686
0.50853354 0.22910714 0.39978883 -0.054370716 0.32346517 -0.5081706 0.7606234 0.24597113
-0.2257311 0.5283599 -0.6797296 -0.6918551 0.61669636 -0.13757263 0.29681736 0.64273256
-0.45885935 -0.19909127 0.17380582 0.4345132 -0.23740491 0.2674068 0.7410485 -0.37363318
-0.3049702 -0.20352669 0.09259953 0.6684343 0.5598289 -0.19988924 0.10839298 0.63158685
0.5870567 0.5049108 -0.5818372 -0.118452765 0.78306013 -0.51031345 -0.5296744 -0.6822587
0.52930707 -0.43686867 0.17373256 0.15201603 0.37430993 0.7486213 -0.6012884 0.041974742
-0.34823626 -0.58328754 0.082193226 -0.4077703 -0.29944232 0.4792281 -0.06549104 0.3695125
-0.5953215 0.5789269 0.230158 -0.60647345 -0.66750056 -0.3938302 -0.20571391 -0.33299828
-0.11243691 -0.266825 -0.07546537 0.017711803 0.30635223 0.4527873 -0.52772456 0.053442106
-0.2572953 -0.03313261 -0.050888956 0.032150384 0.59744287 -0.7655094 0.32431838 -0.43663955
0.3119185 -0.31191924 0.48524943 -0.7438335 -0.000999125 0.61664736 -0.16261685 0.2692982
0.2155939 -0.43851244 0.0435788 0.1957911 -0.80704355 -0.29415986 -0.7309705 -0.68224764
0.5773932 0.21471429 -0.08981156 -0.53198093 0.21933536 -0.61643237 -0.04563142 0.1673108

net.0.bias f4 [64]
00000000: 8ff9 253f aee0 1dbd f8e0 44be 1d21 5b3e
00000010: ca07 febd 9b68 d9be e2bc 3cbe e25f 893e
00000020: 0d10 053f 0cca 99be 9469 04bf 5f8c b13d
00000030: f8e9 9c3e e42c fd3e 9224 47be d73a 3bbe
00000040: c7bb 63be d56f 97be e369 52be 763f 3e3f
00000050: cceb a13e 0fdd 6e3e b82f 533d a089 fabe
00000060: c6e1 243f 3db1 353f b40a 37bf 8ccd 383f
00000070: 8962 033f 83ee 983e e280 f1be 9d64 ff3e
00000080: ddad 1b3f 0e6d 85bd 588f 353e 726f 45be
00000090: 3dd0 c0be fb00 0f3f 8543 ed3e 0911 903e
000000a0: a61d fa3d cb52 eabd fb31 2fbe e686 d5be
000000b0: 5110 a63e f36a 24bf 4c4c e03e 85d4 223f
000000c0: f652 29bf da68 a83e be3f 863e 531d 103f
000000d0: c959 6b3e c405 be3e 6f7f f93e 360b 833e
000000e0: 3577 16bd e202 8cbe 6153 853d 89af edbe
000000f0: 0f77 c33d c8bf 8cbe b12f 0cbe 80c2 ff3d
0.6483392 -0.03854435 -0.19226444 0.2139935 -0.124038294 -0.4246262 -0.18431428 0.26830965
0.51977617 -0.30036962 -0.517236 0.08669352 0.30647254 0.4944831 -0.19447544 -0.18284164
-0.222396 -0.2957751 -0.20548205 0.74315584 0.3162521 0.23326515 0.05155918 -0.48933125
0.64407 0.7097357 -0.71500707 0.7218864 0.5132223 0.2986947 -0.47168642 0.4988145
0.6081217 -0.06514941 0.17730463 -0.19280794 -0.37658873 0.5586087 0.46340576 0.28137997
0.12212686 -0.11441573 -0.1710891 -0.41704482 0.32434323 -0.6422569 0.4380821 0.6360553
-0.66142213 0.32892495 0.26220506 0.56294745 0.22983469 0.37113774 0.48730037 0.2559449
-0.03673478 -0.2734595 0.06510044 -0.46422985 0.09544193 -0.27490067 -0.13690068 0.1248827

net.2.weight f4 [64, 64]
00000000: b910 1d3c 502a a5bd 3b25 56bd fa78 26be
00000010: ff52 49bd f349 c03d 4ec7 78bd 58cb 5d3d
00000020: c942 083e 6b2f 6e3d 3e9e d43d cebd 173d
00000030: cc0c acbd 04f2 dc3d af59 5ebd 0c37 743e
00000040: 1fab 463d e81a 1b3d 3cfc 843c 9162 40bd
00000050: f3de 423d 7b1a 5bbc cf5f f83c 2a4d 2bbd
00000060: 9f97 02be 6e55 b13d 5c98 cbbd b62f 70bd
00000070: 28a9 143e 50c0 d8bd 2200 1fbd 0fed 003e
00000080: c4ff ffbd e32d 983d 3629 053d 2a83 49bd
00000090: 20d0 4cbc 8912 9e3c 493a 0bbc cee1 1f3e
000000a0: a592 613d 0bda b4bd 1920 93bc 2ff9 d1bc
000000b0: eb24 0bbd 8d16 653d d2b0 91bc 4fab b5bc
000000c0: a59c da3d 3262 8d3d 4073 e53d 5668 29bc
000000d0: 8d60 84bd 8751 bdbc 3187 e83d 6b36 2d3e
000000e0: f3c6 0cbd 5f80 eabd e19c 14be ccc9 ee3c
000000f0: b328 e4bd 1b75 7c3d c028 02be 1641 693d
00000100: bf73 913d d84f 82bd 2d7f b1bd d858 5e3e
00000110: 03e6 69be 72a1 ad3c d7da 3f3d 403b ab3d
00000120: 6bbb f03a 69d5 0bbe 5bb4 77bd 4287 c13d
00000130: e44e c8bd ff1a 263e 0d68 11bc 16bd 49be
00000140: dbf9 0fbe 9acf 043e 04f1 123e 08d6 0bbd
00000150: e215 213e 0636 813c a2e4 c1bc fd76 36be
00000160: 2053 a83d 6dd1 e3bc 0fd4 00bc 631c ef3d
00000170: e9e7 50bd fa1a b73c e008 093e 0b55 a53c
00000180: 9d40 473e a50a c6bd 3d24 3b3e 814d c53c
00000190: 9462 7fba 9670 2f3e 15c6 9d3d ceb9 0bbe
000001a0: 9348 06be f725 fb3c 9957 ad3d e8d2 aebc
000001b0: d376 193e c6bf 89ba 218b 943d 1c6c 6bbd
000001c0: 88f1 393d c754 2f3e f654 793e b73a febb
000001d0: e3f2 11bd ad59 97bc 96a9 023d 2d01 bdbd
000001e0: d41f 7cbc f003 e4bd 9c67 583e 786c aabc
000001f0: b00d 87b7 4fbd cebd efa5 d63d adb7 31bd
00000200: c8c5 4abd f200 5b3d 83ec 05be 9b0b 1bbe
00000210: 2204 c73d 8f63 603d 0d04 ef3c 470c 35bd
00000220: 709b 143e 4b84 f8bd 1470 913d 7a37 1e3e
00000230: 55e0 50bd d94d b33d dd4a 4dbd f31c 413e
00000240: 6ab1 113e b4e8 8dbb 59a7 46bc 866b 853d
00000250: ce71 eabd 775f c2bd 0ca1 383e 3069 773d
00000260: 2e19 ebbd 4dce 90bc ee2f dfbd 86e7 af3d
00000270: 4d2e d13d 4db9 4abd 0044 06be 2761 0f3e
00000280: d49f 443c 248b 1c3e b937 983d 4e43 9bbd
00000290: 1353 f83d 3f27 e9bd ccb0 e03d 417b d73d
000002a0: 585d 623d cbac dc3c 3ef5 933d 194f 46bd
000002b0: 1ca5 9ebd 5325 6f3d da59 d53d b1cd ad3d
000002c0: 79ea 0f3e edf7 be3b 8616 7abd 10d8 0f3d
000002d0: 7cb4 89bd e4dd b83d 9949 223e 9e9c 6bbc
000002e0: c7d8 56bd b058 c1bd c82f bc3d bcbd 693d
000002f0: 2678 77bd 465b 403d 2202 0dbe 769e 603d
00000300: 55ad a83d 41e8 cdbd d86d 813d cfde 7dbd
00000310: 3d3a 1e3e 0550 163d 588a 353d 6080 973c
00000320: 508c 4f3d ee6d 0ebd 97f2 053e 8d23 2fbd
00000330: 8ad1 213e 4946 3fbd c17c 87bd e176 d53d
00000340: 54a8 c13c 8534 49bc cde8 f2bc 20d9 c93b
00000350: 492e c8bd 11ba 273d 46e3 193d 0de9 503e
00000360: 5016 c83d c231 263d 7b05 04bd 4587 463c
00000370: 3951 3ebd 1a40 26bd d25f d83d 8003 2a3d
00000380: bf41 c8bd 8fd3 5a3e 531a 5e3d 28e6 253e
00000390: 6cac a73d 9018 4a3a 52c1 26bc 0d33 fbbc
000003a0: daad 423e 93c7 7ebd 8424 523d 7f27 fdbd
000003b0: 6858 02be f3b8 433d 7fcd 0bbe a9b9 5cbd
000003c0: d7bd 0d3e b11f 813c 14a5 843d b9b8 833d
000003d0: 1537 f83d e2db 19bd c46b b9bd 3eb6 363d
000003e0: 2b56 35bd 92c9 e63d 287c 37bd cf9d 253e
000003f0: 3c61 403c 48d0 cb3d 428d 04bd ddc8 db3d
0.0095865065 -0.08064711 -0.0522816 -0.16257086 -0.049151417 0.09389105 -0.060736947 0.054149
0.13306727 0.05815069 0.10381745 0.037046246 -0.08400878 0.10788348 -0.054284748 0.23849124
0.048503038 0.037867457 0.016233556 -0.046969 0.047575902 -0.013373013 0.030319123 -0.041821636
-0.12753151 0.086588725 -0.099411696 -0.05863925 0.14517653 -0.10583556 -0.038818486 0.1259043
-0.12499955 0.07430627 0.032510005 -0.049197353 -0.012500793 0.019295948 -0.008497783 0.15613481
0.05507149 -0.08830651 -0.017959641 -0.025631515 -0.033970755 0.05592971 -0.01778451 -0.022176413
0.10674409 0.06903495 0.11203623 -0.010339817 -0.06463728 -0.023110164 0.11353911 0.1691529
-0.03436942 -0.11450266 -0.1451297 0.029148959 -0.11140575 0.061635118 -0.12710857 0.056946836
0.07102155 -0.06362885 -0.08666835 0.21713579 -0.22841649 0.021195147 0.04683956 0.083609104
0.0018366402 -0.13655628 -0.060474735 0.094496265 -0.09780672 0.16221236 -0.008874905 -0.19701037
-0.14060156 0.12969819 0.14349753 -0.034139663 0.15731004 0.01577283 -0.023668591 -0.17818828
0.0821898 -0.027809823 -0.007863059 0.11675336 -0.051002417 0.02235173 0.13382292 0.020182153
0.19458242 -0.09669999 0.18275543 0.024084808 -0.00097421673 0.17132792 0.07703797 -0.13645098
-0.13113622 0.030657751 0.084639736 -0.021340802 0.14986734 -0.0010509423 0.07253099 -0.057476148
0.045396358 0.17122184 0.24348816 -0.007758464 -0.035632025 -0.018475378 0.03190001 -0.0922874
-0.015388448 -0.111335635 0.21133274 -0.020803675 -1.6099628e-05 -0.100947015 0.10480868 -0.043388058
-0.049505025 0.0534677 -0.13078503 -0.15141146 0.09717585 0.054782446 0.029176736 -0.04420116
0.1451242 -0.12134608 0.07101455 0.1545085 -0.05099519 0.08755083 -0.050120223 0.188587
0.14227834 -0.004330719 -0.01212486 0.06514649 -0.11447488 -0.09490865 0.18030185 0.06040305
-0.11479412 -0.017676497 -0.10897814 0.085890815 0.10213909 -0.049493123 -0.13111877 0.14001904
0.012000997 0.15287453 0.07432503 -0.07581197 0.1212522 -0.11384439 0.10971221 0.10521556
0.0552648 0.026937863 0.072245106 -0.048415277 -0.07746336 0.058385205 0.104175285 0.08486498
0.14054288 0.005827895 -0.061056636 0.035118163 -0.06723878 0.09026697 0.15848388 -0.014380602
-0.05245283 -0.09440744 0.09188801 0.05706571 -0.060417317 0.046962045 -0.13770345 0.05483862
0.082361855 -0.100540645 0.06319779 -0.061980065 0.15451904 0.036697406 0.044321388 0.018493831
0.05067092 -0.034772806 0.13080822 -0.042758513 0.15802589 -0.04669789 -0.06615592 0.10423065
0.023639835 -0.012280588 -0.029652024 0.0061599165 -0.09774453 0.04094893 0.03757026 0.20401402
0.09769881 0.040574796 -0.03223179 0.012117212 -0.04646418 -0.040588476 0.10565151 0.041507244
-0.09778165 0.21369766 0.054224323 0.16201079 0.08187184 0.00077093486 -0.010177927 -0.030663991
0.19011632 -0.062202048 0.051304355 -0.12361049 -0.12729037 0.047783803 -0.1365261 -0.053887997
0.1384195 0.015762182 0.06476799 0.064317174 0.12119881 -0.037563212 -0.09053758 0.044607393
-0.04427163 0.11268915 -0.04479614 0.1617348 0.0117419325 0.09951836 -0.032361276 0.10731671

net.2.bias f4 [64]
00000000: 2770 e6bc 0fba 0d3e f3d2 9fbd b389 3ebd
00000010: 91ff 65bd 1a1a 2abd 41ce 9e3d dc7c 503d
00000020: c6e7 42bd 3531 acbd d0db 24bc b8e1 b13d
00000030: 92c4 ce3d 4fce 9a3d 1cab cabd db5d 3bbd
00000040: 51a9 733d cbe4 c03d 5b79 d93b f4da 363c
00000050: 6cb2 aabd 54ef b73d 0f58 d8bd 8f8c 9cbd
00000060: 9ec4 a4bd d8c8 ef3d 649a 503d 970a 43bd
00000070: 1244 1b3d 201f 34bc 727e ecbd 00f4 ff3d
00000080: 1f33 cc3d 4728 b73d e3d7 38bd d68a 73bd
00000090: 2acd 9c3c ccc6 ed3d 4c90 90bd 98ce 0f3e
000000a0: 6ad1 1bbd 92b2 eabc d05a 313d 7669 143e
000000b0: c674 b6bd 845f df3d 7566 343d 7f47 bc3d
000000c0: 5d68 e6bd b685 cdbc 2c86 1f3d a72d 7d3b
000000d0: 139a 76bd 1434 bdbd 6f5a 4ebd 3640 603d
000000e0: 736a 35bc 5142 73bc 26a7 04bd f634 3dbd
000000f0: f00d 2dbc 501f 623c ab5e 1ebd cb62 85bd
-0.02812965 0.13840507 -0.07803907 -0.04651804 -0.05615193 -0.0415288 0.077541836 0.050900325
-0.047584318 -0.08407823 -0.010062173 0.086856306 0.100960866 0.075588815 -0.09895918 -0.045743804
0.059487645 0.09418639 0.006636781 0.011160601 -0.083348125 0.08981195 -0.10563671 -0.07643997
-0.08045314 0.1170823 0.05092849 -0.04761752 0.037906714 -0.010993749 -0.11547555 0.12497711
0.09970688 0.08943229 -0.04512776 -0.059458576 0.019140799 0.11610183 -0.070587724 0.14043653
-0.03804151 -0.028649602 0.043299496 0.14493355 -0.089089915 0.1090689 0.044043023 0.09193324
-0.112503745 -0.025088172 0.038946316 0.0038631947 -0.06020553 -0.09238449 -0.050379213 0.054748736
-0.011072743 -0.014847354 -0.032385968 -0.046193086 -0.010562405 0.013801411 -0.0386645 -0.06512984

net.4.weight f4 [128, 64]
00000000: de77 22be d2ff 123e 95f2 ddbd 610d dabd
00000010: 1fde b83d 4a44 adbd b1c2 8fbd d8fc b93d
00000020: 167b ecbd f346 a13d de9d c63d 9769 143e
00000030: 2771 643d 7c76 f6bd a2fb 89bd f2f0 24be
00000040: ca90 063e 1b4e 313d 422e 303d 3353 303d
00000050: e37b 8cbd a113 8abd c645 aabd 89db 0cbd
00000060: 5e0d 17bc 8b3d a93d 2e12 b4bd 6a6c 81bc
00000070: 6763 a5bb c1cb 453c f42f a83d 7f92 1ebd
00000080: 19db a3bd 1cad 32be dfdd 673d 0f09 ccbc
00000090: 538b 033e 82d3 d9bd ef19 31be fc5b fd3d
000000a0: 4984 343e ffa8 a03c 5d65 153c ab3b 95bd
000000b0: 808f dcbc 0013 ec3d 9376 5b3d 687d 5cbe
000000c0: 8776 80be 2f1b 54be 50e8 3b3d 1a49 2bbd
000000d0: 1a7d 363c 6e50 d93d 2c3e 1abd 72af 783d
000000e0: 11c5 b03c d003 d5bd a61f 3bbd 1b7d cdbc
000000f0: e633 a7bd 6eb2 88bd 82c6 7fbd 4fd3 63bc
00000100: 2138 b9bd f439 893d 4eec 4fbd 9b5e 45be
00000110: 6267 003e d6b8 56bd f941 4dbe 062d bdbd
00000120: 788b 6dbe d08f 133e 08ef ce3d 7585 123e
00000130: 6d0e ffbd 778e d9bd dcb6 a13c 0462 dc3c
00000140: b7ca 333e b56b 1ebd 9a65 75be 0773 bbbc
00000150: df46 44bd ce85 4c3d 006d 21be 1318 5cbe
00000160: 4463 593c 4433 3a3e 0024 d6bb 6c0f 01be
00000170: 9ac8 94be 578a f8bb f4d7 8bbd 6dcb 0fbd
00000180: fbb4 85bd 4ef7 e7bd 6daf febd e9f7 da3d
00000190: 0397 3b3e 9792 613d 24f9 8ebc a163 073e
000001a0: 770b 183e e715 793b c710 3bbe 6617 2cbe
000001b0: 02b8 93bd 0136 2f3e 5479 2f3d 8a07 29be
000001c0: 8eec 61be 5a4c 87be 1937 513d ea61 d33d
000001d0: 6877 cebd d0fc 4ebd bcb3 0a3d b0ec ee3d
000001e0: 29e9 c53d 1fd5 033e 6974 513d a3ab bdbd
000001f0: a642 eb3c e073 d83c e75e 35be d9c0 cd3d
00000200: 7132 30be b97c 6fbc eaec 3bbe e62b 22be
00000210: 1e78 4c3d 717e 94bd a897 9ebc e0fb c5bb
00000220: a128 afbd c8ab 583d 2868 a9bc 02f4 b93b
00000230: 4fec 87bd 4a0d 0e3d 8d72 22be 62c5 d2bc
00000240: 1e4d 1e3e a614 173e ad28 bebd 56fb d1bb
00000250: 1070 4ebe 7747 fabb 6f17 acbb c4bd 24bd
00000260: 38ef ddbd 063c 9abd 249e 71bd a28f bcbd
00000270: 9a6b 4fbe a23b 26bd f81a b5bc 83ac eebd
00000280: 3fc1 8f3d fd1f e1bd 8a6a 9bbc bd2e 363e
00000290: 422e 923d 7c0b e1bd 99ce 33be 4dab 263e
000002a0: c29f 253e c38a 1bbd c475 9fbd 50c0 71bd
000002b0: 4087 df3c 1ece db3d 0b42 293d 4fc9 86be
000002c0: aeb0 a53c ebb1 c9bb 94cb 273e 9a8c bdbd
000002d0: e34e 73bd 80f0 6d3c ca0c c43b 2613 8bbd
000002e0: 45d9 4abd 951b 213e 46a3 9fbd 7e68 95bd
000002f0: 6e6d 313c 6868 c53c dbd7 5dbe 373d f43d
00000300: b11f 04be fc46 853d 74fe 79be 4531 f5bd
00000310: e250 063c b5a8 05be 0c8f 98bd 0ebb db3d
00000320: 3d9a f2bc 3206 803d 4ca4 8fbd 2c40 013e
00000330: 8bdb fa3d 750f 1d3d 4135 9dbd e666 d3bd
00000340: b678 3b3e b23f c13d 1ad1 6ebe 2d0e 0dbe
00000350: e4cb 3dbe efbd aa3c 8c34 65bd fa21 513d
00000360: 6447 47be 0971 483d ae4c d4bd 1273 8ebd
00000370: da07 2abd 604f c93c 78f6 12bd 3639 493e
00000380: 5a0a 1fbd 5428 45be 4990 b53d 9d9f 1c3e
00000390: 4b3c 583e b5aa f73c baf4 25be 979e 2f3e
000003a0: 8458 703e 7806 db3d aa82 c7bd 7f3b 5cbd
000003b0: c6df cc3d 6500 83bc d07e 603d 3780 24bd
000003c0: a6ae 18be 6c0e 4ebe b325 28bb 0d37 0e3e
000003d0: b049 343d b827 8b3d dc98 b83c d9ad 333e
000003e0: d758 bd3c ef82 b7bb 4fde 76bd da90 a53d
000003f0: 8f1d 16bd a05c f53b f36a d03d 524a 0ebe
-0.15866038 0.143554 -0.108372845 -0.10647083 0.09026741 -0.08460291 -0.07019556 0.09081429
-0.11546914 0.078748606 0.096980795 0.14493404 0.055771973 -0.12034318 -0.06737448 -0.16107538
0.1314117 0.043287378 0.043012865 0.043048095 -0.06859567 -0.06742025 -0.083140895 -0.034389053
-0.009219496 0.082636915 -0.0879253 -0.015798766 -0.00504725 0.0120725045 0.08212271 -0.03871393
-0.08000774 -0.17448848 0.056608077 -0.024906663 0.12846117 -0.10636045 -0.17295049 0.1237106
0.17628588 0.019611834 0.009118405 -0.072867714 -0.026923895 0.115270615 0.053579878 -0.21532214
-0.2509043 -0.20713495 0.045875847 -0.041817762 0.011138225 0.10611044 -0.037656948 0.060714193
0.021578344 -0.10401118 -0.04568448 -0.025084069 -0.08164196 -0.06674658 -0.06244517 -0.01390536
-0.09043909 0.06700507 -0.050762467 -0.1927437 0.12539437 -0.052422367 -0.20044698 -0.09237103
-0.23197734 0.14410329 0.10104185 0.14308722 -0.124539234 -0.10622876 0.019740514 0.026902206
0.17557798 -0.038676936 -0.23964539 -0.022881998 -0.04791915 0.049932294 -0.15764236 -0.21493559
0.013268296 0.18183619 -0.0065350533 -0.12603539 -0.29059297 -0.007584851 -0.06828299 -0.03510611
-0.0652866 -0.113264665 -0.124358036 0.10691816 0.18319325 0.05507144 -0.017452784 0.13221599
0.14848123 0.003800744 -0.18268119 -0.16805801 -0.07212831 0.17110445 0.042840317 -0.16506782
-0.22062895 -0.2642544 0.051077936 0.1032141 -0.10081369 -0.05053407 0.033862814 0.11666238
0.096636124 0.12874268 0.051136408 -0.09261253 0.028718304 0.026422441 -0.17711984 0.100465484
-0.17206742 -0.014617139 -0.18352094 -0.15837058 0.04991924 -0.07250679 -0.019359425 -0.0060419887
-0.08552671 0.0528982 -0.020679548 0.00567484 -0.06636869 0.034680642 -0.1586401 -0.025728885
0.15459105 0.1475397 -0.09285102 -0.0064081354 -0.20159936 -0.007637914 -0.005251817 -0.040220037
-0.10836643 -0.0753098 -0.058988705 -0.09207083 -0.2025589 -0.040584214 -0.022107586 -0.11653998
0.07019281 -0.109924294 -0.0189717 0.17791267 0.07137729 -0.109885186 -0.1755928 0.16276284
0.16174224 -0.03797413 -0.07786134 -0.059021294 0.027286172 0.10732673 0.04132275 -0.2632546
0.020225849 -0.0061552427 0.16386253 -0.09255333 -0.059401404 0.014522672 0.00598297 -0.06790762
-0.04952361 0.15733178 -0.07794814 -0.07295321 0.010829313 0.024097636 -0.21664374 0.11925738
-0.12902714 0.0650768 -0.24413472 -0.11972288 0.008197995 -0.13052638 -0.07449159 0.10729037
-0.029614562 0.06251182 -0.07013759 0.12622136 0.12248906 0.03834482 -0.07676173 -0.10322361
0.18307766 0.09435977 -0.23321953 -0.13774939 -0.1853481 0.02084252 -0.055958316 0.051057793
-0.19460827 0.048935924 -0.10366188 -0.06955542 -0.041511394 0.024573982 -0.035879582 0.1965073
-0.03882823 -0.19253665 0.08865411 0.15295263 0.2111675 0.030232767 -0.16206637 0.17150341
0.23471266 0.10694593 -0.09741719 -0.053767677 0.10003619 -0.015991399 0.054808438 -0.040161338
-0.14910373 -0.20122689 -0.0025657236 0.13888188 0.044015586 0.06794685 0.022533827 0.17546786
0.023113651 -0.0056003253 -0.060270604 0.08084269 -0.036649283 0.0074878484 0.10176649 -0.13895538

net.4.bias f4 [128]
00000000: de61 57bd 0287 113d 5ba3 593d ae0b a2bd
00000010: 7f31 acbc 3018 0dbe 047e 863d fb0a 89bd
00000020: 5d14 ed3c c243 803c 6eef fdbd 03f9 c23d
00000030: 4ad1 e0bb 661b 8dbd 8f71 39be c698 a3bd
00000040: 8303 013d 3db7 583d 92e2 efbd 4a20 4bbd
00000050: 93dc 06be 2eee 15be f02c 523d 80b9 babd
00000060: 39a0 9cbd ee6f adbc 8838 43bc 53c4 aebd
00000070: f4b2 bf3d 05fb 9ebb b2bb 843d e472 6cbd
00000080: 51fe 12bd 5a10 2d3d d0eb 35bd 860e cf3b
00000090: cf77 243d ff8b 8eb9 1b62 d43d 1131 70bb
000000a0: aca7 61bd e622 fa3d 81d2 163e bd47 8e3d
000000b0: 19d9 bb3d 37d8 05be 7423 5c3d f855 20be
000000c0: b663 77bd 1615 13be 7eb5 473d 54de d8bd
000000d0: 41e3 d93d eb89 9c3d 86d4 053d 639b 9fbd
000000e0: bd4c c13d ec9c febd 5aac abbd 481c 2cbd
000000f0: 5cef 2dbd d322 f83d 871f ca39 d44f 8f3d
00000100: 9912 6f3d 609d 92bd 3770 a6bd 08cc b33d
00000110: 5258 a03d 20e3 e2bc baa5 5c3d e54c bbbd
00000120: 36c3 b9bd 56eb 03bd e9ae 2cbe cf05 d7bc
00000130: ff25 8fbd a4d1 d0bd 38e5 7fbd 0ec4 9abc
00000140: 5d03 9ebd d31c 03be a208 b63d 0eb4 583b
00000150: 6a31 c2bd b965 1bbd 324b ba3d 9b9b c1bd
00000160: 1974 a9bd 620e e03d 3bfd 05be ff9a 6bbd
00000170: eef5 5a3d 8093 153b 556d bdbb cf47 22bd
00000180: 64ee fabc ba69 9f3d 5cff e5bd 7ded 083c
00000190: 6a69 063e e077 d2bb 5f54 7b3d 0c25 c6bd
000001a0: 90a0 823b 3c1d b2bd b081 193e a698 42bc
000001b0: da3e a43c 7c33 82bd 0203 a93d 019e 02be
000001c0: c66b 6cbd f22e 633e 88b5 0a3b 295a 35be
000001d0: 0b6a 773d 2800 323d cf14 abbd d8ba 9bbd
000001e0: 89ab 9b3c 0c6a 77bd 30f0 91bd 64ac df3d
000001f0: 90cb 9dbc 9223 20bd 8f92 2b3d 6f64 003d
-0.052583568 0.035529144 0.053134304 -0.07912384 -0.021019695 -0.13778758 0.06567004 -0.066915475
0.028940374 0.01565731 -0.12399183 0.095201515 -0.0068608867 -0.068899915 -0.18109725 -0.079881236
0.03149749 0.052909125 -0.11713137 -0.04959134 -0.1317008 -0.1464164 0.051312387 -0.091174126
-0.076477475 -0.021171536 -0.011915334 -0.085335396 0.093603045 -0.004851701 0.064811125 -0.057726756
-0.035887066 0.042251922 -0.04441434 0.00631887 0.04015332 -0.00027188656 0.10370275 -0.003665034
-0.055091545 0.122136876 0.14728738 0.06947277 0.091722675 -0.1307076 0.05374475 -0.15657794
-0.060397826 -0.14363512 0.04875707 -0.10589281 0.10639048 0.07643493 0.03267338 -0.077933095
0.09438465 -0.12432274 -0.08382483 -0.04201916 -0.0424646 0.12116017 0.00038551932 0.06997648
0.058367345 -0.07158923 -0.08126872 0.0877915 0.07829346 -0.027696192 0.053868987 -0.09145526
-0.09070437 -0.032206856 -0.16863598 -0.026247887 -0.06989669 -0.10196236 -0.06247446 -0.018892314
-0.07715485 -0.12803964 0.08888365 0.0033066305 -0.09482081 -0.037938807 0.090963736 -0.094535075
-0.08274097 0.10940243 -0.13084881 -0.057520863 0.053457193 0.0022823513 -0.0057808557 -0.039619263
-0.030631252 0.077838376 -0.112303466 0.008357403 0.1312615 -0.0064229816 0.06135976 -0.09675035
0.0039864257 -0.08696982 0.14990878 -0.011877215 0.020049501 -0.06357476 0.08252527 -0.12755586
-0.05771997 0.22185877 0.002116533 -0.17710175 0.060403865 0.04345718 -0.08353578 -0.07603997
0.019002693 -0.06040387 -0.0712589 0.10921553 -0.019262105 -0.039096422 0.041887816 0.03134578

net.6.weight f4 [2, 128]
00000000: 1248 cd3d b862 6e3e 19f0 6d3e fbf9 603e
00000010: 239a 75be 43dc 53be b09a 75be daba 453e
00000020: 75f6 e13b 6acd 6bbe 85f4 7ebe d6e8 54be
00000030: 4ca0 80be 4288 89be 725f 29be 0d3a 0c3e
00000040: 62f0 4ebe d680 28be 535f 87be 4c5e 583d
00000050: b8af cdbd f6e4 3ebe 0022 523d 36d8 a43d
00000060: d663 e3bd cdc6 10be 1195 703d a5e6 64be
00000070: 324e 963d bf8e 1c3e 56a5 f0bd 8339 8dbd
00000080: c208 05be 542d 4cbe 2863 a8bd 9bb7 4a3e
00000090: 31c9 8cbe 0549 223d 2a88 8e3d e93d 74be
000000a0: c410 12be eed5 893c f497 503e dcf0 8e3d
000000b0: 9684 eebd 63e6 4ebe c48d 02be a89d 18be
000000c0: 2425 fdbd 097d 5cbe 31b3 ddbc d1e0 b43d
000000d0: ebe4 21be 3d9e 613e 568f 0b3e 5b3d 5ebd
000000e0: 5af0 85be 530f fdbd d08c 7fbb fce0 2bbe
000000f0: 5ceb a43d 48de fcbd d3f4 6fbe 1652 aa3c
00000100: d4f3 093d b633 7ebd 44ce ce3d 715f 35bd
00000110: 2727 2a3d c0a3 4cbd eb82 d9bd ce36 bcbd
00000120: 950f f83d e8e7 4bbe c510 42be c52e 38be
00000130: 18f1 1dbe 5e41 d83c 8a6a 07bd 3a7c 2b3e
00000140: d588 763d e17e 44be a624 e6bd f08e 943d
00000150: 88e5 183d 861c 333e 2612 a7bc ccd4 febd
00000160: 7d50 52be 735b db3d 8917 7bbe d4b4 79be
00000170: 620c 06be c53f a03b 223a c0bd cb14 27be
00000180: 5ee6 373d 4a48 8c3d 5d88 21bd 53d9 413e
00000190: 9b9d 443e 1f25 d3bc 09d4 25be 1cfa 4cbe
000001a0: 18fe 5abe 5703 10be 7c9a 483e 009b 3fbe
000001b0: cf5d 5abe 0ec0 70be 43f3 493e e7f8 853d
000001c0: e398 45be 5b04 be3d 682a 6abe 52e5 3bbe
000001d0: 7f0c 3dbe d2aa 8bbe b37d 723e d6ed 12be
000001e0: 4e42 89be 6fc7 a5bd 1f06 73be 9ab8 ff3d
000001f0: f9ba aa3d b54f 513c 2cdc 80be 3ad1 40be
00000200: 4406 5fbe 56e1 2bbe 760d 2ebe e26d 7fbe
00000210: a66d 6d3e f1e3 143e dd8b 5b3e 1eba 7cbe
00000220: 0e24 a5bd 7cb2 303e fd91 813e 0e4a 043e
00000230: 477f 0a3e bdbb 393e 015a 883e 6707 40be
00000240: 47d3 673e 67c3 5f3e 7941 4b3e 56bf 523d
00000250: 0a9c 7a3e 372b 7b3e 8133 5cbe 6c4c 59bd
00000260: 0ac5 883e d487 7d3e 9443 80bd 96be 6c3e
00000270: ee6d 6bbe daed d7bd 1809 4f3e 11a8 ad3c
00000280: df20 5e3e 8031 fd3d b1a3 8e3d fa3b 5fbe
00000290: 1c74 853e 5873 d9bd ab4f 263b 2aaf 6f3e
000002a0: e87a 5f3e 67b0 bd3c 0eca 1ebe e9b3 b3bb
000002b0: 22da 713e bcbf 533e 324b 613e d3fd 6a3e
000002c0: 59c7 4b3e d07c 463e 8bc5 4fbc a20c 0cbd
000002d0: 6071 833e 3bcc fabd 193c 47be a6a3 293d
000002e0: cfaf 883e 9fd4 5d3e ad0c 69bc 3fa6 813e
000002f0: fab3 9abd f8c9 523e 836e 7f3e e546 70bd
00000300: 6998 b6bc 4ff0 84bd 687a b1bc 29f5 cabc
00000310: 68bc c3bc 8447 b4bd f1c9 073d 5bd8 873d
00000320: f3be 3dbe 7b1f 5c3e 808c 873e c77b 823e
00000330: 555a 363e b0f9 7abd e0e5 863d 4d75 52be
00000340: 600f 8fbd a971 603e e091 723e e891 2dbe
00000350: caf8 53bb d810 30be f68b 9dbc 558e 753e
00000360: 7e13 813e 8755 3fbe 43c7 853e aa29 683e
00000370: 420d 7a3e 0c50 9d3d 31ad 743e 1302 8a3d
00000380: edab 09bd e6b9 60bc bcff 1b3e d6ef 4bbe
00000390: 6819 37be 51a0 853d bef5 593e 9fe2 823e
000003a0: e4fd 393e bde5 713e b9ac 24be efe5 823e
000003b0: 6be7 743e a64e 723e 8008 4abe 6d01 06bc
000003c0: f5da 833e 6b47 6ebe 7104 7b3e 4710 803e
000003d0: aa55 7b3e 3f72 7e3e 772e 57be 430f 823e
000003e0: 8d84 473e 323c 803d 6e4f 4f3e b7a3 0bbe
000003f0: 77e6 b4bd add2 35bd a44c 4b3e 5828 4e3e
0.10023512 0.23279846 0.23236121 0.2197036 -0.2398458 -0.20689492 -0.2398479 0.1930956
0.006895835 -0.23027578 -0.24897964 -0.20791945 -0.25122297 -0.2686177 -0.16540316 0.1369402
-0.20208886 -0.16455397 -0.26439914 0.052824304 -0.10043281 -0.18642029 0.051301956 0.080490515
-0.111030266 -0.14138336 0.05873591 -0.22353609 0.07339133 0.15288828 -0.11750285 -0.06895735
-0.12991622 -0.19939166 -0.082220376 0.19796602 -0.27497247 0.039620418 0.06959565 -0.23851742
-0.14264208 0.016825642 0.20370466 0.06979534 -0.116463825 -0.20205073 -0.12749392 -0.14903891
-0.123606 -0.21532072 -0.027062984 0.08831943 -0.15809982 0.2203302 0.13628897 -0.054257732
-0.26159936 -0.123564385 -0.0038993843 -0.16785043 0.08052704 -0.12347084 -0.23433237 0.020791095
0.0336798 -0.062061034 0.10097936 -0.044280473 0.041541245 -0.04996085 -0.10620674 -0.09190141
0.12112347 -0.19912684 -0.1895171 -0.17986591 -0.15424001 0.026398357 -0.033060588 0.16746607
0.060189087 -0.19189025 -0.11237459 0.07253826 0.037328273 0.1749135 -0.020394396 -0.124429315
-0.20538516 0.10710802 -0.24520697 -0.24385387 -0.13090661 0.0048904144 -0.09386088 -0.16316526
0.04489743 0.068497255 -0.039436687 0.18930559 0.19200747 -0.025774537 -0.16194166 -0.20017284
-0.21385992 -0.14063774 0.19590181 -0.18711472 -0.21324848 -0.23510763 0.19721703 0.06541615
-0.19296603 0.092781745 -0.22867739 -0.18349198 -0.18461798 -0.27278763 0.23680763 -0.1434854
-0.268084 -0.080946796 -0.23732804 0.12486382 0.083364435 0.012775351 -0.25167978 -0.18829814
-0.21779734 -0.16785178 -0.16997322 -0.2494426 0.23186359 0.14540078 0.21440072 -0.24680373
-0.080635175 0.17255586 0.25306693 0.12918875 0.13525115 0.18138023 0.26631168 -0.18752824
0.2263919 0.21851884 0.19849195 0.051452003 0.24473587 0.24528204 -0.21504022 -0.053051397
0.2671283 0.24758846 -0.062628895 0.23119578 -0.22991154 -0.105434135 0.20218313 0.021198304
0.21692227 0.12362957 0.069648154 -0.21800223 0.26065147 -0.10617703 0.0025377076 0.23406664
0.21824229 0.023155404 -0.15506765 -0.0054840934 0.23618367 0.2067861 0.22001341 0.22948389
0.19900264 0.1938355 -0.012681375 -0.034191735 0.25672436 -0.12245985 -0.19456519 0.041415833
0.2669663 0.2166314 -0.014224214 0.25322148 -0.07553859 0.20584857 0.249445 -0.05866136
-0.022289472 -0.06491148 -0.021664813 -0.024775105 -0.02389355 -0.08802703 0.03315157 0.066330634
-0.18529873 0.21496384 0.2647438 0.2548506 0.17807896 -0.061273277 0.06586814 -0.20552559
-0.069853544 0.21918358 0.2368846 -0.1695019 -0.0032344335 -0.17193925 -0.019231778 0.23980077
0.25210184 -0.1868497 0.26128587 0.22672144 0.2441912 0.07681283 0.23894192 0.06738677
-0.033611227 -0.013716197 0.15234274 -0.19915709 -0.17880785 0.065247186 0.2128515 0.25563523
0.18163258 0.23622794 -0.16081513 0.2556605 0.23916404 0.23662814 -0.19729805 -0.008179051
0.25752988 -0.23269431 0.24513413 0.2501242 0.24544397 0.24848269 -0.21013819 0.2540227
0.19484158 0.06261481 0.20245144 -0.13636671 -0.0883302 -0.04439037 0.19853455 0.20132577

net.6.bias f4 [2]
00000000: 01f0 893d e5d1 c2bc
0.0673523 -0.023781726

exp_avg f4 [64, 2]
00000000: 9e72 68b6 0d13 64b5 4703 9138 b5ac cfb7
00000010: f92a c0b7 7474 a6b6 423e 2bba 99f9 eeb9
00000020: bd79 95b8 59c0 afb8 d683 8038 83b4 f839
00000030: 6f58 98b7 bbfb c4b6 524c 94b8 6d60 72b6
00000040: 432d a937 6f06 a337 83f1 c538 e297 4938
00000050: 81d4 31b4 b2f9 2f34 2809 9136 f181 5838
00000060: 219c b5b6 de87 8935 4f9b 8535 a7a3 b136
00000070: dd0c 6838 bc22 bf37 6eff 0fba b23d d13a
00000080: a17f 0fb9 b876 d2b8 6648 92b8 53a3 9d38
00000090: c231 3d37 7c7b 9636 2009 39b7 20e2 35b7
000000a0: a62e 1538 a633 6cb6 c554 27b7 c327 84b8
000000b0: be15 67b8 2385 04b9 def2 08b9 0ab1 8339
000000c0: ac38 15b7 54c5 e9b6 8abe 0bb7 7a5b 83b7
000000d0: f9b8 14b4 1aea c134 a46b 8436 5de0 dbb7
000000e0: 9416 b238 605c dbb9 1edc a0b8 aa7b ed38
000000f0: 372d 8eb8 e605 d1b7 d9ec 23b4 9460 99b6
00000100: 4dad c0b7 008d 56b6 bacd 58b9 19da 7ab8
00000110: 77af 0638 d6a2 88b8 a344 6138 7366 eab8
00000120: efb1 43b7 5a32 d3b7 eca9 8e35 45ec b237
00000130: 813e ab38 05da b0b7 d913 aab9 5ce0 ccb4
00000140: bf8f 1b38 cc5b 8db7 d560 a0b7 076d 2c37
00000150: 27e7 1f38 fa9f 5138 9c17 d433 9b0e 0435
00000160: 3f1b a137 96e3 cf37 13ce 5eb2 3cda 5ab3
00000170: 5aaa 55b8 2b7f 09b8 a978 6838 1002 b737
00000180: dd80 a932 788e 21b4 a7ef 8eb7 75b9 50b7
00000190: 9bcd b4b8 32c3 ac39 7e8d 5db6 ccda 21b6
000001a0: 959a 26b9 7ab3 7f38 9871 d038 c99e 7a39
000001b0: 7ac2 c537 89a1 fbb7 82ac 7ab8 6d3c 1939
000001c0: 72db dd36 bce7 3838 a1a7 c7b3 96f5 adb3
000001d0: 98f9 f838 c28b 1ab9 a9c1 eab7 50d6 0c37
000001e0: 0ebd 06b8 222d c138 e9a1 2039 6f6b 2536
000001f0: 19cd 3db8 2150 c837 7219 f8b5 f9a6 2139
-3.463741e-06 -8.496434e-07 6.914749e-05 -2.4756746e-05 -2.2908194e-05 -4.9607424e-06 -0.00065324095 -0.00045580862
-7.127549e-05 -8.380478e-05 6.128072e-05 0.00047436738 -1.8160992e-05 -5.8705605e-06 -7.071406e-05 -3.6116937e-06
2.0167447e-05 1.943411e-05 9.438677e-05 4.8063586e-05 -1.6561718e-07 1.6388984e-07 4.3224027e-06 5.161943e-05
-5.412396e-06 1.0246838e-06 9.954473e-07 5.2940627e-06 5.532509e-05 2.2785149e-05 -0.0005493079 0.0015963821
-0.00013685088 -0.000100356934 -6.975308e-05 7.516765e-05 1.1276863e-05 4.484724e-06 -1.1028984e-05 -1.08410895e-05
3.5567813e-05 -3.5196804e-06 -9.973713e-06 -6.301657e-05 -5.509494e-05 -0.00012638098 -0.00013060446 0.00025118171
-8.894287e-06 -6.966913e-06 -8.329409e-06 -1.5659014e-05 -1.3850867e-07 3.6119383e-07 3.9464376e-06 -2.6211312e-05
8.491907e-05 -0.0004183976 -7.6703946e-05 0.00011324075 -6.7795096e-05 -2.4917488e-05 -1.5266723e-07 -4.5709985e-06
-2.2968883e-05 -3.1970558e-06 -0.00020676004 -5.9807764e-05 3.2111504e-05 -6.515316e-05 5.3708103e-05 -0.00011177072
-1.1664334e-05 -2.5176607e-05 1.0629278e-06 2.1329275e-05 8.165558e-05 -2.1082358e-05 -0.00032439714 -3.8161204e-07
3.7088754e-05 -1.6851256e-05 -1.9118577e-05 1.0277384e-05 3.812383e-05 4.9978473e-05 9.876314e-08 4.9195086e-07
1.9205383e-05 2.47823e-05 -1.2968957e-08 -5.0955563e-08 -5.094181e-05 -3.278178e-05 5.5425484e-05 2.181626e-05
1.973279e-08 -1.5046123e-07 -1.7039316e-05 -1.2440946e-05 -8.621366e-05 0.00032951828 -3.3013926e-06 -2.4118226e-06
-0.0001588858 6.096389e-05 9.9393714e-05 0.0002390101 2.357479e-05 -2.9996752e-05 -5.9765305e-05 0.00014613727
6.61186e-06 4.4084838e-05 -9.297151e-08 -8.100612e-08 0.00011872052 -0.00014738648 -2.7985154e-05 8.394549e-06
-3.212416e-05 9.211364e-05 0.00015319105 2.464945e-06 -4.5252124e-05 2.387917e-05 -1.8484845e-06 0.00015416359

exp_avg_sq f4 [64, 2]
00000000: 9264 a432 9138 9132 0ce8 3c32 bd1d 4032
00000010: b7b4 c032 8984 b432 e17f 0336 e4e6 c834
00000020: 1f34 4433 75a7 5633 ad7c 2d32 5a16 7c34
00000030: 7440 0132 3e8a fe31 ebaa 8232 53b0 3b32
00000040: c06c 0e33 c59f ac32 d9da 7f34 019d f533
00000050: cc6c 332c d633 0a2c c2bf 7833 1ddc 4033
00000060: 5d31 ad32 327a 9c32 cbe0 2c32 c90e 2f32
00000070: e9bd ee32 b9f1 4133 4888 cb34 8b7e 2436
00000080: 876e 8732 2a01 1e32 f525 b932 5971 7933
00000090: a6b7 f132 f188 f531 6145 d332 465f 8d32
000000a0: a28e 0633 f6e5 b732 1448 4433 f137 b433
000000b0: 5432 2032 e9c7 bf32 1ac1 3434 b041 c434
000000c0: 030d c232 392c fa32 a736 4732 aff7 2332
000000d0: b8af 2a2c 29b6 f92b 7e56 be32 b964 e932
000000e0: 702b 2533 ccb5 5e34 40ff 7e32 0ee4 0d33
000000f0: cd4e 9933 ecdf cd32 de23 f332 7072 aa32
00000100: 37ba bc32 bc49 4232 7acb b936 c89d fb35
00000110: dcfa 1a33 12b3 0e32 4092 3a33 71c3 6d33
00000120: 7625 c730 fc72 5332 003b 6f32 4b07 a432
00000130: cf0f 2634 330f 8e33 623c 1734 4377 c433
00000140: d0aa e732 4925 a331 ed76 8a32 81cb 9f32
00000150: 9575 5533 a2f2 3233 7fbc cb2c 1274 072d
00000160: d919 a632 c69a 9d32 8e20 fb2b e86b 802b
00000170: 46e7 3433 3b36 a433 ad46 ab32 6b38 6f32
00000180: 2000 172c bd4c d92b 827f 0432 a938 d631
00000190: dc63 be32 5fef 0834 163c 7d32 9049 3c32
000001a0: 888b 6334 283f a733 1684 8f33 347e 9933
000001b0: 1507 3733 f5ed 4a33 77ed a934 fcd3 0934
000001c0: e128 9632 bfaa b932 df09 282c f646 012c
000001d0: ed74 c933 41aa a234 9997 1433 f1ae 7231
000001e0: 0ce8 f432 224c d132 a288 8d34 96e6 3335
000001f0: 3e7a a232 6a0d 0d33 56f2 8734 c776 4535
1.9137847e-08 1.6905945e-08 1.0995802e-08 1.1182633e-08 2.2433921e-08 2.1015028e-08 1.9594956e-06 3.7420898e-07
4.568221e-08 4.997806e-08 1.0098273e-08 2.347746e-07 7.523443e-09 7.4080893e-09 1.5211716e-08 1.0924924e-08
3.316086e-08 2.009609e-08 2.3828342e-07 1.14372604e-07 2.5497824e-12 1.9639754e-12 5.7916402e-08 4.4903675e-08
2.0162298e-08 1.8216358e-08 1.006283e-08 1.0189702e-08 2.7793208e-08 4.515616e-08 3.7910854e-07 2.4511562e-06
1.576633e-08 9.197075e-09 2.1554095e-08 5.807792e-08 2.8139606e-08 7.146007e-09 2.4595183e-08 1.6457886e-08
3.132903e-08 2.1408578e-08 4.570036e-08 8.392079e-08 9.324669e-09 2.2326235e-08 1.6834056e-07 3.655564e-07
2.259049e-08 2.912394e-08 1.1595751e-08 9.5441655e-09 2.4255997e-12 1.7743074e-12 2.2158243e-08 2.7170573e-08
3.8456562e-08 2.0741498e-07 1.4842783e-08 3.3036535e-08 7.1389515e-08 2.3966969e-08 2.8305234e-08 1.9842645e-08
2.1970761e-08 1.13090515e-08 5.5371174e-06 1.8746878e-06 3.6084074e-08 8.306204e-09 4.3439513e-08 5.5358615e-08
1.4489803e-09 1.2307961e-08 1.3925046e-08 1.909543e-08 1.5465706e-07 6.615155e-08 1.4084938e-07 9.148655e-08
2.6969616e-08 4.748163e-09 1.6119396e-08 1.8602579e-08 4.9699867e-08 4.1664528e-08 5.7905343e-12 7.699634e-12
1.9336698e-08 1.8347588e-08 1.7843658e-12 9.124897e-13 4.2119858e-08 7.6467096e-08 1.993916e-08 1.3924459e-08
2.145846e-12 1.5440077e-12 7.712403e-09 6.2346612e-09 2.2164322e-08 1.275307e-07 1.47402e-08 1.0959766e-08
2.1191784e-07 7.7880316e-08 6.682983e-08 7.147574e-08 4.261445e-08 4.724821e-08 3.1651481e-07 1.2836239e-07
1.7480888e-08 2.161448e-08 2.3879715e-12 1.8371394e-12 9.3810606e-08 3.0298727e-07 3.4596813e-08 3.5315078e-09
2.8510861e-08 2.4365423e-08 2.636271e-07 6.7018243e-07 1.8914871e-08 3.284132e-08 2.5322032e-07 7.356106e-07

exp_avg f4 [64]
00000000: 9dd6 d236 e641 c738 546c 1638 c9a5 3fb8
00000010: 43b6 1ab9 7eb8 7a37 6cb0 8438 fe71 bfb7
00000020: 23ac 97b8 c906 c537 1329 55b3 a07f 7ab7
00000030: 3110 10b7 2d2f d8b6 5fd8 a638 677b 4036
00000040: def5 bfb8 985d 7238 f3b8 8c38 8b96 de37
00000050: 3697 8638 d78a 8a37 8523 1238 89dc b1b9
00000060: af79 0037 01ee 1137 796e f334 6484 aeb7
00000070: 1672 2e39 1323 3db9 b005 3cb8 5905 6cb8
00000080: 6070 b537 238c a438 50fb 4037 0937 05b9
00000090: 74d6 1c38 cd18 e5b7 7fe4 1038 9f7a f4b8
000000a0: b4df db38 4123 b3b7 045e dab8 9894 44b5
000000b0: 3cd4 82b8 1a41 0534 72d5 a3b7 1baa f4b7
000000c0: 85ac 0934 2426 74b7 c71c 243a 50a6 0fb7
000000d0: 8d43 a138 5c19 4339 c931 66b8 f65c f9b8
000000e0: e3b1 3737 7bcf 0135 963d d4b9 378f 9738
000000f0: bcc7 a7b8 e010 3739 9904 b4b7 3516 8eb9
6.283472e-06 9.501334e-05 3.5863675e-05 -4.5692348e-05 -0.00014754482 1.4944117e-05 6.3271116e-05 -2.2822056e-05
-7.232304e-05 2.348739e-05 -4.9630284e-08 -1.4930876e-05 -8.586839e-06 -6.4427936e-06 7.955799e-05 2.868206e-06
-9.153386e-05 5.7784462e-05 6.71017e-05 2.6534564e-05 6.417783e-05 1.6515534e-05 3.4842193e-05 -0.00033924382
7.657726e-06 8.698088e-06 4.5342657e-07 -2.0804066e-05 0.00016636433 -0.00018037511 -4.482799e-05 -5.6271765e-05
2.162921e-05 7.846232e-05 1.1502605e-05 -0.0001270437 3.7393023e-05 -2.7310476e-05 3.454508e-05 -0.000116576666
0.00010484402 -2.135488e-05 -0.00010412562 -7.323192e-07 -6.238415e-05 1.2410274e-07 -1.9530507e-05 -2.9166278e-05
1.2821882e-07 -1.4552414e-05 0.00062603917 -8.562187e-06 7.6896606e-05 0.00018606096 -5.488264e-05 -0.000118905606
1.09490675e-05 4.835817e-07 -0.00040481676 7.226917e-05 -8.000384e-05 0.00017458526 -2.1459813e-05 -0.00027100896

exp_avg_sq f4 [64]
00000000: afd3 e433 8e91 5033 dc8d 8233 f7c7 0536
00000010: fa07 1f34 cb51 3832 6d2f e033 d334 a733
00000020: 6685 2a34 7f99 ea34 44ef 7d2d 89a7 e334
00000030: 459a e633 db8d 4133 de08 ea33 ada9 4734
00000040: e906 4c32 5c4d 0034 7263 8133 bbd5 d433
00000050: 6700 fc33 589f 9c34 92cc a933 cbc7 9335
00000060: b18d fe33 3d1d 5233 ab50 3c2d 6e5e 0734
00000070: fe58 4934 b719 2834 4e4f fb33 a618 1234
00000080: 11c6 da33 d3ba 1e37 d858 e333 46dc 5934
00000090: 8503 bc32 a085 9633 9d5b a934 ca16 e334
000000a0: 9fcb 1034 46c4 8633 3e8c 8534 0b0c bd2d
000000b0: 0ec7 e333 513a 032d 52a9 8e34 832f c433
000000c0: 3edd 372d c09d eb32 4a8c e734 3236 8e33
000000d0: f0a1 8135 6700 a334 2a66 5d34 0e9c 1d35
000000e0: 7c17 8733 86d2 382d e0f3 3b35 27af ae33
000000f0: 7aa5 2e34 6326 0336 bcea a633 10f5 d435
1.06555824e-07 4.8561155e-08 6.079401e-08 1.993494e-06 1.4810931e-07 1.0728807e-08 1.04394395e-07 7.786152e-08
1.5881014e-07 4.369758e-07 1.4434513e-11 4.2403943e-07 1.0738271e-07 4.506533e-08 1.0898087e-07 1.8595047e-07
1.1875934e-08 1.1949072e-07 6.0251196e-08 9.9108966e-08 1.17347376e-07 2.9173202e-07 7.906887e-08 1.1010501e-06
1.185357e-07 4.8921027e-08 1.0704475e-11 1.2607208e-07 1.8751959e-07 1.5655574e-07 1.1702524e-07 1.3606277e-07
1.0187444e-07 9.461032e-06 1.0586672e-07 2.0289835e-07 2.1887681e-08 7.0092256e-08 3.154536e-07 4.2298626e-07
1.3485122e-07 6.275563e-08 2.487522e-07 2.149216e-11 1.0606719e-07 7.459437e-12 2.6572758e-07 9.1356036e-08
1.0451471e-11 2.7429337e-08 4.3129177e-07 6.622248e-08 9.658379e-07 3.036141e-07 2.0619396e-07 5.8714147e-07
6.290699e-08 1.0505935e-11 7.0017813e-07 8.1343664e-08 1.6265213e-07 1.9542865e-06 7.772675e-08 1.5866553e-06

exp_avg f4 [64, 64]
00000000: 359a 31b8 778f 3d38 42bd 84b7 d354 3c38
00000010: 1fa6 3eb7 49ad 3a36 d751 9d37 39af ccb8
00000020: 8b08 3db8 cd8d 40b8 d06b c834 9d13 a9b6
00000030: 1c6d 06b8 c5f1 22b8 a644 0eb7 da00 1438
00000040: c5f0 2eb5 f1d5 0d38 664f dbb6 3e60 2ab8
00000050: 1c44 deb7 e719 e137 1522 19b7 7bc4 a9b7
00000060: d817 43b8 923c 17b8 3443 db34 c294 1eb8
00000070: 6465 9fb8 a4bd 1938 da0a c2b7 16b1 36b8
00000080: 8355 6ab8 51d1 6ab7 0927 7e36 4ac6 77b6
00000090: f5e4 f337 0db6 49b8 9f5b d536 0236 10b7
000000a0: 1375 95b7 720f 63b7 b2bd db37 57b7 7f34
000000b0: 5c59 e4b7 da14 f534 7d2c 4637 3250 22b8
000000c0: 6ba0 fe34 7c97 b6b7 7159 7537 20fb 55b8
000000d0: 7341 40b8 a7b8 7ab8 0ea0 a0b7 5c4f 7a36
000000e0: 6a89 eab7 186d 7434 282a 0938 f4db 0337
000000f0: 81df f9b6 4396 f2b7 6ccf 42b7 c17a 3fb7
00000100: 1eb1 d636 26ba 3db7 721f 1bb7 7114 dab7
00000110: ee75 8236 11a0 21b6 edb9 41b7 e90d ac37
00000120: 02e8 5537 5324 c237 2528 0cb4 da03 4eb6
00000130: e8d5 cf35 54d3 06b6 ef59 17b7 7960 3337
00000140: 6491 7935 c8ed 30b7 511c b1b6 bacb 3237
00000150: c0fd 6637 f761 b6b6 2885 c136 769e f636
00000160: 6694 7337 1298 7a37 60c1 86b4 02f7 7137
00000170: 1545 ea37 4caa ecb6 1692 32b6 5aae 4b37
00000180: b932 e5b6 6743 ed36 4022 a934 9010 2536
00000190: d2b1 51b7 e0ee 3236 a05b 0fb4 d86e 0237
000001a0: 2ea1 3d37 20bc 0ab7 24aa f3b6 20a2 88b3
000001b0: ca17 a236 7921 a7b3 dd1e 9bb7 c0ee b637
000001c0: 4361 41b3 0ad9 d536 8d53 5eb8 4731 45b6
000001d0: 9e3b dc36 024a 47b6 efba 4e37 45e2 e5b4
000001e0: 62fb 4336 2bd6 09b3 4088 0ab7 31f6 8b36
000001f0: 224d 72b6 55d0 b337 9799 10b7 cea8 fc36
00000200: 7700 2e38 8df6 a337 c961 c338 ef63 3538
00000210: 852b 1a37 1629 1e36 4e07 9137 a8b7 e638
00000220: 978c b138 4fe0 9537 de86 c0b4 fb58 2d38
00000230: 23ea fa37 197f ac38 fddf a238 4727 39b7
00000240: 09df 01b6 2594 06b7 5047 2b38 4846 4ab6
00000250: f209 ddb6 0286 8bb7 5442 10b7 0f19 ff37
00000260: 354f 4b38 6ede eab7 d3e5 8334 bee3 acb7
00000270: efd6 a1b7 4de4 09b7 16dd 8d38 9b25 ad38
00000280: 6f6c 2239 de53 b8b7 2cb9 31b8 ede5 81b6
00000290: 522d 8a37 0f8d dd38 cc51 39b8 e0e3 2fb8
000002a0: e087 8cb7 6ad1 bd38 d4f9 2337 928b 0cb3
000002b0: 6b03 5438 0eda 1cb5 2b18 1938 3f96 01b7
000002c0: c492 3bb5 d350 8637 16af 7739 29d0 0a39
000002d0: f4f2 8f38 fd4e 2839 179f 53b8 622c ccb7
000002e0: 3e62 7638 1d12 e9b4 4b11 67b7 8d80 00b7
000002f0: 2d37 bd37 1522 e3b6 8c0b bc38 9583 b7b7
00000300: b682 6438 2350 3a38 9b29 8db7 2fcf b938
00000310: d480 d7b6 7966 3837 ffd8 a237 0ee5 10b6
00000320: c41b 4138 3692 c2b7 85eb 07b5 86cd 2137
00000330: fff5 d6b6 1e66 ec37 d11e 6fb7 e474 b3b7
00000340: 6a49 aeb4 fc7e 8bb7 3e2b 5fb5 67d8 9738
00000350: 2af0 1c38 a8a6 4238 1f69 9137 5e0e 84b7
00000360: 2662 7f38 65af a138 eabc 68b5 1aa8 a038
00000370: d8b9 6e38 341a a938 36cf 9cb7 c868 3738
00000380: 4a25 c337 c4f8 3bb7 a26a 31b8 31de c637
00000390: 143b fe37 dff7 1138 daa7 c238 ec37 3a38
000003a0: 8fe8 0438 6993 1837 0c8a 1d38 6867 c1b4
000003b0: 61dc cf37 4c45 0eb5 fc77 9238 9db5 9c38
000003c0: 690d 06b5 d83a 0338 6ef9 ca37 cf10 dc37
000003d0: f084 aab7 9f13 9bb7 c94d 9138 f443 5938
000003e0: 7bf8 8136 7c5e 56b4 18e8 8138 9246 75b8
000003f0: d67a a437 6fce 25b7 982b 6337 4c4b 6f37
-4.2343705e-05 4.5194723e-05 -1.5823756e-05 4.490169e-05 -1.1363561e-05 2.7817025e-06 1.8753968e-05 -9.760116e-05
-4.5069068e-05 -4.590843e-05 3.7331347e-07 -5.0388758e-06 -3.2049706e-05 -3.8848975e-05 -8.479843e-06 3.5286743e-05
-6.5170417e-07 3.3816268e-05 -6.535952e-06 -4.062079e-05 -2.6496178e-05 2.6834152e-05 -9.127446e-06 -2.0237863e-05
-4.651383e-05 -3.6057616e-05 4.0840825e-07 -3.7808677e-05 -7.600596e-05 3.665466e-05 -2.3131655e-05 -4.3557106e-05
-5.5869587e-05 -1.3996222e-05 3.787167e-06 -3.6921288e-06 2.9074474e-05 -4.8091682e-05 6.3585608e-06 -8.5956435e-06
-1.7816701e-05 -1.35338505e-05 2.6195168e-05 2.3815424e-07 -2.722133e-05 4.5649978e-07 1.1812078e-05 -3.8698498e-05
4.7427906e-07 -2.1766631e-05 1.4623963e-05 -5.1017036e-05 -4.583732e-05 -5.9776616e-05 -1.9148018e-05 3.7299096e-06
-2.7958962e-05 2.2763959e-07 3.2702606e-05 7.85942e-06 -7.4467976e-06 -2.891862e-05 -1.1611595e-05 -1.1413068e-05
6.398316e-06 -1.1308619e-05 -9.246041e-06 -2.5997144e-05 3.8880307e-06 -2.408404e-06 -1.1546986e-05 2.0510475e-05
1.2749808e-05 2.3143517e-05 -1.305312e-07 -3.0698634e-06 1.5484957e-06 -2.0090565e-06 -9.021241e-06 1.0691693e-05
9.29713e-07 -1.054578e-05 -5.2783075e-06 1.0657061e-05 1.3768149e-05 -5.4354273e-06 5.7673496e-06 7.3498186e-06
1.451848e-05 1.4936568e-05 -2.5100144e-07 1.442223e-05 2.7927143e-05 -7.0531732e-06 -2.66091e-06 1.2140337e-05
-6.8306367e-06 7.070997e-06 3.1503623e-07 2.4596557e-06 -1.2498773e-05 2.666311e-06 -1.3351246e-07 7.774412e-06
1.1302805e-05 -8.269242e-06 -7.2617713e-06 -6.362484e-08 4.8307456e-06 -7.782632e-08 -1.8491812e-05 2.1807267e-05
-4.5024773e-08 6.3731613e-06 -5.3006737e-05 -2.938397e-06 6.5634513e-06 -2.969639e-06 1.2322081e-05 -4.2819207e-07
2.9203588e-06 -3.2092583e-08 -8.257164e-06 4.1711833e-06 -3.6105707e-06 2.1435475e-05 -8.618829e-06 7.5298367e-06
4.1485266e-05 1.9545923e-05 9.3165385e-05 4.3246833e-05 9.189248e-06 2.356775e-06 1.7288748e-05 0.00011001463
8.4662046e-05 1.7866636e-05 -3.5860916e-07 4.1329284e-05 2.991135e-05 8.225273e-05 7.766483e-05 -1.1036004e-05
-1.9352321e-06 -8.021515e-06 4.0835992e-05 -3.0141255e-06 -6.587471e-06 -1.6632493e-05 -8.598512e-06 3.0410038e-05
4.847274e-05 -2.799855e-05 2.456787e-07 -2.0610049e-05 -1.9292782e-05 -8.218992e-06 6.7645844e-05 8.2562874e-05
0.00015489919 -2.1973563e-05 -4.2372543e-05 -3.8712665e-06 1.6471986e-05 0.000105643754 -4.4183616e-05 -4.1935476e-05
-1.6752572e-05 9.051229e-05 9.773725e-06 -3.272323e-08 5.0547922e-05 -5.843184e-07 3.650055e-05 -7.723981e-06
-6.98765e-07 1.6011682e-05 0.0002362098 0.00013238251 6.864025e-05 0.00016051154 -5.0454484e-05 -2.4339362e-05
5.8742466e-05 -4.341281e-07 -1.3772699e-05 -7.659325e-06 2.2556249e-05 -6.769095e-06 8.966689e-05 -2.1876573e-05
5.448117e-05 4.442049e-05 -1.6827884e-05 8.8600784e-05 -6.422497e-06 1.0991113e-05 1.9412952e-05 -2.1591e-06
4.6040645e-05 -2.3194687e-05 -5.0634145e-07 9.6442e-06 -6.4063347e-06 2.8180944e-05 -1.4252685e-05 -2.1392894e-05
-3.246344e-07 -1.6629223e-05 -8.31369e-07 7.240549e-05 3.741697e-05 4.6408415e-05 1.7334298e-05 -1.5742316e-05
6.0888146e-05 7.709748e-05 -8.670164e-07 7.660706e-05 5.6916702e-05 8.063429e-05 -1.869314e-05 4.3728185e-05
2.3263176e-05 -1.1203989e-05 -4.2299398e-05 2.3706905e-05 3.030667e-05 3.4801542e-05 9.281906e-05 4.4397937e-05
3.168784e-05 9.094228e-06 3.7560283e-05 -3.602429e-07 2.4778945e-05 -5.299996e-07 6.984171e-05 7.472488e-05
-4.9938404e-07 3.1287636e-05 2.4196426e-05 2.623387e-05 -2.0327483e-05 -1.8486577e-05 6.9286274e-05 5.1800118e-05
3.8734265e-06 -1.9964676e-07 6.19443e-05 -5.8478276e-05 1.9607523e-05 -9.88283e-06 1.3540404e-05 1.42630415e-05
