new_saved_models/sk_spiral_v2.pt (torch, 529309 bytes, 24 tensors)

net.0.weight f4 [64, 2]
-0.5448609 -0.22261825 -0.35194355 -0.21548133 0.20207089 0.5417533 -0.22217979 -0.43834612
-0.54279417 -0.13109927 -0.31213534 -0.06515476 0.3131105 0.2890237 -0.49302694 -0.7378975
0.66611284 0.60745573 0.48093098 0.53697073 0.5923993 0.34072405 -0.46140394 -0.05312819
-0.22164084 0.4202861 -0.6278163 0.29230502 -0.2931393 0.45829853 -0.49395633 -0.30057824
0.58406943 0.6500754 0.18640636 -0.07429423 -0.6066833 -0.28659388 0.14852296 0.46379015
0.18353318 -0.6444993 0.097025335 -0.42708477 0.41636395 -0.67147845 0.23036191 0.38029826
0.402716 -0.634425 0.4606547 -0.78444767 -0.47434178 -0.03856888 -0.40124065 0.083871245
0.37860447 -0.6773927 0.045390263 0.6928399 0.5049016 0.09570475 0.62427545 0.24487926
-0.361614 -0.55501467 -0.8220068 -0.7170351 -0.22259316 0.63496464 0.06602883 -0.62123793
-0.03545444 0.31273836 -0.790966 -0.2140845 0.03958133 0.17968959 -0.27702406 0.17926085
0.18690358 0.6521141 -0.17742477 0.6192642 0.073822565 0.7336244 -0.75034094 -0.43983808
0.0070889783 -0.32867122 0.47105953 0.014389043 0.5462175 0.030588415 -0.72444403 -0.20871629
-0.18634234 0.08608708 -0.13199787 0.32119486 -0.62276345 -0.44721356 -0.37653622 -0.72288007
-0.6328454 0.6254815 -0.68904126 0.019041574 -0.670077 0.0986688 0.6786527 -0.09285502
0.5688594 -0.75847965 0.11631765 0.2326369 -0.4119155 -0.47853422 -0.008931883 -0.73438615
-0.3120816 -0.21472749 0.572771 0.77526736 0.17652307 -0.17220806 -0.39245036 -0.2699979
00000000: 017c 0bbf 0af6 63be f231 b4be 23a7 5cbe
00000010: aceb 4e3e 58b0 0a3f 1983 63be e76e e0be
00000020: 8ff4 0abf e33e 06be 34d0 9fbe dc6f 85bd
00000030: 0550 a03e eafa 933e 076e fcbe dae6 3cbf
00000040: 5f86 2a3f 3882 1b3f 963c f63e ea76 093f
00000050: 7ba7 173f 6273 ae3e 233d ecbe f29c 59bd
00000060: d1f5 62be bd2f d73e 92b8 20bf 01a9 953e
00000070: 5b16 96be 1ba6 ea3e d8e7 fcbe 64e5 99be
00000080: 9385 153f 576b 263f 4fe1 3e3e 9327 98bd
00000090: 994f 1bbf 6fbc 92be 6716 183e e775 ed3e
000000a0: 1ff0 3b3e e8fd 24bf 38b5 c63d dbaa dabe
000000b0: a82d d53e 03e6 2bbf fee3 6b3e 74b6 c23e
000000c0: cb30 ce3e ad69 22bf efda eb3e 90d1 48bf
000000d0: eddc f2be 67fa 1dbd 6a6f cdbe b0c4 ab3d
000000e0: 72d8 c13e 9c69 2dbf 24eb 393d f55d 313f
000000f0: 3b41 013f da00 c43d 84d0 1f3f a1c1 7a3e
00000100: 7825 b9be 7115 0ebf 0a6f 52bf 9d8f 37bf
00000110: 76ef 63be 0b8d 223f 203a 873d 7309 1fbf
00000120: ad38 11bd 3e1f a03e bf7c 4abf f838 5bbe
00000130: 0820 223d 8c00 383e 19d6 8dbe 2890 373e
00000140: a763 3f3e f3f0 263f d7ae 35be 1988 1e3f
00000150: 4930 973d cfce 3b3f 5816 40bf 7532 e1be
00000160: a94a e83b 9847 a8be b72e f13e 05c0 6b3c
00000170: e9d4 0b3f 8e94 fa3c 2a75 39bf b9b9 55be
00000180: 87d0 3ebe 6c4e b03d 732a 07be a773 a43e
00000190: 6d6d 1fbf 2df9 e4be 5bc9 c0be ab0e 39bf
000001a0: 2802 22bf 8e1f 203f 0265 30bf 13fd 9b3c
000001b0: 2b8a 2bbf de12 ca3d 2fbc 2d3f c62a bebd
000001c0: c5a0 113f b92b 42bf f337 ee3d 5e38 6e3e
000001d0: 97e6 d2be 7002 f5be 0857 12bc bb00 3cbf
000001e0: 29c9 9fbe 86e1 5bbe 1fa1 123f ec77 463f
000001f0: 77c2 343e 4f57 30be 41ef c8be 2a3d 8abe

net.0.bias f4 [64]
0.47623366 0.36328366 -0.062641606 -0.0626003 -0.48060077 0.59226847 -0.6288483 -0.40090925
0.1481346 -0.53350604 0.62298214 -0.7189632 -0.21801032 -0.12815776 -0.087684065 -0.21129927
-0.43517792 -0.49463168 -0.036482055 -0.38299063 0.41437343 -0.53066766 0.5335296 0.7097634
0.35584903 0.45956224 0.63059294 0.69581485 0.36927536 0.53025573 -0.69267094 -0.7450932
0.41359413 -0.34253344 0.681598 0.5263652 -0.36765954 -0.12738311 -0.45580932 0.72350407
0.117705606 0.20929241 0.037529867 0.19177559 -0.64874005 -0.073203236 0.4287678 -0.61674
0.18838315 0.3798966 -0.1421034 -0.43197134 -0.41629356 0.42645514 0.17331107 0.37726605
-0.16966017 -0.10407419 0.2342243 0.2739487 -0.025603838 -0.17146328 0.03875268 -0.36799192
00000000: e6d4 f33e 5100 ba3e 3e4a 80bd 9634 80bd
00000010: 4e11 f6be e89e 173f 34fc 20bf fa43 cdbe
00000020: 99b0 173e da93 08bf c27b 1f3f f90d 38bf
00000030: 193e 5fbe ca3b 03be b493 b3bd d65e 58be
00000040: a4cf debe 5d40 fdbe 356e 15bd 5917 c4be
00000050: c128 d43e d6d9 07bf 6595 083f 0eb3 353f
00000060: d831 b63e be4b eb3e 8a6e 213f ec20 323f
00000070: a911 bd3e d7be 073f e252 31bf 6ebe 3ebf
00000080: 9cc2 d33e 8b60 afbe 357d 2e3f dfbf 063f
00000090: df3d bcbe b870 02be d75f e9be 9037 393f
000000a0: a30f f13d c050 563e ebb8 193d d260 443e
000000b0: d413 26bf 94eb 95bd 7487 db3e ace2 1dbf
000000c0: 83e7 403e cf81 c23e 8e83 11be 592b ddbe
000000d0: 6e24 d5be 5458 da3e 7578 313e 0429 c13e
000000e0: 65bb 2dbe d924 d5bd 7fd8 6f3e 0143 8c3e
000000f0: 24bf d1bc 1294 2fbe 21bb 1e3d 7069 bcbe

net.2.weight f4 [128, 64]
0.052387036 -0.029455096 0.009231044 0.10720129 -0.08288767 -0.05800797 0.03418689 -0.14689688
0.049354978 -0.052163515 0.1160575 -0.14371988 0.05727434 0.08942374 0.16524874 0.1237059
0.0053885463 0.054380577 0.09491989 0.044859473 0.122630864 0.049201164 0.02944613 0.09052446
0.1401853 -0.024241222 0.13346504 0.049012795 -0.04029409 -0.055952974 0.026793173 -0.08836846
-0.047289375 -0.012885288 -0.068797 0.07506063 -0.026379984 0.1537637 -0.076912336 -0.039653283
0.10054648 0.029049743 0.05356415 0.032052305 -0.028890725 0.15252018 0.1379108 0.005294135
-0.14974675 -0.08957411 0.05032661 0.066668026 0.09906293 0.040299807 -0.07765535 -0.08706432
-0.0059893774 0.04009758 0.15132475 0.1407401 0.052802037 0.059874944 0.109151416 -0.13297571
-0.066032566 0.025288804 0.056544207 -0.03029913 0.07600438 -0.014492205 -0.096394114 -0.047135547
0.040808946 0.0655083 0.08040614 0.07373615 0.23338537 0.068080276 0.15305382 0.056845922
0.027267914 0.07488129 0.16544087 0.079240024 -0.0050671445 -0.075825624 0.0013721408 0.11074395
-0.0067600226 0.039302308 -0.022967407 -0.024428101 0.08265861 0.12711862 -0.04979436 -0.010594353
-0.03782437 -0.043978117 0.0009105103 -0.129285 -0.016359065 0.011145902 0.012278181 -0.07711869
0.032641627 0.09125394 -0.026590286 -0.018225757 0.020121144 -0.06657458 -0.091366366 -0.0709362
-0.027790526 -0.07280906 0.10726918 0.07457825 0.23363355 -0.07616271 0.11732621 -0.05855094
-0.0668125 0.23881982 0.0057974234 0.0021062624 0.1253075 0.06757346 0.08767566 -0.10781499
-0.062062483 -0.0763312 0.12658454 0.03333318 0.040020745 -0.09251469 -0.07800817 0.019799286
0.019368533 -0.048879288 -0.02513657 0.09869969 0.003903479 -0.11171777 -0.08197226 -0.09304832
0.071733706 0.023711225 -0.004557066 0.044592388 0.09264335 -0.026266985 0.08115725 0.023501802
0.19349687 0.081039265 0.019418262 -0.09118372 0.12071235 -0.012220564 -0.07993738 -0.12347459
-0.08960894 -0.04384015 0.06502977 -0.073368266 0.07339254 -0.025797606 0.079992734 0.057514988
-0.039842434 0.06926849 0.01923729 0.06724513 -0.0022379798 0.06415703 0.14177632 -0.102279715
0.062319044 -0.03704902 -0.15421405 0.020565392 0.049498837 0.06864592 0.0950712 0.0034136416
0.022423951 0.21892133 -0.08116078 0.12419848 -0.1127777 0.07494221 0.008006635 -0.009332332
-0.0931022 -0.048999816 -0.07901154 0.017013298 -0.08460096 0.061527714 0.036121603 0.058762353
-0.19508779 -0.013185908 -0.0574919 0.0037587483 -0.040030282 -0.18342867 -0.008040694 -0.12259568
-0.004472399 0.08494516 -0.0723191 0.07055536 0.11191332 -0.12688757 0.14992747 0.0041987514
0.037792556 0.034259103 -0.08285525 0.0025899482 -0.058983106 0.03288291 -0.01854386 -0.02301314
-0.032630634 -0.09320522 0.011827559 0.047173295 0.021144602 -0.15782896 0.031136705 -0.030738298
-0.09013054 -0.059064068 -0.05539185 0.044349242 -0.014124664 0.12375776 -0.019601587 0.0671145
0.052782565 0.058659136 -0.07265861 0.19718583 -0.05287861 0.0137124695 0.093062244 0.12842092
0.023427129 -0.054198533 0.09041054 -0.08122562 -0.1352176 -0.16325422 -0.06406453 -0.043134857
00000000: ca93 563d d04b f1bc ce3d 173c 5a8c db3d
00000010: 03c1 a9bd c499 6dbd 8d07 0c3d 236c 16be
00000020: 7228 4a3d 69a9 55bd 8eaf ed3d 4e2b 13be
00000030: 8098 6a3d cb23 b73d f736 293e 8559 fd3d
00000040: 6792 b03b 2bbe 5e3d 5c65 c23d 91be 373d
00000050: e425 fb3d 2987 493d 0339 f13c e364 b93d
00000060: bc8c 0f3e 8795 c6bc 0fab 083e a4c1 483d
00000070: 6a0b 25bd f22e 65bd 5b7d db3c 86fa b4bd
00000080: 81b2 41bd d11c 53bc 71e5 8cbd 63b9 993d
00000090: d61a d8bc 3b74 1d3e 3784 9dbd 7b6b 22bd
000000a0: 50eb cd3d baf9 ed3c 1566 5b3d 4749 033d
000000b0: 3eac ecbc 402e 1c3e 7d38 0d3e 6c7a ad3b
000000c0: 3657 19be a272 b7bd 4723 4e3d 3f89 883d
000000d0: 81e1 ca3d 6911 253d c509 9fbd c74e b2bd
000000e0: 8a42 c4bb 5c3d 243d e0f4 1a3e 2c1e 103e
000000f0: f346 583d 6e3f 753d c78a df3d c92a 08be
00000100: 153c 87bd 772a cf3c e69a 673d e235 f8bc
00000110: 2fa8 9b3d b770 6dbc 476a c5bd 3411 41bd
00000120: 4827 273d 3729 863d f9ab a43d fb02 973d
00000130: 93fc 6e3e ac6d 8b3d 24ba 1c3e 45d7 683d
00000140: f660 df3c 5d5b 993d 5569 293e 9848 a23d
00000150: 4a0a a6bb 774a 9bbd 68d9 b33a b9cd e23d
00000160: 2e83 ddbb 75fb 203d 2526 bcbc 711d c8bc
00000170: eb48 a93d 622b 023e 2cf5 4bbd f093 2dbc
00000180: baed 1abd 6622 34bd 50af 6e3a 4963 04be
00000190: 7203 86bc 4d9d 363c 6c2a 493c 67f0 9dbd
000001a0: 3ab3 053d 58e3 ba3d dfd3 d9bc 2f4e 95bc
000001b0: 19d5 a43c 4158 88bd 4a1e bbbd 0047 91bd
000001c0: f5a8 e3bc eb1c 95bd f2af db3d 7bbc 983d
000001d0: a23d 6f3e 32fb 9bbd b948 f03d 1cd3 6fbd
000001e0: fed4 88bd 2f8d 743e 50f8 bd3b 3809 0a3b
000001f0: 9c50 003e f463 8a3d 4c8f b33d 1bce dcbd
00000200: 3b35 7ebd 8853 9cbd 619f 013e 5f88 083d
00000210: cbec 233d 5778 bdbd bfc2 9fbd 1d32 a23c
00000220: c2aa 9e3c a635 48bd 35eb cdbc 1023 ca3d
00000230: 83d1 7f3b 49cc e4bd 12e1 a7bd 1e90 bebd
00000240: 1fe9 923d 0b3e c23c 7153 95bb 82a6 363d
00000250: ccbb bd3d dc2d d7bc c635 a63d da86 c03c
00000260: 0b24 463e eaf7 a53d 0c13 9f3c 88be babd
00000270: 0938 f73d c338 48bc 36b6 a3bd 3fe0 fcbd
00000280: e484 b7bd bb91 33bd 542e 853d 1a42 96bd
00000290: d44e 963d 8055 d3bc 3bd3 a33d d694 6b3d
000002a0: d231 23bd a3dc 8d3d 8597 9d3c d1b7 893d
000002b0: 12ab 12bb c364 833d d02d 113e 0778 d1bd
000002c0: 4142 7f3d b7c0 17bd 4aea 1dbe c178 a83c
000002d0: 4bbf 4a3d 3b96 8c3d b0b4 c23d 67b7 5f3b
000002e0: 6fb2 b73c ea2c 603e 9f37 a6bd c65b fe3d
000002f0: fff7 e6bd 4d7b 993d 432e 033c a3e6 18bc
00000300: 5eac bebd 08b4 48bd cdd0 a1bd 795f 8b3c
00000310: 4543 adbd 7c04 7c3d 3ff4 133d cbb0 703d
00000320: 18c5 47be b509 58bc a07c 6bbd 5555 763b
00000330: cbf6 23bd bad4 3bbe 1dbd 03bc 7213 fbbd
00000340: 348d 92bb baf7 ad3d 091c 94bd 547f 903d
00000350: d032 e53d d1ee 01be 9686 193e ae95 893b
00000360: 5ecc 1a3d 4653 0c3d 03b0 a9bd 1fbc 293b
00000370: 4598 71bd 3bb0 063d 4be9 97bc 0d86 bcbc
00000380: b3a7 05bd 61e2 bebd 61c8 413c c938 413d
00000390: 7237 ad3c ea9d 21be 6712 ff3c e2ce fbbc
000003a0: 5c96 b8bd 2aed 71bd 91e2 62bd 8da7 353d
000003b0: 226b 67bc b574 fd3d 8293 a0bc 5473 893d
000003c0: 8832 583d 9044 703d 0ace 94bd 15eb 493e
000003d0: 3e97 58bd 44aa 603c 6b97 be3d c680 033e
000003e0: 40ea bf3c 48ff 5dbd 2929 b93d 9e59 a6bd
000003f0: 7c76 0abe 1d2c 27be 4434 83bd 2dae 30bd

net.2.bias f4 [128]
-0.01514813 -0.0927817 0.017299544 0.095823206 -0.111764245 0.11636583 0.031947598 -0.11239268
-0.03608081 -0.053302485 -0.07942214 0.120503 -0.048140142 0.07741567 0.00338577 0.009246296
0.0009778235 -0.04934171 0.016784657 0.034073215 0.15211047 0.099308535 -0.07600613 -0.10321808
0.18567394 -0.1175497 -0.06348985 -0.049127325 -0.06381874 -0.11737953 -0.09266712 -0.02940469
-0.11711961 0.10187269 0.046157356 -0.09433101 0.17180145 -0.055331662 -0.031317502 0.017211344
-0.030831572 0.0433193 -0.09723331 0.050089665 0.038027346 0.08296088 0.05076975 0.0638394
0.028451145 0.14382124 -0.12405282 -0.06714822 0.097474635 0.100185536 -0.013377848 0.13322143
-0.103958696 0.13897417 0.024625778 0.11340965 0.10217047 -0.0825683 0.06368731 -0.07726307
0.0020498226 -0.06824114 -0.0011222512 -0.027642172 -0.03240123 -0.017935561 0.008882213 0.045049474
0.040840827 0.057057966 -0.095304355 -0.002285695 0.06619365 0.053721584 0.10829716 0.13353653
0.0091255745 0.07548666 -0.042525705 -0.060722265 0.11023923 0.16708371 -0.07329753 0.07963772
-0.05481175 -0.09923889 0.024994185 0.056594808 -0.060852885 0.045696512 0.08295555 -0.03781412
0.10832085 0.061130203 -0.0032284814 -0.0757284 0.17131324 0.04842871 -0.10163458 0.11827871
-0.012371093 -0.07978021 0.12592262 0.11995122 -0.031813256 0.1597919 0.08346951 0.04062264
0.015869765 0.081418924 0.030310446 -0.048920855 0.11235862 0.054217745 0.071756564 0.0748581
0.066241205 0.025658553 -0.092979595 -0.01613837 0.0087699415 -0.11310147 -0.08524885 -0.12384508
00000000: dd2f 78bc 5504 bebd c6b7 8d3c f53e c43d
00000010: a7e4 e4bd 3551 ee3d 7cdb 023d 222e e6bd
00000020: 79c9 13bd b553 5abd 13a8 a2bd 47ca f63d
00000030: 992e 45bd 1b8c 9e3d cbe3 5d3b c77d 173c
00000040: 502a 803a 881a 4abd fa7f 893c 5b90 0b3d
00000050: d9c2 1b3e 4662 cb3d 1aa9 9bbd 0064 d3bd
00000060: 4f21 3e3e e6bd f0bd f706 82bd bc39 49bd
00000070: 66b3 82bd ae64 f0bd 42c8 bdbd 1be2 f0bc
00000080: 68dc efbd a1a2 d03d 7f0f 3d3d 9e30 c1bd
00000090: b8ec 2f3e 74a3 62bd c846 00bd cefe 8c3c
000000a0: 7e92 fcbc 946f 313d 4222 c7bd d22a 4d3d
000000b0: 90c2 1b3d 65e7 a93d f1f3 4f3d 3bbe 823d
000000c0: 6012 e93c e045 133e 680f febd 0285 89bd
000000d0: c8a0 c73d 132e cd3d c32e 5bbc 336b 083e
000000e0: 4ce8 d4bd 3f4f 0e3e 00bc c93c 5243 e83d
000000f0: c03e d13d 9219 a9bd 7e6e 823d 1a3c 9ebd
00000100: 5156 063b 03c2 8bbd 8018 93ba d671 e2bc
00000110: 27b7 04bd 99ed 92bc b486 113c cc85 383d
00000120: b648 273d 9db5 693d ee2e c3bd 99cb 15bb
00000130: 8990 873d 2a0b 5c3d e7ca dd3d cdbd 083e
00000140: 6f83 153c c098 9a3d 6f2f 2ebd e9b7 78bd
00000150: 1bc5 e13d fe17 2b3e 041d 96bd 1a19 a33d
00000160: 4982 60bd c23d cbbd 9bc0 cc3c f5cf 673d
00000170: e040 79bd 442c 3b3d 99e4 a93d fbe2 1abd
00000180: 52d7 dd3d aa63 7a3d ee94 53bb 7e17 9bbd
00000190: bd6c 2f3e 2f5d 463d ca25 d0bd 1c3c f23d
000001a0: 20b0 4abc cf63 a3bd dcf1 003e fca8 f53d
000001b0: 9e4e 02bd 7da0 233e 10f2 aa3d ed63 263d
000001c0: 4f01 823c f7be a63d 9d4d f83c 3c61 48bd
000001d0: 471c e63d 6d13 5e3d 1bf5 923d 344f 993d
000001e0: 78a9 873d e331 d23c 166c bebd 9d34 84bc
000001f0: cdaf 0f3c bea1 e7bd f396 aebd 7da2 fdbd

net.4.weight f4 [256, 128]
0.02342624 -0.008988732 -0.057723343 0.019836288 0.021920808 0.014622217 -0.07110758 0.085976146
-0.059026975 0.0070771617 -0.06999995 0.07506112 0.06369056 0.052348588 -0.037131835 -0.015092691
0.01567277 -0.05587982 -0.009873605 -0.073763646 0.03240762 0.072095215 0.0876832 0.050838593
0.0019848214 0.007940287 0.03601427 0.056093797 0.060869772 0.036503397 -0.0052805995 0.011571702
0.044348136 0.034018997 -0.05782464 0.026331095 0.0227668 -0.042738464 0.08563703 -0.018229555
0.06712773 0.04784217 -0.0021899818 -0.018181339 0.0036463768 -0.07447859 -0.008856833 0.016861489
0.06501099 0.036202855 -0.074219145 0.013397187 -0.05773408 -0.017605456 0.018365974 0.086898595
0.022155428 -0.0429017 -0.051437255 -0.07090141 -0.06347174 -0.04354136 -0.05873825 -0.06944238
-0.031297397 -0.04761106 -0.009899251 0.08558672 -0.0066013765 0.021966832 0.044808634 -0.007806513
-0.08519581 -0.04019053 0.06727705 0.018545099 -0.055718545 0.027621632 0.011521462 -0.04018472
-0.08769602 -0.08246987 0.025049748 -0.049516942 -0.0137177035 0.0049944962 -0.002305306 -0.040445622
-0.06398765 0.027616965 -0.028026748 -0.05687475 0.006511635 -0.022681653 0.0294715 -0.019354085
-0.020724975 -0.01352485 -0.020118302 0.0056834393 0.07952691 0.00069914246 0.031114005 0.009591843
0.04604956 0.030794047 0.047881275 0.029783955 -0.018357586 -0.08745512 -0.004510587 -0.05901014
-0.011202948 -0.046907526 0.04615222 -0.08171965 0.010766349 -0.037929025 -0.04778483 0.045193255
0.0008913531 -0.059797082 0.02263016 -0.01241035 -0.006709325 -0.038953148 -0.0043574995 0.050495673
0.074952036 -0.046017572 -0.0070493235 -0.055222582 0.08142794 -0.069409505 -0.025892125 -0.058305506
0.027378256 0.077013016 -0.06561771 -0.053727135 0.020419378 -0.041158378 0.06400345 -0.055977736
-0.072089836 0.05322148 -0.045890722 0.026482455 -0.050096385 0.032742146 0.057930946 0.04995094
0.019535316 0.07487363 0.0026102806 0.054455675 -0.051936347 0.03824205 0.013200994 0.06746892
-0.07377915 -0.018401988 0.060051598 0.049453404 0.03750079 -0.03273161 0.06373413 0.07930306
0.028256828 -0.077481925 -0.0153518105 0.0053865886 0.06459683 -0.051906068 0.06811688 0.0061314288
0.070665754 -0.026258698 0.040755358 -0.016106175 -0.041156314 -0.021000415 0.04352015 -0.059877753
0.08105389 -0.066375166 0.0020451862 0.039298404 -0.006848768 -0.08525522 0.05068606 0.016518656
-0.051016092 -0.042672705 -0.00861156 -0.06261429 -0.023676867 0.081249 0.05877632 0.032653324
-0.016861016 0.08528569 -0.056170516 -0.06913129 0.058259018 -0.020880813 -0.05119983 -0.056227855
-0.04085569 0.076074 0.08169992 -0.04733975 -0.04480016 -0.04541307 0.0334874 0.023929084
-0.052632764 -0.03357949 -0.07841852 0.049705632 -0.052599244 0.019509712 0.02783067 -0.037962403
0.078465715 -0.021771533 -0.022039177 0.042192325 -0.021925392 -0.072514154 -0.019462856 0.0137651395
-0.019101372 -0.055537503 -0.047498833 0.05153337 -0.07310659 -0.072176136 -0.008364769 0.054224133
0.011240206 0.053234357 -0.01261139 0.03400924 -0.015042789 -0.06031768 -0.08508256 -0.046000365
-0.015891163 0.008910855 0.051818896 0.050111886 -0.062137995 -0.08466614 0.021619204 -0.039164525
00000000: 63e8 bf3c 7945 13bc 506f 6cbd b67f a23c
00000010: 4493 b33c 0692 6f3c daa0 91bd 4314 b03d
00000020: 45c6 71bd 89e7 e73b 225c 8fbd a5b9 993d
00000030: 3270 823d 796b 563d 8d17 18bd 5647 77bc
00000040: 2e64 803c 3de2 64bd e7c4 21bc 6511 97bd
00000050: dabd 043d a8a6 933d 4093 b33d 213c 503d
00000060: c713 023b fa17 023c b383 133d 9cc2 653d
00000070: 9552 793d 9684 153d e108 adbb 3c97 3d3c
00000080: 64a6 353d 8157 0b3d 88d9 6cbd 4fb4 d73c
00000090: 7181 ba3c 870e 2fbd 7862 af3d 2656 95bc
000000a0: 437a 893d 27f6 433d cc85 0fbb 08f1 94bc
000000b0: 0df8 6e3b 3b88 98bd 401c 11bc 1b21 8a3c
000000c0: 7b24 853d 7249 143d 3500 98bd e07f 5b3c
000000d0: 927a 6cbd 5139 90bc 3d74 963c e4f7 b13d
000000e0: 4d7f b53c b1b9 2fbd dfaf 52bd c234 91bd
000000f0: 79fd 81bd 6d58 32bd 8597 70bd ce37 8ebd
00000100: b331 00bd d103 43bd 7830 22bc 1748 af3d
00000110: 5c50 d8bb c9f3 b33c 4289 373d c7cd ffbb
00000120: 247b aebd d39e 24bd 8dc8 893d e4eb 973c
00000130: 2139 64bd c346 e23c 84c4 3c3c bc98 24bd
00000140: f999 b3bd f7e5 a8bd 2135 cd3c 47d2 4abd
00000150: 38c0 60bc dfa8 a33b 9e14 17bb 4faa 25bd
00000160: f50b 83bd f93c e23c 5a98 e5bc 7ff5 68bd
00000170: 8e5f d53b e0ce b9bc 376e f13c 758c 9ebc
00000180: 6cc7 a9bc 5597 5dbc 23cf a4bc 253c ba3b
00000190: 01df a23d a846 373a cce2 fe3c 1b27 1d3c
000001a0: 779e 3c3d cc43 fc3c 281f 443d 7bfd f33c
000001b0: a662 96bc ac1b b3bd 8ccd 93bb 9eb4 71bd
000001c0: 928c 37bc 1b22 40bd 1c0a 3d3d a25c a7bd
000001d0: 5765 303c 775b 1bbd 07ba 43bd 901c 393d
000001e0: b2a9 693a c9ed 74bd e362 b93c c854 4bbc
000001f0: e6d9 dbbb 568d 1fbd 5bc9 8ebb 8dd4 4e3d
00000200: 7480 993d ec7c 3cbd 03fe e6bb 1331 62bd
00000210: b1c3 a63d 9226 8ebd b91b d4bc c1d1 6ebd
00000220: 5d48 e03c 00b9 9d3d 9462 86bd fc10 5cbd
00000230: 8a46 a73c b095 28bd 3e14 833d e948 65bd
00000240: d6a3 93bd c4fe 593d e9f7 3bbd bcf1 d83c
00000250: de31 4dbd a11c 063d 0049 6d3d 5b99 4c3d
00000260: 8708 a03c 5957 993d 3e11 2b3b ea0c 5f3d
00000270: 35bb 54bd b2a3 1c3d fb48 583c 252d 8a3d
00000280: 8619 97bd c4bf 96bc aaf8 753d a78f 4a3d
00000290: 6e9a 193d 9511 06bd 0a87 823d a569 a23d
000002a0: dd7a e73c d8ae 9ebd 2986 7bbc fb81 b03b
000002b0: 584b 843d 759b 54bd dd80 8b3d 27ea c83b
000002c0: 35b9 903d 7b1c d7bc 17ef 263d 19f1 83bc
000002d0: 8693 28bd 1009 acbc 2f42 323d 6042 75bd
000002e0: 95ff a53d b4ef 87bd 8808 063b 5df7 203d
000002f0: a16b e0bb 4a9a aebd 309c 4f3d 2252 873c
00000300: 40f6 50bd 93c9 2ebd 8017 0dbc ec3b 80bd
00000310: fdf5 c1bc e065 a63d 70bf 703d 7ebf 053d
00000320: 1d20 8abc 44aa ae3d 0e13 66bd b594 8dbd
00000330: 02a1 6e3d 3d0e abbc eab6 51bd 2e4f 66bd
00000340: 4c58 27bd afcc 9b3d 4a52 a73d 53e7 41bd
00000350: 5f80 37bd 0e03 3abd 152a 093d ed06 c43c
00000360: 7495 57bd a68a 09bd e499 a0bd 2298 4b3d
00000370: 4e72 57bd d5d2 9f3c 25fd e33c 777e 1bbd
00000380: a2b2 a03d 375a b2bc 818b b4bc dcd1 2c3d
00000390: e19c b3bc 4d82 94bd 9170 9fbc 2e87 613c
000003a0: 7b7a 9cbc 4b7b 63bd 238e 42bd a814 533d
000003b0: e8b8 95bd 15d1 93bd 620c 09bc 201a 5e3d
000003c0: d728 383c 450c 5a3d 01a0 4ebc 464d 0b3d
000003d0: 0876 76bc ac0f 77bd c43f aebd e16a 3cbd
000003e0: 2f2e 82bc d6fe 113c 0d40 543d 1f42 4d3d
000003f0: 6984 7ebd 7165 adbd c21a b13c fb6a 20bd

net.4.bias f4 [256]
0.022053907 -0.008011652 -0.008079066 -0.04904647 0.0031537618 -0.0885714 -0.030078765 -0.0956731
-0.08524058 -0.027032994 -0.108362705 -0.069428585 0.013429098 0.0048156995 0.045040563 -0.04892193
0.07575076 -0.02293946 -0.0148406355 -0.04173345 0.018676067 0.101542704 -0.05066873 0.051957972
0.014642609 -0.11096475 -0.034471482 -0.009641024 -0.027481498 -0.05550898 -0.08440766 -0.08343938
0.027171796 -0.10902845 -0.02428653 -0.0035058195 0.12751381 -0.027293107 -0.08792872 0.05486557
-0.07828554 0.029382342 0.024123158 -0.05922269 0.02670587 0.0810311 0.027803194 -0.0025691115
0.0008974621 0.010843794 -0.015764108 -0.025482504 -0.0034292995 0.06159664 -0.012184779 0.009485098
-0.024224324 -0.05037444 0.016181242 -0.05743946 0.03499364 0.07309643 -0.05387902 -0.09182125
-0.028491233 -0.023541328 -0.093113996 -0.12536308 -0.080465645 0.068477795 0.060906634 -0.10672345
0.009435919 -0.09032584 -0.08831987 -0.0052977055 -0.0021113658 -0.09571807 -0.00033274034 -0.04902984
-0.06989534 -0.02117087 0.043432765 -0.041731272 -0.10589012 0.0016197029 -0.04504712 -0.06254233
0.0023405338 0.1258839 -0.024456866 0.005009791 0.018672783 -0.07548144 -0.053441435 0.038490925
0.036342673 -0.026026933 -0.12387411 0.050975107 0.08174794 -0.068964444 0.008670386 0.08186562
-0.091650926 -0.06769982 0.025845239 -0.026986362 -0.020569991 -0.090323925 -0.043939553 -0.10969658
-0.03264871 -0.039040636 0.006459622 0.012519559 -0.04690986 0.0050388346 0.029838586 0.014295927
-0.046503916 0.042177822 -0.05545361 -0.0010228072 0.03305482 -0.018502241 -0.05590826 -0.011793832
-0.0061417334 -0.072337516 -0.012184011 0.009196855 -0.07875209 0.038986158 0.023058835 -0.07450761
-0.017463215 0.08220357 -0.05691358 -0.028255826 0.020274919 0.03577844 0.03102854 0.033427916
0.086395845 -0.073142104 -0.023576248 -0.028900465 0.05234057 -0.062516466 -0.066381566 0.018309938
0.12983318 -0.016096972 0.025030525 -0.055870093 0.012625779 0.041984 -0.09219373 0.026659455
0.005037213 0.032504153 -0.042125374 0.04786449 -0.072680764 -0.11217497 -0.05217677 -0.117113024
6.1990236e-06 -0.053468533 -0.0022309658 0.051256284 -0.11562499 -0.044102244 -0.042991154 0.01385396
-0.009922458 0.05582215 0.0824471 0.056939743 -0.04267901 -0.02572131 -0.035135373 0.021404466
-0.07261421 0.055700418 0.050333306 0.01899652 -0.07049538 -0.12207496 0.036179107 -0.0072239
0.007489147 -0.06680909 0.118885055 0.06781946 -0.09379599 -0.06604065 0.023636192 -0.0703545
0.05436903 0.0052401596 -0.08258986 -0.009210757 0.05109962 -0.0889781 0.053745437 -0.05345544
0.012899926 -0.027860973 -0.077910565 0.06505386 0.016804297 0.002495856 -0.022563748 0.073119715
-0.0051675043 -0.021641022 0.013978521 -0.11481743 -0.014048551 -0.049073406 -0.04063203 -0.08607899
-0.034945883 0.040037632 0.023550069 -0.019100193 0.04404667 -0.13366184 0.053886086 -0.025317531
0.00588759 0.014677492 -0.077553764 -0.03027261 0.06288908 -0.08398838 -0.102728106 0.03128964
0.0073866243 -0.063169815 -0.04338152 -0.013751488 -0.049647223 -0.012242151 0.020222822 -0.053275973
-0.027549751 -0.12423364 0.050421108 -0.041732743 0.013172096 -0.017349992 -0.10085854 -0.015131434
00000000: 65aa b43c 4e43 03bc 0f5e 04bc f4e4 48bd
00000010: 58af 4e3b ec64 b5bd be67 f6bc 42f0 c3bd
00000020: 9d92 aebd 4c74 ddbc 44ed ddbd 9330 8ebd
00000030: b805 5c3c 04cd 9d3b 747c 383d 5d62 48bd
00000040: 3723 9b3d 89eb bbbc 2326 73bc b2f0 2abd
00000050: 8dfe 983c 9ff5 cf3d 048a 4fbd e2d1 543d
00000060: 8ee7 6f3c 7d41 e3bd f831 0dbd 63f5 1dbc
00000070: e120 e1bc 625d 63bd ecdd acbd 44e2 aabd
00000080: 6397 de3c 4f4a dfbd 8cf4 c6bc e4c1 65bb
00000090: fb92 023e cb95 dfbc f913 b4bd b8ba 603d
000000a0: 2b54 a0bd 3db3 f03c ee9d c53c 7e93 72bd
000000b0: 45c6 da3c a2f3 a53d 86c3 e33c 8a5e 28bb
000000c0: a943 6b3a 2baa 313c bb23 81bc afc0 d0bc
000000d0: 19be 60bb c24c 7c3d aba2 47bc 6267 1b3c
000000e0: 1772 c6bc 6e55 4ebd 868e 843c a445 6bbd
000000f0: 7e55 0f3d 95b3 953d 3fb0 5cbd c80c bcbd
00000100: 7266 e9bc bed9 c0bc 8db2 bebd 2e5f 00be
00000110: 2ccb a4bd 163e 8c3d 3c79 793d d391 dabd
00000120: 1d99 1a3c c1fc b8bd 0ce1 b4bd 6098 adbb
00000130: d75e 0abb d607 c4bd a773 aeb9 83d3 48bd
00000140: 4a25 8fbd 886e adbc 8ee6 313d 69ee 2abd
00000150: ebdc d8bd 364c d43a 5483 38bd 3116 80bd
00000160: a463 193b b6e7 003e c459 c8bc 2c29 a43b
00000170: aaf7 983c 0396 9abd 68e5 5abd a9a8 1d3d
00000180: 0edc 143d 6f36 d5bc b6b1 fdbd 46cb 503d
00000190: 776b a73d 3b3d 8dbd 3c0e 0e3c 2aa9 a73d
000001a0: 7bb3 bbbd 34a6 8abd 65b9 d33c 8112 ddbc
000001b0: 6682 a8bc c0fb b8bd f6f9 33bd 9aa8 e0bd
000001c0: a7ba 05bd 13e9 1fbd 3dab d33b d61e 4d3c
000001d0: 8e24 40bd cf1c a53b 0d70 f43c 7739 6a3c
000001e0: e47a 3ebd a7c2 2c3d 5323 63bd b70f 86ba
000001f0: 7e64 073d 0392 97bc 0f00 65bd eb3a 41bc
00000200: 9840 c9bb b125 94bd 729f 47bc 68ae 163c
00000210: c748 a1bd f3af 1f3d e2e5 bc3c 7297 98bd
00000220: 040f 8fbc 585a a83d 371e 69bd c378 e7bc
00000230: 9617 a63c 6a8c 123d 912f fe3c b6eb 083d
00000240: 4ef0 b03d 87cb 95bd fa22 c1bc abc0 ecbc
00000250: 1163 563d a208 80bd 0ff3 87bd b9fe 953c
00000260: fdf2 043e ccdd 83bc d10c cd3c 0ad8 64bd
00000270: 5bdc 4e3c 6af7 2b3d 11d0 bcbd ee64 da3c
00000280: 350f a53b 1323 053d a88b 2cbd 8e0d 443d
00000290: a7d9 94bd febb e5bd 4fb7 55bd f4d8 efbd
000002a0: 3501 d036 d201 5bbd 6535 12bb 1cf2 513d
000002b0: cbcc ecbd 8ea4 34bd 7e17 30bd b8fb 623c
000002c0: ce91 22bc c4a5 643d 06da a83d a639 693d
000002d0: 30d0 2ebd 7fb5 d2bc 1cea 0fbd 6b58 af3c
000002e0: c2b6 94bd 1f26 643d 4c2a 4e3d 979e 9b3c
000002f0: e25f 90bd 7002 fabd 8b30 143d 77b6 ecbb
00000300: 8567 f53b 34d3 88bd 027a f33d eee4 8a3d
00000310: 1d18 c0bd 5240 87bd b0a0 c13c 0516 90bd
00000320: 0fb2 5e3d a5b5 ab3b df24 a9bd b7e8 16bc
00000330: d64d 513d 263a b6bd 2d24 5c3d 17f4 5abd
00000340: 365a 533c b23c e4bc 938f 9fbd f53a 853d
00000350: 2aa9 893c 8491 233b 9cd7 b8bc cabf 953d
00000360: 2b54 a9bb 8348 b1bc 2b06 653c 6725 ebbd
00000370: e52b 66bc 3201 49bd c66d 26bd 2e4a b0bd
00000380: 6a23 0fbd 80fe 233d 13ec c03c 0278 9cbc
00000390: 486a 343d a6de 08be a8b7 5c3d b666 cfbc
000003a0: afec c03b dd79 703c 82d4 9ebd 44fe f7bc
000003b0: fdcb 803d 1a02 acbd 1d63 d2bd 9129 003d
000003c0: 7f0b f23b 2d5f 81bd d2b0 31bd ec4d 61bc
000003d0: e35a 4bbd 4e93 48bc 55aa a53c e837 5abd
000003e0: 04b0 e1bc 356e febd 5d86 4e3d f4ef 2abd
000003f0: c6cf 573c 9221 8ebc ec8e cebd d6e9 77bc

net.6.weight f4 [2, 256]
0.055809632 -0.0042856038 -0.04877305 -0.15047054 -0.015746022 -0.20277488 -0.19135289 -0.22554418
0.061668128 -0.17809118 -0.18639138 -0.05679755 0.19952013 -0.18638752 -0.03254463 0.057266183
-0.12874955 -0.23235841 0.055453643 -0.028893776 -0.16265492 0.09743059 -0.02677717 -0.0066696866
-0.21198931 -0.18635072 0.053907525 -0.17513424 0.0045852056 -0.21004349 -0.034498908 -0.18038255
-0.15403469 -0.14632815 -0.20669785 0.096984334 0.14336476 0.03729238 -0.033018555 -0.23050034
0.041476004 -0.14732358 -0.16375054 -0.19759431 0.2131468 0.028955996 -0.20940898 -0.23430085
-0.13150397 -0.14079827 0.056089457 -0.17401943 0.0008498803 0.030692726 0.0074170735 0.044882976
-0.18087837 -0.16430391 0.013481283 0.15117852 0.015605152 0.053162593 0.103796445 -0.1883595
0.100006886 -0.12233095 -0.15180033 -0.18128723 0.021646753 0.09792518 -0.02825364 -0.21607977
-0.20441096 -0.0056979074 -0.20471406 0.11733656 -0.21278892 -0.18672918 0.18312915 -0.010194398
0.037225597 -0.021473698 -0.18056266 0.15200183 -0.21743365 -0.11617524 0.14791816 -0.0443232
-0.21292609 0.11688177 -0.22405425 0.13385716 -0.13365212 -0.10530785 0.036129802 -0.1835048
-0.23513383 -0.18021321 -0.2139016 0.044186957 0.17286283 0.056905802 -0.1281246 -0.039571695
-0.18670136 -0.24160111 -0.21167599 0.0483142 -0.17676114 -0.2301145 -0.0071051866 0.14819135
-0.15570095 0.046088547 -0.23138697 0.035137877 0.017808035 -0.20062089 0.019145506 0.047023434
-0.049119882 0.044342697 0.016484275 0.04320671 0.1346936 -0.17683296 0.17511578 -0.19477502
0.005339347 0.07399999 -0.18498781 0.09185111 -0.21058212 0.17001899 0.11547769 0.0070755705
0.15025172 0.118971676 -0.22065149 0.14628977 -0.1150624 -0.1482207 -0.16242522 0.14742412
0.12277417 -0.034943484 -0.19514412 -0.10206838 0.027458372 -0.21110198 0.018917704 -0.17099339
0.10938888 -0.2231707 -0.21268986 -0.19862759 -0.23643506 0.17043823 -0.22430415 -0.21696667
0.13206275 -0.15544486 -0.16358289 0.010495793 -0.13899755 -0.21437341 -0.15802981 -0.18257116
-0.012631426 -0.22877404 -0.23103599 -0.18492313 -0.15765782 -0.18300512 -0.22080214 0.12067105
-0.12426779 -0.18229215 0.029716363 -0.18994978 -0.13920565 0.16874321 0.043591715 0.053548045
0.019020561 0.14913806 -0.23886973 0.014998355 -0.21017264 -0.18820064 -0.15127805 0.20015976
0.052308347 -7.523596e-05 0.12228146 -0.011716146 -0.2311035 -0.20338415 -0.15581392 0.12788706
0.118793264 -0.19420287 0.0556553 -0.13810833 0.029509572 -0.18788588 -0.13232854 -0.22084849
0.035719324 0.10143061 -0.01854079 0.03479397 -0.091181934 -0.16076072 -0.069629155 0.14316033
-0.22004113 0.15880305 -0.15459795 -0.22638917 -0.19473682 0.10322791 0.049043726 -0.15632293
-0.20886438 -0.21949764 0.13397174 -0.038307264 -0.20008752 -0.19509746 -0.148845 0.1484184
-0.17321306 0.059050314 0.09302885 -0.16833268 0.15228988 0.11314764 -0.17171347 -0.23075254
0.098913446 0.030131735 0.028989092 -0.21271083 -0.21600328 -0.016492892 -0.20719478 0.15954937
-0.044053312 -0.20440915 -0.08266506 0.121866964 -0.1525766 0.05588144 -0.21732627 -0.057122074
00000000: a498 643d 406e 8cbb 40c6 47bd f314 1abe
00000010: cdfd 80bc 38a4 4fbe 03f2 43be 0ef5 66be
00000020: b897 7c3d 895d 36be 62dd 3ebe 8ca4 68bd
00000030: 014f 4c3e 5fdc 3ebe 854d 05bd f28f 6a3d
00000040: ecd6 03be 5def 6dbe 5c23 633d a4b2 ecbc
00000050: 038f 26be b089 c73d cc5b dbbc 638d dabb
00000060: ba13 59be b9d2 3ebe 23ce 5c3d 6456 33be
00000070: 7e3f 963b a415 57be ba4e 0dbd 34b6 38be
00000080: 45bb 1dbe 0cd7 15be 9aa8 53be b99f c63d
00000090: 36ce 123e e5bf 183d 773e 07bd 4808 6cbe
000000a0: bee2 293d fedb 16be 39ae 27be 2a56 4abe
000000b0: 2843 5a3e 2035 ed3c 4f6f 56be 90ec 6fbe
000000c0: faa8 06be 6c2d 10be 0fbe 653d 2632 32be
000000d0: 80ca 5e3a 506f fb3c ec0a f33b 36d7 373d
000000e0: 2e38 39be 493f 28be 99e0 5c3c 8bce 1a3e
000000f0: c0ac 7f3c 05c1 593d 3b93 d43d 50e1 40be
00000100: 69d0 cc3d a688 fabd 8c71 1bbe 5ca3 39be
00000110: 8854 b13c ff8c c83d 2d74 e7bc 0444 5dbe
00000120: 1b51 51be 83b5 babb 90a0 51be 264e f03d
00000130: 57e5 59be ef35 3fbe 3586 3b3e 6806 27bc
00000140: de79 183d 9ce9 afbc 6be5 38be 5ea6 1b3e
00000150: eda6 5ebe 49ed edbd dc77 173e 3e8c 35bd
00000160: 4c09 5abe b65f ef3d 7a6e 65be da11 093e
00000170: 1adc 08be a4ab d7bd d8fc 133d afe8 3bbe
00000180: ecc6 70be d089 38be 0509 5bbe 62fd 343d
00000190: f402 313e 0f16 693d 1833 03be ee15 22bd
000001a0: a42e 3fbe 4866 77be 97c1 58be 1ce5 453d
000001b0: df00 35be 23a3 6bbe a0d2 e8bb 79bf 173e
000001c0: 1270 1fbe 58c7 3c3d b5f0 6cbe bcec 0f3d
000001d0: 28e2 913c 906f 4dbe 09d7 9c3c a59b 403d
000001e0: ee31 49bd b0a0 353d 080a 873c 85f9 303d
000001f0: 1eed 093e b313 35be 8d51 333e 1a73 47be
00000200: b0f5 ae3b 4f8d 973d 726d 3dbe 6f1c bc3d
00000210: d7a2 57be 7519 2e3e 917f ec3d 30da e73b
00000220: 96db 193e 6ca7 f33d 77f2 61be fccc 153e
00000230: d6a5 ebbd 2bc7 17be cc52 26be 59f6 163e
00000240: 0671 fb3d e620 0fbd dcd3 47be 3a09 d1bd
00000250: 61f0 e03c 1e2b 58be 4df9 9a3c e418 2fbe
00000260: 4707 e03d dc86 64be 5fcb 59be 0865 4bbe
00000270: 081c 72be 5c87 2e3e fdaf 65be 832c 5ebe
00000280: 753b 073e f02c 1fbe 4682 27be 8cf6 2b3c
00000290: 6055 0ebe b484 5bbe 91d2 21be eff3 3abe
000002a0: 0af4 4ebc be43 6abe b394 6cbe 7d5c 3dbe
000002b0: 0d71 21be b265 3bbe f519 62be 6222 f73d
000002c0: 1c80 febd cbaa 3abe bb6f f33c 3282 42be
000002d0: ed8b 0ebe 05cb 2c3e 3a8d 323d 3255 5b3d
000002e0: 02d1 9b3c a6b7 183e 449a 74be a9bb 753c
000002f0: 7f37 57be abb7 40be a2e8 1abe aef6 4c3e
00000300: 4741 563d 00c8 9db8 b46e fa3d 14f5 3fbc
00000310: 65a6 6cbe ef43 50be af8d 1fbe d3f4 023e
00000320: e249 f33d 1edd 46be d0f6 633d 456c 0dbe
00000330: 0fbe f13c 2865 40be 2281 07be 1b26 62be
00000340: 6d4e 123d daba cf3d dbe2 97bc 1f84 0e3d
00000350: 98bd babd 759e 24be bb99 8ebd 9f98 123e
00000360: 7652 61be 449d 223e ed4e 1ebe 90d2 67be
00000370: 1769 47be 2869 d33d 13e2 483d 1e13 20be
00000380: 8be0 55be fdc3 60be e32f 093e 14e8 1cbd
00000390: bee3 4cbe a1c7 47be d36a 18be fefa 173e
000003a0: c45e 31be bede 713d e985 be3d 675f 2cbe
000003b0: e1f1 1b3e f3b9 e73d a8d5 2fbe 654a 6cbe
000003c0: 2293 ca3d d4d6 f63c 887a ed3c ded0 59be
000003d0: f72f 5dbe 1a1c 87bc de2a 54be e960 233e
000003e0: 3f71 34bd a250 51be 4d4c a9bd 6395 f93d
000003f0: 0a3d 1cbe f0e3 643d c78a 5ebe d6f8 69bd

net.6.bias f4 [2]
0.02456217 0.037591547
00000000: 9b36 c93c 98f9 193d

exp_avg f4 [64, 2]
4.5205566e-06 9.455854e-06 5.2888417e-06 6.245831e-07 -4.9519957e-05 1.7475488e-05 3.334499e-05 -3.840747e-05
1.2011954e-08 4.9417888e-09 -7.473951e-07 7.910767e-06 -8.1340296e-08 -1.17893144e-07 -4.529027e-05 -4.722025e-05
-3.86118e-05 -3.8340313e-05 -1.4341495e-07 -4.2978616e-09 -1.3455036e-05 5.3073936e-06 -1.1603349e-07 -5.8559976e-08
-2.4620747e-06 -2.9839425e-06 7.63093e-06 7.217517e-06 1.7254259e-05 -3.985484e-06 -3.5365797e-06 1.1032269e-05
0.00014933936 -1.700416e-05 -4.3998767e-08 -7.075168e-08 1.62839e-05 1.11737945e-05 5.5015462e-08 1.7724784e-07
7.1125746e-06 -6.6288413e-07 1.358953e-07 -1.2012866e-07 3.5876426e-06 5.5766445e-06 2.1144172e-06 9.157091e-06
-7.9813335e-06 4.1106077e-06 1.1122988e-05 -2.430801e-06 -4.8930256e-06 1.7131639e-05 -4.2914044e-06 1.1227774e-05
-3.250732e-05 1.3122263e-05 3.0814826e-05 4.0457828e-05 2.0844132e-07 -9.318094e-08 -7.630906e-08 -1.5761377e-07
8.8708375e-06 -8.898417e-06 5.79403e-06 -5.34406e-06 -1.1447914e-05 -1.2260097e-06 -1.8648398e-05 3.6737947e-06
-2.3397446e-08 -1.6366843e-07 1.1728303e-05 4.06432e-05 -4.743346e-08 1.6453609e-07 -5.161365e-06 2.3879862e-05
0.00012957228 -5.1490566e-05 -9.6771975e-05 9.66698e-07 2.6366817e-05 -8.002375e-06 -2.4056475e-05 2.744534e-05
2.1957923e-08 -1.122235e-07 -2.0136324e-05 -4.0225346e-05 -9.055306e-06 -4.1700255e-07 -2.769597e-08 -2.0215828e-07
3.7480877e-05 -0.00021841172 -1.2039614e-05 1.4316571e-05 1.461242e-05 1.6468879e-05 2.7124129e-06 -7.546627e-05
2.5572905e-05 1.3566486e-05 1.4187923e-05 6.940569e-06 2.0101148e-05 1.3450697e-05 -1.6435251e-05 -4.0353616e-06
2.9588548e-06 -6.401308e-06 4.2583815e-05 -2.1980675e-06 -0.00014976472 0.00012667644 1.3687095e-05 -2.1613278e-05
4.2461834e-06 4.8185928e-05 -2.5072944e-05 1.5081483e-05 -3.743143e-05 -8.530408e-06 1.7035449e-05 -2.4175872e-05
00000000: 49af 9736 95a4 1e37 ce76 b136 06a9 2735
00000010: a6b3 4fb8 5398 9237 e9db 0b38 b517 21b8
00000020: 225d 4e32 6fcc a931 9aa0 48b5 7cb8 0437
00000030: 4dad aeb3 712c fdb3 0ff6 3db8 5b0e 46b8
00000040: 1bf3 21b8 99cf 20b8 9afd 19b4 64ac 93b1
00000050: f1bc 61b7 2a16 b236 162e f9b3 6083 7bb3
00000060: 1f3a 25b6 be3f 48b6 9806 0037 002e f236
00000070: 3dbd 9037 0cbb 85b6 fa55 6db6 3c17 3937
00000080: fb97 1c39 28a4 8eb7 28f9 3cb3 26f0 97b3
00000090: 6999 8837 1577 3b37 244a 6c33 8451 3e34
000000a0: 8da8 ee36 0df1 31b5 9eea 1134 b7fc 00b4
000000b0: 3bc3 7036 031f bb36 69e5 0d36 68a1 1937
000000c0: 91e7 05b7 daed 8936 df9c 3a37 d820 23b6
000000d0: c52e a4b6 eab5 8f37 e2fe 8fb6 ec5e 3c37
000000e0: 7858 08b8 b127 5c37 2b3f 0138 43b1 2938
000000f0: eacf 5f34 c31a c8b3 59df a3b3 8b3c 29b4
00000100: f5d3 1437 694a 15b7 576a c236 2051 b3b6
00000110: 6b10 40b7 5f8d a4b5 216f 9cb7 508b 7636
00000120: 87fb c8b2 d6bc 2fb4 aec4 4437 4e78 2a38
00000130: a4b9 4bb3 56ab 3034 ca2f adb6 9d51 c837
00000140: cbdd 0739 93f7 57b8 0ff2 cab8 7ebf 8135
00000150: 4f2e dd37 f041 06b7 e3cc c9b7 6b3a e637
00000160: fc9d bc32 86ff f0b3 6dea a8b7 a3b7 28b8
00000170: 3eec 17b7 65e0 dfb4 15e8 edb2 d810 59b4
00000180: c934 1d38 7305 65b9 c0fd 49b7 3431 7037
00000190: de27 7537 a626 8a37 e606 3636 a543 9eb8
000001a0: 6585 d637 9d9b 6337 aa08 6e37 09e3 e836
000001b0: e39e a837 4eaa 6137 6fde 89b7 7e67 87b6
000001c0: bd90 4636 d1ca d6b6 069c 3238 8382 13b6
000001d0: 290a 1db9 73d4 0439 a0a1 6537 294e b5b7
000001e0: 707a 8e36 3f1b 4a38 bd53 d2b7 7a06 7d37
000001f0: b1ff 1cb8 d31d 0fb7 59e7 8e37 4acd cab7

exp_avg_sq f4 [64, 2]
1.6177077e-08 8.2999705e-09 2.3015994e-09 2.9699232e-09 8.793165e-09 2.39294e-08 2.0273079e-09 1.0225275e-08
5.7004445e-13 2.4166472e-12 2.3607514e-08 1.0956903e-08 2.3309628e-13 3.2733468e-13 1.6314004e-08 7.48836e-08
5.473062e-08 4.7600532e-09 5.093857e-13 3.4837286e-13 8.136563e-09 1.6839156e-08 6.58877e-13 9.459245e-13
7.605148e-08 6.171021e-09 3.2744033e-08 1.524074e-08 3.7857305e-08 2.0603261e-08 1.3312434e-09 8.755162e-09
3.4763357e-08 5.3159843e-10 2.5624836e-13 2.409262e-13 9.012415e-09 1.7997815e-08 9.37581e-13 5.8237546e-13
4.8310893e-09 3.9244736e-09 2.4256526e-12 1.168842e-12 7.882346e-09 1.0647905e-08 5.33726e-09 3.5777445e-09
5.481867e-09 3.9656016e-09 7.0761335e-09 6.3559584e-09 1.8818067e-08 9.008659e-09 2.0671266e-08 1.1992849e-08
7.562859e-09 1.6818136e-08 2.0800158e-08 4.5329884e-08 2.5159551e-12 1.5363255e-12 2.2237314e-12 1.1052691e-12
6.7904615e-09 3.3865137e-09 5.810047e-10 4.2906354e-09 9.648335e-09 1.2992776e-08 1.1528862e-08 1.7999382e-08
8.4946606e-13 9.69304e-13 8.191393e-08 6.163201e-08 7.074472e-13 5.872656e-13 2.7802013e-08 1.8755493e-08
2.4510529e-08 1.6129489e-08 3.6516372e-08 1.405458e-08 1.100754e-09 2.0398823e-09 9.017514e-09 3.2694918e-09
4.9106135e-13 4.816066e-13 1.0329648e-07 1.8839085e-08 2.0446887e-08 1.6039634e-08 1.2974221e-12 6.5227945e-12
2.069386e-08 1.1165004e-07 2.3717561e-08 1.4311933e-08 2.7467513e-08 4.8977054e-08 9.858372e-09 6.6676016e-08
2.3757971e-09 4.5756687e-10 2.4002076e-09 1.0975926e-08 2.3858817e-08 1.0523941e-08 2.1545253e-08 1.8436378e-08
3.715306e-08 3.1791018e-08 2.4461318e-08 1.4161005e-09 4.3385878e-08 6.185172e-08 1.4364588e-08 3.302885e-08
6.4081465e-09 1.698412e-08 6.071248e-09 1.0198201e-08 6.1425794e-08 1.7794487e-07 1.0542768e-09 8.542349e-10
00000000: c5f5 8a32 a897 0e32 2a2a 1e31 7117 4c31
00000010: c010 1732 4f8d cd32 c750 0b31 3cab 2f32
00000020: 0874 202b 720e 2a2c 79c9 ca32 f83c 3c32
00000030: b738 832a e645 b82a e022 8c32 b2cf a033
00000040: f410 6b33 df8d a331 1c61 0f2b d21d c42a
00000050: fcc8 0b32 b2a5 9032 1775 392b 8620 852b
00000060: be51 a333 e008 d431 72a2 0c33 beea 8232
00000070: 8c98 2233 0dfb b032 f7f6 b630 9c69 1632
00000080: b74e 1533 ea1f 1230 4841 902a 20a1 872a
00000090: 05d5 1a32 9d99 9a32 eaf3 832b 93ec 232b
000000a0: b6fe a531 09d8 8631 acb0 2a2c f97f a42b
000000b0: ed6a 0732 fbed 3632 0963 b731 59dc 7531
000000c0: 035b bc31 cd41 8831 5422 f331 9a63 da31
000000d0: 5ea5 a132 80c4 1a32 9890 b132 1c09 4e32
000000e0: ceed 0132 7977 9032 08ac b232 bcb0 4233
000000f0: 6b0b 312c f637 d82b 2f7b 1c2c 848d 9b2b
00000100: 8851 e931 2eb8 6831 92b4 1f30 d46c 9331
00000110: d3c1 2532 d536 5f32 7910 4632 0f9d 9a32
00000120: 7b1a 6f2b db6a 882b a9e8 af33 8e5a 8433
00000130: f120 472b f24c 252b 46d1 ee32 c41b a132
00000140: 398b d232 1f8d 8a32 2dd6 1c33 b274 7132
00000150: 5749 9730 fd2d 0c31 72eb 1a32 82ad 6031
00000160: b338 0a2b 6a8f 072b d7d3 dd33 96d3 a132
00000170: 2ea3 af32 87c7 8932 8f98 b62b 1c80 e52c
00000180: 48c2 b132 42c4 ef33 78bb cb32 8ce0 7532
00000190: b3f1 eb32 d75a 5233 945d 2932 872f 8f33
000001a0: 7743 2331 d08c fb2f e6f0 2431 a290 3c32
000001b0: 18f2 cc32 c8cc 3432 8312 b932 065e 9e32
000001c0: 3992 1f33 988a 0833 021f d232 9ba0 c230
000001d0: 4757 3a33 58d3 8433 20c8 7632 9bdb 0d33
000001e0: a72e dc31 7ae4 9132 439b d031 2a34 2f32
000001f0: 30e9 8333 1d11 3f34 11e6 9030 70cf 6a30

exp_avg f4 [64]
-5.167346e-05 -1.5166589e-05 2.4307654e-05 4.8343543e-05 3.4922834e-07 -4.4090535e-05 1.0002952e-07 0.00012636802
-3.867283e-05 5.025895e-08 -3.9646708e-05 3.9766337e-07 1.2877108e-05 2.127043e-05 -7.3410214e-05 1.7316068e-05
0.00018900404 2.8315313e-07 -2.4598678e-05 -1.4659274e-07 -3.1681398e-07 5.487822e-07 -1.1356628e-05 -1.8179895e-05
2.9400491e-05 2.2155605e-06 -6.360913e-05 -4.9793907e-05 7.695784e-05 -3.179923e-06 2.1569184e-07 3.426485e-07
-2.2553724e-05 2.7767288e-05 -1.6082719e-05 -4.110986e-05 3.2413982e-07 -4.321193e-05 2.9961914e-08 -4.424588e-05
0.00010296764 -0.00011045469 -2.5827638e-05 -0.000109396926 4.1517577e-08 1.7356757e-05 -8.605897e-06 9.412855e-07
-3.9774586e-05 -5.196325e-05 -3.3622495e-05 0.00014174316 -3.682514e-05 -0.00013098762 7.1073075e-05 0.00010390141
4.6638823e-05 7.043743e-05 -2.474133e-06 3.629233e-05 -4.534563e-05 4.4874233e-07 -0.00014465877 9.865032e-06
00000000: f5bb 58b8 0174 7eb7 4ae8 cb37 7cc4 4a38
00000010: 947d bb34 daed 38b8 cfcf d633 a881 0439
00000020: a334 22b8 4ddc 5733 544a 26b8 707e d534
00000030: c20a 5837 e76d b237 cff3 99b8 f941 9137
00000040: 632f 4639 4504 9834 4259 ceb7 1b67 1db4
00000050: 9516 aab4 0750 1335 5988 3eb7 0781 98b7
00000060: 13a1 f637 0aaf 1436 e465 85b8 cdd9 50b8
00000070: 6d64 a138 a966 55b6 ec98 6734 40f5 b734
00000080: c131 bdb7 cced e837 60e9 86b7 606d 2cb8
00000090: 7005 ae34 753e 35b8 79af 0033 a794 39b8
000000a0: 55f0 d738 e9a3 e7b8 6ea8 d8b7 076c e5b8
000000b0: 0f51 3233 5a99 9137 0c62 10b7 a6ac 7c35
000000c0: a3d3 26b8 1df3 59b8 e105 0db8 e4a0 1439
000000d0: b174 1ab8 b959 09b9 110d 9538 a5e5 d938
000000e0: 0e9e 4338 cfb7 9338 4809 26b6 9838 1838
000000f0: 8031 3eb8 adea f034 8baf 17b9 fd81 2537

exp_avg_sq f4 [64]
3.7416207e-08 7.0423587e-09 3.6601907e-07 2.3904054e-08 6.1639284e-11 4.2648985e-08 1.4640183e-12 1.795356e-07
6.0368126e-07 4.418102e-12 2.4840747e-07 1.1702408e-11 1.8458447e-07 1.93296e-07 4.016616e-07 2.1280494e-08
5.2737533e-08 1.0644483e-12 1.0013005e-07 3.0845454e-12 3.4954507e-08 5.2391867e-12 4.462986e-07 2.0132289e-08
2.1200423e-08 4.453437e-08 9.8634466e-08 7.514739e-08 4.6161267e-07 7.562778e-07 1.07953e-11 7.179851e-12
4.459836e-08 9.40578e-09 1.7614313e-07 3.7906784e-07 9.247807e-12 5.5576885e-07 1.7189831e-11 6.345855e-08
4.90244e-07 2.763532e-07 5.0230007e-08 6.3874396e-08 3.304738e-12 4.5819826e-07 2.4315946e-07 1.5659912e-10
1.5192037e-06 9.0590326e-08 2.701928e-07 1.4760396e-07 8.413926e-09 3.015409e-07 4.5275064e-07 3.65835e-07
1.3636605e-07 4.768732e-08 8.589976e-07 7.8569116e-07 7.8343305e-08 1.7998957e-07 1.2466263e-06 2.8233214e-09
00000000: 8eb3 2033 3ef9 f131 4781 c434 9255 cd32
00000010: d58b 872e 0e2d 3733 d10a ce2b 5fc6 4034
00000020: a90c 2235 ba72 9b2c dd5c 8534 f6de 4d2d
00000030: 3132 4634 cd8c 4f34 f3a3 d734 4dcc b632
00000040: 8881 6233 cbce 952b 1407 d733 3b0e 592c
00000050: e320 1633 6656 b82c d09a ef34 5fef ac32
00000060: 391c b632 0f46 3f33 dfd0 d333 b760 a133
00000070: 90d3 f734 0403 4b35 b6e9 3d2d 599e fc2c
00000080: 6a8c 3f33 0f97 2132 db21 3d34 b082 cb34
00000090: 6cb0 222d 2530 1535 0f34 972d b546 8833
000000a0: 5099 0335 b25d 9434 7abc 5733 522b 8933
000000b0: de8c 682c 4afe f534 958b 8234 bc2e 2c2f
000000c0: 71e7 cb35 8f8a c233 040f 9134 117d 1e34
000000d0: d68c 1032 77e3 a134 9311 f334 fb67 c434
000000e0: 046c 1234 c3d0 4c33 de95 6635 49e8 5235
000000f0: b03d a833 2843 4134 c151 a735 6504 4231

exp_avg f4 [128, 64]
-5.9834188e-06 -3.881164e-06 5.203581e-07 3.3649535e-06 6.943245e-08 -6.473197e-06 7.3188794e-08 -1.2667588e-06
-6.8202535e-06 6.188866e-08 -8.407203e-06 9.7549126e-08 2.1003534e-07 -1.0489342e-06 -1.9833855e-07 -8.296384e-07
-4.3181447e-07 5.3611963e-08 -8.4045274e-07 5.087376e-08 -6.63892e-06 5.3827005e-08 -8.718279e-06 -8.462026e-06
-6.927142e-06 -8.070113e-06 -6.4749474e-06 -7.2257226e-06 -6.4154333e-06 -8.367427e-06 7.250299e-08 7.8503966e-08
-5.0805324e-06 -2.1864182e-06 -6.4798137e-06 -7.649559e-06 5.0958693e-08 -3.4094433e-07 5.7273482e-08 -7.702594e-06
2.7468846e-07 1.2830669e-06 -1.7116768e-06 -8.576753e-06 7.215332e-08 -7.132516e-07 -6.5077297e-06 8.9038984e-08
3.3277784e-06 -3.666271e-06 -9.874395e-07 3.0881452e-08 -1.4453998e-06 -1.3448918e-05 -1.1421128e-06 -7.1932054e-06
-4.831536e-06 2.276407e-07 -2.760428e-06 -4.999085e-06 -1.6337447e-06 -2.730165e-06 -1.6514782e-06 2.9800736e-07
1.487421e-07 8.1434683e-07 3.5528958e-06 6.428414e-07 -1.9353513e-08 2.2717245e-06 -1.5067407e-08 -4.126751e-08
5.202259e-06 -2.6615972e-09 3.2915527e-06 -2.6037762e-08 -5.0733655e-07 -2.8836341e-06 -1.9652402e-06 2.5767847e-06
-2.9486384e-06 -2.3575078e-08 -2.672358e-06 2.8227742e-09 -1.1656907e-06 -3.8515513e-08 -1.0073376e-06 4.0828113e-06
-2.4788667e-06 -1.9810368e-06 2.659959e-06 3.34685e-06 -2.3278658e-06 4.8093434e-06 -2.6925797e-08 -2.3881695e-08
-3.590302e-07 3.4562565e-06 5.3772897e-06 -5.4406433e-07 -1.1949639e-09 -3.131742e-06 -1.0591102e-08 3.7378143e-06
2.940501e-06 3.4598113e-06 3.05477e-06 -4.7187928e-06 -3.8336744e-08 -3.5436858e-06 1.3260197e-06 -2.6246273e-08
1.2297886e-06 2.871139e-06 1.5020032e-06 -4.2810527e-08 -1.857811e-06 -1.8412637e-06 -5.01574e-06 1.6766223e-06
-5.7041684e-06 -5.401401e-07 -2.91178e-06 -8.841417e-07 -4.833742e-07 -4.0780048e-07 -1.7200252e-06 -2.1877803e-08
6.016725e-06 3.2928297e-06 -7.046745e-07 -9.287039e-06 -1.3400931e-07 8.971214e-06 -8.086341e-08 -2.7196363e-06
1.0833705e-05 -3.493922e-08 1.790122e-05 -1.6914653e-07 4.5685863e-07 2.2013687e-06 2.4278554e-06 -3.523568e-06
6.5208957e-07 -8.849784e-08 -3.5988448e-06 -3.1516166e-08 4.4897615e-06 -1.256751e-07 7.988326e-06 1.7645296e-05
5.3981544e-06 6.4274586e-06 8.908322e-06 1.14613495e-05 5.214528e-06 1.9929394e-05 -9.507057e-08 -8.734118e-08
1.8022417e-06 -5.9912268e-06 1.6111726e-05 6.0825705e-06 -5.0383527e-08 -4.190234e-06 -7.2067444e-08 1.3415919e-05
1.9501983e-06 2.3878529e-06 3.838431e-06 6.1498436e-06 -1.4675835e-07 -2.43991e-08 1.1722195e-05 -1.7651386e-07
-5.0801077e-06 8.726846e-06 -4.3546333e-06 -1.1357358e-06 4.3381476e-07 1.7992788e-05 -5.030736e-07 1.0214293e-05
5.604883e-06 -3.4876234e-07 -1.2092804e-06 7.413595e-07 -4.715286e-07 4.7832373e-06 2.1238466e-06 -5.2448723e-07
1.0073714e-05 5.986216e-06 -3.7215304e-06 -9.806912e-06 -1.0606965e-07 9.989179e-06 -1.1251661e-07 1.4394146e-06
9.242684e-06 -9.497571e-08 1.2884339e-05 -1.4928762e-07 -5.97837e-08 2.317136e-06 1.2288587e-06 -2.0404068e-06
9.2296943e-07 -8.2830795e-08 8.7409427e-07 -7.765863e-08 1.0066952e-05 -8.3608775e-08 1.3221121e-05 1.3033527e-05
9.800668e-06 1.2311309e-05 1.0022433e-05 1.1185188e-05 1.0047777e-05 1.5148595e-05 -1.1209538e-07 -1.2126145e-07
7.7743825e-06 -1.7396526e-06 1.0080152e-05 1.1643254e-05 -7.774622e-08 -7.566505e-08 -8.779643e-08 1.1914196e-05
-2.392134e-06 -4.9864043e-06 1.0021381e-06 1.697281e-05 -1.1146804e-07 -5.884215e-07 9.921885e-06 -1.3609841e-07
-9.550135e-06 5.7104635e-06 -1.211583e-06 1.4059924e-06 5.1209446e-07 2.606575e-05 -7.1201276e-07 9.791901e-06
7.7953655e-06 -4.0581165e-07 4.3301934e-06 6.9762073e-06 2.6439984e-06 6.560898e-06 2.6799949e-06 -1.3175064e-07
00000000: 2dc5 c8b6 f23a 82b6 bdae 0b35 76d1 6136
00000010: e51a 9533 5734 d9b6 f72b 9d33 8005 aab5
00000020: 88d9 e4b6 a7e7 8433 a90c 0db7 337c d133
00000030: 1386 6134 1bc9 8cb5 e3f6 54b4 51b4 5eb5
00000040: 21d4 e7b4 fa42 6633 799b 61b5 4a80 5a33
00000050: e3c3 deb6 6b2f 6733 b944 12b7 20f8 0db7
00000060: b26f e8b6 df64 07b7 6043 d9b6 7c74 f2b6
00000070: 2744 d7b6 d361 0cb7 f1b2 9b33 0396 a833
00000080: 7179 aab6 61ba 12b6 2d6d d9b6 9b56 00b7
00000090: addd 5a33 080b b7b4 dcfc 7533 643a 01b7
000000a0: e578 9334 d835 ac35 c4bc e5b5 e0e4 0fb7
000000b0: b5f2 9a33 4776 3fb5 f95c dab6 b335 bf33
000000c0: cc52 5f36 0e0a 76b6 2a88 84b5 84a2 0433
000000d0: 8fff c1b5 aaa2 61b7 b24a 99b5 2a5d f1b6
000000e0: 941e a2b6 666d 7434 cb3f 39b6 d0bd a7b6
000000f0: 0a47 dbb5 e137 37b6 5ca8 ddb5 d2fd 9f34
00000100: ebb5 1f34 7d99 5a35 496e 6e36 ba8f 2c35
00000110: d33e a6b2 ee73 1836 946d 81b2 1b3e 31b3
00000120: 118f ae36 50e7 36b1 72e4 5c36 a5a9 dfb2
00000130: e72f 08b5 7584 41b6 92e2 03b6 d3ec 2c36
00000140: 39e1 45b6 2582 cab2 c356 33b6 c5fa 4131
00000150: d474 9cb5 416c 25b3 db33 87b5 15ff 8836
00000160: 9b5a 26b6 f4f1 04b6 bf81 3236 729a 6036
00000170: 6e38 1cb6 f25f a136 744a e7b2 6724 cdb2
00000180: bcc0 c0b4 09f2 6736 916e b436 d10b 12b5
00000190: 0e3c a4b0 eb2a 52b6 29f4 35b2 29d7 7a36
000001a0: 6c55 4536 1b2f 6836 8d00 4d36 1f56 9eb6
000001b0: b2a7 24b3 0fd0 6db6 b1f9 b135 2a74 e1b2
000001c0: 370f a535 cbad 4036 7098 c935 acde 37b3
000001d0: e659 f9b5 5721 f7b5 e14c a8b6 4e08 e135
000001e0: 6f66 bfb6 25fe 10b5 0068 43b6 c155 6db5
000001f0: 39c1 01b5 acef dab4 9edb e6b5 cced bbb2
00000200: 46e3 c936 62fa 5c36 dd28 3db5 87cf 1bb7
00000210: 33e4 0fb4 1283 1637 21a7 adb3 ff82 36b6
00000220: 69c2 3537 1410 16b3 942a 9637 a59e 35b4
00000230: 2c46 f534 3abb 1336 3dee 2236 7076 6cb6
00000240: 410b 2f35 340c beb3 af83 71b6 645c 07b3
00000250: c2a6 9636 4ff1 06b4 9905 0637 fc04 9437
00000260: cb21 b536 73ab d736 f474 1537 1f4a 4037
00000270: 74f8 ae36 0c2e a737 9929 ccb3 5290 bbb3
00000280: 8ee4 f135 3f08 c9b6 ab27 8737 e218 cc36
00000290: 4665 58b3 d699 8cb6 7fc3 9ab3 ef14 6137
000002a0: 27e0 0236 003f 2036 dfcb 8036 c15a ce36
000002b0: a194 1db4 3096 d1b2 72aa 4437 c387 3db4
000002c0: cb75 aab6 8569 1237 041e 92b6 966f 98b5
000002d0: 0ce7 e834 38ef 9637 f40a 07b5 0e5e 2b37
000002e0: 9411 bc36 883d bbb4 8f4e a2b5 d601 4735
000002f0: 6626 fdb4 b27f a036 6887 0e36 7dca 0cb5
00000300: 4602 2937 34dd c836 68bf 79b6 5e88 24b7
00000310: 68c8 e3b3 3297 2737 a9a0 f1b3 e931 c135
00000320: 0711 1b37 73f5 cbb3 d129 5837 de4b 20b4
00000330: 7062 80b3 1880 1b36 43ef a435 eced 08b6
00000340: fac1 7735 b6e0 b1b3 4da3 6a35 49c5 a6b3
00000350: 3be5 2837 698c b3b3 48d0 5d37 92aa 5a37
00000360: 8c6d 2437 ab8c 4e37 0626 2837 04a8 3b37
00000370: e092 2837 b826 7e37 16b9 f0b3 1834 02b4
00000380: b86e 0237 027e e9b5 ec1d 2937 6557 4337
00000390: 70f5 a6b3 4d7d a2b3 998a bcb3 15e3 4737
000003a0: 8d88 20b6 e350 a7b6 3481 8635 d560 8e37
000003b0: 3460 efb3 05f4 1db5 2c76 2637 7222 12b4
000003c0: 8439 20b7 829c bf36 ad9d a2b5 88b5 bc35
000003d0: dd76 0935 c6a7 da37 2521 3fb5 e547 2437
000003e0: d7c8 0237 54de d9b4 144c 9136 2a15 ea36
000003f0: 8c6f 3136 af25 dc36 f6d9 3336 5777 0db4
