new_saved_models/v1_data_guitar_audio_d5_g2_lr5.pt (torch, 956665 bytes, 36 tensors)

net.0.weight f4 [64, 3]
0.620113 -0.14887723 0.44011286 0.0017261003 0.5246013 0.48218697 -0.19401923 -0.16834289
-0.12173116 0.430368 -0.28142342 0.6014406 0.36879638 0.55739087 0.16905776 0.06895061
0.25598574 -0.33897308 -0.44040173 -0.5147145 -0.3216959 0.4393189 0.5096337 -0.07897375
-0.31884858 -0.4157888 0.3845563 0.41502863 -0.12494332 -0.31774247 0.19212234 0.42395502
0.34249082 0.4722089 -0.05902945 0.50305444 -0.42979366 -0.0038969456 -0.49397537 0.070490114
-0.41640055 -0.5857672 -0.29686165 0.07106218 -0.54828393 0.40261918 0.5440381 0.09514743
-0.1495771 0.018374274 -0.6335187 0.3318479 0.32604527 -0.33123752 0.10839537 -0.573885
0.01807177 -0.0567795 0.13129705 -0.5937413 0.10141218 -0.41257283 -0.4145516 0.3206708
0.06536856 -0.34987643 0.00077373785 -0.54534125 -0.48283887 -0.4105148 -0.020729657 0.41966867
0.027999498 -0.3987444 -0.50192416 -0.36771068 0.29350656 -0.35460687 -0.15251748 0.31500173
0.00995334 -0.19635934 -0.05078214 0.32174063 -0.13933419 -0.36420882 -0.4809538 -0.03157412
0.101569735 -0.20065439 0.0345416 -0.15099186 0.26365677 -0.30377296 -0.3285989 -0.10049997
0.31531098 0.21286458 -0.059845705 0.19615258 -0.58900476 -0.045845058 0.06474024 0.5260169
-0.0074791308 -0.021780247 0.0077553964 0.11240514 -0.08938594 0.49499106 0.13239072 -0.60516423
-0.28399605 -0.3994794 -0.3534885 0.65017986 -0.4554104 0.44908518 -0.5573645 -0.33362374
-0.41102558 -0.43200418 0.5918082 0.10219963 0.4560716 0.36566854 -0.29162347 -0.44103935
0.54862046 -0.37912846 -0.57391244 -0.32528487 -0.57883763 0.16311204 0.3725359 0.15985842
0.45777094 0.49861264 -0.034260746 -0.38518304 0.42747113 0.331509 0.32213825 -0.116354294
0.15120526 -0.02307465 -0.11922141 0.65607077 -0.2130814 -0.44937205 0.41305974 0.5440516
0.32132614 -0.41440782 0.4087898 -0.59772766 0.20184436 0.031101435 0.54364675 0.32401055
0.13927516 0.4978809 -0.14455871 0.21175545 -0.4046415 -0.44549555 -0.24110784 -0.49522534
-0.5702414 -0.5468849 0.09806582 0.26637766 0.09234358 -0.5200251 0.6093312 0.022029936
0.33510342 -0.18284528 0.15383095 0.44119528 0.55472714 -0.45363018 -0.26667804 0.31913742
-0.4128694 -0.46700543 0.4232517 -0.2637639 0.44744954 0.29053223 -0.50067437 0.42277193
00000000: babf 1e3f 4673 18be 7956 e13e 513e e23a
00000010: 454c 063f 36e1 f63e faac 46be 1462 2cbe
00000020: 304e f9bd 3259 dc3e bb16 90be 03f8 193f
00000030: e1d2 bc3e 2bb1 0e3f 7a1d 2d3e fa35 8d3d
00000040: 9010 833e e18d adbe 567c e1be 54c4 03bf
00000050: 53b5 a4be 68ee e03e 5b77 023f fdbc a1bd
00000060: 1f40 a3be 45e2 d4be 90e4 c43e a27e d43e
00000070: 49e2 ffbd 24af a2be b8bb 443e a210 d93e
00000080: f55a af3e 5dc5 f13e ddc8 71bd 2dc8 003f
00000090: ea0d dcbe e663 7fbb 57ea fcbe 1f5d 903d
000000a0: 7432 d5be d7f4 15bf 40fe 97be 0c89 913d
000000b0: 565c 0cbf 1a24 ce3e 1546 0b3f a8dc c23d
000000c0: bd2a 19be a585 963c 482e 22bf f8e7 a93e
000000d0: 68ef a63e f797 a9be 64fe dd3d 21ea 12bf
000000e0: 400b 943c 9f91 68bd bc72 063e 6eff 17bf
000000f0: 30b1 cf3d bf3c d3be 1b40 d4be f72e a43e
00000100: f4df 853d 0123 b3be abd4 4a3a 7c9b 0bbf
00000110: a836 f7be ff2e d2be 3ed1 a9bc d0de d63e
00000120: 345f e53c 3a28 ccbe 1a7e 00bf 9344 bcbe
00000130: 7e46 963e 088f b5be 8b2d 1cbe e847 a13e
00000140: 5513 233c 6c12 49be ef00 50bd 30bb a43e
00000150: 9fad 0ebe 9479 babe 943f f6be dd53 01bd
00000160: cb03 d03d 5878 4dbe 7e7b 0d3d 9c9d 1abe
00000170: 05fe 863e 2188 9bbe 1d3e a8be eed2 cdbd
00000180: 7170 a13e 2cf9 593e c520 75bd 39dc 483e
00000190: 04c9 16bf 07c8 3bbd 8896 843d 0ba9 063f
000001a0: 7f13 f5bb 7d6c b2bc fb20 fe3b ab34 e63d
000001b0: fa0f b7bd 786f fd3e 6f91 073e 0bec 1abf
000001c0: ee67 91be 9088 ccbe 72fc b4be 3072 263f
000001d0: 8d2b e9be 7eee e53e 71af 0ebf bbd0 aabe
000001e0: f271 d2be a72f ddbe be80 173f 0a4e d13d
000001f0: 3782 e93e e838 bb3e ac4f 95be e9cf e1be
00000200: 6472 0c3f 201d c2be edeb 12bf bd8b a6be
00000210: b42e 14bf d806 273e 07bd be3e edb1 233e
00000220: f460 ea3e 284a ff3e ff54 0cbd b636 c5be
00000230: 7fdd da3e 8cbb a93e 4eef a43e 294b eebd
00000240: 8dd5 1a3e 0c07 bdbc 5b2a f4bd 41f4 273f
00000250: 0332 5abe 1814 e6be 917c d33e f746 0b3f
00000260: dc84 a43e 432d d4be e64c d13e ae04 19bf
00000270: 4ab0 4e3e 70c8 fe3c 6f2c 0b3f b6e4 a53e
00000280: 269e 0e3e 3fea fe3e 3307 14be 6cd6 583e
00000290: 2c2d cfbe fe17 e4be f9e4 76be 2d8e fdbe
000002a0: 57fb 11bf a600 0cbf bcd6 c83d a762 883e
000002b0: a21e bd3d 5d20 05bf 21fd 1b3f 2078 b43c
000002c0: ad92 ab3e cb3b 3bbe dc85 1d3e 59e4 e13e
000002d0: 9902 0e3f 3742 e8be 068a 88be fb65 a33e
000002e0: 9e63 d3be 561b efbe 72b4 d83e 100c 87be
000002f0: 1b18 e53e a4c0 943e 322c 00bf 9075 d83e

net.0.bias f4 [64]
-0.5211911 0.27992865 0.06811414 0.5610433 0.32603234 0.5634177 -0.07155055 0.15456082
0.38493618 -0.43862098 0.33233672 0.13727412 0.46952498 -0.1900129 -0.11767218 -0.1575046
0.0912943 0.54822123 0.4110809 -0.0065707006 0.1699577 0.5537892 -0.4480397 0.17267926
-0.4416262 0.2608435 -0.432587 0.3386128 0.071321934 -0.3705121 0.42844334 0.13419129
-0.026368532 0.014281704 -0.47626698 -0.47616932 0.5143196 -0.07561525 0.21173827 -0.31144822
-0.09646185 -0.16064994 -0.20949422 0.37298232 -0.0127593605 0.10594411 0.3732077 -0.43865785
-0.509846 -0.35253942 -0.2608548 -0.084552184 -0.041678414 -0.17020197 0.4555977 0.25582266
0.28143972 0.30995598 0.21730137 -0.15770379 -0.06384233 0.1361947 -0.026143227 -0.19525985
00000000: c86c 05bf cf52 8f3e 6d7f 8b3d 89a0 0f3f
00000010: b6ed a63e 243c 103f 1889 92bd 3145 1e3e
00000020: 5b16 c53e ee92 e0be 0a28 aa3e 9691 0c3e
00000030: 9465 f03e be92 42be 1dfe f0bd e348 21be
00000040: 82f8 ba3d 3a58 0c3f 3279 d23e 084f d7bb
00000050: 6409 2e3e 21c5 0d3f 7665 e5be d5d2 303e
00000060: d41c e2be 478d 853e 0b7c ddbe a85e ad3e
00000070: 3c11 923d c3b3 bdbe ed5c db3e 7169 093e
00000080: d202 d8bc cffd 693c 44d9 f3be 77cc f3be
00000090: 73aa 033f 2bdc 9abd ebd1 583e 2476 9fbe
000000a0: ca8d c5bd 6b81 24be a785 56be 8af7 be3e
000000b0: a30c 51bc 3af9 d83d 1415 bf3e c397 e0be
000000c0: 4485 02bf 0c80 b4be c38e 85be b229 adbd
000000d0: fcb6 2abd 6d49 2ebe 1a44 e93e 30fb 823e
000000e0: de18 903e 8db2 9e3e 4084 5e3e 1a7d 21be
000000f0: c4bf 82bd a076 0b3e 522a d6bc 33f2 47be

net.2.weight f4 [64, 64]
-0.11615147 0.116135634 0.05426222 -0.02066836 0.13517874 -0.085488416 0.004369843 -0.022769354
-0.01295849 -0.11673601 0.051645666 -0.1262948 -0.11224383 0.07054042 -0.034216337 0.09619045
-0.048044283 0.046047624 -0.0014539354 0.111626156 -0.04212013 0.07577526 0.08246416 0.0027845823
-0.0045025637 0.0813429 0.11789584 0.06916675 0.033967454 0.06102842 0.061119825 0.09197105
-0.008175779 -0.040293153 0.11158641 -0.059356645 -0.028259272 -0.0012104635 0.042138837 0.14634621
-0.05567306 0.02789319 0.09740246 0.11704242 -0.05189369 -0.07748187 0.042464547 0.21355593
-0.11437602 -0.09185039 0.040140945 -0.07897214 -0.05343481 0.08925315 0.12272891 -0.08371904
0.010306845 0.05220863 0.049973935 0.039494157 0.10031303 0.07621992 -0.13089028 -0.051747307
-0.08241728 0.1271235 0.11336577 0.032655325 0.04732527 0.0495738 0.14185503 0.09789341
-0.04412551 -0.057304624 0.028624717 0.0063548274 0.07198071 -0.033711538 0.1251603 -0.07480995
0.12401579 -0.11259442 0.0979238 0.05083561 0.066097 -0.116282456 0.123378135 0.028698456
0.10396364 0.024089377 -0.00851436 0.08085383 0.10034963 0.05524233 -0.004549744 0.10784408
0.06894861 0.0915894 -0.017858967 0.101806745 -0.012173991 0.15810153 -0.12297179 0.03463804
0.0711803 0.034849674 0.04997647 0.08635442 -0.014967442 0.0033429272 -0.02784943 0.02392893
0.0971594 0.09638112 0.061792053 0.20291683 0.11182439 -0.036740806 0.032995827 0.07849464
-0.09637822 0.035818614 0.09922717 0.012224758 0.07625958 -0.092369534 0.111185715 0.103736185
0.11010876 -0.030603081 0.04497419 -0.021745183 0.09824908 -0.06158703 0.106661215 0.029412847
0.101774484 -0.134053 0.035405386 0.108555004 -0.046607163 0.09679494 -0.80710125 -0.05793392
-0.015466984 -0.008969081 0.09454044 0.037371133 -0.1351854 -0.014050782 -0.07031129 0.029343111
0.06448947 -0.040064085 0.03805612 -0.08530504 -0.088298805 0.032157764 -0.03798259 0.09126335
-0.07946515 -0.08052157 0.10494149 -0.09386103 0.093887545 0.1769566 -0.10002283 -0.08774836
0.09179193 0.11496129 0.04793137 0.11124475 0.0301209 0.07150734 -0.01734076 -0.16939309
0.06290963 0.018435568 0.18751533 0.0502358 0.027409537 -0.0799373 -0.021427572 -0.06644137
-0.08955626 -0.12145388 0.06518946 -0.079217926 0.0954334 0.10301412 0.035976 -0.062099736
-0.109712504 -0.005530192 -0.1182608 -0.07301745 0.03918481 0.0113665555 0.061566647 0.094069414
-0.015620566 -0.09077068 0.03780613 0.059771847 0.09853527 -0.11145846 -0.09937056 0.10213528
0.06374408 -0.02464613 0.07195306 0.0058844765 0.026089255 -0.10654991 0.13247521 0.15523043
0.1203669 -0.08281635 0.007102236 0.10687004 0.046748705 -0.1018175 -0.117852725 -0.036706574
-0.008671722 0.13135315 0.09584096 -0.013215944 0.09484098 0.10026425 -0.012432872 0.13839994
0.05830887 0.025109503 -0.29887468 -0.13208674 0.16169752 -0.019792458 0.07178696 -0.01448243
-0.069625884 0.1480167 0.030226821 0.01922831 -0.1272627 0.08370875 0.14480548 0.027598195
-0.14318962 -0.02015172 0.05405347 -0.10022562 -0.018425707 -0.08311149 -0.16327436 -0.007438613
00000000: d2e0 edbd 85d8 ed3d 1042 5e3d b150 a9bc
00000010: 4c6c 0a3e 8d14 afbd e630 8f3b cc86 babc
00000020: d94f 54bc 4a13 efbd 688a 533d 6d53 01be
00000030: 18e0 e5bd 7f77 903d 6e26 0cbd 80ff c43d
00000040: 15ca 44bd 6f9c 3c3d fa91 beba 419c e43d
00000050: 2886 2cbd 0f30 9b3d f8e2 a83d 8a7d 363b
00000060: 3e8a 93bb 1b97 a63d 6073 f13d 4ca7 8d3d
00000070: 7521 0b3d f0f8 793d c858 7a3d 515b bc3d
00000080: b4f3 05bc 6f0a 25bd 6a87 e43d f41f 73bd
00000090: fd7f e7bc 6aa8 9eba c699 2c3d c8db 153e
000000a0: 6f09 64bd 4280 e43c f17a c73d f0b3 ef3d
000000b0: 7a8e 54bd d1ae 9ebd 4eef 2d3d 68ae 5a3e
000000c0: fa3d eabd 0f1c bcbd d56a 243d 25bc a1bd
000000d0: 76de 5abd 5bca b63d 4b59 fb3d e374 abbd
000000e0: 0bde 283c b7d8 553d 78b1 4c3d a0c4 213d
000000f0: eb70 cd3d 3019 9c3d 1a08 06be fcf4 53bd
00000100: 64ca a8bd aa2c 023e 502c e83d 97c1 053d
00000110: 24d8 413d e60d 4b3d 7242 113e 577c c83d
00000120: f3bc 34bd 41b8 6abd 627e ea3c 283c d03b
00000130: 9f6a 933d 1c15 0abd 062a 003e f635 99bd
00000140: fefb fd3d e797 e6bd 468c c83d 0039 503d
00000150: dd5d 873d 7f25 eebd adad fc3d 0619 eb3c
00000160: e4ea d43d 1657 c53c d07f 0bbc b196 a53d
00000170: 1b84 cd3d c845 623d 0516 95bb 5bdd dc3d
00000180: ee34 8d3d 3993 bb3d f84c 92bc 0e80 d03d
00000190: 6b75 47bc 5ee5 213e a2d8 fbbd 9ee0 0d3d
000001a0: fac6 913d 88be 0e3d 21b4 4c3d 96da b03d
000001b0: 003a 75bc 0315 5b3b 7d24 e4bc 9a06 c43c
000001c0: 82fb c63d 7763 c53d aa19 7d3d 6ec9 4f3e
000001d0: 3004 e53d 877d 16bd a226 073d ccc1 a03d
000001e0: f261 c5bd 8ab6 123d 9d37 cb3d 5a4a 483c
000001f0: fc2d 9c3d 3d2c bdbd 56b5 e33d a373 d43d
00000200: b480 e13d 50b3 fabc db36 383d f422 b2bc
00000210: d036 c93d ae42 7cbd 3271 da3d 36f3 f03c
00000220: 246f d03d 3145 09be 3d05 113d 1652 de3d
00000230: 27e7 3ebd 6d3c c63d 309e 4ebf 1e4c 6dbd
00000240: 3c69 7dbc 0df3 12bc 6b9e c13d 7912 193d
00000250: 0b6e 0abe 4035 66bc 5eff 8fbd f760 f03c
00000260: 0e13 843d 3d1a 24bd bce0 1b3d 69b4 aebd
00000270: 01d6 b4bd dcb7 033d a293 1bbd 47e8 ba3d
00000280: a0be a2bd 7ee8 a4bd 90eb d63d 363a c0bd
00000290: 1d48 c03d 1c34 353e c5d8 ccbd 6ab5 b3bd
000002a0: 68fd bb3d d370 eb3d af53 443d 4ad4 e33d
000002b0: 1bc0 f63c 7172 923d 360e 8ebc 6275 2dbe
000002c0: c4d6 803d 3006 973c 0504 403e 0ec4 4d3d
000002d0: f789 e03c 2bb6 a3bd e088 afbc 6a12 88bd
000002e0: 4669 b7bd d0bc f8bd 0d82 853d 023d a2bd
000002f0: 9672 c33d 11f9 d23d 925b 133d 4b5c 7ebd
00000300: f3b0 e0bd 9d36 b5bb b832 f2bd 2c8a 95bd
00000310: 4080 203d ca3a 3a3c 4f2d 7c3d 77a7 c03d
00000320: 67ed 7fbc fae5 b9bd 9ada 1a3d 53d3 743d
00000330: dccc c93d 5544 e4bd cb82 cbbd 4d2c d13d
00000340: 428c 823d aee6 c9bc 205c 933d 91d2 c03b
00000350: 22b9 d53c d736 dabd 95a7 073e baf4 1e3e
00000360: ec82 f63d 9e9b a9bd e0b9 e83b aede da3d
00000370: 927b 3f3d b285 d0bd c55c f1bd a259 16bd
00000380: d713 0ebc 7181 063e 4448 c43d b087 58bc
00000390: fd3b c23d 5857 cd3d 3fb3 4bbc b7b8 0d3e
000003a0: 48d5 6e3d 72b2 cd3c 1a06 99be bf41 07be
000003b0: 0994 253e cb23 a2bc 0b05 933d b747 6dbc
000003c0: 0498 8ebd b191 173e 3d9e f73c b084 9d3c
000003d0: 2751 02be 7e6f ab3d e347 143e 9c15 e23c
000003e0: 4da0 12be 3815 a5bc 2c67 5d3d 1743 cdbd
000003f0: 82f1 96bc 5b36 aabd 6531 27be 9cbf f3bb

net.2.bias f4 [64]
0.10617891 0.06624384 -0.05060306 -0.060916185 -0.080884784 0.043488156 0.06518365 -0.019599076
-0.09085432 0.09251939 -0.02733095 -0.039268594 0.053813547 0.068708494 0.072602265 -0.09251271
-0.102002576 0.06459534 0.08083894 -0.004447225 -0.09679926 0.10144054 0.081315935 -0.08144096
-0.046514604 0.053797726 0.06669561 -0.093824156 0.027756333 -0.055931672 -0.0018988649 -0.027082084
-0.09431877 0.13026942 -0.08843379 -0.04969317 0.067526504 0.1353532 -0.07516505 0.016612094
-0.010951251 -0.0032443113 -0.022906847 -0.041791376 0.11729989 0.09784178 -0.09807066 0.05374886
0.13634017 -0.12083692 -0.053806774 -0.083985284 -0.082333475 0.0764714 0.10161755 -0.09006295
0.10462585 -0.09523853 0.028507242 -0.016818503 -0.08377719 -0.01757588 -0.04744541 0.069437906
00000000: 5474 d93d daaa 873d 2745 4fbd 4083 79bd
00000010: eca6 a5bd a320 323d 017f 853d 3e8e a0bc
00000020: d411 babd ce7a bd3d 28e5 dfbc 1bd8 20bd
00000030: 986b 5c3d 0ab7 8c3d 7fb0 943d 4e77 bdbd
00000040: bae6 d0bd 904a 843d e38e a53d 07ba 91bb
00000050: b13e c6bd 0fc0 cf3d f888 a63d 85ca a6bd
00000060: 1986 3ebd 015b 5c3d b597 883d e126 c0bd
00000070: 4061 e33c 9c18 65bd 55e3 f8ba 3fdb ddbc
00000080: 332a c1bd 5965 053e c61c b5bd 118b 4bbd
00000090: 564b 8a3d 079a 0a3e 22f0 99bd 1616 883c
000000a0: e06c 33bc 839e 54bb 24a7 bbbc 6f2d 2bbd
000000b0: ed3a f03d 4561 c83d 45d9 c8bd c427 5c3d
000000c0: c29c 0b3e 5979 f7bd 7e64 5cbd 7a00 acbd
000000d0: 749e a8bd 0a9d 9c3d dd1c d03d ed72 b8bd
000000e0: 1446 d63d 6b0c c3bd 0588 e93c f5c6 89bc
000000f0: 6093 abbd 4bfb 8fbc 1e56 42bd 7635 8e3d

net.4.weight f4 [128, 64]
-0.07616897 -0.02722798 0.030811764 0.27147332 0.060959935 0.13240837 -0.018042414 -0.102231316
0.013840603 -0.0090512885 0.0035360542 -0.021530263 -0.0047735753 -0.09151012 -0.09274259 0.007871529
-0.02753984 -0.04167651 -0.06615387 0.06804772 -0.21824795 0.022952104 0.0611797 0.092741795
-0.12625964 0.034143534 0.18011376 0.022278594 -0.047374353 0.10691372 -0.018146465 0.12443287
0.086855374 -0.10434461 -0.08001053 0.043594453 0.01185365 0.03735137 -0.055318154 -0.24144082
-0.025013134 0.112479925 -0.18772686 0.05956237 -0.07017406 0.04317494 -0.0461563 -0.10957964
0.11876265 0.7078494 -0.15975635 0.066700764 -0.057250373 0.07989079 -0.04684538 -0.17275342
-0.035045926 0.099045955 0.30387685 0.086906336 0.019325554 0.08285713 0.1466579 0.055720255
-0.087619685 0.05366719 0.11266531 0.06425487 0.10335566 -0.06485057 -0.10245742 0.039048117
0.029823285 0.16499655 0.09754193 0.10814092 0.14125279 0.075577416 -0.12851931 0.0019138269
0.09118376 -0.08052751 -0.06506726 0.03603254 0.004524101 -0.10225571 -0.0932505 -0.07954405
0.114849314 -0.1075307 0.033591405 -0.071532086 -0.016744405 0.0825999 0.029130505 0.001062524
-0.4721875 -0.030193297 0.04374908 0.036275577 -0.14228626 0.06732897 -0.047863964 -0.023612328
-0.11366981 0.065649666 0.17825429 -0.13499185 -0.04207855 -0.05797272 0.15679047 -0.030162694
0.025743358 -0.26858288 0.105326496 0.07440741 -0.08809601 -0.13681966 0.060994476 0.19845372
0.0026763584 -0.08974463 -0.08897619 -0.022321073 -0.100449756 0.033792842 0.15409318 0.12628898
-0.08544324 -0.07657785 -0.04650133 0.46906307 -0.068311274 0.24671787 -0.03297635 0.0009077488
0.0072425427 0.11733884 -0.0034637507 -0.043208707 0.14588408 -0.17722085 0.14107741 0.016064378
0.07831654 0.10515909 0.027964592 0.09468663 -0.09299018 -0.21692806 0.059118833 -0.02616047
-0.075081944 -0.17574944 -0.006052379 0.088192426 -0.036749244 -0.024627954 0.09737033 -0.01403745
0.007992713 0.111355744 -0.052338198 0.07765614 0.010028136 0.10742823 0.058895737 0.13655984
0.084490344 0.34020185 -0.0020470535 -0.16245976 -0.08416183 0.048575483 0.10589568 0.20745999
0.07127526 0.06674284 0.31255978 0.08694584 -0.11009353 0.051306054 -0.11623089 0.0065397476
0.10389904 -0.069537066 -0.05664864 -0.035215322 -0.10458034 0.11474341 -0.04161785 0.12608263
-0.08968526 0.03394687 0.021461224 -0.13687685 0.015743464 0.07691775 0.009132246 0.13617493
0.0316659 -0.018716972 -0.08811447 0.023403862 0.13784203 0.09453857 0.07620307 0.12117299
-0.093204305 0.088932306 0.054565497 -0.0066939546 0.071168326 -0.10541293 -0.021485003 0.11750787
0.064962395 -0.0003221258 0.054430675 -0.06824464 -0.04903066 0.0477811 0.017439445 0.09798276
0.118616104 -0.011447354 0.11581756 0.1250272 0.15441638 -0.13143136 -0.09428917 0.03128366
-0.02806954 0.09182895 0.15002665 -0.072133124 0.07935763 -0.040339634 0.107659236 0.025856676
-0.006537758 0.0110217435 0.07346145 0.09119895 -0.019969538 -0.109129645 -0.019347258 -0.05401322
0.11694095 -0.08553078 -0.08387498 -0.028338373 0.09806852 0.07457026 0.09049686 0.0998165
00000000: 7afe 9bbd 360d dfbc f468 fc3c 8dfe 8a3e
00000010: 20b1 793d 0f96 073e afcd 93bc a75e d1bd
00000020: b2c3 623c db4b 14bc 25bd 673b 3c60 b0bc
00000030: a76b 9cbb a869 bbbd d4ef bdbd 96f7 003c
00000040: 3b9b e1bc fdb4 2abd ae7b 87bd 9a5c 8b3d
00000050: 647c 5fbe 0d06 bc3c 9197 7a3d 69ef bd3d
00000060: 354a 01be 17da 0b3d be6f 383e 9981 b63c
00000070: 9c0b 42bd 95f5 da3d e5a7 94bc a9d6 fe3d
00000080: 3be1 b13d a0b2 d5bd 90dc a3bd 1990 323d
00000090: d035 423c c0fd 183d 4a95 62bd 433c 77be
000000a0: 58e8 ccbc e05b e63d 783b 40be acf7 733d
000000b0: 6bb7 8fbd 35d8 303d 630e 3dbd 4a6b e0bd
000000c0: d539 f33d 9e35 353f 2b97 23be 699a 883d
000000d0: 5e7f 6abd c89d a33d f1e0 3fbd 46e6 30be
000000e0: 518c 0fbd 9bd8 ca3d bf95 9b3e f3fb b13d
000000f0: a050 9e3c 00b1 a93d 7d2d 163e ec3a 643d
00000100: f371 b3bd 21d2 5b3d 12bd e63d 0f98 833d
00000110: 22ac d33d 60d0 84bd 32d5 d1bd ebf0 1f3d
00000120: f64f f43c dbf4 283e 10c4 c73d fd78 dd3d
00000130: 92a4 103e 55c8 9a3d 919a 03be 60d9 fa3a
00000140: 8dbe ba3d 9beb a4bd fc41 85bd db96 133d
00000150: e93e 943b 716b d1bd 1efa bebd fee7 a2bd
00000160: 1e36 eb3d 0e39 dcbd 2497 093d 6a7f 92bd
00000170: 902b 89bc 232a a93d 19a3 ee3c 6444 8b3a
00000180: 8fc2 f1be ef57 f7bc 3c32 333d b395 143d
00000190: 7db3 11be c5e3 893d 010d 44bd a46e c1bc
000001a0: b8cb e8bd 5573 863d 4b88 363e 4e3b 0abe
000001b0: 8f5a 2cbd ce74 6dbd ae8d 203e c117 f7bc
000001c0: bce3 d23c b283 89be 6bb5 d73d ea62 983d
000001d0: ae6b b4bd 741a 0cbe 58d5 793d 7437 4b3e
000001e0: d865 2f3b 08cc b7bd 2639 b6bd afda b6bc
000001f0: 9ab8 cdbd 5d6a 0a3d 9aca 1d3e e651 013e
00000200: defc aebd d9d4 9cbd 2e78 3ebd 0929 f03e
00000210: c8e6 8bbd 9ca3 7c3e 3612 07bd fef5 6d3a
00000220: da52 ed3b 594f f03d 1800 63bb 9dfb 30bd
00000230: a362 153e 6279 35be 9976 103e 7199 833c
00000240: 6c64 a03d a65d d73d 0016 e53c 10eb c13d
00000250: a371 bebd 6422 5ebe 9726 723d 7b4e d6bc
00000260: 90c4 99bd a9f7 33be 0953 c6bb 3b9e b43d
00000270: 6086 16bd 90c0 c9bc 186a c73d 55fd 65bc
00000280: def3 023c 7b0e e43d 9460 56bd 2f0a 9f3d
00000290: 0d4d 243c 5503 dc3d a83c 713d 58d6 0b3e
000002a0: 4609 ad3d f02e ae3e dc27 06bb da5b 26be
000002b0: 0a5d acbd 16f7 463d d6df d83d 6470 543e
000002c0: c3f8 913d 78b0 883d d607 a03e a910 b23d
000002d0: b778 e1bd 4c26 523d 760a eebd 614b d63b
000002e0: 05c9 d43d 7369 8ebd 6808 68bd f13d 10bd
000002f0: 382e d6bd 98fe ea3d 7b77 2abd ce1b 013e
00000300: e8ac b7bd e00b 0b3d 73cf af3c 7229 0cbe
00000310: 70f8 803c 0e87 9d3d 6a9f 153c 7171 0b3e
00000320: 1ab4 013d 5654 99bc 5c75 b4bd 75b9 bf3c
00000330: 7626 0d3e 709d c13d 5b10 9c3d 8b29 f83d
00000340: e6e1 bebd 2422 b63d 1280 5f3d f658 dbbb
00000350: b3c0 913d bce2 d7bd 5101 b0bc f7a7 f03d
00000360: 010b 853d fee2 a8b9 b3f2 5e3d d9c3 8bbd
00000370: 60d4 48bd 1db6 433d 2bdd 8e3c 2fab c83d
00000380: 00ed f23d af8d 3bbc c231 ed3d 2107 003e
00000390: 541f 1e3e f195 06be ae1a c1bd 4c23 003d
000003a0: 18f2 e5bc d110 bc3d 96a0 193e 88ba 93bd
000003b0: 4186 a23d 2c3b 25bd 727c dc3d 61d1 d33c
000003c0: b03a d6bb 8b94 343c f572 963d 84c6 ba3d
000003d0: 2897 a3bc 5d7f dfbd 247e 9ebc f73c 5dbd
000003e0: bd7e ef3d c32a afbd a5c6 abbd e025 e8bc
000003f0: 26d8 c83d 4bb8 983d 6b56 b93d 986c cc3d

net.4.bias f4 [128]
-0.081041545 0.01587701 -0.05574229 -0.07338564 -0.059932165 0.035538767 0.102472626 0.050007198
0.12920018 0.08320852 0.0638896 0.004235895 0.103408 -0.049480584 0.020136192 -0.12663417
-0.047675963 -0.0072216094 -0.09522659 0.0039947634 -0.029864123 -0.00612507 -0.09106204 -0.11129333
0.08056033 -0.053416878 0.07094727 0.042177938 -0.11638304 0.03154525 -0.005124982 -0.051953644
-0.0069293864 -0.03594422 0.07741215 0.11132473 -0.1007773 -0.08109559 0.0030063163 -0.080670044
0.082944155 0.032652773 -0.11757447 0.004638329 0.026916314 -0.09250916 0.12428366 -0.040402517
0.07246461 0.034339093 0.07683704 0.06991542 0.08977386 -0.03103371 0.08340013 0.08845498
-0.094597176 -0.0051349583 0.0035187907 -0.11650607 0.07493241 0.11518622 0.118796974 -0.10851827
0.12969835 0.04769892 0.034763128 -0.07278937 0.06972877 0.09381249 -0.005741582 -0.12074694
0.079186596 0.043039516 0.026521832 -0.0830301 -0.056509994 0.0049195313 0.025415316 0.019111007
0.068004005 -0.03447679 0.072444215 -0.042013995 -0.0040149665 0.028986916 -0.105921924 0.070299156
-0.1083529 0.084289245 0.014890093 -0.06565345 -0.121381104 -0.09363208 -0.031796753 0.0870772
0.007111364 0.02289068 0.051547423 -0.037395645 -0.07540357 -0.1187323 0.050968785 0.11735356
0.029191764 0.04142762 -0.020368166 0.061652612 -0.050002005 0.12349942 0.004127631 0.011829552
0.10925297 0.03411428 0.07304083 -0.07671474 0.07556336 -0.03545121 0.011533334 0.07175641
0.084782675 0.0043007494 -0.096608385 0.033968262 0.041683234 -0.012136355 0.07624347 0.14142375
00000000: 1cf9 a5bd 8110 823c 0752 64bd 364b 96bd
00000010: 6e7b 75bd 1991 113d 2bdd d13d 59d4 4c3d
00000020: 0d4d 043e 3b69 aa3d 8dd8 823d 43cd 8a3b
00000030: 93c7 d33d 27ac 4abd a8f4 a43c 63ac 01be
00000040: df47 43bd 40a3 ecbb 2906 c3bd 81e6 823b
00000050: 9ba5 f4bc d0b4 c8bb bc7e babd c2ed e3bd
00000060: d0fc a43d a8cb 5abd cd4c 913d c6c2 2c3d
00000070: 3b5a eebd 9835 013d 77ef a7bb 58cd 54bd
00000080: e80f e3bb 3f3a 13bd 438a 9e3d 38fe e33d
00000090: 5464 cebd 7215 a6bd 9e05 453b 5636 a5bd
000000a0: a0de a93d eabe 053d e2ca f0bd 20fd 973b
000000b0: 9a7f dc3c 7175 bdbd 6e88 fe3d 1c7d 25bd
000000c0: 5368 943d 26a7 0c3d bd5c 9d3d d12f 8f3d
000000d0: 5cdb b73d 683a febc b0cd aa3d e227 b53d
000000e0: 2abc c1bd 2743 a8bb 839b 663b bc9a eebd
000000f0: 2a76 993d c1e6 eb3d d44b f33d d43e debd
00000100: a5cf 043e f15f 433d c863 0e3d 9812 95bd
00000110: f5cd 8e3d c320 c03d e123 bcbb 2c4a f7bd
00000120: 952c a23d 344a 303d 5044 d93c af0b aabd
00000130: 0677 67bd 0534 a13b c833 d03c b08e 9c3c
00000140: af45 8b3d 8937 0dbd a25d 943d de16 2cbd
00000150: fb8f 83bb f875 ed3c 98ed d8bd 01f9 8f3d
00000160: 20e8 ddbd d79f ac3d 94f5 733c 5175 86bd
00000170: a896 f8bd 2dc2 bfbd 503d 02bd 8855 b23d
00000180: 7206 e93b 3c85 bb3c 6423 533d 2d2c 19bd
00000190: 306d 9abd ec29 f3bd a5c4 503d 1057 f03d
000001a0: 9123 ef3c 02b0 293d 24db a6bc 7387 7c3d
000001b0: e7ce 4cbd 44ed fc3d 1441 873b bdd0 413c
000001c0: 05c0 df3d 6abb 0b3d 6e96 953d 9e1c 9dbd
000001d0: f6c0 9a3d 4a35 11bd 4ff6 3c3c 06f5 923d
000001e0: 8aa2 ad3d 4ded 8c3b 9eda c5bd 4e22 0b3d
000001f0: 0abc 2a3d 90d7 46bc 8925 9c3d 63d1 103e

net.6.weight f4 [192, 128]
-0.051206015 -0.05889947 -0.06450348 -0.06810558 0.0059369146 -0.055348594 0.08385456 -0.049695883
-0.045902986 0.08295991 0.015765697 0.043497328 0.06321924 -0.087299645 0.08820646 0.06076743
-0.043587387 -0.022331033 -0.029452147 0.067324445 0.07495595 0.074642144 0.040909007 -0.06977948
0.07773947 -0.041648652 0.088687524 0.08351796 0.07403564 0.058222335 -0.017310327 0.04346538
0.09671352 0.08011003 0.077783376 0.042605676 -0.084559895 0.04045989 0.07837901 0.05107494
0.015855761 0.09623692 0.047499698 -0.05281532 0.069481164 -0.007267431 0.00011102667 -0.07267472
-0.08754252 -0.07985276 0.019125687 0.11364858 0.02653639 -0.048222438 -0.061754473 -0.028351003
0.005308427 -0.0097117005 0.053476166 0.051858064 -0.038410433 -0.035321873 -0.049646795 0.008629146
0.05617601 -0.06692693 -0.07669078 0.047167867 -0.013179319 0.08525863 0.061755676 0.021552054
-0.024821281 0.09043175 0.0062127616 -0.03630817 0.062248033 -0.010852845 0.022746295 -0.04656061
-0.031411372 -0.2782549 -0.047505714 0.072221205 -1.2466977 -0.07606743 0.056193594 -0.08746021
0.0040369304 -0.06833224 0.0021156839 -0.058193058 -0.0052418876 0.054196183 -0.06591129 0.010534958
0.111110575 0.067431994 0.08027175 -0.032476626 -0.023802757 -0.041901615 0.06983276 -0.04540583
0.0370941 -0.14181969 0.0626723 0.0020974034 0.08266531 -0.019220684 0.089350305 0.05591799
0.057085853 0.07744565 0.042240594 0.006046074 -0.03772488 -0.0541556 -0.007620562 0.066974305
-0.030093895 0.06068824 -0.04334886 0.03226813 -0.0040366594 -0.0037683602 0.06418966 0.043692194
0.06107168 0.0611597 0.071269974 -0.039769683 -0.050459303 0.031219266 0.04800231 -0.012609978
0.06944403 -0.01284598 -0.08558006 0.08371891 -0.07444704 0.04761204 -0.08554299 0.008320293
-0.07998192 -0.036367375 -0.007273229 -0.039939966 -0.07166981 0.01082663 -0.05595896 -0.01057456
0.06846027 -0.011708183 -0.0773214 -0.041001443 -0.010974923 0.01945392 0.0047246087 0.009612611
0.02683022 -0.02535546 -0.05894284 0.026869837 0.007695456 -0.060108263 0.053570993 -0.043387473
0.014846733 -0.0817088 -0.07155089 -0.057928905 0.0703587 -0.08385249 0.04332319 0.031367708
0.035231058 0.08483931 -0.053450506 0.06687759 -0.019242175 -0.042202536 0.019617103 0.023603689
0.0026406054 -0.08636192 0.02790919 -0.065345734 -0.061905067 0.07883223 -0.05967746 -0.06578456
0.048462983 -0.04430292 0.040044077 -0.027754668 0.011926989 -0.017648192 0.00451849 -0.082901195
0.04299852 -0.040950827 -0.026804952 -0.07032313 0.020936962 -0.06304291 0.08646023 0.08765195
-0.059588045 0.08039012 0.06803593 -0.05814162 0.06380289 0.05558105 0.01479171 0.022037333
-0.0021677073 0.05010553 -0.05851 -0.039466392 0.01785841 0.0065224566 0.0037352117 -0.07774661
0.00068011315 -0.051853932 -0.022011781 -0.021272516 -0.023380795 -0.013502344 -0.06702295 0.017363016
0.023083935 0.022281563 -0.025939751 -0.036094382 -0.014904116 -0.030192336 0.034817312 -0.07305557
-0.0150278695 -0.038901202 0.057431128 -0.027094355 0.063310415 -0.023253595 0.0804909 -0.037001982
0.030754892 0.071418226 -0.08431853 0.01667227 -0.015888445 -0.048005007 0.07671944 0.024271853
00000000: 66bd 51bd 9240 71bd 671a 84bd f07a 8bbd
00000010: 738a c23b 35b5 62bd f1bb ab3d e98d 4bbd
00000020: c504 3cbd e3e6 a93d 1027 813c 412a 323d
00000030: 1779 813d 28ca b2bd 97a5 b43d 45e7 783d
00000040: b088 32bd 92ef b6bc a145 f1bc 66e1 893d
00000050: 8182 993d fbdd 983d 3490 273d 8be8 8ebd
00000060: df35 9f3d c797 2abd cea1 b53d 770b ab3d
00000070: ff9f 973d 8b7a 6e3d 63ce 8dbc c108 323d
00000080: bd11 c63d ba10 a43d e44c 9f3d 4a83 2e3d
00000090: bd2d adbd 45b9 253d 2d85 a03d f533 513d
000000a0: f1e3 813c dd17 c53d 0b8f 423d e154 58bd
000000b0: 244c 8e3d a123 eebb fdd6 e838 7cd6 94bd
000000c0: 7e49 b3bd d889 a3bd 79ad 9c3c 96c0 e83d
000000d0: d862 d93c e484 45bd 42f2 7cbd 5d40 e8bc
000000e0: 50f2 ad3b d31d 1fbc d309 5b3d 1f69 543d
000000f0: 4254 1dbd abad 10bd 705a 4bbd 4361 0d3c
00000100: d118 663d fc10 89bd 0e10 9dbd 1833 413d
00000110: 12ee 57bc 149c ae3d 85f3 7c3d ef8d b03c
00000120: 0056 cbbc 4834 b93d 6c94 cb3b e0b7 14bd
00000130: cbf7 7e3d 22d0 31bc 7056 ba3c 57b6 3ebd
00000140: 36a9 00bd 6d77 8ebe 5a95 42bd b6e8 933d
00000150: ca93 9fbf 3ec9 9bbd 412b 663d 571e b3bd
00000160: 3a48 843b c6f1 8bbd 49a7 0a3b d85b 6ebd
00000170: 24c4 abbb d1fc 5d3d 80fc 86bd d19a 2c3c
00000180: f18d e33d c919 8a3d 8465 a43d 3606 05bd
00000190: 00fe c2bc 07a1 2bbd 7a04 8f3d 77fb 39bd
000001a0: fcef 173d 2e39 11be 565a 803d 9774 093b
000001b0: 6e4c a93d b274 9dbc 4bfd b63d 430a 653d
000001c0: dbd2 693d d39b 9e3d 7904 2d3d 251e c63b
000001d0: 6785 1abd 43d2 5dbd e8b5 f9bb d329 893d
000001e0: 7987 f6bc 3b94 783d 938e 31bd 962b 043d
000001f0: f445 84bb 98f6 76bb de75 833d 96f6 323d
00000200: 4c26 7a3d 9882 7a3d fef5 913d 89e5 22bd
00000210: 6aae 4ebd 8cbf ff3c 129e 443d 159a 4ebc
00000220: ac38 8e3d f277 52bc 9944 afbd d274 ab3d
00000230: b177 98bd d804 433d 2a31 afbd d751 083c
00000240: 90cd a3bd f5f5 14bd 4454 eebb 1798 23bd
00000250: 9fc7 92bd 2d62 313c 3935 65bd eb40 2dbc
00000260: e634 8c3d aed3 3fbc af5a 9ebd 21f1 27bd
00000270: 2ad0 33bc d45d 9f3c e4d0 9a3b 367e 1d3c
00000280: 0dcb db3c 41b6 cfbc 0c6e 71bd 221e dc3c
00000290: 2a2a fc3b 1534 76bd 426d 5b3d 10b7 31bd
000002a0: b63f 733c f156 a7bd 4689 92bd dc46 6dbd
000002b0: 3918 903d dbba abbd a873 313d 6d7b 003d
000002c0: 714e 103d 3bc0 ad3d ebee 5abd 1ef7 883d
000002d0: c4a1 9dbc 91dc 2cbd 0cb4 a03c 865c c13c
000002e0: 020e 2d3b 85de b0bd d0a1 e43c fcd3 85bd
000002f0: 2b90 7dbd cb72 a13d 5a70 74bd 0eba 86bd
00000300: 1f81 463d fb76 35bd 4205 243d c25d e3bc
00000310: 6b69 433c f192 90bc d70f 943b 1ac8 a9bd
00000320: 371f 303d 0ebc 27bd 0f96 dbbc 9305 90bd
00000330: fe83 ab3c a41c 81bd 1012 b13d de82 b33d
00000340: 9812 74bd 93a3 a43d 6c56 8b3d e825 6ebd
00000350: 17ab 823d f5a8 633d ee58 723c a387 b43c
00000360: 1810 0ebb 753b 4d3d 2fa8 6fbd 83a7 21bd
00000370: cd4b 923c 55ba d53b 74ca 743b 9d39 9fbd
00000380: 9f49 323a ca64 54bd 0d52 b4bc b343 aebc
00000390: 1589 bfbc ef38 5dbc 5443 89bd e23c 8e3c
000003a0: 851a bd3c d387 b63c 9a7f d4bc b4d7 13bd
000003b0: 6530 74bc eb55 f7bc 999c 0e3d 299e 95bd
000003c0: 7437 76bc de56 1fbd e73c 6b3d fbf4 ddbc
000003d0: e4a8 813d 537e bebc 6ad8 a43d 648f 17bd
000003e0: aff1 fb3c b843 923d 32af acbd 4994 883c
000003f0: 7c28 82bc e6a0 44bd 151f 9d3d c4d5 c63c

net.6.bias f4 [192]
0.011881553 -0.051984597 -0.049231164 0.06778547 -0.011241964 0.008809554 -0.064240426 0.009851481
0.054300904 0.050024047 0.052476786 0.067340754 -0.08249138 0.0074760295 0.040939733 0.07922432
-0.004252289 0.026254226 0.051984955 -0.017836273 -0.03847076 0.04148185 -0.0016107577 0.058379527
-0.024825541 -0.08776658 0.044310927 0.057938583 -0.0861969 -0.016313042 -0.021890176 0.01959603
0.009895591 0.085217655 -0.06578562 0.011931902 0.057769038 0.08831175 0.021135071 -0.06603437
-0.03321846 0.022274071 0.057876714 0.06376879 -0.03924783 -0.045394357 0.05081432 0.0736966
0.053133313 -0.009291146 0.087766126 0.016028468 0.040287144 0.024573123 0.0776366 -0.0024377077
0.07242875 0.068572134 0.0067848004 0.012957453 0.04037991 0.0037585082 -0.0780087 -0.035224598
0.026745923 -0.078278966 0.036701042 0.033496812 0.08732599 -0.0014066393 -0.044740666 0.07816099
-0.052224405 0.0046067936 0.09324181 0.04258007 -0.077919915 -0.02259535 -0.049524277 0.04274725
0.028721755 0.052772075 0.057105523 -0.00583376 -0.07104108 -0.009395568 -0.08404533 -0.026965005
0.03109028 -0.028966425 -0.07573428 -0.07125656 0.044014473 0.009755962 0.07168579 -0.013466685
0.07051732 0.07183043 0.048246685 -0.047675766 -0.0671132 0.025492202 -0.040826008 -0.04803943
0.00169824 -0.028539086 0.036324788 -0.06983172 0.06046814 -0.028727438 -0.027279953 0.03765626
0.030180363 -0.06094389 -0.05010444 0.042897876 0.047321387 0.08464151 -0.024650447 0.03398622
-0.07324324 0.001934582 0.06689328 0.056846045 -0.037004743 -0.035689887 -0.026277581 -0.040540643
-0.045755733 0.051064923 -0.05672687 -0.059244234 -0.05071843 0.068041615 -0.040177315 -0.030468777
0.014865313 0.05389814 0.079145454 0.071266904 -0.047706135 -0.05042715 -0.033706047 -0.05174313
-0.06552934 0.08893386 -0.046841312 -0.067112304 0.055046823 0.052256677 0.007061646 -0.0006276276
-0.007893189 0.017882409 -0.007971995 -0.068951316 -0.040994048 -0.06861519 0.007442591 0.08620039
-0.037854437 0.03683921 0.020307483 -0.042094912 -0.0042767483 -0.010606043 -0.007853819 -0.030395517
-0.005810337 -0.035513885 0.089119494 -0.087077454 -0.0143823 -0.057724357 0.066421494 0.07903129
0.06856217 -0.006616506 -0.039329324 0.072432995 -0.055772018 0.08494944 -0.048234843 0.04836048
0.048286457 0.047340594 0.08908063 -0.05092823 -0.044480003 0.07321047 -0.0015801697 -0.08143249
00000000: d8aa 423c cded 54bd 9ea6 49bd 1cd3 8a3d
00000010: 3730 38bc f355 103c 7c90 83bd 1b68 213c
00000020: a06a 5e3d 04e6 4c3d e6f1 563d f3e9 893d
00000030: 3ef1 a8bd 7bf9 f43b 6cb0 273d 5c40 a23d
00000040: c956 8bbb 1a13 d73c 2dee 543d 601d 92bc
00000050: 8493 1dbd dfe8 293d 0f20 d3ba 5f1f 6f3d
00000060: ef5e cbbc f7be b3bd 607f 353d 0251 6d3d
00000070: 0088 b0bd eea2 85bc 0753 b3bc da87 a03c
00000080: 1e21 223c 9886 ae3d 9cba 86bd 067e 433c
00000090: 3a9f 6c3d cadc b43d 7523 ad3c 073d 87bd
000000a0: 1410 08bd 1d78 b63c 2210 6d3d 3699 823d
000000b0: 55c2 20bd 6fef 39bd ad22 503d 3eee 963d
000000c0: 51a2 593d e439 18bc babe b33d 224e 833c
000000d0: 2204 253d 934d c93c f0ff 9e3d f3c1 1fbb
000000e0: 8655 943d 8c6f 8c3d 0853 de3b 7f4b 543c
000000f0: 6865 253d 4e51 763b 06c3 9fbd ab47 10bd
00000100: 441a db3c b950 a0bd d553 163d f433 093d
00000110: f8d7 b23d fc5e b8ba fd41 37bd de12 a03d
00000120: 42e9 55bd 96f4 963b 90f5 be3d 7168 2e3d
00000130: 7a94 9fbd e219 b9bc f8d9 4abd be17 2f3d
00000140: e349 eb3c 8827 583d 7be7 693d 2029 bfbb
00000150: fc7d 91bd deef 19bc f51f acbd b7e5 dcbc
00000160: 0bb1 fe3c ff4a edbc 931a 9bbd f6ee 91bd
00000170: 8548 343d 78d7 1f3c 00d0 923d 5fa3 5cbc
00000180: 626b 903d d51b 933d 519e 453d aa47 43bd
00000190: a572 89bd 06d5 d03c 2c39 27bd fec4 44bd
000001a0: 7b97 de3a cdca e9bc 4dc9 143d ef03 8fbd
000001b0: 71ad 773d ce55 ebbc 357a dfbc 733d 1a3d
000001c0: cf3c f73c 4da0 79bd 503a 4dbd afb5 2f3d
000001d0: 12d4 413d 8758 ad3d bcef c9bc 2235 0b3d
000001e0: 8d00 96bd cd91 fd3a 58ff 883d 66d7 683d
000001f0: 4992 17bd 8f2f 12bd 1544 d7bc f20d 26bd
00000200: 5d6a 3bbd 7429 513d 6f5a 68bd 15aa 72bd
00000210: 21be 4fbd 6759 8b3d f890 24bd a899 f9bc
00000220: a48d 733c 4cc4 5c3d 0317 a23d 62f4 913d
00000230: 8267 43bd b38c 4ebd 5a0f 0abd 9bf0 53bd
00000240: 3f34 86bd f522 b63d addc 3fbd 2d72 89bd
00000250: c778 613d 190b 563d 6165 e73b 6087 24ba
00000260: 6f52 01bc 217e 923c f89c 02bc 5936 8dbd
00000270: 60e9 27bd 1f86 8cbd fae0 f33b d489 b03d
00000280: 410d 1bbd b6e4 163d e15b a63c b76b 2cbd
00000290: f723 8cbb f8c4 2dbc 4ead 00bc 0500 f9bc
000002a0: a464 bebb 0277 11bd 4884 b63d aa55 b2bd
000002b0: bda3 6bbc 6070 6cbd fe07 883d 28db a13d
000002c0: 536a 8c3d 46cf d8bb c917 21bd c057 943d
000002d0: 3371 64bd f9f9 ad3d e691 45bd a415 463d
000002e0: 05c8 453d 36e8 413d e86f b63d 1f9a 50bd
000002f0: aa30 36bd 5fef 953d b21d cfba 14c6 a6bd

net.8.weight f4 [192, 192]
0.010600802 -0.049337752 0.06731601 0.06687256 -0.035371087 -0.019643156 -0.035098724 0.04495857
0.028427709 0.028042268 -0.004929649 -0.0023232645 -0.0477862 -0.046509307 -0.06914463 -0.026243564
0.048353855 -0.06650602 -0.05123678 -0.026374947 0.06769165 -0.0021636763 0.0028869377 0.06552842
0.06192553 -0.010694711 0.036170363 -0.022900205 0.010816669 -0.032590397 0.0045154025 -0.05441999
0.039540444 -0.008357633 -0.04536232 -0.022302415 0.035868306 0.05994043 -0.024473907 0.04950896
0.06569512 -0.0031381766 -0.026304098 0.060752325 -0.032936484 -0.015087499 -0.059066486 0.0009409529
0.018153805 0.016806932 -0.030308198 0.06902215 -0.037324794 -0.017069716 -0.027035156 -0.030689629
0.0028274935 -0.0048358147 0.01334949 -0.02184567 -0.022330085 -0.020275278 0.028472444 0.058639448
-0.07197806 -0.0023783646 -0.04854083 -0.04562014 -0.01322673 0.017425248 0.0104841795 -0.013978011
0.071315326 -0.0017492041 -0.041080482 0.040048044 -0.0026675456 0.002224132 -0.0014611217 -0.004361877
0.030211732 -0.04139739 0.017971406 0.059860643 -0.012796272 0.005643434 -0.071314014 0.026551962
-0.057305623 -0.023772832 0.03267375 -0.015632996 0.029333415 0.042430103 -0.06456338 0.052184667
0.03740801 -0.013004624 0.01101493 0.06345897 0.042404518 0.054230515 -0.056759473 -0.04584798
-0.0010667085 -0.06048598 0.046829734 -0.033365183 -0.028346838 -0.011688396 -0.025895204 0.015284978
0.023312274 0.03957479 -0.02728356 -0.065114975 -0.027385002 -0.067839526 -0.039121296 0.0031924325
0.009945606 -0.014245289 0.027185211 0.038471043 0.056486536 -0.04242976 -0.039160945 0.0043492597
-0.040693842 -0.03946947 -0.00612222 -0.055242807 0.06315744 0.057939682 -0.03258712 0.017607342
0.05847668 -0.047534384 0.005965175 -0.022893498 -0.05825143 -0.06308594 0.020426415 0.05336974
0.045581505 -0.008963371 0.013587258 0.025470765 0.03186117 0.007249709 0.06685701 -0.07044474
0.030872002 0.058485802 -0.008909135 0.018960241 0.003477719 -0.057302702 -0.021727677 -0.004111529
0.04415263 0.033842485 0.050288405 0.06576283 0.008641674 -0.068822525 -0.046116404 0.03324601
-0.0015578257 0.008849082 -0.068428874 -0.031519994 -0.050601497 -0.0509068 0.022148266 0.029967265
-0.063927576 -0.021712184 -0.02989314 0.009352996 -0.013933347 0.0054225274 -0.005652648 0.0415337
-0.028560514 -0.058632813 -0.026005536 -0.06014896 0.039012253 -0.018098181 -0.053134605 -0.044063143
-0.013001612 0.011148211 0.043136608 0.09205787 0.014207982 -0.024271594 0.0622462 -0.044107538
0.0047553773 0.027306326 0.019077633 -0.03837136 -0.015418361 -0.01632494 -0.044677716 0.03755351
-0.033444073 -0.188488 -0.0020559838 -0.006576697 -0.10858117 0.015768597 -0.041533127 -0.01645343
0.0997899 0.012931844 -0.010544155 -0.034937385 -0.019664017 -0.0614266 0.021260794 0.00012952555
-0.0625727 0.021511473 0.023976797 0.062182102 -0.031979144 0.0118536195 0.11547029 0.017501593
-0.009380109 -0.034955703 0.011895212 0.053028215 0.05035018 -0.012193119 -0.3331413 -0.055627137
0.03163285 -0.025910964 0.07028165 0.014453764 0.14649728 0.031420298 -0.08727701 0.06460054
-0.022687102 -0.06855228 0.016870657 0.07066746 0.02394 0.030714184 -0.004324152 -0.016988948
00000000: fcae 2d3c 6216 4abd fadc 893d 7bf4 883d
00000010: 46e1 10bd afea a0bc aec3 0fbd 7a26 383d
00000020: 3ae1 e83c e6b8 e53c e588 a1bb e941 18bb
00000030: 76bb 43bd 8b80 3ebd b39b 8dbd befc d6bc
00000040: b10e 463d 4f34 88bd a8dd 51bd 4610 d8bc
00000050: eba1 8a3d 77cc 0dbb c732 3d3b c433 863d
00000060: a0a5 7d3d de38 2fbc 6027 143d 3699 bbbc
00000070: 6638 313c 827d 05bd f1f5 933b 7fe7 5ebd
00000080: 29f5 213d 74ee 08bc d7cd 39bd 8eb3 b6bc
00000090: a5ea 123d 1984 753d 817d c8bc e8c9 4a3d
000000a0: 2a8b 863d dea9 4dbb b17b d7bc 6ed7 783d
000000b0: 68e8 06bd 8f31 77bc b3ef 71bd 48aa 763a
000000c0: 4ab7 943c b1ae 893c e648 f8bc 7c5b 8d3d
000000d0: e2e1 18bd cad5 8bbc d578 ddbc d168 fbbc
000000e0: 784d 393b c175 9ebb d2b7 5a3c b1f5 b2bc
000000f0: 95ed b6bc 5718 a6bc 0b3f e93c eb2f 703d
00000100: 3c69 93bd 56de 1bbb c0d2 46bd 2fdc 3abd
00000110: edb4 58bc 65bf 8e3c d6c5 2b3c 0704 65bc
00000120: c50d 923d 8d45 e5ba 0244 28bd 6b09 243d
00000130: fdd1 2ebb bec2 113b 1c83 bfba 14ee 8ebb
00000140: 987e f73c 4f90 29bd c538 933c 6f30 753d
00000150: 74a7 51bc 8eec b83b 150d 92bd 8083 d93c
00000160: 4db9 6abd 3ebf c2bc e9d4 053d c510 80bc
00000170: a14c f03c 30cb 2d3d ce39 84bd 97bf 553d
00000180: 2439 193d 5911 55bc f777 343c c7f6 813d
00000190: 5cb0 2d3d d120 5e3d 9f7c 68bd 17cb 3bbd
000001a0: ccd0 8bba 26c0 77bd 89d0 3f3d eea9 08bd
000001b0: a137 e8bc b080 3fbc 2e22 d4bc d86d 7a3c
000001c0: 62f9 be3c 2d19 223d c681 dfbc 005b 85bd
000001d0: 8356 e0bc 73ef 8abd a73d 20bd 2138 513b
000001e0: e5f2 223c 1365 69bc 85b3 de3c d093 1d3d
000001f0: 6d5e 673d d4ca 2dbd 3a67 20bd 3c84 8e3b
00000200: 96ae 26bd bdaa 21bd e79c c8bb 4846 62bd
00000210: b058 813d 2952 6d3d 127a 05bd 463d 903c
00000220: 3e85 6f3d 6ab3 42bd 8477 c33b 258b bbbc
00000230: 0d99 6ebd 3433 81bd 4c55 a73c 3a9a 5a3d
00000240: acb3 3a3d 1adb 12bc 179d 5e3c 11a8 d03c
00000250: dc80 023d f88e ed3b 54ec 883d 5545 90bd
00000260: 48e7 fc3c cf8e 6f3d 9ff7 11bc 8252 9b3c
00000270: 71ea 633b 3db6 6abd 3efe b1bc 01ba 86bb
00000280: 63d9 343d 6b9e 0a3d 37fb 4d3d aaae 863d
00000290: cf95 0d3c d3f2 8cbd 8ee4 3cbd f82c 083d
000002a0: f52f ccba bdfb 103c 7024 8cbd 1c1b 01bd
000002b0: 8443 4fbd a683 50bd 4870 b53c e97d f53c
000002c0: 76ec 82bd c0dd b1bc 75e2 f4bc 4f3d 193c
000002d0: b148 64bc 75af b13b d939 b9bb 3e1f 2a3d
000002e0: bdf7 e9bc f628 70bd 9009 d5bc c25e 76bd
000002f0: 50cb 1f3d a342 94bc aca3 59bd 8e7b 34bd
00000300: b704 55bc fca6 363c 03b0 303d d688 bc3d
00000310: 99c8 683c 39d5 c6bc dff5 7e3d 1baa 34bd
00000320: ffd2 9b3b 84b1 df3c b248 9c3c 4a2b 1dbd
00000330: 4b9d 7cbc e1bb 85bc fbff 36bd b6d1 193d
00000340: a7fc 08bd 0003 41be afbd 06bb 5581 d7bb
00000350: ce5f debd 252d 813c a41e 2abd 58c9 86bc
00000360: a65e cc3d 16e0 533c 64c1 2cbc 811a 0fbd
00000370: 6f16 a1bc 759a 7bbd 1e2b ae3c 40d1 0739
00000380: 1e26 80bd d438 b03c fd6a c43c a9b2 7e3d
00000390: 90fc 02bd af35 423c b07b ec3d 805f 8f3c
000003a0: 07af 19bc b62d 0fbd 23e4 423c 1d34 593d
000003b0: fe3b 4e3d a6c5 47bc 7f91 aabe 48d9 63bd
000003c0: 7391 013d 3b43 d4bc d3ef 8f3d 7bcf 6c3c
000003d0: 6203 163e 92b2 003d 4abe b2bd 4a4d 843d
000003e0: 4dda b9bc 2365 8cbd 5534 8a3c 1aba 903d
000003f0: d21d c43c 509c fb3c 9eb1 8dbb 682c 8bbc

net.8.bias f4 [192]
0.032996554 0.060787257 0.041141484 0.0003546738 0.070200615 -0.0065463646 0.010815052 -0.01676435
-0.06998248 0.0493314 -0.017675223 -0.056418974 -0.017551728 0.025878316 0.0033883404 -0.03535399
-0.0640001 -0.046720944 -0.015988693 0.063555375 0.073683426 -0.0599261 -0.024273422 0.045633532
0.032626983 0.014536049 0.017455503 -0.060615093 -0.03773752 0.0075774924 -0.043400813 -0.028801281
-0.0058790497 0.016221294 0.042509448 -0.03421031 -0.06999409 0.008879287 0.0622298 -0.017912405
0.014011753 0.06857641 0.07103947 0.059447747 -0.055361073 0.033412687 -0.04999188 0.030205783
-0.014663259 -0.03730969 -0.0091847135 -0.047161005 -0.06524624 0.067653224 0.02663608 -0.048740853
0.0046621053 0.03136537 -0.038192865 0.0040618572 -0.073642954 -0.0036289543 0.0008194142 0.037190344
0.050203215 -0.04776908 -0.02833437 -0.018137554 0.033619385 -0.06370205 -0.06734959 0.003320524
-0.027727313 -0.021616386 -0.0032247303 0.062188696 0.014950778 0.010804378 0.049869154 0.033458706
0.02131066 0.034494195 0.038405795 -0.03773162 -0.012390301 -0.06594298 0.07199728 0.024623772
-0.037150007 0.06452792 -0.061280344 0.030904414 -0.06955452 -0.04876538 0.0533625 -0.06614264
-0.025965234 -0.042589914 -0.100244954 0.05954845 0.06442802 0.034368027 0.04941587 0.015566971
-0.0036515757 0.061727647 -0.012671637 0.043092605 0.003006274 -0.03904691 -0.025802938 0.07012319
0.020015443 -0.0068578697 -0.02106398 0.05979619 0.059739344 -0.06774471 0.03846443 -0.005185651
0.0076519325 -0.04825669 0.07430257 -0.049398296 0.045324847 0.0033316282 0.068156965 -0.04005367
-0.03537561 0.06291733 0.056814026 0.023867555 0.0076182135 -0.035298206 -0.0002689529 -0.08897713
-0.04274109 0.01144084 0.05117036 0.033957176 0.05427547 0.018805994 -0.040507633 0.02144024
-0.06056892 0.073570736 -0.052064277 0.026276099 -0.054410663 0.016010478 -0.029300828 0.005236332
0.06246769 -0.019191608 -0.043170713 0.04693097 0.05599044 -0.028349753 0.02991142 -0.014896048
0.012260316 0.045178078 -0.0016192578 0.044502176 -0.053752977 -0.029637884 -0.014836328 0.04250248
-0.031983726 -0.021751272 0.025227277 -0.012925191 -0.06525919 0.01860552 0.015430008 -0.06731463
0.057153355 0.009551122 0.04839692 0.02917948 0.0674633 -0.03959912 -0.019756673 -0.025285982
0.0331201 0.04512349 0.04623483 0.0029918968 0.035133537 0.050110243 0.07034838 0.041540902
00000000: 6527 073d 0ffc 783d f983 283d 83f3 b939
00000010: 57c5 8f3d e382 d6bb 9e31 313c 6455 89bc
00000020: f952 8fbd b90f 4a3d a1cb 90bc 9517 67bd
00000030: a4c8 8fbc c3fe d33c eb0e 5e3b 58cf 10bd
00000040: 7c12 83bd 765e 3fbd b8fa 82bc 5229 823d
00000050: 56e7 963d 1275 75bd 0ed9 c6bc 3aea 3a3d
00000060: dfa3 053d 9c28 6e3c d8fe 8e3c 8847 78bd
00000070: a892 1abd 9d4c f83b 0dc5 31bd aaf0 ebbc
00000080: 0ba5 c0bb 85e2 843c 631e 2e3d 1c20 0cbd
00000090: 1059 8fbd 6e7a 113c ade4 7e3d 09bd 92bc
000000a0: 8d91 653c ca71 8c3d 247d 913d 7b7f 733d
000000b0: 4bc2 62bd bedb 083d 49c4 4cbd 1e72 f73c
000000c0: 2a3e 70bc 0cd2 18bd 7b7b 16bc e62b 41bd
000000d0: d29f 85bd c68d 8a3d e933 da3c 7da4 47bd
000000e0: 93c4 983b f978 003d 1f70 1cbd 5419 853b
000000f0: 1ed2 96bd c0d3 6dbb f5cd 563a e754 183d
00000100: e3a1 4d3d 83a9 43bd 7b1d e8bc 3595 94bc
00000110: 7bb4 093d 3876 82bd 95ee 89bd 269d 593b
00000120: 6424 e3bc d914 b1bc ff55 53bb 93b9 7e3d
00000130: 1cf4 743c d904 313c 9943 4c3d ff0b 093d
00000140: b193 ae3c c949 0d3d 654f 1d3d 798c 1abd
00000150: b000 4bbc 1d0d 87bd 4f73 933d cbb7 c93c
00000160: 9b2a 18bd 3727 843d 1901 7bbd 412b fd3c
00000170: 9a72 8ebd 35be 47bd a392 5a3d cb75 87bd
00000180: 0bb5 d4bc c372 2ebd 3a4d cdbd 13e9 733d
00000190: d6f2 833d 7dc5 0c3d 4c68 4a3d 9c0c 7f3c
000001a0: 464f 6fbb 21d6 7c3d b39c 4fbc df81 303d
000001b0: e904 453b a7ef 1fbd af60 d3bc bf9c 8f3d
000001c0: 6df7 a33c fbb7 e0bb 5e8e acbc daec 743d
000001d0: 3eb1 743d bdbd 8abd e18c 1d3d 65ec a9bb
000001e0: 10bd fa3b cfa8 45bd f22b 983d de55 4abd
000001f0: 8ca6 393d 7257 5a3b e195 8b3d 510f 24bd
00000200: 04e6 10bd cdda 803d d3b5 683d e485 c33c
00000210: 35a2 f93b da94 10bd 3f02 8db9 a439 b6bd
00000220: 4811 2fbd 5c72 3b3c 0398 513d ae16 0b3d
00000230: f54f 5e3d 070f 9a3c 55eb 25bd 71a3 af3c
00000240: 1e17 78bd 41ac 963d 5a41 55bd f940 d73c
00000250: b7dd 5ebd 6828 833c 4a08 f0bc 8995 ab3b
00000260: 1fde 7f3d b837 9dbc c6d3 30bd b03a 403d
00000270: 3b56 653d be3d e8bc cb08 f53c 8e0e 74bc
00000280: 7edf 483c a60c 393d 473d d4ba ea47 363d
00000290: 152c 5cbd 26cb f2bc 1214 73bc 1517 2e3d
000002a0: 5e01 03bd b92f b2bc 6fa9 ce3c 2ec4 53bc
000002b0: 9ca6 85bd 9a6a 983c 25ce 7c3c 41dc 89bd
000002c0: a319 6a3d 4f7c 1c3c d93b 463d ce09 ef3c
000002d0: 332a 8a3d b032 22bd bfd8 a1bc 8c24 cfbc
000002e0: f1a8 073d 69d3 383d bc60 3d3d b313 443b
000002f0: 2fe8 0f3d 6640 4d3d d012 903d cb26 2a3d
