new_saved_models/v1_data_guitar_audio_d5_g2_lr55.pt (torch, 920633 bytes, 36 tensors)

net.0.weight f4 [64, 3]
00000000: 94a4 94be 99ac e53e 3020 233e c660 ef3e
00000010: 421e d13e 3591 9ebd 8f23 f6be dba2 a3bd
00000020: 59e5 1abe 9bf8 52bb bf3c fb3d 27ea cd3e
00000030: 51fd d33d 1ee2 11bf d7ce 893e e122 8ebe
00000040: fa78 1abd dd77 0f3f d1e1 7f3d 685f c4be
00000050: 7a15 ab3d 116d 153f fbf2 14bf c492 41be
00000060: 4a67 103f 68e8 03bf 7fdd a53e 1b16 c2bb
00000070: 119a 183f f37c f1be 918a 48be 91a6 d13e
00000080: 6687 153f 58ae 623e e50c 64be afff 64bd
00000090: 05bf fe3e bbb0 023f a221 27bf acc8 053f
000000a0: 8ad4 e5be 247f cc3e 2e8a be3e 0ab5 afbe
000000b0: ad58 b83e fd86 db3e f424 b63c 2f9c dd3e
000000c0: c6d8 4abe 561a cd3d dea4 18bf a5bc 88bd
000000d0: baaa 11bf baef 513e ad95 c4bd 76ba 05bf
000000e0: 3ad7 633e 5173 8dbd 5b6a 0dbe 5204 0ebf
000000f0: 6c83 c3bd 3ba4 f53e 02b7 103f 7c48 1a3f
00000100: 2e20 d63e ed6c b7bd 8db4 a8be 34ad e73e
00000110: 1632 18bf 6020 d03e af0d d4bd d966 30be
00000120: 68d5 28bf 0109 0d3d ed44 1e3f f2ae a4bc
00000130: 267a 0abe 466c 9ebe ebf3 8d3e 73b0 debd
00000140: 51fd f53e 0e6f 07be c83a 183d 6238 323e
00000150: 1abf adbc 9b34 eebe d6ae a8be 4c9a 363e
00000160: d7ad aabe 7c47 0abf 5961 f2bd e9e7 34bd
00000170: 5dd2 d63c 1d3b 13bf dba4 3b3e bc72 3b3e
00000180: 52bd a63e 10b0 d33e 92e0 f0bd d4bb c83c
00000190: 5c33 fabe 00ea 24be 8a3f d2be 7f54 f93e
000001a0: 3489 4abf f548 8dbe 260f aa3e 38e3 de3e
000001b0: 22d5 a1be fc45 d83e 4509 113f b159 f9be
000001c0: a9b5 febe 80c4 06bf 00d3 063f 4661 b73d
000001d0: 5bc0 f1bd d614 91bd 9f8f cdbe 5a4d 4b3e
000001e0: 6a9f 59bd 12d8 df3d 9734 7bbe 42b1 c73e
000001f0: 10a2 cebe 8d8e edbe fbb3 333c a882 bdbc
00000200: 8b25 b5be 5be7 063f 2bee 673e a20b 56be
00000210: 3f88 a03e 94a0 863d 9836 99be 2d3c b63e
00000220: cf0b b13e ebe4 ba3e 9cf4 41bd 69b0 cebd
00000230: f2a5 09bf 75da 10be 8497 b9bb b918 88be
00000240: b948 83be 3425 d1be ecde 0abf d7b4 613e
00000250: 8dfc cabe 7ace debe e8c9 553e 87ad fc3d
00000260: 1f7b 023f 6826 b3be f24d 0dbd eb89 bb3e
00000270: bd05 ca3e bce1 b9be 91a8 eabe 769e c8be
00000280: e571 17be f368 a5be 430f cb3d 9ef3 c9be
00000290: b52f 773d 8202 353d c9db 8ebe dde0 10bf
000002a0: ff96 a63d fc22 f4be a6ca ccbe b207 dfbe
000002b0: f2fb 0c3f cfd6 b2bd da76 023f 985e 64be
000002c0: 4fbd ecbc 1a37 eabe 3577 01bf c69a 123f
000002d0: cdc8 d93e 054f 1cbf 65be 13bf e053 cd3e
000002e0: 483e 21be c739 15bf 8c2f a1be 2fba ccbd
000002f0: 1805 1d3e 913b 623e 960b 033d 9bc1 923e
-0.29031813 0.44858244 0.15930247 0.4675352 0.40843397 -0.0774254 -0.48074004 -0.079900466
-0.15126552 -0.0032191637 0.12267446 0.40217707 0.10351051 -0.5698565 0.2691562 -0.27760985
-0.03771303 0.5604227 0.062471215 -0.3835404 0.08353706 0.5836955 -0.5818326 -0.18903643
0.56407607 -0.515265 0.3239555 -0.0059230453 0.59610087 -0.4716564 -0.19584109 0.40947393
0.58409727 0.2213682 -0.22270544 -0.0559079 0.4975511 0.5105092 -0.65285695 0.52259326
-0.44888717 0.3994075 0.37214798 -0.3431781 0.36005154 0.42876425 0.022234417 0.4328322
-0.19809255 0.10014789 -0.5962657 -0.06676606 -0.56901133 0.20501605 -0.09598861 -0.5223764
0.22250071 -0.069067605 -0.13810103 -0.5547534 -0.09546551 0.4797686 0.5652925 0.6026685
0.41821426 -0.08956323 -0.3295025 0.4524933 -0.59451425 0.406497 -0.103541724 -0.17226733
-0.6595063 0.034432415 0.6182392 -0.020102952 -0.13523158 -0.3094198 0.27725157 -0.10873499
0.48044828 -0.13225958 0.037165433 0.17404321 -0.021209288 -0.4652451 -0.3294589 0.17832297
-0.33335754 -0.54015326 -0.11834974 -0.04416648 0.026223356 -0.57512075 0.18324606 0.18305486
0.32566315 0.41345263 -0.117615834 0.024503626 -0.4886731 -0.16104889 -0.410641 0.48697278
-0.79115605 -0.27594724 0.33214682 0.4353273 -0.3160792 0.42240894 0.5665477 -0.48701242
-0.4974797 -0.52643585 0.5266571 0.089541 -0.11804267 -0.07084052 -0.40148637 0.19853726
-0.053130545 0.10929884 -0.2453178 0.39002424 -0.4035802 -0.4639782 0.010968204 -0.02313359
-0.35380206 0.5269677 0.22649448 -0.20902875 0.31353948 0.065735966 -0.29924464 0.35592785
0.34579322 0.36502776 -0.04735242 -0.10092241 -0.5376884 -0.14145835 -0.005663814 -0.26581362
-0.2564142 -0.40848696 -0.542464 0.22041641 -0.39645806 -0.43516904 0.20877802 0.12337785
0.5096912 -0.3499024 -0.034498163 0.3662866 0.39457503 -0.36305034 -0.4583173 -0.39183396
-0.14789541 -0.32306632 0.0991502 -0.39443678 0.06034823 0.044191845 -0.27902058 -0.56593114
0.08134269 -0.4768294 -0.39998358 -0.4356056 0.5507194 -0.08732378 0.50962603 -0.2230171
-0.028898863 -0.45745164 -0.5057252 0.57267416 0.4253601 -0.61058074 -0.57712394 0.40103054
-0.15746415 -0.58291286 -0.31481588 -0.09996449 0.15333974 0.22093035 0.03199347 0.28663334

net.0.bias f4 [64]
00000000: 0367 0c3f cc3a 31be 81de 27bc 697c 023f
00000010: 7575 7d3e ff19 2a3e 1b75 a43e 425b dabe
00000020: 6203 f23d 0444 983e 50f2 473e c7ed 2abd
00000030: 2e2c 82be cf5a 053e 2ac5 fdbc 9fbb 7e3d
00000040: 34c3 f33e 6211 02be d02b ebbe 555e c4be
00000050: 1a5a cfbc a22d 6c3e 1cea 213b 5c9a 053f
00000060: d010 c7bd d39e 803d da78 f33e 4f25 bcbe
00000070: 661b 0dbe f404 e23e 1692 603e 4e1f 053f
00000080: caaa 023f f430 453d 866a febe c784 c8bd
00000090: a6c5 34be 32dc 83be b224 003f 2a20 013f
000000a0: ea6e 11bf 9797 ea3e 5ad1 be3e 7bcd 133e
000000b0: 3d33 113e 02e1 103f 4aa1 5fbd 61a5 a53d
000000c0: c5f0 a63e 9a2b 55be 8705 afbe 3a59 a9be
000000d0: 2ed7 713e c88a aebd 4550 0d3d 2934 9cbe
000000e0: f321 ee3e 64d1 b93e 7837 9dbe 2097 b23e
000000f0: 2103 03bf ed86 18bf 3bf5 be3e 6555 063f
0.54844683 -0.17307585 -0.01024592 0.50971085 0.24751838 0.16611479 0.32120594 -0.4264775
0.118170515 0.29739392 0.19526029 -0.04173067 -0.2542433 0.13022922 -0.030977804 0.06219065
0.47609866 -0.12701944 -0.45931864 -0.3835322 -0.025311518 0.23064283 0.002470619 0.5218866
-0.097200036 0.06280293 0.4755314 -0.36747214 -0.13779983 0.44144404 0.21930727 0.5200089
0.51041853 0.04814239 -0.49690646 -0.0979095 -0.17653522 -0.25753933 0.5005599 0.50439703
-0.56809866 0.4581878 0.37269098 0.14433853 0.14179702 0.56593335 -0.054597177 0.08088184
0.32605568 -0.20817414 -0.34183905 -0.33075887 0.23617241 -0.08522564 0.03450038 -0.30508545
0.46510276 0.36292565 -0.30706382 0.34880924 -0.5117665 -0.5958088 0.3729647 0.5247405

net.2.weight f4 [64, 64]
00000000: 8c23 b43d 38cc 163f 02f0 183d 2490 75bd
00000010: 136f bfbc f3f5 d83d 4c72 9e3c ba25 e03d
00000020: 5ff0 0a3b fd91 263d eee7 263b fc7d a7bd
00000030: 1210 f23d 970a 513d d4d1 86bd 7d17 36bd
00000040: 20d6 d93d 9d17 dcbf e0b6 f9bb 8e88 d9bd
00000050: 7f64 1bbd 19cc b2bd 3ecc 09be 5a5f 25bb
00000060: f7b0 423d c1f7 79bf 4803 64bd 5033 c83d
00000070: e846 1bbd e528 f0be 19c0 b33c 77ff e0bd
00000080: fdb2 763d 42f8 fa3d 382c 98be c02c 6dbd
00000090: 6007 ca3d ac4f a0bd e8fd 7ebd 2e4d a33d
000000a0: 28c8 f8bc 449c b43e 3569 1b3d bfeb 66be
000000b0: 3af0 3dbf ee0b 76bd 50ec 4cbc 4340 733d
000000c0: 9b80 41bd 7a40 da3d 1f0c a1bd 98a7 edbd
000000d0: 0c49 95bd 62b2 89bc aa77 873e a4f4 e6bd
000000e0: cc84 05bf 2935 e23d 28cf bd3d bf87 5e3d
000000f0: 2065 44bc b817 a1bc 620a a3bd f140 a0bd
00000100: 907e edbd e630 a8bd 7840 58bd 76d6 b9bd
00000110: a0d3 c5bc 8497 823d 32e4 f2bd 7e59 eb3d
00000120: f0cd 653d 4865 623d 9057 d93c d25b 873d
00000130: e886 d1bc 361c ebbd 8c6d 873d 003d 5f3b
00000140: e083 99bb ea38 d1bd d633 b1bd c879 f53c
00000150: c8cd 893d 688e 8fbc 7883 ed3c 80e9 c53a
00000160: c431 073d 5067 3cbc e4a2 733d 6658 ea3d
00000170: 944b e7bd f05e bc3c 0075 6bbb 3c52 85bd
00000180: f8ea 2c3d 8075 85bb 00c8 e93a b6c5 e8bd
00000190: d4cd 8a3d de05 eb3d 0cf3 b9bd e64b f63d
000001a0: 188f c6bd d62b cdbd 000d 78bb 20af c4bb
000001b0: 2e67 d23d 0e04 a5bd fe58 d2bd 90d3 573d
000001c0: 321f b9bd 205b e33b 7a4a f2bd 90e7 d4bd
000001d0: 08ff debd 2cfd 69bd 0064 09b9 a84c bbbc
000001e0: 6ed8 9c3d 4439 f23d 90d5 c93d 0051 82bb
000001f0: d82a ddbd 24fb d8bd 60d1 b13b 78e5 893c
00000200: aecf 87bc 8458 febd 673f 893d f365 383d
00000210: 0560 69bc bf21 9fbc 3db2 b6bd 5f36 93bd
00000220: 23d1 41bd 66b1 d73d 76bc 263d 79b2 2b3e
00000230: 4066 493d 3542 1cbe 4502 a13d 84ea 4e3e
00000240: d45e a5bc 1efc 51bd 1ad1 873d 03f0 c43d
00000250: 24fd bfbd 23e2 943d 30a4 93bd 1795 603d
00000260: 365e 2abe 46e0 453d aeca 94bd 42a5 df3d
00000270: f915 803d ddbb d1bd 9291 86bc 1ea8 4abb
00000280: cd22 9d3d be0e 853d 05b3 f83b b422 25bb
00000290: 18e5 74bc bf13 1a3d efb6 42bd 9ca2 203d
000002a0: c0a3 1e3d 0a2c 05bc f12f 903d 6047 a33d
000002b0: bce3 113e f73c de3d dbe2 dd3d ebcf 843d
000002c0: 49d0 0b3e 51fe 7cbd 2837 fbbc 5fe4 763e
000002d0: da1a 5f3c 92f3 9c3c a7d6 8bbd 93f3 c43d
000002e0: c151 14bd 905d f83d 0861 943c b348 3a3d
000002f0: 6816 023e 0069 4ebe 62ce c5bc d799 9a3d
00000300: 3893 3dbd 0f15 7c3d b056 84bd 9282 22bd
00000310: 5e2d c43b 0fe3 19bd 48ce 6b3c dbc7 af3c
00000320: bf63 b2bd 1060 b1bc c49c a0bb d217 873d
00000330: 1ddb 87bd e2dc b73d b6f3 5cbc a56c 163e
00000340: c10b 80bc 8373 adbd e5fd 1e3e 7d49 113e
00000350: a9b9 133d c319 893d 2d08 b63c 96b6 a63d
00000360: dcf1 313d 08c0 21bd 6b59 a13d c01b 35bd
00000370: f46d 1b3d eda0 79bd 79cb 0f3e a1a1 bebd
00000380: 064b ee3d 4dc8 39be b4e1 96bd 4de9 10bd
00000390: 4608 793d 1663 b63d 0374 81bc 8dac c1bd
000003a0: 98d0 21bd 8bf4 093e c000 abbc 265b d1bd
000003b0: fff5 a93d bf0e f43d d574 613c 6618 b13d
000003c0: 6849 c4bd 3589 703c de24 83bd 2563 483e
000003d0: 6f51 6a3c bfa2 263e 2abe 243e 5027 413d
000003e0: 4ffb 133e 1e1e 2d3d 76df 5e3d 06d0 e8bc
000003f0: 77cf adbc b288 e13d 05d1 b7bd 68b7 afbd
0.087958425 0.58905363 0.037338264 -0.059951916 -0.023368394 0.10593786 0.01934161 0.10944696
0.0021200401 0.04066657 0.002546783 -0.081783265 0.118194714 0.05103549 -0.0658299 -0.044455994
0.10636544 -1.7194706 -0.0076206774 -0.10621749 -0.037937637 -0.08730335 -0.13456818 -0.0025233836
0.047532048 -0.9764367 -0.05566719 0.09775412 -0.03790942 -0.469062 0.021942185 -0.10986226
0.06022929 0.12254383 -0.29721236 -0.057904005 0.09864688 -0.07827696 -0.062253863 0.07973705
-0.03036888 0.3527547 0.03794213 -0.22550867 -0.7419468 -0.06006997 -0.012507513 0.059387457
-0.04724179 0.10656829 -0.0786364 -0.116042316 -0.07289323 -0.016808692 0.26458484 -0.1127713
-0.52155757 0.11045296 0.092680275 0.054328676 -0.011987001 -0.01966463 -0.07960965 -0.078248866
-0.115964055 -0.08212452 -0.052795857 -0.09074108 -0.024148762 0.063765556 -0.11859931 0.11491679
0.0561046 0.05527237 0.02653101 0.0660931 -0.025577024 -0.1147999 0.06612691 0.0034063458
-0.00468491 -0.102159336 -0.08652465 0.029965296 0.06728703 -0.01752396 0.028993353 0.0015099496
0.033006445 -0.011499241 0.059481516 0.11442642 -0.11293712 0.022994488 -0.0035927892 -0.065098256
0.04221627 -0.004072845 0.0017836094 -0.11365835 0.0677754 0.114757285 -0.09079561 0.12026195
-0.09695262 -0.10018127 -0.0037849545 -0.006002322 0.10273586 -0.08057414 -0.1027088 0.052691996
-0.09039153 0.006938353 -0.118306115 -0.103957295 -0.10888487 -0.05712621 -0.00013102591 -0.022863701
0.07658468 0.11827329 0.09855187 -0.003976941 -0.107991874 -0.10594776 0.005426571 0.016833052
-0.016578522 -0.12419227 0.06701546 0.0450191 -0.014244084 -0.019425271 -0.08920715 -0.07188105
-0.04731859 0.10531883 0.040707074 0.167673 0.04916978 -0.15259631 0.07861761 0.20206648
-0.02018682 -0.05126583 0.0663168 0.09616091 -0.093744546 0.07269695 -0.07209051 0.054829683
-0.16637501 0.048309587 -0.072652206 0.10920192 0.06254191 -0.1024091 -0.016426835 -0.003092296
0.07672653 0.064969525 0.0075897 -0.0025197687 -0.014947198 0.037616488 -0.04753774 0.039217576
0.038730383 -0.0081281755 0.07040394 0.07972598 0.1424703 0.10851472 0.10834285 0.0648497
0.13653673 -0.061765973 -0.030665949 0.24110554 0.013617242 0.019159112 -0.06828051 0.096167706
-0.03621078 0.12127221 0.018112674 0.045479488 0.1270386 -0.20157242 -0.024146263 0.07548874
-0.046282977 0.06154352 -0.06461847 -0.039675303 0.0059868535 -0.037570056 0.014392443 0.021457603
-0.08710431 -0.021652251 -0.0049015004 0.0659634 -0.066335894 0.08977677 -0.01348584 0.14689882
-0.015630605 -0.08469298 0.1552654 0.1418819 0.03606573 0.06694367 0.022220695 0.08140294
0.043443546 -0.039489776 0.07878383 -0.044215918 0.037946656 -0.060944486 0.14042462 -0.09308172
0.11635403 -0.18142815 -0.07367268 -0.035378743 0.060798906 0.08905618 -0.015802389 -0.094567396
-0.03950557 0.13472192 -0.020874381 -0.10222463 0.08298873 0.11916875 0.013760765 0.08647232
-0.09584314 0.01468115 -0.06403516 0.1956907 0.014301642 0.1627302 0.16088167 0.047156632
0.14451335 0.04226505 0.054412328 -0.028419506 -0.021217091 0.11012401 -0.08975414 -0.08579904

net.2.bias f4 [64]
00000000: 8e44 c13d ac94 f8bd 59dc 3a3d da47 28bc
00000010: 29a9 fd3d 9aab 7e3d 4010 423b de19 d9bd
00000020: ee1a 413c 92f0 e53d fe6e f1bd 40a0 923b
00000030: e947 fd3d adf0 873d 9cd6 36bd 163f 03bd
00000040: d469 5fbc a7d0 93bd 0c66 523d b232 a33d
00000050: a013 79bd 66cd 91bd 0c87 ce3d 945e 60bd
00000060: 29e6 b93d 6de4 8b3d 5ff7 79bd ff4c d23d
00000070: 02a1 943c c0f5 79bb 4464 06bd d5d1 e7bd
00000080: a91e 4aba 6417 91bd 14c9 95bc 99b0 f23d
00000090: 6fc0 f93c e52c c53c e703 013e e7ab d7bb
000000a0: 61eb b0bd a134 28bd 4e5c cb3d 1f1b 053d
000000b0: 0293 aabc daff af3b 6ae5 f2bd caac dbbd
000000c0: 10e8 a63d 25de bc3d c9a4 0b3d 7c7f 92bc
000000d0: 51bf d93d 2b7d 013e a03a 1f3d 2878 a5bd
000000e0: 0688 3639 e477 e13d 3073 66bd ec9d 233d
000000f0: 0c04 52bd 9a9b d43d 7470 fdbd b0ba 683d
0.09436904 -0.12137732 0.045620296 -0.010271037 0.1238578 0.06217537 0.0029611737 -0.10600637
0.011786206 0.11227526 -0.11788748 0.0044746697 0.123672314 0.06637702 -0.04463826 -0.032042585
-0.013636071 -0.07217532 0.05136685 0.07968654 -0.06080973 -0.07119255 0.10084352 -0.054777697
0.09077103 0.06830678 -0.061026927 0.10268592 0.01814318 -0.0038140863 -0.032810465 -0.11319319
-0.0007710257 -0.070845395 -0.018284358 0.118500896 0.030487267 0.024069259 0.12599145 -0.0065817717
-0.08638645 -0.041065816 0.09929715 0.032496568 -0.020822052 0.005371076 -0.118601635 -0.10726316
0.08149731 0.09222058 0.0340927 -0.017883055 0.10632194 0.12645404 0.03887427 -0.080795586
0.00017407545 0.110091954 -0.056262195 0.039945528 -0.05127339 0.10381241 -0.12374964 0.056818664

net.4.weight f4 [128, 64]
00000000: a4e9 a2be f804 f13d 749a 68bd 217f 783c
00000010: 02c8 c13d bc29 c13c f0ce ae3d b210 c9bb
00000020: bda4 6c3d ec9d d7bd 7019 45bd fc2b 5a3d
00000030: 64ff 7abb 26a1 5cbd 1038 fc3d 1312 8fbd
00000040: 165d 41bc a7a8 88bd d953 923d dcba f4bc
00000050: 27a3 ae3e 2893 8e3d 5288 f4bd 1360 c13a
00000060: a632 65bd 0e1b a23d 9b83 d4bc 6a2f 373d
00000070: c3a8 3c3e 008a 0ebd 8007 35bd 70c7 f33d
00000080: bfb4 9abd 4b57 c5bc 4b7f 9c3d e96b 8fbc
00000090: c526 cabc 710d 85bc 1ced 80bc 3ccb 4bbc
000000a0: 7352 4cbd 12a8 e33d 3533 313e 594c b13d
000000b0: 1cf2 bcbd f15d b1bd a6e4 f9bc c904 32bf
000000c0: 03c3 6d3c 39bb 593d 8505 183e 54bb ca3c
000000d0: 9097 2b3e fd1c 73be 8549 393d 2255 dbbd
000000e0: 376a 49bd 7793 4cbd d2cb aabc 5613 01be
000000f0: 00d1 7dbd 71c1 ab3d 82bb 183e 49bc 853e
00000100: 13b1 ca3d 1867 f63c c00d 8b3c f60a 163d
00000110: 9b09 d3bc d0b9 0e3d a292 ddbd de9a f33d
00000120: 73a3 a93d efd3 e4bd 143c e33d 7cf9 29bd
00000130: 9954 d33c 9017 863d 83e6 7b3d 56d1 8c3b
00000140: a482 4f3d 918e 0fbd bdbf 3dbb 6a34 80bc
00000150: 9410 b3bd 6eee e43d d3a4 e43d 99e7 6cbc
00000160: fac5 bdbd d2d8 c43d 03d6 d83d 34cc cb3d
00000170: 097c e6bd 6c37 ccbd a09f 07bd 4516 ab3d
00000180: e350 d33d efce a73d 4089 623a 7099 e73d
00000190: f041 a13d 3bc0 883d f739 acbc 930c f1bd
000001a0: 3501 9d3d bd52 7e3d 5113 e53d 5eb1 f3bd
000001b0: 0148 8f3d 3d3d bd3c 69d1 d4bc 1aed 9b3d
000001c0: 39e5 52bd aeac f73c 6d5f aa3d e58a f5bc
000001d0: 731c a8bd 2f7e b23d db75 623d a832 bdbc
000001e0: 9ce0 25bc 4c06 d1bc 8658 c8bd f807 f73d
000001f0: 0076 e33d 3afc edbd 7b84 803d fbab c63d
00000200: ba20 9cbd e0f8 65bd 2aac e53b fcef 973c
00000210: 1841 023e f04d 013e d0f0 683d e19c a43d
00000220: 2ebc f83d 8775 683d 048f 7bbd 08f0 1ebd
00000230: 3054 c6bd b5e4 a2bd bd9d b2bc 2cd1 9f3c
00000240: aff1 223e 0f69 f43d f8c4 7d3d 4c50 ff3d
00000250: 5d5a c13d 9481 813d 8648 c33b 1d9f 0dbb
00000260: 99a5 c7bd 1f10 7abd 99ea f93d 74c2 e0bd
00000270: 97f3 07be 802a ec3d 8ad2 e6bd 2dc9 8dbc
00000280: f826 bd3d 1079 11bd 5f01 843b 9483 93bc
00000290: a539 d63d 8184 a0bd 4fb7 0bbd d098 df3d
000002a0: 8fa6 bdbc efd9 093e 0346 8dbd 74a6 b5bd
000002b0: 0ff0 cbbd b421 ce3d 7fb4 23bd 982a 03be
000002c0: a183 0ebd 0991 a23d f331 093e d915 88bd
000002d0: c008 0e3e 9b49 ae3d 199b b43d 4ae3 9bbd
000002e0: a72a a0bd 2570 babd 8790 5c3b 4193 f8bd
000002f0: 3879 62bd d9a7 2bbc b388 6dbd 8c28 41bd
00000300: 8c3a 473d 6057 d0bd 504e 1abd 967a cc3d
00000310: a620 a1bd 7490 e2bd 76e5 8b3d d28d cebd
00000320: 6e62 e83d ecd2 27bd 5465 053d 069c e83d
00000330: f8ab f6bc c039 653d 7066 ddbd 8c6d 0d3d
00000340: c00e 4d3d 40d2 3c3b f06c 39bc 8ec2 f73d
00000350: 7435 3fbd 900f 6ebc c659 9d3d 9669 af3d
00000360: f07c d73c 005a b0bc 02a4 ccbd cc29 9f3d
00000370: 886d b9bd 48c8 24bd 902e 9cbd 6e11 8f3d
00000380: a0e0 17bd b489 40bd a099 4a3c bebc 983d
00000390: e030 f1bc ae40 a6bd 987c a23c 9c66 34bd
000003a0: 8c1b cd3d 001e 61ba 44e3 23bd d042 3f3d
000003b0: 6cfe dfbd 0c3b c7bd a8cd f2bd c018 4cbc
000003c0: 701b 213d 8e28 b83d a830 cd3d d404 c73d
000003d0: 0623 a8bd 68ce 0cbd 8002 daba b890 953c
000003e0: 1073 ddbd 301a 9a3d a8fc d4bd 84ac 063d
000003f0: d0c1 f63c ec3f 84bd bcb7 18bd be05 b2bd
-0.3181888 0.11768526 -0.056787923 0.015167029 0.094619766 0.02357947 0.08535564 -0.0061360234
0.057774294 -0.10528168 -0.048119962 0.053264603 -0.0038299197 -0.05386462 0.123153806 -0.06985869
-0.011801979 -0.06672793 0.07144899 -0.029874258 0.3410885 0.069616616 -0.119400635 0.0014753364
-0.055956505 0.079153165 -0.02594166 0.044722952 0.18423752 -0.034799576 -0.044196606 0.11903274
-0.07554006 -0.024089476 0.07641467 -0.01750751 -0.02467669 -0.01624176 -0.015738063 -0.012438592
-0.049883317 0.11116041 0.1730469 0.0865714 -0.09225866 -0.08660496 -0.030504536 -0.6953855
0.014511826 0.053157065 0.14845856 0.024747528 0.16757035 -0.23741527 0.04523613 -0.10709597
-0.04917356 -0.04994532 -0.020849142 -0.12605032 -0.061966896 0.083865054 0.14915279 0.26120213
0.098970555 0.030078456 0.01697433 0.036631547 -0.025761416 0.034845173 -0.108189836 0.11894773
0.082831286 -0.111732356 0.11095443 -0.041497692 0.025797175 0.06547463 0.06149913 0.0042974157
0.050661698 -0.03504807 -0.0028953396 -0.015649993 -0.087433964 0.11178289 0.1116425 -0.014459514
-0.09266277 0.09611668 0.105876945 0.09951058 -0.112541266 -0.099715084 -0.033111215 0.08353857
0.10318162 0.08193766 0.00086416677 0.11308563 0.07873905 0.0667729 -0.021023734 -0.117699765
0.07666246 0.062090624 0.11185325 -0.118990645 0.069961555 0.02310049 -0.02597876 0.07613583
-0.051488135 0.030233707 0.08318982 -0.029973457 -0.08208551 0.08715474 0.055288177 -0.023095444
-0.010124352 -0.025515698 -0.097825095 0.12062067 0.11106491 -0.11620374 0.06275269 0.097007714
-0.076234296 -0.05614555 0.007009049 0.01854705 0.12720144 0.12627387 0.05687028 0.08037735
0.121452674 0.056752708 -0.061415687 -0.03880313 -0.09684026 -0.07953779 -0.021803731 0.01950892
0.15912507 0.11934101 0.061955422 0.12466487 0.094410636 0.06323543 0.005959573 -0.0021609731
-0.09748382 -0.06105053 0.12202949 -0.10974589 -0.13276516 0.11531544 -0.11270626 -0.017307842
0.09235948 -0.035515845 0.0040284838 -0.018007077 0.104602136 -0.07837773 -0.034110364 0.109178185
-0.02315071 0.13462041 -0.06898119 -0.08869639 -0.09957897 0.10065022 -0.039967056 -0.12809217
-0.0347935 0.079378195 0.1339796 -0.06644792 0.13870525 0.08510133 0.08818645 -0.07611711
-0.07820635 -0.09103421 0.003365548 -0.121374615 -0.055291384 -0.01047703 -0.057991695 -0.04715781
0.04863982 -0.101729155 -0.03767234 0.09984319 -0.07867555 -0.110627085 0.068308756 -0.10085644
0.11346899 -0.040972635 0.032567337 0.11357884 -0.030111298 0.055963278 -0.10810554 0.0345283
0.050062895 0.0028811842 -0.011317477 0.12097655 -0.046681836 -0.014530078 0.076831385 0.08565061
0.026304692 -0.02152729 -0.099922195 0.07771644 -0.090540946 -0.040230066 -0.076260686 0.06985746
-0.037079453 -0.047006324 0.012365729 0.07457875 -0.02944225 -0.081178054 0.019834802 -0.04404317
0.1001502 -0.0008587539 -0.04001166 0.046694577 -0.10937199 -0.09728059 -0.11855632 -0.012457073
0.039332807 0.0899211 0.10019046 0.09717718 -0.08209805 -0.03437653 -0.0016632825 0.018257484
-0.10812962 0.07524526 -0.10399753 0.032879367 0.030121714 -0.06457505 -0.037284598 -0.086925015

net.4.bias f4 [128]
00000000: f148 b8bd e1ea 0d3d 7a13 a3bc e8c5 ddbd
00000010: 826d e6bd 747a 05bc 3d36 bf3d 0c93 b23a
00000020: ff75 00be c9aa 023d e14d 27bb 6475 143a
00000030: 091d 98bd 047c 41bd 92b8 25bd c002 c83d
00000040: 3822 babd af77 ca3d 26b5 f1bd bfd6 c73d
00000050: 12be a23a 24c5 703d 6c1a c93d 62c1 39bd
00000060: a5f6 9c3d 73b3 b53c 3d3c 46bd 711e c03d
00000070: 32c1 343d 51ab b23c fa19 24bd 2993 1a3d
00000080: 0887 e0bd 557a e2bd 596c c03d 4532 3d3d
00000090: 93e6 b6bd 181b bbbd abd6 933c 834f 4ebd
000000a0: ed76 e7bd c1ce f6bd f9fe 973b 6a5b bd3b
000000b0: a9dc babd fdf7 443c 4253 943d e7cc bebd
000000c0: 3caa a93d e2ab a7bd dc46 91bd f0f1 babc
000000d0: 70c0 54bd 7b98 bcbd 6036 64bd 18f3 953d
000000e0: 1a64 953d 7510 653d e60c 32bd 8e09 dcbd
000000f0: 43f7 f3bd 49df a0bc dd9b 0fbd 329d 8abc
00000100: fc87 9b3d 16db 3cbd fba9 d0bc 8271 0abd
00000110: 825a b0bd b9eb 823d 2142 553d 9d03 14bd
00000120: 08dd af3d 6dcc 983d 764f a23d 469e f5bd
00000130: df9d af3c 2be0 643d 70ef 413c ee58 b33d
00000140: c74f 933d 4cb8 43bd 477c d0bd 761f 973d
00000150: 625a dc3c acf2 d4bd 051c d23d 10a8 933c
00000160: a5ee 073e b23a 813a 9358 2bbd e505 afbd
00000170: 6540 33bc e672 e13d 3ad1 673d 12ed 1bbb
00000180: 02cd fabd 26b7 893d 4f60 64ba ccd2 f2bd
00000190: 5c01 7cbd 2651 6f3d c26a 7bbd 0c7d 383c
000001a0: 1343 1c3b 5dbf 3cbd 7b1d dd3d 544e cebc
000001b0: bd73 de3d 5626 d43c 9223 c4bc b7e0 91bd
000001c0: ecc4 f7bd 435b 613d 9270 823d ec67 8ebd
000001d0: 03c2 65bd 0ef3 97bd 2261 a43d 72b6 e63d
000001e0: 001f 7e3d 10c6 d93b b4bb 92bd 6b39 cf3d
000001f0: 0c21 033e 48ab 7e3d bf6e 6339 ac04 903d
-0.089982875 0.034647826 -0.019906748 -0.10828763 -0.11251356 -0.008146871 0.09336517 0.0013624146
-0.12545012 0.031901155 -0.0025528597 0.00056632445 -0.07427413 -0.04723741 -0.040459223 0.097661495
-0.09088558 0.09886109 -0.118021294 0.097577564 0.0012416265 0.058781758 0.09819493 -0.04535044
0.07664231 0.022180295 -0.04839729 0.09380806 0.044129558 0.021810206 -0.040063836 0.037738
-0.10963255 -0.11058489 0.09395666 0.04619052 -0.08930697 -0.09136027 0.018046698 -0.050368797
-0.1130198 -0.12051154 0.0046385494 0.0057787197 -0.09124119 0.012022016 0.07242443 -0.09316426
0.08284423 -0.08187081 -0.070935935 -0.022820443 -0.051941335 -0.09208771 -0.05571592 0.07321757
0.072944835 0.055923898 -0.043469332 -0.1074401 -0.11912396 -0.01963772 -0.035060752 -0.01692066
0.07594296 -0.046107374 -0.025471678 -0.033799656 -0.08611013 0.06392617 0.05206502 -0.03613626
0.0858708 0.07460866 0.07925312 -0.11993079 0.021437583 0.055877846 0.0118368715 0.08757196
0.07192951 -0.04778318 -0.10179954 0.073790476 0.026898567 -0.103978485 0.102592506 0.018024474
0.1327463 0.0009859412 -0.041832518 -0.08546046 -0.010940646 0.11008243 0.05659602 -0.0023792428
-0.122461334 0.06724386 -0.0008711861 -0.118566126 -0.061524734 0.058427 -0.06138111 0.011260282
0.002384369 -0.046080936 0.107966386 -0.025183834 0.10861919 0.025897186 -0.023942742 -0.07122939
-0.12098107 0.055018675 0.06369127 -0.06953415 -0.056093227 -0.07419406 0.08026339 0.112652674
0.062041283 0.0066459253 -0.07164708 0.101183735 0.12805575 0.062175065 0.00021689663 0.07032141

net.6.weight f4 [192, 128]
00000000: fdc7 b1bd 91df 8dbd 60f3 163d 76d7 7cbd
00000010: abc5 983d 8339 b63d adb3 70bd 9627 1ebd
00000020: 22ec 103d 9f3e 85bd f2e1 9d3d 7b63 57bd
00000030: 5cb4 86bd 91aa 573d 0105 ae3d 4eb7 ba3d
00000040: 3f6e abbd 4c39 24bd 5e91 d4bc e25d b93d
00000050: 7469 f8bc 983a 833d 1634 803d 88d1 b83d
00000060: 93f7 9f3d f956 9e3d 8504 a03d c49a 14bd
00000070: c563 52bd ff94 653d a370 94bd 396d da3c
00000080: c3be c13d 3d12 04bd e4d4 b1bc e4ab 94bd
00000090: 8c86 9a3d b5cc 813d e805 1cbd 31d5 0fbe
000000a0: 88f4 bcba a02f d0bd f82a 953c a1ea 423a
000000b0: fcc9 f5bc 3ad5 99bd 95dc 9b3d 6e7d 703d
000000c0: ca59 9a3d e0b0 8f3d bfe2 db3c 5ae4 30bc
000000d0: f45e 833d a25b 693d ec98 113d ca2a 8abd
000000e0: b331 2fbc 4b2b 8f3b 4065 04bc 2f8d 023d
000000f0: dddd 143d e7d7 053d 710a 4d3d 2038 9ebd
00000100: f0d8 d7ba c413 1abd 0cec a33d 00f1 6c3b
00000110: d2fa 9abd c8b3 733c 5915 103d 4a03 5abd
00000120: 6ce5 0cbd 2a15 f03c cb7c 5a3d bc17 8dbd
00000130: 85fe 943c 647f 853d b35e 9fbd ff4b c2bc
00000140: 76d5 4d3d 80c5 8bbd 0547 ed3b 671e b73b
00000150: 0956 8e3c 2e3c ccbc 3048 04bd f5df fcbc
00000160: 3cee dbbc a67e 423b ccda 5a3d 107b 7a3d
00000170: d013 7b3a 2e4b 2f3d b482 243c 07bd aa3d
00000180: 6c16 4fbd f184 503d 26b6 28bd ed2c 89bd
00000190: fcd2 983d 1e5b 31bd 265f 00bd 7fdc b93d
000001a0: 5f3b 81bd 4498 c73d ae12 94bc 157a 7dbd
000001b0: 4555 5d3d 9a23 7a3d 5dd3 11bd f5c8 48bd
000001c0: c5bf 89bc a34f 01bd 3c03 81bd 704b 03bb
000001d0: 1961 393d 22fc 27bd 8a2a 29bd 771a 6fbd
000001e0: 4b26 163d ec37 f3bc 3637 863d 453a 983d
000001f0: 2950 b13d 9efa f1bb d107 dd3c ad07 5ebd
00000200: 6d3b 38be 1048 62bc c977 c8bd ff4e f0bb
00000210: 51a5 59bc 34ef b03c 70b1 3dbd 02af 11be
00000220: f49d debc 097c 983d 0252 de3b 06db 0bbc
00000230: b7b1 08be aefd fabd 78a1 73bb 3b32 023c
00000240: c9da 173c dc1f 27bd d3eb 8ebb 4a28 a53c
00000250: 2561 16be f861 ca3c b4df 0dbd ae25 1f3e
00000260: cecf 603c d51b b43d 1661 68bc 45b2 edba
00000270: 1a8e dc3b aeb3 053d 58c1 443e 2a18 4bba
00000280: 2501 2bbd 30ba 12bd 6b5f e13c c09a 873d
00000290: def6 eb3b 8b0d 81bd f40a eabc 280f 1e3e
000002a0: 1149 623d cc30 8e3c 0e53 b2bb 2163 0e3e
000002b0: 9a92 143d 000b 063e 196c fabd 608a 4dbe
000002c0: 9866 a83b e07e 473d bf3e 0cbd 2169 10bc
000002d0: cfa4 38bd c662 03be 4033 b13d 6a1f f5bd
000002e0: fdec f1bd d3ad d9bd 96f6 383c bf80 71bd
000002f0: 0504 32be 28b2 8e3e a109 20bd f05f 863d
00000300: a8b7 5abe 3b2c a53c bdff 14bd 1513 413d
00000310: 9377 bc3b 9f1d a0bc f99a e4bd 3b72 9b3d
00000320: 4807 023e 6bed 2e3d 63ef 58bc edaf 57be
00000330: 26fd 483d 2f17 0a3e f7ac 45be 9933 a73d
00000340: 5919 e73c b6e8 8cbd 573e cfbd 411b 92bd
00000350: 7db5 533d 3205 2e3e a9b4 2e3e ac6f 54bd
00000360: 8e5e 093d 9254 793b 1808 d5bd c2bd d5bd
00000370: 2435 8cbe dfbf 0e3e 5770 d7bd 3719 98bd
00000380: 675e 393c 3209 833b 08a5 1f3c 3b40 883d
00000390: bc3f cc3d aeb4 153e 1af3 e3bc 24c3 b5bd
000003a0: 1779 65be 017a 89bd 7f07 f63c 73e3 393e
000003b0: 0ce0 1fbd 8615 afbd de25 ae3d 769e f8bc
000003c0: b9c4 993d b2cb 973d ba93 fe3d 48a0 b2bd
000003d0: caea 073e 5f8e a33d 1d85 3b3d 5c4f 663f
000003e0: ffe5 e0bd e3a1 0cbe 50ae 013c 1685 1cbf
000003f0: d52c 8e3d a940 cebf 347b 5c3d a693 6fbe
-0.08680723 -0.069274075 0.036853194 -0.061728917 0.07459577 0.08897688 -0.058765102 -0.03861197
0.035381444 -0.06506085 0.07709111 -0.052585106 -0.065773696 0.0526529 0.08497048 0.09116994
-0.08370637 -0.040093705 -0.025948223 0.0905111 -0.030323721 0.0640766 0.062599346 0.0902434
0.07810893 0.077314325 0.07813362 -0.03628041 -0.05136468 0.056050297 -0.07248046 0.02666341
0.09460213 -0.032243956 -0.02170796 -0.07259348 0.07545194 0.06337873 -0.03809157 -0.1404617
-0.0014416138 -0.10165334 0.018208966 0.0007435475 -0.03000354 -0.07511373 0.07610432 0.05871337
0.07536657 0.07016158 0.02684152 -0.010796631 0.06414595 0.056972153 0.03554623 -0.067464426
-0.010693002 0.0043691746 -0.0080807805 0.031872924 0.036344398 0.032676604 0.050058786 -0.07725549
-0.0016467851 -0.037616506 0.08004007 0.003615439 -0.075673714 0.014874406 0.03517661 -0.053225793
-0.03439848 0.029306967 0.053341668 -0.068892926 0.01818777 0.065184385 -0.07781734 -0.023717878
0.0502524 -0.068247795 0.007241132 0.005588341 0.01737501 -0.02493104 -0.032295406 -0.03086851
-0.026846997 0.002967754 0.053431317 0.061152518 0.00095778424 0.042796306 0.010040928 0.08336835
-0.050558493 0.050908033 -0.041189335 -0.06698022 0.07462117 -0.043299787 -0.03134074 0.090752594
-0.06310152 0.09745839 -0.018075313 -0.061884005 0.054036397 0.06106911 -0.035601962 -0.049019773
-0.016815076 -0.031570088 -0.06299445 -0.0020033978 0.045258615 -0.041011937 -0.041300334 -0.05837485
0.036657613 -0.029689752 0.065534994 0.07432989 0.086578675 -0.007384612 0.026981266 -0.05420654
-0.17991419 -0.013811126 -0.09788472 -0.007333636 -0.013284043 0.021598436 -0.046311796 -0.14226916
-0.027174927 0.07445533 0.0067846784 -0.008536106 -0.13349043 -0.12255417 -0.00371751 0.007946546
0.009268471 -0.040801868 -0.0043616085 0.020160813 -0.14685495 0.024704918 -0.034637168 0.15541717
0.0137214195 0.08794371 -0.014183303 -0.0018134793 0.006730807 0.03264206 0.1921438 -0.0007747436
-0.04174914 -0.035822093 0.02751132 0.06621313 0.0072010597 -0.06301411 -0.028569676 0.15435469
0.055245463 0.017357253 -0.00544203 0.13905002 0.036272623 0.13090134 -0.12227649 -0.20072317
0.0051391833 0.04870498 -0.034239527 -0.008814127 -0.04507905 -0.12830648 0.08652353 -0.119688824
-0.1181278 -0.106288575 0.011289259 -0.058960672 -0.17384346 0.27870297 -0.039071683 0.065612674
-0.21359122 0.020162692 -0.036376704 0.04713734 0.005751559 -0.019545374 -0.11162371 0.07590147
0.1269809 0.04270689 -0.013240668 -0.21063204 0.049069546 0.13485406 -0.19304262 0.08164138
0.028210329 -0.068803236 -0.10119312 -0.071341045 0.051686753 0.1699417 0.17061104 -0.05186431
0.03353744 0.0038044793 -0.104019344 -0.10436584 -0.27384293 0.1394038 -0.10519474 -0.07426684
0.011314011 0.003998899 0.009743936 0.06652876 0.09973094 0.14619705 -0.02782588 -0.08875111
-0.22409473 -0.067127235 0.030032871 0.18153171 -0.039032027 -0.08549027 0.08503316 -0.030348998
0.07508225 0.07411899 0.1243052 -0.087219775 0.13273159 0.079861395 0.045781244 0.8996484
-0.10981368 -0.1373363 0.0079150945 -0.61140573 0.06942145 -1.6113483 0.053828433 -0.23396167

net.6.bias f4 [192]
00000000: 6a34 9c3d df72 92bc e100 913d cbbb 6abd
00000010: 8dc7 deba c620 b2bd 799e ba3b dee2 1ebd
00000020: a0e5 7b3d 3ab9 01bd cde0 803d b58e 89bc
00000030: 43ca 2b3d 32a0 c0bc e4f1 b03b d8f6 9b3d
00000040: 5051 a53d c955 b33d 8f7a 503d 1b75 02bd
00000050: 1b4e 14bd 7d19 b8bc e46b 91bd 01fe 99bd
00000060: 7054 0c3d 582d 833d 84b9 a33d eaf7 0bbd
00000070: 4d11 b9bd 386e b3bd 8558 f4bb 5ca2 babc
00000080: 2a39 ae3d fd6d 8f3d 4f52 b9bd 08a7 2d3c
00000090: 7864 adbd 6c50 a23c 4e62 9abd 1304 5bbc
000000a0: 3193 e3bc 6078 6abd b686 9b3d bd98 ab3d
000000b0: 05f5 18bd e075 ffbc 0b00 733d 321d 5d3c
000000c0: 8dd2 85bd 1d8a 29bc 8564 193d 555e 2fbb
000000d0: cc99 6cbb 1ac3 5abd 7d5c a1bd a9bd 403d
000000e0: a267 98bd 6cde 04bd 0495 52bd 6c82 79bc
000000f0: c4be 9dbd 93a7 c6bc 35c2 5c3d 5281 323d
00000100: 230b 553d 32a5 433d fc1e b2bd 9580 87bd
00000110: 9acb 813d 7363 adbd 1266 9b3d f8db 89bd
00000120: 1380 89bd 982c b23d f052 b43c a830 a03d
00000130: 5988 d1bc 5864 a8bc df16 023c 09cc 0cbd
00000140: 9014 7ebd 5c73 e83c 5d79 673b 47a9 503d
00000150: d1d0 363d b6cd 2d3c 5ce8 adbd da73 c9bb
00000160: b408 8cbc c9ad 143b 10f0 d13b 24b7 91bd
00000170: 08be 5fbd 7c1b c13d bc21 1ebd 1633 993d
00000180: 7b07 923d bab2 36bd 5a27 85bc 2c96 b6bd
00000190: 21f1 b23d e916 84bd 61fd bb3c 706e 6cbd
000001a0: f1a8 813d 9df5 bfbd dc80 b2bd cb4f 3bbb
000001b0: 8cf8 6f3d bb2e 823d c250 1bbd d258 9e3d
000001c0: e5d9 20bd 6911 8abd 20d3 4c3d abf0 ae3d
000001d0: a053 963d 303e 0ebb db46 55bd 6cae 663d
000001e0: 6c09 873d a339 053d 4f96 843d 0537 a1bd
000001f0: a98a 2dbd 4449 a93d 692d 92bd 54ad aabc
00000200: 47bf af3c c187 7abd df34 483c 023e 633d
00000210: 373f 493d 9d18 d23c 1e6e 923d 1931 8ebc
00000220: 7215 9f3d b948 0f3d 9609 b2bd d9b7 8abd
00000230: 00f8 333d 557c 7a3d 1451 0ebd 6d26 9b3d
00000240: 7ca8 f7bc 2cb2 93bc 79b9 51bc a3a7 783d
00000250: 0441 8abd bec8 873d 9109 9b3d a19d 28bc
00000260: e258 b93c 96a6 3bbb 462a 04bd f00a 13bd
00000270: 8ef8 673d 3829 94bd 6984 473c b46e a3bd
00000280: 1ee6 683d 99ed 40bd 2c0f 693d 54f3 13bc
00000290: 492e 53bd c157 a8bc 0c20 493d f642 2a3d
000002a0: 23e4 123c cdaf c839 45e7 7b3d 50de 43bd
000002b0: 56a2 f63c b145 7a3d 3ba7 a0bc 8209 cabc
000002c0: 075c 06bd e67a 46bd e2a5 35bd 83e3 87bc
000002d0: 1fcb a93d 9138 5c3d 3ef2 3dbd 7178 fbbc
000002e0: 7de2 ba3d ede3 8e3d 6575 9bbd 04d7 ad3d
000002f0: 3eb0 1b3d 77dc a3bd 4bad 90bd 1df5 b83d
0.07627185 -0.01787704 0.07080246 -0.057308 -0.0016996727 -0.08697657 0.005695161 -0.038790576
0.061498284 -0.031670786 0.06292877 -0.01679168 0.04194094 -0.023513887 0.0053999294 0.07615441
0.0807215 0.087565966 0.05089813 -0.03184996 -0.0362073 -0.022473091 -0.07100657 -0.075191505
0.034260213 0.06405133 0.07994369 -0.034171976 -0.09036503 -0.08761257 -0.0074568414 -0.022782497
0.08506997 0.070034005 -0.09048902 0.010598905 -0.084664285 0.019813739 -0.075382814 -0.013367671
-0.027780147 -0.057243705 0.075940534 0.08378742 -0.037343044 -0.031184137 0.059326213 0.01349573
-0.065343 -0.01034787 0.03744938 -0.0026759107 -0.0036102412 -0.05340872 -0.07878969 0.047055874
-0.074416414 -0.03243868 -0.051411644 -0.015228849 -0.07702401 -0.024249827 0.053896148 0.04358036
0.052012574 0.047764964 -0.08697316 -0.06616322 0.06337662 -0.08466234 0.07587828 -0.06731409
-0.06713881 0.08699912 0.022012204 0.078217804 -0.025577711 -0.02055566 0.007940023 -0.03437427
-0.06203133 0.02837532 0.003532014 0.050942685 0.044632737 0.010608127 -0.08491585 -0.006147844
-0.017093994 0.0022686592 0.0064067915 -0.071150094 -0.054624587 0.0942907 -0.03860639 0.07480447
0.07130333 -0.04460404 -0.016254116 -0.08915362 0.08737398 -0.06449682 0.022947969 -0.05772251
0.06331051 -0.09373019 -0.08715984 -0.0028581496 0.058586642 0.063565694 -0.037918814 0.07731785
-0.0392703 -0.06741602 0.050006032 0.085419975 0.07340169 -0.0021704547 -0.052069526 0.056318685
0.06593594 0.03252567 0.064739816 -0.07871822 -0.042368565 0.082659274 -0.071375675 -0.020834602
0.021453513 -0.06116462 0.012219637 0.055479057 0.049132552 0.025646502 0.071499094 -0.017357396
0.07767762 0.034981463 -0.086932346 -0.067733474 0.043937683 0.06115373 -0.03474529 0.075756885
-0.030231707 -0.018029295 -0.012800568 0.060706746 -0.06750682 0.066300854 0.07570184 -0.010291488
0.02262539 -0.0028633229 -0.032266878 -0.035899103 0.056633525 -0.07234424 0.012177565 -0.07980099
0.05686008 -0.04710159 0.056899235 -0.009030182 -0.051557813 -0.020549657 0.049102828 0.041567765
0.008965525 0.00038277954 0.061499853 -0.047819436 0.030106705 0.06110162 -0.019610992 -0.024662737
-0.032802608 -0.04845705 -0.04434765 -0.016587978 0.082906954 0.053764883 -0.0463736 -0.03069708
0.091252305 0.06977067 -0.075907506 0.084882766 0.038009875 -0.08001035 -0.07064303 0.09031127

net.8.weight f4 [192, 192]
00000000: f016 84bc 9b92 a8be 6675 bb3c e0dc 8f3d
00000010: fcc1 9dbd c126 83bd 8e74 6fbd ed13 98bd
00000020: 9c3b 953d d46f 823d 7933 36bd 3e1f 5fbd
00000030: 2b1a 783a b302 6d3d 6d12 033d 9267 dc3c
00000040: 152e 103d d682 893d 99b7 27bd 6c58 8d3d
00000050: df62 5d3e 7796 33bd c273 483b ee96 ed3c
00000060: 436e 743d e2ae b83c 4a96 0dbb 02bd febc
00000070: 387b 36be 9eaa 40bd 653d df3c e258 093d
00000080: 473d 70bd 4892 6cbb 2dce eabd 2020 e93d
00000090: 0ff9 b73c 6589 713c 6d6c a23b e888 17bd
000000a0: e08d 27bc 0ef1 81bd a42f d0bc e36f 47bd
000000b0: 3f84 463d 0a84 56bc 8981 9dbb 7494 a1bd
000000c0: 4707 12bd 5820 17bd 301c 04bd 8ebc e6bc
000000d0: 712a 6c3d 6ec4 d2bc abfb 08bd 5e93 3a3c
000000e0: 6562 ef3c 38c7 28bc bca5 92bd 479f 8d3d
000000f0: a82c 21bd 256c 1e3e b6f9 d3bc c1dc 5fbe
00000100: 9584 d4be 4efb 1fbd 2c5a 5dbc 7bc8 9dbd
00000110: 32aa f23c 88e5 eebd 0ea5 a8bb 074d acbe
00000120: 077f 8fbd e718 8fbd e7f8 75bd 500d 71bd
00000130: 4055 963e 431c a53c 5bca 1c3b 6a70 263d
00000140: 7c8d 3abd db4e 333d a08a d43c 784c 5abd
00000150: 434a cbbc c0b0 f43d 1f06 3abd 486c 933d
00000160: b643 563d b88b 07bc 5eb1 cdbc c95f 993d
00000170: 36be 33bc 6380 8d3c aea0 69bc 2ea4 b23c
00000180: 9d62 283a 3d88 023d 49cf 06bc 7422 13bd
00000190: 9ef4 99bd a697 a9bc f745 893d 04dc 3d3c
000001a0: d80d 84bc e5be 2b3b 18a7 4f3d 9665 ae3c
000001b0: 4713 17bd 05cf ab3c b700 723d ad23 7a3d
000001c0: 21a9 8a3c 5bbf b53d f1a0 42bc fc8e 273d
000001d0: ec6d 11bd 0f12 e4bc b598 003e f2e7 813d
000001e0: 0603 04bd e738 f7bc fc8d 23bc 061f 8b3c
000001f0: a7e5 b1be 6125 51bc 9bbd a6bc 3b79 25bc
00000200: e86e d0bc 76d3 e1bc 5a5d 2abd 6fb7 af3c
00000210: a695 b6bc 1da5 a83c 4703 1c3d 757f 963a
00000220: 09d0 e03c 0814 8fbd 6cd2 ddbc 6e0a 5a3d
00000230: 4bc5 74bd b14b 6c3c 3442 013c 1006 09be
00000240: 28da 8a3d 2c29 6fbd 0a5e 783d f369 1f3d
00000250: aa0c 7abd f3a0 933d 5597 38bd 319a 72bc
00000260: 23a3 3dbb bb96 5cbd 1ff2 853d 2b56 923d
00000270: b352 173c 2654 183d f41c fbbd 868f 9a3d
00000280: 02c8 913d 09b2 433d 63ad 23bc 29ff 283c
00000290: cce1 013e d570 2c3d 9ba8 8cbd d7d0 9ebd
000002a0: 03fc 473d 55ba 2c3d 38c5 893c 6b9b 0f3d
000002b0: d995 583d 2c23 34bd 95b5 453d 1170 9f3c
000002c0: 1550 87bd f9f4 db3c 9b0c f4bc 2707 173d
000002d0: 95a9 e339 fc3e 5e3d 9141 ed3d da61 913d
000002e0: 3c9c 153c 9945 2dbd bf7d 183d 4c35 873d
000002f0: 50e7 78bd 973d 3dbd 02c1 f13c f880 803d
00000300: 0e7f b83d 522b 813e 9f51 823d 3c31 a63c
00000310: f9fe 853e 0024 373d abcf 44bc 3591 cbbb
00000320: b2a7 ad3d 8a2f debb 376d 443c 4643 72bd
00000330: 682e f73b 5987 8d3c a2ed 42be 4c84 d1bc
00000340: 6d66 24bd 148b fbbc 6cb7 a1bd 594d 4dbd
00000350: e274 f53b 0c4a b6bd f93b 573d 32f2 c83c
00000360: e17a 653c f366 2bbe 88f4 9d3d 8496 8abc
00000370: 7086 323e cc91 803d b688 743c 540b 863d
00000380: 378a 233d 003d 123d ee2b 88bc 8554 6abe
00000390: 12d9 ea3c a6c9 193d 6fa7 24bd 20d0 563d
000003a0: 8a9b 3b3d 0cbc 95ba 214b d2bc 48b0 7a3c
000003b0: 2bcf 543c d09a 31bc a03d c0bd 3013 8d3e
000003c0: 3b74 1d3c 4244 87bc f5db dabb 6f54 443c
000003d0: c187 6dbb 5380 d53b e768 69bd 13b9 90bd
000003e0: 5f24 3bbb 6f36 f4bd 991b 41bc d272 97bd
000003f0: 92f2 00be b7f9 1ebf 5f86 9dbd 62e4 193f
-0.016124219 -0.3292435 0.022883128 0.070245504 -0.07703015 -0.06403876 -0.058460765 -0.074256755
0.0728676 0.06368986 -0.044482682 -0.054473154 0.00094643485 0.057863902 0.031999994 0.026904855
0.035200197 0.06714408 -0.040946577 0.06901631 0.21619748 -0.043844666 0.0030586575 0.029002633
0.059675466 0.022544328 -0.0021604472 -0.031095985 -0.17820442 -0.047037713 0.027250955 0.03353203
-0.05865219 -0.0036097933 -0.11465106 0.113830805 0.022457628 0.01474223 0.004956773 -0.0369958
-0.010226697 -0.06344806 -0.025413342 -0.048690688 0.048465963 -0.013093004 -0.0048067016 -0.07889643
-0.03565147 -0.03689608 -0.032253444 -0.028166082 0.057657663 -0.02572843 -0.033443134 0.011387674
0.029221723 -0.010301404 -0.071605176 0.06915145 -0.03934923 0.15470941 -0.025875907 -0.21861555
-0.41507402 -0.039058022 -0.013510268 -0.07704254 0.029622171 -0.11664873 -0.005146629 -0.33652517
-0.070066504 -0.069871716 -0.060051825 -0.058850586 0.29361916 0.020155078 0.0023924324 0.04063455
-0.045545086 0.043776374 0.025945008 -0.053295583 -0.024815684 0.11947775 -0.045415994 0.071983874
0.052310668 -0.008273058 -0.02510899 0.07488973 -0.010970643 0.017273134 -0.0142595 0.021806803
0.0006423386 0.03186821 -0.008228132 -0.03592153 -0.0751736 -0.020702194 0.06702798 0.0115881
-0.016119882 0.0026206311 0.050696462 0.021288674 -0.03688362 0.020972738 0.059082713 0.06106918
0.01692635 0.08874389 -0.011879192 0.040907845 -0.03550522 -0.027840642 0.12558253 0.06343068
-0.032229446 -0.0301785 -0.009982582 0.016982567 -0.34745523 -0.0127652595 -0.020354083 -0.010099704
-0.02544351 -0.027566653 -0.041592933 0.021449773 -0.022288155 0.020586545 0.038089063 0.0011482077
0.027442949 -0.069862425 -0.027077876 0.053232603 -0.059758466 0.014422343 0.007889319 -0.13381219
0.06779891 -0.058388874 0.060636558 0.0389194 -0.061047234 0.07208433 -0.045066196 -0.01480727
-0.0028936348 -0.053854685 0.065403216 0.071453415 0.009236026 0.037189625 -0.12261382 0.07546906
0.071182266 0.04777721 -0.009990069 0.010314741 0.12683791 0.042099793 -0.068680964 -0.07754677
0.04882432 0.042169888 0.016817674 0.035060328 0.05287728 -0.043978855 0.048268873 0.019462617
-0.06607071 0.02685021 -0.029791167 0.036872055 0.00043423162 0.054259285 0.115847714 0.07098742
0.009131487 -0.0423027 0.037229296 0.066019624 -0.06076747 -0.046201315 0.029510979 0.06274599
0.09008609 0.25228363 0.06363224 0.020287149 0.2617109 0.044712067 -0.0120124025 -0.0062123784
0.08479251 -0.0067805694 0.0119889295 -0.05914619 0.007543374 0.017276453 -0.19035962 -0.02557578
-0.040136743 -0.030705966 -0.07896313 -0.050122593 0.00749074 -0.08900842 0.05254743 0.02452955
0.014006347 -0.16738491 0.07712656 -0.016917475 0.17434096 0.062778085 0.014925173 0.065451294
0.039926734 0.035702705 -0.01662251 -0.22883804 0.02866796 0.037545823 -0.04019874 0.052444577
0.04580263 -0.001142384 -0.02567059 0.015300818 0.012988846 -0.010840133 -0.09386754 0.275537
0.009610231 -0.01651204 -0.006679053 0.011983021 -0.0036244246 0.0065155416 -0.05698481 -0.0706655
-0.0028555614 -0.11924445 -0.011786365 -0.07394947 -0.12592533 -0.62099785 -0.07691645 0.6011411

net.8.bias f4 [192]
00000000: 9260 883d 0d47 133d 9e79 233c 4748 883c
00000010: 8a26 dfbc 10cf d8bc 0d34 43bc c197 b5ba
00000020: d096 84bd 8b9f 473d b8ba 44bd 4962 bd3b
00000030: 1050 493d b6bc 8d3d fc02 80bd b80a ce3b
00000040: 3a50 fb3c d12a 11bc b60e a4bd eca3 0d3d
00000050: ed8f 823d 3896 fe3a d234 983d fa39 f1bb
00000060: 28f6 1abd 5158 51bd 3c56 59bd 044e e5bc
00000070: fb2a 06bc 1418 64bd 57d8 76bd a34f e13b
00000080: c572 cbbc 0723 333d 13d1 acbc ad27 f73c
00000090: 64a1 703b 4f7f 59bd 45f0 5e3d 4389 abba
000000a0: e223 363d 8486 273c 6cfc 2dbd d61c 423d
000000b0: b20f 21bd e8c1 433d a140 303c b7b0 72bd
000000c0: a6b3 37bd 4083 173d 9c64 aa3c 7926 493c
000000d0: 628e 7dbc 5fe0 9c3d 8c3a ffbc 7df7 f9bc
000000e0: e7a0 26bd 242f c63a 2eec 2dbd 6f08 07bd
000000f0: 5048 bbbc b115 e73c b359 493d 884c 4ebd
00000100: f948 bf3c 1d0c 5ebc 7267 d33b 7a5b ccbc
00000110: 49fa 473d b712 09bd d760 8e3d ee50 bdbc
00000120: 7def f7bc b92e c8bc f3ab 5e3d 9e13 0e3d
00000130: a004 113d 92ce 033d 4d64 f1bd 98d1 503d
00000140: 620d 7b3d ea3b 483d 0e5a 093c ff55 e0bc
00000150: 638a 9abb 0776 04bd dd46 163d 5666 6d3d
00000160: 32eb 49bd 0750 7dbd 0294 8fbd 794e b73c
00000170: c6e3 f6ba 01d7 11bc f3af 56bd 730b 683c
00000180: 0e04 b5bc 876e 063d b028 bf3c f413 c43c
00000190: a269 893d 0a2c b73b b694 91bd a4a5 89bd
000001a0: ef5b 1f3d abbe 813d d332 513d 246e 393d
000001b0: e1b5 543d 99ba 19bd 048d 52bd 5d69 4cbd
000001c0: 54cf 3bbd 6861 2dbd 8dbc 37bd 621c 653b
000001d0: 301d 883d 2322 87bd c5c9 55bd 77d3 1abd
000001e0: fa00 73bd 8b13 87bd 371a 67bd 9997 90bd
000001f0: d329 913c 2399 5d3d 941a e839 f1e5 2a3d
00000200: be17 cdbc a2af 73bc 32a9 283d 807a 50bd
00000210: bf83 1cbd dd3e 553d c407 313c 17d1 993c
00000220: 7c76 53bd 87d0 523d cf83 c43c 6ea7 31bb
00000230: ef54 a93c 440f 773c c00a 6abd 18b0 853d
00000240: 599f 6dbc 452c e8bc 3807 a13c cdbe 03bd
00000250: 4a75 adbc 83f6 86bd 538d cb3a f97d b0bc
00000260: 29e7 4fbd 4537 55bc ea9e eabd b119 d4bc
00000270: 882e 36bc 6d61 df3c 0f3e 19bd 5c54 4c3d
00000280: ffad 55bd d82d 62bc f72e d3b9 9852 12bd
00000290: 1374 723d e97b 14bc 5d56 86bd 7dc4 1b3d
000002a0: 6211 b03c 552f bdbc 82ca 04bd 965c 05bc
000002b0: fd8a b03b 7423 09bd 454c 603d c5c7 21bd
000002c0: 8983 18bd f129 55bd 618b 56bc 9dfb 56bd
000002d0: 4603 183d 8196 223d daf7 fa3c a607 aa3b
000002e0: b8d1 303d 0989 7fbd 0b69 213d 5759 443d
000002f0: 2bc2 fb3b 5ed8 8dbd 7f4e 92bd ec3e 7e3b
0.06659044 0.03595643 0.009977726 0.016636027 -0.027240057 -0.026465923 -0.011914265 -0.001385443
-0.06474078 0.048736136 -0.04802963 0.005779539 0.04914862 0.069207594 -0.06250569 0.006287899
0.030677903 -0.008860306 -0.080106184 0.034580156 0.06375108 0.0019423431 0.0743195 -0.0073616477
-0.03783241 -0.051109616 -0.053060755 -0.027991302 -0.008188958 -0.055687025 -0.06026491 0.0068759485
-0.024835 0.043734577 -0.021095788 0.030170286 0.003671729 -0.053099927 0.054428358 -0.0013087172
0.044467814 0.010224942 -0.042477056 0.04739078 -0.03932161 0.047792345 0.010757596 -0.05925056
-0.04484906 0.036990404 0.020799927 0.012277239 -0.015475841 0.07659983 -0.031155847 -0.03051352
-0.040680792 0.001512025 -0.042461567 -0.032967027 -0.02286163 0.028208585 0.04915781 -0.050365955
0.023350226 -0.013552693 0.0064515406 -0.024945963 0.048822675 -0.033465113 0.069520645 -0.02310988
-0.030265564 -0.024436342 0.054363202 0.034686677 0.0354048 0.032179423 -0.11786709 0.050981134
0.06129206 0.048885264 0.008383287 -0.027384756 -0.004716204 -0.032339122 0.036688674 0.057958923
-0.049296565 -0.0618439 -0.07010652 0.022376286 -0.0018836192 -0.008901359 -0.052413892 0.014162886
-0.02209666 0.03282025 0.023334831 0.023935296 0.06709601 0.0055899667 -0.071084425 -0.067210466
0.038906034 0.06335195 0.05107386 0.045271054 0.051931266 -0.03753147 -0.051404014 -0.04990517
-0.04585202 -0.042329222 -0.04485755 0.0034959544 0.06646192 -0.06598308 -0.052194376 -0.037799325
-0.059327103 -0.065955244 -0.056421485 -0.07060165 0.017720139 0.05410112 0.0004427029 0.041723195
-0.025035735 -0.014873417 0.041176982 -0.050898075 -0.03821158 0.052061904 0.010805074 0.01877646
-0.051626667 0.0514684 0.023988632 -0.0027107853 0.020670382 0.015079323 -0.05713916 0.06527728
-0.0145033235 -0.028341422 0.019656762 -0.032164384 -0.021174092 -0.06589987 0.0015529789 -0.021544443
-0.05075756 -0.013013666 -0.11456092 -0.025891157 -0.011119492 0.027268136 -0.0374127 0.04988514
-0.05216789 -0.013804875 -0.00040280048 -0.0357233 0.05919273 -0.009062746 -0.06559441 0.038029183
0.021492664 -0.023093859 -0.03241969 -0.00813975 0.0053876624 -0.033481076 0.054760236 -0.039497156
-0.037234817 -0.05204195 -0.013094754 -0.05248605 0.037112497 0.039694313 0.030635763 0.0051889
0.043168753 -0.062386546 0.039406817 0.047936764 0.0076830587 -0.069260344 -0.07143878 0.0038794829
