new_saved_models/v1_n1e6_gmm_sk500.pt (torch, 179869 bytes, 24 tensors)

net.0.weight f4 [64, 2]
00000000: 6d89 cdbe f904 29bf 6eff 93bd 0a8e e63e
00000010: b5c3 9c3c 522c 503f ca5a 54bf e069 e9bd
00000020: 0194 1d3f e240 f3be 4e57 38be 3579 9e3e
00000030: e5bd 75bd 12d1 3b3f daee 0f3f 6f46 86be
00000040: 632f 10be 48bd 9fbd 4e09 f2be 862e c4be
00000050: 766f 4dbf 458e 473e f963 303e ed26 2bbf
00000060: 275f c5be 286e 283f 5f5f 4f3f 38ec d53e
00000070: 2ec0 4e3f 94eb 363f 5627 febe a688 a9bd
00000080: 4b19 a53c 3741 f3be a416 313f 4084 d03e
00000090: 971b 82be d57f 073d 876a 20bf dbd8 0c3f
000000a0: 9950 adbe cfd2 3e3e a52c 11bf e495 96be
000000b0: 5719 27bf 0ad2 93be 4965 b9be 1d3c 043f
000000c0: 64a1 15bf ea43 05bf 4e8a 553e 62ec 173d
000000d0: 3e40 8bbe fe16 09be 2322 afbe 5c18 9dbe
000000e0: 170b 3a3f 2e2a 7d3e b760 fbbe 634d 123e
000000f0: 41e7 35be 222c 01bf e133 2f3f 6fa1 18bf
00000100: 5307 983e ddcb 963e 8db6 1dbe 6c83 333f
00000110: 8f3b 083f 1c5e a6be 070d 443f a850 8e3e
00000120: bf4d 4dbf e165 23bf ea25 913d 90b4 04bd
00000130: 3b95 8fbd 88df 053f 8ed8 df3e 31c1 10bf
00000140: 86c2 963e 964f 1cbc e845 bd3d 7aa0 44bf
00000150: 9885 02bf c9af 38bf 80c0 34bf 309f 3e3f
00000160: 7f83 233e 00d7 313f 7ae8 1bbf ffe1 aa3e
00000170: 7b77 9b3d a110 1ebe 0468 cd3e 7562 d5bd
00000180: 1402 3d3f 2a32 193f fac7 1e3f c8d5 85be
00000190: c4fc 353f a5bb d73d 4d6a 093d 6e45 033f
000001a0: a576 ef3e 81b4 6e3e e76f 03bf 857d c43e
000001b0: 71e8 33bf 5ca5 3ebf ca8d cb3e 0f94 1c3f
000001c0: 5e7c 63bd 2431 16bf 524e 02bf 701d 97bd
000001d0: fce8 24bf d534 de3e 6957 0c3f 73d6 c9be
000001e0: 45b3 473e 51e9 8bbe a9ec 3c3e 40b5 423f
000001f0: 1756 093e 2805 103f 966c eb3d 6210 14be
-0.4014391 -0.6602321 -0.07226454 0.45030242 0.01913629 0.8131763 -0.82951033 -0.11397147
0.6155396 -0.4751044 -0.18002054 0.3095185 -0.05999555 0.7336589 0.56223834 -0.26225612
-0.14080577 -0.077997744 -0.47272724 -0.38316745 -0.802482 0.19487865 0.17225637 -0.6685627
-0.38549158 0.65793085 0.810049 0.41781783 0.8076199 0.71453214 -0.49639386 -0.08278017
0.020153662 -0.47510692 0.6917517 0.407259 -0.25411674 0.033080895 -0.6266255 0.55018395
-0.33850554 0.18635105 -0.5670875 -0.29411232 -0.6527304 -0.28871185 -0.36210087 0.51654226
-0.5844939 -0.52056754 0.2085354 0.037090667 -0.2719745 -0.13387677 -0.34205732 -0.30682647
0.7267317 0.24723122 -0.49097225 0.14287333 -0.17763998 -0.50457966 0.68438536 -0.5962133
0.29693088 0.2945241 -0.15401669 0.7012241 0.5321588 -0.32493675 0.7658238 0.2779591
-0.80196756 -0.6382733 0.0708731 -0.03239876 -0.07010885 0.52294207 0.43719906 -0.56544787
0.29445285 -0.009540459 0.09241849 -0.7680737 -0.509851 -0.72143227 -0.7060623 0.7446165
0.1596813 0.6946869 -0.60901606 0.33375546 0.075911485 -0.15436031 0.4011842 -0.1041917
0.73831296 0.5984217 0.6202389 -0.26139665 0.71088815 0.10533837 0.033548642 0.51277816
0.46770206 0.23311044 -0.51342624 0.38377014 -0.7027655 -0.7447107 0.39756614 0.6116342
-0.055538528 -0.5866873 -0.5090076 -0.07378662 -0.64418006 0.43399683 0.5482088 -0.39421424
0.1950198 -0.27326444 0.18449654 0.76057816 0.13411747 0.5625787 0.114953205 -0.14459375

net.0.bias f4 [64]
00000000: ace3 b8be 957d 74bd e12c 0a3d eeb4 173e
00000010: 0333 f23b 1721 a0be 3280 0b3f bca6 fdbe
00000020: 6132 153e dd30 e8bd 097d 283f b19d 8e3e
00000030: 2c32 94be abe2 2a3f a881 503c 0b0d 7bbd
00000040: fddd f0be 6c10 c63d 60ce 233f 8793 043e
00000050: 44db 8a3e 4497 07bf 92aa 013f 21df a2be
00000060: 61cb e2be cdaa 073f 3d60 06bf d983 7e3e
00000070: 6479 1d3e 994a fdbe 3a5a 393d 52a2 25bf
00000080: 454e 09bf 5778 b0bd a277 253f 1f94 ea3e
00000090: 31be b53c 1612 103f 84a1 11bc 794b 053f
000000a0: ca3d 013f c926 773c c91b c8be 94bd 28bf
000000b0: 4923 0a3e 46b8 01bf c49e 483e 5b64 12be
000000c0: 657c d4be 3954 3c3e f557 1bbf 35cf 35bc
000000d0: f425 22bf 65dc 86be 3605 d9bb a468 a33d
000000e0: 3244 133f 3d24 d63e 347c 61be 992a 253f
000000f0: 21e5 e83e c5de 11bf 375c 433e 9a07 e3be
-0.361112 -0.059690077 0.033734206 0.14815113 0.007391335 -0.31275246 0.54492486 -0.4954127
0.1457 -0.11337445 0.6581579 0.27854684 -0.28944528 0.6675212 0.012726225 -0.061291736
-0.47044364 0.09671101 0.6398678 0.12946902 0.2712041 -0.5296519 0.50650895 -0.3181086
-0.4429579 0.52994996 -0.524906 0.24854983 0.15378338 -0.49470976 0.045252062 -0.64700806
-0.53635055 -0.08616703 0.6463567 0.45816132 0.022185417 0.56277597 -0.008888606 0.5206829
0.5048491 0.015084931 -0.39083698 -0.65914273 0.13490023 -0.50671804 0.19591814 -0.14296095
-0.41501155 0.18391503 -0.60681087 -0.011096765 -0.6333916 -0.26340023 -0.0066229356 0.07978943
0.5752593 0.41824523 -0.22020036 0.64518124 0.4548731 -0.56980544 0.19078146 -0.44341737

net.2.weight f4 [64, 64]
00000000: ddfd 5d3e 4f7e 61bd 31f3 863e 927f 9c3d
00000010: 7246 00be 9a87 bfbd 103c cf3d 54b0 a63d
00000020: 2f5f 07bd b518 143e e7e0 6bbd 54a1 103d
00000030: 570e 143e 47a6 0c3d db60 143e 8a33 42bd
00000040: 5880 52bd f9e1 013d 5448 d0bd e514 2c3e
00000050: e5d8 983c 7ed7 183e 84c7 2dbd 9b80 4f3d
00000060: 78b9 6bbd d4d2 013e 536c b43d 5e5c edbc
00000070: 5259 3dbd c611 abba 9784 b53c f19e abbd
00000080: 5d45 51bd 587f 16bd 371d bbbd 7856 df3c
00000090: 2d85 3c3d 738c a23d a907 e73d c55e 98bd
000000a0: 8b21 903c 984e cb3c 9050 063e b61b 7fbc
000000b0: 8a17 e53d 6790 a23d c325 efbc d491 033e
000000c0: bb83 e53d daf0 d1bd ae68 3e3d f595 633e
000000d0: 6f46 333d f319 863d 3759 e33d 8e6c 00bc
000000e0: 46c6 003d 1dff cc3d 6f4b b8bd 11d8 b73a
000000f0: acbc a1bd 0b4e c03c c41a abbc 5b29 42bd
00000100: 4c20 0d3c a8c0 4e3e 859e 0fbe 74bb 823e
00000110: 3189 ce3d 92f6 8fbd cede fd3c b3af e73d
00000120: f0a9 9abc 2be9 b03d 3475 b73d 3f35 b53d
00000130: f032 f93d 956c a8bd a427 983d bfb3 cb3d
00000140: a4c7 c9bd 1c1f 223e a9be 8dbd e7ec 623d
00000150: 9803 ed3d 3541 633d fdbb bb3d 59dd d8bd
00000160: ddc2 a63c 94cf 70bc f5ec b9bd 39d7 f63d
00000170: c80d 203e b11c 023e 5dae eeba 5727 d9bc
00000180: fdce a43d b97d ad3d 32e9 4b3d 841f 8dbd
00000190: 6d3a 7d3e f975 1f3d eeeb abbd 1882 473c
000001a0: 84b8 9c3d 6123 e7bc 3fd0 c93d dadb a93d
000001b0: 4c1a 893e d4ff 0f3e d7aa 663c c46e 0fbd
000001c0: 5595 913d dd37 c0b8 ceb1 06be 04b8 d0bd
000001d0: 73a6 f8bc aa22 af3d 8fcd 753d 132b a33d
000001e0: 605d 833c 2026 e03c d1fe ba3d 1677 90bd
000001f0: 4499 9f3d eb53 703d 81d8 06be acc3 f53d
00000200: cf0a 903d 5295 51bd 823b c63d 9670 c4bd
00000210: 35f3 ea3b 574a 0dbd f881 cdbd 8b68 ca3d
00000220: 9d66 b2bd 847c 7c3c 78ac a73c c4a9 093e
00000230: 4dbd 82bc ea9b 9c3d f467 fdbd c7f6 2a3e
00000240: 1c90 583d 09c8 dc3d 21de cebd ef8c 603d
00000250: 6979 a53d c273 2bbd fede 3fbc a185 18bc
00000260: 481b a5bd efbc d63d 29a7 36bd 8b73 9cbd
00000270: ad2f e83d cf4d 363d 6aab 313d 7d71 fabc
00000280: 577f fb3d a00e 8fbb 411d 9fbd 794f 8dbd
00000290: d2f2 ebbd 4f29 7c3d ccb6 9b3d c74b 223d
000002a0: c8e5 d83d 9e97 78bd 8571 b53d acd9 48bd
000002b0: ed3a d5bc 6a62 a9bb 1c65 f73c c360 93bd
000002c0: e137 183d 124f 033e dcb4 023e ee97 0f3e
000002d0: 3fb2 893d f4a8 c63c 84a4 b5bd 360c c2bd
000002e0: 6ed5 d1bb 49df e2bd c4b7 b93d 5342 98bc
000002f0: f52e f53d b480 173e a799 693c 1f49 e53d
00000300: 133a 4d3e 1d65 173d a2b6 c13c 22ce 113e
00000310: 5a18 3abc 6cd6 86bd 187a 85bd 9327 4dbc
00000320: cb0e 61bd 4022 663c 497e c33b b182 233d
00000330: 0ce1 7e3d de21 8b3d e231 21be 0b00 43bd
00000340: 0390 68bd 5303 c1bd 2393 c4bd 2987 ba3d
00000350: 01df 86bd 4b39 05bd 7a2f f83d 45f9 fc3d
00000360: 0a88 64bc 8f29 173d ff7f 243c 8b45 f43d
00000370: 41de 063d 44ce e9bd ad3e d4bd 5cb5 003b
00000380: 5f85 653d cdf6 d0bd c876 693d de17 29bc
00000390: 4d64 f7bd a157 a13d 3cb9 353e 4b56 d2bd
000003a0: 22f1 f6bc c555 693e fdb0 b1bc d918 01bd
000003b0: 9ac2 3c3d 0015 0b3e ef63 b63d bc9a ce3d
000003c0: 1c68 f43c 3fe6 0b3d 55f8 30bd 9e59 003e
000003d0: a87e dabc 0d38 86bb e344 0dbe b707 b3bd
000003e0: f74b 8d3d 7f5d d43c 0ffb d73d a438 fc3d
000003f0: 2f63 eabd 9715 d7bd a8ac 0abe 42f3 d63d
0.21678872 -0.055052098 0.26357415 0.076415196 -0.12526873 -0.09352036 0.10118878 0.08139101
-0.03304976 0.1446255 -0.05758753 0.035310104 0.14458595 0.034338262 0.14490072 -0.047412433
-0.05139193 0.031709645 -0.101700455 0.16804846 0.01865811 0.14925954 -0.0424266 0.050659757
-0.057549924 0.12678081 0.08809724 -0.028974708 -0.04622776 -0.0013051562 0.02215795 -0.08379925
-0.05109154 -0.03674254 -0.09136432 0.027262911 0.046025444 0.07936945 0.11280758 -0.07439951
0.01759412 0.02481775 0.1311667 -0.015570572 0.1118613 0.07937699 -0.02919281 0.12848598
0.11206766 -0.10251017 0.04648655 0.22225173 0.043768343 0.06547918 0.11101001 -0.007838381
0.03143909 0.100095965 -0.08998763 0.0014026185 -0.078973144 0.023474714 -0.020886786 -0.04740272
0.008613657 0.2019068 -0.14025314 0.2553364 0.10084761 -0.070294514 0.03099003 0.11312809
-0.01887986 0.08638223 0.089579016 0.088480465 0.12167919 -0.082238354 0.07429436 0.09946393
-0.098525316 0.1583218 -0.06921131 0.05540171 0.11572951 0.05548211 0.09166715 -0.10589094
0.02035659 -0.014697928 -0.09078399 0.12052769 0.15630257 0.12706257 -0.0018209923 -0.026508017
0.080472924 0.08471245 0.04978294 -0.06890777 0.24729319 0.038930867 -0.083946094 0.012177013
0.07652381 -0.028215112 0.09854173 0.082938865 0.26777875 0.14062434 0.014078817 -0.035017744
0.07108561 -9.165679e-05 -0.13153765 -0.10191348 -0.030352807 0.085515335 0.06001049 0.079672
0.016035736 0.02736193 0.091306336 -0.07053964 0.07792905 0.05867378 -0.13168527 0.12000212
0.070333116 -0.051167794 0.09679319 -0.095917866 0.007170106 -0.034494724 -0.10034555 0.09883221
-0.08710978 0.015410546 0.020467982 0.13443667 -0.015959406 0.07646926 -0.12373343 0.166957
0.05287181 0.10780341 -0.101009615 0.054821905 0.08079798 -0.041858442 -0.01171088 -0.009309203
-0.08061844 0.10485255 -0.04459301 -0.076392256 0.113372184 0.044507798 0.043376364 -0.030571694
0.122801475 -0.004365757 -0.077692516 -0.06899924 -0.11520924 0.061562832 0.07603225 0.03962305
0.10590702 -0.06069147 0.08859543 -0.049035713 -0.026029075 -0.0051692026 0.03019958 -0.0719619
0.037162665 0.12823132 0.12764305 0.140228 0.06723451 0.024250485 -0.088692695 -0.09474985
-0.0064036166 -0.110777445 0.09068254 -0.018586313 0.11971847 0.1479519 0.014257825 0.11195587
0.20041685 0.036961664 0.023646656 0.1423879 -0.011358345 -0.065838665 -0.06517428 -0.012521642
-0.05494575 0.014046252 0.005965982 0.03991956 0.06222634 0.06793569 -0.15741685 -0.047607463
-0.056777965 -0.09424462 -0.095983766 0.09107811 -0.06585503 -0.032525342 0.121184304 0.12352232
-0.01394845 0.036904868 0.010040282 0.11927327 0.0329268 -0.11416295 -0.10363517 0.0019639349
0.056035396 -0.102033235 0.056998044 -0.010320632 -0.12079678 0.07878042 0.17746443 -0.10270365
-0.030144278 0.22786625 -0.02169084 -0.031517837 0.046084024 0.1358223 0.089057796 0.10088107
0.0298348 0.034155127 -0.043205578 0.12534186 -0.026671723 -0.0040960372 -0.1379581 -0.08741706
0.06899255 0.025923489 0.105459325 0.12315491 -0.11444699 -0.10502165 -0.13542426 0.104956165

net.2.bias f4 [64]
00000000: 1ee0 0e3c 04d1 a43d 6fd4 90bd 7a34 adbd
00000010: c0bc 013e d151 33bd d835 02be 0485 b03d
00000020: d38e 8f3d 422c 0e3e 4df9 f03d 38ae 873d
00000030: bb03 8fbd 61fd d5bd 5ace 003d 3a76 aebd
00000040: b5b9 023c 69cd ad3d 35fe ff3d 660a 70bc
00000050: a7f4 37bc 2d00 153d 646d c13d 4c1c 343d
00000060: f0d3 a8bc 9469 cc3b 5ae2 09bd dc9e 313d
00000070: 9bd3 c1bd 40f3 c53c 5c93 f63c e523 823d
00000080: b6a2 c23d 4780 e3bd e820 acbd f192 c4bd
00000090: a458 05be 69c2 36bc 9a35 dbbd e78f 19bd
000000a0: f8e6 633d 0846 173c cb57 303d 22f8 d7bd
000000b0: 98ef 83bd 073b d53d c78c 7bbd cfc6 22bd
000000c0: 59b8 cd3a 71b4 083e 55a2 d03b dfb1 a83d
000000d0: 8ea2 bbbd 9c84 a83c 39c9 46bd d9dd 34bd
000000e0: e40d 04bd 4520 e93d 9c6c 40bd 876b 123d
000000f0: 4bf7 8f3c 5a78 93bd 200b e5bd f075 dbbd
0.008720426 0.08047679 -0.070717685 -0.08457275 0.12669659 -0.043779198 -0.12715852 0.08619121
0.070096634 0.1388407 0.117663 0.066250265 -0.069831334 -0.10448719 0.031446792 -0.08518644
0.007978846 0.084864445 0.12499658 -0.014650917 -0.011227763 0.03637712 0.09444693 0.0439723
-0.020608872 0.006238172 -0.03366313 0.04336439 -0.09464189 0.024163842 0.030099563 0.063545026
0.09503691 -0.11108451 -0.08404714 -0.09598339 -0.13022095 -0.011154749 -0.10703583 -0.03749075
0.05564019 0.009233005 0.043052476 -0.105453745 -0.06442183 0.10411649 -0.061413553 -0.03974038
0.0015695199 0.13350083 0.0063670077 0.08237051 -0.09161864 0.020571046 -0.048531745 -0.044156883
-0.03223981 0.11383108 -0.046978578 0.035747077 0.017573973 -0.072006896 -0.111837626 -0.10715854

net.4.weight f4 [128, 64]
00000000: f8bc 2a3e 408f 11be 27c2 2e3e a1c3 88bb
00000010: 7f03 9c3d 8484 833d ab7d 073e cd67 093e
00000020: bbf7 d93d 4266 f63d cbf1 123e 0bc9 4e3d
00000030: effc 873d fc73 583e 7317 233e ce34 8d3e
00000040: 48b3 bbbd 966c febd 2098 0cbc de4a 98bd
00000050: 96d7 0bbe 4982 783b c504 adbd a899 233e
00000060: bf4f 5dbb 5737 22be 8548 963d 25eb 113e
00000070: 355c 1bbe c6a6 c33d 24fa 94bd d841 ffbd
00000080: 6a03 dcbd 7181 8a3e a154 353d f297 9abc
00000090: 5fb7 06bd 183e 133c c28c b03d 3a7c 7d39
000000a0: 6a51 cf3c 6621 b83d 7ade c93d b8f1 803d
000000b0: 427a 1f3d d1cf 94bc b812 ac3d 6e97 3fbd
000000c0: b608 57bd df17 62bc 9ed0 863e 9525 b53d
000000d0: 2e71 663e d5e4 14be 1406 113e a25d 5c3e
000000e0: b7ba 043e 8b25 a3bd 7df5 403b 316b dfbd
000000f0: 39ad a33d c0f5 d3bd 9f67 143e 020a e1bc
00000100: 9993 593e 44d1 17be 5e71 023e 78d7 893e
00000110: 7fc3 1ebd 667e 213d 27ed 7d3d 332e 103e
00000120: 9d19 203e af46 273e 9d3b 233e 24ee 74bb
00000130: 348e d6bc f296 263e 52c8 9f3d 76fb 303e
00000140: 0830 6ebd 6a6b 45bd e0da 343e e98e 29be
00000150: ea25 bbbd b0b3 a63d 829e 5c3d 252b c33d
00000160: 2476 d5bd 6986 5ebe bc4a b539 616a 81bb
00000170: 0818 1c3d a065 d7bb fcbe 17be 23b0 b7bd
00000180: 7ce6 d4bd 4da1 fd3d cbb0 583e 3363 4e3e
00000190: 8de6 be3d 7d1d 173e 7a01 803d 8bdb 523e
000001a0: 7733 95bc 903d 94bd 382f c23d cade dd3b
000001b0: b589 503d 4718 d4bd a6b5 1d3d 74c0 20bd
000001c0: 0834 383d f795 10be 0402 2a3d 5683 763d
000001d0: b126 283e f537 1dbe 5421 b73d 0ea5 8f3e
000001e0: 373b 433e 3d11 c83d a3a2 2fbc 49bb 883d
000001f0: aeb3 5e3e cca7 bcbd 9f27 efba 65ac 84bd
00000200: 03d4 613e 9de4 23bd 8cd9 753e 5026 5e3e
00000210: 7771 853c 2262 aa3c 0a06 5f3e 6904 323e
00000220: 8163 333e 17d6 d83c 6b47 3f3d 4edf 98bd
00000230: 773d bcb8 13d4 af3d 952e b63c bdcc 793e
00000240: df40 cdbd 6ead 92bb 9f7e 853c 4d90 f7ba
00000250: b676 ccbb e1d7 b13d cfa5 eabc f005 463e
00000260: e895 9c3c 1181 0a3a c975 d53d 13db 85bd
00000270: bedb 6f3d 50a6 633c 211b 1c3d b43d d2bd
00000280: 2514 433d bc19 903e 751a d23c a67a 113e
00000290: b23f edbd 4a18 af3d c8cf 19bd 8c69 483e
000002a0: 0438 06be 95f8 5a3b ee00 80bd 5630 ae3d
000002b0: ceb1 ab3d 626f cfbd bdfc 483e c87f a73d
000002c0: 21e5 903c d515 64bd 8f39 e13d 68c9 243e
000002d0: a34a d53d 051f 7a3c 9745 c83d 68ec 413e
000002e0: 2733 1c3e 4d42 41bd ea9d 9f3d 4165 babd
000002f0: b42b 043e 4076 1c3b 4541 03ba 7449 bbbc
00000300: 687e db3c 00b7 70bb c03a 3b3b 62ca c13d
00000310: 6845 7b3d ea7f f03d 4042 763b 6493 76bd
00000320: 9412 d83d 789d 233d 24c0 993d c062 6ebd
00000330: c04e 3e3b e80d c4bc 6022 9f3c f01b 6ebd
00000340: 30c5 52bc 4074 11bb e03c 73bd 9cf8 813d
00000350: be81 99bd b894 a3bd 18d4 fcbd d813 07bd
00000360: 98c7 9a3c 34a5 37bd 00de 25ba 50e4 853c
00000370: 5858 1e3d 5873 bebc eefb 843d 0c71 8e3d
00000380: 06b6 8cbd f88b 1bbd e096 a8bc 00ee eabc
00000390: ce4a ad3d 641b 62bd 00f6 e3bb d84b 403d
000003a0: ca7e 85bd aabd c0bd b8e4 f1bd 9a9c 97bd
000003b0: 8091 cc3a 8298 bcbd 40c9 a2bd 3c03 6cbd
000003c0: 4ae1 8fbd e8dc 843c 10be 6ebc 3838 e33d
000003d0: 3c17 a53d 1255 9a3d f052 86bc 1846 82bc
000003e0: c02c 073b 70b5 f3bd d0d4 d73d f44b 323d
000003f0: 6c05 403d 34c9 fb3d 6ce2 11bd f2bf 88bd
0.16673648 -0.14214802 0.1706625 -0.0041737114 0.07617854 0.0642176 0.13231532 0.13418503
0.10642954 0.12031223 0.14350049 0.0504847 0.0664004 0.21137995 0.15926914 0.2757935
-0.091650546 -0.12423055 -0.008581191 -0.07436155 -0.13656458 0.0037919453 -0.08448175 0.15976584
-0.0033769456 -0.15841423 0.07338051 0.14249857 -0.15171893 0.09553294 -0.07274273 -0.124637306
-0.10742839 0.2705188 0.04427016 -0.018871281 -0.03288972 0.008986972 0.086205974 0.00024174238
0.025307376 0.08990745 0.09856887 0.06296104 0.038934954 -0.0181655 0.08402008 -0.046775274
-0.05249854 -0.013799637 0.26331037 0.08845059 0.22504112 -0.14540417 0.14162475 0.21520093
0.12961851 -0.07966145 0.0029443197 -0.10909117 0.07992024 -0.103496075 0.14492653 -0.027470592
0.2124771 -0.14825922 0.12738559 0.26922202 -0.03876066 0.039427184 0.061993744 0.14080124
0.1563477 0.16335557 0.1594071 -0.0037373388 -0.026190855 0.16268519 0.0780188 0.17283425
-0.058151275 -0.04819814 0.17661619 -0.16558422 -0.09138091 0.081397414 0.053862102 0.095297135
-0.10422924 -0.21730961 0.00034578692 -0.003949449 0.038108855 -0.006573394 -0.14818949 -0.08969142
-0.10395524 0.12384281 0.21161191 0.20155029 0.09321318 0.14757343 0.06250282 0.20591561
-0.018213017 -0.072383046 0.094816625 0.0067709433 0.050912578 -0.10356193 0.03850331 -0.039246038
0.044971496 -0.14119707 0.04150583 0.060183845 0.1642101 -0.15353377 0.08941904 0.28055614
0.19065557 0.09768913 -0.010719928 0.06676347 0.2174823 -0.09211692 -0.0018246061 -0.06478194
0.22053532 -0.040012944 0.24008769 0.21694303 0.016289456 0.020798746 0.21779647 0.17384495
0.17518426 0.026469273 0.04669897 -0.07464467 -8.975987e-05 0.08585372 0.022239009 0.24394508
-0.10022139 -0.004476241 0.01629573 -0.001888761 -0.0062397374 0.08683754 -0.028643517 0.19338202
0.01911445 0.00052835146 0.10422856 -0.06535926 0.05855917 0.013894632 0.03811181 -0.10265675
0.047626633 0.28144634 0.025647381 0.14206943 -0.115844145 0.08549555 -0.03755167 0.19571513
-0.13107306 0.0033412327 -0.06250177 0.08505313 0.08383523 -0.101286665 0.19627662 0.08178669
0.017687382 -0.055684883 0.109973066 0.16092455 0.104146264 0.015266185 0.09778898 0.18937838
0.15253888 -0.04718237 0.077937916 -0.09101344 0.12907296 0.0023874193 -0.00050069793 -0.022862174
0.026793674 -0.003673017 0.0028568953 0.094624296 0.061345488 0.11743148 0.003757611 -0.060199156
0.105504185 0.039945096 0.07507351 -0.058199644 0.0029038638 -0.023932412 0.019425571 -0.058132112
-0.012864396 -0.0022194535 -0.059384227 0.063462466 -0.074954495 -0.0798735 -0.12345141 -0.03297791
0.018894002 -0.044835284 -0.0006327331 0.01634422 0.03865847 -0.02324836 0.06493364 0.06955156
-0.06870656 -0.03797528 -0.020579755 -0.02867794 0.084615335 -0.055201903 -0.0069568157 0.04694733
-0.06518324 -0.094111755 -0.11811203 -0.07402916 0.0015607327 -0.09208776 -0.07948542 -0.057620272
-0.07025392 0.016218618 -0.014571682 0.11094707 0.08061072 0.07535757 -0.01639697 -0.015902564
0.0020626038 -0.11899841 0.10538638 0.043529466 0.04688017 0.12294236 -0.035616323 -0.06677236

net.4.bias f4 [128]
00000000: ecf0 563d 6801 6b3d 52d7 86bd 241c e0bd
00000010: d579 e6bd da3a 933d 3771 273d 0156 e5bc
00000020: 4cda bf3d 6609 883c 52c0 babd ad59 b8bc
00000030: cc7b 9ebd a8a7 0abe cb9b c93d bcac acbd
00000040: 3e74 e2bd 5e7a e8bd a46d 8d3d 55dc 50bc
00000050: 14b4 acbd 60ad c6bc d669 5cbd 73a3 0fbd
00000060: 8e48 a1bd 7ed6 64bc e3bc 08bd 30ae b03d
00000070: 90af bcbd 7893 cabd fc8a c1bd a3b8 c83c
00000080: e0ac 3c3c 06b2 d03d 1094 503c d6de edbc
00000090: 7ce8 efbd 297f b93c fee9 013e 904c adbd
000000a0: 4998 a0bd 676f f13d 8762 593d 6452 d03c
000000b0: 8e30 743d 9516 d8bd a795 813d 6872 353c
000000c0: 0004 f23c f87c efbc 3b1c ad3d 48a3 a03c
000000d0: 347f a2bd 98ca ea3d 0f02 853d 63cf 853d
000000e0: 7ad9 bf3d 6bed adbd 1523 cebd d0b5 f5bd
000000f0: 2a67 ebbd 5d10 a93d ebc8 4d3d e600 91bd
00000100: e766 da3d 8f7e a1bd fde9 ee3b 8a29 febd
00000110: f598 1d3a 036e f53d b946 ae3d aee8 e8bd
00000120: 2046 c5bd 7863 873d 7d4c 8f3d b5ec 82bd
00000130: 4ac8 02be 1714 123d 07ee b6bb eea4 82bd
00000140: ed66 9f3d af41 a7bd 8995 b63c f0b2 81bd
00000150: 47cf 943d 10bc 13bd 1b79 dbbc ccfc c5bd
00000160: a921 de3d f5f2 b53d 634c ba3c c22e edbd
00000170: ae0e 20bd b77f afba f46e 39bd 8616 093e
00000180: 14f7 f4bd 48f9 b43d ec9a f6bd c77b 6b3d
00000190: 1b64 c3bd 25d9 553c 1792 4fbd 9681 933d
000001a0: 80d4 cf3d bf0a 193d 0fd0 b7bd 552a 68bc
000001b0: 75f0 cd3d 1a89 813d fc7d 003e a91c 203c
000001c0: 5a55 c0bd 51e8 573d 1f73 7c3d 650e 4ebd
000001d0: 1788 b6bd 1619 033e d44e bd3c db10 5dbc
000001e0: ded2 b0bd 6c5c f23c 6ddb ffbd e353 f5bd
000001f0: 1708 a8bd dab4 ba3d 6e77 a83c 1da8 4f3d
0.052475855 0.057374388 -0.06584038 -0.109428674 -0.11253706 0.071889594 0.040879454 -0.027995111
0.09367809 0.016606044 -0.091187134 -0.022503698 -0.07738456 -0.13540518 0.09844168 -0.08431384
-0.11057328 -0.11351465 0.06905678 -0.012747844 -0.08432785 -0.024252594 -0.05381187 -0.035067987
-0.07875167 -0.013967155 -0.03338326 0.08626974 -0.092131734 -0.09891409 -0.09450337 0.024502104
0.011515826 0.10190205 0.012730613 -0.02903692 -0.11714265 0.022643643 0.12686917 -0.08461869
-0.07841546 0.117888264 0.05307248 0.025429912 0.059616618 -0.10551182 0.06327372 0.01107464
0.029542923 -0.029234394 0.0845265 0.019609109 -0.07934418 0.11464423 0.06494533 0.065336965
0.09367652 -0.084925495 -0.10065285 -0.119975686 -0.11494286 0.08255074 0.05024044 -0.070802495
0.10664158 -0.07885467 0.007291077 -0.12410267 0.0006011867 0.11983874 0.08509583 -0.11372505
-0.09632516 0.06610769 0.06997011 -0.063928045 -0.12771717 0.03566369 -0.0055825743 -0.06379114
0.077833034 -0.08166825 0.0222881 -0.06332958 0.072660975 -0.036068022 -0.026791146 -0.09667358
0.10846264 0.08884231 0.022741502 -0.11581184 -0.0390765 -0.0013389502 -0.04527183 0.13387498
-0.11961189 0.08836609 -0.12041268 0.05749109 -0.09540578 0.01305226 -0.05067643 0.07202451
0.10147953 0.037363764 -0.08975231 -0.014170249 0.10055629 0.06324978 0.12548059 0.009772458
-0.093912795 0.05271179 0.061633226 -0.050306696 -0.08912676 0.12802538 0.023108877 -0.013492788
-0.0863397 0.029585086 -0.12493024 -0.11978891 -0.08204668 0.09116526 0.020564761 0.050697435

net.6.weight f4 [2, 128]
00000000: caa3 4d3e 4ca3 673e f207 003e c5c1 e7bc
00000010: df59 4a3e af1a df3d 22eb 3fbe ad06 cabd
00000020: 13a8 1e3e a08d 6f3e c1e4 383c b15c b3bd
00000030: 2475 62bc db96 343e 24b8 5e3e 238e 883e
00000040: 895d f7bc bcca cfbc c031 2a3e 772c 5f3e
00000050: e374 1d3d 37cb 5d3d 4910 32bd 56dc 2c3e
00000060: 1713 5a3e 067f 5cbe 43c7 153e e88e 833d
00000070: 5c14 ab3d f087 873e a56c 103d a5ba 503e
00000080: 0db1 aa3d 7eea 473e 63d7 1f3c 1e43 3e3e
00000090: a0c0 ebbc be52 473e 604c e6bb 30e2 48bd
000000a0: 99f6 713d 519b 093e a05d 53be 652c 483d
000000b0: 3536 18be 0461 413e b1f0 ea3c 08be 683e
000000c0: 3d81 29be b62b 13bb 9486 cbbd 970e 7b3d
000000d0: 8dc0 abbd dbf6 19be cd06 803e 3e0e 4d3e
000000e0: 60c6 c9bd 5331 87bd cf6a f53d 7315 fbb8
000000f0: 70f6 35be b5b3 f63d 5deb 7f3c 45fb 593e
00000100: eed7 e7bd 14b2 483d 7be3 e13d c668 573e
00000110: fa9b 4d3e 71b7 bf3d d8af 4dbe d76a b5bc
00000120: 1e80 2d3d 8468 8f3d d20a 113e 1750 5c3e
00000130: b638 b1bc 928f 033e 1101 1d3e e7fa a9bd
00000140: 7f98 223e 274a fd3d e693 4c3e 909f c33d
00000150: d410 763e 4ac6 e93c 1749 08bc 597e 633e
00000160: 8d33 913d 38d2 0d3e d4f2 3ebe 1adb 16bd
00000170: 4c7b 8f3d 4e95 583d a148 a7bd 3027 01be
00000180: faba 5c3e 3bd0 acbd 428c 81bd 4848 80bb
00000190: c671 d83d 3906 aebd 7da2 9f3b b442 453e
000001a0: 9a1b 383e 151a 0fbe 5a44 ea3d ef90 a1bd
000001b0: f70f ffbc 41d2 16be f6da 19be 2286 523e
000001c0: f1ff 153e 75c3 97bd 86e3 28be 121d bbbd
000001d0: 47e5 23be 3670 073d 0ce6 523e d7ce 6f3e
000001e0: 6da0 d23b 2620 6d3e ecce 17bc bf81 363e
000001f0: 40cb 733e 92ac 003e 46dd 1f3e af30 733e
00000200: cade 54be 2012 6dbe 52af 46be 94c3 cf3c
00000210: 7c04 50be 6cbd f5bd 4477 043e 756e 433e
00000220: a953 3abe 4e68 c3bd 1a82 a5bb e178 383e
00000230: c58d 67bc 0734 4cbe b7ff 77be b920 ecbd
00000240: ab9a b73b fae9 a83d 324f 44be 6b88 27be
00000250: 5221 823d acfc 04bc a07d 6dbd 93bd 5abe
00000260: 6a0e 87be b807 433e 6588 6dbe 2c04 27be
00000270: 23bd 853b ec6d 24be 5321 c13c 073d 37be
00000280: 2f63 3b3d f896 13be ea66 afbd 6482 73be
00000290: 9155 513d 1775 74be dbbf 1f3e a013 09bd
000002a0: 9b39 a73d a002 54be a59c 2a3e 96c4 b8bd
000002b0: 258a 3e3e b09a b7bd 9d84 9f3d 850f 03be
000002c0: a4cd 213e faa3 883d d3fe 413e 50de c3bc
000002d0: 8455 713d 43fe b53d bc1a e6bd f402 7fbe
000002e0: db73 553e fb2d a93d c70d 68be 4734 343c
000002f0: 2191 393e f560 6fbe df25 3b3d 55ec 54be
00000300: 0eb6 483e fcaa 323d ed08 1abc 4a3b 3abe
00000310: 9b0a 88be 84bd 6cbe cf5b 643e cd92 9c3d
00000320: 9bab 22bd a39a 5fbe ec34 80be 4500 4bbe
00000330: 8711 f339 f34c 46be f54f 43be e738 86bc
00000340: 174b 1ebe 5661 78be 8161 4ebe 516e 3cbe
00000350: f24d 11be 6141 b6ba 9c1c 2f3d d299 60be
00000360: f9a5 58be a467 4fbe 3502 df3d d480 943d
00000370: ab61 8d3d 3104 15be 75f4 31bc 1a22 213e
00000380: 8b5b 6cbe eafd 1b3e 285f a7bc d729 953c
00000390: 201b c8bd 82cd 2f3e cbdb 0c3d 1803 7cbe
000003a0: 4434 2dbe 3b1a 063e c096 2bbe 4b9d 423e
000003b0: a9f7 153e 6bea 103e 5e84 363e 8cf7 34be
000003c0: c875 0abe ad73 5f3e 39ad 2d3e 2985 4d3e
000003d0: 345e 993d 0652 19be 7150 5abe aab9 1cbe
000003e0: 94b8 17bd 3bd4 efbd 76f5 913c 685b 2ebe
000003f0: 0ace 64be 1abf 80be 49cf 47be f2e6 6cbe
0.20082012 0.22620887 0.12503031 -0.028290639 0.19760846 0.10893761 -0.1874204 -0.098645546
0.15493803 0.2339387 0.011285008 -0.08757914 -0.013821874 0.17635672 0.21749932 0.26670942
-0.030195968 -0.025365226 0.1662054 0.21794306 0.03844155 0.05414888 -0.043472562 0.16880926
0.21296345 -0.2153283 0.14626794 0.064237416 0.083534926 0.264709 0.03525986 0.20383699
0.08334551 0.19523045 0.009755942 0.1858029 -0.028778374 0.19465157 -0.0070281476 -0.049043834
0.059073064 0.13438155 -0.20641184 0.048870463 -0.14864428 0.18884665 0.028679224 0.22728741
-0.16553207 -0.0022456474 -0.09937778 0.06129321 -0.083863355 -0.15035574 0.2500519 0.20024964
-0.0985229 -0.06601205 0.11983263 -0.00011972608 -0.1776979 0.12045995 0.01562008 0.21287258
-0.11320482 0.048997954 0.110297166 0.21036062 0.20079032 0.093611605 -0.2008661 -0.022145672
0.04235851 0.07002357 0.14164284 0.21514927 -0.021633487 0.12847736 0.15332438 -0.08299809
0.15878485 0.12367659 0.19978294 0.095519185 0.24029857 0.028536934 -0.008318207 0.22216167
0.07089911 0.13849723 -0.18647319 -0.036830045 0.07005939 0.052876763 -0.0816815 -0.12612605
0.21555701 -0.08438154 -0.0632558 -0.0039148666 0.105685756 -0.08497281 0.004871665 0.19263726
0.17979279 -0.13974793 0.11438818 -0.07888972 -0.031135542 -0.14728643 -0.15024933 0.2055898
0.14648415 -0.07410327 -0.16493043 -0.09136404 -0.16005431 0.033065997 0.20595568 0.23418747
0.0064278156 0.23156795 -0.009265643 0.17822932 0.23808002 0.1256583 0.15611753 0.2374904
-0.20788112 -0.23151445 -0.19402817 0.025361814 -0.2031421 -0.1199902 0.12936121 0.19085105
-0.18195976 -0.09541379 -0.0050509097 0.18014862 -0.014132922 -0.19941722 -0.24218641 -0.11529679
0.0056031547 0.082477525 -0.19170836 -0.16360633 0.063540116 -0.008116882 -0.057981133 -0.2136138
-0.26378185 0.19045913 -0.23196562 -0.16310185 0.0040813847 -0.16057557 0.02357546 -0.17894374
0.045748886 -0.14413059 -0.08564551 -0.23780209 0.051106993 -0.23872791 0.15600531 -0.03346598
0.08165284 -0.20704126 0.16661318 -0.09021871 0.18607385 -0.08965051 0.07788966 -0.12798889
0.15801102 0.06671901 0.18944864 -0.023909718 0.058919445 0.08886387 -0.11235568 -0.2490347
0.20844977 0.08260723 -0.22661506 0.010998792 0.18121769 -0.2337683 0.045690414 -0.20793279
0.19600698 0.043620095 -0.009401542 -0.1818668 -0.2657059 -0.2311917 0.22300647 0.076451875
-0.039714437 -0.21836333 -0.25040376 -0.19824322 0.0004636163 -0.19365291 -0.1907347 -0.016384555
-0.15458332 -0.2425588 -0.20154382 -0.18401457 -0.1418989 -0.0013904982 0.042751893 -0.21933678
-0.21157064 -0.2025438 0.10889093 0.072511345 0.06903394 -0.1455238 -0.010861506 0.15735665
-0.23081796 0.1523358 -0.020431116 0.018208427 -0.09770799 0.17168239 0.0343893 -0.24610555
-0.16914469 0.13095944 -0.16756725 0.19005315 0.14645256 0.14151923 0.17823932 -0.17672557
-0.13521492 0.2182147 0.1696061 0.20070328 0.07488671 -0.14972696 -0.21319748 -0.153052
-0.03704126 -0.117104016 0.01781724 -0.17027056 -0.22344223 -0.251458 -0.19512667 -0.23134974

net.6.bias f4 [2]
00000000: e389 0f3b 443e 533c
0.0021902255 0.012893263

exp_avg f4 [64, 2]
00000000: f4ca 4d35 cd5a 1ab5 f201 28b5 707d 3e35
00000010: 0b77 35b5 26b4 e2b5 5b06 7b36 8ee3 c3b6
00000020: fc93 ca36 9310 3d37 ae5b 0532 1c55 1fb1
00000030: 4cff 9c35 2fa9 67b5 85d0 cbb1 07c2 7ab0
00000040: e220 ee34 1baf f1b4 8913 ec35 145a 01b2
00000050: 825c 2835 cf69 9535 9c37 28b5 7815 6735
00000060: 650d 1db4 a986 0fb4 4049 dcb2 3027 5ab5
00000070: 3d8c d734 b26d 97b6 0a63 8fb5 87c3 a835
00000080: c8dd 21b1 8991 24b1 ac03 98b5 adcf 65b5
00000090: 1c8d 7b35 22ee f934 31d7 59b4 a4ca 3234
000000a0: f6c8 dd35 cfd3 ba34 03f2 c2af 163a 50b0
000000b0: 50bb ba34 9ad2 4735 837d 3bb3 f0fd 0cb5
000000c0: 8ebf 4332 ce17 7b32 0948 18b5 3c4f 8bb3
000000d0: 6aa6 a931 cdae f331 dc55 fb33 d98f 1835
000000e0: 5a2c 06b6 6fdf fb34 0958 9330 1e22 6831
000000f0: 18e3 d233 53e8 9bb3 ed58 61b2 ae3e f731
00000100: 2c97 feb1 08d4 1031 17ef ad36 aef1 6c36
00000110: f584 8eb5 448a 59b4 0ebd 1035 ecde 0fb5
00000120: 34a2 32b5 ffbb 0a36 f8c1 87b5 48a7 1c35
00000130: 0f51 15b3 f81c c3b5 a8a1 3db5 9eae 5134
00000140: 8e3e 70b5 e137 8cb4 b8c3 ed35 a207 ff35
00000150: 1431 2b35 1770 a535 eed2 e531 7c4c a2b1
00000160: efcf d3b5 7b04 46b6 67d4 1932 12af 5e2f
00000170: 1b50 e7b3 9b83 87b4 ca39 c035 3b2d cc33
00000180: 4d0d b4b6 533e 04b4 186a c3b6 db6e 8ab5
00000190: b14e 3cb1 1403 3eb2 d061 92b6 5808 afb5
000001a0: 62d4 a330 6099 beb0 d704 e3b4 74b2 1cb6
000001b0: e402 7b36 f296 5db5 af8b 8eb4 ea70 b9b5
000001c0: 7b27 23b4 9dd8 1935 6974 8135 0f0f 01b4
000001d0: 0b68 d7b5 611c 8cb5 3dc6 35b5 1d70 3ab4
000001e0: 6010 8eb4 9ccc 2a34 e169 1632 ee27 6eb2
000001f0: 17a4 d034 8a1f 62b5 51b3 edb1 ef13 7f31
7.6663787e-07 -5.7501603e-07 -6.258771e-07 7.096305e-07 -6.7600985e-07 -1.6890742e-06 3.7405614e-06 -5.8379437e-06
6.0372968e-06 1.1269137e-05 7.7624644e-09 -2.3185924e-09 1.1697207e-06 -8.63004e-07 -5.9317835e-09 -9.12252e-10
4.435488e-07 -4.5017154e-07 1.7589056e-06 -7.52927e-09 6.2719494e-07 1.113216e-06 -6.26658e-07 8.6085447e-07
-1.4626637e-07 -1.3366902e-07 -2.5644681e-08 -8.1268354e-07 4.0148907e-07 -4.512921e-06 -1.0683154e-06 1.2573881e-06
-2.3554652e-09 -2.3947868e-09 -1.1325951e-06 -8.5611356e-07 9.371013e-07 4.655313e-07 -2.0287986e-07 1.6651262e-07
1.652427e-06 3.479931e-07 -3.5460354e-10 -7.5752504e-10 3.4781488e-07 7.443974e-07 -4.3653483e-08 -5.252359e-07
1.1394048e-08 1.46155354e-08 -5.672924e-07 -6.4871045e-08 4.9374664e-09 7.0921033e-09 1.1703716e-07 5.683374e-07
-1.9993372e-06 4.6914963e-07 1.0720679e-09 3.3779837e-09 9.820195e-08 -7.2600095e-08 -1.3116943e-08 7.195772e-09
-7.409559e-09 2.1075284e-09 5.1836355e-06 3.5307417e-06 -1.061852e-06 -2.026e-07 5.391929e-07 -5.3596045e-07
-6.6546204e-07 2.067303e-06 -1.0114736e-06 5.8357955e-07 -3.476549e-08 -1.4537063e-06 -7.064323e-07 1.9528167e-07
-8.9497996e-07 -2.611769e-07 1.7714838e-06 1.9001202e-06 6.377388e-07 1.232608e-06 6.688757e-09 -4.723516e-09
-1.5781242e-06 -2.9506907e-06 8.954067e-09 2.025298e-10 -1.0771347e-07 -2.5241465e-07 1.4321934e-06 9.5077176e-08
-5.3659664e-06 -1.2316131e-07 -5.823804e-06 -1.0314064e-06 -2.7402332e-09 -1.10601555e-08 -4.362526e-06 -1.3040944e-06
1.1920174e-09 -1.3867911e-09 -4.2285566e-07 -2.3349685e-06 3.7403597e-06 -8.254857e-07 -2.6551194e-07 -1.3816436e-06
-1.5194921e-07 5.7312155e-07 9.645129e-07 -1.201954e-07 -1.6049029e-06 -1.0439072e-06 -6.771623e-07 -1.7363386e-07
-2.6461475e-07 1.590692e-07 8.755223e-09 -1.3862502e-08 3.886241e-07 -8.4237456e-07 -6.9179937e-09 3.7118715e-09

exp_avg_sq f4 [64, 2]
00000000: a899 202c ba2d 762f 8b10 b62c 5bf5 152d
00000010: 326a 282f 7f86 b82e f321 e72d 6ede 7c2e
00000020: 06d4 472e a265 4b2f cf5a 7a25 b9ba 5f25
00000030: e078 ef2c 7817 a52c 780c 4526 0b64 4e25
00000040: 7d76 412d 8d38 2b2c d8df 892d 89b2 232d
00000050: 6389 062d 794e 952c 8229 802c 6d7e 132c
00000060: 9ef6 4a29 06ab ba2b 9713 7f2d 4df1 742c
00000070: 2553 d82c b8c1 862e 44cc 892c 8378 0a2c
00000080: 27ca 9025 91fc bf25 b9fb 212d 8ebf b12c
00000090: 725d d72c b322 8a2c daf1 222c 2410 c42b
000000a0: 13a5 d32c aa8f dd2c 172d 2725 b174 b124
000000b0: 1ce1 922d 0a9f b82c 24b2 6a2a 7d37 d92d
000000c0: 6352 b826 603b 2326 773e 7f2c 940b a12b
000000d0: 6f97 9e25 7464 8125 e855 822c 3354 cd2b
000000e0: e3b3 b12e e218 9b2e 40d3 9e25 da4a 9325
000000f0: 6fab 6b2c e31e 0c2b 468a 1926 fe99 b225
00000100: e68e e825 6192 bc25 8c41 132e a24f 3b2e
00000110: a02d 4c2c 14cd 392c 1958 7f2c 5b5a 542c
00000120: 2472 a52c fc72 7a2d 01a8 4d2c 86b0 db2b
00000130: efc1 322d 3b32 212f 19e5 a62c c2ab 2a2c
00000140: f920 462c 9aa2 052c 4106 7e2d 5a44 d42e
00000150: 194b 802b 1765 542e 15b5 7226 7d0b 6f25
00000160: 3b48 ac2e 8d84 a92e bf2e 4526 c88e a825
00000170: 803c ba2c 1906 0f2c 3b05 642c 8d9f 8028
00000180: 6800 172e 3e80 e028 fb70 4f2e af00 3a2c
00000190: 549a d126 f4d7 4226 c868 9b2e 3df6 fd2e
000001a0: 99a1 5b26 df0f 9625 efde 7e2d 28cf bc2c
000001b0: 84b4 e42d ecf1 d02d 6dcd 182c f4d9 552c
000001c0: 2c40 382c a0f3 222c 358e dc2c 204d f32b
000001d0: 39b5 402c eb30 082c 19d4 b02c bec6 732c
000001e0: d0a0 d82b 1af1 112c 7762 db25 0ff5 aa25
000001f0: 17af a72c 3891 962c d9d5 0326 9ff7 7525
2.2822664e-12 2.2389815e-10 5.1745878e-12 8.524149e-12 1.5317239e-10 8.3912426e-11 2.6276736e-11 5.7495723e-11
4.5435676e-11 1.849885e-10 2.171481e-16 1.9405431e-16 6.8062084e-12 4.6921876e-12 6.8365003e-16 1.7901548e-16
1.09970895e-11 2.4331954e-12 1.5674503e-11 9.30512e-12 7.647524e-12 4.243547e-12 3.642587e-12 2.0960137e-12
4.5066917e-14 1.3263563e-12 1.4499422e-11 3.4808434e-12 6.14832e-12 6.128026e-11 3.9164522e-12 1.9677877e-12
2.5117002e-16 3.3304364e-16 9.207684e-12 5.0519094e-12 6.121042e-12 3.9260483e-12 2.315584e-12 1.3931118e-12
6.0153076e-12 6.2971477e-12 1.4500218e-16 7.69592e-17 1.6698247e-11 5.2472514e-12 2.084518e-13 2.4694686e-11
1.2789896e-15 5.6632453e-16 3.6272354e-12 1.1442952e-12 2.7511246e-16 2.2446003e-16 3.7043597e-12 1.4589496e-12
8.0809824e-11 7.053004e-11 2.755178e-16 2.5551156e-16 3.3490673e-12 4.9780855e-13 5.3269934e-16 3.0982427e-16
4.0342416e-16 3.2711992e-16 3.3482148e-11 4.2589605e-11 2.901547e-12 2.6403922e-12 3.6286584e-12 3.017717e-12
4.702254e-12 1.4236386e-11 2.9225513e-12 1.5609881e-12 1.01611905e-11 1.466071e-10 4.7434387e-12 2.4253798e-12
2.8155796e-12 1.8990699e-12 1.4439617e-11 9.6527855e-11 9.115791e-13 4.8293005e-11 8.420603e-16 2.0733838e-16
7.834485e-11 7.708776e-11 6.841146e-16 2.9240107e-16 5.293155e-12 2.0324907e-12 3.2403652e-12 1.4280049e-14
3.4333786e-11 2.4924612e-14 4.7166698e-11 2.643257e-12 1.4544119e-15 6.759994e-16 7.067197e-11 1.1548849e-10
7.6199894e-16 2.6031607e-16 1.448773e-11 5.3662803e-12 2.6000764e-11 2.3754297e-11 2.1714533e-12 3.0390109e-12
2.6183595e-12 2.3156824e-12 6.2685642e-12 1.7287595e-12 2.738544e-12 1.9353917e-12 5.0257684e-12 3.46427e-12
1.5392358e-12 2.0739578e-12 3.8057166e-16 2.9656357e-16 4.7658644e-12 4.279379e-12 4.5739573e-16 2.133426e-16

exp_avg f4 [64]
00000000: c37c 1136 4541 e635 0ccc 2d37 94b7 0bb7
00000010: ad39 a936 0e70 9cb1 0851 e035 a394 fb31
00000020: bec2 f233 9fed 0cb7 667c 4f34 3bac f3b4
00000030: 1e50 9835 12d3 b535 7fad 98b7 064e a336
00000040: d22f 41b2 1030 a835 f2d1 f034 1281 34b6
00000050: 8094 b535 3f5f 47af 73ce bcb5 0171 b734
00000060: dfcc f6b2 4b98 8935 6edf 9432 e873 aeb5
00000070: 3f1a bbb6 13e3 27b2 f1cf 89b6 9ef7 4632
00000080: e52d 5fb2 f278 c237 eb0d 0cb6 0c76 87b3
00000090: db6f 0e37 d75e d935 53be 4736 db70 0234
000000a0: b2a5 d033 acf9 01b4 581d 03b6 a83a 5bb2
000000b0: e9e3 a0b7 0ad0 5632 f1db 6db6 9d70 3a36
000000c0: 74b4 0ab7 aa7b 5837 6542 8732 a62a 65b7
000000d0: 46cd 8531 57ac 02b6 a24f dab6 c373 1ab6
000000e0: 6bf2 a635 dea7 62b5 e045 bc36 c106 30b5
000000f0: 9306 95b4 7e3f f4b1 3188 7b34 c3ef 4432
2.1679305e-06 1.7155331e-06 1.0359112e-05 -8.327788e-06 5.043307e-06 -4.5529367e-09 1.6712884e-06 7.3219595e-09
1.13044266e-07 -8.399976e-06 1.9323633e-07 -4.538759e-07 1.13482e-06 1.354698e-06 -1.8200602e-05 4.8668617e-06
-1.1244952e-08 1.2530963e-06 4.485624e-07 -2.689722e-06 1.352877e-06 -1.8132783e-10 -1.4067176e-06 3.4168627e-07
-2.8731334e-08 1.0251619e-06 1.7331072e-08 -1.2997743e-06 -5.5760897e-06 -9.77231e-09 -4.1071257e-06 1.15814185e-08
-1.2990744e-08 2.3182922e-05 -2.0869727e-06 -6.3079e-08 8.489903e-06 1.6195362e-06 2.9764094e-06 1.214825e-07
9.7158946e-08 -1.2104891e-07 -1.9537601e-06 -1.2760815e-08 -1.9179615e-05 1.2503742e-08 -3.5443775e-06 2.778171e-06
-8.267456e-06 1.2903396e-05 1.5746261e-08 -1.36593935e-05 3.8941463e-09 -1.9471825e-06 -6.5061768e-06 -2.301517e-06
1.2438517e-06 -8.443584e-07 5.610971e-06 -6.557494e-07 -2.7758196e-07 -7.108553e-09 2.3425743e-07 1.1463217e-08

exp_avg_sq f4 [64]
00000000: 4f06 3930 5dbd 892f 6c2d da31 6251 9f31
00000010: c3de 5731 c8ea bd29 274a f52f 9f2f 7528
00000020: 57c9 f92e ca45 da2f f738 bb2f afad af30
00000030: 0899 ca2c c3b1 6330 52e9 6a31 df55 802e
00000040: 3483 2528 590f c32e 9673 e12e a197 8b2e
00000050: ca3e ea30 7c82 b227 1f8c d02f c462 a62e
00000060: 237b 6429 52a5 8e2e b6e2 022a 0e55 262e
00000070: cceb 0632 011e cd27 43e0 762e 82a1 682a
00000080: c0c3 a328 d5a5 b630 fb69 1731 dde9 0a30
00000090: 1cac 9e30 15e7 9930 1fa3 1e32 e46d 092f
000000a0: 1446 0b30 f79e f931 cf5e 202f 39f8 8729
000000b0: 211a 3a32 60f5 042b 84e2 0131 1813 472d
000000c0: 94bb b72e 192e 6a31 b48b 1828 c72b 0932
000000d0: 2158 d227 b5cf 822e 5a7a db30 385d 6830
000000e0: f536 2031 3c4e 1f30 5d37 232e c222 e02f
000000f0: 0abb 2f2f da3f 8827 c113 8c2e cca3 882a
6.7311573e-10 2.5054706e-10 6.349799e-09 4.636761e-09 3.1413243e-09 8.434014e-14 4.461793e-10 1.3610558e-14
1.1358974e-10 3.9703557e-10 3.4055578e-10 1.278229e-09 5.758175e-12 8.2834734e-10 3.4184109e-09 5.83602e-11
9.18779e-15 8.8702996e-11 1.02523476e-10 6.347923e-11 1.7043587e-09 4.9546396e-15 3.7934542e-10 7.56635e-11
5.0732974e-14 6.486779e-11 1.1624976e-13 3.7819574e-11 7.853441e-09 5.693146e-15 5.613311e-11 2.0661774e-13
1.8181528e-14 1.3289375e-09 2.2033635e-09 5.053645e-10 1.154493e-09 1.1197893e-09 9.2339e-09 1.2499118e-10
5.066749e-10 7.264926e-09 1.4585598e-10 6.038264e-14 1.0832566e-08 4.7236347e-13 1.890073e-09 1.131608e-11
8.355197e-11 3.4077685e-09 8.467988e-15 7.984403e-09 5.838226e-15 5.948612e-11 1.5969122e-09 8.453358e-10
2.3314304e-09 5.795504e-10 3.711108e-11 4.077006e-10 1.5982607e-10 3.781681e-15 6.369972e-11 2.427211e-13

exp_avg f4 [64, 64]
00000000: 1c14 d2b3 7a3a 28b4 99ea 19b4 1ef2 c835
00000010: f2b7 bc35 4e77 29b2 fdd0 0235 eb36 d1b1
00000020: cd70 ab34 2b38 bcb4 ff79 7435 4777 8d35
00000030: 0c58 36b4 628a b335 60b3 6335 003c 1134
00000040: 0e46 c3b1 012e 1434 8c18 a335 bf4c c5b5
00000050: 1200 9734 0a0a 37b2 a1da 8e35 2985 3eb4
00000060: 2c4e 05b2 a4d5 9a35 c325 3ab2 f7b3 2f35
00000070: 89cc 1935 d713 66b2 d0eb 0b35 36b1 c9b1
00000080: 4a29 59b2 c384 1133 f854 f535 3b11 7a35
00000090: 4622 6335 b331 a535 d1bd 1934 0e0b e935
000000a0: 7471 9d35 099b 7935 2b97 08b4 b6cc c3b2
000000b0: 866f 7035 2209 87b2 6717 1935 7af8 42b5
000000c0: 5ebe 8db4 abf6 4c34 3cc8 3db2 1a59 dfb3
000000d0: c212 68b2 7e04 4bb4 c292 8f35 bea3 3ab4
000000e0: c342 e235 4d00 4935 deb4 4735 7fc8 fd35
000000f0: 3cd9 a835 c1cf 9ab2 d6b9 33b5 13a0 02b2
00000100: 4c59 3534 2780 6334 5425 4933 86fd bcb5
00000110: 0baf 40b5 3f3c 5332 e07f 2eb6 f2ea b932
00000120: c1d8 1ab5 363c 27b4 1407 3cb6 1b20 4db5
00000130: 0bb6 4034 f2f2 4eb6 8bf4 bbb5 c8e3 52b4
00000140: 83d1 bb32 52d2 8bb5 2625 36b6 740b 5335
00000150: 2260 a0b5 994f d032 280c 05b6 1b03 4734
00000160: f0d7 bf32 33d1 19b6 85ca c632 4907 73b5
00000170: 60c1 8db5 2d54 b432 b6ec 8bb2 daf7 fa32
00000180: e7fd b732 e935 0633 91c2 33b6 76e8 09b6
00000190: c828 31b5 8480 20b6 6888 19b4 7bf4 08b6
000001a0: 72fb 11b6 a0f5 2533 958d 5934 4639 de32
000001b0: 54e7 1fb6 f856 b332 e9eb 51b5 92d1 3635
000001c0: 5e03 8634 9a5b 2eb3 8d65 d532 36f0 1234
000001d0: cd22 dc32 053e 5934 c818 6fb5 1983 24b5
000001e0: c5d1 14b6 89b2 e4b5 0a40 59b5 4fb9 31b6
000001f0: 855e f8b5 430d b832 e88b afb5 9b20 a632
00000200: a5d5 b9b3 26f8 22b4 bdd0 6cb5 5096 b035
00000210: a9bf 3c34 3861 5bb1 9a88 d7b3 c9b4 00b1
00000220: e8ca 1034 8f77 1b35 63ab af34 94f0 85b3
00000230: 9134 0eb5 e08c 5e33 6911 2234 92ff 2730
00000240: 9d9f 1a2e 4601 b234 b5c5 bc34 3367 fbb5
00000250: 1b06 a733 8791 3db0 b9a7 0435 5abc 65b4
00000260: 4648 8d30 6d4b 8334 224e fbb0 51c2 b234
00000270: b8c5 04b4 0c38 4bb1 d61f 06b3 f799 7ab0
00000280: c96f a4b1 456b 4bb4 beaa fd34 70b6 a832
00000290: 8dc4 2a35 5c68 a834 0e57 9cb4 6f5b 1235
000002a0: cd1e 8534 b3b3 bc32 f7c1 c9b3 ee5f edb1
000002b0: 8c0a 1534 d58d 87b1 5e83 4334 d0ed 61b5
000002c0: 1c57 a0b4 f106 a433 59cd 9fb1 d3ab 8bb4
000002d0: a2b0 b0b1 e35b dbb3 8b5e 2c35 676b bd31
000002e0: 196a 2a35 d265 a934 d05a 9eb3 5d5e 0835
000002f0: 8013 c934 b2f3 04b2 5e6d 1335 697e ebb0
00000300: 3f38 99b4 3535 15b5 a9e3 8b35 2137 b235
00000310: 42c1 8ab5 d42f 2831 ba23 6d36 f1c5 0cb3
00000320: 111c 0d35 397c 9134 cd36 8936 f3f3 a8b5
00000330: a318 2ab3 cf9a a935 4f5d f435 9836 ce34
00000340: ff72 deb2 f2e0 0f35 7c0c 2636 27da ce35
00000350: 32ec 0336 f9b7 37b2 44db 0e36 62ea 1f32
00000360: 4c1c 81b2 9c6f 9f35 d1f1 5bb2 5054 3635
00000370: 79aa 47b2 8914 dfaf fcda 29b3 9575 4eb3
00000380: e2e5 78b2 a3ab a9b4 8886 81b3 c59d 8b34
00000390: e06a 9835 8507 bc35 38cf 8f35 01e9 5cb5
000003a0: 4b6b 5b35 24e1 1fb5 0ece b7b4 40b5 7632
000003b0: 2928 9736 9926 df31 06ef c532 9237 12b2
000003c0: 68b4 56b2 ba35 2ab6 decf 00b3 ea70 a134
000003d0: 62c1 c0b2 5109 48b4 ee13 ce35 7961 6635
000003e0: acce ad34 6039 0d36 c870 aa35 5a0e 91b4
000003f0: e77d 7234 e68e cab0 f7ad 0b36 b837 a2b2
-9.782545e-08 -1.5667493e-07 -1.4334582e-07 1.4971627e-06 1.4060627e-06 -9.864221e-09 4.873289e-07 -6.088944e-09
3.1933305e-07 -3.5058596e-07 9.107461e-07 1.0540033e-06 -1.6982102e-07 1.3376814e-06 8.4825115e-07 1.3526005e-07
-5.6832112e-09 1.380031e-07 1.215159e-06 -1.469998e-06 2.8125993e-07 -1.0654285e-08 1.0643454e-06 -1.7743572e-07
-7.759393e-09 1.1536072e-06 -1.0835211e-08 6.5454464e-07 5.729458e-07 -1.3392273e-08 5.212469e-07 -5.8700165e-09
-1.26404505e-08 3.388119e-08 1.8278652e-06 9.315733e-07 8.4613964e-07 1.2307922e-06 1.431829e-07 1.736307e-06
1.1730431e-06 9.2985334e-07 -1.2720982e-07 -2.279408e-08 8.9569255e-07 -1.5720222e-08 5.7030996e-07 -7.263221e-07
-2.6401807e-07 1.9088718e-07 -1.1046776e-08 -1.0400454e-07 -1.3508442e-08 -1.8907483e-07 1.0697042e-06 -1.7382169e-07
1.6857742e-06 7.487877e-07 7.4396473e-07 1.8908321e-06 1.2580199e-06 -1.8022435e-08 -6.6953123e-07 -7.603393e-09
1.6889425e-07 2.1187644e-07 4.683291e-08 -1.4080877e-06 -7.1780295e-07 1.2295515e-08 -2.6002454e-06 2.1643675e-08
-5.768489e-07 -1.5574992e-07 -2.8018303e-06 -7.641517e-07 1.794762e-07 -3.0837805e-06 -1.4003757e-06 -1.964064e-07
2.186494e-08 -1.0417518e-06 -2.7141737e-06 7.862029e-07 -1.1948907e-06 2.4250584e-08 -1.982562e-06 1.8534449e-07
2.2333523e-08 -2.2920547e-06 2.3142329e-08 -9.0535156e-07 -1.0561598e-06 2.0993037e-08 -1.6289373e-08 2.921654e-08
2.1419465e-08 3.1248337e-08 -2.678633e-06 -2.05499e-06 -6.599698e-07 -2.3916664e-06 -1.429886e-07 -2.0407886e-06
-2.1753044e-06 3.864045e-08 2.0261207e-07 2.5870246e-08 -2.3827497e-06 2.0877891e-08 -7.820186e-07 6.810525e-07
2.4961895e-07 -4.0595843e-08 2.4842643e-08 1.3684698e-07 2.5627196e-08 2.0232262e-07 -8.90705e-07 -6.1285533e-07
-2.217582e-06 -1.7039284e-06 -8.093199e-07 -2.648292e-06 -1.8504949e-06 2.142645e-08 -1.3079234e-06 1.933977e-08
-8.6535955e-08 -1.5177702e-07 -8.8220605e-07 1.3156769e-06 1.757859e-07 -3.1923957e-09 -1.00365654e-07 -1.8729216e-09
1.3484862e-07 5.791598e-07 3.272099e-07 -6.237056e-08 -5.2975616e-07 5.1816528e-08 1.509376e-07 6.1117433e-10
3.515731e-11 3.315601e-07 3.516158e-07 -1.8730992e-06 7.777654e-08 -6.8964606e-10 4.94179e-07 -2.1395809e-07
1.0279642e-09 2.445553e-07 -1.828486e-09 3.3296467e-07 -1.2365388e-07 -2.9572247e-09 -3.122826e-08 -9.116827e-10
-4.7857367e-09 -1.8944873e-07 4.7249154e-07 1.9640737e-08 6.3615954e-07 3.136837e-07 -2.9120605e-07 5.452229e-07
2.479559e-07 2.1967798e-08 -9.395074e-08 -6.9085138e-09 1.3880543e-07 -3.9451415e-09 1.8208581e-07 -8.4165094e-07
-2.9865703e-07 7.638108e-08 -4.6508544e-09 -2.6015786e-07 -5.142355e-09 -1.0214696e-07 6.421257e-07 5.512834e-09
6.348433e-07 3.1552787e-07 -7.373967e-08 5.0801265e-07 3.7453356e-07 -7.738821e-09 5.492092e-07 -1.7134428e-09
-2.8539395e-07 -5.558425e-07 1.0422565e-06 1.3278078e-06 -1.0338047e-06 2.4474405e-09 3.5336548e-06 -3.2776317e-08
5.2567435e-07 2.7098739e-07 4.089298e-06 -1.2587974e-06 -3.9603616e-08 1.2636536e-06 1.8206573e-06 3.8410212e-07
-2.5896496e-08 5.359899e-07 2.4743194e-06 1.5411687e-06 1.9658005e-06 -1.06938325e-08 2.1287278e-06 9.308311e-09
-1.5030444e-08 1.1878906e-06 -1.280246e-08 6.7922974e-07 -1.16220855e-08 -4.0578055e-10 -3.9547544e-08 -4.8070053e-08
-1.4487769e-08 -3.1603585e-07 -6.031502e-08 2.600556e-07 1.1355987e-06 1.400928e-06 1.0714639e-06 -8.229545e-07
8.173999e-07 -5.955974e-07 -3.423633e-07 1.4360296e-08 4.504826e-06 6.4945422e-09 2.3042514e-08 -8.510954e-09
-1.2497459e-08 -2.5363247e-06 -2.9991376e-08 3.0070743e-07 -2.2439682e-08 -1.8629841e-07 1.5353996e-06 8.582352e-07
3.2374135e-07 2.1044034e-06 1.2698811e-06 -2.7018797e-07 2.258381e-07 -1.4738049e-09 2.0813875e-06 -1.888462e-08
