new_saved_models/v2_data_spiral.pt (torch, 520285 bytes, 24 tensors)

net.0.weight f4 [64, 2]
000000 c3 d2 cc bd 4f f7 75 3e f1 77 ea 3e 9c fa e2 3d
       -0.10001137 0.24020122 0.45794633 0.11082956
000010 e0 31 25 bf d4 59 ce 3d 10 4a 7d 3d 5a a8 f7 3e
       -0.6452923 0.10075727 0.06183821 0.4837063
000020 c9 b2 e0 be bf 83 8f bd 96 31 33 be 2f 65 06 bf
       -0.43886402 -0.070075504 -0.17499384 -0.52498144
000030 42 74 77 3d 3a 1b cc 3e ac 30 8a 3e f3 a5 c9 3d
       0.060413606 0.39864522 0.2699026 0.098461054
000040 6e 53 7d be d2 25 64 be 82 27 ae 3e c2 c4 c8 3e
       -0.24738857 -0.22280052 0.34014517 0.39212614
000050 9c 83 97 3e e6 6b e3 3e df 90 43 bd 60 00 8d 3e
       0.29592597 0.44418257 -0.04774558 0.2753935
000060 e4 10 03 bf fe aa b7 3a 98 91 d0 be 5e ce 3f 3e
       -0.5119765 0.0014012752 -0.4073608 0.18731067
000070 a1 86 d4 3e de 3c 69 3d 2e ab af be e3 77 eb be
       0.41508964 0.056942813 -0.34310287 -0.45989904
000080 d6 1a b8 be c3 2e c9 3e 33 84 b5 3d 95 a6 7a 3e
       -0.35957974 0.3929349 0.088631056 0.24477609
000090 93 bc f4 3e e3 f6 a4 be 5c ff 21 bf 2a 1f 90 3e
       0.4780012 -0.3221961 -0.6328027 0.28148776
0000a0 94 b0 2b be 47 6b 05 be 7a b8 a6 bd e5 66 28 3f
       -0.16766578 -0.13029204 -0.08140655 0.65782005
0000b0 93 e4 2b 3f a3 c7 b8 be 88 13 ff be a9 0a 5f be
       0.6714565 -0.3608981 -0.4981959 -0.2178141
0000c0 55 82 8e 3e 2d 90 8e be b0 cb c5 be 39 84 01 bf
       0.2783381 -0.27844372 -0.38631964 -0.5059238
0000d0 5e 06 01 3e 67 6b 09 bf 0f a9 29 bf ee 19 9f be
       0.12600085 -0.5367951 -0.6627359 -0.3107447
0000e0 22 45 fd be 75 ea 14 3f 37 1a e6 bd 0d 23 1c bf
       -0.49466807 0.58170253 -0.11235469 -0.60990983
0000f0 23 3a 05 bf a9 1b 16 3f 66 49 4b be 62 69 18 bf
       -0.52041835 0.58635956 -0.19852218 -0.595358
000100 2d 84 28 3f 58 d4 e5 be 3d 65 af 3d 3f ab ac 3e
       0.65826684 -0.44888568 0.085642315 0.337244
000110 09 c5 3e 3f 0d e7 b3 3e 56 82 34 be bb 8e d1 3c
       0.745194 0.35137215 -0.17627844 0.025580755
000120 50 5a 20 bf d1 f1 28 bf f1 a0 59 bc 9b 08 1d 3d
       -0.62637806 -0.6599398 -0.013283 0.038338285
000130 41 a1 44 3f 19 7a 1e 3e e0 e8 96 3e bf 34 aa 3e
       0.76808554 0.15476264 0.29474545 0.33243367
000140 0c ac cf be 7c cd cb be f5 c4 c9 3e 7c d3 36 bf
       -0.4056095 -0.3980521 0.3940808 -0.7141645
000150 77 dd 3a be 0d 32 d1 be 5f 19 a9 be c3 2a 1a bf
       -0.18248545 -0.40858498 -0.3302717 -0.602215
000160 b8 49 a0 3e 50 c4 86 3e 57 30 10 3f c2 f3 bc 3e
       0.31306243 0.2632165 0.5632376 0.36904722
000170 35 51 f3 3c 83 a4 a1 3e 9e 00 8d 3e a7 91 df be
       0.029701808 0.31570825 0.27539533 -0.4366581
000180 13 ab 28 bf a6 9b ee be a0 96 0b bd 1d ae 16 bf
       -0.6588604 -0.46603125 -0.034079194 -0.58859426
000190 f8 24 b5 3e 59 7f e3 be 9a 2b 70 3e a4 9b 34 bf
       0.35379767 -0.44433096 0.23454133 -0.7054999
0001a0 b9 13 51 3e 85 b8 e0 be 04 79 e5 3e 17 92 12 be
       0.2041768 -0.43890777 0.4481889 -0.14313541
0001b0 9e ea 7e bd 3d 13 09 bf 19 b0 d6 be d4 c2 91 be
       -0.062235467 -0.5354498 -0.41931227 -0.28468955
0001c0 27 88 36 3f 9c 9b d0 3d 8c 47 0b bf f1 70 1e 3f
       0.713015 0.1018593 -0.54406047 0.61891085
0001d0 72 1d aa be 20 7e ae 3e f4 c9 35 bf 28 9f d5 be
       -0.3322559 0.340806 -0.7101128 -0.4172299
0001e0 f8 e5 bd 3e 01 cb 65 be 52 f7 3a bf a7 03 40 3e
       0.37089515 -0.22440721 -0.7303363 0.18751393
0001f0 da 6a fc be 7f 59 0b bf cd 0b 41 bf 06 6c 71 be
       -0.4930027 -0.54433435 -0.7540863 -0.23576364

net.0.bias f4 [64]
000000 47 b4 ef bd 26 83 18 bd b1 85 e0 be d2 c4 2c 3f
       -0.11704307 -0.037234448 -0.43851998 0.67487824
000010 ee 22 c3 3e a0 e9 4c 3e d7 53 04 bf 0a 8c d3 be
       0.38112587 0.20010996 -0.5169043 -0.4131778
000020 3e 38 dd 3e 7e 28 e1 be da c4 e3 3e 0e 14 cc be
       0.43206972 -0.43976206 0.44486123 -0.3985905
000030 a9 47 2e bf de 7a 9b be d4 ef f5 3e 06 7e 0a bf
       -0.68078095 -0.30367178 0.48034537 -0.54098547
000040 46 6f 67 3e e3 9c 07 bf c1 97 0c 3e 42 43 27 3f
       0.22601041 -0.52973765 0.13729765 0.65337
000050 ec 89 2b bf 21 f4 1e 3f 09 3d f8 3e f2 c5 cd be
       -0.6700733 0.6209126 0.48484066 -0.40190083
000060 c2 ab ec 3e a8 69 cd 3e 8c 2c 34 be 99 cc 16 3e
       0.4622479 0.40119672 -0.17595118 0.14726485
000070 39 59 b6 be b1 92 f4 be 25 7f d3 3e 50 d7 c1 3d
       -0.35614946 -0.47768167 0.4130794 0.09464896
000080 14 dd d6 3e 81 c7 85 3e 46 90 0b 3f 2d c7 f0 3e
       0.41965544 0.26128772 0.5451702 0.4702696
000090 32 12 c4 3e 5c b3 2e bf 86 fd 9e be c3 de 91 bd
       0.38295132 -0.6824243 -0.31052798 -0.071225666
0000a0 ec 57 87 3e 79 1d 74 bd ba 83 37 bf 27 33 b1 3e
       0.26434267 -0.05959842 -0.71685374 0.3460934
0000b0 be 86 13 bf 2f 33 2e 3f 68 27 c9 3e 97 3f c9 3e
       -0.57627475 0.6804685 0.39287877 0.39306328
0000c0 25 d8 bf be 5f cc bc bc b9 ff 0b be a1 ac 1a bf
       -0.37469593 -0.02304667 -0.13671769 -0.6041966
0000d0 26 9b 59 3d 33 bd 82 3e 4b b4 2c bf 9a 84 2a bf
       0.053126477 0.25534973 -0.67462605 -0.66608584
0000e0 41 87 78 3e 25 27 00 bf ed 2f 0d bf 80 66 49 be
       0.24270345 -0.5005973 -0.55151254 -0.19668007
0000f0 d7 96 3b 3d 07 9a 0b 3e 1d 83 87 3e 7a c3 ea bd
       0.04579815 0.13632976 0.2646722 -0.114630654

net.2.weight f4 [128, 64]
000000 95 b4 7e 3d e4 99 b3 3d 72 58 b5 bd e2 4c bc ba
       0.062183935 0.08769587 -0.0885476 -0.0014366175
000010 e9 db b7 3d fe 78 bf ba f1 d6 ab bd d6 8a 86 bd
       0.089774914 -0.0014608202 -0.08390606 -0.065694496
000020 6f 08 df 3d 0b 26 90 3d ef 1c bb bd e6 0b 06 3e
       0.108902805 0.07038506 -0.09136378 0.13090476
000030 0e e9 a6 3c 2a c9 cb bd 6a b5 27 3c ab b2 06 be
       0.020374801 -0.099504784 0.010236124 -0.13154094
000040 1c 6a 52 bd 90 09 43 bd c2 a6 ee 3d ff f3 12 bd
       -0.051370725 -0.04761654 0.116529 -0.035877224
000050 d9 11 09 bd 5e 84 d9 3d 2c 23 12 be 97 c0 c3 bd
       -0.033464286 0.1062095 -0.1427123 -0.09558218
000060 8e b4 90 3a 2b 8c 86 bd a9 2b 88 3c 9d 5c ff 3b
       0.0011040138 -0.06569704 0.016622381 0.007793023
000070 44 e1 9f 3d 70 59 ea bd 9f a2 8a 3d 55 af 76 bc
       0.07806638 -0.1144284 0.06769299 -0.015056451
000080 35 e5 47 bd 88 70 15 3d 04 cc 1e bd 14 9c 88 bd
       -0.048802573 0.03648427 -0.038768783 -0.066703945
000090 a4 47 f2 bd 12 d2 bb bd cf a6 e3 3d f4 eb 1c 3d
       -0.118300706 -0.09170927 0.111158006 0.03831096
0000a0 eb cf d6 3d 3c dd 42 bd 48 ff f4 bd 4d 82 33 bd
       0.10488876 -0.047574267 -0.119627535 -0.043825436
0000b0 0f be 71 bc 2a 3f 58 3c ba 0d 31 bd e6 9f f7 3c
       -0.014754786 0.013198653 -0.04322598 0.030227613
0000c0 75 a6 90 3d 87 34 fb bd ff 30 ab 3c d9 db b7 bd
       0.07062999 -0.12265878 0.020897387 -0.089774795
0000d0 6a 5a 00 ba 7e 35 7f 3d 14 63 fe bd 42 cb 79 bc
       -0.0004896285 0.062306874 -0.124212414 -0.015246214
0000e0 74 82 f2 3d 63 8d 0a be d7 f4 bf bb 8b 6d 0a 3e
       0.11841288 -0.13530497 -0.0058580446 0.1351835
0000f0 5d a4 08 bd 30 a8 c7 3d dd fa 58 bd 21 50 be bb
       -0.033359874 0.09748876 -0.052973617 -0.005807892
000100 27 dc af bd cd 25 b4 3d f2 35 60 3c 77 4f 60 3d
       -0.085869126 0.087962724 0.013684737 0.054763284
000110 91 1a 86 3d fb 14 06 be ad f1 74 3d 4e 4e 49 3d
       0.06548036 -0.13093941 0.059800792 0.049146943
000120 90 f9 eb bd 67 45 d4 3c 0c 05 12 3c 83 39 0c bc
       -0.1152221 0.025912 0.008912336 -0.008558634
000130 88 ef d7 bd 4b 44 bf 3d 3b f7 c5 3c 39 59 31 3d
       -0.10543734 0.09339198 0.02416574 0.04329798
000140 8e 8f c0 bd 81 1b b2 3d a6 2b 8d bd 43 49 0e bd
       -0.09402381 0.08696652 -0.06893091 -0.034737837
000150 bf 18 f9 bd 05 f7 2c bd 33 1f b2 3d 7c 0c 65 bd
       -0.12162923 -0.042227764 0.08697357 -0.05592011
000160 bd ac 90 bd 01 f8 ab bd 0c 4d 54 be 67 0a c3 bd
       -0.07064197 -0.08396912 -0.20732516 -0.095234685
000170 ba bf b3 bd 9b 92 52 3d c4 1b 99 bc d5 26 66 bd
       -0.08776803 0.051409345 -0.018689997 -0.056189377
000180 79 f2 8c 3d ea 00 de 3b 0c b7 26 bd 14 54 33 3d
       0.068821855 0.0067750113 -0.04070191 0.043781355
000190 27 2c 85 3d 1f 8d 0e be ec 2a a7 3d d4 e6 06 3e
       0.06502562 -0.13921021 0.081624836 0.13173991
0001a0 ba 1a 83 bd 7a ea 47 be fe 03 f2 bc ef 20 c3 bd
       -0.06401582 -0.1952304 -0.02954292 -0.09527766
0001b0 54 d8 e1 bd aa 1b a2 3d b9 8e f9 3d 06 da 6a 3d
       -0.110275894 0.07915433 0.12185425 0.05733683
0001c0 aa 7e f0 3d f4 57 38 be 7f cf 6b bd 6f be 52 3d
       0.11742909 -0.18002301 -0.05757093 0.051451143
0001d0 ff e6 90 3d 3a a4 74 3c 79 b7 5e bc 7b 65 12 3d
       0.07075309 0.014931733 -0.013593548 0.03574131
0001e0 58 40 6e 3d ee 43 17 3d e2 5e 20 3c fc b2 e6 bc
       0.05816683 0.036930017 0.009788247 -0.028161518
0001f0 23 66 cd 3d 62 53 f2 bc fc df 5e bd 9f 5a 22 be
       0.10029247 -0.029580776 -0.054412827 -0.15854882
000200 e2 11 81 bd 82 8e 01 be 1a 64 1d bb dd a1 89 3d
       -0.06302239 -0.12652019 -0.0024015964 0.06720326
000210 41 14 95 bb d4 44 6d bd 0e 21 3b bb 18 7b b5 bd
       -0.0045495336 -0.057926968 -0.0028553638 -0.08861369
000220 2e 2d ba 3d c8 17 db bc 55 b7 b1 3d 5f 0c 46 bc
       0.090906486 -0.026744738 0.08677546 -0.01208791
000230 d9 36 d0 3d 65 6c a1 3d 86 ae 1c 3d 44 b4 14 bc
       0.10166711 0.07882003 0.038252376 -0.009076182
000240 3b 96 0e bd 4c 98 24 3c c0 16 2a 3c 0c f0 7a bd
       -0.03481124 0.010046076 0.010381401 -0.061264083
000250 12 bc 01 be 5a c7 81 bc d4 52 e5 3d 08 d9 53 bd
       -0.126694 -0.015842129 0.11197439 -0.05172065
000260 dc 5a 6b 3d ba e7 3e bd 3c 97 37 bd 37 0f 25 3b
       0.057459697 -0.04660771 -0.044821963 0.002518607
000270 36 83 0d 3e f8 75 ad bd 83 7e 65 bd ac e6 83 3d
       0.13819584 -0.084697664 -0.056028854 0.064404815
000280 4a 57 b3 3c 6a a8 66 3d ff d6 74 bd 5e 0a 9a 3d
       0.021892209 0.056312956 -0.05977535 0.07521509
000290 46 d2 8d bd 9f e2 d5 3d f8 41 27 3d dd b0 a2 bb
       -0.06924872 0.10443615 0.040834397 -0.0049649314
0002a0 0c d5 4a 3d 54 71 24 bd ea 66 c3 bb f7 f0 8e bd
       0.049519584 -0.04014714 -0.005963196 -0.06979554
0002b0 24 4a d9 3c a4 3e fa 3d f6 55 f0 3d 91 7b ba 3d
       0.02652461 0.12218979 0.11735146 0.091056
0002c0 8e af 1e bd de d9 d2 3d 60 eb c2 bd 77 48 3e 3d
       -0.03874164 0.10295461 -0.095175505 0.046455827
0002d0 56 43 75 bd d9 5b 0d 3d e1 52 61 ba d7 c5 69 3d
       -0.05987867 0.03451142 -0.0008595419 0.05707344
0002e0 fe ae d9 bd 7c 7e f9 bc f5 b2 d7 3b f4 30 0c be
       -0.1062908 -0.03045582 0.0065826126 -0.13690549
0002f0 c9 09 1c 3d fa 8a a7 3d c7 d0 b5 3d b0 3f ca bd
       0.03809527 0.081808046 0.08877712 -0.09875429
000300 bf 88 fa bc 25 cf 6e bc 4b ec b8 bd 5f 1e b6 bc
       -0.030582784 -0.014575754 -0.09029444 -0.022231279
000310 f0 93 a7 3d 82 02 32 bd 73 70 a1 3d 39 5a 98 ba
       0.08182514 -0.043459423 0.07882776 -0.0011623568
000320 74 9f ce 3d d0 44 2e bd f0 f3 2e 3e 68 1e a1 bc
       0.10089007 -0.042546093 0.17085242 -0.01966782
000330 06 a7 be 3d 5a 48 17 3c 47 28 d2 bd 24 e7 bb bd
       0.09309201 0.009233559 -0.102615885 -0.09174946
000340 24 36 d6 3d 11 23 c0 3c 8d 7e 03 3e a6 7a c9 3d
       0.10459545 0.023454221 0.12841244 0.098378465
000350 5f d7 df bc 1e 4c 84 3c 10 8b 8d 3d 07 d6 12 bd
       -0.027324377 0.016149577 0.0691129 -0.035848644
000360 ef 4e 4b bd 85 1f 27 bd 7a 12 e9 bd 24 c0 86 3d
       -0.049635824 -0.040801544 -0.11380477 0.06579617
000370 b0 2f 4e 3d b0 86 6a 3d 37 25 f5 3d 86 57 11 bc
       0.050338447 0.057257354 0.11969989 -0.008870965
000380 19 32 41 bd 5e fd 00 be 15 f4 39 3c aa 89 ac bd
       -0.047166917 -0.12596652 0.011349698 -0.08424695
000390 ea 53 95 3d e1 57 0b be ae b1 ab 3d 46 74 1c 3d
       0.07291396 -0.13607742 0.08383499 0.038196824
0003a0 e3 97 42 bd 8d 46 ea 3d f3 74 d3 bd 1e 26 14 3e
       -0.04750813 0.11439238 -0.10325041 0.14467666
0003b0 e9 68 b5 bb b3 7a f3 bc dd a3 92 3d 6b b0 fa 3d
       -0.005536188 -0.029721593 0.07160161 0.1224068
0003c0 29 8e b5 3d b2 55 79 bc 08 4c cb bd 68 1e b5 bd
       0.088650055 -0.015218185 -0.09926611 -0.0884369
0003d0 60 a1 a3 3c 86 51 04 be 18 72 a4 bc 3f 2e a6 3d
       0.01997441 -0.12921724 -0.020073935 0.081142895
0003e0 d1 6a 05 bd 91 d4 d7 3d 57 ba e2 bd b4 2f a4 bb
       -0.03257257 0.10538591 -0.11070698 -0.0050105695
0003f0 24 7a a9 3d 62 ec 4a bd 66 d5 bd 3d 6f 14 b9 bd
       0.082752496 -0.04954184 0.09269218 -0.090371005

net.2.bias f4 [128]
000000 b0 18 84 bd e8 5f f6 3d 43 8e c7 bd 1b 32 5b 3d
       -0.06450021 0.120300114 -0.09743931 0.05351458
000010 50 11 81 bd c8 33 0c 3e f3 87 84 3d b9 e8 ae bd
       -0.0630213 0.13691628 0.06471243 -0.08540482
000020 89 a5 ce bd ff 99 ac bd 62 75 cb bd 99 43 41 bd
       -0.10090167 -0.0842781 -0.09934498 -0.047183607
000030 7f 96 07 bd ce 8b f3 bd 85 06 0e 3e 2f 11 0a 3e
       -0.03310251 -0.118919 0.13869675 0.13483118
000040 ea f4 c8 bd 02 f5 94 3d 9e 4a 8f bd 3e b9 ac bd
       -0.09812339 0.07273294 -0.06996654 -0.0843377
000050 43 b6 e0 bd 1b ac a5 3d 10 e2 44 bd 13 47 1f 3c
       -0.10972264 0.08089467 -0.048067153 0.009721535
000060 18 27 3a 3d d3 c2 b1 3c 13 e8 30 3d c5 c1 ae 3d
       0.04544744 0.021699345 0.043190073 0.08533052
000070 8a 77 65 bd 08 1d b1 bd f9 9a fa bd a5 f7 91 bb
       -0.056022204 -0.086481154 -0.1223659 -0.0044545704
000080 0a d5 75 3d e0 a8 b0 3b 4a 50 92 ba 86 84 ec ba
       0.060017623 0.005391225 -0.0011162844 -0.0018044866
000090 14 60 c8 3d 04 d8 bc 3d 9c 4d ae bc c7 1c ba 3c
       0.097839504 0.09220889 -0.021277241 0.0227188
0000a0 80 a5 35 3b 42 26 22 3e 10 49 56 bd 58 10 5b bd
       0.0027717054 0.15834907 -0.05231577 -0.053482383
0000b0 65 f9 f6 3d 02 b4 5e bd 89 20 c7 bd 87 9c d7 3d
       0.12059287 -0.054370888 -0.097230025 0.10527902
0000c0 6f f7 76 bd 9f 33 15 bd e0 32 f8 bc 69 33 11 bd
       -0.060294565 -0.036426183 -0.030297697 -0.03544942
0000d0 d5 19 c1 3d d5 c0 4b 3d 36 c6 95 bd 63 d0 8c 3d
       0.09428755 0.049744446 -0.07313196 0.06875684
0000e0 9b 2a ad bd 65 03 b0 bd fe 84 9f bc ca cd a1 3d
       -0.08455392 -0.085943975 -0.019472595 0.07900579
0000f0 89 4b 18 3d db e7 b1 bd 34 fa 48 bd d4 f2 0e 3e
       0.03718141 -0.08686801 -0.049066737 0.13959819
000100 cc 69 2d 3d ce 53 35 3d 96 a3 d0 3d e3 8f 95 ba
       0.042337224 0.044269376 0.101874515 -0.001141068
000110 8d 97 2b bd 44 e8 dc bd 2a 59 ef 3d 96 3a b0 bd
       -0.041892577 -0.10786489 0.116869286 -0.086049244
000120 a4 78 ac 3d b2 1c c3 bd 14 44 01 3d 06 da ee 3c
       0.08421448 -0.095269576 0.031559065 0.029156696
000130 8f 88 83 bd cd a9 b1 3d 1c 78 52 bd 23 11 c7 3d
       -0.06422531 0.08674965 -0.051384076 0.097200654
000140 48 fc b1 bd b3 52 c0 bd 5a af d8 bb 97 f8 d7 3d
       -0.08690697 -0.093907736 -0.0066127004 0.105454616
000150 61 5e bd bd eb 28 a3 3c 36 d2 99 bb c8 62 c4 3d
       -0.09246517 0.019916972 -0.0046942485 0.095891535
000160 22 87 4c 3d c9 6b b3 3d e5 76 b5 bd 32 d4 f3 bd
       0.04993356 0.08760793 -0.08860568 -0.119057074
000170 a1 fa a1 3d fa 9d c0 bb 8f d6 c1 3d cf 0c 87 bb
       0.07909132 -0.0058782073 0.09464752 -0.0041214
000180 8a 05 93 3d 14 c1 43 bd 36 52 f2 3d 2b f4 1d bd
       0.07178791 -0.047791556 0.11832087 -0.038562935
000190 aa 79 d5 bd 48 6f 3d bd c4 0a ba bd c0 86 58 bd
       -0.10423596 -0.046248704 -0.09084085 -0.052862883
0001a0 16 dc 97 bd 27 f8 da 3d b7 1c 30 bd d8 b3 dc bd
       -0.07415025 0.106918626 -0.042996135 -0.1077649
0001b0 bb 53 e1 3d bd 33 b8 bd e6 02 08 3e ff 91 7c 3c
       0.110022984 -0.08994243 0.13282356 0.015415668
0001c0 d1 c7 41 3b 35 65 b0 bd c6 87 90 3d 06 f1 dd bd
       0.0029568563 -0.08613054 0.07057147 -0.10836987
0001d0 99 82 c2 3d 2c 4b 69 bd 6c 93 46 bd 3e b4 d9 bc
       0.09497566 -0.056956455 -0.048480436 -0.026575204
0001e0 a3 8b 9a 3d 76 86 a2 3c f1 80 f4 3d 8c 01 c9 3d
       0.07546165 0.019839507 0.11938656 0.09814748
0001f0 a9 e5 e5 bd 31 92 d0 3d 2e d4 db bd 0d 89 1c bc
       -0.11225445 0.10184134 -0.107338294 -0.00955416

net.4.weight f4 [256, 128]
000000 3c 7a 8c bd 9e da 88 3d 78 5d 1c 3d 6e f5 63 bd
       -0.06859252 0.06682323 0.038175076 -0.055653982
000010 fe 5a 87 3d 60 b8 e7 bd 22 ff 98 bd 6e d9 98 3d
       0.06609152 -0.113144636 -0.07470538 0.074633464
000020 6c 23 75 bd ce b1 fd 3c 3f 77 af 3d 6f ff e7 3c
       -0.059848234 0.030968573 0.08567666 0.028320042
000030 b9 d9 b3 3c 08 a5 16 bc b6 4a 2e bc ca 72 fd 3c
       0.021954404 -0.00919462 -0.01063793 0.030938525
000040 54 76 c6 3b 13 1c a6 bd 00 bd b4 3d b6 57 d5 3c
       0.0060565863 -0.081108235 0.088251114 0.0260428
000050 de dc 6e 3d f1 60 bd bd c4 af e2 bc f7 20 cd bb
       0.058316104 -0.09247006 -0.027671702 -0.006260033
000060 fe ca a6 3d dd bc 7c bc 01 01 f2 3c 3a 5b 9b 3d
       0.081441864 -0.015425888 0.029541494 0.075857595
000070 4f 12 5d bd 7b af 8e 3d 26 bf 9b bc 56 a4 85 bc
       -0.05397254 0.06967064 -0.019012045 -0.016313713
000080 cc 1d 60 3d ce 5d 8a b9 ab 5f 84 3d d1 a0 a6 39
       0.054715917 -0.000263913 0.0646356 0.00031781805
000090 a6 0d 8a bd a7 c5 30 bd 05 f2 2a 3d 31 ab 4a 3c
       -0.067408845 -0.043157246 0.041734714 0.012369917
0000a0 c0 6f b1 3d a3 39 69 bb c4 a4 2b bd c0 c0 2d 3d
       0.08663893 -0.0035587333 -0.04190518 0.04242015
0000b0 40 c2 10 3c 07 d2 85 bd e4 18 aa bd 43 62 4f bd
       0.008835375 -0.065342 -0.08305529 -0.05063082
0000c0 95 cc 85 bb 1c ec 9d bd e6 85 82 bd d0 28 64 3c
       -0.004083226 -0.0771105 -0.06373195 0.013925746
0000d0 96 f2 ad bd 33 71 b6 3d 6f df 11 bb dc 60 76 3c
       -0.08493535 0.0890831 -0.002225842 0.0150377415
0000e0 f1 3b 8f 3d 53 68 95 bd ab 92 81 bd d7 7e 9b bb
       0.06993855 -0.07295289 -0.06326803 -0.004745345
0000f0 dc 5b b2 3b 54 33 ca bd 9f f4 a8 3d a7 1b d6 3c
       0.0054430794 -0.09873071 0.08249783 0.026136233
000100 5f 19 c3 3d 98 7d 07 3d a2 a9 d4 3c 3f 25 c0 3c
       0.095263235 0.03307876 0.025959793 0.02345526
000110 ac ed f5 bb b1 f7 3e 3d e1 e9 89 3d e2 e4 a2 bd
       -0.0075051393 0.046622936 0.06734062 -0.07953812
000120 f4 09 1e bc 9c ba 87 bc 6c 1f 44 bd 7c 89 36 bc
       -0.009645928 -0.016568474 -0.04788153 -0.011141177
000130 3a 15 1e 3d 05 1f a4 3d 90 14 76 bd 88 19 d3 bd
       0.038594462 0.08013729 -0.060078204 -0.10307604
000140 38 78 ac 3c af 67 0c bd 59 c1 0a 3b 8a 0b 05 bd
       0.021053419 -0.034278568 0.0021172373 -0.032481708
000150 14 7b 2b bd c9 bd c2 bd 9c 11 15 3d 93 fc 14 bd
       -0.041865423 -0.09508855 0.036393747 -0.036373686
000160 f6 e0 b4 3c a3 b1 40 3d 86 c3 e6 bc c7 41 77 3d
       0.022079926 0.047044408 -0.028169405 0.060365465
000170 90 5c e6 bc f2 7a 63 3c ff c2 c2 3c 94 6e c0 3c
       -0.02812031 0.013884293 0.023774622 0.023490228
000180 df 63 b2 bd 31 02 ef 3c 3e 7c 95 bd 21 80 9a bd
       -0.08710455 0.02917585 -0.07299088 -0.0754397
000190 b0 71 ae bd 63 a5 a6 bd 5c 16 9b bd 38 63 5c 3c
       -0.08517778 -0.08137014 -0.07572624 0.01345139
0001a0 ae 52 10 bc 3f 34 87 bd 05 33 ea ba 1d 7d 20 3d
       -0.008808775 -0.06601762 -0.0017867988 0.039181817
0001b0 cf 8e 7a bd ea 97 29 bd 85 69 1f 3d 4d 7a f5 3c
       -0.06117135 -0.041404642 0.03891899 0.029965544
0001c0 2d 75 0f bb b5 96 a6 bc ff 52 70 3d 3d cc d7 3d
       -0.002188991 -0.020335535 0.0586729 0.10537002
0001d0 fd e9 27 bd fa 6e f3 bc 99 40 cd 3c 6a 6c 86 b7
       -0.040994633 -0.029716004 0.025055217 -1.6024529e-05
0001e0 a4 b7 54 bd 88 90 b7 bd 90 22 8b bd af b8 03 3d
       -0.051932946 -0.08963114 -0.06793702 0.03215855
0001f0 ec e2 aa bb f5 6b 00 bd 0f 55 27 bc f3 d8 90 bd
       -0.0052150395 -0.031352956 -0.010213151 -0.0707263
000200 0f e8 5d 3d 8f 4d 12 bd 27 a8 d8 3d 8b 0b a7 3d
       0.054176386 -0.035718497 0.105789475 0.081564985
000210 ca b4 e7 3c 9e 6f 6c bc b7 82 df 3d fb 3a 1a 3b
       0.02828445 -0.0144309085 0.10913604 0.002353369
000220 99 50 51 3b 1d 8f 11 bd dc d7 9d bd 67 bb b6 bc
       0.003193891 -0.035536874 -0.077071875 -0.022306157
000230 69 46 d5 bc d3 d5 fe 3c 76 5b d2 3d 59 a1 d7 3c
       -0.02603455 0.031107819 0.10271351 0.026322054
000240 b6 4c 26 3d 49 c5 17 3d 9a 30 1d be 3b b6 55 3d
       0.0406005 0.03705338 -0.15350571 0.05217574
000250 ce 6e ae 3c 4b 24 b9 3d d0 e6 8a 3d 9a 01 77 3c
       0.02129307 0.090401255 0.06782305 0.015076065
000260 a5 78 3a bd 5b 07 75 3c 91 aa a4 bd dc fc 08 be
       -0.04552521 0.014955367 -0.080403455 -0.13377708
000270 c6 00 a5 3d 14 8b 25 3d d0 b0 24 3d bb 72 50 3c
       0.08056788 0.04041584 0.040207684 0.012722666
000280 63 35 dd 3c e5 48 85 bd 16 f6 ee bc 88 cf d0 bb
       0.027002996 -0.06508044 -0.029170077 -0.006372396
000290 7f 77 ba bc 0a 28 89 3c 77 74 b0 bb 4e 32 6a 3d
       -0.022762058 0.016742725 -0.0053849774 0.05717688
0002a0 f3 26 81 3d 21 8f 7d 3d 6a 39 da bc 86 41 8a bb
       0.06306257 0.061904076 -0.026638705 -0.004219237
0002b0 64 a3 ac 3c 40 9c cf 3c 1e b7 b5 3b 34 97 95 bc
       0.021074004 0.02534306 0.005545511 -0.018260576
0002c0 44 32 a3 bb b4 4f 6a bd f4 9c 70 bb 37 6c 22 3d
       -0.0049803574 -0.057204917 -0.0036714645 0.039653983
0002d0 76 e0 b4 3d f5 47 ee bd 46 36 8c 3c 32 73 05 bd
       0.08831875 -0.116348185 0.017115723 -0.032580562
0002e0 00 32 9c bb 4e ab 29 3d da b3 47 3d cc 3a b0 3d
       -0.0047667027 0.041423135 0.048755504 0.086049646
0002f0 c7 91 84 bc 03 6c a5 bd 47 85 7c bd ba 2a 54 3d
       -0.016182793 -0.08077242 -0.06165054 0.05179856
000300 87 45 ff 3c 71 95 31 bd 65 a3 3c 3d 48 5b 95 bd
       0.031161083 -0.04335541 0.046054263 -0.07292801
000310 ed ad 70 3d fb 31 28 3d e4 0c bc 3a 91 0b 07 bd
       0.05875962 0.04106329 0.0014347103 -0.032970015
000320 83 1a a3 bd a1 ac a3 3c 91 0a 60 3d 97 c6 48 3d
       -0.07964041 0.019979777 0.054697577 0.049017515
000330 ff 42 c7 3d 92 8c a0 3c 3c f0 29 3d 73 88 37 bd
       0.09729575 0.01959828 0.04148887 -0.044807862
000340 cc 89 7f 3d ac af a3 bd a7 76 38 bd 09 a7 1d 3c
       0.062387273 -0.07992491 -0.04503503 0.009622344
000350 21 4e 87 bd c7 72 a1 3d d7 ad eb bb d6 d7 97 bc
       -0.06606699 0.0788322 -0.007192354 -0.018535536
000360 3e 4a 09 bd 7c 31 93 bc 96 28 25 3d e1 3a 56 bd
       -0.03351807 -0.017967932 0.04032191 -0.052302245
000370 ad e8 13 bd 9e c9 03 bd 96 e6 8f bd 34 35 9a bd
       -0.03611057 -0.0321747 -0.07026403 -0.07529679
000380 4d aa bd 3d b4 89 34 3d 4c 16 e8 3c 38 3e b8 3d
       0.09260998 0.044076636 0.028330944 0.08996242
000390 9f fd 87 3d 49 73 49 bc d0 01 b5 3c 49 9e 88 bc
       0.06640171 -0.0122955525 0.02209559 -0.016677039
0003a0 74 55 fc 3c 1a 0c a4 bc 85 1f af bd 75 d9 4a bd
       0.030802466 -0.020025302 -0.08550934 -0.04952379
0003b0 0d ac e0 3d 06 1a 46 3c b2 b2 2a 3d d3 59 cb 3d
       0.10970316 0.012091165 0.041674323 0.09929242
0003c0 2e 12 6d 3d c6 8a 78 3d 17 ac 64 bb 78 e0 b2 bd
       0.057878666 0.06067922 -0.0034892613 -0.0873422
0003d0 7e ca 6c bd 70 32 e1 3c 70 c9 95 3d 83 4f c6 bd
       -0.0578103 0.02748987 0.07313812 -0.096831344
0003e0 8c ec c0 bd 2b 54 04 3e f8 fa aa bd a1 ec 03 bd
       -0.09420118 0.12922733 -0.0834865 -0.03220809
0003f0 8b a0 38 3d 2d 9f 44 3c 04 fc 1c bd 89 53 cb 3b
       0.04507498 0.012000841 -0.03832628 0.0062050265

net.4.bias f4 [256]
000000 30 42 4e 3d 95 29 86 3c 84 f0 73 bd bf 7e 97 bd
       0.05035609 0.01637725 -0.059555545 -0.07397222
000010 04 87 6d 3d 4a 83 ec bb 71 fd a6 bd 23 20 08 bd
       0.05799009 -0.0072177993 -0.08153809 -0.033233773
000020 1f 05 e2 3d 37 9a 79 3d 72 1e 8a 3d 2e b8 66 3d
       0.11036133 0.060938086 0.06744088 0.05632799
000030 7a e5 d6 3c c4 b9 ec bc 0f a2 f2 3c f0 2d 51 bd
       0.02623247 -0.028897174 0.029618291 -0.0510692
000040 61 e4 f2 bc 4b 72 a1 3d ce a3 e4 3c b2 e5 a6 3d
       -0.029649915 0.07883128 0.02791014 0.0814928
000050 bb 10 9e 3c b7 03 a6 3d ff bd b8 3c 06 46 96 bc
       0.019295087 0.08106177 0.022551535 -0.018343937
000060 db 99 36 bd ba 26 1c 3d 41 00 78 bd ea f9 56 3d
       -0.04458032 0.03812287 -0.060547117 0.05248443
000070 bb 24 b0 bd 4e 7c 35 bd a6 d2 b9 3c ec eb ae bd
       -0.08600756 -0.044308 0.022683453 -0.08541092
000080 c7 c0 a8 bc 3f d4 ae bd fb cf 52 bb 66 00 d7 3d
       -0.020599736 -0.085365765 -0.0032167423 0.10498123
000090 31 7b c3 3d 8c 83 8b bc 20 3c 29 3c 04 97 9e 3d
       0.09544981 -0.0170305 0.010329276 0.07743648
0000a0 73 64 44 3d 51 53 bf 3d ef 46 83 bd 05 a4 d8 bd
       0.04794736 0.09342063 -0.06410014 -0.10578159
0000b0 41 b4 9f 3d 5d 62 1c bc bb b0 50 3c d7 1c 05 3d
       0.077980526 -0.009544936 0.012737448 0.032498207
0000c0 4d 5c 3c bd a7 ce 51 3d 4b e0 12 3c ed 15 39 bc
       -0.045986462 0.05122247 0.008964608 -0.011296731
0000d0 f4 cc 52 3d 65 b2 82 3d e4 47 87 bd 2a af ee 3c
       0.05146499 0.06381682 -0.06605509 0.02913626
0000e0 a6 53 86 bd ea da 82 3d 8d 78 c5 bd f2 b6 cb bd
       -0.065589234 0.06389411 -0.09642134 -0.099470034
0000f0 de 37 23 bd 51 9c d0 3c 1e 41 e8 3c 0b 9e a0 bc
       -0.0398482 0.025465162 0.028351363 -0.01960661
000100 ea df a3 3d 00 da 04 bd 14 1c 65 3c 1a 75 e0 3c
       0.080016926 -0.032434464 0.013983745 0.027399588
000110 e0 9a 93 bd ac 57 1c bd a2 e9 dc 3c 1e 27 86 3d
       -0.072072744 -0.038169548 0.026966874 0.0655043
000120 21 6b dd bd af 94 62 bb 38 ab bd bd 05 03 85 3d
       -0.10811449 -0.0034573486 -0.09261173 0.064947166
000130 3b 90 b7 bd c4 31 3b bd bb 9a 38 3a fc db 3a 3d
       -0.08963057 -0.045701757 0.00070420996 0.04561995
000140 a4 51 e5 bc ec 2b 33 3d 3e 14 0d 3d f5 ce 2d 3c
       -0.02799303 0.04374306 0.034443133 0.010608424
000150 bb 71 91 3c 75 c0 24 bd c0 3d 80 3d 72 6b 9c bd
       0.017754426 -0.040222604 0.06261778 -0.07637681
000160 9b af e7 3c fa 91 b6 bc df 80 84 3c 84 cf 40 3d
       0.028281977 -0.022286404 0.016174732 0.047072902
000170 a1 44 68 bd 53 e6 02 bc 97 7b 39 bc b4 34 a2 bd
       -0.056706075 -0.007989484 -0.01132097 -0.079202086
000180 43 a2 85 bd d7 0b a2 bb 6c 6a 8e bd 1d f2 ce bd
       -0.065250896 -0.004945259 -0.06953892 -0.10104773
000190 24 52 82 3c 75 98 27 bd 1d b0 88 bd 21 ea a6 3b
       0.015908308 -0.04091688 -0.06674216 0.0050938283
0001a0 f0 3a 86 bd 2b fe e2 bc b0 bc f0 3b bc 44 f6 bc
       -0.0655421 -0.027709087 0.007346712 -0.030062072
0001b0 b7 2c 5f bd 40 21 e8 bd 97 47 22 bc b3 42 dd ba
       -0.054486003 -0.11334467 -0.009904764 -0.001688084
0001c0 92 97 2b 3d 17 d6 9a bd d6 4f 6f 3d 98 4f c4 3c
       0.041892596 -0.07560366 0.058425747 0.023963735
0001d0 78 14 ab 3d 63 31 9c 3c cb 6d 84 3d 84 8b 91 3d
       0.083535135 0.019066518 0.06466254 0.071066886
0001e0 93 56 03 bd b0 65 17 3d 77 04 d9 3d ae 65 6c 3d
       -0.032064985 0.03696221 0.10596555 0.057714157
0001f0 5e 73 43 3d cb ca 6a 3d bc b3 1b bd 8a 58 e0 bd
       0.047717445 0.057322305 -0.038013205 -0.109543875
000200 8c 50 47 3d a8 68 14 bd 30 65 e0 3b b3 64 8e 3d
       0.0486608 -0.03623262 0.006848 0.069528006
000210 fe 3d 46 bd 95 42 96 bd 76 ca 21 bd a7 cd ba 3d
       -0.048398964 -0.07336918 -0.039499722 0.09121256
000220 92 c2 66 3d c7 2e 95 3d bb f1 55 3d c2 81 e7 bc
       0.0563379 0.07284313 0.052232485 -0.028260116
000230 64 8e a0 3d 23 55 8d 3d 4f 08 b2 3d 4c 6b 06 3c
       0.07839659 0.06901004 0.08692991 0.0082042925
000240 2c 29 4d bc 98 93 e9 bd 6d 2e 23 bd ab 9e 49 bd
       -0.012522023 -0.114051044 -0.039839197 -0.049223583
000250 5a 4e 1a 3d 39 5f 34 bd 07 b1 e9 bc 35 be 55 3c
       0.037672378 -0.044036124 -0.028526796 0.013045837
000260 13 f4 79 3a 93 45 fa 3b ec bd 8c 3d bf 30 82 bd
       0.0009534966 0.0076376884 0.06872162 -0.06356954
000270 3f 90 2d 3d 5e 29 84 3d fd c4 a0 bc aa f3 fe bc
       0.042373892 0.06453203 -0.019625181 -0.031122047
000280 03 cb 35 3d d5 0f ef bd 82 30 2e bd 84 36 27 3c
       0.04438306 -0.116729416 -0.04252673 0.010205869
000290 12 de 80 bd ef 73 23 3b 6f 94 20 bd a3 dc 45 bc
       -0.062923566 0.0024940928 -0.039204057 -0.01207653
0002a0 9b fa a8 bd 1f e9 7b 3d f2 9e 1a bd 30 f3 71 bc
       -0.08250924 0.06150162 -0.03774924 -0.014767453
0002b0 07 51 a9 bc f5 fa dd bc dc e5 a0 bd e5 35 b0 bb
       -0.02066852 -0.027097205 -0.07856342 -0.0053775185
0002c0 9a 27 af 3d 55 57 b0 bd 98 46 1d 3c c1 ee 14 bc
       0.08552475 -0.08610407 0.00959935 -0.0090901265
0002d0 d8 d6 db bd cb e3 ee 3c a9 d7 b2 3d 2b 4a 56 bd
       -0.107343376 0.029161355 0.0873254 -0.052316826
0002e0 21 60 56 bd c9 03 39 bd 4e c3 c2 bd 6d 85 9b bc
       -0.05233777 -0.045169625 -0.09509908 -0.01898452
0002f0 ed 8e be 3d e7 6d 97 bc 7e 11 84 bd 36 47 13 3c
       0.09304605 -0.018485023 -0.06448649 0.008989146
000300 9e b7 77 3d 49 2a 7c bd 7f 9b ae 3c 69 6f 19 3d
       0.060477845 -0.061563764 0.02131438 0.037459765
000310 27 72 87 bd 73 5c a6 bd 0e e2 c9 bc de d2 ac bd
       -0.0661357 -0.08123102 -0.024643924 -0.08438657
000320 63 49 61 bd 08 51 e2 3c 96 4c ca 3c 48 4d 89 bd
       -0.055001628 0.02762653 0.024694722 -0.06704193
000330 84 5d 9c 3b d0 91 b1 bd 54 9c 11 bd ac 46 a6 3d
       0.00477189 -0.0867039 -0.035549477 0.08118948
000340 01 c1 27 bd d8 33 bf bd 79 d8 e0 bc d5 9c 1e bd
       -0.040955547 -0.0933606 -0.027446972 -0.038723785
000350 91 a1 a6 3d 0e a0 5a bd b1 a7 af bd fe 46 8a bd
       0.08136285 -0.053375296 -0.085769065 -0.06751822
000360 d2 bb 49 bd 70 3e 4c 3d e6 25 95 3d d2 a1 56 3d
       -0.049251385 0.049864233 0.07282619 0.052400418
000370 f6 0a b7 bd af 7e 02 3d 4b 13 24 bc 75 d7 61 3d
       -0.089376375 0.031859096 -0.010014365 0.055137116
000380 8e fb 4a 3c 65 3f b2 bd d4 c5 d9 bb ab 92 c1 3d
       0.012389077 -0.08703498 -0.0066458974 0.09451803
000390 36 71 6a bd 85 47 8c 3d 87 96 90 bd 04 48 6c 3d
       -0.057236873 0.06849579 -0.07059961 0.057685867
0003a0 4b c1 b4 3d 1f 02 df bc e8 f1 cc 3d 00 b5 40 bd
       0.0882593 -0.027222691 0.100070775 -0.047047615
0003b0 44 16 ee bd 52 81 0e 3c 8c 13 63 bd 92 90 e2 3b
       -0.116253406 0.008697825 -0.055438563 0.006914207
0003c0 93 ff 04 bd 66 ee 3f 3d 5b 3d 90 3c b1 58 4a bd
       -0.032470297 0.046858214 0.017607382 -0.04940099
0003d0 1c 76 39 3d 59 c3 7a 3d 1e f5 c7 bc 75 f8 0f bc
       0.045278654 0.061221454 -0.024408873 -0.008787264
0003e0 80 c3 3e bd 21 3d 2e bb af 32 c4 bc 6e 95 59 bd
       -0.046573162 -0.0026586729 -0.02394995 -0.053121023
0003f0 16 c2 b0 bd 4a 12 d6 bc 73 b8 39 bd a7 4d 98 3d
       -0.08630769 -0.026131768 -0.04534192 0.07436686

net.6.weight f4 [2, 256]
000000 e8 5a 33 bb a1 37 76 3c 38 66 bd bd b5 20 d9 3d
       -0.0027367417 0.015027911 -0.09248012 0.106019415
000010 f0 96 28 3d b5 33 eb 3c 39 92 a1 bd 2f 3f a3 bd
       0.04115957 0.02871118 -0.07889218 -0.07971036
000020 9a 1d b3 bd c2 a6 a6 3d 97 11 53 3d 09 7e 6f 3d
       -0.087458804 0.08137275 0.051530447 0.058469806
000030 23 f6 4a 3d 71 b7 e7 3d e0 21 c9 3d b3 bb d9 bd
       0.04955114 0.113142855 0.09820914 -0.10631504
000040 4e 6c 4f ba 94 b8 3f bd c8 e0 be bd cc fe 0c bd
       -0.0007912562 -0.046806887 -0.09320217 -0.03442268
000050 99 90 dc 3c 51 9d b7 bd 8d c4 a2 bd 83 77 48 bc
       0.026924418 -0.089655526 -0.07947645 -0.012235525
000060 64 c4 69 3d 9e 45 91 3d 29 6f 83 bd 01 f8 d1 3d
       0.05707206 0.070933565 -0.064176865 0.10252381
000070 22 19 cf 3b c8 c8 e0 3c 62 c4 da 3d 8a e6 6e 3d
       0.0063201347 0.02743949 0.10681988 0.058325328
000080 e8 85 ef 3d a8 ab 72 3d 8a bb 73 3d 7d 4d 59 3c
       0.116954625 0.059245735 0.059505023 0.013263104
000090 ff 2d a2 3d 1f fe 0c 3d 4e b6 ed 3d 4b 84 6e 3c
       0.07918929 0.034422036 0.116070375 0.014557908
0000a0 e7 c9 69 3d 76 2a 02 3e f9 65 ca bd ab 64 8d bd
       0.057077315 0.1271151 -0.09882731 -0.069039665
0000b0 86 4f e0 3d 63 5d 18 3d 14 56 75 bd 97 a8 c0 bd
       0.10952668 0.037198436 -0.059896544 -0.09407156
0000c0 c5 cc 07 be da ab 9c 3d 91 76 93 bd 4e 0b a2 bd
       -0.13261707 0.076499656 -0.07200349 -0.079123124
0000d0 d4 20 da 3c ba ef a1 3d 00 17 01 bc 27 14 d4 3d
       0.026626982 0.07907052 -0.007879019 0.10355406
0000e0 dd a7 08 3e d1 8d ed bc 61 eb bd 3d 3d c5 f4 bd
       0.13345285 -0.028998287 0.092734106 -0.11951683
0000f0 f0 87 eb bc fb d8 b5 bd a0 a9 df 3b 30 f9 e0 bd
       -0.028751343 -0.08879276 0.006825641 -0.10985029
000100 6b 35 9a bd 03 af 1c 3d 75 1b 82 bc d4 f5 bc 3d
       -0.0752972 0.03825284 -0.015882233 0.092265755
000110 54 13 da 3d 76 90 a4 3d d9 60 c5 bd 61 d6 01 3e
       0.10648218 0.08035366 -0.09637613 0.12679435
000120 b4 a2 98 bd 84 23 a8 3d c0 1d 8c bd b6 74 df 3d
       -0.07452908 0.08209899 -0.06841612 0.10910933
000130 b1 52 85 3d e8 0e 3a bd 8a 9e 19 bd 14 4b b9 3d
       0.06509913 -0.045424372 -0.03750471 0.09047523
000140 80 15 7c bb d9 4e d9 3d f3 ba ac 3d 26 c3 4f 3d
       -0.0038464963 0.10610742 0.08434095 0.050723217
000150 2c 35 a1 3d 02 46 03 3d 4e 9f 9d 3d a0 a4 25 3d
       0.0787147 0.032049187 0.076964006 0.0404402
000160 72 89 15 3b f8 4d 47 bd 14 55 c6 bd a0 eb 59 3d
       0.002281752 -0.04865834 -0.09684196 0.053203225
000170 64 9d 4a 3d 4b 0f ee 3d 36 1d 3c 3d 74 75 f7 3c
       0.049466506 0.11624011 0.045926295 0.030207373
000180 50 b4 9d bd 42 84 a1 bd 01 90 ec 3d a2 bc 98 bd
       -0.077004075 -0.07886554 0.11550904 -0.07457854
000190 45 85 80 3d df 60 9e 3d 64 a6 04 bd 70 55 1a 3d
       0.06275419 0.077333204 -0.032385245 0.037679136
0001a0 f1 51 f5 3c aa ac 45 3d e8 e4 3f bc 89 94 83 3b
       0.0299463 0.04826037 -0.01171229 0.0040155095
0001b0 02 da d8 3d ae 94 97 bd 98 0b 9a bc 45 cd 9c 3d
       0.10588457 -0.07401405 -0.018804356 0.076563396
0001c0 9f 32 41 3d 16 7f 57 bd a6 d5 28 3d a2 58 45 bd
       0.047167417 -0.052611433 0.041219376 -0.04818023
0001d0 e1 bb de 3d eb 2a cf bb 12 9a 62 3d 5e 48 89 bd
       0.10875679 -0.006322255 0.055322714 -0.06703256
0001e0 13 52 12 3e a7 59 80 bd 46 fb 6e bd c6 3b d8 3d
       0.14289121 -0.062671 -0.0583451 0.10558276
0001f0 24 4e 04 3e 0a 95 69 bd 6c 46 05 3d 55 6e 70 3d
       0.12920433 -0.0570269 0.032537863 0.05869897
000200 75 ea 31 bd c9 4b 35 3d bf 5d 93 bd 1b b7 26 bc
       -0.043436486 0.044261727 -0.07195615 -0.010175492
000210 78 c4 fd 3c c5 58 a5 3c 06 7d fe 3b e5 0d 57 3d
       0.030977473 0.02018393 0.007766369 0.052503485
000220 ab 44 ad 3d 9d 40 3e 3d 71 1c 28 3d d8 b0 a0 bc
       0.08460363 0.04644834 0.04104275 -0.019615576
000230 d5 01 4a 3d 2a ed 16 bd 0e 25 9e 3d 8b d2 b5 3d
       0.049318153 -0.03684727 0.07721911 0.088780485
000240 bf e3 64 bd c8 8c 14 bd 32 68 3e 3d f4 32 cd 3c
       -0.055881258 -0.036267072 0.046486087 0.02504871
000250 bb ae 03 3e aa a5 02 3e 74 fc 47 3d 95 1f b8 bd
       0.12859623 0.12758508 0.048824742 -0.08990399
000260 7f 78 92 3d e1 cf de 3c 79 48 54 3d f9 d4 45 bd
       0.07151889 0.027198734 0.051826928 -0.04829881
000270 6e 6e 95 3d 5b ec ab ba 20 da c0 bd 11 69 d1 3d
       0.072964534 -0.0013116704 -0.09416604 0.10225118
000280 6e 7e e5 bc 3e a1 bb bd 50 23 b8 bc 41 df f8 3d
       -0.028014388 -0.09161614 -0.022477776 0.12151957
000290 28 0b 2c 3d 38 ab b3 3d 17 c8 dd bb ee c9 d8 3d
       0.042002827 0.08772892 -0.0067682373 0.1058539
0002a0 43 aa a7 bd 4f aa e8 3d bd 82 bd 3d da ca e8 3d
       -0.08186772 0.11360609 0.09253452 0.11366816
0002b0 d6 c7 98 bd c7 a0 9e bd e2 67 26 3d e6 de 90 bd
       -0.07459991 -0.077455096 0.040626414 -0.070737645
0002c0 2c 46 bd bd 4b 3d 38 3d 26 18 e0 bd ac 20 70 bd
       -0.092419 0.04498033 -0.10942106 -0.05862491
0002d0 84 36 00 be e1 80 55 3c 77 1b eb 3d c7 88 79 3d
       -0.12520796 0.013031215 0.11479848 0.060921457
0002e0 bc b0 43 3d d2 a5 64 3c 4d 9c ec bd e4 e0 cc 3c
       0.04777597 0.01395555 -0.115532495 0.02500958
0002f0 ab 93 ad 3d 35 1d a6 bd 46 5e 0c bd 4a 86 a9 3d
       0.08475431 -0.081110395 -0.034269594 0.08277567
000300 31 4d f7 3d 47 f9 91 3d 90 69 7a bd 0d 12 2e 3c
       0.1207527 0.07127624 -0.06113583 0.010624421
000310 f2 0e 26 3d 6d 6a bc 3d 3c 7d 1f 3d d8 1a f9 bd
       0.040541597 0.091999866 0.038937792 -0.12163323
000320 78 72 c6 bc 0f d3 9c bd 99 44 69 3d d8 8e ce bc
       -0.024224505 -0.07657444 0.056950185 -0.025214598
000330 40 6f 00 be f8 e9 49 bc 4b 96 c7 3a 25 65 cb 3d
       -0.12542439 -0.012323849 0.0015227286 0.09931401
000340 ba a4 f2 3d ec 54 96 bd 9f 2a 34 3d 19 ce 41 bd
       0.11847825 -0.07340416 0.04398596 -0.04731569
000350 f2 6b 48 3d 30 17 ab 3d 88 18 5c 3d 84 85 e1 bc
       0.04893107 0.08354032 0.053734332 -0.027529486
000360 00 18 a7 3b 44 05 b8 3d c6 73 c3 3d 56 52 fe bc
       0.0050992966 0.08985379 0.095435664 -0.03104512
000370 45 8d fb bd 76 ef b5 3d f4 55 1f bd 68 ff 5c 3d
       -0.122828044 0.08883564 -0.03890033 0.053954512
000380 50 c4 7e bd c0 39 87 3c 49 bf ad bd 93 d5 ce bd
       -0.062198937 0.01650703 -0.084837504 -0.1009933
000390 f0 c6 54 3c 78 e7 e1 3d 1b 1a 30 bc 36 a9 92 bb
       0.0129868835 0.11030477 -0.0107484115 -0.004475738
0003a0 81 7a a7 bd 3b ea 2b 3c 80 1f a1 bd a6 ae 1e 3d
       -0.08177663 0.010492857 -0.07867336 0.038740776
0003b0 30 00 62 bd 76 c1 c8 3d 10 f4 62 3d ba 3c cf 3d
       -0.05517596 0.09802525 0.055408537 0.101190045
0003c0 5b d6 82 3d 8c d5 b8 3d a0 ad 1a bd 1c 30 a1 3d
       0.06388541 0.09025106 -0.037763238 0.07870504
0003d0 28 e1 5a bd 07 5f 7f 3d 90 4a 82 3b 5c 2e a0 3d
       -0.053437382 0.062346485 0.0039761737 0.07821342
0003e0 22 58 46 3d 98 b5 0b bc 6a f1 2a 3d b8 92 9e 3c
       0.048423894 -0.008527182 0.041734137 0.01935707
0003f0 28 f9 12 3c 77 4e b5 3d 04 7f ca bc 56 c1 ea 3d
       0.008970536 0.088528566 -0.024718769 0.11462657

net.6.bias f4 [2]
000000 2a 0f 02 3d f2 df 9d bd
       0.031752743 -0.0770873

exp_avg f4 [64, 2]
000000 32 40 8f b7 bd 7f b4 b8 b9 f3 20 ba 58 8d 1a 38
       -1.7076822e-05 -8.606862e-05 -0.0006139833 3.6848098e-05
000010 0b c3 dd 38 a4 87 f2 3a a6 0d 91 b8 d2 b8 89 39
       0.00010574431 0.0018503559 -6.916681e-05 0.00026268378
000020 16 a3 e5 37 d2 ae 25 ba 9c 26 ac b6 4f 19 78 b9
       2.737487e-05 -0.0006320301 -5.130494e-06 -0.00023660551
000030 1d 50 e1 b5 ab b3 2e b6 f9 24 8e 35 3b a6 2f b5
       -1.6787122e-06 -2.60326e-06 1.0590585e-06 -6.543448e-07
000040 8a 6a e5 b7 ee a6 45 b7 66 3d 56 b9 21 c8 e5 38
       -2.7348538e-05 -1.1780981e-05 -0.00020431503 0.00010956848
000050 d1 22 9a b9 f3 c6 fd b6 16 99 23 b6 a3 ab e7 b5
       -0.0002939911 -7.5631483e-06 -2.4378e-06 -1.7260794e-06
000060 d1 4f 03 35 1f eb 10 b6 03 ac aa 39 d0 94 8d 39
       4.891745e-07 -2.159453e-06 0.00032553085 0.0002700449
000070 85 26 b9 38 28 4c 26 b8 25 da 31 b9 11 b7 14 39
       8.828662e-05 -3.964841e-05 -0.000169613 0.00014182577
000080 ea 6e 84 b9 65 f7 14 b9 5f ff d8 b5 20 50 f2 34
       -0.0002525964 -0.00014206542 -1.6167577e-06 4.513431e-07
000090 52 bc 99 3a 53 49 27 39 3c fc 95 b9 dc 9d 81 b8
       0.0011729097 0.00015953676 -0.00028607424 -6.180603e-05
0000a0 1c e5 47 b4 a6 24 80 b2 97 25 a6 ba dc 65 b8 ba
       -1.8616669e-07 -1.4917827e-08 -0.0012675998 -0.0014068442
0000b0 fc 5b b9 ba 1d 0c 90 ba 5e 6c b1 35 86 d0 38 3a
       -0.0014141793 -0.0010989938 1.3219067e-06 0.00070501154
0000c0 84 9a a6 37 86 6c 8c b7 c4 e2 98 b9 59 9f 85 3a
       1.9860694e-05 -1.6739836e-05 -0.00029160653 0.0010194584
0000d0 17 28 99 ba 7b b7 a4 b9 c1 73 30 b9 8a 42 84 38
       -0.0011684921 -0.0003141722 -0.0001682779 6.306644e-05
0000e0 f7 53 05 38 de b7 01 3a 92 40 c6 3a 83 11 15 b9
       3.178787e-05 0.0004948358 0.0015125445 -0.00014216271
0000f0 d6 30 5f 38 a4 97 b5 36 48 47 ce b8 14 36 21 39
       5.3212825e-05 5.4118736e-06 -9.8361226e-05 0.00015374302
000100 29 b6 7b 38 7e 18 63 3a 9e 36 0c ba c9 50 81 39
       6.0012713e-05 0.00086630124 -0.0005348715 0.00024664987
000110 11 44 09 b9 4b 51 4e 38 45 0f 6f 39 15 ba 31 39
       -0.00013090695 4.9189937e-05 0.00022798505 0.00016949356
000120 01 b9 1e 3a e7 cb e2 38 5e 3c 17 36 d4 d5 44 35
       0.00060547894 0.000108144995 2.2535892e-06 7.332685e-07
000130 5a ee 7b ba eb 5d 3e b9 fd 4d a8 ba b2 b3 b3 b8
       -0.0009610407 -0.00018154799 -0.0012840625 -8.568856e-05
000140 7a 2f 03 b9 40 32 0f 39 2e 2e e3 b9 c6 84 61 38
       -0.0001251082 0.00013656262 -0.0004333122 5.3767835e-05
000150 2e c3 90 b4 cd 3e cd b5 1c 32 46 36 f2 63 04 39
       -2.6964102e-07 -1.5291968e-06 2.9533467e-06 0.00012625734
000160 63 a1 e4 b5 03 fa 98 b5 74 58 7f b9 30 7c 9e b9
       -1.7034293e-06 -1.1397645e-06 -0.00024351646 -0.00030228635
000170 b9 d2 84 39 79 3a 7c 39 bf bc c3 39 a9 19 f7 38
       0.00025334003 0.00024054376 0.00037333925 0.000117826574
000180 a0 24 68 ba e7 19 24 bb 43 cb 46 3a da 01 80 39
       -0.0008855555 -0.0025039853 0.0007583389 0.00024415442
000190 48 4f 99 b9 78 95 2b 3a d7 d2 f5 38 64 16 d2 38
       -0.00029241503 0.0006545405 0.00011721782 0.00010017751
0001a0 e5 c7 15 3a 3d 5f 01 b9 4f ac e4 3a bd e2 58 3a
       0.00057136855 -0.00012337878 0.0017446371 0.0008273533
0001b0 3f c5 95 b5 ca ea 9d 35 eb e6 d9 35 a8 cf 81 33
       -1.1158771e-06 1.1765744e-06 1.6234966e-06 6.044803e-08
0001c0 e2 25 30 b9 6a c9 7c b9 9f e9 8a 3a 85 90 95 39
       -0.0001679878 -0.00024107625 0.0010598189 0.0002852717
0001d0 fa 9f d4 35 a0 df d9 b5 02 96 c2 39 22 49 d6 b9
       1.584179e-06 -1.6232843e-06 0.00037114328 -0.0004087175
0001e0 67 23 0e b9 dd ba ef 38 22 6b 69 b9 8a 6a fa b9
       -0.00013555364 0.00011431214 -0.00022260522 -0.00047763094
0001f0 ee 72 f9 39 dc e1 91 36 b4 ba 5d 38 b9 31 bf b7
       0.0004757861 4.3476302e-06 5.2864387e-05 -2.2792128e-05

exp_avg_sq f4 [64, 2]
000000 4d f7 46 36 96 b6 6e 37 0f 57 73 36 f8 ab d2 34
       2.9648247e-06 1.4228417e-05 3.6260496e-06 3.9240672e-07
000010 a6 b1 51 35 7b ee 96 36 d5 c5 18 36 85 1e b6 35
       7.811708e-07 4.498111e-06 2.2764918e-06 1.3568939e-06
000020 b9 bc b4 35 67 9e e2 35 48 23 95 36 f2 74 d9 36
       1.3465971e-06 1.6884413e-06 4.4446533e-06 6.480718e-06
000030 5b e2 39 2f dd 30 4d 2f c3 e0 1f 2f 7d c8 09 2f
       1.690607e-10 1.8662001e-10 1.4540817e-10 1.2531305e-10
000040 0b e2 14 36 2c d5 bd 35 e6 4b 8e 34 a7 94 49 34
       2.2185293e-06 1.4143639e-06 2.6504785e-07 1.8773663e-07
000050 67 28 cd 35 cb 47 a1 35 8f 84 1a 2f 71 a7 0c 2f
       1.5285449e-06 1.2016329e-06 1.4053313e-10 1.2792413e-10
000060 a9 1b 08 2f 00 ce 04 2f 95 67 b0 35 c7 ee 8f 35
       1.2378955e-10 1.2078516e-10 1.3143168e-06 1.0723824e-06
000070 ab 77 15 37 dc 60 c7 35 0c 91 1c 35 f2 11 59 35
       8.908954e-06 1.4854845e-06 5.83256e-07 8.0864913e-07
000080 f2 7d 10 35 16 86 8d 36 95 b3 c0 2f 1f 46 c6 2e
       5.3827455e-07 4.217737e-06 3.5052197e-10 9.0164536e-11
000090 b5 5f 83 37 15 56 e4 35 9c ac 28 35 d3 fa a0 35
       1.5660984e-05 1.7012377e-06 6.2836057e-07 1.1993928e-06
0000a0 7a 86 68 2e 36 1b 58 2e 63 09 6c 36 cf ea e7 36
       5.2870132e-11 4.9136882e-11 3.5172204e-06 6.911672e-06
0000b0 9f 91 9a 36 7e 4d 13 36 e8 df e5 36 f5 f5 af 36
       4.60651e-06 2.1949813e-06 6.850798e-06 5.2440396e-06
0000c0 2d 0b 04 36 60 75 53 35 e0 eb 98 35 36 33 e2 35
       1.9676038e-06 7.877443e-07 1.1393531e-06 1.6853216e-06
0000d0 53 03 07 36 01 00 c3 35 0c 12 f9 35 de 54 40 35
       2.0118503e-06 1.4528633e-06 1.8557198e-06 7.164907e-07
0000e0 f5 08 2a 36 d4 c6 5b 36 81 fb 66 36 88 61 cd 36
       2.5337188e-06 3.2749276e-06 3.4419065e-06 6.12083e-06
0000f0 aa 7a 5f 35 00 2a 21 35 7a 79 42 36 8e 10 d0 36
       8.3252473e-07 6.003829e-07 2.8978961e-06 6.2008103e-06
000100 95 5c ab 35 2e 97 23 36 85 36 64 36 d9 b3 ed 35
       1.2767438e-06 2.437689e-06 3.4006382e-06 1.7710219e-06
000110 68 bb d4 36 4c 0f 7d 35 df 91 18 36 22 d7 c2 35
       6.3399093e-06 9.4272104e-07 2.2734673e-06 1.4516738e-06
000120 42 28 e5 35 20 ef 52 35 f8 ce a1 2f 86 f9 5e 2f
       1.7073546e-06 7.857907e-07 2.943279e-10 2.0279431e-10
000130 cd 68 f5 36 88 9a 53 35 87 9d db 36 45 e4 d2 35
       7.3137694e-06 7.88285e-07 6.545047e-06 1.5712654e-06
000140 7c 2d e1 35 76 95 ec 35 39 12 99 36 de 38 be 36
       1.6777044e-06 1.7626869e-06 4.5618767e-06 5.6690615e-06
000150 2b 2c 81 2f 3a 3f 11 2f e9 2e 51 35 00 a9 93 35
       2.3496347e-10 1.3210136e-10 7.792683e-07 1.1001539e-06
000160 ca 03 d2 2f 3c 76 b7 2f ce 17 26 36 cb ad ac 35
       3.820147e-10 3.3371517e-10 2.4749784e-06 1.2865579e-06
000170 05 34 88 36 84 86 61 36 59 40 89 36 11 46 df 35
       4.0591717e-06 3.360591e-06 4.090409e-06 1.6635187e-06
000180 1a f9 9c 35 7a a3 e9 36 a4 f4 2f 36 90 3c e5 36
       1.1695404e-06 6.9629723e-06 2.6219432e-06 6.8317822e-06
000190 65 4b 28 36 5e fa 0c 36 62 33 5f 34 f8 83 47 35
       2.5077836e-06 2.1007359e-06 2.0787186e-07 7.4325317e-07
0001a0 7d f8 7a 36 69 a0 71 36 05 13 d5 36 0b 8e c6 35
       3.7397542e-06 3.600517e-06 6.350109e-06 1.479349e-06
0001b0 fd c9 d9 2e b6 c5 10 2f 42 15 09 2f 32 23 89 2e
       9.903898e-11 1.3166965e-10 1.246763e-10 6.2362907e-11
0001c0 3d 58 d6 36 a5 d7 a1 36 9c 00 07 36 df e4 cd 35
       6.3879693e-06 4.8232782e-06 2.0116922e-06 1.53403e-06
0001d0 c9 51 1e 2f 9a dc cf 2e 08 f9 31 35 f9 49 40 36
       1.4399072e-10 9.452457e-11 6.6300026e-07 2.8653287e-06
0001e0 c7 41 b5 37 fe 72 28 36 eb ce 07 37 35 0a 20 36
       2.1607511e-05 2.5100885e-06 8.094804e-06 2.38478e-06
0001f0 99 7b 17 36 66 a6 c8 35 7b 4b 14 35 e4 3a 2f 35
       2.2572697e-06 1.494959e-06 5.5244135e-07 6.527828e-07

exp_avg f4 [64]
000000 26 0a 9a 3a 49 ba ba b8 de 27 1f 3a 06 b8 77 ba
       0.0011752292 -8.9038695e-05 0.00060713093 -0.0009449724
000010 16 43 31 b9 c2 c8 d0 3a ec 51 cc 35 af ff 49 36
       -0.00016905027 0.0015928971 1.5223027e-06 3.0100161e-06
000020 c6 b9 bb 39 d1 50 0a b6 e0 0e 0e ba a0 18 73 36
       0.0003580583 -2.0610644e-06 -0.00054190867 3.6224155e-06
000030 bc 6c da 35 40 8d 81 b7 b6 6e 3a 3a 8f 2b 94 35
       1.6273912e-06 -1.5443773e-05 0.0007111834 1.1039537e-06
000040 07 64 bd b7 7d f5 f7 b6 24 ea 86 ba dc 7b 53 ba
       -2.2577135e-05 -7.389752e-06 -0.0010293168 -0.0008067468
000050 1b 70 2d b6 d5 e7 91 3a f7 07 6c 37 51 3d 73 39
       -2.5844263e-06 0.0011131713 1.4068551e-05 0.00023197128
000060 05 32 ad 39 32 47 50 38 04 5d be b9 6f 5f c7 b8
       0.000330344 4.965737e-05 -0.00036308926 -9.506835e-05
000070 19 d9 87 3a 39 0b 08 b8 0d a0 84 b8 e8 01 1c ba
       0.0010364383 -3.243538e-05 -6.324062e-05 -0.0005951212
000080 94 c3 9b 39 0c 18 8b 39 c7 0b 4c 37 91 8a 1e ba
       0.0002970962 0.00026530062 1.216209e-05 -0.00060478697
000090 3c 44 11 3a 98 f4 29 36 01 63 79 ba 96 2a 2a 3a
       0.0005541479 2.5325335e-06 -0.0009513349 0.0006491331
0000a0 20 29 c9 b9 b3 4b 93 b9 74 5b 0e 35 e1 48 19 b9
       -0.00038368348 -0.00028094425 5.3032204e-07 -0.00014618367
0000b0 04 02 88 b6 be fb cb 39 a2 3d d3 b8 eb af 43 ba
       -4.0533505e-06 0.0003890674 -0.00010072744 -0.00074648735
0000c0 5c 5d ae 3b 37 dc 3c ba 72 01 04 ba 16 91 0c 39
       0.005321188 -0.00072044454 -0.0005035616 0.00013405489
0000d0 9c 60 eb 38 76 c5 1a bb f4 31 a1 b6 b2 46 ee b6
       0.00011223668 -0.002361623 -4.803989e-06 -7.1011827e-06
0000e0 b9 49 7e 3a 5a 51 20 ba 38 74 53 36 60 b3 dc b9
       0.00097003166 -0.0006115638 3.1509098e-06 -0.00042095315
0000f0 78 b0 98 ba 45 69 b7 38 29 66 96 b9 b4 5d 99 39
       -0.0011649271 8.745728e-05 -0.00028686345 0.00029252248

exp_avg_sq f4 [64]
000000 3d 02 17 38 40 04 03 37 eb 37 15 36 83 7a 5f 38
       3.600329e-05 7.809198e-06 2.2235279e-06 5.328144e-05
000010 61 6b f1 37 a3 d7 92 38 b7 27 ab 30 04 ad 3d 30
       2.8779441e-05 7.001988e-05 1.2453175e-09 6.900367e-10
000020 30 18 dd 36 be af c6 34 35 c7 ec 36 6d 5b bb 30
       6.589129e-06 3.7008243e-07 7.056539e-06 1.3632026e-09
000030 db a2 d2 2f ea 2e 5c 36 73 26 6c 38 98 3e c2 35
       3.8314493e-10 3.2809862e-06 5.6302593e-05 1.4472344e-06
000040 9f 87 83 38 19 c3 a1 31 70 bf c1 38 8a 42 c9 37
       6.271828e-05 4.7078967e-09 9.238615e-05 2.3992052e-05
000050 1f 84 1c 31 5b 9c 7d 37 8f bb cb 37 64 f0 92 37
       2.277609e-09 1.51163795e-05 2.4286825e-05 1.7516497e-05
000060 54 6b 58 36 e9 d3 9c 36 40 4b a0 36 9f 78 9b 37
       3.2248981e-06 4.673832e-06 4.777132e-06 1.8533608e-05
000070 1f ec 25 37 21 9c 19 37 63 08 da 37 81 da 30 38
       9.889743e-06 9.155862e-06 2.599153e-05 4.2165168e-05
000080 f3 87 24 38 c9 1d 33 38 2a b5 48 38 29 00 f8 37
       3.922726e-05 4.2704665e-05 4.7852438e-05 2.9563978e-05
000090 2c 62 51 37 93 53 42 30 18 8f 43 37 2e 35 66 37
       1.2480228e-05 7.0695555e-10 1.1656222e-05 1.372145e-05
0000a0 08 cb ee 36 97 3f 86 38 33 4e 01 31 ad 38 ac 37
       7.1165887e-06 6.4014625e-05 1.8816422e-09 2.053039e-05
0000b0 10 70 23 31 7a a4 f3 37 e6 1a 0f 38 41 08 2d 38
       2.3783322e-09 2.9044448e-05 3.4118908e-05 4.12541e-05
0000c0 f6 04 10 38 1e 50 60 38 46 b4 1f 37 e9 03 8b 35
       3.4336896e-05 5.3480377e-05 9.519112e-06 1.0357445e-06
0000d0 3c da 4a 38 8c 26 13 38 9a 2f 38 30 9a 55 1e 31
       4.83638e-05 3.508343e-05 6.7006456e-10 2.3040685e-09
0000e0 bc d1 fe 37 0a 39 7d 36 05 36 a1 31 68 54 f5 36
       3.0376825e-05 3.773314e-06 4.691858e-09 7.311395e-06
0000f0 a5 99 02 39 0c 90 74 38 53 e0 04 37 5e f1 54 36
       0.00012455003 5.8308287e-05 7.920043e-06 3.1730956e-06
