new_saved_models/v2_n1e6_gmm_sk5000.pt (torch, 529309 bytes, 24 tensors)

net.0.weight f4 [64, 2]
-0.11222645 0.59530205 -0.6875561 -0.19497511 0.6978489 -0.20137331 -0.39610064 -0.67753667
-0.46410826 0.7542129 -0.23617314 0.5270255 0.38152975 0.49357498 0.42599553 0.145025
-0.48505124 0.21135554 -0.1556037 -0.6051041 -0.29255855 -0.2883079 0.10773997 0.2447233
-0.15105839 -0.6559894 0.20077994 0.5645537 0.7315303 -0.7397687 -0.6713635 0.42831528
-0.57016283 -0.7002797 -0.32887536 -0.24490844 -0.5551883 0.5767702 0.2657798 0.14994337
-0.2798588 -0.4782353 -0.69199455 -0.03952196 -0.06909643 0.74133795 -0.3479034 -0.6365754
-0.6232333 0.6823221 0.107734844 0.739654 -0.25931627 0.07787722 0.48429415 -0.23812543
0.5546764 -0.051545646 0.19494396 0.706876 -0.08159479 -0.46972957 0.62148774 -0.38920423
0.77596456 -0.33034012 0.65219134 -0.48550236 -0.58839476 0.15519144 -0.6526125 0.70687234
-0.14498426 -0.1545646 0.30385402 0.3495922 -0.021556517 0.12249074 0.017130671 -0.29363284
0.075224034 -0.4521259 0.22944918 -0.55910677 -0.564536 0.50599104 -0.4562995 0.05579224
-0.033575106 0.13783543 0.4083369 0.2908423 -0.68404543 -0.46637976 0.26366475 -0.33348164
0.30596092 0.2810992 0.49324 0.3849629 0.44276518 0.23760103 -0.1729753 -0.47386864
0.28914717 -0.01376256 0.3451437 0.22997831 0.29225317 0.27775243 -0.4468709 0.2603884
-0.21830733 -0.22851034 0.3841543 0.12929544 -0.41512024 -0.35281938 -0.55130357 -0.3472744
-0.41922617 -0.45819625 -0.44143212 0.20978443 0.6670377 0.4975519 -0.18508238 0.5591087
00000000: fbd6 e5bd b765 183f ad03 30bf 8ea7 47be
00000010: 3aa6 323f ce34 4ebe b4cd cabe 0b73 2dbf
00000020: 999f edbe 1914 413f 5fd7 71be 25eb 063f
00000030: de57 c33e dcb5 fc3e 161c da3e 6f81 143e
00000040: a358 f8be 966d 583e 9456 1fbe 1ae8 1abf
00000050: 3cca 95be 189d 93be c6a6 dc3d bf98 7a3e
00000060: 0daf 1abe ecee 27bf 4299 4d3e 9786 103f
00000070: 9245 3b3f 7b61 3dbf 7ade 2bbf 244c db3e
00000080: 31f6 11bf 8845 33bf 5a62 a8be 47c9 7abe
00000090: d220 0ebf 36a7 133f 4a14 883e c18a 193e
000000a0: a749 8fbe 42db f4be 8e26 31bf c7e1 21bd
000000b0: 6e82 8dbd 53c8 3d3f 6520 b2be 9bf6 22bf
000000c0: 388c 1fbf a9ac 2e3f 16a4 dc3d f759 3d3f
000000d0: 1ac5 84be 187e 9f3d 67f5 f73e 27d7 73be
000000e0: 46ff 0d3f 8721 53bd 649f 473e d3f5 343f
000000f0: 2b1b a7bd 6580 f0be d219 1f3f c745 c7be
00000100: 9da5 463f 5722 a9be 03f6 263f c493 f8be
00000110: 0aa1 16bf 81ea 1e3e 9d11 27bf 96f5 343f
00000120: c176 14be 2f46 1ebe c192 9b3e c0fd b23e
00000130: 4b97 b0bc 6ddc fa3d 9f55 8c3c 0b57 96be
00000140: 0f0f 9a3d 0c7d e7be baf4 6a3e 9f21 0fbf
00000150: 6e85 10bf a188 013f 17a0 e9be 6786 643d
00000160: 0d86 09bd bb24 0d3e 8911 d13e 48e9 943e
00000170: 9a1d 2fbf 54c9 eebe 11ff 863e 1bbe aabe
00000180: e9a6 9c3e 3cec 8f3e f489 fc3e db19 c53e
00000190: 1eb2 e23e af4d 733e 7020 31be e99e f2be
000001a0: 190b 943e 5c7c 61bc adb6 b03e 6f7f 6b3e
000001b0: 35a2 953e 9135 8e3e 43cc e4be a151 853e
000001c0: f58b 5fbe 9dfe 69be dfaf c43e 0666 043e
000001d0: a48a d4be bea4 b4be 3b22 0dbf f3cd b1be
000001e0: d0a4 d6be b398 eabe 6403 e2be bbd1 563e
000001f0: fcc2 2a3f 1fbf fe3e 3c86 3dbe bf21 0f3f

net.0.bias f4 [64]
0.1271252 0.2635921 -0.69621694 0.32419786 0.35461527 -0.3481656 -0.2879758 0.5126782
0.28556734 0.5377015 -0.41928467 -0.10101664 0.41774666 0.66149545 -0.49700323 -0.25038534
0.17320311 -0.70395184 0.5403044 -0.34272736 0.34194294 -0.4797104 0.26948792 0.42150965
-0.46878287 -0.36737272 0.05053733 -0.563225 0.6892116 -0.05889516 -0.4928991 -0.6181737
0.44658026 0.1946934 0.17068718 -0.52370924 -0.26270705 -0.21357311 0.4241205 0.6789875
0.69312686 -0.41877863 -0.0017020266 0.0024118377 0.64854157 -0.5313074 -0.1685245 0.65476555
0.550753 0.052588034 -0.6680083 -0.33333215 0.2494534 -0.55324525 0.45098352 0.32752657
-0.5226191 -0.66232437 0.6472767 -0.23007277 0.6727729 -0.63831574 0.21918415 -0.6278288
00000000: 1c2d 023e 8bf5 863e 463b 32bf 43fd a53e
00000010: 2290 b53e c342 b2be 9071 93be e13e 033f
00000020: e235 923e cea6 093f 7bac d6be d0e1 cebd
00000030: e4e2 d53e c457 293f 3577 febe 8232 80be
00000040: 285c 313e 3036 34bf 6451 0a3f f679 afbe
00000050: 2513 af3e 9a9c f5be 52fa 893e 1dd0 d73e
00000060: 4f04 f0be 4718 bcbe 3b00 4f3d 832f 10bf
00000070: 2c70 303f 0d3c 71bd 455d fcbe a240 1ebf
00000080: 2ba6 e43e b55d 473e 9fc8 2e3e cf11 06bf
00000090: 8a81 86be e9b2 5abe 5226 d93e 20d2 2d3f
000000a0: c370 313f 276a d6be 8916 dfba ec0f 1e3b
000000b0: d206 263f c303 08bf b091 2cbe b79e 273f
000000c0: 26fe 0c3f 8d66 573d 9802 2bbf 83aa aabe
000000d0: b670 7f3e 7ba1 0dbf 50e7 e63e 90b1 a73e
000000e0: 5eca 05bf 178e 29bf edb3 253f 3298 6bbe
000000f0: d83a 2c3f a968 23bf cf71 603e 63b9 20bf

net.2.weight f4 [128, 64]
-0.11461868 -0.06638007 0.0005515671 0.041513726 -0.012758276 -0.13163519 -0.034003418 0.01993475
-0.04957754 -0.02340134 -0.100742385 0.015095768 -0.0749288 0.01792073 -0.12855166 0.08181613
0.12031329 0.121716164 -0.04635598 0.03352657 0.03164487 -0.07180459 0.08392533 0.01739907
0.107095264 0.18751937 -0.007275023 -0.025916656 0.095488906 -0.1342666 -0.063787416 -0.0035799684
-0.11877058 0.061496872 0.03986489 -0.047016196 0.12546854 0.012742992 0.036505237 -0.074249335
0.066363275 -0.09978992 -0.16240264 0.15142502 0.056028333 0.005640905 -0.13027416 -0.04282532
0.05112181 -0.16239655 0.07069108 0.038602386 0.09544565 0.046180576 -0.05921911 -0.03785115
0.03279223 -0.07515924 0.008129961 -0.016149925 0.12488827 -0.049942408 0.02902548 -0.085295886
0.042093135 0.0047701304 0.028589122 -0.042025775 0.073638774 -0.12835167 0.1379153 0.094274566
-0.056074057 -0.035702463 0.064780384 0.04541948 0.104533285 0.09588137 -0.032610178 0.012240504
-0.018236052 -0.11178768 -0.06485556 0.110682845 -0.008419042 -0.075066425 -0.1131086 -0.046545293
-0.060837608 0.14960401 0.021744031 -0.062311716 -0.02886761 0.08579609 -0.08930088 0.011283214
0.0580464 -0.053910594 -0.11696738 -0.043597016 -0.076053835 0.16657667 0.093404 0.021682968
-0.013265859 0.05927479 -0.11899155 -0.0287613 -0.038249116 0.0361734 -0.1062328 -0.09032691
-0.0005765943 0.036629684 0.0027337905 -0.056407712 -0.08947191 -0.035069868 -0.08806332 -0.11740687
0.08533697 -0.046235252 0.067621656 -0.028066594 0.11111239 0.08477697 0.12573317 0.010729571
0.028783778 0.12777565 -0.10117281 0.06630117 0.035016574 -0.15295336 0.036643635 -0.017646736
0.002327168 0.08998281 -0.099531375 -0.12154853 0.046486713 -0.09362167 -0.08569183 -0.14017937
-0.011873982 -0.012919794 0.056360994 0.09037543 -0.016703319 0.081495866 -0.043133777 -0.02413353
0.025179734 0.103757486 -0.12782468 0.04941174 0.13490838 -0.07951809 0.10820198 0.015282419
0.12395095 0.08435975 0.01538355 -0.055759843 -0.01708483 0.12456352 0.06827023 0.048931375
0.025050918 -0.061245587 -0.15895776 -0.13441858 -0.012125367 -0.068235084 0.045320995 0.11991714
0.05251796 -0.14662467 -0.060989756 0.018778926 -0.032909933 0.09759799 0.043044247 0.08099878
0.0014033079 0.05227814 0.14921573 0.10139009 0.0011950936 0.044235628 -0.121796295 -0.076461926
0.07537402 -0.0902046 -0.12177317 -0.110465825 -0.0024682581 -0.06560473 -0.09789233 -0.11771262
0.0072233975 -0.121762335 0.01501596 -0.0058516115 -0.103415325 -0.112767085 -0.09349705 -0.02385208
0.04662478 -0.07035011 -0.06470834 0.09579113 0.066521645 -0.017233834 -0.0576223 -0.008051693
0.03401053 -0.061249822 -0.10450816 -0.007255852 0.051811516 0.051077142 -0.088329494 -0.08599517
-0.067111835 0.08353135 -0.062280804 -0.11099148 -0.026783735 0.10105689 -0.048613936 0.11416644
0.094193 0.09580831 -0.004744813 -0.10985313 -0.0120048225 -0.007999569 0.08424567 -0.1016147
-0.038010865 -0.113105476 0.10825552 -0.039132148 -0.023695916 0.06977598 -0.10034238 -0.12293884
0.00617826 -0.038440675 0.008597985 -0.011978775 -0.020325437 -0.020284861 -0.040618926 -0.013797328
00000000: 33bd eabd 46f2 87bd 0b97 103a 4c0a 2a3d
00000010: 1708 51bc 60cb 06be 2b47 0bbd 334e a33c
00000020: d211 4bbd 2bb4 bfbc 0652 cebd 3d54 773c
00000030: 4574 99bd 7fce 923c 0ca3 03be 378f a73d
00000040: d066 f63d 5346 f93d c5df 3dbd 2853 093d
00000050: 0d9e 013d 490e 93bd 0be1 ab3d 7f88 8e3c
00000060: c354 db3d 1405 403e 5163 eebb 2b4f d4bc
00000070: b08f c33d 2f7d 09be faa2 82bd e79d 6abb
00000080: fd3d f3bd 25e4 7b3d 5e49 233d 0e94 40bd
00000090: d37a 003e fbc7 503c 8486 153d 0910 98bd
000000a0: 78e9 873d a85e ccbd e14c 26be 290f 1b3e
000000b0: f77d 653d 57d7 b83b 9766 05be 9a69 2fbd
000000c0: 1a65 513d 484b 26be 7cc6 903d 891d 1e3d
000000d0: 0279 c33d d827 3d3d bd8f 72bd cf09 1bbd
000000e0: 2551 063d 16ed 99bd 8733 053c d94c 84bc
000000f0: 6cc5 ff3d 6990 4cbd d8c6 ed3c 9caf aebd
00000100: da69 2c3d c14e 9c3b bc33 ea3c 3823 2cbd
00000110: edcf 963d 9f6e 03be ab39 0d3e 0613 c13d
00000120: e9ad 65bd bf3c 12bd 94ab 843d c709 3a3d
00000130: 8c15 d63d 745d c43d 4092 05bd 658c 483c
00000140: c663 95bc f0f0 e4bd fed2 84bd b0ad e23d
00000150: 06f0 09bc 6dbc 99bd 7ba5 e7bd 47a6 3ebd
00000160: db30 79bd cb31 193e 8a20 b23c 923a 7fbd
00000170: c47b ecbc dcb5 af3d 61e3 b6bd 3bdd 383c
00000180: 10c2 6d3d 5bd1 5cbd 988c efbd c992 32bd
00000190: 1dc2 9bbd 1393 2a3e 994a bf3d 7ba0 b13c
000001a0: 0c59 59bc 1fca 723d d7b1 f3bd d19c ebbc
000001b0: 1bab 1cbd 8f2a 143d 9590 d9bd 51fd b8bd
000001c0: 9726 17ba 0209 163d 6529 333b c60b 67bd
000001d0: 0c3d b7bd 6ca5 0fbd 8b5a b4bd 0373 f0bd
000001e0: 26c5 ae3d 2d61 3dbd 397d 8a3d eaeb e5bc
000001f0: e58e e33d 8c9f ad3d 32c0 003e 15cb 2f3c
00000200: f5cb eb3c 9fd7 023e b133 cfbd e8c8 873d
00000210: 8a6d 0f3d ce9f 1cbe a317 163d e38f 90bc
00000220: 6683 183b e848 b83d 1bd7 cbbd 70ee f8bd
00000230: da68 3e3d b8bc bfbd 337f afbd 2e8b 0fbe
00000240: 178b 42bc 8bad 53bc c9da 663d c116 b93d
00000250: 66d5 88bc 4ee7 a63d 0bad 30bd aeb3 c5bc
00000260: bb45 ce3c ce7e d43d 79e4 02be f763 4a3d
00000270: 6c25 0a3e 61da a2bd 0099 dd3d 1c63 7a3c
00000280: ffd9 fd3d cec4 ac3d 490b 7c3c 6f64 64bd
00000290: 7cf5 8bbc 291b ff3d 43d1 8b3d 446c 483d
000002a0: 9537 cd3c a7dc 7abd d3c5 22be 06a5 09be
000002b0: 7aa9 46bc d6be 8bbd 82a2 393d 1e97 f53d
000002c0: 131d 573d c724 16be 65d0 79bd 43d6 993c
000002d0: 91cc 06bd 74e1 c73d 2a4f 303d b0e2 a53d
000002e0: 33ef b73a 9a21 563d 02cc 183e 9ca5 cf3d
000002f0: b0a4 9c3a 6b30 353d 5670 f9bd 1298 9cbd
00000300: b25d 9a3d 30bd b8bd 3664 f9bd e83b e2bd
00000310: 80c2 21bb c65b 86bd c67b c8bd 5013 f1bd
00000320: 40b2 ec3b 885e f9bd 8005 763c e0be bfbb
00000330: 6acb d3bd 6ef2 e6bd 627b bfbd 7065 c3bc
00000340: a0f9 3e3d b813 90bd ce85 84bd 242e c43d
00000350: 803c 883d f82d 8dbc 5c05 6cbd 40eb 03bc
00000360: a04e 0b3d 18e1 7abd 6008 d6bd 80c2 edbb
00000370: 5038 543d 4436 513d 18e6 b4bd 3c1e b0bd
00000380: ee71 89bd 7c12 ab3d 281a 7fbd 804f e3bd
00000390: 9069 dbbc eaf6 ce3d 681f 47bd 18d0 e93d
000003a0: 42e8 c03d 2637 c43d 607a 9bbb aefa e0bd
000003b0: e0af 44bc a010 03bc fe88 ac3d 5e1b d0bd
000003c0: 48b1 1bbd d8a3 e7bd 12b5 dd3d 0849 20bd
000003d0: f01d c2bc b6e6 8e3d 4e80 cdbd 5cc7 fbbd
000003e0: 0073 ca3b f873 1dbd 90de 0c3c a042 44bc
000003f0: 8881 a6bc 702c a6bc 0860 26bd 300e 62bc

net.2.bias f4 [128]
0.10922176 -0.032735683 0.06459448 0.0045179874 -0.02950452 -0.05800777 0.10476572 -0.094173014
-0.11056551 -0.0010183603 0.029219767 -0.0066103945 -0.09735155 -0.009286472 -0.1246977 0.05007574
0.07622818 -0.045883432 -0.023017555 0.06377976 0.016321031 0.07858187 -0.058320113 -0.017671263
0.045702394 0.08633298 -0.08639529 0.077430665 0.024230538 0.110029645 -0.11602731 -0.025916563
0.081114076 0.100343816 0.042215012 -0.029618824 -0.026074558 -0.05843599 -0.060856752 -0.1251141
0.099811584 -0.037876662 -0.09475805 0.062297538 -0.054004584 0.047281496 -0.022307282 -0.07133345
-0.0013845514 -0.1137418 -0.040879488 -0.03417778 -0.0572519 0.046281263 0.12309139 -0.07445727
0.12947957 0.035974436 0.00068552286 -0.036870535 0.09701871 0.106115915 0.0909607 -0.011175128
0.06059115 -0.0907039 0.025524518 0.0902949 0.097312115 -0.055228222 0.13155584 -0.04790246
0.00019350648 -0.03660353 0.04870073 0.0525904 -0.057566416 -0.11786624 -0.033790123 -0.01511511
-0.06722511 -0.04362567 -0.07718477 -0.07935881 -0.10982915 0.105434686 0.056376345 0.08362533
0.07468265 -0.093165524 0.012892023 0.01757766 -0.032230984 0.09983127 0.10737029 -0.12554829
0.0738928 -0.01462977 -0.02314871 -0.030455422 0.048019208 0.119527966 0.0004294612 -0.017351031
0.11807702 -0.06866832 0.0006577969 -0.10210537 0.07196102 0.063034646 -0.034179658 -0.038803555
-0.10420207 -0.10001308 0.08463034 -0.08130086 -0.019966785 -0.1109765 -0.06635185 -0.09218626
-0.00015730597 -0.121074855 0.084396146 -0.08293839 0.079029396 0.051253624 0.036919963 0.0005133569
00000000: a8af df3d da15 06bd 1c4a 843d a00b 943b
00000010: 77b3 f1bc 8e99 6dbd 698f d63d c8dd c0bd
00000020: 2c70 e2bd 807a 85ba 4b5e ef3c 029c d8bb
00000030: 4060 c7bd 4926 18bc 8261 ffbd 381c 4d3d
00000040: 851d 9c3d 44f0 3bbd 508f bcbc f69e 823d
00000050: afb3 853c 88ef a03d 12e1 6ebd 53c3 90bc
00000060: 6f32 3b3d 58cf b03d 04f0 b0bd f893 9e3d
00000070: 1f7f c63c 3957 e13d ba9f edbd f94e d4bc
00000080: 231f a63d 0f81 cd3d a6e9 2c3d 2da3 f2bc
00000090: 509a d5bc 945a 6fbd ee44 79bd e91d 00be
000000a0: 046a cc3d 8f24 1bbd 8210 c2bd b42b 7f3d
000000b0: e933 5dbd 3eaa 413d c3bd b6bc 4617 92bd
000000c0: d679 b5ba 76f1 e8bd 4071 27bd 00fe 0bbd
000000d0: f880 6abd 6c91 3d3d 5717 fc3d 0e7d 98bd
000000e0: 4b96 043e ee59 133d a9b4 333a 8f05 17bd
000000f0: bfb1 c63d 4d53 d93d 9a49 ba3d e217 37bc
00000100: 6d2e 783d f7c2 b9bd cb18 d13c 88ec b83d
00000110: 934b c73d fd36 62bd 93b6 063e 5f35 44bd
00000120: 00e8 4a39 95ed 15bd 6b7a 473d 0869 573d
00000130: c3ca 6bbd db63 f1bd 8367 0abd 5ea5 77bc
00000140: 52ad 89bd d5b0 32bd 0c13 9ebd df86 a2bd
00000150: 1bee e0bd 24ee d73d e2ea 663d c243 ab3d
00000160: 38f3 983d 91cd bebd 1039 533c 06ff 8f3c
00000170: a304 04bd 5674 cc3d f4e4 db3d bb8f 00be
00000180: 1c55 973d b4b1 6fbc 5da2 bdbc a67d f9bc
00000190: caaf 443d 14cb f43d 4e29 e139 c023 8ebc
000001a0: 5dd2 f13d faa1 8cbd 0170 2c3a 9f1c d1bd
000001b0: 4d60 933d 4f18 813d f8ff 0bbd 7af0 1ebd
000001c0: e567 d5bd a8d3 ccbd ac52 ad3d 1181 a6bd
000001d0: 6291 a3bc a647 e3bd 7be3 87bd 26cc bcbd
000001e0: 80f2 24b9 18f6 f7bd e3d7 ac3d 9adb a9bd
000001f0: 2ada a13d 52ef 513d 6339 173d cc92 063a

net.4.weight f4 [256, 128]
0.015678236 0.041456535 -0.053372364 0.073150985 0.033704095 0.11080071 -0.032964148 0.01905802
0.027877204 0.0063637737 0.11211794 0.029533822 -0.031755973 0.00026125944 -0.049962126 -0.009092998
-0.010199063 -0.07535709 -0.069367856 -0.086614594 -0.058788802 0.048295945 -0.050620243 -0.026641814
0.027236247 -0.13347417 0.08144424 0.0916465 -0.07792647 -0.025309734 0.068683915 -0.0077036256
0.0753321 0.01824611 -0.01666238 0.035455517 0.04090418 0.013131725 0.04559593 0.08762673
0.05356357 0.12374194 -0.046607096 0.025924431 -0.013294892 0.009296639 0.039413527 0.06360685
-0.038251597 -0.0021298227 0.05969912 -0.0712256 -0.053632643 0.12039127 0.109818645 -0.0058413404
0.044366706 0.010688646 0.112171575 0.0026905457 0.0034800868 0.01986359 0.13219938 0.038037557
0.110598736 0.0020352409 0.007828047 0.036212478 0.1690478 0.1737846 -0.008796975 0.054993987
-0.06996001 0.069485344 0.08249432 0.087191105 0.13887542 -0.12111674 -0.05722385 -0.044014867
0.004582342 0.031203069 0.099788815 0.00048540081 0.10346482 0.045358706 0.019386385 0.06864921
-0.014111359 0.0962547 0.059281733 -0.13599254 -0.043220628 0.02017582 -0.053554222 -0.014416501
-0.00010792754 -0.037774764 0.077391714 0.076799765 0.032872554 -0.024901303 -0.029976208 0.015063663
0.09850703 0.08473453 0.08340326 0.08919786 -0.05954261 -0.00091327506 -0.102633014 -0.07604851
-0.0037245809 0.027238738 -0.07016836 0.037518464 -0.03742854 0.028615085 0.07195523 0.040187765
0.022541769 -0.08541466 -0.03908468 0.009230197 -0.071082406 0.067956746 0.0759623 -0.011461717
-0.0027739685 -0.018218607 -0.056847572 -0.05336258 0.074881874 -0.057793424 -0.02269394 -0.041024096
-0.08397147 -0.03136957 -0.03170938 0.031273637 0.02927912 0.023872554 -0.01168083 -0.029138392
0.07414607 -0.043071203 0.073289715 -0.0052474514 0.071234085 -0.06397097 0.05213408 0.01736153
0.015865432 -0.08346128 0.05877084 0.0077103972 0.06316723 -0.0007316166 0.016095122 0.03310933
-0.062381558 0.029115675 -0.085744664 0.051051393 -0.016434794 0.080868684 -0.08786361 -0.010771839
-0.07989111 -0.017396733 0.02805823 -0.010588131 -0.018348293 0.0013899398 0.06889324 -0.05509753
-0.059045542 -0.036029052 -0.0685716 -0.059257276 0.02725133 0.05388656 -0.03595579 0.05235706
-0.030401364 -0.01407729 -0.038741637 -0.025930258 0.017367536 0.054451726 -0.07639434 0.08378058
-0.045597084 -0.064719625 -0.08369537 -0.05061453 -0.051405128 0.005365789 0.0090311635 -0.031682335
0.07375102 0.07446673 -0.07035485 0.050691374 0.03744113 -0.068440065 -0.01982986 -0.072025254
0.015098255 -0.013042026 -0.018167725 -0.030745082 0.079488516 0.06520768 -0.04308489 -0.00032949352
0.071206845 -0.0053716265 -0.0015700122 -0.008851734 -0.08441223 0.08427184 0.081092104 0.048276357
0.023984276 -0.0468048 -0.06793407 0.045554567 -0.06421561 -0.055433832 -0.054756638 0.06030334
-0.0806474 0.03573549 0.03359027 -0.06783368 -0.029432155 0.009521374 0.084054016 0.00033171676
0.06170543 -0.054181807 -0.06913655 -0.050355464 0.04788448 -0.012432835 -0.08716554 -0.022451911
-0.0015488756 0.053346846 -0.0049250172 -0.016454224 -0.02497598 0.04869665 -0.0046499562 -0.0027550445
00000000: a56f 803c 54ce 293d fb9c 5abd 2fd0 953d
00000010: 4e0d 0a3d 7ceb e23d 6a05 07bd 911f 9c3c
00000020: bc5e e43c 3487 d03b 179e e53d eaf0 f13c
00000030: 8d12 02bd a6f9 8839 16a5 4cbd ccfa 14bc
00000040: f919 27bc d154 9abd bc10 8ebd fe62 b1bd
00000050: 87cc 70bd f8d1 453d 2c57 4fbd ef3f dabc
00000060: 8d1e df3c 74ad 08be 3dcc a63d 29b1 bb3d
00000070: ea97 9fbd 5c56 cfbc 27aa 8c3d b26e fcbb
00000080: b747 9a3d de78 953c 8b7f 88bc ce39 113d
00000090: 248b 273d 7226 573c ccc2 3a3d a575 b33d
000000a0: 7965 5b3d 6a6c fd3d 15e7 3ebd 795f d43c
000000b0: d2d2 59bc ee50 183c 1470 213d 4f44 823d
000000c0: b5ad 1cbd 7f94 0bbb 1087 743d bade 91bd
000000d0: e7ad 5bbd b38f f63d 99e8 e03d b768 bfbb
000000e0: ddb9 353d 6e1f 2f3c 36ba e53d de53 303b
000000f0: 2b12 643b f8b8 a23c 465f 073e 45cd 1b3d
00000100: 9781 e23d ad61 053b 3541 003c 8953 143d
00000110: de1a 2d3e 97f4 313e 3021 10bc 6041 613d
00000120: 3247 8fbd 554e 8e3d c8f2 a83d 4091 b23d
00000130: 5c35 0e3e 0e0c f8bd 8e63 6abd ef48 34bd
00000140: 7927 963b 949d ff3c 145e cc3d 657d fe39
00000150: 5de5 d33d 0dca 393d 32d0 9e3c f597 8c3d
00000160: 5433 67bc 2f21 c53d 67d1 723d a141 0bbe
00000170: 1d08 31bd c347 a53c ac5b 5bbd 3033 6cbc
00000180: 2857 e2b8 b6b9 1abd 8c7f 9e3d 3249 9d3d
00000190: 5fa5 063d d1fd cbbc aa90 f5bc 95cd 763c
000001a0: 0ebe c93d 4c89 ad3d 54cf aa3d 5ead b63d
000001b0: f4e2 73bd da68 6fba 4231 d2bd 52bf 9bbd
000001c0: 1918 74bb c623 df3c 6eb4 8fbd f6ac 193d
000001d0: ab4e 19bd 2f6a ea3c 435d 933d ed9b 243d
000001e0: 84a9 b83c e2ed aebd 4217 20bd 413a 173c
000001f0: a793 91bd e82c 8b3d 1f92 9b3d edc9 3bbc
00000200: 78cb 35bb 303f 95bc 00d9 68bd b892 5abd
00000210: ab5b 993d ccb8 6cbd a4e8 b9bc e208 28bd
00000220: 3cf9 abbd 617d 00bd b2e1 01bd c918 003d
00000230: c4da ef3c 6090 c33c f460 3fbc a3b3 eebc
00000240: e5d9 973d 6e6b 30bd eb18 963d d0f2 abbb
00000250: 2de3 913d 3603 83bd 8c8a 553d c439 8e3c
00000260: 39f8 813c bfed aabd b1b9 703d 80a7 fc3b
00000270: d25d 813d f5c9 3fba ebd9 833c a69d 073d
00000280: ce83 7fbd ff83 ee3c e69a afbd 441b 513d
00000290: 43a2 86bc 7b9e a53d d6f1 b3bd 5e7c 30bc
000002a0: f39d a3bd 9883 8ebc 60da e53c d779 2dbc
000002b0: 294f 96bc a42e b63a e617 8d3d f3ad 61bd
000002c0: bdd9 71bd 3393 13bd 446f 8cbd c2b7 72bd
000002d0: 2e3e df3c 27b8 5c3d 6146 13bd 5b74 563d
000002e0: 480c f9bc 6fa4 66bc 8daf 1ebd b16b d4bc
000002f0: 5d46 8e3c c608 5f3d a374 9cbd 2795 ab3d
00000300: 02c4 3abd b98b 84bd 7a68 abbd 2e51 4fbd
00000310: 2f8e 52bd 80d3 af3b 72f7 133c 56c5 01bd
00000320: c60a 973d 0382 983d 3416 90bd c2a1 4f3d
00000330: df5b 193d 4e2a 8cbd 3b72 a2bc fa81 93bd
00000340: ac5e 773c 39ae 55bc 7bd4 94bc 1cdd fbbc
00000350: e0ca a23d 9b8b 853d c879 30bd dfbf acb9
00000360: e5d4 913d 7804 b0bb dec8 cdba dd06 11bc
00000370: 52e0 acbd b796 ac3d 9e13 a63d 6ebd 453d
00000380: ac7a c43c 64b6 3fbd 0521 8bbd 6d97 3a3d
00000390: 7983 83bd 960e 63bd 7f48 60bd a300 773d
000003a0: 772a a5bd 615f 123d f395 093d 62ec 8abd
000003b0: b41b f1bc 89ff 1b3c 8324 ac3d 45ea ad39
000003c0: d5be 7c3d beed 5dbd 7797 8dbd 8841 4ebd
000003d0: 8422 443d 17b3 4bbc d983 b2bd 12ed b7bc
000003e0: a403 cbba 3982 5a3d 0a62 a1bb 02cb 86bc
000003f0: 6d9a ccbc 2376 473d a95e 98bb fa8d 34bb

net.4.bias f4 [256]
0.02947866 -0.032593917 0.00085837103 -0.039463595 -0.05528537 0.03987336 -0.08272051 0.045612182
0.072631486 -0.054105688 -0.02244029 0.008711446 0.052971907 -0.045514487 -0.0043515963 -0.037905548
0.055594694 -0.017801713 -0.08960458 0.037235815 -0.02377317 0.07106855 0.05888546 -0.05665282
-0.07783315 -0.07153712 0.06581599 0.05464792 0.012255456 -0.009446337 -0.035006292 -0.026346441
0.02522852 0.064409465 0.07330959 -0.09061996 0.08120989 0.021539558 0.0144512085 0.08008484
0.050721448 -0.050582275 -0.03189205 -0.06913642 -0.06303849 0.079175904 0.05879735 -0.039930973
-0.051743478 0.082994424 -0.04920294 -0.03394707 -0.012684691 -0.041030213 -0.06875313 0.045158267
0.032938942 0.021080688 -0.025621194 -0.0816009 -0.023004062 0.004557829 0.03541413 0.016757378
0.032384183 0.07297385 -0.03758161 0.033938866 0.023887843 0.024271991 -0.06762508 -0.0049732276
-0.019466747 -0.009444467 -0.061516512 0.026484465 -0.013829437 0.04446951 0.07022577 0.06319392
0.08257528 0.07983628 -0.08813105 0.013402381 -0.015401094 -0.017588453 -0.045585893 -0.022553325
0.055578873 -0.03204836 -0.02241402 0.021158518 -0.058878828 0.0085296165 -0.036766544 0.03293563
-0.021417605 -0.08803424 -0.045086816 0.008471229 -0.047393817 0.05651052 -0.036266603 0.048846982
-0.0019756064 -0.0101256715 0.015913019 0.046366822 0.039585516 -0.06130493 -0.09710768 0.014040369
-0.013320941 -0.034518447 0.05284783 -0.07114401 0.029737094 0.030363094 -0.07785397 -0.039239705
0.027739359 -0.034627523 -0.08645459 0.024704222 -0.004947491 -0.07222474 -0.054070067 -0.045914304
0.05453268 -0.016248018 -0.06754396 -0.04154785 0.025651107 -0.06645835 0.03222973 -0.0058212923
0.046887975 -0.028268792 -0.0023172856 -0.010003575 -0.027126657 0.076558694 0.045463648 -0.03001887
0.0066457097 -0.0007916887 -0.018574268 0.05347983 -0.034866784 0.040705085 -0.08106272 -0.087386556
0.04379699 0.073875725 -0.07174585 -0.040550813 0.003873744 -0.04670023 0.03776031 0.015750555
0.029043976 -0.05000002 -0.06522465 0.03692079 0.039739925 0.06638476 0.029532718 0.074997716
0.0677349 -0.079478286 -0.014447505 -0.024514662 -0.05737495 -0.0033399216 0.024276903 -0.051243167
0.042810068 -0.018293709 -0.008262687 -0.091205455 0.030210864 -0.034588963 0.0061191274 -0.01146091
0.06949899 0.0051657953 -0.04788343 0.0562717 0.07298179 -0.006472214 -0.039425936 0.044163555
-0.054511145 0.0770011 0.018578788 0.042070024 0.00876441 0.07050515 0.032756973 -0.035244912
0.06520757 -0.061945193 -0.03332086 0.045601644 -0.03943029 0.06765232 -0.0050259377 -0.09126633
-0.024701392 0.045630716 -0.022728793 -0.0047305007 -0.07474999 -0.04798502 -0.035286203 0.07651764
-0.038535092 0.024377994 0.018951435 -0.015831962 0.020185223 -0.014419065 0.0012896981 0.0052686827
-0.054641858 0.03897787 0.08163632 0.0042539644 -0.030628555 -0.027547095 0.07140676 -0.0432703
0.039826687 0.024807641 -0.04654991 0.06151455 0.019127995 -0.073315926 0.03141547 -0.07034585
-0.016511044 0.071933985 0.041136537 -0.07150682 0.03234019 0.025380261 -0.018483499 0.025570696
-0.04569925 -0.06958835 0.041176774 0.008848261 -0.08037368 -0.036050186 0.02922948 0.03663929
00000000: 3b7d f13c 3381 05bd 4e04 613a 94a4 21bd
00000010: ea72 62bd 4052 233d 5f69 a9bd d7d3 3a3d
00000020: d1bf 943d ed9d 5dbd b3d4 b7bc 74ba 0e3c
00000030: 12f9 583d 666d 3abd d697 8ebb d942 1bbd
00000040: 43b7 633d e6d4 91bc 9b82 b7bd 9584 183d
00000050: f3bf c2bc 638c 913d e131 713d ca0c 68bd
00000060: fd66 9fbd 0e82 92bd 89ca 863d 7fd6 5f3d
00000070: 1ccb 483c cfc4 1abc c262 0fbd 7ed4 d7bc
00000080: 0bac ce3c 1ce9 833d 5723 963d f596 b9bd
00000090: 5f51 a63d ba73 b03c c3c4 6c3c 8503 a43d
000000a0: 4bc1 4f3d 5c2f 4fbd 3da1 02bd 6597 8dbd
000000b0: 531a 81bd fa26 a23d 7dd5 703d a98e 23bd
000000c0: f8f0 53bd fbf8 a93d 0689 49bd 150c 0bbd
000000d0: 73d3 4fbc 4c0f 28bd 71ce 8cbd e0f7 383d
000000e0: fcea 063d 68b1 ac3c 8ae3 d1bc 5f1e a7bd
000000f0: 0473 bcbc d759 953b 680e 113d c546 893c
00000100: 47a5 043d 5073 953d 2def 19bd 7b03 0b3d
00000110: 70b0 c33c 0ed6 c63c 057f 8abd 75f6 a2bb
00000120: ba78 9fbc f7bc 1abc bdf8 7bbd f3f5 d83c
00000130: dd94 62bc a925 363d 87d2 8f3d d06b 813d
00000140: 3a1d a93d 3481 a33d 0d7e b4bd a995 5b3c
00000150: df54 7cbc a915 90bc 46b8 3abd c0c1 b8bc
00000160: aca6 633d 2445 03bd 9b9d b7bc a154 ad3c
00000170: ed2a 71bd cebf 0b3c 8498 16bd 83e7 063d
00000180: f973 afbc 4c4b b4bd f4ac 38bd e9ca 0a3c
00000190: 0520 42bd 9377 673d 4a8c 14bd c613 483d
000001a0: 2d79 01bb 25e6 25bc 055c 823c 23eb 3d3d
000001b0: 6c24 223d e11a 7bbd 64e0 c6bd 9309 663c
000001c0: 1340 5abc 3763 0dbd f776 583d f3b3 91bd
000001d0: 359b f33c 06bc f83c e771 9fbd d0b9 20bd
000001e0: a73d e33c 97d5 0dbd 1b0f b1bd 8260 ca3c
000001f0: 901e a2bb 91ea 93bd 9378 5dbd a310 3cbd
00000200: a95d 5f3d 901a 85bc 7d54 8abd 142e 2abd
00000210: 4522 d23c 511b 88bd 5203 043d 8ac0 bebb
00000220: 9b0d 403d f493 e7bc 9add 17bb 09e6 23bc
00000230: b938 debc ceca 9c3d 1738 3a3d 22ea f5bc
00000240: 41c4 d93b 5489 4fba 1029 98bc ab0d 5b3d
00000250: 79d0 0ebd 60ba 263d 3604 a6bd b9f7 b2bd
00000260: 7964 333d 284c 973d 7def 92bd 9c18 26bd
00000270: a4de 7d3b be48 3fbd 8eaa 1a3d 4f07 813c
00000280: a2ed ed3c d2cc 4cbd 8094 85bd 413a 173d
00000290: 55c6 223d bcf4 873d 99ee f13c 6798 993d
000002a0: 98b8 8a3d 83c5 a2bd 3ab5 6cbc f9d2 c8bc
000002b0: ff01 6bbd 96e2 5abb 5be0 c63c 5be4 51bd
000002c0: 9c59 2f3d b0dc 95bc 3960 07bc edc9 babd
000002d0: c67c f73c 28ad 0dbd f682 c83b 8ac6 3bbc
000002e0: 7d55 8e3d d545 a93b 6a21 44bd 277d 663d
000002f0: 7a77 953d de14 d4bb 177d 21bd d8e4 343d
00000300: 1447 5fbd c1b2 9d3d 8b32 983c 9e51 2c3d
00000310: 9a98 0f3c 0165 903d 2d2c 063d f85c 10bd
00000320: 8c8b 853d 3eba 7dbd 747b 08bd cac8 3a3d
00000330: a881 21bd 4d8d 8a3d 9fb0 a4bb d7e9 babd
00000340: 935a cabc 46e7 3a3d bc31 babc 5102 9bbb
00000350: 8616 99bd f18b 44bd 4488 10bd 48b5 9c3d
00000360: f9d6 1dbd 5cb4 c73c 0a40 9b3c 08b2 81bc
00000370: 7b5b a53c f13d 6cbc 160b a93a eaa4 ac3b
00000380: 24d0 5fbd 42a7 1f3d f130 a73d d764 8b3b
00000390: bce8 fabc 72aa e1bc b53d 923d 333c 31bd
000003a0: 4f21 233d 6539 cb3c 1eab 3ebd aef6 7b3d
000003b0: 50b2 9c3c a926 96bd 82ad 003d 7c11 90bd
000003c0: 2b42 87bc 2052 933d c97e 283d 2b72 92bd
000003d0: 2677 043d 44ea cf3c b56a 97bc a379 d13c
000003e0: 232f 3bbd 5684 8ebd faa8 283d 4cf8 103c
000003f0: f59a a4bd 5ca9 13bd aa72 ef3c 1513 163d

net.6.weight f4 [2, 256]
0.028505566 0.010975406 0.100232154 0.12973382 0.07123311 0.1216929 0.09759906 0.06002449
0.000718618 0.03870029 -0.102164604 0.15700608 0.05404675 -0.053198967 0.1041512 0.055553745
0.10219798 -0.11250779 -0.07857026 0.020055706 0.0939132 0.070441045 0.06931996 0.13537951
-0.05069281 0.045105044 -0.11920718 -0.012233858 0.065787986 0.13329366 0.07371633 0.05448952
0.0644197 -0.16022237 -0.05825149 0.09402471 0.11900929 -0.033044234 0.15375178 -0.005953774
0.057155553 0.030770592 -0.12628286 -0.024232956 -0.050931364 0.11277943 0.04184971 0.01843587
0.101946734 0.115551546 0.046231072 0.053596865 0.083966345 0.1605442 0.06384812 -0.019289771
-0.077899344 0.07463186 -0.018605605 0.10121942 0.108238794 0.10068871 0.08709359 -0.002537426
0.11518327 0.042798337 0.096615456 0.085532814 -0.0524168 -0.107911184 -0.041938536 -0.102027275
0.09883096 0.054574657 0.17712 -0.060000602 0.17065166 -0.11064228 -0.10987537 0.07031564
-0.09978234 0.048902698 0.070267655 0.1366476 0.0866688 0.07665607 0.007826477 -0.0689437
0.045959532 -0.023399487 0.072610594 -0.12375838 -0.046384286 0.010079126 0.065378115 0.062843084
0.052062415 -0.018770657 -0.028813617 0.09226594 -0.16922307 0.14278892 -0.013538934 0.11440699
0.109554656 0.06857199 0.033645883 0.14724486 -0.03156108 -0.12825276 0.022546591 0.04454959
0.070990846 0.02829419 -0.052182354 -0.1461635 -0.10643341 0.06939328 0.0492979 0.029706977
0.07821722 0.06957011 -0.06554676 0.050778557 -0.16089639 -0.044469327 0.082490645 -0.047690727
0.021939838 0.054731224 0.07335858 -0.10442541 -0.045818962 0.18122128 0.05507139 0.15251565
0.056085855 -0.049539182 -0.13999608 -0.007761024 -0.042413443 0.064138226 0.05248101 0.021308834
0.052163664 0.050159145 0.13136262 0.09186484 -0.13635865 0.10526729 -0.006111308 -0.0015367493
-0.15113825 0.11161542 0.01612705 -0.14970864 0.044068053 -0.10605327 0.17830129 0.07083267
-0.060941614 -0.10648626 0.12741975 0.018788697 -0.05419575 0.16444853 -0.058397703 -0.10292738
0.1138148 0.12864663 -0.046856325 0.11151808 0.16952053 0.1821426 0.043660793 -0.04200468
0.11345603 0.0024975396 -0.082475215 -0.11882007 0.072105475 0.044500183 -0.121817835 -0.044879194
0.052727558 0.040569324 0.13455337 -0.053676862 0.078515865 0.11027557 -0.08800038 0.07426355
-0.028784364 0.11648193 0.056784377 0.14273147 -0.13499868 -0.13029288 -0.038291886 0.0149506405
0.082278796 -0.053341977 -0.04216036 0.09339499 0.063746 0.0884705 0.02825889 0.06323068
-0.09041249 0.1474742 -0.061740667 -0.051464066 0.089288324 0.14267771 0.013260714 -0.05901689
0.10048994 0.11334071 -0.06232792 0.048777346 0.050168328 -0.012282114 -0.036860816 0.046502016
0.1100005 -0.07939991 0.15494534 -0.12490101 0.10267589 0.09034681 0.16457525 0.05352408
0.08151906 -0.13997932 -0.014807401 -0.11508163 -0.115117565 0.17858474 -0.0041760206 -0.048960973
-0.112879984 0.10870992 0.12953544 0.1270297 0.14290087 0.05869777 0.13180338 0.13186783
0.070285365 0.12895343 0.21819957 0.15031937 0.0678147 0.1338525 0.043770216 0.111416265
00000000: 8184 e93c 30d2 333c 8446 cd3d f1d8 043e
00000010: aae2 913d 213a f93d 04e2 c73d 3ddc 753d
00000020: a361 3c3a 3284 1e3d ad3b d1bd 34c6 203e
00000030: 2060 5d3d 29e7 59bd 394d d53d 538c 633d
00000040: 2d4d d13d 7c6a e6bd 72e9 a0bd dd4b a43c
00000050: 9055 c03d 6543 903d a0f7 8d3d eda0 0a3e
00000060: 44a3 4fbd 11c0 383d e522 f4bd 8570 48bc
00000070: dabb 863d 227e 083e 96f8 963d 6730 5f3d
00000080: 7aee 833d 5511 24be 1d99 6ebd 0790 c03d
00000090: 25bb f33d 6459 07bd 1b71 1d3e e017 c3bb
000000a0: f11b 6a3d 9c12 fc3c 4b50 01be 3184 c6bc
000000b0: 689d 50bd e7f8 e63d 9a6a 2b3d d206 973c
000000c0: 73c9 d03d 4aa6 ec3d cb5c 3d3d 6388 5b3d
000000d0: 8cf6 ab3d b365 243e cec2 823d 9505 9ebc
000000e0: b189 9fbd 97d8 983d c86a 98bc 214c cf3d
000000f0: 4dac dd3d e235 ce3d 205e b23d f24a 26bb
00000100: 35e5 eb3d 4f4d 2f3d 53de c53d d42b af3d
00000110: 00b3 56bd 8a00 ddbd bec7 2bbd adf3 d0bd
00000120: e367 ca3d ad89 5f3d f25e 353e 31c3 75bd
00000130: 4fbf 2e3e 6b98 e2bd 5706 e1bd a501 903d
00000140: af5a ccbd 324e 483d 7de8 8f3d 59ed 0b3e
00000150: 697f b13d dcfd 9c3d a03a 003c 5b32 8dbd
00000160: 1040 3c3d 48b0 bfbc ddb4 943d 0975 fdbd
00000170: 73fd 3dbd eb22 253c f6e4 853d e0b3 803d
00000180: 663f 553d ecc4 99bc 890a ecbc edf5 bc3d
00000190: d048 2dbe 4237 123e 68d2 5dbc 364e ea3d
000001a0: 315e e03d 796f 8c3d 44d0 093d 5bc7 163e
000001b0: 3146 01bd b154 03be a1b3 b83c a279 363d
000001c0: a663 913d 38c9 e73c 2abd 55bd e2ab 15be
000001d0: c2f9 d9bd 101e 8e3d 98ec 493d 0c5c f33c
000001e0: 5a30 a03d c67a 8e3d 613d 86bd 2dfd 4f3d
000001f0: 06c2 24be 7825 36bd dbf0 a83d 5a57 43bd
00000200: 2dbb b33c d92d 603d 063d 963d fddc d5bd
00000210: aaac 3bbd 1292 393e 8a92 613d 102d 1c3e
00000220: 48ba 653d 99e9 4abd 225b 0fbe 3050 febb
00000230: b8b9 2dbd e75a 833d 54f6 563d dd8f ae3c
00000240: 91a9 553d ad73 4d3d ec83 063e a223 bc3d
00000250: 9aa1 0bbe 6096 d73d 5e41 c8bb c06c c9ba
00000260: fcc3 1abe a096 e43d e01c 843c 394d 19be
00000270: b480 343d 7532 d9bd 9d94 363e b810 913d
00000280: ea9d 79bd 7815 dabd 537a 023e c1ea 993c
00000290: 5dfc 5dbd 3265 283e 6e32 6fbd 97cb d2bd
000002a0: bc17 e93d f1bb 033e 6bec 3fbd 9763 e43d
000002b0: ca96 2d3e 9783 3a3e a9d5 323d 190d 2cbd
000002c0: a35b e83d c3ad 233b c4e8 a8bd f057 f3bd
000002d0: 09ac 933d d345 363d a17b f9bd 3fd3 37bd
000002e0: daf8 573d 052c 263d 5cc8 093e 45dc 5bbd
000002f0: edcc a03d 28d8 e13d 8b39 b4bd 7d17 983d
00000300: 30cd ebbc 148e ee3d bc96 683d 3328 123e
00000310: 183d 0abe 7f6b 05be f4d7 1cbd 88f3 743c
00000320: c981 a83d 1e7d 5abd 57b0 2cbd df45 bf3d
00000330: 438d 823d 0630 b53d 307f e73c 167f 813d
00000340: 2f2a b9bd 7a03 173e c8e3 7cbd fccb 52bd
00000350: ccdc b63d 1b1a 123e 7743 593c b2bb 71bd
00000360: abcd cd3d 2d1f e83d 904b 7fbd c1ca 473d
00000370: 4e7d 4d3d eb3a 49bc 5efb 16bd e678 3e3d
00000380: f147 e13d 6c9c a2bd fea9 1e3e 1acc ffbd
00000390: bd47 d23d c007 b93d 6a86 283e 113c 5b3d
000003a0: 77f3 a63d bd56 0fbe be9a 72bc ebaf ebbd
000003b0: c2c2 ebbd ebde 363e 00d7 88bb 4d8b 48bd
000003c0: 9f2d e7bd 4ea3 de3d f0a4 043e 1314 023e
000003d0: 9b54 123e 136d 703d 77f7 063e 5c08 073e
000003e0: c6f1 8f3d 5e0c 043e b56f 5f3e 52ed 193e
000003f0: 6fe2 8a3d a110 093e 6648 333d 362e e43d

net.6.bias f4 [2]
-0.026943563 -0.050548997
00000000: bfb8 dcbc 770c 4fbd

exp_avg f4 [64, 2]
4.2927067e-07 -6.8608204e-09 2.6271417e-07 1.3168754e-08 6.363276e-11 -1.841063e-09 -1.0780873e-06 1.8051963e-06
5.346038e-08 -8.654331e-07 2.2761655e-07 -2.2095941e-07 -3.9150456e-07 2.365174e-07 4.7064457e-08 -3.575751e-07
6.9769095e-07 -1.008174e-06 3.0413742e-07 4.0244993e-07 1.4420533e-09 -3.2649412e-09 -4.877568e-07 5.3120797e-09
-8.711307e-08 5.0512443e-07 -4.747478e-08 -6.2332214e-07 -2.7339277e-07 1.1612692e-06 1.3010782e-07 -5.2057385e-07
-3.8156853e-07 -2.2681746e-07 -1.92339e-10 -2.052978e-09 8.7827317e-07 6.191441e-08 -1.0815171e-09 3.41594e-09
-1.7819163e-07 1.972331e-07 8.422022e-09 -1.6758795e-08 2.140223e-08 -3.1309784e-09 2.870041e-07 4.449802e-07
-4.29673e-09 -6.303402e-07 1.0953509e-07 -3.276343e-07 9.117755e-07 1.6724611e-08 2.3193228e-10 5.4664113e-09
3.0898534e-07 4.3549076e-07 6.897032e-07 -2.3388796e-07 -2.7371638e-10 -1.0710296e-09 -8.089942e-09 1.7540243e-08
-4.5171737e-07 1.9490196e-06 2.6441109e-07 3.0217987e-07 1.3245815e-06 6.1142464e-07 -4.7880746e-08 2.990708e-08
-4.9199306e-10 4.085966e-09 1.5276916e-08 7.826563e-09 -6.3033625e-08 5.026367e-07 -4.007804e-08 2.0570913e-07
-1.1983029e-07 7.5693265e-08 -9.3372586e-07 -1.6272257e-07 5.35317e-07 -5.976674e-08 2.1798456e-07 -1.4684507e-06
4.420037e-08 -4.0137908e-07 4.787394e-09 -3.6697763e-09 2.3120899e-07 4.67277e-07 -3.1701667e-08 3.805618e-07
6.845052e-08 -2.442632e-07 -4.3609947e-07 2.5633466e-07 1.3722077e-09 1.6613338e-09 -4.4554668e-07 8.033042e-08
1.7387146e-07 4.6532722e-07 1.8547865e-09 1.6971219e-09 2.1455884e-07 5.8835667e-07 1.1029865e-06 -1.3385403e-06
-8.001743e-09 3.279531e-09 4.5337886e-10 -2.6591136e-09 -1.413074e-07 1.4250631e-07 1.4919088e-06 -1.7832758e-06
-8.095166e-08 1.6715823e-07 -1.1603138e-09 -5.255537e-09 -4.5693645e-07 6.97267e-08 -2.2597626e-09 -1.0071662e-09
00000000: 8376 e634 6abc ebb1 290b 8d34 cb3c 6232
00000010: 0fee 8b2e a508 fdb0 ccb2 90b5 134a f235
00000020: 4f9c 6533 1c50 68b5 c366 7434 dc40 6db4
00000030: fa2f d2b4 68f5 7d34 eb23 4a33 bff8 bfb4
00000040: f548 3b35 9850 87b5 5448 a334 4c10 d834
00000050: bd31 c630 745d 60b1 64ee 02b5 8c85 b631
00000060: eb12 bbb3 e397 0735 13e7 4bb3 5f52 27b5
00000070: d1c6 92b4 e8dc 9b35 c4b3 0b34 90bd 0bb5
00000080: 61da ccb4 1c8b 73b4 9e7a 53af 5f14 0db1
00000090: 79c2 6b35 cff5 8433 80a4 94b0 dabd 6a31
000000a0: f154 3fb4 06c7 5334 72b0 1032 fbf4 8fb2
000000b0: 00d8 b732 c128 57b1 8b15 9a34 9de5 ee34
000000c0: 70a2 93b1 a634 29b5 8d39 eb33 b7e5 afb4
000000d0: bcc0 7435 cfa9 8f32 2203 7f2f 10d3 bb31
000000e0: 9fe2 a534 65cd e934 0b24 3935 a222 7bb4
000000f0: 287a 96af 8133 93b0 f1fb 0ab2 67ab 9632
00000100: 9083 f2b4 e7cb 0236 62f4 8d34 493b a234
00000110: 46c8 b135 c820 2435 70a5 4db3 2f73 0033
00000120: ef3c 07b0 8964 8c31 4b3a 8332 9775 0632
00000130: 1a5d 87b3 eeec 0635 4522 2cb3 e5e0 5c34
00000140: b3aa 00b4 d08c a233 27a5 7ab5 d7b8 2eb4
00000150: b4b2 0f35 1d59 80b3 240f 6a34 9517 c5b5
00000160: d2d6 3d33 1f7d d7b4 5d7e a431 632f 7cb1
00000170: 3e42 7834 10de fa34 5a28 08b3 0450 cc34
00000180: 12ff 9233 4723 83b4 0e21 eab4 5e9e 8934
00000190: 4498 bc30 fd54 e430 7833 efb4 1e82 ac33
000001a0: 6cb1 3a34 16d2 f934 80eb fe30 2b40 e930
000001b0: 7c61 6634 90ef 1d35 540a 9435 e5a7 b3b5
000001c0: 0a78 09b2 1f5e 6131 673f f92f 9fbb 36b1
000001d0: 48ba 17b4 d603 1934 993d c835 e458 efb5
000001e0: a5d7 adb3 1b7c 3334 ea78 9fb0 3194 b4b1
000001f0: de50 f5b4 a9bc 9533 2a4a 1bb1 836c 8ab0

exp_avg_sq f4 [64, 2]
1.7121774e-11 1.0392987e-12 1.7177013e-11 1.2727716e-12 3.450293e-16 1.03838014e-16 1.201301e-11 1.9083499e-11
7.8176755e-13 3.728571e-11 5.519307e-14 1.5727842e-12 1.5968145e-13 2.1388135e-13 1.253407e-11 6.747347e-13
7.615812e-12 2.080438e-11 1.094418e-11 2.1741393e-11 2.0401289e-16 3.5905293e-16 9.260668e-13 2.3202475e-12
1.9757935e-13 1.306582e-11 9.73374e-14 1.986701e-12 4.944457e-14 1.6158633e-12 9.673314e-13 5.246349e-13
2.860681e-12 8.277656e-12 2.0701721e-16 6.343947e-17 2.3587568e-11 3.22153e-11 1.3605741e-17 7.3789535e-16
1.6569432e-12 6.83187e-13 2.0661392e-14 4.18996e-15 1.2014933e-11 3.456384e-11 2.4271492e-13 1.5576818e-11
4.679497e-16 5.359485e-13 1.704572e-12 1.6590684e-11 9.618688e-12 2.4289728e-11 2.1724336e-16 3.3405614e-15
2.4901722e-13 6.193029e-12 4.2133766e-12 3.0914615e-11 4.4289434e-16 1.7831914e-16 6.250908e-15 4.6777516e-14
9.541201e-12 3.3943712e-11 7.485493e-12 6.2880885e-12 2.3394557e-11 1.5681059e-11 4.9296e-15 2.6809292e-13
5.934679e-16 5.048182e-16 3.3027463e-13 3.266955e-12 3.94202e-13 7.1369646e-13 7.381749e-12 8.927043e-13
3.3814967e-13 1.1249961e-11 7.1094357e-13 2.8638252e-13 6.322128e-11 1.3776087e-10 1.0552809e-10 5.0977233e-11
8.8319196e-13 7.8277673e-13 2.161905e-16 1.1106828e-16 6.487403e-13 3.208539e-12 9.1939355e-12 1.3456434e-12
1.0835026e-12 3.2418543e-12 2.7678736e-12 3.334096e-11 2.0886186e-17 1.3312321e-15 1.8784205e-13 1.9182273e-13
5.5834833e-12 8.441542e-13 1.2510144e-15 3.985672e-16 3.658577e-13 1.270306e-12 5.8876463e-12 1.2919683e-11
5.841314e-16 4.745762e-16 1.5240619e-16 2.4984462e-16 2.771487e-12 2.6191002e-12 2.2633627e-12 3.5260338e-12
5.8805993e-13 1.4435887e-12 8.3981e-17 2.2190076e-15 3.6303564e-11 5.233108e-12 4.3025552e-16 2.7920612e-16
00000000: cf9a 962d af44 922b 3217 972d 6e20 b32b
00000010: 56e5 c625 256f ef24 ca55 532d 38dc a72d
00000020: 4a0c 5c2b fafb 232e 4791 7829 8659 dd2b
00000030: 0bc9 332a 1acf 702a 6f80 5c2d c2eb 3d2b
00000040: 91fa 052d 4dff b62d 3488 402d 443d bf2d
00000050: fa35 6b25 dcfa ce25 1355 822b dd45 232c
00000060: 5f74 5e2a 39db 652d 312f db29 39cd 0b2c
00000070: b5ad 5e29 9c69 e32b c923 882b eeab 132b
00000080: 734d 492c 409f 112d b2ac 6e25 0e48 9224
00000090: 7b7a cf2d 34af 0d2e 4cfb 7a23 11af 5426
000000a0: ac31 e92b d04c 402b ed19 ba28 8ff5 9627
000000b0: 735e 532d 6d03 182e e8a2 882a e003 892d
000000c0: 98e0 0626 29db 162b aee5 ef2b e6ee 912d
000000d0: b836 292d 9ba7 d52d ec76 7a25 7bb6 7027
000000e0: 2a2f 8c2a d9e5 d92c b93e 942c c3f6 072e
000000f0: ab4f ff25 8596 4d25 7336 e127 ceaa 5229
00000100: c0d9 272d 3949 152e aaaf 032d 113e dd2c
00000110: dcc7 cd2d 9bee 892d 899b b127 43ec 962a
00000120: 340e 2b26 0281 1126 97ed b92a 3be4 652c
00000130: 7fea dd2a 40e3 482b 71dc 012d 2046 7b2b
00000140: 815c be2a 52e9 452d e21c 482b 1238 a12a
00000150: 6b06 8b2e 3d78 172f 090f e82e 4333 602e
00000160: b098 782b 0255 5c2b 2c40 7925 920d 0025
00000170: aa9a 362b e6c7 612c cebd 212d ea61 bd2b
00000180: 4c7d 982b 0e20 642c 94c5 422c 95a2 122e
00000190: 1da4 c023 ccd9 bf26 c97d 532a 23f9 572a
000001a0: 8c73 c42c b89b 6d2b 494a b426 23c2 e525
000001b0: a7f5 cd2a 99c7 b22b 3427 cf2c 1449 632d
000001c0: 4a5d 2826 8bc9 0826 5eb6 2f25 8f06 9025
000001d0: ac06 432c 844d 382c 1e45 1f2c 611f 782c
000001e0: 2f86 252b c42a cb2b a2a5 c124 77e5 1f27
000001f0: 2eaa 1f2e a51f b82c 8206 f825 8df3 a025

exp_avg f4 [64]
4.5203246e-06 -1.6615794e-06 1.4490407e-08 4.3905593e-06 -4.3820983e-06 1.4508025e-07 2.330201e-08 -1.4044219e-06
7.7315105e-09 -2.9990287e-07 -2.6682786e-08 9.492877e-07 -3.2294432e-07 3.846187e-07 -1.0162474e-06 -1.925347e-07
-3.628159e-07 -1.8073607e-10 7.527605e-07 2.6104603e-08 3.5023468e-06 -2.6650827e-08 -8.47761e-07 -2.503023e-06
-6.589104e-07 3.5874513e-07 3.5198118e-06 -7.643291e-09 -3.9359365e-06 1.8362932e-06 6.4872665e-08 -1.688676e-08
-1.1127327e-06 1.5967894e-06 -2.785418e-06 2.733165e-07 5.3316977e-09 1.7847931e-07 -3.2062933e-06 1.6273412e-06
1.9337851e-06 1.5549828e-07 1.5112959e-05 -1.4306748e-05 -2.8229458e-06 -1.072269e-08 -4.1728458e-07 2.3480538e-06
-3.3687036e-07 3.3257927e-06 -8.114187e-09 5.4192043e-08 9.642654e-07 -2.1351617e-08 -1.8056049e-06 2.301021e-06
2.27692e-08 -1.2849768e-08 -1.8774447e-06 -6.637378e-07 -1.411783e-06 -8.255437e-09 -7.057083e-06 4.966898e-09
00000000: 4bad 9736 6f03 dfb5 7cf1 7832 9e52 9336
00000010: f009 93b6 5bc7 1b34 a929 c832 927f bcb5
00000020: 8bd3 0432 5602 a1b4 1134 e5b2 8ed2 7e35
00000030: 2161 adb4 977d ce34 ff65 88b5 89bb 4eb4
00000040: 0ac9 c2b4 aeb8 46af 4f11 4a35 a13c e032
00000050: dc09 6b36 caed e4b2 b191 63b5 9cf9 27b6
00000060: fadf 30b5 8e99 c034 e835 6c36 8d4f 03b2
00000070: 7011 84b6 8e76 f635 2050 8b33 610e 91b2
00000080: 3459 95b5 4451 d635 1eed 3ab6 55bc 9234
00000090: 1c32 b731 05a4 3f34 b32b 57b6 056b da35
000000a0: 2dc6 0136 0bf7 2634 aa8d 7d37 0407 70b7
000000b0: d771 3db6 e436 38b2 2807 e0b4 4293 1d36
000000c0: 1cdb b4b4 af30 5f36 9266 0bb2 c8c0 6833
000000d0: e86b 8135 b468 b7b2 1d58 f2b5 3d6b 1a36
000000e0: 0096 c332 e1c1 5cb2 82fc fbb5 b72b 32b5
000000f0: 7f7c bdb5 ccd3 0db2 e2cb ecb6 4ca9 aa31

exp_avg_sq f4 [64]
1.0000126e-08 4.402526e-10 3.206902e-14 9.449146e-10 5.6038885e-09 1.4060835e-11 1.3125628e-12 3.363524e-10
1.9853116e-11 2.0196657e-11 2.675303e-13 1.9198367e-11 1.9621249e-11 2.780529e-12 4.421544e-12 3.9469357e-12
5.2904153e-11 3.2220388e-14 5.871371e-10 2.219258e-13 3.2788532e-09 3.5055024e-13 6.593484e-10 2.5122882e-09
1.3504512e-12 7.776782e-11 3.6933752e-09 1.1694748e-14 3.5485037e-09 9.051697e-10 7.1423894e-13 4.9083015e-14
9.471062e-10 3.443937e-09 2.9264062e-09 1.6004597e-12 1.66028e-14 1.5652004e-11 1.9728665e-09 1.2530001e-09
6.5596284e-10 4.2005444e-12 2.068465e-08 1.3169295e-08 1.9619633e-09 9.145377e-14 2.145057e-11 1.1986074e-09
2.1401822e-10 7.1640196e-09 1.1219622e-14 1.5644624e-12 3.2966743e-10 9.256091e-14 4.941378e-10 5.0026155e-10
2.0751371e-13 1.1530746e-13 2.9328748e-10 4.109384e-12 1.1280645e-10 4.601099e-14 4.44021e-09 1.5686735e-15
00000000: 05cd 2b32 0c08 f22f 106d 1029 3ade 8130
00000010: 538c c031 5f5c 772d 0fba b82b 64e9 b82f
00000020: 3ea1 ae2d d4a6 b12d 2e9b 962a e1de a82d
00000030: 2097 ac2d 8fa9 432c ba91 9b2c d6de 8a2c
00000040: c8ac 682e 941b 1129 1a64 2130 c2dd 792a
00000050: 3252 6131 9d57 c52a 853d 3530 a4a4 2c31
00000060: 220f be2b 6403 ab2e 8bce 7d31 81ac 5228
00000070: f0d9 7331 a8cf 7830 570a 492b dd0c 5d29
00000080: 562b 8230 61aa 6c31 e219 4931 a33e e12b
00000090: 738b 9528 2ead 892d 0993 0731 0636 ac30
000000a0: 484f 3430 24cb 932c 07ae b132 2c3f 6232
000000b0: 39d3 0631 82ef cd29 64ae bc2d 40bc a430
000000c0: c650 6b2f 6227 f631 601d 4a28 b32d dc2b
000000d0: 913c b52f bb6d d029 dbd3 0730 c782 0930
000000e0: c1a3 692a 1dd3 012a 8b3c a12f 0a96 902c
000000f0: 6310 f82e 0f37 4f29 8090 9831 d611 e226

exp_avg f4 [128, 64]
-4.6415485e-07 -1.0456575e-06 2.7515437e-08 -1.2464168e-06 -1.8020912e-06 3.4770675e-08 -2.6558828e-08 -1.8976924e-06
-8.8288795e-07 -2.1082326e-06 1.5570851e-08 4.3932292e-08 -1.6290688e-06 -2.49102e-06 1.9119986e-07 -5.8620655e-09
-8.748547e-07 2.6404955e-08 -2.032529e-06 1.3488251e-08 -1.3572098e-06 9.793438e-09 -9.639738e-07 -1.6907355e-06
3.9775564e-08 -8.774824e-08 -1.2414209e-07 2.2156335e-08 -2.5574893e-06 -5.162544e-08 1.864751e-08 2.3080077e-08
-1.4676365e-06 -7.612349e-07 -3.7937204e-07 3.7003105e-08 9.813252e-09 -2.4581777e-08 -1.6217142e-06 -2.5967574e-06
-2.6452155e-06 6.866089e-08 1.6578754e-08 -2.9150096e-09 -2.4806905e-06 2.091406e-08 -4.7718633e-08 -2.470639e-06
-2.0577002e-06 -1.9608161e-07 2.6177066e-08 -6.821876e-08 -9.133291e-07 2.1655184e-08 -1.6784143e-06 -1.0825667e-06
1.963169e-08 2.5861626e-08 -2.5364527e-06 3.0106797e-08 -2.636091e-06 2.3811896e-08 -8.162724e-07 2.3819627e-08
-1.7467511e-06 -5.657205e-07 3.6719346e-08 -3.3022198e-07 -2.8395582e-06 9.200573e-08 -1.275685e-08 -3.3188705e-06
-1.3884312e-06 -2.0722632e-06 2.927244e-08 1.17575006e-07 -1.2063897e-06 -4.6089017e-06 -1.4907869e-07 2.2092098e-07
4.68898e-08 4.456919e-08 -3.2484988e-06 1.4955873e-08 -1.0112453e-06 3.1559953e-08 -2.7862354e-06 -1.1917319e-06
9.2076306e-08 -2.6151463e-07 -1.6567947e-07 3.139047e-08 -4.0875207e-06 -5.2551303e-07 3.4618648e-08 3.1171226e-08
-2.484504e-06 -8.617314e-07 -3.1154158e-07 -1.8959954e-08 1.7706844e-08 -3.5908805e-08 -2.5046686e-06 -3.3236408e-06
-3.2066032e-06 4.2095156e-08 -1.313541e-07 8.008548e-08 -3.7568618e-06 2.2350847e-08 -3.541526e-09 -3.2927576e-06
-3.6503486e-06 -1.11847e-06 3.0446312e-08 -5.7713695e-08 -1.5444613e-06 2.4868656e-08 -3.0863127e-06 -1.7958627e-06
3.3605655e-08 3.210848e-08 -2.7790047e-06 2.1398312e-08 -2.7620001e-06 3.500174e-08 -2.463032e-06 2.7611245e-08
-4.718858e-08 -9.8785065e-08 2.7515836e-09 -9.775961e-08 -1.4760641e-07 8.659031e-09 -2.1702873e-09 -1.8956061e-07
-1.2415559e-07 -1.8955757e-07 1.6004497e-09 7.3477944e-09 -1.386124e-07 -2.588647e-07 2.783711e-09 9.652378e-09
-5.552746e-08 2.649873e-09 -2.2207014e-07 1.2820816e-09 -1.1902158e-07 1.3441356e-09 -1.0137864e-07 -1.473766e-07
1.184357e-08 -4.329311e-09 -1.854694e-08 2.2345932e-09 -2.4892523e-07 2.517998e-09 1.950589e-09 2.5150522e-09
-1.3203632e-07 -6.167633e-08 -6.7252095e-08 1.133185e-08 1.0015869e-09 -2.4348978e-09 -1.6207876e-07 -2.4652496e-07
-2.4704943e-07 1.9716004e-09 -7.1098333e-10 -8.274286e-09 -2.4661472e-07 1.9724309e-09 6.834175e-09 -2.3303743e-07
-2.0887774e-07 -1.7143808e-08 2.502095e-09 1.5912252e-09 -8.898987e-08 2.0609499e-09 -1.7164783e-07 -1.4089696e-07
1.9825381e-09 2.499734e-09 -2.3918804e-07 1.2346937e-09 -2.4615386e-07 2.2750026e-09 -8.100084e-08 2.1838578e-09
0.0 0.0 0.0 0.0 0.0 0.0 0.0 0.0
0.0 0.0 0.0 0.0 0.0 0.0 0.0 0.0
0.0 0.0 0.0 0.0 0.0 0.0 0.0 0.0
0.0 0.0 0.0 0.0 0.0 0.0 0.0 0.0
0.0 0.0 0.0 0.0 0.0 0.0 0.0 0.0
0.0 0.0 0.0 0.0 0.0 0.0 0.0 0.0
0.0 0.0 0.0 0.0 0.0 0.0 0.0 0.0
0.0 0.0 0.0 0.0 0.0 0.0 0.0 0.0
00000000: f530 f9b4 8558 8cb5 165b ec32 8e4a a7b5
00000010: 62df f1b5 c356 1533 7b23 e4b2 37b4 feb5
00000020: 99ff 6cb5 297b 0db6 aac0 8532 11b0 3c33
00000030: 61a6 dab5 662b 27b6 9e4c 4d34 466b c9b1
00000040: 8fd7 6ab5 1cd1 e232 9566 08b6 f5b9 6732
00000050: 6029 b6b5 ff3f 2832 e361 81b5 3bed e2b5
00000060: b2d5 2a33 1b70 bcb3 eb4b 05b4 4c52 be32
00000070: 55a1 2bb6 c6ba 5db3 4f2e a032 a041 c632
00000080: 9bfb c4b5 aa57 4cb5 7fac cbb4 58ed 1e33
00000090: 2497 2832 e627 d3b2 ada9 d9b5 f443 2eb6
000000a0: 7584 31b6 b972 9333 1169 8e32 6451 48b1
000000b0: f079 26b6 81a6 b332 31f3 4cb3 41cd 25b6
000000c0: 0517 0ab6 818a 52b4 fadb e032 a97f 92b3
000000d0: 7f2b 75b5 4104 ba32 e045 e1b5 b54c 91b5
000000e0: 8ba2 a832 5126 de32 ed37 2ab6 c64e 0133
000000f0: b3e7 30b6 ea8a cc32 d01d 5bb5 ea9b cc32
00000100: e971 eab5 04dc 17b5 59b5 1d33 5d49 b1b4
00000110: 3d8f 3eb6 af94 c533 3829 5bb2 c3b9 5eb6
00000120: 225a bab5 3611 0bb6 c772 fb32 8b7d fc33
00000130: 3ceb a1b5 2aa6 9ab6 7012 20b4 4c36 6d34
00000140: e163 4933 586c 3f33 c900 5ab6 5078 8032
00000150: 20ba 87b5 898c 0733 29fb 3ab6 99f3 9fb5
00000160: 7cbb c533 4c66 8cb4 a0e5 31b4 30d2 0633
00000170: 8927 89b6 fb10 0db5 9baf 1433 20e1 0533
00000180: 74bb 26b6 bb51 67b5 f341 a7b4 61dd a2b2
00000190: c319 9832 263a 1ab3 e115 28b6 b70b 5fb6
000001a0: 0631 57b6 1dcc 3433 570a 0db4 75fb ab33
000001b0: 651e 7cb6 08fe bf32 2f5f 73b1 25f9 5cb6
000001c0: 83f8 74b6 561e 96b5 13c4 0233 e1e0 77b3
000001d0: 494b cfb5 c19e d532 731e 4fb6 5f09 f1b5
000001e0: cf55 1033 a6e7 0933 f07e 3ab6 63cf b732
000001f0: cd5a 39b6 d254 1633 914a 25b6 c52d ed32
00000200: 64ac 4ab3 aa23 d4b3 5f16 3d31 eaef d1b3
00000210: be7d 1eb4 d2c2 1432 1924 15b1 068a 4bb4
00000220: a14f 05b4 3089 4bb4 d1f6 db30 e277 fc31
00000230: 7dd5 14b4 18fa 8ab4 904b 3f31 9bd3 2532
00000240: 177d 6eb3 0f19 3631 2d72 6eb4 3c35 b030
00000250: ce98 ffb3 91bc b830 7fb5 d9b3 923e 1eb4
00000260: 9278 4b32 06c1 94b1 2751 9fb2 618f 1931
00000270: 06a4 85b4 1709 2d31 200b 0631 44d5 2c31
00000280: dec5 0db4 ec72 84b3 3b6c 90b3 01ae 4232
00000290: 35a8 8930 2d53 27b1 df07 2eb4 225a 84b4
000002a0: 37a2 84b4 c37c 0731 016f 43b0 b226 0eb2
000002b0: 7866 84b4 5f8b 0731 0ad2 ea31 d738 7ab4
000002c0: e047 60b4 a243 93b2 52f1 2b31 42b2 da30
000002d0: b31a bfb3 9da0 0d31 324e 38b4 7649 17b4
000002e0: 2e3d 0831 c9c7 2b31 c169 80b4 ecb1 a930
000002f0: 2127 84b4 4556 1c31 aff2 adb3 d512 1631
00000300: 0000 0000 0000 0000 0000 0000 0000 0000
00000310: 0000 0000 0000 0000 0000 0000 0000 0000
00000320: 0000 0000 0000 0000 0000 0000 0000 0000
00000330: 0000 0000 0000 0000 0000 0000 0000 0000
00000340: 0000 0000 0000 0000 0000 0000 0000 0000
00000350: 0000 0000 0000 0000 0000 0000 0000 0000
00000360: 0000 0000 0000 0000 0000 0000 0000 0000
00000370: 0000 0000 0000 0000 0000 0000 0000 0000
00000380: 0000 0000 0000 0000 0000 0000 0000 0000
00000390: 0000 0000 0000 0000 0000 0000 0000 0000
000003a0: 0000 0000 0000 0000 0000 0000 0000 0000
000003b0: 0000 0000 0000 0000 0000 0000 0000 0000
000003c0: 0000 0000 0000 0000 0000 0000 0000 0000
000003d0: 0000 0000 0000 0000 0000 0000 0000 0000
000003e0: 0000 0000 0000 0000 0000 0000 0000 0000
000003f0: 0000 0000 0000 0000 0000 0000 0000 0000
