new_saved_models/v2_n1e6_gmm_sk50.pt (torch, 529309 bytes, 24 tensors)

net.0.weight f4 [64, 2]
0.18806024 0.17489153 0.5352515 -0.28943828 0.3351879 0.037733015 0.55637175 0.72698724
0.3303881 0.5895274 0.27055407 -0.60541147 0.12379193 0.5028595 0.28934526 -0.6213774
-0.67716 -0.54172784 0.14718103 0.5852073 0.28140524 0.6949911 0.53788424 -0.69459426
-0.514167 0.07383969 -0.5263693 -0.78390914 -0.23400491 -0.08978939 -0.746386 0.42463163
0.2851174 -0.78119403 0.22297011 -0.44183958 -4.5978635e-07 0.37262082 0.2534571 0.56868505
0.3877355 -0.7404342 0.34172216 0.7522235 -0.70443934 0.15252905 0.4854267 -0.1741788
-0.02888407 0.29270816 -0.41421857 -0.42558834 0.51787174 0.19433092 -0.47463873 0.5369566
-0.30558547 0.462797 0.088447906 -0.070236474 -0.23471369 0.31524214 0.71045774 -0.24637131
0.5126612 0.56361383 -0.16411681 -0.6254383 -0.6567981 -0.008185252 -0.6049062 -0.3932989
-0.38975528 0.7284627 0.21549249 -0.46411827 -0.16895384 -0.13288826 -0.013923039 0.4506554
-0.42009443 0.13336013 0.14432724 0.4871948 -0.65308666 -0.12563291 0.017171422 0.16793841
-0.30641207 0.10996186 0.78382385 -0.10607824 -0.7043264 -0.20574923 0.4072671 -0.6855076
0.1475961 0.798071 0.18547444 0.65005505 -0.6451278 0.6051995 0.35378054 -0.15952174
-0.33991748 -0.30143532 -0.6967799 -0.6776909 0.6704859 -0.7924177 0.54028094 0.20622335
-0.43132073 0.62831694 -0.24550022 0.44803688 -0.072502665 -0.5259811 0.25321808 0.6848625
-0.27355805 0.006063979 0.5737475 0.005192086 0.68867004 0.4628952 -0.56277585 -0.27161756
00000000: dd92 403e c416 333e 3e06 093f 4131 94be
00000010: c09d ab3e ef8d 1a3d 616e 0e3f d61b 3a3f
00000020: a128 a93e 45eb 163f 1086 8a3e 3ffc 1abf
00000030: a086 fd3d 66bb 003f 1025 943e 9712 1fbf
00000040: 5c5a 2dbf adae 0abf a0b6 163e 25d0 153f
00000050: 5914 903e f0ea 313f c8b2 093f eed0 31bf
00000060: 73a0 03bf 4339 973d 23c0 06bf 45ae 48bf
00000070: fc9e 6fbe 80e3 b7bd 2713 3fbf 5169 d93e
00000080: e8fa 913e 55fc 47bf 4752 643e cc38 e2be
00000090: 8ed8 f6b4 28c8 be3e 21c5 813e 5895 113f
000000a0: 4485 c63e 198d 3dbf 35f6 ae3e b891 403f
000000b0: 2356 34bf 9330 1c3e d989 f83e ed5b 32be
000000c0: 499e ecbc d8dd 953e 7514 d4be b7e6 d9be
000000d0: 3e93 043f affe 463e d903 f3be fd75 093f
000000e0: b375 9cbe baf3 ec3e 2d24 b53d 24d8 8fbd
000000f0: c958 70be 6b67 a13e 8fe0 353f c348 7cbe
00000100: c43d 033f ff48 103f 3d0e 28be b91c 20bf
00000110: ec23 28bf 6f1b 06bc 22db 1abf 795e c9be
00000120: 018e c7be 887c 3a3f 10aa 5c3e e9a0 edbe
00000130: 3c02 2dbe dc13 08be 751d 64bc 4ebc e63e
00000140: 9e16 d7be 8f8f 083e 85ca 133e 9971 f93e
00000150: b030 27bf eaa5 00be 15ab 8c3c 0cf8 2b3e
00000160: 0be2 9cbe af33 e13d aea8 483f 8c3f d9bd
00000170: bc4e 34bf edaf 52be 5085 d03e 6d7d 2fbf
00000180: 6f23 173e 624e 4c3f 03ed 3d3e 026a 263f
00000190: 1827 25bf 5bee 1a3f b922 b53e ab59 23be
000001a0: aa09 aebe bb55 9abe 2b60 32bf 277d 2dbf
000001b0: f7a4 2b3f e3db 4abf da4f 0a3f 372c 533e
000001c0: 12d6 dcbe 61d9 203f 6964 7bbe 1765 e53e
000001d0: 477c 94bd b3a6 06bf cda5 813e 2653 2f3f
000001e0: cd0f 8cbe 58b4 c63b 1ee1 123f 6022 aa3b
000001f0: ae4c 303f 9a00 ed3e 1412 10bf 7511 8bbe

net.0.bias f4 [64]
-0.14935674 -0.3542463 0.041924905 -0.08807494 0.6032919 0.5458307 -0.64241064 0.6140384
0.22096778 0.31930384 0.14051004 -0.6559495 0.123648226 -0.31770056 -0.6505092 0.07470025
0.2279818 -0.26755938 -0.058835138 -0.7023291 0.10387984 0.6445315 -0.23544662 -0.010227261
-0.044473987 0.4315606 -0.3920563 0.011787598 -0.57632875 -0.46457946 -0.06988196 0.33891138
-0.17051727 -0.35346994 0.24079525 -0.45497632 -0.64822334 0.62847817 -0.20476106 -0.117860846
-0.69279236 -0.35279867 0.54265743 0.46169436 0.45090368 0.29436058 0.15022628 -0.11396625
-0.12622622 0.71070075 -0.2819924 -0.6147847 0.48588023 0.21493867 -0.10427877 0.015506229
-0.63833714 -0.22062725 -0.59239864 0.46112138 -0.69927824 -0.21097957 0.7003575 0.4134725
00000000: f9f0 18be c55f b5be 73b9 2b3d a260 b4bd
00000010: 5771 1a3f 90bb 0b3f 0675 24bf 9f31 1d3f
00000020: 6145 623e cb7b a33e dde1 0f3e 4eec 27bf
00000030: 483b fd3d a6a9 a2be c587 26bf 72fc 983d
00000040: 1074 693e 8bfd 88be 1dfd 70bd d7cb 33bf
00000050: f4be d43d 0400 253f eb18 71be 3e90 27bc
00000060: 5b2a 36bd 83f5 dc3e 9abb c8be c520 413c
00000070: 488a 13bf 5cdd edbe 461e 8fbd cb85 ad3e
00000080: 149c 2ebe 03fa b4be 0893 763e a8f2 e8be
00000090: f7f1 25bf f2e3 203f e2ac 51be 0761 f1bd
000000a0: d75a 31bf 07a2 b4be 99eb 0a3f 3463 ec3e
000000b0: d9dc e63e 6eb6 963e ebd4 193e 2367 e9bd
000000c0: 7241 01be 7cf0 353f 4f61 90be 8862 1dbf
000000d0: 4bc5 f83e e218 5c3e 1c90 d5bd d70d 7e3c
000000e0: 106a 23bf 1cec 61be 70a7 17bf 1a18 ec3e
000000f0: e603 33bf 070b 58be a14a 333f abb2 d33e

net.2.weight f4 [128, 64]
0.10871832 0.091932125 0.13091785 -0.07128652 -0.011312676 0.10105894 0.11005031 0.040090755
0.07605585 -0.032017585 0.06626636 -0.041152988 0.07641179 0.06260048 -0.07175974 0.18237881
0.024362523 0.11004029 0.039660085 -0.07971586 0.089490846 -0.034910638 0.17214991 0.11243779
-0.055893186 -0.032412194 0.12989542 -0.03794837 -0.04183799 -0.0076316614 0.09181366 -0.07080403
-0.0063050166 -0.03232234 0.0674503 -0.050178148 -0.04524746 0.119374186 -0.088167265 -0.011126031
-0.059209123 0.10132566 -0.013767638 -0.022569431 -0.10335499 0.03960866 0.1042863 -0.0964224
0.06400647 -0.070349455 0.09318403 0.10236385 -0.075981736 0.18164752 0.114103995 -0.07880686
-0.07838099 -0.065453395 -0.072477244 0.09208294 0.088753484 0.07933745 0.009170055 0.038905952
-0.11422928 -0.02703495 -0.12281555 0.038473308 0.07782676 0.11927129 0.122672565 -0.013997063
0.18676767 -0.116657875 -0.07723929 0.0878171 0.07234684 0.13515444 0.07417383 0.094150655
0.06131697 0.118816115 0.04159714 -0.026802586 0.07656245 0.10602526 0.06964594 -0.079187706
0.10643168 -0.09707576 0.08141643 0.060196478 0.052442405 0.08797497 -0.03611755 0.08697632
-0.09220221 0.03758418 0.128924 -0.058571164 -0.031145906 -0.028261494 -0.02039536 -0.0899107
0.10763962 0.04330767 -0.02471823 -0.019731777 -0.04657287 -0.032172598 -0.08140265 -0.040257957
-0.015092286 -0.0033716878 -0.03303345 0.07083269 -0.07222549 0.12814967 0.1323638 -0.15270449
-0.06938542 -0.029959714 -0.051085193 -0.024897452 -0.06747138 -0.021447152 -0.030955726 0.047077313
-0.17151749 -0.073520094 0.1906133 -0.14476751 0.024371581 -0.092663325 0.07107274 -0.04049423
-0.04394354 0.08203539 0.18994865 -0.12256263 -0.10095064 -0.022825038 0.070930555 -0.0005922099
0.056277107 -0.058156207 0.03207623 -0.005286639 0.0642294 -0.105786346 -0.07996533 -0.02446165
0.112749785 0.037465367 0.104342595 0.044239637 0.053976893 -0.002599928 -0.0221653 0.04933852
-0.027724996 -0.0511228 -0.010793399 0.06220036 -0.08837986 0.076481424 0.09550004 0.09470938
-0.017805535 -0.0167847 0.035619188 0.03091513 0.102068685 -0.083052725 0.09395225 0.16647218
0.14985788 -0.095677786 -0.09584148 0.070187464 0.07632226 -0.08382929 0.19040489 0.07545659
-0.0075721387 -0.15873338 -0.08784985 0.0180953 0.0041317106 0.060063887 0.025967417 0.11734758
-0.11462906 0.119685195 -0.065510504 -0.07458093 -0.07037329 0.053706095 0.10450473 0.032875333
-0.06997259 -0.09363325 -0.046833314 -0.080112115 -0.039792977 -0.034419835 0.01772166 -0.06582949
-0.09461744 0.0056241923 0.12425859 0.10243648 -0.030909533 0.065074846 0.12614694 0.102688104
0.07459782 0.044694956 0.06592282 -0.0766003 -0.07936527 -0.10054812 -0.08069431 0.025948728
-0.10057318 -0.009905114 -0.006844927 0.035915587 -0.04516433 -0.08934392 -0.07927798 -0.08855816
-0.034801655 -0.029719999 0.0073330323 0.106189676 0.040937655 -0.033223603 0.01973327 0.04933381
0.10324883 -0.10666456 0.0141665405 0.0017698522 -0.03148122 0.020815577 -0.05900375 -0.024150113
-0.107937016 0.035192925 0.110931456 -0.01924064 -0.06835557 0.015493382 -0.13017407 0.090082005
00000000: b6a7 de3d e946 bc3d 540f 063e abfe 91bd
00000010: cd58 39bc fdf7 ce3d 0f62 e13d 3436 243d
00000020: 2bc3 9b3d df24 03bd a8b6 873d 0990 28bd
00000030: c97d 9c3d ae34 803d c5f6 92bd 83c1 3a3e
00000040: ea93 c73c ce5c e13d 9d72 223d 1242 a3bd
00000050: fa46 b73d 75fe 0ebd 1148 303e c945 e63d
00000060: 41f0 64bd a6c2 04bd 4e03 053e c06f 1bbd
00000070: 505e 2bbd 0413 fabb cd08 bc3d b401 91bd
00000080: 509a cebb 6e64 04bd 6223 8a3d 9a87 4dbd
00000090: 6755 39bd 747a f43d 0a91 b4bd f549 36bc
000000a0: 4485 72bd d483 cf3d a991 61bc 87e3 b8bc
000000b0: c8ab d3bd b13c 223d 0e94 d53d 1b79 c5bd
000000c0: d315 833d 6013 90bd 45d7 be3d 23a4 d13d
000000d0: 509c 9bbd cf01 3a3e 5baf e93d 7e65 a1bd
000000e0: 3686 a0bd 6e0c 86bd f36e 94bd fb95 bc3d
000000f0: 63c4 b53d ac7b a23d 003e 163c d95b 1f3d
00000100: 0af1 e9bd 6678 ddbc b886 fbbd 3096 1d3d
00000110: a363 9f3d 8244 f43d c13b fb3d f053 65bc
00000120: 0640 3f3e 53ea eebd a22f 9ebd 74d9 b33d
00000130: 942a 943d ed65 0a3e 73e8 973d 0fd2 c03d
00000140: 8127 7b3d dd55 f33d c361 2a3d 1991 dbbc
00000150: c6cc 9c3d c623 d93d 88a2 8e3d 2a2d a2bd
00000160: daf8 d93d a8cf c6bd a8bd a63d 9590 763d
00000170: d9cd 563d 392c b43d ffef 13bd a420 b23d
00000180: 83d4 bcbd def1 193d a704 043e 51e8 6fbd
00000190: b325 ffbc a684 e7bc 2c14 a7bc 1a23 b8bd
000001a0: 2972 dc3d 6263 313d e37d cabc 89a4 a1bc
000001b0: 32c3 3ebd 6ac7 03bd 6fb6 a6bd 87e5 24bd
000001c0: a345 77bc 89f7 5cbb 154e 07bd bb10 913d
000001d0: f5ea 93bd ab39 033e 608a 073e 915e 1cbe
000001e0: f119 8ebd 136e f5bc b53e 51bd bef5 cbbc
000001f0: 6f2e 8abd f0b1 afbc dd96 fdbc 24d4 403d
00000200: 48a2 2fbe b491 96bd 2230 433e ef3d 14be
00000210: e9a6 c73c 45c6 bdbd 968e 913d 47dd 25bd
00000220: 24fe 33bd 2c02 a83d e681 423e 1e02 fbbd
00000230: 36bf cebd 93fb babc 0a44 913d 893e 1bba
00000240: d382 663d 3435 6ebd 5d62 033d 8b3b adbb
00000250: b48a 833d 83a6 d8bd ddc4 a3bd cc63 c8bc
00000260: 5ce9 e63d 4975 193d 92b1 d53d 9f34 353d
00000270: e016 5d3d 8e63 2abb 0194 b5bc 3017 4a3d
00000280: 881f e3bc 2466 51bd ccd6 30bc cec5 7e3d
00000290: 8000 b5bd 4ba2 9c3d 8695 c33d fef6 c13d
000002a0: eadc 91bc 1180 89bc 6de5 113d ba41 fd3c
000002b0: 6309 d13d 8c17 aabd 0a6a c03d af77 2a3e
000002c0: 5874 193e b7f2 c3bd 8a48 c4bd 72be 8f3d
000002d0: d84e 9c3d b1ae abbd 80f9 423e fc88 9a3d
000002e0: b41f f8bb 018b 22be 9fea b3bd 983c 943c
000002f0: 4d63 873b 8d05 763d 9fb9 d43c ee53 f03d
00000300: a4c2 eabd 831d f53d 5f2a 86bd e3bd 98bd
00000310: df1f 90bd ecfa 5b3d 9306 d63d 49a8 063d
00000320: ca4d 8fbd cac2 bfbd 4ad4 3fbd d211 a4bd
00000330: f6fd 22bd d0fb 0cbd 042d 913c 9dd1 86bd
00000340: cac6 c1bd 254b b83b 4a7b fe3d 38ca d13d
00000350: fd35 fdbc f645 853d aa2c 013e 244e d23d
00000360: bec6 983d 0f12 373d 8b02 873d 9ee0 9cbd
00000370: 428a a2bd 2cec cdbd 0f43 a5bd 6d92 d43c
00000380: 50f9 cdbd 0f49 22bc 694b e0bb 391c 133d
00000390: 3cfe 38bd f2f9 b6bd 7e5c a2bd fb5d b5bd
000003a0: 2e8c 0ebd 5b77 f3bc ef49 f03b f979 d93d
000003b0: 3eae 273d 7915 08bd aba7 a13c 4012 4a3d
000003c0: 1f74 d33d f372 dabd c71a 683c 63fa e73a
000003d0: 74f2 00bd 6e85 aa3c ebad 71bd 75d6 c5bc
000003e0: 150e ddbd 7526 103d 0830 e33d 8c9e 9dbc
000003f0: 01fe 8bbd f4d7 7d3c 5a4c 05be ea7c b83d

net.2.bias f4 [128]
-0.06256864 -0.03832458 -0.116590045 -0.02152199 -0.03183074 -0.006130829 -0.040609285 -0.018886149
0.017525494 0.05958063 0.10815887 -0.08826944 -0.09027148 0.09084355 -0.04608075 -0.02940521
-0.015485251 0.0978156 0.08839458 -0.046001755 0.08296204 0.06497917 -0.057655618 0.110019356
0.003226334 0.05826824 0.12037775 -0.0967744 -0.02722428 -0.120331645 -0.02969976 -0.07901691
0.028779587 0.11130829 -0.04541352 0.03475333 -0.09838623 0.03954063 -0.04497634 -0.017447984
-0.06546677 0.07592374 -0.010378071 -0.11703983 0.06613695 -0.1018605 -0.0677499 0.103052825
0.046160404 0.12756006 -0.042190332 -0.01227697 -0.046152234 -0.013326675 0.09912623 -0.026052317
-0.006992414 -0.07855074 -0.08673728 0.13336734 0.10154367 0.08339236 -0.01393652 0.08916776
-0.037846923 -0.09696469 -0.08974664 0.10435133 0.097654015 0.110445194 -0.107588075 -0.031193258
0.1397625 0.05937327 0.11744473 -0.0065818448 0.123273484 -0.050068602 0.06692347 0.015016956
0.091031104 0.10923616 -0.12225753 -0.04820436 0.07648621 -0.03598283 -0.12604663 0.086368494
0.019885477 -0.007307301 -0.061520427 -0.11652543 0.0025718883 -0.064537935 0.06318325 -0.036734257
-0.10415648 0.021411851 0.05034701 -0.09829384 -0.12054086 0.06824103 -0.056261897 -0.068863496
-0.08558356 0.056637827 -0.00904248 0.00786987 0.040057495 0.120647185 -0.12792315 -0.1214703
-0.06865994 0.005436454 -0.06302245 -0.030032337 -0.021506086 0.024002276 0.08541181 -0.031865325
-0.022025278 -0.100093514 0.08229602 -0.03588699 -0.06788559 -0.07561684 0.09051755 -0.08827789
00000000: fd23 80bd 3cfa 1cbd c3c6 eebd e24e b0bc
00000010: f360 02bd 1fe5 c8bb ec55 26bd 20b7 9abc
00000020: a091 8f3c d20a 743d 6682 dd3d 9cc6 b4bd
00000030: 41e0 b8bd 2f0c ba3d 2bbf 3cbd 32e3 f0bc
00000040: dab5 7dbc 8c53 c83d 3808 b53d 566c 3cbd
00000050: 01e8 a93d cd13 853d 4c28 6cbd d451 e13d
00000060: e770 533b aeaa 6e3d 9c88 f63d a831 c6bd
00000070: 7405 dfbc 7070 f6bd e94c f3bc 9ed3 a1bd
00000080: 2bc3 eb3c 9af5 e33d 8703 3abd 8259 0e3d
00000090: b87e c9bd 5bf5 213d 1c39 38bd 13ef 8ebc
000000a0: 7113 86bd e87d 9b3d c908 2abc 94b2 efbd
000000b0: cf72 873d 3d9c d0bd 76c0 8abd 5c0d d33d
000000c0: b112 3d3d 1b9f 023e c5cf 2cbd 5825 49bc
000000d0: 200a 3dbd 2058 5abc b102 cb3d ab6b d5bc
000000e0: 9f20 e5bb 36df a0bd 51a3 b1bd 7391 083e
000000f0: 21f6 cf3d 9dc9 aa3d 0056 64bc 969d b63d
00000100: 6005 1bbd 6c95 c6bd 16cd b7bd 26b6 d53d
00000110: d4fe c73d 1731 e23d 2357 dcbd 0189 ffbc
00000120: e71d 0f3e 6331 733d dd86 f03d 84ac d7bb
00000130: cf76 fc3d bc14 4dbd 2c0f 893d ae09 763c
00000140: 846e ba3d 35b7 df3d 2862 fabd ef71 45bd
00000150: cda4 9c3d bb62 13bd 5e12 01be f7e1 b03d
00000160: dee6 a23c 1572 efbb d8fc 7bbd e2a4 eebd
00000170: 208d 283b 772c 84bd 3866 813d a976 16bd
00000180: fe4f d5bd e867 af3c ab38 4e3d 484e c9bd
00000190: 20de f6bd f4c1 8b3d e072 66bd 4e08 8dbd
000001a0: 6f46 afbd 11fd 673d e926 14bc a1f0 003c
000001b0: 5413 243d df15 f73d 49fe 02be 6cc5 f8bd
000001c0: 959d 8cbd 4824 b23b ea11 81bd 6006 f6bc
000001d0: 882d b0bc 6ca0 c43c 63ec ae3d 3785 02bd
000001e0: 5b6e b4bc d4fd ccbd d18a a83d 3dfe 12bd
000001f0: 9a07 8bbd 00dd 9abd 4461 b93d 0acb b4bd

net.4.weight f4 [256, 128]
-0.036799796 -0.025149735 -0.06887315 0.07017615 -0.012288216 0.04052865 0.023384618 0.08492295
0.025516191 0.040473286 0.07414702 0.0038805485 -0.015569681 -0.04879325 -0.07081123 0.044969905
0.050342944 -0.009659981 0.037461836 0.063999034 -0.009735884 -0.058501046 0.056282215 0.006653303
0.065596424 0.066540234 -0.091014884 -0.027263932 -0.08713065 -0.0007403726 -0.0666769 -0.008838739
-0.09593782 -0.036177017 0.05245432 -0.07185119 0.005198139 0.07168234 0.06910069 -0.0549219
0.08530105 -0.036265597 0.011419075 -0.053246275 -0.047559466 -0.00608785 0.074315146 0.0029300994
-0.053725764 0.0649555 0.053425286 0.07925853 -0.060671158 -0.015407834 -0.05291944 -0.06495667
0.010537841 -0.08189251 -0.08974935 -0.02217378 -0.055567175 0.065703094 0.074385576 -0.028363058
-0.050247874 -0.039663196 -0.0049197422 -0.04136796 -0.025290322 -0.0005546809 -0.014051119 -0.0018322914
0.054990716 -0.043723803 -0.035498183 -0.05349491 0.023410747 -0.08349006 0.04866903 -0.04560583
-0.018131496 -0.00065343606 -0.057444498 -0.06561365 0.0060399505 -0.027180102 -0.012468462 0.05738097
0.0269966 -0.028009413 0.0034164952 -0.08322443 -0.009342531 -0.038334318 -0.088089876 -0.0838197
-0.025827618 -0.011803836 -0.006929321 0.0562458 0.08050229 0.04027943 -0.010878893 -0.097273506
0.04944072 0.008084735 0.0065476536 0.08034797 0.08709684 -0.0048628557 -0.019637913 0.03316895
-0.07227806 -0.062104058 -0.019284733 -0.007990484 0.03964072 0.050582018 0.009112328 0.074381724
0.037612166 -0.08040094 0.028271696 0.036020026 -0.012638744 -0.07115785 0.055380717 -0.056518774
0.12460318 0.06369549 0.16964556 -0.059838958 0.07245691 -0.057608206 -0.05700827 -0.057008587
-0.07590358 -0.1209431 -0.15086989 0.0783061 0.034987703 -0.0144309085 -0.017871233 -0.0492678
-0.049523734 0.0049676117 -0.031550247 -0.068753004 -0.015041078 -0.1565605 -0.08940438 -0.06331254
-0.029472439 -0.06688584 -0.079760864 0.028082235 -0.19645312 0.04445028 0.018847784 0.037859738
0.043106936 -0.056113888 0.004380998 0.044627376 -0.01692117 -0.009608906 0.01243942 0.0044009746
-0.0510209 -0.08817413 0.037358124 0.020093435 -0.0011703279 -0.017256513 -0.041541815 -0.05792401
-0.072783805 -0.07213873 0.11611331 0.13863316 0.07028418 0.065341726 0.038954876 0.05514795
0.14522879 -0.0011482318 0.043622635 -0.04276486 -0.051269237 0.10707138 -0.04953813 -0.024666231
0.06179801 -0.1501185 -0.11424546 -0.056525305 0.07469788 0.13725355 -0.10369385 0.044659104
-0.021861356 0.084380865 0.078949295 0.10391469 0.011219773 -0.06884931 -0.026545275 -0.08055698
0.045630228 -0.041355398 0.0580578 0.1611143 -0.15276915 -0.044003185 0.18025686 0.066994466
-0.18010077 -0.0930354 -0.10412637 0.087753996 0.033528283 0.0045510046 0.017296417 -0.13382666
-0.053685926 0.025428647 0.06745276 -0.042541027 0.08951873 -0.012057226 -0.091291234 -0.029518021
0.079073735 -0.13817282 -0.035553396 -0.08620536 0.14444451 0.025105832 -0.079196244 0.05395411
0.02663844 -0.018629115 0.03530712 0.04141247 -0.041806564 0.018565625 0.12771042 -0.012498217
-0.078123294 -0.054865714 -0.17720157 -0.121235505 0.010495386 0.029227195 0.046485316 -0.06655803
00000000: 62bb 16bd d106 cebc 5e0d 8dbd 83b8 8f3d
00000010: 8354 49bc 5f01 263d 1991 bf3c 15ec ad3d
00000020: 5507 d13c 51c7 253d 65da 973d cd50 7e3b
00000030: fa17 7fbc 6edb 47bd 7a05 91bd 5d32 383d
00000040: 6734 4e3d e644 1ebc 9571 193d ed11 833d
00000050: 4283 1fbc cb9e 6fbd 2e88 663d f303 da3b
00000060: 6b57 863d 3f46 883d 0366 babd 9c58 dfbc
00000070: 8e71 b2bd 9015 42ba e68d 88bd 5cd0 10bc
00000080: 0c7b c4bd 5a2e 14bd 57da 563d b726 93bd
00000090: 2755 aa3b 31ce 923d aa84 8d3d c9f5 60bd
000000a0: 51b2 ae3d 3c8b 14bd 1217 3b3c c418 5abd
000000b0: b7cd 42bd 967c c7bb 8a32 983d e906 403b
000000c0: 8c0f 5cbd 6407 853d 79d4 5a3d 4c52 a23d
000000d0: 5282 78bd 2471 7cbc 0ec2 58bd 0108 85bd
000000e0: e9a6 2c3c 43b7 a7bd 82ce b7bd c9a5 b5bc
000000f0: 689a 63bd 588f 863d 7757 983d a559 e8bc
00000100: b7d0 4dbd e075 22bd ca35 a1bb 7371 29bd
00000110: a62d cfbc 0168 11ba aa36 66bc 7f29 f0ba
00000120: f23d 613d bb17 33bd 8b66 11bd 7b1d 5bbd
00000130: e5c7 bf3c d6fc aabd 2d59 473d 2ecd 3abd
00000140: 8188 94bc 5a4b 2bba ec4a 6bbd 7360 86bd
00000150: c7ea c53b cea8 debc 8548 4cbc 4f08 6b3d
00000160: f927 dd3c ff73 e5bc 47e7 5f3b 9271 aabd
00000170: 6a11 19bc 7204 1dbd 7768 b4bd aaa9 abbd
00000180: 7194 d3bc e064 41bc 5c0f e3bb ff61 663d
00000190: 62de a43d 0bfc 243d 623d 32bc 5537 c7bd
000001a0: 5a82 4a3d d675 043c b38d d63b 7a8d a43d
000001b0: d45f b23d 9758 9fbb b0df a0bc 2adc 073d
000001c0: 8506 94bd d360 7ebd 04fb 9dbc 85ea 02bc
000001d0: 4f5e 223d 172f 4f3d e04b 153c 7255 983d
000001e0: 370f 1a3d 3fa9 a4bd 0b9a e73c bc89 133d
000001f0: bc12 4fbc 35bb 91bd e4d6 623d 3b80 67bd
00000200: f42f ff3d c872 823d 91b7 2d3e b219 75bd
00000210: 4a64 943d 95f6 6bbd 8181 69bd d681 69bd
00000220: 5673 9bbd 04b1 f7bd a37d 1abe f35e a03d
00000230: 444f 0f3d 9e6f 6cbc b166 92bc 08cd 49bd
00000240: 66d9 4abd 59c7 a23b d53a 01bd 60ce 8cbd
00000250: db6e 76bc 6551 20be a519 b7bd 01aa 81bd
00000260: 2f70 f1bc 71fb 88bd aa59 a3bd b70c e63c
00000270: 022b 49be 7f11 363d ab66 9a3c d012 1b3d
00000280: e690 303d add7 65bd 7a8e 8f3b 32cb 363d
00000290: 449e 8abc ac6e 1dbc b6ce 4b3c 0d36 903b
000002a0: 4bfb 50bd a394 b4bd d504 193d fd9a a43c
000002b0: b065 99ba 885d 8dbc c027 2abd ba41 6dbd
000002c0: ad0f 95bd 78bd 93bd d1cc ed3d daf5 0d3e
000002d0: 27f1 8f3d e2d1 853d 268f 1f3d d1e2 613d
000002e0: dbb6 143e 4480 96ba a6ad 323d 352a 2fbd
000002f0: b1ff 51bd 3d48 db3d 7fe8 4abd d610 cabc
00000300: e91f 7d3d aab8 19be 86f9 e9bd 1487 67bd
00000310: 34fb 983d 328c 0c3e 715d d4bd 77ec 363d
00000320: 9616 b3bc e0cf ac3d 2bb0 a13d 3ad1 d43d
00000330: 24d3 373c de00 8dbd 7a75 d9bc 0ffb a4bd
00000340: c3e6 3a3d 4764 29bd 04ce 6d3d 26fb 243e
00000350: 846f 1cbe af3c 34bd 4195 383e 6534 893d
00000360: 566c 38be 5889 bebd 3540 d5bd 5eb8 b33d
00000370: f454 093d 9820 953b 37b1 8d3c db09 09be
00000380: c6e5 5bbd bd4f d03c ac24 8a3d 803f 2ebd
00000390: 9955 b73d ac8b 45bc e6f6 babd c7cf f1bc
000003a0: 69f1 a13d 2d7d 0dbe 70a0 11bd 708c b0bd
000003b0: 43e9 133e bfaa cd3c a431 a2bd fcfe 5c3d
000003c0: dc38 da3c 169c 98bc 339e 103d 1fa0 293d
000003d0: 5c3d 2bbd f016 983c 85c6 023e 52c5 4cbc
000003e0: 1bff 9fbd dfba 60bd 5474 35be 524a f8bd
000003f0: d7f4 2b3c df6d ef3c 6367 3e3d 944f 88bd

net.4.bias f4 [256]
-0.023893893 -0.099510714 0.053253863 0.011061958 -0.06784508 0.023229513 -0.014054703 0.065524384
0.009251261 -0.0171884 0.086735345 0.10746573 0.042134363 0.05360613 0.009440362 0.032646254
-0.06874724 0.07448091 -0.029207744 0.07235087 -0.03695135 0.023585986 -0.058989786 -0.030037388
-0.08356113 0.033757724 0.07459826 -0.03193683 -0.050163716 0.044695277 -0.053907417 -0.04255006
-0.07312538 -0.084439814 -0.03889458 0.10573488 -0.006896988 0.009344882 -0.026071675 -0.06585372
-0.08018136 -0.03276592 -0.06148536 -0.08026708 -0.090330705 -0.034260307 0.07699828 0.036006555
0.07222058 0.034994476 -0.03188313 -0.011646269 -0.10155978 0.03204138 -0.045127705 0.06607547
-0.051888 0.042956967 0.043773085 0.08007691 0.081364356 -0.054817814 -0.066351295 -0.052451417
0.062661104 -0.08194639 0.022190075 0.08907657 0.0499138 -0.08158155 -0.084482454 0.014731392
0.08518166 -0.02228643 -0.07215547 0.026000265 0.085092135 -0.003403473 -0.018591946 -0.057248026
0.020631509 0.04123903 -0.018854251 0.083151385 0.052902374 0.06769925 0.041080866 -0.054922022
-0.057358228 0.069672756 -0.058380526 0.032907978 0.008362533 -0.052140724 0.03242322 -0.06776684
-0.08789315 -0.0125972405 0.027906671 -0.08731943 -0.031001069 0.069731675 0.041082233 0.08589436
-0.07823108 0.07476712 -0.085090935 0.0526367 0.07880804 0.032890975 0.00078602973 0.011756265
0.06445285 -0.062102307 0.043289702 0.0036583736 -0.041661285 -0.072678484 0.052623194 0.034756627
0.028260808 0.0169429 0.03505329 -0.027492197 0.009531872 0.052844167 -0.07866473 0.101231754
-0.07521841 -0.013191527 -0.088327855 -0.09260948 0.0021426457 0.07869276 0.036945634 0.1023571
0.052491512 -0.02127014 0.011929453 -0.03766705 0.055054035 -0.086070605 -0.071576305 -0.08124905
0.0851107 -0.0898307 0.003000365 0.021985708 -0.017139 -0.064144224 -0.01298726 -0.03605398
-0.0711628 -0.026970157 0.05807379 -0.07396213 0.015179346 -0.04098271 -0.07606229 -0.034168277
0.029736707 -0.0077376706 0.05770908 -0.0063735167 -0.038219415 0.011920848 0.06959667 -0.09947101
0.014163516 -0.09175806 -0.028989466 0.06929044 -0.042491123 0.076421686 -0.0127084 0.0055396706
0.12153523 -0.07419732 0.09606793 -0.040577047 0.0011645555 0.02613864 -0.031161945 0.028275955
-0.04960905 -0.07535591 0.035030175 0.009536387 -0.09277441 0.001393284 0.030902691 -0.043338023
-0.012733425 -0.06812775 -0.052201338 0.06436173 -0.012017207 0.054309316 -0.04870554 -0.0075867176
0.045182314 0.04009966 -0.06155476 -0.057522334 -0.00012787482 -0.008567218 0.061450582 -0.0759766
0.06818569 -0.06262834 -0.06941807 0.07995662 -0.06219833 -0.07093214 -0.08509593 -0.06025119
0.075794585 0.073748685 -0.035357118 0.00026505257 0.037351485 0.072769806 -0.025223522 0.0848117
0.053456523 -0.02867355 0.08122336 0.018431405 0.07583373 -0.06206533 0.011224185 -0.0355199
0.05652919 -0.07231534 0.02896991 0.0519442 0.01330716 -0.016127331 0.013430055 -0.040658265
0.0026049858 -0.011964921 -0.072486095 -0.068302065 -0.026713885 -0.03401871 -0.060597364 0.01740293
0.027843183 -0.043679323 -0.030901682 -0.05851444 0.060123224 -0.065344386 0.052358482 -0.000543696
00000000: 20bd c3bc 46cc cbbd b920 5a3d 373d 353c
00000010: 5cf2 8abd d24b be3c b245 66bc a631 863d
00000020: 9a92 173c b0ce 8cbc 4da2 b13d fe16 dc3d
00000030: 1595 2c3d 1a92 5b3d c0ab 1a3c 14b8 053d
00000040: 5acb 8cbd 7389 983d 1445 efbc b12c 943d
00000050: 4c5a 17bd 6637 c13c 469f 71bd f810 f6bc
00000060: 1922 abbd 8a45 0a3d f9c6 983d 32d0 02bd
00000070: 7878 4dbd 6512 373d 06ce 5cbd f948 2ebd
00000080: c2c2 95bd c8ee acbd ec4f 1fbd 878b d83d
00000090: 2100 e2bb 471b 193c 4494 d5bc 51de 86bd
000000a0: 2036 a4bd 8f35 06bd 13d8 7bbd 1163 a4bd
000000b0: 4eff b8bd 8954 0cbd 46b1 9d3d 9c7b 133d
000000c0: 62e8 933d 5e56 0f3d e397 02bd fecf 3ebc
000000d0: 93fe cfbd d23d 033d d4d7 38bd 9352 873d
000000e0: 8388 54bd a5f3 2f3d 684b 333d 5dff a33d
000000f0: 5ba2 a63d a588 60bd 30e3 87bd 4cd7 56bd
00000100: 7754 803d 82d3 a7bd f6c7 b53c c76d b63d
00000110: 6a72 4c3d 3a14 a7bd 2305 adbd f05b 713c
00000120: b973 ae3d 0892 b6bc 3fc6 93bd 82fe d43c
00000130: c944 ae3d cd0c 5fbb 234e 98bc e87c 6abd
00000140: 6903 a93c 42ea 283d 3b74 9abc 464b aa3d
00000150: 29b0 583d e8a5 8a3d 6944 283d eaf5 60bd
00000160: 76f0 6abd 97b0 8e3d 6b20 6fbd 84ca 063d
00000170: 0103 093c 8391 55bd 36ce 043d 57c9 8abd
00000180: 5301 b4bd a864 4ebc 889c e43c 88d4 b2bd
00000190: f4f5 fdbc 7bcf 8e3d d845 283d 62e9 af3d
000001a0: 9e37 a0bd 811f 993d 2844 aebd 9599 573d
000001b0: 1c66 a13d b0b8 063d 900d 4e3a 599d 403c
000001c0: dbff 833d fd5e 7ebd 8b50 313d 53c1 6f3b
000001d0: 06a5 2abd 75d8 94bd 6b8b 573d f75c 0e3d
000001e0: 3683 e73c d6cb 8a3c 0a94 0f3d 5137 e1bc
000001f0: 922b 1c3c 2073 583d f91a a1bd 9852 cf3d
00000200: 1c0c 9abd 4621 58bc 3ce5 b4bd 0aaa bdbd
00000210: a16b 0c3b ab29 a13d 4e54 173d 99a0 d13d
00000220: 5701 573d b73e aebc c173 433c c448 1abd
00000230: 5780 613d c945 b0bd 9996 92bd e765 a6bd
00000240: 854e ae3d 28f9 b7bd c6a1 443b 5f1b b43c
00000250: 1767 8cbc 0c5e 83bd 84c8 54bc 57ad 13bd
00000260: cdbd 91bd 85f0 dcbc c8de 6d3d 7579 97bd
00000270: cbb2 783c 7cdd 27bd 8cc6 9bbd 09f4 0bbd
00000280: 659a f33c 498c fdbb 5b60 6c3d efd8 d0bb
00000290: f68b 1cbd a94f 433c b388 8e3d 75b7 cbbd
000002a0: 180e 683c a6eb bbbd 517b edbc 25e8 8d3d
000002b0: 2c0b 2ebd f982 9c3d e536 50bc 2086 b53b
000002c0: 76e7 f83d c4f4 97bd 43bf c43d 1e34 26bd
000002d0: 00a4 983a b320 d63c 5647 ffbc faa2 e73c
000002e0: dc32 4bbd 3354 9abd cd7b 0f3d 823e 1c3c
000002f0: 8300 bebd da9e b63a a427 fd3c 3683 31bd
00000300: db9f 50bc 9086 8bbd 12d1 55bd 15d0 833d
00000310: d2e3 44bc 7273 5e3d 767f 47bd 009a f8bb
00000320: 1711 393d 8b3f 243d d820 7cbd 8a9c 6bbd
00000330: 2316 06b9 845d 0cbc 9bb3 7b3d 9f99 9bbd
00000340: f0a4 8b3d 4a43 80bd 102b 8ebd 4cc0 a33d
00000350: adc3 7ebd df44 91bd c646 aebd f4c9 76bd
00000360: 313a 9b3d 8d09 973d a0d2 10bd c1f6 8a39
00000370: dffd 183d 5608 953d 8fa1 cebc c2b1 ad3d
00000380: 3af5 5a3d cbe4 eabc 6f58 a63d 75fd 963c
00000390: b74e 9b3d 3738 7ebd a5e5 373c 517d 11bd
000003a0: 278b 673d 111a 94bd 4e52 ed3c 71c3 543d
000003b0: 4606 5a3c 771d 84bc bc09 5c3c 4889 26bd
000003c0: 69b8 2a3b 8408 44bc 9773 94bd f4e1 8bbd
000003d0: 14d7 dabc 3457 0bbd f134 78bd 9790 8e3c
000003e0: 6317 e43c 17e9 32bd 8625 fdbc d6ac 6fbd
000003f0: c543 763d 47d3 85bd d975 563d d286 0eba

net.6.weight f4 [2, 256]
0.018352687 0.20755291 -0.22343805 -0.14688356 -0.17205912 0.024835512 0.06179247 -0.19015561
-0.22769165 0.20280686 0.15824768 0.12989351 -0.2076135 -0.22718135 -0.2185444 -0.19503766
-0.04760977 -0.22800528 -0.18840446 -0.20718773 0.17995346 -0.040604204 0.18930066 -0.17208757
-0.047283813 -0.21192268 -0.13442622 0.19555978 0.032239817 -0.1805938 -0.20694885 -0.16481607
0.19742367 -0.027954102 0.009418572 0.18628548 -0.21248414 0.20791969 0.04172763 -0.03533955
-0.012347403 -0.22696252 -0.061193794 0.013497898 0.052877966 -0.1961634 -0.19362612 0.14077614
-0.20236045 0.15638171 -0.02338586 0.058643132 0.08234068 -0.17494261 -0.18377644 0.19527897
0.17518024 -0.15488675 -0.20153007 -0.19196936 0.17790182 -0.22132072 -0.18833816 -0.2360248
-0.21016617 -0.20845485 -0.22601019 -0.19637488 0.15368916 0.007439181 0.045811266 -0.19740014
-0.2347383 -0.1863285 -0.1559985 -0.23161161 0.18321311 -0.20675151 0.017320903 -0.18722999
-0.0028942693 -0.21992001 0.043747094 -0.16938199 0.14408973 -0.19292304 0.17173061 -0.17139412
-0.20279638 0.1676346 -0.08125144 0.17491545 -0.17084053 -0.20777461 -0.20166071 0.03829328
0.074410774 -0.21578501 -0.17331456 0.039082725 -0.16240011 -0.17473996 -0.1399284 0.20582832
0.048272394 -0.18395437 -0.24469335 -0.17878023 0.036732208 -0.154232 -0.23155127 -0.14841996
-0.020106904 -0.032422163 -0.17435713 0.08754758 0.026406027 0.007068249 -0.17710416 -0.20420882
-0.2160359 0.14941634 0.06367419 -0.19064532 -0.19508845 -0.2017676 -0.19357754 -0.17490256
0.038675364 -0.22279139 0.05501829 0.08926762 0.17187674 -0.15737136 -0.15431884 0.18110976
-0.18053369 -0.2386428 -0.22798587 -0.23763151 -0.20496742 0.06191205 0.03832739 0.017083697
-0.21110788 -0.16126916 0.13704054 -0.17535023 -0.21263553 -0.13727023 0.06514239 -0.23302643
0.046224117 0.025858076 -0.21314861 -0.0022682336 -0.19022639 0.17077969 -0.046506792 0.055459883
-0.22266522 -0.18559287 0.045752697 -0.21597126 -0.017636389 0.04170968 0.17778298 -0.14622264
-0.18397827 0.0565716 -0.18390772 0.19324464 -0.19128363 -0.19687483 -0.20596713 -0.18333274
0.19792074 -0.14203027 0.20048507 -0.15391687 0.14688544 -0.11960679 -0.07530342 -0.15265171
-0.16109236 0.1405812 0.01882119 -0.18695436 -0.20049573 -0.21348262 -0.19383836 0.057737
-0.19474427 0.025189279 -0.04212781 -0.15913002 0.18843766 -0.19583234 0.04813023 -0.1703906
-0.19598873 0.17605954 -0.16856691 0.012734801 -0.17665072 -0.050533447 -0.20771146 -0.022531204
-0.19596496 0.026105754 -0.01281178 -0.20661673 0.13201812 -0.060832582 0.05587602 -0.15205489
-0.023880452 -0.21575636 0.038514215 -0.1823477 0.12874056 -0.19427718 0.00085029576 -0.17887838
0.008740195 0.2116599 -0.22148581 0.18602604 -0.22820617 -0.21004413 -0.22496244 -0.21265501
-0.1618119 0.044383906 0.18034846 -0.2200093 0.15318027 -0.20321149 0.16389371 0.08785675
-0.15481357 -0.039376162 -0.1630711 -0.0721484 -0.21025017 -0.22797486 -0.17632778 -0.13289262
0.021090643 -0.19973035 -0.21255516 -0.004066959 -0.18638876 -0.21534915 -0.18787593 0.056999404
00000000: 6058 963c c088 543e f2cc 64be a568 16be
00000010: 4430 30be d873 cb3c 1a1a 7d3d 27b8 42be
00000020: 0028 69be 9aac 4f3e ae0b 223e ce02 053e
00000030: a298 54be 3aa2 68be 1aca 5fbe f4b7 47be
00000040: 7602 43bd 377a 69be 19ed 40be 0529 54be
00000050: b845 383e 9850 26bd 08d8 413e b937 30be
00000060: acac 41bd 4202 59be 07a7 09be d340 483e
00000070: e60d 043d 95ed 38be 66ea 53be 8bc5 28be
00000080: 6e29 4a3e 0000 e5bc 5b50 1a3c 9fc1 3e3e
00000090: 7195 59be e6e8 543e 97ea 2a3d 34c0 10bd
000000a0: c34c 4abc dd68 68be 58a6 7abd 4a26 5d3c
000000b0: 9196 583d 0fdf 48be ed45 46be 9f27 103e
000000c0: 9437 4fbe 8722 203e b493 bfbc c833 703d
000000d0: 3ba2 a83d 2824 33be e42f 3cbe 36f7 473e
000000e0: 7362 333e a29a 1ebe e65d 4ebe 9e93 44be
000000f0: e52b 363e e6a1 62be b8db 40be 7cb0 71be
00000100: cd35 57be 3075 55be 376f 67be 7f16 49be
00000110: b160 1d3e 60c4 f33b 98a4 3b3d 4323 4abe
00000120: 3d5f 70be e6cc 3ebe 12be 1fbe 982b 6dbe
00000130: 389c 3b3e abb6 53be 91e4 8d3c 38b9 3fbe
00000140: c8ad 3dbb b632 61be 2730 333d 7972 2dbe
00000150: 428c 133e 9e8d 45be 26da 2f3e f181 2fbe
00000160: dba9 4fbe 68a8 2b3e 2867 a6bd 091d 333e
00000170: d2f0 2ebe dec2 54be 2580 4ebe 6ad9 1c3d
00000180: ad64 983d bff6 5cbe 5f79 31be 3515 203d
00000190: 374c 26be 08ef 32be 6449 0fbe a9c4 523e
000001a0: 46b9 453d 895e 3cbe e590 7abe 2a12 37be
000001b0: 8374 163d feee 1dbe c71b 6dbe 67fb 17be
000001c0: 3cb7 a4bc 1acd 04bd ad8a 32be 254c b33d
000001d0: 7451 d83c c59c e73b cb5a 35be 1e1c 51be
000001e0: 8438 5dbe 9900 193e 9d67 823d 8738 43be
000001f0: 44c5 47be 2a9c 4ebe 3139 46be a819 33be
00000200: 0f6a 1e3d 6d23 64be dc5a 613d f1d1 b63d
00000210: 7500 303e f525 21be c205 1ebe d674 393e
00000220: d3dd 38be c75e 74be 2175 69be ad55 73be
00000230: fbe2 51be 7d97 7d3d 2efd 1c3d 1cf3 8b3c
00000240: aa2c 58be be23 25be 5b54 0c3e 038f 33be
00000250: 21bd 59be 9190 0cbe 6069 853d 7b9e 6ebe
00000260: 8055 3d3d 51d4 d33c a143 5abe a5a6 14bb
00000270: b5ca 42be dfe0 2e3e e87d 3ebd e729 633d
00000280: 5a02 64be 0f0c 3ebe 2e67 3b3d 9227 5dbe
00000290: 307a 90bc c5d7 2a3d be0c 363e 63bb 15be
000002a0: cd64 3cbe 9fb7 673d 4e52 3cbe ece1 453e
000002b0: dbdf 43be 8e99 49be 0ce9 52be 94bb 3bbe
000002c0: bcab 4a3e 6270 11be f54b 4d3e 629c 1dbe
000002d0: 2369 163e 68f4 f4bd ae38 9abd bb50 1cbe
000002e0: 65f5 24be 85f4 0f3e e52e 9a3c f770 3fbe
000002f0: c14e 4dbe 309b 5abe 907d 46be a27d 6c3d
00000300: 0b6b 47be bf59 ce3c 368e 2cbd fbf2 22be
00000310: cdf5 403e 4688 48be 3424 453d e07a 2ebe
00000320: 45b1 48be f448 343e ce9c 2cbe a0a5 503c
00000330: ede3 34be 29fc 4ebd 50b2 54be 5c93 b8bc
00000340: 0aab 48be bcdb d53c 80e8 51bc 5693 53be
00000350: c22f 073e 962b 79bd 41de 643d 47b4 1bbe
00000360: f0a0 c3bc 3cef 5cbe 15c1 1d3d 5bb9 3abe
00000370: 91d4 033e 99f0 46be 62e6 5e3a e52b 37be
00000380: 0933 0f3c 5fbd 583e 2dcd 62be 9c7d 3e3e
00000390: e1ae 69be cf15 57be 8e5c 66be 3cc2 59be
000003a0: 05b2 25be e6cb 353d 44ad 383e 1e4a 61be
000003b0: 4adb 1c3e ac16 50be c1d3 273e 3dee b33d
000003c0: 7387 1ebe e648 21bd 1cfc 26be 8ac2 93bd
000003d0: d24b 57be 3e72 69be 458f 34be 0115 08be
000003e0: 49c6 ac3c 1d86 4cbe 0fa8 59be 2044 85bb
000003f0: b2dc 3ebe 7d84 5cbe 8c62 40be 3578 693d

net.6.bias f4 [2]
-0.018907083 -0.03121533
00000000: 07e3 9abc 4bb7 ffbc

exp_avg f4 [64, 2]
4.9467832e-08 5.6114555e-07 -1.803235e-08 1.3453567e-08 -1.2356766e-06 7.0494605e-07 -4.8817938e-06 -4.7476985e-07
2.1980735e-07 -1.8694479e-06 -5.106038e-07 5.512736e-07 -7.4304563e-09 -1.0358177e-08 -1.4953999e-06 3.5607172e-07
1.9551967e-06 -2.9373496e-07 2.3712906e-07 -4.1057302e-07 -2.7016515e-06 -4.733529e-07 -1.490038e-08 -6.057032e-10
-4.7895645e-07 -6.217369e-07 -1.1251515e-05 7.745493e-06 -2.9896232e-09 7.798933e-11 3.603215e-07 -4.0689447e-06
4.477504e-06 4.954055e-06 -9.619796e-10 2.1746242e-08 -2.832809e-06 -1.971604e-06 -1.0980335e-08 2.2805234e-10
-7.151766e-06 3.3496196e-06 -1.0762054e-06 -1.2363223e-06 3.417237e-06 9.670032e-07 -5.141997e-06 -8.257407e-06
-4.270826e-06 -5.2614905e-07 1.881708e-07 9.608468e-07 -1.5098968e-09 -1.7147088e-09 2.2994787e-07 -2.9960097e-06
6.4551475e-09 -4.930652e-09 -9.184318e-09 -8.3317655e-09 5.835725e-06 -2.0314803e-06 -2.1531578e-06 -4.6895113e-07
-3.1427273e-06 -8.3242463e-07 -3.2929665e-10 8.7554184e-08 1.2384179e-06 5.918175e-07 2.0122235e-09 7.0493766e-10
1.41196494e-08 -5.481492e-09 -4.4477258e-07 1.2536667e-06 3.7579935e-09 9.793537e-09 -5.0477197e-06 -3.5889543e-06
5.9971934e-09 -6.4121575e-09 -1.9966492e-06 2.020068e-07 8.798851e-07 5.2683134e-07 3.4481405e-07 -7.461349e-08
-5.079045e-07 3.924026e-07 -4.1214366e-07 -4.3972756e-07 -4.5745654e-07 6.6803673e-06 5.3707568e-06 1.2086539e-05
5.9374497e-07 -3.4987556e-06 1.7060144e-07 -1.6487422e-06 2.9471348e-06 1.9469671e-06 9.568798e-09 -1.1465797e-09
6.976633e-07 1.32754e-06 1.0216888e-06 -3.7848952e-07 3.7849131e-06 5.362127e-06 -2.3687e-06 -2.0698123e-07
-1.3738131e-09 -3.53207e-09 -2.4534895e-06 5.2841647e-06 7.4230075e-09 -2.3072313e-09 -2.1392346e-07 -8.495557e-07
-2.04875e-10 -1.6559312e-08 6.605482e-07 1.8236202e-06 -1.0849187e-06 -1.3285579e-07 5.3009757e-07 1.8117106e-06
00000000: 7576 5433 a1a1 1635 8fe5 9ab2 6a21 6732
00000010: 86d9 a5b5 863b 3d35 4ace a3b6 dfe3 feb4
00000020: 2f04 6c34 bee9 fab5 6d10 09b5 3cfb 1335
00000030: fc4e ffb1 bff3 31b2 8db5 c8b5 202a bf34
00000040: 0636 0336 a0b2 9db4 8a9d 7e34 ba6c dcb4
00000050: 054e 35b6 2121 feb4 90fc 7fb2 937e 26b0
00000060: a391 00b5 6fe5 26b5 e4c4 3cb7 a4f2 0137
00000070: 0272 4db1 1780 ab2e 3672 c134 f887 88b6
00000080: 773d 9636 023b a636 a636 84b0 7ecc ba32
00000090: 4a1b 3eb6 e64f 04b6 06a4 3cb2 07bf 7a2f
000000a0: 34f9 efb6 07ca 6036 2372 90b5 b6ef a5b5
000000b0: af53 6536 fac9 8135 6b89 acb6 4b89 0ab7
000000c0: 1e4e 8fb6 b03c 0db5 ff0b 4a34 72f6 8035
000000d0: c584 cfb0 f4aa ebb0 97e7 7634 0e0f 49b6
000000e0: 14cc dd31 796a a9b1 0fc9 1db2 7e23 0fb2
000000f0: 7fd0 c336 9154 08b6 f87e 10b6 27c4 fbb4
00000100: a5e7 52b6 c973 5fb5 6208 b5af 6c05 bc33
00000110: b737 a635 64dd 1e35 6947 0a31 94c5 4130
00000120: e092 7232 b757 bcb1 14c9 eeb4 a943 a835
00000130: a91f 8131 6e40 2832 955f a9b6 c4d9 70b6
00000140: df0f ce31 ef51 dcb1 2cfe 05b6 35e7 5834
00000150: 3e31 6c35 936b 0d35 e21e b934 333b a0b3
00000160: ee56 08b5 67ab d234 9844 ddb4 b213 ecb4
00000170: 5998 f5b4 eb27 e036 7336 b436 4ac7 4a37
00000180: d861 1f35 2acc 6ab6 912e 3734 5a4a ddb5
00000190: 64c7 4536 a4a8 0236 0564 2432 b095 9db0
000001a0: 0f47 3b35 ed2d b235 f620 8935 3433 cbb4
000001b0: 5000 7e36 52ec b336 f5f5 1eb6 913e 5eb4
000001c0: c0d0 bcb0 d5b8 72b1 a1a6 24b6 a14e b136
000001d0: 770d ff31 3e8d 1eb1 d5b2 65b4 060d 64b5
000001e0: 3043 61af 503e 8eb2 8750 3135 1dc3 f435
000001f0: 869d 91b5 1fa7 0eb4 074c 0e35 e729 f335

exp_avg_sq f4 [64, 2]
2.0106182e-12 3.6316023e-11 6.7051425e-15 7.276744e-15 8.2769326e-11 5.7639556e-11 4.890541e-11 6.860438e-11
8.027064e-12 4.523608e-11 3.5389833e-11 5.717121e-11 3.8850423e-16 1.3130091e-15 1.0382552e-11 1.2445939e-10
1.2899296e-10 7.8874476e-11 4.9235026e-12 1.20932335e-11 3.5056787e-11 9.740497e-11 3.1829412e-15 2.0451452e-15
1.5926224e-11 3.311916e-11 2.508786e-10 1.07589014e-10 2.2735413e-15 1.0882131e-15 8.531107e-12 6.1943256e-11
2.8651446e-11 3.3007548e-11 8.239631e-15 5.764236e-13 1.9978477e-10 1.1698743e-09 7.981442e-16 1.0775449e-15
3.447237e-10 1.3614063e-10 2.3204006e-11 2.8767648e-11 6.8800554e-10 9.713667e-11 1.0642576e-10 1.5165047e-10
2.0955876e-11 3.2333416e-10 5.1612447e-12 1.8445917e-11 1.5736991e-15 1.1931006e-15 2.4829117e-10 1.10071945e-10
2.3399128e-15 6.557954e-15 5.788203e-16 2.5463776e-15 1.3562963e-10 2.2483143e-10 5.191404e-11 7.9906304e-11
1.3997446e-11 4.471584e-11 1.5667809e-14 1.7495023e-12 7.132439e-11 5.0631995e-11 7.611796e-16 2.7626884e-15
2.7816897e-15 4.3463044e-15 5.587059e-11 6.625479e-11 1.2798174e-15 1.1621092e-15 3.9638813e-11 6.2218586e-10
1.5043899e-15 1.2390935e-15 4.229241e-12 4.900173e-13 3.339475e-11 4.984457e-11 1.1090466e-11 1.094877e-11
1.8034185e-11 5.8312855e-11 8.776924e-11 5.1726134e-11 6.449467e-11 6.054753e-11 6.3181393e-10 6.28339e-10
3.6491487e-12 3.5056798e-11 8.065857e-12 2.6466418e-11 9.725128e-12 3.1869233e-11 6.0847157e-16 1.3297088e-15
2.8986211e-11 2.6594267e-11 5.7732794e-12 1.4733884e-11 3.3106576e-10 2.3850252e-10 3.3688795e-11 8.7200226e-11
5.6095587e-15 4.619152e-15 1.8005375e-10 2.2105051e-09 4.4726965e-15 1.9373045e-15 7.516562e-12 1.9462704e-11
3.704814e-15 2.1743584e-15 5.5854427e-10 1.7565352e-11 1.0712748e-10 2.815803e-11 1.32587465e-11 1.6494256e-11
00000000: 147c 0d2c 35b8 1f2e 0694 f127 0f16 0328
00000010: fd02 b62e 5f80 7d2e 9916 572e d5dc 962e
00000020: af36 0d2d 4cf3 462e 69a5 1b2e 0f71 7b2e
00000030: 1bf5 df25 7c39 bd26 dba6 362d 34d8 082f
00000040: 4ad4 0d2f 6272 ad2e f83a ad2c 15bf 542d
00000050: 6f2e 1a2e 2032 d62e e75a 6527 455e 1327
00000060: ab16 8c2d dca8 112e 06ec 892f 3b97 ec2e
00000070: 6fd3 2327 fad3 9c26 b114 162d f436 882e
00000080: 5205 fc2d 322b 112e 976e 1428 b33f 222b
00000090: 6aaa 5b2f 4bc9 a030 a60c 6626 644a 9b26
000000a0: 8c83 bd2f 2eb0 152f c71a cc2d fc0a fd2d
000000b0: 161e 3d30 159b d52e 6008 ea2e d0bd 262f
000000c0: 7054 b82d 3dc1 b12f 5c98 b52c 8340 a22d
000000d0: 40cb e226 a5f1 ab26 e07f 882f ff0c f22e
000000e0: c69b 2827 7346 ec27 66d5 2626 607c 3727
000000f0: 5920 152f 6c34 772f 0352 642e 40b7 af2e
00000100: e53e 762d 8fa9 442e 821f 8d28 7738 f62b
00000110: 10d8 9c2e 8fae 5e2e 2465 5b26 9b12 4727
00000120: 1e71 4827 9597 9c27 b1b8 752e 22b2 912e
00000130: ee70 b826 437a a726 5655 2e2e 7006 2b30
00000140: 31ce d826 7b92 b226 9ecd 942c 78ed 092b
00000150: 25df 122e ff37 5b2e 051b 432d e09c 402d
00000160: 60a1 9e2d 383b 802e b101 c12e 737e 632e
00000170: 45d3 8d2e 3b25 852e f4ab 2d30 6db7 2c30
00000180: 9c64 802c 722e 1a2e 64e5 0d2d 13cd e82d
00000190: 1516 2b2d 9129 0c2e 4761 2f26 99a1 bf26
000001a0: 25f7 fe2d f7ec e92d 1421 cb2c c299 812d
000001b0: 5d01 b62f 3f1e 832f 362a 142e 5dc1 bf2e
000001c0: 0c1b ca27 286c a627 a0f8 452f 9ee7 1731
000001d0: 5825 a127 f698 0b27 963b 042d 1d32 ab2d
000001e0: e17a 8527 d5ad 1c27 0f88 1930 a881 9a2d
000001f0: 6993 eb2e 3fae f72d 1640 692d c315 912d

exp_avg f4 [64]
3.1050226e-06 4.6988674e-08 5.8388196e-06 -2.3997763e-06 -1.8590115e-06 -1.3253924e-07 3.164305e-08 -8.009538e-06
1.3462696e-06 -1.9274044e-06 -9.693934e-06 3.6958596e-08 -9.302458e-06 -3.9806284e-07 -1.2579314e-08 -2.6544394e-06
-1.0496426e-06 1.1810898e-07 2.55337e-05 5.694795e-09 -2.301173e-05 1.4255006e-07 -5.793444e-06 -1.7908598e-05
2.108746e-05 1.5907569e-06 5.8035255e-08 -1.1523908e-05 -1.2585927e-08 -3.122089e-08 -2.7690131e-08 2.5227102e-06
-2.7446233e-06 -1.9187816e-08 1.44000005e-05 -2.3122217e-09 -7.863733e-08 -1.0211043e-06 -2.3873183e-08 7.715112e-06
-8.443646e-09 6.564673e-07 -1.5090257e-06 -3.4619693e-06 -4.808659e-06 5.4913426e-06 -3.7778616e-05 -2.1210992e-05
-6.412286e-06 -2.0203763e-06 -1.4997271e-06 2.7177181e-08 -9.779277e-07 1.5013565e-06 1.903525e-05 5.775266e-07
-1.8688587e-08 1.69702e-05 -5.268622e-08 3.6135234e-06 2.398998e-09 2.452217e-06 7.963472e-07 3.3257431e-06
00000000: e25f 5036 98d0 4933 14eb c336 d80b 21b6
00000010: 2683 f9b5 1c50 0eb4 e7e7 0733 b460 06b7
00000020: 79b1 b435 8e58 01b6 21a3 22b7 68bc 1e33
00000030: c111 1cb7 57b5 d5b4 681c 58b2 ec22 32b6
00000040: 72e1 8cb5 19a3 fd33 3431 d637 f2ab c331
00000050: 5009 c1b7 dd0f 1934 4e65 c2b6 6c3a 96b7
00000060: fae4 b037 fe81 d535 7042 7933 cf56 41b7
00000070: 7e39 58b2 bb17 06b3 3edb edb2 d54b 2936
00000080: 4530 38b6 74d2 a4b2 8897 7137 09e5 1eb1
00000090: 54df a8b3 e00c 89b5 af11 cdb2 2770 0137
000000a0: 8c0f 11b2 1738 3035 ba89 cab5 2e54 68b6
000000b0: 115a a1b6 4642 b836 7b74 1eb8 42ee b1b7
000000c0: 1e29 d7b6 cd95 07b6 3b4a c9b5 4173 e932
000000d0: 5741 83b5 3782 c935 e3ad 9f37 5307 1b35
000000e0: a388 a0b2 3a5b 8e37 1d49 62b3 dc7f 7236
000000f0: 9edb 2431 c490 2436 90c4 5535 d52f 5f36

exp_avg_sq f4 [64]
8.320874e-11 7.074804e-13 1.1409821e-09 1.2458201e-09 2.85671e-10 1.1502966e-09 3.8396478e-14 5.330696e-09
2.5919233e-08 1.742091e-10 5.2627147e-09 1.1761199e-13 1.871585e-08 1.1058032e-09 3.090789e-13 1.8033831e-09
1.1329628e-08 5.6486677e-12 1.6741744e-08 1.6809106e-13 3.3105945e-08 3.4258157e-10 5.341598e-09 5.496284e-09
3.333339e-09 8.057581e-10 5.32809e-13 1.3218852e-08 3.889651e-13 2.8188872e-14 3.6252923e-09 1.8163101e-09
2.4474248e-10 8.422999e-12 2.603914e-08 1.9987919e-13 1.2015973e-12 8.2428575e-10 6.320727e-14 4.561508e-09
4.331479e-14 1.2201021e-11 6.736418e-10 1.5661622e-09 2.1303128e-09 2.5138947e-08 6.164507e-08 1.4728594e-08
2.09876e-10 1.7433439e-09 2.2079365e-10 3.5176597e-14 1.8619094e-09 7.5978424e-10 1.1801328e-08 3.4887548e-09
2.887532e-13 6.764891e-09 9.242944e-13 2.1756696e-09 8.4790885e-14 4.805945e-09 7.2059314e-10 2.6932463e-09
00000000: 5bfa b62e 5623 472b bdd0 9c30 6639 ab30
00000010: 9e0c 9d2f 7718 9e30 20ec 2c29 4c29 b731
00000020: ffa4 de32 818b 3f2f 54d3 b431 596b 042a
00000030: 97c4 a032 fefa 9730 f7fe ad2a e7da f730
00000040: 3ba4 4232 adbe c62c 7ccf 8f32 f340 3d2a
00000050: 5f30 0e33 1256 bc2f 3189 b731 d3d9 bc31
00000060: b810 6531 307c 5d30 eff8 152b 2019 6332
00000070: c7f7 da2a 1de7 fd28 d120 7931 bba1 f930
00000080: 718c 862f d12d 142d adac df32 410b 612a
00000090: 1b1c a92b f493 6230 8354 8e29 73bb 9c31
000000a0: 8e12 4329 83a4 562d 542b 3930 6f40 d730
000000b0: dc64 1231 21f1 d732 bc61 8433 0b09 7d32
000000c0: d8c2 662f 769a ef30 e3c3 722f db6b 1e29
000000d0: 1de6 ff30 10d9 5030 cabe 4a32 d3be 6f31
000000e0: b98d a22a 9c70 e831 3715 822b c982 1531
000000f0: 9eee be29 8a21 a531 3c13 4630 1714 3931

exp_avg f4 [128, 64]
-6.901094e-09 -1.315335e-08 6.8786215e-07 7.158366e-07 4.0610666e-06 3.937393e-06 -3.9202355e-08 4.3910736e-06
5.9602587e-07 2.1490346e-06 1.313121e-06 -3.067043e-08 -5.5570416e-07 2.457752e-08 -4.343475e-08 -3.7904505e-07
1.8176706e-06 -1.22438975e-08 -4.1549023e-07 -4.115299e-08 1.9817917e-06 4.2891224e-06 -2.391993e-08 5.9051393e-07
-2.8394305e-07 2.1647647e-06 -1.7045128e-08 -3.3564308e-07 -4.1397055e-08 -2.7203193e-08 1.3061809e-07 3.216447e-06
2.8790703e-07 -2.350464e-08 5.102558e-07 -3.6054562e-08 -4.7803407e-08 4.3283158e-06 -1.4808634e-08 -4.4381764e-08
-4.941309e-08 -2.0959673e-08 2.4155975e-06 2.833358e-06 2.3010168e-06 2.8814927e-06 -2.9358415e-07 8.336729e-07
3.631627e-07 4.4930207e-06 -1.2781838e-07 -3.2299194e-08 2.5776133e-06 6.058448e-07 -1.6619106e-07 9.2767294e-07
-4.7542198e-08 -1.8485627e-08 -3.627284e-08 3.0422605e-06 -4.7293433e-08 -7.2849025e-09 5.227597e-06 1.7907931e-06
-4.1229398e-09 -1.2526804e-08 1.3604289e-07 6.312118e-07 2.2831666e-06 1.6059155e-06 -1.9347246e-08 1.8292104e-06
4.599411e-07 1.4272208e-06 1.0457286e-06 -2.4237787e-08 -6.17584e-08 4.2133397e-08 -2.23175e-08 5.035189e-07
5.0049397e-07 -1.0728059e-08 -1.4013538e-07 -2.0970209e-08 1.2616755e-06 2.487376e-06 -6.638087e-09 1.441707e-07
-6.264223e-08 1.2348796e-06 -1.1863952e-08 4.309692e-07 -1.7682696e-08 -1.5734775e-08 3.371173e-07 1.0973247e-06
2.9144966e-08 -1.5348327e-08 7.4290807e-07 -1.7330642e-08 -1.9094786e-08 1.9340337e-06 -7.530164e-09 1.208447e-07
-2.3001467e-08 -9.709484e-09 1.7053852e-06 1.6124973e-06 1.524216e-06 8.781658e-07 1.2968258e-08 -3.605512e-07
-1.0806014e-07 2.6536006e-06 -1.07444116e-07 -2.0877682e-08 1.4729687e-06 3.886683e-07 -1.6010633e-08 2.4944322e-07
-1.9203569e-08 -5.797217e-09 -2.1981807e-08 1.839243e-06 -2.3598437e-08 -7.0793313e-09 2.5888553e-06 1.2229527e-06
1.0041008e-07 1.3493135e-08 3.4752365e-08 1.0611482e-06 -2.1274857e-06 -4.4392064e-06 4.7462677e-08 -4.8615793e-06
-1.1237317e-06 -6.415291e-07 -1.0121729e-06 2.1637359e-08 -2.602241e-07 -6.706297e-08 3.4954954e-08 -4.0939224e-07
-3.0093684e-06 5.5477933e-09 2.118501e-07 5.226672e-08 -3.5564824e-06 -2.002173e-06 -3.5442525e-08 -6.431696e-07
1.0960163e-07 -3.367647e-06 2.6326816e-08 5.768116e-08 4.2982105e-08 2.474074e-08 -5.2564445e-07 -2.488989e-06
6.9399255e-07 7.2195276e-09 -1.347653e-06 1.7300541e-08 5.295269e-08 -4.593489e-06 8.724829e-09 -2.4632786e-07
4.2343864e-08 1.0759167e-07 -3.3295614e-06 -2.2455695e-06 -2.3012983e-06 -1.7844087e-06 -2.1943229e-06 -7.5354046e-07
3.6125158e-07 -2.5973413e-06 1.0327006e-07 3.1187284e-08 -3.4070035e-06 -1.6663557e-06 -1.3479834e-06 4.4530213e-07
5.0194917e-08 1.5338982e-07 2.1971976e-08 -1.1087194e-06 3.9848967e-08 2.0724645e-08 -2.9695357e-06 -2.9231776e-06
6e-45 6e-45 6e-45 6e-45 -6e-45 -6e-45 6e-45 -6e-45
-6e-45 6e-45 6e-45 6e-45 -6e-45 -6e-45 6e-45 -6e-45
-6e-45 6e-45 6e-45 6e-45 -6e-45 -6e-45 -6e-45 6e-45
6e-45 -6e-45 6e-45 -6e-45 6e-45 6e-45 -6e-45 6e-45
6e-45 -6e-45 -6e-45 -6e-45 6e-45 -6e-45 6e-45 6e-45
6e-45 6e-45 -6e-45 -6e-45 -6e-45 6e-45 -6e-45 6e-45
6e-45 -6e-45 6e-45 6e-45 -6e-45 -6e-45 6e-45 6e-45
6e-45 6e-45 6e-45 -6e-45 6e-45 6e-45 6e-45 -6e-45
00000000: aa1e edb1 0cf9 61b2 87a5 3835 eb27 4035
00000010: 4c44 8836 f31d 8436 725f 28b3 0957 9336
00000020: 96fe 1f35 2238 1036 7e3e b035 7fba 03b3
00000030: b32b 15b5 8a1e d332 038d 3ab3 8e7f cbb4
00000040: b0f6 f335 3b59 52b2 8b10 dfb4 31c0 30b3
00000050: ecfe 0436 48eb 8f36 7b78 cdb2 cf83 1e35
00000060: d670 98b4 6046 1136 a26a 92b2 6f32 b4b4
00000070: 8bcc 31b3 74ac e9b2 0740 0c34 24da 5736
00000080: a491 9a34 40e7 c9b2 83f8 0835 69da 1ab3
00000090: 6750 4db3 f33b 9136 1069 7eb2 449e 3eb3
000000a0: 443a 54b3 cf0a b4b2 a61b 2236 b824 3e36
000000b0: 2b6b 1a36 ab5f 4136 e69d 9db4 91c9 5f35
000000c0: b4f8 c234 c1c2 9636 733e 09b4 57b9 0ab3
000000d0: 0ffb 2c36 56a1 2235 4072 32b4 3305 7935
000000e0: 3331 4cb3 53ca 9eb2 69ca 1bb3 a329 4c36
000000f0: ae1f 4bb3 ae4e fab1 b768 af36 2f5b f035
00000100: c3a9 8db1 7735 57b2 2f13 1234 8b70 2935
00000110: 8138 1936 d68a d735 0b31 a6b2 3183 f535
00000120: d3ed f634 ef8e bf35 f65a 8c35 7533 d0b2
00000130: 0aa0 84b3 29f6 3433 b4b4 bfb2 8e29 0735
00000140: af59 0635 814e 38b2 1f78 16b4 fa21 b4b2
00000150: d756 a935 cbec 2636 3b15 e4b1 57cd 1a34
00000160: ee85 86b3 24be a535 36d2 4bb2 f55f e734
00000170: a9e4 97b2 2329 87b2 0dfd b434 ca47 9335
00000180: 755a fa32 54d7 83b2 416c 4735 7cde 94b2
00000190: e105 a4b2 72ca 0136 035e 01b2 8ac1 0134
000001a0: c394 c5b2 c3ce 26b2 97e4 e435 fc6c d835
000001b0: aa93 cc35 18bb 6b35 00cb 5e32 c891 c1b4
000001c0: b10e e8b3 8314 3236 07bc e6b3 8256 b3b2
000001d0: d2b2 c535 2aaa d034 c187 89b2 37eb 8534
000001e0: 18f5 a4b2 dc30 c7b1 81d2 bcb2 e9db f635
000001f0: 83b5 cab2 753e f3b1 32bc 2d36 5624 a435
00000200: 06a1 d733 6fcf 6732 a142 1533 c66c 8e35
00000210: edc5 0eb6 7ef4 94b6 c4d9 4b33 a620 a3b6
00000220: 21d3 96b5 8b35 2cb5 ffd9 87b5 0edd b932
00000230: eeb4 8bb4 4204 90b3 6121 1633 71ca dbb4
00000240: 8ef4 49b6 e89e be31 e978 6334 de7b 6033
00000250: e7ab 6eb6 125d 06b6 7839 18b3 47a6 2cb5
00000260: 225e eb33 bcff 61b6 4825 e232 1bbd 7733
00000270: 539b 3833 7685 d432 031a 0db5 8108 27b6
00000280: ce4a 3a35 a30f f831 01e1 b4b5 4b9c 9432
00000290: 196e 6333 c521 9ab6 34e4 1532 0b3f 84b4
000002a0: 92dd 3533 250d e733 6e71 5fb6 97b2 16b6
000002b0: 0170 1ab6 d17f efb5 2e42 13b6 e846 4ab5
000002c0: 0af2 c134 fc4d 2eb6 51c5 dd33 c8f2 0533
000002d0: e0a3 64b6 8ca7 dfb5 5bec b4b5 dc11 ef34
000002e0: e595 5733 79b3 2434 e3bc bc32 4fcf 94b5
000002f0: 6726 2b33 fa05 b232 3c48 47b6 cf2b 44b6
00000300: 0400 0000 0400 0000 0400 0000 0400 0000
00000310: 0400 0080 0400 0080 0400 0000 0400 0080
00000320: 0400 0080 0400 0000 0400 0000 0400 0000
00000330: 0400 0080 0400 0080 0400 0000 0400 0080
00000340: 0400 0080 0400 0000 0400 0000 0400 0000
00000350: 0400 0080 0400 0080 0400 0080 0400 0000
00000360: 0400 0000 0400 0080 0400 0000 0400 0080
00000370: 0400 0000 0400 0000 0400 0080 0400 0000
00000380: 0400 0000 0400 0080 0400 0080 0400 0080
00000390: 0400 0000 0400 0080 0400 0000 0400 0000
000003a0: 0400 0000 0400 0000 0400 0080 0400 0080
000003b0: 0400 0080 0400 0000 0400 0080 0400 0000
000003c0: 0400 0000 0400 0080 0400 0000 0400 0000
000003d0: 0400 0080 0400 0080 0400 0000 0400 0000
000003e0: 0400 0000 0400 0000 0400 0000 0400 0080
000003f0: 0400 0000 0400 0000 0400 0000 0400 0080
