new_saved_models/v2_n1e6_gmm_sk100.pt (torch, 529309 bytes, 24 tensors)

net.0.weight f4 [64, 2]
00000000: 7a06 a93e 2bff cdbe 6b9c b63c efda 163e
00000010: 88f7 05be c294 14bf 898b a2be 665b 063f
00000020: 0dcd 3fbf b92a c8be 2efe aebe 4c8a fb3e
00000030: a87e 4abf f0c8 2b3f bd47 03bf 44b0 293f
00000040: 30e4 323f ac7b 07bf 7ceb 3e3f 6bff 0abf
00000050: b505 3ebf 096e 013f 2d4a 4e3f 8eea 633c
00000060: f9d8 ae3e f3d3 46be f26b dd3e 0424 903e
00000070: 3d8c e5be 0db7 133e 1d05 1cbf a4af 643d
00000080: a67c 66be dfed 74be 6754 223f 00d6 ec3e
00000090: ec13 f13e ced4 783e 9dbc 53bf 9dc7 153f
000000a0: f52a ba3e 6978 f0be 33ea 2ebd 7805 263e
000000b0: fc39 003f 8d82 3abd 680a 24be eb39 13be
000000c0: e05e 48bf b5dc 353e 9a5c 42bf ad72 19be
000000d0: 3f9b bcbe ec9c 9bbe 4f2c 373f 186e edb6
000000e0: 85f5 8fbe 5516 cd3e 00c8 bfbe 0c14 41bf
000000f0: e226 343f 4b90 dc3e 0e1b d6bc e2e1 1ebf
00000100: f9a5 17bf 19d7 05bf 4054 04be 4e8d 0ebf
00000110: 92ce a43d 490d 1e3f b9e2 f0be d644 e7be
00000120: 394f b6bd f2be 0d3f 739c 54bf 383a a6be
00000130: 5d9e e83e 4553 1b3e 5836 bd3e 9eeb 423e
00000140: d100 6abe 62d8 1a3f 010f ca3e 68dc 473f
00000150: 34ce e93e 0221 303c da41 0d3f a805 f03e
00000160: 3e49 c1be b40a 353f 3597 c5be 2972 22bf
00000170: 6505 05bf 621c cbbe bd78 6dbe aa55 71be
00000180: 81d6 78be c8d9 2ebf 1e01 a1bd 3235 fa3e
00000190: e509 16bf 15e8 5fbe 21b4 753e bcf9 76be
000001a0: 932b 8ebe 742e 353f 0dab cabd 9eb3 8b3e
000001b0: 7ca6 4abf 3b85 09bf 1813 ae3e e9fc f23e
000001c0: db23 f6be 218a 9f3c a9e2 343e 79fe 283f
000001d0: 4874 923e 9522 0abf e618 dd3d af1d 38bf
000001e0: bd8a fd3e 4709 1d3f c5b9 fbbe ea5b 8fbd
000001f0: 625b 0bbe e9dc 71bd 7ff2 9b3e 3c81 04be
0.33012754 -0.4023374 0.022291383 0.14731954 -0.13082707 -0.58039486 -0.31747082 0.5248321
-0.7492226 -0.39095095 -0.341783 0.4912895 -0.7909951 0.6710348 -0.5128134 0.66284585
0.69879436 -0.52923083 0.7457807 -0.54295987 -0.7422746 0.50558525 0.80581933 0.013910903
0.34149912 -0.1941679 0.43246418 0.28152478 -0.44833556 0.14425297 -0.609453 0.055831566
-0.22508487 -0.23918866 0.6341004 0.4625702 0.47085512 0.24299929 -0.82709676 0.5850771
0.363609 -0.46966866 -0.04270382 0.16213024 0.5008848 -0.04553466 -0.16019595 -0.14377563
-0.7826977 0.17759974 -0.7592255 -0.14985152 -0.36837193 -0.3039316 0.71551985 -7.075967e-06
-0.28117004 0.400561 -0.37457275 -0.75421214 0.7037183 0.43078837 -0.026135948 -0.6206342
-0.5923763 -0.5228134 -0.12922764 -0.55684364 0.08047213 0.6173902 -0.47047976 -0.45169705
-0.08901829 0.55369484 -0.8305122 -0.32466292 0.45433322 0.15168484 0.36955523 0.19035193
-0.22851874 0.60486424 0.39464572 0.7807069 0.45665133 0.010750057 0.55178607 0.46879315
-0.37751192 0.70719457 -0.38591924 -0.63455445 -0.51961356 -0.39670092 -0.23190589 -0.23567834
-0.24300577 -0.6830106 -0.07861541 0.4886871 -0.5860885 -0.21865876 0.23994495 -0.24118704
-0.2776762 0.70774007 -0.098959066 0.27285475 -0.79160285 -0.5371892 0.33998942 0.4745858
-0.4807423 0.019475045 0.17664589 0.66013294 0.2860434 -0.5395902 0.107957646 -0.71920294
0.4951991 0.6134228 -0.49165168 -0.06999953 -0.13609079 -0.059048567 0.30458447 -0.12939924

net.0.bias f4 [64]
00000000: f33a 08be 6968 debe 32c0 dabc 2d68 9c3e
00000010: 3f4a 9dbd cbcb 2fbf a8ec f93e 511c fe3e
00000020: 2dc4 48be 0e69 1cbf c19e 8e3e 9ae5 593e
00000030: e960 d83e 7dac 333f b57e a2be 67d8 313f
00000040: 6588 80be 0188 0bbd 9398 84bd 9a30 c13c
00000050: 3c0c b43e 48f5 193f b410 1d3c 0cce 2cbf
00000060: e78e 133f 98f3 0ebf 5721 0cbf 5fd3 40be
00000070: d1a6 143f 9f5c 983e c4e7 903c 0dd2 83bc
00000080: b1df 1d3f 8d90 e4be 3d55 653e 5642 c3be
00000090: 694c 22bf b723 39be 89bb d8be b4a2 55be
000000a0: 2e47 213f 1eb5 b2be f209 053f 1351 27be
000000b0: d0aa 10bf 2020 9c3e c8fb 9ebc 7e22 2a3f
000000c0: ec72 863e c97c 803e 878d debe 4951 253f
000000d0: 7c5e 973d f369 bfbe f822 06bf 7551 dbbe
000000e0: 6666 d2be 4c61 ae3e 1be7 a53e a021 c53d
000000f0: 0ab9 9d3e 5399 eebb e114 053f 1798 2bbf
-0.13303737 -0.43439034 -0.026702974 0.3054823 -0.07680177 -0.6867034 0.48813367 0.4963098
-0.19606085 -0.610978 0.27855495 0.21278992 0.42261437 0.7018507 -0.31737295 0.6947083
-0.2510406 -0.03406525 -0.06474414 0.023582745 0.35165584 0.60139894 0.009586502 -0.675019
0.57639927 -0.55840445 -0.5473837 -0.18830632 0.5806704 0.29758164 0.01768864 -0.016091371
0.6166945 -0.44641533 0.22395797 -0.38136548 -0.6339784 -0.1808003 -0.42330578 -0.20862848
0.62999237 -0.34903806 0.519683 -0.16339521 -0.5651064 0.3049326 -0.019407168 0.6645888
0.26259553 0.25095204 -0.43467352 0.64577156 0.07391068 -0.3738552 -0.5239711 -0.42835584
-0.4109375 0.34058607 0.32402882 0.09625554 0.30805236 -0.0072814613 0.51984984 -0.67028946

net.2.weight f4 [128, 64]
00000000: 2fc6 babc 053b f9bc 9cab d13d 7f08 ca3d
00000010: fba5 a73d 3d53 e43d 640e 9e3d c84f 8dbc
00000020: b161 503c 5a15 07be 2bb5 343e 378d c03d
00000030: f980 d6bd 5212 a13c d3a9 a33d 9567 88bd
00000040: d182 733d a415 11be 68d1 c4bd c9ed f93c
00000050: e7a3 c5bd 6e2a 3ebd 94f0 12be 2f33 4ebd
00000060: 6f6b 1a3e 2e09 a5bb 14ea 0d3e 97b5 74bd
00000070: 47d6 0bbd 6df7 3ebd afea b1bc fae4 31bd
00000080: 752b 113e 8a02 96bc 7c42 5cbd 069d 283e
00000090: 0917 413d ee2d 803e 00b0 803d aa26 9bbd
000000a0: 8872 c03d 0170 b7bb 9c1b 653d 0b40 9abd
000000b0: 11b3 e73d 8fa9 20bd bd43 2b3d 5a7f 9cbd
000000c0: 894b e73c 1aad cebc 836a 67bc b90e bdbd
000000d0: bc9b 8ebd 3533 3c3d fb46 4f3e c44c 3a3d
000000e0: 277e 72bd c1d3 59bd 88b5 bc3d 7bed 37bc
000000f0: 5158 e7bc 5ad1 8ebd bf59 963d ec97 52bd
00000100: 4643 b3bd f28a 073e 3dd8 ce3d 9a65 033e
00000110: e028 993b 7583 94bd 791e 9c3b 3ed8 f03d
00000120: 1ce6 ffbc a312 11be f693 663b fffb 4fbd
00000130: 06a1 563d 2eaf 6fbd c008 cd3d c7cf ba3d
00000140: cd5a 443e 69d1 b1bd 57ca bdbd d488 febd
00000150: 2f67 59bd d0c2 23bd f677 5bbe 62eb b13d
00000160: 9058 65bb 06ba f23d 8877 75bd 86d9 723c
00000170: f1fb 883d 5d9e ac3d 2d86 dfbd 366d c73d
00000180: aa5b a0bd 9fea 263e 8782 c9bd 1ea9 2a3d
00000190: bf4d 1b3e 8f40 133e e803 ce3d acbd 7bbd
000001a0: 9e68 023e f270 d73d 561f 1a3d 4cd4 603c
000001b0: ba1b bf3c 35c4 72bd 0096 6dbd 8f28 063d
000001c0: 6d47 583d 73b2 f43c 8f4f 00bd 20bc 8cbd
000001d0: d818 c4bd cf64 bfbd 4a38 b93d 0e31 3abe
000001e0: b823 97bd eb59 d3bc ef84 abbd b6df a13d
000001f0: 0f59 b93a 0f68 923d a607 9a3c fc7d 8abd
00000200: 9761 b8bc 6b67 b53b 862b a2bc 1ac3 b63d
00000210: 1dd0 a93c 7007 d63d c41e d93d 116c 853d
00000220: f6d5 c43d 0bba 253d fdad 073e de6c 573e
00000230: d624 89bd 2266 ba3d a934 c83c 11ba 883d
00000240: 1a50 d4bc 09e2 c23c b133 fabd 62f9 57bd
00000250: 5eac 1ebe dec7 dabd 7871 b5bc ccc8 773b
00000260: 8207 ac3d 1080 8b3c c038 d43d e5de 083d
00000270: 9907 aabd 3d80 163d f0b6 763d b645 e5bc
00000280: 843f e13d c64f c6bc f649 0ebd b284 46bd
00000290: 8da8 eb3c b892 4c3c 825d a1bd 6e00 2c3e
000002a0: 44ba cb3d efac 4ebd a1ef ffbd 7286 903d
000002b0: f477 aebd 4b03 b9bc 5d89 4fbd a73e dcbd
000002c0: 931e 1dbd d655 8bbd 8e9a 113e 27bc be3d
000002d0: 46dc 8ebd 21c8 113e 4e5d 443e 6426 d8bb
000002e0: 4541 37bd 5e89 92bd 2b09 ca3d 8ed4 eebd
000002f0: 18fa bcbd f4f7 e43c daf5 67bd 160e 803d
00000300: 6026 aabc 565d b2bd b033 22bd c0d9 8d3d
00000310: 08c5 a03c cce6 933d 40ad d7bb c0fe 34bd
00000320: 0465 1abd 120e a0bd 2c9b f23d e011 4abd
00000330: 6cef d83d a896 603d 84f7 d13d 2054 e3bd
00000340: 8056 3abb d4b7 ecbd 3025 de3c a46a bb3d
00000350: 20b7 84bb a0f7 f33b 6030 853c 8cf5 f73d
00000360: 606c 8abb 1c77 ccbd 82a1 a23d fc98 043d
00000370: 64eb 1a3d 762f a83d 8c0a ddbd a868 f5bc
00000380: 2cc6 5bbd 70f8 b6bc 76f1 adbd 50ed f93d
00000390: 0418 a63d 6424 603d e801 a9bd 748c 64bd
000003a0: 5e64 a8bd c0c8 2fbb da5d a0bd 2856 a23d
000003b0: a2bd f03d ea88 b93d 805f 733c 3475 c8bd
000003c0: 00c4 cabc 5e67 f2bd b0a6 fbbc a87d 3cbd
000003d0: f4b7 c83d 4076 b03d 3c10 72bd 0eb2 ecbd
000003e0: 4892 8abc 90de eabd 3cc6 dabd c4ab 243d
000003f0: b8b1 fc3d 14c9 ef3d 0053 9d3a 6410 8b3d
-0.02279958 -0.03042365 0.1023781 0.09864902 0.08185955 0.11148689 0.077175885 -0.017249957
0.012718604 -0.13191739 0.17647235 0.094019346 -0.10473818 0.019662056 0.07991376 -0.06660382
0.059450928 -0.14168411 -0.096102536 0.030508893 -0.096504025 -0.046427183 -0.14349586 -0.05034178
0.15080045 -0.0050364947 0.13858825 -0.05974349 -0.034139898 -0.046622682 -0.021718351 -0.04343126
0.14176734 -0.018311758 -0.053774342 0.1646615 0.04714111 0.25035042 0.06283569 -0.07575734
0.09396845 -0.0055980687 0.055934533 -0.075317465 0.11313451 -0.039224204 0.041812647 -0.07641478
0.02823426 -0.025229026 -0.0141245155 -0.09231324 -0.06963298 0.045947272 0.2024192 0.045483366
-0.05920234 -0.05318046 0.09214312 -0.011226053 -0.028240355 -0.069735244 0.073413365 -0.051414415
-0.08753066 0.13236597 0.10099838 0.12831727 0.004674062 -0.07251636 0.004764375 0.11759995
-0.031237654 -0.14167266 0.0035183406 -0.05077743 0.052399658 -0.058516674 0.100114346 0.09121662
0.19175263 -0.0868252 -0.09267109 -0.12428442 -0.05307692 -0.03998071 -0.2143248 0.08687474
-0.0034995414 0.118518874 -0.059928447 0.014822369 0.06688679 0.08428643 -0.10914264 0.09737627
-0.078299835 0.16300438 -0.09839349 0.04166519 0.15166377 0.14380096 0.10059339 -0.061460182
0.12735221 0.105195895 0.03762754 0.0137224905 0.02332865 -0.05926915 -0.05800438 0.032753523
0.052802492 0.029870247 -0.031325873 -0.068718195 -0.09575051 -0.093453996 0.090439394 -0.18182775
-0.0737986 -0.025799712 -0.083749644 0.079039976 0.0014140921 0.07148754 0.018802475 -0.06762311
-0.022507472 0.00553601 -0.019796144 0.089239314 0.020729119 0.10450637 0.10601571 0.06514753
0.09611122 0.040460628 0.13249965 0.21037623 -0.06696479 0.091015115 0.024439173 0.06676114
-0.025917102 0.023789423 -0.122168906 -0.052728064 -0.1549544 -0.10682653 -0.022148833 0.0037808893
0.083998695 0.017028838 0.10362387 0.033415694 -0.083022304 0.03674339 0.060233057 -0.027987342
0.10998443 -0.02420796 -0.034738503 -0.04846639 0.028766895 0.012486152 -0.07879163 0.16797039
0.09947637 -0.05045789 -0.124968775 0.070568934 -0.08518973 -0.022584578 -0.05066811 -0.107541375
-0.038359236 -0.06803481 0.14219114 0.09313231 -0.069756076 0.142365 0.19176218 -0.0065963734
-0.04473998 -0.07155107 0.0986503 -0.11661635 -0.09227389 0.027950265 -0.056630947 0.06252687
-0.020770252 -0.08709209 -0.039600074 0.06926298 0.019625202 0.072217554 -0.0065819323 -0.04418826
-0.037693992 -0.07815184 0.11846003 -0.049333453 0.10592541 0.054831177 0.10252288 -0.1110003
-0.0028432906 -0.115585 0.027117342 0.091511995 -0.0040501505 0.0074452907 0.016258419 0.12107381
-0.004224345 -0.09983656 0.079409614 0.03237246 0.037822142 0.082121775 -0.10793027 -0.02995713
-0.05365579 -0.022335261 -0.08493321 0.12203467 0.08110049 0.054722205 -0.08252317 -0.05579801
-0.082222685 -0.0026822537 -0.07830401 0.07926589 0.117549196 0.090593174 0.014854312 -0.0978798
-0.024751663 -0.11836122 -0.030719131 -0.046018273 0.09800711 0.086163044 -0.059097514 -0.11557399
-0.016915455 -0.11468232 -0.106823415 0.04020287 0.12338585 0.117082745 0.0012002885 0.06790236

net.2.bias f4 [128]
00000000: d609 e0bd 230d f6bd cf8e e23d 38e8 e9bd
00000010: 518e 8bbd 9848 653d 96d4 e73d eed4 dabd
00000020: 7043 12bd 9993 6fbd 1788 60bc 9f37 22bd
00000030: a61f 5f3c 8d50 e23d f000 3c3d 4068 543d
00000040: e88b 3fbd 234f ba3d 733e 94bd 6f73 bf3d
00000050: 60f5 43bc dda4 5c3c a56e d33b 0639 b53d
00000060: aa09 a53d d9e2 6bbd a623 b13d 1c86 4e3d
00000070: 08f3 873d 96dc df3d 90b3 3cbd 3786 1dbc
00000080: ba6f 2ebc 4851 eb3d 5c26 4dbc f6b4 883d
00000090: d61a 8fbd a8a5 0dbd 6138 8a3d 8d88 b53d
000000a0: eeb7 64bc 2837 6dbd edbd bb3c a33b a23d
000000b0: decd ef3d 6470 883c ac09 5ebd 0885 a9bd
000000c0: b4e1 b7bd 3929 1ebd c004 bc3b 001a e83d
000000d0: 0514 bf3d fce8 da3d 89b6 b0bd cac0 83bb
000000e0: 7ac1 b3bd f897 d9ba 47d1 2e3c bef7 693d
000000f0: a427 ad3c 3fa4 e93d 51c3 acbd 0e64 cebd
00000100: c0de 9abd c052 6abb 7e76 f1bd 55d3 bf3d
00000110: 0082 813d 0973 cdbc f0ba 80bd 702a dabd
00000120: 37fe 4ebd 50a7 1ebd bab2 88bd 6f60 a3bd
00000130: 66ba b83d eb5e 8cbd 00b7 693b c582 a539
00000140: d353 8abc 9891 ee3c d05a dfbc e9dd 8c3d
00000150: 440c 473d b413 c53d 8952 973c 41de 07be
00000160: 61bf 94b9 ac62 4f3d 4bc5 7b3b c84e 66bd
00000170: b7ef c23d cbe2 42bc 7731 a23c 75b7 14bd
00000180: 548d 84ba bb32 9d3d 4883 273c 00d1 293c
00000190: 7a6c a13d 1a97 dfbd cb7b 453c 811a f5bd
000001a0: ab91 2e3d f00c a63c a619 3b3d 900e c23c
000001b0: 1428 c63d 6a37 2ebc 9e74 953d cbf9 753d
000001c0: afcf 073e 5f77 ee3d cc16 c3bc 9fdc bd3c
000001d0: cf36 85bd c851 8dbd bc28 07bd 715a 03bb
000001e0: 9010 e2bd b0c3 ab3d 8f46 15be 1f04 65bd
000001f0: 0649 babd 56a8 d6bd ea37 d93d cded 4fbd
-0.10939376 -0.120142244 0.11062395 -0.11421245 -0.06814254 0.055977434 0.113198444 -0.10685144
-0.035708845 -0.05849037 -0.013704321 -0.039603826 0.013618385 0.1105052 0.04589933 0.051857233
-0.046764284 0.090971254 -0.07238474 0.09348189 -0.011960357 0.013467041 0.006452399 0.08848767
0.08058484 -0.057589386 0.086493775 0.050420865 0.066381514 0.10930745 -0.04606968 -0.009614519
-0.010646755 0.114901125 -0.012521353 0.066751406 -0.069875404 -0.03458181 0.06749035 0.088639356
-0.013959868 -0.05791393 0.022917712 0.07921531 0.11709188 0.016655155 -0.054208443 -0.08277327
-0.08978596 -0.03861353 0.005737871 0.11333084 0.0932999 0.106889695 -0.08628566 -0.004020785
-0.08777137 -0.0016601076 0.010670013 0.05712103 0.021137066 0.114082806 -0.08435691 -0.10077678
-0.075620174 -0.003575489 -0.11790179 0.0936648 0.06323624 -0.025079267 -0.062856555 -0.106526256
-0.050535407 -0.03873378 -0.066747144 -0.079773776 0.09019928 -0.06854042 0.0035662055 0.00031568683
-0.016885674 0.029122159 -0.027264982 0.068782635 0.04859568 0.09622899 0.018471973 -0.13268377
-0.00028371348 0.05063121 0.0038417156 -0.056227475 0.09518378 -0.011894892 0.019798977 -0.03630777
-0.001011292 0.07675692 0.010224171 0.010364771 0.078820184 -0.10917492 0.01205344 -0.11967946
0.04261939 0.020269841 0.045678757 0.023688585 0.09675613 -0.010633329 0.072976336 0.060052674
0.13262819 0.11643862 -0.023814581 0.02317649 -0.065045945 -0.06900364 -0.03299783 -0.002004292
-0.11038315 0.08386934 -0.14577697 -0.055912133 -0.09095959 -0.10481326 0.10606368 -0.050763894

net.4.weight f4 [256, 128]
00000000: 5043 2fbe 3b4d bdbd 3308 9abd e7c8 7bbd
00000010: 7e5e fc3d 4f3b efbd 488b 41bd 85aa cb3b
00000020: 161d 8a3d 20ba 6a3d 7266 0bbe 902b 9dbc
00000030: 6fc2 07bc 4bd1 2d3e 9e1e 2abd f594 a0bc
00000040: aea0 0ebe 21eb 88bd 30e1 25bd e4d9 b23d
00000050: 5f71 95bd d5b9 acbd af35 f9bb aaf9 6ebd
00000060: 6714 d3bc e058 393e 46db 1f3e 7198 79bd
00000070: e666 ab3d 9f62 c23c a995 a9bc 71c4 7e3d
00000080: 8735 04be 65fe be3d e841 043b 984c fd3d
00000090: 23bd 893c 006e ff3d 94b2 b43c 0a96 83bd
000000a0: dbda 4fbe 2108 903d 5e32 26be 785b 413a
000000b0: aa78 23be b315 6cb8 b6d7 593d 87df 56bd
000000c0: d54b f83c f1bf d1bd af41 b3bd 341a fdbd
000000d0: 67a5 bc3c 5385 5fbd ba05 813d 230c fdbc
000000e0: deba 1ebd 23ab 2bbc e8e7 e8bd fdc3 1d3d
000000f0: 78a5 4ebd c8e2 eabd 73b7 473d eccc 75bd
00000100: 9706 18be 7e45 463d 8931 8fbc fb64 16be
00000110: 1236 acbd 9b75 0abd 4db7 93bd fbb9 bfbd
00000120: 6866 15be b062 6bbd 1afe dcbd b920 90bd
00000130: 0874 3bbe 079a 62bd cb47 373d c7ee 04be
00000140: f7a1 c93d 4522 53bc b750 babc 7977 9d3d
00000150: 6534 03be 345c d63d 8992 8abc c0e1 97bc
00000160: f323 8a3d e542 d1bc 0dea 45be 2464 babc
00000170: 6aa7 1f3e b44d 54be 369d 0d3d f670 08be
00000180: 1936 eabd e697 0dbe a89e babc a159 963d
00000190: 057f e4ba 3a50 2b3d 9050 c13d e5a5 00be
000001a0: e10f 2b3e b2f7 fbbb 09d6 1dbd bde3 643b
000001b0: e57d cb3d ddc4 ad3c 3a53 3b3c 7c3f 523d
000001c0: 469d e2bd 34ab 3fbd 6cd3 d93d e069 17be
000001d0: c34e 54bd 5f72 febd b3c3 edba 758d debc
000001e0: 4317 1fbd cd0e 3ebd bc5c 533d 9a8d 22be
000001f0: d2af e23d a39f 213e 1a03 013d 10a6 c8bd
00000200: 3443 eebc a766 fe3c 7309 afbd 8c9d b2bd
00000210: 5870 94bd 11f0 02be eddb b23d 9f82 f3bc
00000220: 1ab6 a4bd 86de 953d d60f 4fba 4906 82bd
00000230: ab6e 91bd 78ad e13c 12e9 313d 0a2a aa3d
00000240: 6176 7c3b c675 f0bc 6711 09be 5d25 4fbd
00000250: 715e f03c c3c9 95bd a2e0 a1bc c5c8 b3bd
00000260: 44d4 61bc 58ed f63c ed80 ff3b eed7 38bd
00000270: 8490 37bd f0d4 79bd 3c70 19bd 0185 c53d
00000280: 157b f6bb 12d9 633c d8dd 973d 6052 c7bc
00000290: 8dda e1bc e5c0 65bd 6b92 31bd e3bf c5bc
000002a0: b320 7c3d a4ac 863c 1460 fc3b f0b6 08bd
000002b0: a842 dc3c d101 753d 6e8a 833d 41ce 873c
000002c0: a6e8 34bd 4e84 16bd 5de6 0fbd c7fc 9bbd
000002d0: 9e6e 1bbd 42d0 463d 3605 003e 6b8e c138
000002e0: 515d 0d3d e4b7 81bd ce24 edbc 2105 c73d
000002f0: 9931 e23c b6ad babd 5d42 83bd e6b2 743d
00000300: de39 dfbd c1d7 be3c 036d ba3d 5daa f0bc
00000310: 83bd 90bd 8b7a 9fbd 4923 36bc 5b9e 2ebe
00000320: 2777 8fbc 09ca 4a3d 0ac9 973d 4fe0 9dbd
00000330: 29e7 87bd daa0 9abd 3895 533d 4558 0a3c
00000340: 34fa 843d 67e4 3cbd 1c24 453d 02c4 683d
00000350: f7f1 98bd a55a cd3d 5d33 66bd 7442 323d
00000360: 275c 393d a601 7ebd eb1a bdbd 29ae 803a
00000370: ca5f 473d 2c92 1cbd dfd8 523d ff08 d2bc
00000380: e55f b7bd df27 0bbe 9d7e dabd eb78 f4bc
00000390: 0637 893c 67f8 7abd c120 c33d e71b a7bd
000003a0: e379 133e c357 9b3d 8cf0 4bbd 3e25 a93d
000003b0: 8ec1 8c3d d958 b03c 2ad7 9abd a557 20bc
000003c0: 5cc8 1abe 4fa3 b0bc c7bd 393d c14a 79bd
000003d0: 3446 93bd 7300 ffbd 8cb9 bebd 083a 813d
000003e0: ad14 19bd 9765 05bc 88c8 95bd e752 90bd
000003f0: 8c0a 5d3d be52 abbd a932 11bc 60b8 0cbe
-0.17115521 -0.09243246 -0.07521095 -0.061470892 0.123227105 -0.11681234 -0.04725197 0.006215396
0.06743829 0.05730641 -0.13613299 -0.019185811 -0.008286103 0.1697437 -0.041533105 -0.019602278
-0.13928482 -0.06685472 -0.04049796 0.087329656 -0.072970144 -0.08433882 -0.0076052765 -0.058343567
-0.025766565 0.1810031 0.1561099 -0.060936395 0.08369236 0.023728667 -0.020701246 0.06219906
-0.12911044 0.09325866 0.0020180885 0.12368125 0.01681382 0.12472153 0.022057809 -0.06425102
-0.2029833 0.070328005 -0.16230151 0.00073759956 -0.15963998 -5.6286994e-05 0.053184234 -0.052459266
0.030309597 -0.10241688 -0.087527625 -0.123585135 0.023028089 -0.054570507 0.062999204 -0.030889576
-0.03875243 -0.010477814 -0.113723576 0.038516987 -0.050450772 -0.11469036 0.048758935 -0.06000988
-0.14846264 0.048406117 -0.017479675 -0.14686958 -0.084087506 -0.033803564 -0.07212696 -0.09361645
-0.14589846 -0.057467163 -0.107906535 -0.07037491 -0.18305981 -0.055322673 0.0447462 -0.12981711
0.098453455 -0.012886588 -0.022743566 0.07688803 -0.12812956 0.10466805 -0.016915577 -0.018540263
0.06745138 -0.025544593 -0.19327565 -0.022752829 0.15591207 -0.20732766 0.034573756 -0.13324341
-0.114360996 -0.13827476 -0.022780731 0.07341314 -0.0017432874 0.041824557 0.09439194 -0.12563284
0.16705276 -0.0076894397 -0.038534198 0.0034925782 0.09936122 0.021212036 0.011433417 0.051330075
-0.11065154 -0.04679413 0.10636029 -0.14786482 -0.051832926 -0.12424158 -0.0018139988 -0.027167061
-0.038840543 -0.046400834 0.05160211 -0.15874329 0.11068691 0.15783553 0.0314971 -0.09797299
-0.02908478 0.031054808 -0.08546724 -0.08721456 -0.0724799 -0.1278689 0.08733354 -0.02972537
-0.080425456 0.073178336 -0.0007898783 -0.06348855 -0.07101186 0.027548537 0.043435164 0.083087996
0.0038522708 -0.029353034 -0.13385545 -0.05057274 0.029341908 -0.073138736 -0.019760434 -0.08778528
-0.013783518 0.030142471 0.0077973516 -0.0451278 -0.044815555 -0.06099409 -0.03746055 0.09644509
-0.0075219967 0.013906734 0.0741536 -0.024331272 -0.027570033 -0.05609216 -0.043352526 -0.02413935
0.061554622 0.016439743 0.007701883 -0.033377588 0.026887253 0.059816185 0.06422888 0.016577842
-0.044167183 -0.03674727 -0.0351318 -0.07616573 -0.03794729 0.048538454 0.12501988 9.2294846e-05
0.03451282 -0.063339025 -0.028948214 0.09717775 0.02761154 -0.09115164 -0.06409142 0.059740923
-0.10899709 0.023296239 0.091028236 -0.02937811 -0.070673965 -0.07787045 -0.011116811 -0.17052595
-0.017512871 0.049509082 0.07411392 -0.07708799 -0.06635887 -0.07550211 0.051655978 0.008443897
0.06493035 -0.04611626 0.04813014 0.056827553 -0.07468026 0.10027055 -0.056201328 0.043520406
0.0452539 -0.06201329 -0.0923365 0.0009817529 0.048675336 -0.038225338 0.051476356 -0.025639055
-0.08953837 -0.13589428 -0.10668681 -0.029842814 0.01674987 -0.06127205 0.09527732 -0.08159619
0.14401965 0.075850986 -0.04978995 0.082590565 0.06872855 0.02152674 -0.075605705 -0.009786521
-0.15115494 -0.021562247 0.045347 -0.060862307 -0.071911246 -0.124512576 -0.09312734 0.06309897
-0.037373234 -0.008141897 -0.07313639 -0.07047062 0.053965136 -0.08365391 -0.008862176 -0.13742208

net.4.bias f4 [256]
00000000: c38e 0dbc 9a18 ba3d fbdc 17bd 5aca 623d
00000010: 4642 aabd bffb 313b 75f5 7bbd a43f b83c
00000020: 4c0b b4bc df52 96bd 8fd7 263d 71bb 84bd
00000030: c5bb afbc 664c 2a3d 011b bebd cf3a 063d
00000040: 75ff 13bd 1980 b73c 3864 3abd 496e 593d
00000050: 7444 cdbb 5a2b bbbc 8a49 44bd 577a 80bd
00000060: 07bf 073d 4180 b0bd 9192 503d b93a 22bd
00000070: d355 1a3d f2cc 13bd 8b42 8b3d cffa febc
00000080: a9f8 8dbd db07 ab3b 0085 2ebd 8093 863c
00000090: 24f3 a63d a075 19bd 1c28 6e3b c026 bc3c
000000a0: c20c c1bc 239c ae3b 5072 b0bc 62b4 aabd
000000b0: 7243 993c 4713 a2bc 2283 92bd 246e e83c
000000c0: c294 5fbd 5559 493d 7777 96bd 8e1d 66bd
000000d0: 092d 4c3c df3e 753d da68 863d 2c44 adbd
000000e0: bb1a 17bd b981 01bd 4ba6 5a3c a05b 9bbd
000000f0: 971c 5a3d 0275 7dbd 43ef bcbd 4141 4b3c
00000100: fc2a 823d 7e7d 823d e773 773d affb 69bd
00000110: 7eee 99bd b4ec 023c f338 84bd f49a e3bb
00000120: 9fee f83c 0ad5 94bd 8053 16bd 65b6 603d
00000130: 3323 c83c 48ee 86bd 5585 04bc 1ff7 c4ba
00000140: ef4d 333d df44 a63d ed37 18bb 84ff 94bd
00000150: feb2 903d 08a4 34bb ec2a 88bd 7c29 803d
00000160: 073d 57bb ae01 f8bb efbd 913d 98ec b4bc
00000170: cf3a 1c3d 48b3 7d3d b272 ab3d 3d1d 763d
00000180: 64c7 e1bc 1069 21bd eca0 583c 97ae b13c
00000190: 0bf3 7c3d 4552 a93d 872c 16bd 9f2a 993c
000001a0: 3a41 fa3c eec8 993d 9adb b9bc 8d04 153c
000001b0: 0eab dcbc d569 803c 65b6 9cbd 18c5 f43c
000001c0: 6817 8ebd 1b95 363d 53b4 0d3a e1ed 74bd
000001d0: 91f2 36bd 5070 1fbd b4a8 133d e4e9 34bd
000001e0: edde 12bd 6b98 6b3d bc38 aabd d0f9 703d
000001f0: b902 833d 7a4a a03d 4a54 7abc d142 983d
00000200: ef06 da3c e61c b6bc 5f4a 083d 3b15 05bc
00000210: 67af 3abd ff02 833d 0b69 65bd 2642 64bb
00000220: 4887 b33c db4c 85bd a68e 3ebd 1d58 bcbc
00000230: 3919 1ebd 69cd 4b3d cbb6 573d 3e33 2ebc
00000240: 09f1 aabd cdec 14bd 4e48 2dbd 9b70 f9bb
00000250: 41a8 a63c e858 44bd e7f5 8a3d 2fa9 74bd
00000260: bdc9 ebbc 2e13 353d c668 8fbd e96e 45bd
00000270: d258 023d bba1 65bd 4abc a6bd b1aa 9fbd
00000280: 1fbe a0bd 9187 4a3d aabd 23bd 1851 8b3d
00000290: 6e3a 033d c56e 8c3c 1c43 8b3d 42e3 143d
000002a0: 92e4 cd3c d308 c93d 09bd a8bd 3115 4fbd
000002b0: 096e 58bd 45bd 9f3b c101 b1bd 02da 5d3d
000002c0: 0fd7 333d dcfa 743d 667d a8bd c294 c73d
000002d0: 2386 dcbc f84b 0ebd 653e 8d3d 2eca 763d
000002e0: f831 2d3d 3ba0 533d d6cb 703d 2669 efbc
000002f0: 34df 93bd 3bf8 233d 056a b53a a042 593c
00000300: e1bf 03bc 8d10 03bd 56c1 063d 97f3 4dbd
00000310: 5db1 a43d 06e2 b1bd c27e 87bd 8c98 24bd
00000320: 4bb0 50bd ea03 8d3d 3b3f 28bd b95c a63b
00000330: 2fc4 653d b175 72bd 9143 c33c 89ed 84bd
00000340: 6cad 5cbd e457 a63d e208 9abd ae3e 4a3c
00000350: 61e3 a0bd e909 133d 593d d8bc 06b8 a1bb
00000360: 3105 4ebd c376 a43c 3dcc 813d 6b9c 5f3d
00000370: fb08 063b cf39 ac3d 2801 68bd 0702 a8bd
00000380: 5940 5cbd acf4 aebb 2e8b 9dbd c9e3 8b3b
00000390: d9ec fb3c 04e1 d7bd 7fd2 35bd 19d2 283d
000003a0: 89b5 94bd 0f13 33bc e1ab 1b3d 6bd9 8b3b
000003b0: a207 163d dadd a93b effc 4e3d 33fc 4bbd
000003c0: f252 8dbc 76d1 e9bb 3587 9bbd 42a4 d4bc
000003d0: 4354 b73c 31a5 803d 0242 5a3d b1ca 993a
000003e0: b20a e83c 19c9 81bc 3124 643b d071 b9bc
000003f0: 2c6d e4bc 2193 94bd 05d5 c13c 3b34 943d
-0.008639994 0.090867236 -0.037075978 0.05536876 -0.08313422 0.002715811 -0.061513383 0.022491284
-0.021978043 -0.07340025 0.040732916 -0.06481064 -0.02145184 0.041576765 -0.09282494 0.032770928
-0.036132295 0.022399949 -0.045505732 0.05308369 -0.0062642638 -0.02284782 -0.047921695 -0.062733345
0.033141162 -0.086182125 0.050921027 -0.039606784 0.037679505 -0.036084123 0.067998014 -0.031125454
-0.06932194 0.0052194423 -0.042607307 0.016427755 0.08151844 -0.03746569 0.0036339825 0.022967696
-0.023565654 0.0053286715 -0.021538883 -0.083351865 0.018708918 -0.019784583 -0.07153918 0.028372832
-0.054585226 0.04915746 -0.07347005 -0.05618053 0.012461909 0.05987441 0.065629676 -0.084602684
-0.036890727 -0.031617854 0.013345311 -0.075858355 0.05324992 -0.061879165 -0.09225323 0.012405694
0.06355855 0.06371592 0.060413267 -0.05712479 -0.07516192 0.007991005 -0.06456175 -0.006945962
0.03038722 -0.072671965 -0.036700726 0.054861445 0.024430847 -0.06588417 -0.008088429 -0.0015027261
0.043775495 0.08118605 -0.0023226694 -0.07275298 0.0706539 -0.002756359 -0.06648812 0.062579125
-0.0032842772 -0.0075685596 0.07116305 -0.022085473 0.03814202 0.061938554 0.08371486 0.060086478
-0.027560897 -0.039406836 0.0132219605 0.021689696 0.06175522 0.08267645 -0.03666356 0.018697081
0.03054868 0.075090274 -0.022687722 0.009095323 -0.026937034 0.015675465 -0.076519765 0.029879138
-0.06938058 0.04457579 0.00054055935 -0.05979717 -0.044664923 -0.03892547 0.03604956 -0.044168368
-0.03585713 0.057518404 -0.083116025 0.05883199 0.06397004 0.07826705 -0.015278885 0.07434619
0.026614634 -0.022230577 0.03327405 -0.0081227375 -0.045577433 0.06397056 -0.05600838 -0.0034829467
0.021915093 -0.065088 -0.04652276 -0.022991234 -0.038598273 0.04975644 0.05266456 -0.010632334
-0.08346755 -0.036358643 -0.042305283 -0.0076123006 0.020343902 -0.04793635 0.067851834 -0.05973166
-0.02878272 0.044207744 -0.07002406 -0.048201475 0.031822987 -0.05606244 -0.08141382 -0.07796229
-0.07848763 0.049445692 -0.0399758 0.06802577 0.032038145 0.017142663 0.067999095 0.036349542
0.025133405 0.09816136 -0.082391806 -0.05055732 -0.052839313 0.0048748576 -0.08642913 0.054162987
0.043906268 0.05980955 -0.08227043 0.0974517 -0.02691943 -0.03474042 0.068966664 0.060251407
0.042283982 0.05166648 0.058788143 -0.029224943 -0.07220307 0.040031653 0.00138408 0.013260514
-0.008041353 -0.031998206 0.032899223 -0.050281134 0.08041642 -0.08685689 -0.06615974 -0.040184543
-0.050949376 0.06885512 -0.041075926 0.0050769714 0.0560953 -0.05919427 0.02383593 -0.06490619
-0.053876325 0.081222326 -0.075212255 0.012344046 -0.07855869 0.035898123 -0.02639644 -0.0049352674
-0.05029792 0.020076161 0.063377835 0.05459253 0.002045213 0.084094636 -0.056641728 -0.08203512
-0.053772304 -0.0053392258 -0.07692562 0.0042690975 0.030752586 -0.10540965 -0.044390198 0.04121599
-0.072611876 -0.010929837 0.038005713 0.0042678616 0.036628373 0.0051839175 0.050534185 -0.049801063
-0.017251465 -0.0071355654 -0.07594148 -0.02595723 0.022379046 0.06281508 0.053285606 0.001173338
0.028325412 -0.015842961 0.003481161 -0.022637278 -0.027884088 -0.07254625 0.023661146 0.07236525

net.6.weight f4 [2, 256]
00000000: 035e 0c3e abfe f23d 1913 67be 8b9c 12be
00000010: 8962 f23d c882 7d3d 5bf3 273e d6f4 be3d
00000020: 8079 c53b 5dc1 6dbe c65c 4c3d fc55 323d
00000030: 70b9 67bd 1254 4dbe a3da d8bd 6a29 423e
00000040: 3442 1ebe df9f da3a efa4 2cbe 5153 49be
00000050: 9a94 8b3b 1dfb ff3d 36c2 57bd eaa9 24be
00000060: 47e7 313e 044c e23d 35e6 57be f423 123e
00000070: 4d1f 0ebe 18ef 49be 49e7 eebd e814 56be
00000080: a637 0fbe a2d0 cf3c 5ddf e0bd 4305 39be
00000090: 12fa e0bd 98bd ddbc 80fd 19be 9f2f 2ebe
000000a0: be22 65be 6b2b 27be ee8d 17be b806 53be
000000b0: d753 4bbd aa8f 51be 0c12 293e ad6e 223d
000000c0: 9590 3cbe 7096 ea3c 5083 e4bc 419c 28be
000000d0: 8c4d 4bbe 1245 2ebe c3e0 48be f2e2 0e3d
000000e0: c83e 063e 5955 26be 8864 e83d 44f9 453e
000000f0: dcca dd3d e011 17be 6a84 3d3e d24f 3dbb
00000100: 2e29 46be a1e4 44be df14 43be 7b08 39be
00000110: f050 40bd c612 443d 758f 583d 10c4 153e
00000120: f26c 5dbb dbb6 2c3d 9643 a93b 508f 56bd
00000130: cf36 243e 10b2 063d ca82 583d 55b4 363c
00000140: 7002 483c 8438 2cbe 8621 4cbe d6d5 493d
00000150: 64fc 233e 70aa 1b3d 0a22 0ebd f53d 56be
00000160: 2073 8d3d f8f0 15be b204 41be 79f3 51be
00000170: e1c3 30be 6c2e 1bbe 0372 37be 8ac4 653d
00000180: 6015 22be ae23 a53b 908b 23be 5e08 60be
00000190: 483d 26be f779 4b3e cd9f 69be c55f 47be
000001a0: 788d d03c ac83 653d ada4 ddbd 22c7 54be
000001b0: be46 46be de61 4fbe c0a5 76bb d805 1dbe
000001c0: f86f 303c b2a8 42be 4a10 3abe b2bd 363e
000001d0: 5e68 32bd 6aba 0b3d 9729 3bbe d833 f03d
000001e0: 3ff1 24be 8271 5fbe 5028 57be 104a 55be
000001f0: e181 223e eb8c 36be f7d8 533e c1c6 29be
00000200: f65f 753d 64e3 593d 4514 383d d39a 46be
00000210: f31b 3b3e fa2a 2c3e 243e 413e 0eea 38be
00000220: 35f7 a93c 60e6 43bd 1334 2cbe 92d8 543d
00000230: 2f3f 483e 54b7 10be 7a61 3ebe 285f 43be
00000240: e0b7 02bd 2a24 0f3d a7bd dc3d f56c 123e
00000250: 4f8b 27be 53c5 943b ed39 4d3e c2a8 0bbe
00000260: a119 71be db42 333e 00d0 00bc 17bd 203d
00000270: f673 123e b076 073d 4aaa 26be 51a1 323e
00000280: 8336 3ebe 9dd3 4dbe bfb8 61be 9453 ac3c
00000290: 31b8 2f3e 99ee 2e3d da95 2ebe d307 043c
000002a0: 4686 49be e976 283e 7e33 683d 0376 d93d
000002b0: f807 fd3c be13 40be a0da 25bc 5e5c 1abe
000002c0: 4f5c 59be 4240 0fbe b909 103d e0cc 323e
000002d0: 019e 2a3e 9368 3cbe ef73 3c3e 798b 8b3c
000002e0: a598 23be a719 a53c 4e8e 253e 4f45 05be
000002f0: 885b 01bc 7109 4cbe d0a4 013d 549c 64be
00000300: 3e53 353d 4c8d 36bd 8b38 5ebe 7542 fbbd
00000310: 3bb1 3a3e 14d8 423d bdfb 27be a634 5fbd
00000320: c4f7 fc3c f793 42be 4468 cabc 3d39 073e
00000330: 8bb0 603d 2c75 073e f1a7 673c ac8c a23c
00000340: 5896 703d 02fd fbbd b572 2d3e bdff fc3d
00000350: 1756 2cbe f9d4 c7bd 0583 3dbe 37ed 47be
00000360: 23f0 963c d774 233e 906b 343e 59eb f7bd
00000370: bca6 2f3d d6e2 063e ae42 3b3d db4c 783b
00000380: 1c15 5bbe 5424 3a3d fecc 66be 8513 64be
00000390: 704d 1dbe 8f28 db3d 9426 923b 3c4f 703c
000003a0: 0244 4a3d 68af fc3c 927b 29be c242 54be
000003b0: c0b6 1b3e 52ea 863b fcd4 533d c5b8 5c3d
000003c0: 8e1e 4ebe 7d94 4cbe d05b 54be c33f 42be
000003d0: 2b89 34be 52c4 1a3e 130f 27be cc26 32be
000003e0: 2d18 1dbe 25c9 45be d0a3 8c3b 2c23 e03d
000003f0: ab41 7e3d a080 73bb 4601 243e d770 3ebe
0.13707738 0.1186498 -0.22565879 -0.14317529 0.118352 0.0618923 0.16401426 0.093240425
0.006026447 -0.23218293 0.049893163 0.043539032 -0.05657333 -0.20051602 -0.10588577 0.1896111
-0.15454942 0.0016679725 -0.16859792 -0.19660689 0.004259658 0.12499068 -0.05267545 -0.16080442
0.17373382 0.11049655 -0.21083911 0.14271528 -0.13879128 -0.19720113 -0.11665208 -0.20906413
-0.13986072 0.025368039 -0.10980103 -0.18068413 -0.10985197 -0.027067944 -0.15038109 -0.17010354
-0.22376534 -0.16325156 -0.14800236 -0.20608032 -0.049640503 -0.2046496 0.1651079 0.03965633
-0.18414529 0.028636187 -0.027894646 -0.16465856 -0.198538 -0.17018536 -0.1961699 0.0348844
0.13109887 -0.16243495 0.113473 0.19333369 0.10829708 -0.14752913 0.18507543 -0.0028886688
-0.19351646 -0.1922784 -0.1905093 -0.18069641 -0.046952188 0.047869466 0.052871186 0.14625573
-0.003378686 0.042166572 0.0051655276 -0.052382767 0.16036533 0.032884657 0.052859105 0.011151393
0.012207612 -0.16818434 -0.19934663 0.049276195 0.16014248 0.03800434 -0.03470043 -0.20922072
0.06906724 -0.14642704 -0.18849447 -0.20503034 -0.17262222 -0.15154427 -0.17914586 0.056095637
-0.15828466 0.0050396537 -0.15971208 -0.21878192 -0.16234314 0.19870745 -0.22814865 -0.19470127
0.025458083 0.056033775 -0.10822425 -0.20779088 -0.19362924 -0.20252177 -0.0037635416 -0.1533426
0.010768883 -0.19009665 -0.18170276 0.178458 -0.043556564 0.034113325 -0.18277584 0.117286384
-0.16107653 -0.21820644 -0.21011472 -0.20829034 0.15869857 -0.17827193 0.20688234 -0.16579725
0.05990597 0.053195372 0.044941206 -0.19394998 0.1827238 0.1681327 0.18871361 -0.18058035
0.02074776 -0.047827125 -0.1681674 0.05196435 0.19555353 -0.14132434 -0.18591872 -0.19079268
-0.031913638 0.034946598 0.10778361 0.14299376 -0.16361736 0.0045401244 0.20041628 -0.13638595
-0.23544933 0.17505972 -0.007862091 0.03924283 0.14302048 0.033072174 -0.16275898 0.1744435
-0.18575482 -0.20100255 -0.22043131 0.021035947 0.17160107 0.042708013 -0.17049351 0.008058506
-0.19680128 0.1645161 0.05668973 0.10618212 0.030887589 -0.18757531 -0.010122925 -0.15074298
-0.21226619 -0.13989356 0.035165522 0.17460966 0.16661836 -0.18399267 0.184036 0.01703428
-0.15976198 0.020153834 0.16167566 -0.1301472 -0.007895358 -0.19925477 0.031651318 -0.2232526
0.04426884 -0.044568345 -0.21701257 -0.12268535 0.1823167 0.04756935 -0.16404624 -0.05449357
0.030879863 -0.19001757 -0.02470792 0.13205428 0.054855864 0.13228291 0.014139161 0.019842468
0.05873713 -0.12304117 0.16938289 0.12353466 -0.16829716 -0.09757418 -0.18507011 -0.19524084
0.018425053 0.1596254 0.17619157 -0.12105436 0.04288362 0.13172469 0.045717888 0.0037887606
-0.21394771 0.0454448 -0.22539136 -0.22273071 -0.15361571 0.10701095 0.0044601653 0.014667328
0.049381264 0.030845359 -0.16551045 -0.20728591 0.15206432 0.0041172886 0.05171679 0.053887147
-0.20128843 -0.19978519 -0.20738149 -0.18969636 -0.1763045 0.15113953 -0.16314344 -0.17397612
-0.15341254 -0.19315012 0.004291989 0.109442085 0.062074345 -0.0037155524 0.16016111 -0.18597732

net.6.bias f4 [2]
00000000: 7f4d 29bc 57c2 353d
-0.010333418 0.04437479

exp_avg f4 [64, 2]
00000000: f452 f335 f0f0 bb36 9a8a 6031 f101 50b2
00000010: 3c40 bab5 ad2a 1335 372a 1434 3bd5 c2b6
00000020: c4de 3d36 f185 90b6 a146 3632 32ce 42b2
00000030: 67f5 d134 b15e 04b6 43cd 0234 598b b834
00000040: 3825 f9b5 6f1a ddb5 be33 09b2 53c8 0233
00000050: 8d56 52b5 46c2 ce36 56de 91b5 9cff 3537
00000060: ed5a 8235 f240 1036 41e3 3e34 eb06 2ab6
00000070: 20d4 c0b1 8ee8 8532 07cc 9fb5 e829 a4b4
00000080: ab23 2732 d775 5c30 05a0 64b6 0f93 3eb5
00000090: 0023 9db6 54ba 03b7 18a1 ee34 db63 1eb6
000000a0: 4459 9033 dfab d134 fa16 a4b4 f8be 37b4
000000b0: 7a2d 46b6 3b32 7db6 0d51 06b0 c11a b4b1
000000c0: 37a0 a535 5690 2bb5 66a4 d0b1 fa3d 5c32
000000d0: 4f55 4231 992f 73b2 3bd0 b834 6bee d634
000000e0: fe4b a835 36c7 3e36 d3f9 13b7 8e6c 1737
000000f0: 01d8 0db4 619c abb6 ad58 84b5 6682 27b5
00000100: b36a 02b3 1d69 cbb4 9684 cb35 c8da 30b6
00000110: 0071 8737 b1db 96b7 b138 b635 47d0 f534
00000120: 5dbc 0232 eba1 ac32 48c5 2737 784e c0b6
00000130: 6dcc 3232 75a0 47ae c4dd 11b6 37fc af35
00000140: e10f 98b5 9bdc a933 47fe 0736 3328 5ab6
00000150: 93bd d9b4 b011 a9b5 be20 37b7 247b 6d37
00000160: fdce 8e34 4c82 69b6 e6ff a135 34fe bab6
00000170: eca4 1536 8c12 05b5 69f8 97b4 6b05 94b4
00000180: 5610 99b6 1167 6736 bc28 2833 8f7d 0cb6
00000190: 8f4c a231 aff0 b2b2 e404 a5b4 e39f 88b4
000001a0: a6c4 bbb5 fe95 86b6 85cf 6d32 2d48 a032
000001b0: c115 9535 83e0 3035 b4bd d3b5 348b 5a34
000001c0: 404b 10b1 5724 5b32 45eb 19b6 52e3 ca35
000001d0: 5ced 23b6 aebc 3b36 5f87 0d36 c903 86b5
000001e0: 9d98 0db6 9430 5336 3d75 4136 7af6 26b6
000001f0: 03e4 07b5 f524 11b6 4208 00b2 c7c6 a831
1.8129053e-06 5.601083e-06 3.2675076e-09 -1.2107635e-08 -1.3876775e-06 5.482387e-07 1.3798932e-07 -5.806474e-06
2.8292861e-06 -4.3071273e-06 1.0609853e-08 -1.133917e-08 3.9107837e-07 -1.972465e-06 1.2181867e-07 3.437406e-07
-1.8562778e-06 -1.6473476e-06 -7.986214e-09 3.0450177e-08 -7.8357044e-07 6.161895e-06 -1.086805e-06 1.0847954e-05
9.712218e-07 2.1495475e-06 1.7777803e-07 -2.5336e-06 -5.6120513e-09 1.5588991e-08 -1.1905803e-06 -3.057787e-07
9.728789e-09 8.0202994e-10 -3.4067791e-06 -7.0994514e-07 -4.683039e-06 -7.851591e-06 4.4448166e-07 -2.3601958e-06
6.72176e-08 3.9054336e-07 -3.0564098e-07 -1.7112677e-07 -2.953077e-06 -3.7729176e-06 -4.8864096e-10 -5.241731e-09
1.2340087e-06 -6.39125e-07 -6.0722867e-09 1.2819777e-08 2.8279208e-09 -1.4155284e-08 3.4424178e-07 4.0034078e-07
1.2539092e-06 2.8428162e-06 -8.8200495e-06 9.025576e-06 -1.321023e-07 -5.114402e-06 -9.860574e-07 -6.24021e-07
-3.0365026e-08 -3.7888177e-07 1.5163266e-06 -2.6353391e-06 1.6145874e-05 -1.7983695e-05 1.3576556e-06 4.5786348e-07
7.609825e-09 2.0097067e-08 9.999909e-06 -5.731181e-06 1.0407445e-08 -4.5389876e-11 -2.1735768e-06 1.311192e-06
-1.1329504e-06 7.909804e-08 2.0264577e-06 -3.250793e-06 -4.0557333e-07 -1.2596629e-06 -1.0915273e-05 1.4154972e-05
2.6600165e-07 -3.4795548e-06 1.2069911e-06 -5.572825e-06 2.2298727e-06 -4.957335e-07 -2.8306684e-07 -2.757109e-07
-4.561657e-06 3.4481675e-06 3.9152596e-08 -2.093471e-06 4.7235242e-09 -2.0831378e-08 -3.0737203e-07 -2.5448307e-07
-1.3989818e-06 -4.0109726e-06 1.38424e-08 1.8659273e-08 1.1107696e-06 6.5891817e-07 -1.5775936e-06 2.0353474e-07
-2.0997533e-09 1.27557405e-08 -2.2935722e-06 1.5116332e-06 -2.4427054e-06 2.7974997e-06 2.1089434e-06 -9.98488e-07
-2.109947e-06 3.1469726e-06 2.8827483e-06 -2.4879396e-06 -5.062322e-07 -2.1628196e-06 -7.452458e-09 4.912042e-09

exp_avg_sq f4 [64, 2]
00000000: c490 e72c 43fa a42f c487 e725 d92d 8029
00000010: 1807 912d 2bd9 102f 27af 332d 5813 8f30
00000020: ebed 282d 1cab 172e dbdd ef25 9020 7028
00000030: 2672 cb2d 73e2 cd2f 6c27 902e 4658 2a2f
00000040: db79 012d 2713 7330 5f0a 4a28 d279 5428
00000050: 5c96 9d2e 4b38 8130 ca89 cc2e 8749 422f
00000060: ec78 b12e a685 f82e 9a64 e12d 4018 052f
00000070: 49b1 2a28 6a2c a428 376f 252c 79d2 852e
00000080: c9bb 0926 4f7f 9129 189e d72f 1086 3031
00000090: b8b7 0730 ddb5 1932 b269 8a2e c42e 9531
000000a0: e84d b82e 9f41 0f2f e3ca 852d 2f01 a62d
000000b0: 0f6f ab2e 111c 1731 664a f924 4779 b827
000000c0: ffb0 f72e 0427 202e 3f59 dc27 024d 9d28
000000d0: 6c92 a126 5f80 1b28 d135 9a2d 44e6 692d
000000e0: a5b4 142d 0dbf 6a2e dbf4 2f2f 9502 402f
000000f0: 5650 862e 093e 5330 5cbe 9d2c def8 992f
00000100: 33ce 772e 8795 9030 ec0b c32c 2d92 3830
00000110: edd4 b32f 39d0 1230 648e 672c a6d2 c52e
00000120: 9bca 1826 af6d 7a29 cbe6 e92f 361d 3630
00000130: 3e79 a227 673f a328 34fe 992d f755 0a30
00000140: 062c bd2d 1237 a22e 3aa5 982c ba38 d52e
00000150: 0096 bd2c c6a1 ba2d 1ebc 572f c9ba ad30
00000160: adb7 0b2b 1b22 152f 3b82 272d e8a3 462e
00000170: c0e7 5130 3df0 1a31 9abb b72b b719 2b2f
00000180: c19d 582e 38e8 de2f 0ea1 932c eff3 172f
00000190: 6689 0026 5f5e b628 a4eb 442e 53c0 4f2e
000001a0: 2b8b 092e 8d08 4c30 48b6 7526 5c28 de28
000001b0: 4b32 512c f812 e32e d01c 9f2c edf2 f82e
000001c0: 80b1 3625 458e 2c28 80c7 7d2e 356f a72e
000001d0: 3974 ad2d c5b7 692f a17e 2d2e 865a 972f
000001e0: 69a2 842e a896 622e 845f 652d 757b 942f
000001f0: 5fe0 602e 4240 3b2e 1830 7726 8dca db28
6.581487e-12 3.0009248e-10 4.016411e-16 5.692295e-14 1.6487742e-11 1.3173877e-10 1.0213864e-11 1.0410117e-09
9.602523e-12 3.44854e-11 4.1610226e-16 1.3329737e-14 2.312912e-11 3.7450185e-10 6.5553646e-11 1.5492771e-10
7.359858e-12 8.84301e-10 1.1215501e-14 1.179478e-14 7.1662426e-11 9.401985e-10 9.301322e-11 1.767032e-10
8.070508e-11 1.1301475e-10 2.5624215e-11 1.2104895e-10 9.475338e-15 1.8226919e-14 2.3509647e-12 6.085527e-11
4.778592e-16 6.461378e-14 3.9220605e-10 2.5687577e-09 4.9373794e-10 8.947123e-09 6.294289e-11 4.3417874e-09
8.38119e-11 1.3029088e-10 1.521045e-11 1.887254e-11 7.795908e-11 2.1989346e-09 1.0811257e-16 5.120175e-15
1.12637004e-10 3.641444e-11 6.1159027e-15 1.7463898e-14 1.1211307e-15 8.6320645e-15 1.7531672e-11 1.3295646e-11
8.452937e-12 5.3375127e-11 1.6003147e-10 1.7463216e-10 6.107885e-11 7.684951e-10 4.4833425e-12 2.800737e-10
5.634444e-11 1.0519877e-09 5.543557e-12 6.714654e-10 3.2711203e-10 5.341039e-10 3.2906117e-12 8.9959415e-11
5.3010175e-16 5.5606287e-14 4.254644e-10 6.6252726e-10 4.5095484e-15 1.8124132e-14 1.7506975e-11 5.032627e-10
2.1506363e-11 7.3766895e-11 4.3384437e-12 9.696195e-11 5.3883564e-12 2.1217594e-11 1.9620969e-10 1.2640494e-09
4.963762e-13 1.3563588e-10 9.521768e-12 4.5165566e-11 7.6363094e-10 2.254651e-09 1.3055002e-12 1.5561495e-10
4.9252828e-11 4.0546566e-10 4.195872e-12 1.3820033e-10 4.459513e-16 2.0246986e-14 4.477453e-11 4.723717e-11
3.12738e-11 7.422692e-10 8.524849e-16 2.4664454e-14 2.9728605e-12 1.03261344e-10 4.5222506e-12 1.13208866e-10
1.5846123e-16 9.578768e-15 5.770273e-11 7.614035e-11 1.9719436e-11 2.1256515e-10 3.9448115e-11 2.753106e-10
6.031515e-11 5.152026e-11 1.3038352e-11 2.7008765e-10 5.1130985e-11 4.257595e-11 8.576052e-16 2.4401727e-14

exp_avg f4 [64]
00000000: f7ed b6b4 fcff fab1 6a7c 0e37 13f1 6137
00000010: a5fa cf35 66eb ff32 c6d0 9fb6 b2e8 b6b4
00000020: 58c9 98b6 78c7 ca32 db8d 38b7 db52 8f36
00000030: 20c3 d6b6 f85a 4ab5 14b9 9232 54b7 7536
00000040: 981d dd32 6886 45b8 a544 72b7 a0aa a6b7
00000050: cd79 c6b6 3b5a 05b6 ce67 abb7 8688 d8b2
00000060: 7f60 bcb6 2788 9332 0e62 cdb3 aba2 2636
00000070: 8013 4cb5 99b1 fab6 d241 87b7 e5a7 4d37
00000080: 1db0 2734 2716 3236 6dcd a037 dca5 48b4
00000090: b6f8 3133 b5b3 bdb7 f759 7631 4388 3d36
000000a0: 91bd 1937 944c c236 6717 c4b6 f209 e236
000000b0: d25e 81b6 7d09 60b7 6dc9 0f37 86d1 2836
000000c0: 35a3 1fb6 6d36 f836 fcbe 0d32 5c10 adb6
000000d0: ec61 02b7 d07d 0e32 fb41 08b1 0f2f 4135
000000e0: 8ba7 9532 4cb1 65b6 6b30 ae36 0286 93b7
000000f0: 9e20 cfb6 a07b 9636 a3c9 dbb5 8253 4333
-3.4073284e-07 -7.3050597e-09 8.492827e-06 1.34671745e-05 1.5495649e-06 2.9792954e-08 -4.7628737e-06 -3.406945e-07
-4.5533925e-06 2.3606603e-08 -1.1000283e-05 4.2713777e-06 -6.4004125e-06 -7.538324e-07 1.70808e-08 3.6614556e-06
2.5741244e-08 -4.7093636e-05 -1.4440307e-05 -1.9868196e-05 -5.9150393e-06 -1.9871065e-06 -2.0433126e-05 -2.5207793e-08
-5.6140702e-06 1.7174967e-08 -9.5638924e-08 2.4830613e-06 -7.60243e-07 -7.4712557e-06 -1.6123904e-05 1.2258043e-05
1.5617157e-07 2.6536961e-06 1.9169145e-05 -1.8686791e-07 4.1437225e-08 -2.2614238e-05 3.584885e-09 2.824251e-06
9.1636475e-06 5.7905654e-06 -5.8439796e-06 6.7364826e-06 -3.855538e-06 -1.335365e-05 8.570362e-06 2.515591e-06
-2.3787845e-06 7.397312e-06 8.250705e-09 -5.1577063e-06 -7.771403e-06 8.294094e-09 -1.982811e-09 7.196658e-07
1.7422073e-08 -3.422686e-06 5.1912407e-06 -1.7586168e-05 -6.172878e-06 4.48474e-06 -1.6375456e-06 4.5477925e-08

exp_avg_sq f4 [64]
00000000: b195 5630 8060 a12a a413 1431 2a76 8933
00000010: ee3c 042f 8c9c ff2b cc7f 3931 8c87 1231
00000020: c600 8e31 faf0 2f2a 17f5 0c34 1fea 9734
00000030: b9f2 1c32 51fa a031 adb1 912b 3656 8831
00000040: 0d22 8b2c 5b41 6433 7f0a 9f33 6b07 d733
00000050: 513f 7433 d4d9 9f30 5f2e 9732 e2ce 2629
00000060: 5763 c231 4f95 142a 6198 822b 1860 ee2f
00000070: e250 802f 5307 3a32 9a1a c832 ee98 1932
00000080: 0b80 9b30 4add 9d30 d914 a932 8ffb 292f
00000090: 6bb7 172c a170 2732 642c 9a2a 4a6f 9d30
000000a0: 024a 4133 9f20 b22f b04d 6931 5c04 b531
000000b0: 6e19 952f ec96 c132 d0c3 9633 5c99 c931
000000c0: 6552 1931 62b0 7531 fd52 7c28 1a64 0633
000000d0: 4a80 9133 bce1 2e2c a79e 832f e513 6c2f
000000e0: 8817 ad28 0a15 7b32 ca5f b733 24ce f332
000000f0: 91e4 8432 6e4f 0b31 f1a7 8b31 9f3e 502b
7.806547e-10 2.8666305e-13 2.1548e-09 6.4010536e-08 1.2026977e-10 1.816229e-12 2.6993687e-09 2.1322846e-09
4.132832e-09 1.5626728e-13 1.3127679e-07 2.8296287e-07 9.135584e-09 4.6850706e-09 1.0352185e-12 3.967922e-09
3.954398e-12 5.3144827e-08 7.405924e-08 1.0013067e-07 5.6868263e-08 1.1630683e-09 1.75998e-08 3.7038847e-14
5.6574367e-09 1.3196842e-13 9.279349e-13 4.3360227e-10 2.3340535e-10 1.082829e-08 2.3295161e-08 8.940544e-09
1.1314126e-09 1.1486148e-09 1.968367e-08 1.5459832e-10 2.1560208e-12 9.746288e-09 2.7386698e-13 1.1454884e-09
4.5003624e-08 3.240119e-10 3.3950123e-09 5.268289e-09 2.712101e-10 2.2536788e-08 7.0205374e-08 5.867305e-09
2.2311266e-09 3.5752454e-09 1.4006805e-14 3.1290348e-08 6.775424e-08 2.4852195e-12 2.394149e-10 2.1471143e-10
1.9217063e-14 1.4614907e-08 8.5390255e-08 2.8382665e-08 1.5470762e-08 2.0272313e-09 4.064525e-09 7.398335e-13

exp_avg f4 [128, 64]
00000000: cc76 0fb1 33f6 b8b2 7652 0c36 2653 f8b3
00000010: 79f0 a635 05a9 27b3 234d 6535 8b05 6135
00000020: 643d 6cb5 b94d 8bb2 cc0f d8b3 3156 d1b4
00000030: 6c6b 1536 a08a 2f36 1f4b 91b2 0020 4036
00000040: eee0 f0b1 9474 2434 0c16 5f35 63f5 d934
00000050: 8012 fd35 1397 1c36 ea8d 0435 fad3 e8b2
00000060: 07b5 0d36 7020 c2b2 31c1 a2b2 0300 feb1
00000070: 89d8 f035 2a48 7336 3bdd c235 8060 1136
00000080: 30f8 6d36 123d d8b4 d1e9 e934 068a deb4
00000090: f041 21b3 361d 4e34 1130 b1b2 cd2e a4b1
000000a0: 7723 de35 3489 3fb6 b875 1a36 16b9 f9b4
000000b0: 3618 10b5 4941 3735 6817 0336 07c4 5c36
000000c0: dce8 8b36 a48b 9db4 b297 87b2 688f 5b36
000000d0: 69f6 8635 4a82 b6b2 9cf9 dfb4 8fd0 4f34
000000e0: 0cc4 a1b2 8077 b634 1300 ae35 0cf6 3d36
000000f0: a0a8 5635 8f4e 3d35 c630 1e36 2ea1 e4b2
00000100: 7083 bc34 79f7 61b2 7005 0835 e557 ec35
00000110: c08c ceb2 756e 80b2 a933 5836 0973 4536
00000120: 1046 aab4 e2bb 0bb3 f54e 0b36 1bbf 90b5
00000130: bdf7 7c35 7f1d 1e36 920e c1b1 cf0c 4136
00000140: 3dd1 22b2 3c52 fa34 24ac ab35 b355 7635
00000150: e1be 0635 6dc7 1636 f063 2e34 5a22 c7b2
00000160: 8a80 3836 b8ae 7cb2 160a a4b2 78bb 4bb2
00000170: af9b 3036 76cc d734 6d5c 9135 b268 1135
00000180: 654d 0236 21ec 3eb4 b7b9 0836 e558 65b4
00000190: 0f80 77b2 5791 da34 cde4 89b2 b95f b4b0
000001a0: 31aa 4836 cbd6 5fb6 92dc bd35 cf1d 2435
000001b0: 2fcf 0134 3a7f ccb5 d68b 8235 7878 1036
000001c0: ddc2 9935 81b4 b835 094a 59b2 5fdb e635
000001d0: 15b0 5f35 1b4d 16b2 a55c 92b4 e6cb bc34
000001e0: cfe2 2ab2 8284 1636 5cb3 f3b5 89d0 fa35
000001f0: 5a4b 1636 db3a 2235 097a f035 3312 e3b2
00000200: 7120 1d35 1a93 84b2 e962 e732 a014 c9b2
00000210: f9e5 03b4 3e2f b8b2 971f 2536 280c 2a36
00000220: 2831 0435 3b6b 01b3 5559 feb4 bb37 0cb4
00000230: e41c c035 46d1 4b36 b196 37b2 286f 3c36
00000240: 321c 54b2 1638 1434 8e1f 2d35 c80f cd34
00000250: bfad 6935 1e0c 2a36 e8bf fc34 9401 f0b2
00000260: 3ca9 2636 212f c7b2 f435 d3b2 e2b0 cab2
00000270: 4399 3636 2c02 d935 dd14 8335 b350 dc32
00000280: 8398 fb35 ede7 0db4 07c9 4236 af06 f6b2
00000290: 3888 a1b2 9569 33b5 cefa 81b2 c257 00b4
000002a0: c946 5236 fb6a 76b5 eb28 0836 ab89 b633
000002b0: 9c96 4c32 b5cc 3934 076d e134 d443 1e36
000002c0: 52ba 0736 a642 1ab5 768f a4b2 af99 1736
000002d0: d8f5 4235 862a 48b2 a56a 2fb4 56b4 3bb3
000002e0: b9c8 86b2 115e 3db4 7557 a1b5 6606 a134
000002f0: f8ed f533 b3c9 cfb2 f6c7 0436 49bc eeb2
00000300: 0000 0000 0000 0000 0000 0000 0000 0000
00000310: 0000 0000 0000 0000 0000 0000 0000 0000
00000320: 0000 0000 0000 0000 0000 0000 0000 0000
00000330: 0000 0000 0000 0000 0000 0000 0000 0000
00000340: 0000 0000 0000 0000 0000 0000 0000 0000
00000350: 0000 0000 0000 0000 0000 0000 0000 0000
00000360: 0000 0000 0000 0000 0000 0000 0000 0000
00000370: 0000 0000 0000 0000 0000 0000 0000 0000
00000380: 0000 0000 0000 0000 0000 0000 0000 0000
00000390: 0000 0000 0000 0000 0000 0000 0000 0000
000003a0: 0000 0000 0000 0000 0000 0000 0000 0000
000003b0: 0000 0000 0000 0000 0000 0000 0000 0000
000003c0: 0000 0000 0000 0000 0000 0000 0000 0000
000003d0: 0000 0000 0000 0000 0000 0000 0000 0000
000003e0: 0000 0000 0000 0000 0000 0000 0000 0000
000003f0: 0000 0000 0000 0000 0000 0000 0000 0000
-2.0876767e-09 -2.1532378e-08 2.0909624e-06 -1.15635245e-07 1.243795e-06 -3.903644e-08 8.5421397e-07 8.38271e-07
-8.8006186e-07 -1.6217074e-08 -1.0061157e-07 -3.8991996e-07 2.2265258e-06 2.6157722e-06 -1.6914383e-08 2.8628856e-06
-7.010491e-09 1.5316101e-07 8.3106056e-07 4.0597942e-07 1.8855353e-06 2.3333748e-06 4.9380344e-07 -2.710475e-08
2.111601e-06 -2.2599323e-08 -1.8947135e-08 -7.3923743e-09 1.7944413e-06 3.6251827e-06 1.4518513e-06 2.1662854e-06
3.5460216e-06 -4.027757e-07 4.3569756e-07 -4.1451148e-07 -3.7545703e-08 1.9195872e-07 -2.062737e-08 -4.778349e-09
1.655061e-06 -2.854108e-06 2.301631e-06 -4.6514532e-07 -5.367941e-07 6.8267815e-07 1.9534145e-06 3.2896658e-06
4.169631e-06 -2.934513e-07 -1.5785051e-08 3.2717016e-06 1.0055493e-06 -2.1246837e-08 -4.1718602e-07 1.935425e-07
-1.8832019e-08 3.398709e-07 1.2964032e-06 2.8306413e-06 7.9966594e-07 7.0522304e-07 2.3572225e-06 -2.661599e-08
3.5113362e-07 -1.31529925e-08 5.067186e-07 1.7608951e-06 -2.4045562e-08 -1.4951391e-08 3.2216578e-06 2.9422247e-06
-3.1715945e-07 -3.2534338e-08 2.0758573e-06 -1.0784455e-06 9.423782e-07 2.3561004e-06 -5.6186957e-09 2.8766697e-06
-9.477216e-09 4.6625962e-07 1.2790592e-06 9.176685e-07 5.0196655e-07 2.2467823e-06 1.624137e-07 -2.318227e-08
2.7492956e-06 -1.4708057e-08 -1.90967e-08 -1.1858781e-08 2.6316663e-06 4.0195636e-07 1.0830241e-06 5.416906e-07
1.941656e-06 -1.7781032e-07 2.037368e-06 -2.1359627e-07 -1.4406409e-08 4.0711413e-07 -1.6052946e-08 -1.312393e-09
2.9901387e-06 -3.3354615e-06 1.4145792e-06 6.113814e-07 1.2089434e-07 -1.5236212e-06 9.726452e-07 2.1527794e-06
1.1456101e-06 1.3761602e-06 -1.2647896e-08 1.7200181e-06 8.3330207e-07 -8.748681e-09 -2.7262027e-07 3.5166084e-07
-9.946873e-09 2.2428871e-06 -1.8157111e-06 1.8687143e-06 2.2395602e-06 6.043535e-07 1.791691e-06 -2.6434554e-08
5.8534266e-07 -1.5433717e-08 2.6936918e-08 -2.3408859e-08 -1.228399e-07 -2.1441902e-08 2.4605304e-06 2.533905e-06
4.9245364e-07 -3.013268e-08 -4.7376184e-07 -1.305879e-07 1.4313523e-06 3.037117e-06 -1.0686265e-08 2.8078884e-06
-1.2346435e-08 1.3803978e-07 6.449344e-07 3.8195708e-07 8.70521e-07 2.5339027e-06 4.7078288e-07 -2.7940395e-08
2.4834435e-06 -2.318808e-08 -2.4588168e-08 -2.3596332e-08 2.7209323e-06 1.6168392e-06 9.766333e-07 2.5648069e-08
1.8745344e-06 -1.3216022e-07 2.9025266e-06 -2.8641209e-08 -1.8804812e-08 -6.683634e-07 -1.513163e-08 -1.1952855e-07
3.133364e-06 -9.179782e-07 2.0289397e-06 8.500077e-08 1.1908607e-08 1.730394e-07 4.1988844e-07 2.3583316e-06
2.022502e-06 -5.7466457e-07 -1.9157351e-08 2.259021e-06 7.262838e-07 -1.1651201e-08 -1.6336942e-07 -4.3703345e-08
-1.5690931e-08 -1.7636218e-07 -1.2020888e-06 2.9993242e-07 1.1451988e-07 -2.4189694e-08 1.9785925e-06 -2.7792469e-08
0.0 0.0 0.0 0.0 0.0 0.0 0.0 0.0
0.0 0.0 0.0 0.0 0.0 0.0 0.0 0.0
0.0 0.0 0.0 0.0 0.0 0.0 0.0 0.0
0.0 0.0 0.0 0.0 0.0 0.0 0.0 0.0
0.0 0.0 0.0 0.0 0.0 0.0 0.0 0.0
0.0 0.0 0.0 0.0 0.0 0.0 0.0 0.0
0.0 0.0 0.0 0.0 0.0 0.0 0.0 0.0
0.0 0.0 0.0 0.0 0.0 0.0 0.0 0.0
