new_saved_models/v2_n1e6_sk1000.pt (torch, 529309 bytes, 24 tensors)

net.0.weight f4 [64, 2]
0	0xbe508084	-0.20361525
1	0x3f385ccf	0.72016615
2	0x3f17cdf3	0.5929863
3	0x3d85df25	0.06536702
4	0x3d87e878	0.06636137
5	0xbf004dc8	-0.50118685
6	0xbf31c2c0	-0.6943779
7	0xbf045690	-0.51694584
8	0xbec1f869	-0.37884834
9	0x3e573ac2	0.21018508
10	0x3f1b8ced	0.6076191
11	0xbee2a45a	-0.44266015
12	0xbe7b1e49	-0.24523272
13	0xbe927c60	-0.28610516
14	0xbec229a6	-0.379224
15	0xbea66cf0	-0.32504988
16	0x3e4926c7	0.19643699
17	0x3e55e756	0.20889029
18	0x3d727964	0.0591978
19	0xbecd107f	-0.40051648
20	0x3f27b4d9	0.65510327
21	0x3f48011d	0.781267
22	0x3f42aa0e	0.7604073
23	0xbe8101dc	-0.2519673
24	0xbe8ca8c4	-0.27472508
25	0x3dbada59	0.09123678
26	0x3e5e8018	0.21728551
27	0x3e001211	0.12506892
28	0x3eee6f2f	0.465692
29	0x3e974c70	0.29550505
30	0xbe82f65b	-0.2557858
31	0x3ec312f0	0.38100386
32	0xbf1e866d	-0.6192387
33	0xbea87703	-0.329033
34	0xbf2fb2c8	-0.68632174
35	0xbde18d97	-0.11013334
36	0xbf148b0f	-0.58024687
37	0x3e5a2097	0.21301495
38	0x3f4189a7	0.75600666
39	0xbec3fa97	-0.38277122
40	0xbf0bc36c	-0.54595065
41	0xbf1b8b2a	-0.6075922
42	0xbf30b56f	-0.69026846
43	0x34faec01	4.6737844e-07
44	0xbf1d217e	-0.6137923
45	0xbf105a22	-0.5638753
46	0xbdfb26ef	-0.12263285
47	0xbde35818	-0.11100787
48	0x3f208670	0.62705135
49	0xbf04f037	-0.5192904
50	0x3f4a149b	0.7893769
51	0x3ec92a74	0.39290202
52	0xbf1c1fc1	-0.6098595
53	0x3eaab554	0.33341467
54	0x3ee27703	0.44231424
55	0xbe728a0c	-0.23685473
56	0xbe979f5c	-0.2961377
57	0x3ee36efa	0.44420606
58	0xbee1084c	-0.43951643
59	0x3e44e746	0.19228849
60	0x3e067aa3	0.1313272
61	0x3ed57cd9	0.41696814
62	0xbd399690	-0.045309603
63	0xbe2ff909	-0.17184843
64	0xbf04c2d4	-0.51859784
65	0x3f084be5	0.53240806
66	0x3e7b0a10	0.24515557
67	0xbee71296	-0.45131367
68	0x3e1c6701	0.15273668
69	0xbe8eeee1	-0.27916625
70	0x3e2bddee	0.16783878
71	0xbed2cbdf	-0.41171166
72	0xbeed3e64	-0.46336663
73	0xbf2674ad	-0.65021783
74	0xbf37e5ff	-0.7183532
75	0xbb3e024f	-0.0028993075
76	0xbee0239f	-0.43777177
77	0x3dac14b1	0.08402384
78	0x3f079d28	0.52974176
79	0xbf079d2b	-0.52974194
80	0x3f00b577	0.50276893
81	0x3ec3703f	0.38171574
82	0x3f372260	0.7153683
83	0x3f178ea5	0.59202033
84	0x3ef18378	0.47170615
85	0x3e96515e	0.29358953
86	0x3e92afc1	0.28649715
87	0xbf248d85	-0.6427844
88	0x3ef986b8	0.48735595
89	0xbdbfc6d7	-0.093640976
90	0x3f22fbc5	0.6366542
91	0xbf1a0ca8	-0.6017556
92	0x3e78ab02	0.24283984
93	0xbeba8043	-0.3642598
94	0x3e06df6c	0.13171166
95	0x3ec69792	0.38787514
96	0xbf32322e	-0.6960782
97	0x3f3309e6	0.6993698
98	0xbe2e7b3b	-0.17039196
99	0x3f2c142d	0.67218286
100	0xbd3d279b	-0.04618035
101	0xbd182f4e	-0.03715449
102	0x3f0cc69c	0.54990554
103	0x3f3f9a3d	0.74844724
104	0x3f3359e9	0.70059067
105	0x3d351d69	0.0442175
106	0xbeb58ef3	-0.35460624
107	0xbf425aea	-0.75919974
108	0xbe6addb4	-0.22936136
109	0x3e86ed84	0.26353085
110	0x3f0e872d	0.5567501
111	0xbee2cd90	-0.44297457
112	0x3e42cd66	0.19023666
113	0x3f2f243b	0.6841466
114	0xbe87c7c6	-0.26519603
115	0x3e84bc93	0.2592512
116	0xbea41156	-0.32044476
117	0x3f2817c7	0.6566128
118	0xbf176441	-0.5913735
119	0x3f203b48	0.62590456
120	0x3f2c3c72	0.6727973
121	0xbef59be0	-0.47970486
122	0xbacb6868	-0.0015518786
123	0xbf2b80d8	-0.66993475
124	0xbeed1328	-0.46303678
125	0xbeb376cc	-0.35051572
126	0x3f281ab9	0.65665776
127	0xbec9f271	-0.3944278

net.0.bias f4 [64]
0	0x3e1f865b	0.15578596
1	0x3eae0322	0.33986765
2	0x3e827dea	0.2548669
3	0xbd40705e	-0.04698216
4	0x3f36b3f8	0.7136836
5	0xbef61c9a	-0.48068696
6	0x3e13964c	0.14412802
7	0xbeb39080	-0.35071182
8	0xbf380e4b	-0.7189681
9	0xbe41ad7c	-0.18913835
10	0xbee625ae	-0.44950622
11	0x3eda5e2d	0.42649975
12	0xbe1dd781	-0.1541424
13	0x3f3797b5	0.7171586
14	0xbf32deda	-0.69871294
15	0xbf353a19	-0.70791775
16	0x3f33941a	0.7014786
17	0x3e9e2960	0.30890942
18	0x3dd297f1	0.10282887
19	0xbe9feb4a	-0.312342
20	0x3e842b6e	0.25814384
21	0xbecc9c2c	-0.399629
22	0xbd8527c4	-0.06501725
23	0x3f16b1d3	0.5886509
24	0xbf36865e	-0.7129878
25	0xbe9fb67e	-0.31193918
26	0xbd63e9a6	-0.055642746
27	0xbed022ce	-0.40651554
28	0xbe83ac07	-0.25717184
29	0xbf155540	-0.58333206
30	0xbbfe18d3	-0.007754424
31	0xbe3e5dc3	-0.18590455
32	0xbf01ed4e	-0.50752723
33	0x3e1370bf	0.14398478
34	0xbe07af8c	-0.1325056
35	0xbd935bdc	-0.07195255
36	0xbf0c00a3	-0.5468847
37	0xbf35b32b	-0.70976514
38	0x3ebc4606	0.36772174
39	0xbf0079f1	-0.5018607
40	0x3e5f03f4	0.21778852
41	0x3dcf0489	0.10108287
42	0xbe90e348	-0.28298402
43	0x3f240210	0.6406565
44	0x3ec316a0	0.381032
45	0xbe8a7827	-0.27044794
46	0x3e57f2be	0.21088693
47	0xbed75145	-0.4205419
48	0x3ecbd1a9	0.39808396
49	0x3e51b255	0.20478185
50	0x3eddd5cf	0.43327186
51	0xbee7bf04	-0.4526292
52	0x3d897a13	0.06712737
53	0xbe6fdc2e	-0.23423836
54	0xbf12ac75	-0.572944
55	0xbeb0e746	-0.34551448
56	0x3f1d18b6	0.6136583
57	0xbee23756	-0.44182843
58	0x3e45fba9	0.19334282
59	0xbde75c2a	-0.11296876
60	0xbe11c161	-0.14233924
61	0x3ef2b8d6	0.47406644
62	0x3f17b840	0.5926552
63	0x3ecd64a5	0.40115848

net.2.weight f4 [128, 64]
0	0xbd156b69	-0.036479387
1	0x3d10ec6c	0.03538172
2	0xbde1c056	-0.11023013
3	0x3d02f890	0.03197533
4	0x3cc5694d	0.024098063
5	0x3d663b5e	0.05620896
6	0xbd39e8a6	-0.045387886
7	0x3d73ac48	0.059490472
8	0x3d1908b5	0.03736182
9	0xbd8251a3	-0.06363227
10	0xbdf1c125	-0.118044175
11	0xbcb02948	-0.02150406
12	0xbde0310a	-0.109468535
13	0xbaf3cc93	-0.0018600397
14	0x3d3e8927	0.046517517
15	0x3d9b6c6d	0.0758904
16	0xbcfef9ae	-0.031124916
17	0x3d71648d	0.058933783
18	0xbce27a2a	-0.027646143
19	0x3dae3a1f	0.085071795
20	0xbda35961	-0.07976032
21	0xbda85ba8	-0.08220607
22	0xbda8c04d	-0.082398035
23	0xbdca8169	-0.09887964
24	0xbc5e11eb	-0.013554077
25	0x3d11f7d0	0.035636723
26	0xbdf75895	-0.120774426
27	0x3cf01419	0.029306458
28	0xbd0f875c	-0.035041198
29	0x3c703960	0.014662117
30	0xbdbc3be6	-0.09191112
31	0x3deae90c	0.114702314
32	0xbdd208c1	-0.10255576
33	0xbd9cda95	-0.07658879
34	0x3cd5cf1a	0.02609973
35	0xbdc487c2	-0.09596206
36	0x3dcd12e8	0.10013372
37	0xbde8f25d	-0.11374352
38	0xbcf513a8	-0.0299166
39	0xbcc92785	-0.024554977
40	0xbdd13c19	-0.10216541
41	0x3c59ad20	0.013285905
42	0x3dfc81dc	0.12329456
43	0xbc40a2fd	-0.011757609
44	0x3d28171d	0.041037668
45	0x3d2121cc	0.03933887
46	0xbcb0c95e	-0.021580394
47	0x3df0ed15	0.1176397
48	0xbdb19f14	-0.0867292
49	0x3d8007d2	0.062514916
50	0xbdeecc1c	-0.116600245
51	0x3cb5d272	0.022195075
52	0xbd550998	-0.052011102
53	0xbd5502f1	-0.05200476
54	0x3c02d65e	0.007985679
55	0x3d572fba	0.05253575
56	0x3dd28ee2	0.10281159
57	0xbdbd2182	-0.09234907
58	0x3d400f44	0.04688956
59	0xbd4242a3	-0.04742683
60	0xbdcacb34	-0.09902039
61	0xbd05fa44	-0.032709375
62	0xbc982fe1	-0.018577518
63	0x39ecfe3a	0.0004520284
64	0xbd81fd4d	-0.063471414
65	0x3d8f2e94	0.06991306
66	0xbdb5bbc8	-0.08873707
67	0x3d0f6eb5	0.035017688
68	0x3c9bcf1b	0.019019654
69	0x3d3c6801	0.045997623
70	0xbdf8fb5f	-0.1215732
71	0xbd54b6ee	-0.051932268
72	0x3cea2bd8	0.02858536
73	0xbddd5e7c	-0.10809037
74	0xbbd74b04	-0.006570222
75	0x3cfef2e4	0.031121679
76	0xbd3f3c5a	-0.046688415
77	0xbcf1c118	-0.02951102
78	0x3d268c0a	0.040660895
79	0x3cfe7c63	0.031065172
80	0xbdb56e05	-0.08858875
81	0xbda1ebec	-0.07906327
82	0xbd96f68a	-0.07371242
83	0x3c216762	0.009851309
84	0xbc062c30	-0.008189246
85	0x3b36cb2d	0.0027892098
86	0x3bbe1b03	0.00580156
87	0x3cfab5ca	0.030604262
88	0x3e06c624	0.13161522
89	0x3e1df505	0.15425499
90	0x3e365256	0.17804846
91	0xbd40bac1	-0.047053102
92	0xbd3be49b	-0.045872312
93	0xbc43be29	-0.011947193
94	0xb96c8d59	-0.0002255937
95	0xbd0bd1ee	-0.03413575
96	0xbd1f2399	-0.038852308
97	0x3e0caac8	0.13737023
98	0x3be1ff72	0.0068969065
99	0x3d7db6ea	0.06194202
100	0xbd7a2554	-0.061070755
101	0xbbb7405b	-0.0055923886
102	0xbc742d3b	-0.014903362
103	0xbd9f6f40	-0.07784891
104	0x3d9f6b4e	0.077841386
105	0x3da150b8	0.07876724
106	0xbe13b2cd	-0.14423676
107	0xbc469fab	-0.012123029
108	0x3dee95c2	0.11649658
109	0x3d2b3928	0.041802555
110	0xbdbe80f9	-0.09301943
111	0x3dea44aa	0.11438878
112	0xbd38a258	-0.045076698
113	0x3d908c08	0.07057959
114	0xbdfbbcf7	-0.122919016
115	0x3d86f3b4	0.065894514
116	0x3e05af19	0.13055076
117	0xbe4dbae9	-0.20090832
118	0xbdaa83e2	-0.08325936
119	0xbd8fd9be	-0.07023953
120	0x3e08524a	0.13312641
121	0xbca9bd06	-0.020720016
122	0xbc98530b	-0.018594285
123	0x3ddfeba2	0.10933615
124	0x39e669fe	0.0004394799
125	0xbdd529ff	-0.10408401
126	0xbd459897	-0.048241224
127	0x3d958129	0.07300026
128	0x3d84261f	0.064525835
129	0xbdd80e7e	-0.10549639
130	0x3e08c488	0.1335622
131	0x3d3204b2	0.04346151
132	0xbdb7a70b	-0.08967408
133	0x3cba4b16	0.022740882
134	0x3dbadf4c	0.09124622
135	0xbc8623bf	-0.016374467
136	0x3d8462a9	0.064641304
137	0x3db5858b	0.08863362
138	0xbd9f7735	-0.07786409
139	0xbbac9cfd	-0.005267738
140	0x3e195d4c	0.14976996
141	0xbd59d36c	-0.053180143
142	0xbde1d10a	-0.11026199
143	0xbd5cf5b1	-0.053945247
144	0x3df3a51e	0.11896728
145	0x3d66b39c	0.056323633
146	0x3c5e72c7	0.01357717
147	0x3cb895d4	0.022532381
148	0x3e280b90	0.1641066
149	0x3d8c46fc	0.06849477
150	0xbda02a24	-0.07820538
151	0x3dad03a5	0.08447961
152	0x3e121113	0.14264326
153	0x3d57414b	0.052552503
154	0xbe0488dc	-0.12942833
155	0x3e2e9dcb	0.1705238
156	0xbcee44c3	-0.029085523
157	0xbd04baf1	-0.032404844
158	0x3c8ba0da	0.017044473
159	0x3da85b6b	0.082205616
160	0xbd875f09	-0.066099234
161	0xbd9e91c0	-0.07742643
162	0x3d5f4505	0.05450918
163	0x3d453f0c	0.04815583
164	0x3df1199f	0.11772465
165	0x3d8e6f78	0.06954855
166	0xbd38dd2c	-0.0451328
167	0xbd1c5a72	-0.038172193
168	0xbd123e02	-0.035703667
169	0xbdbb7f94	-0.09155193
170	0xbc1c5597	-0.009541891
171	0xbd7f39d3	-0.062311005
172	0x3df5de4a	0.12005289
173	0x3da5905e	0.080841765
174	0x3db5abb8	0.088706434
175	0xbd41b4d8	-0.047291607
176	0x3df364ca	0.11884458
177	0x3d4a770e	0.049429946
178	0xbd29c0e6	-0.041443728
179	0xbd3a6ac8	-0.04551199
180	0xbc5a608f	-0.013328685
181	0x3de744a0	0.11292386
182	0x3dbb6b4c	0.09151325
183	0x3df08b60	0.11745334
184	0xbd8708a3	-0.06593444
185	0x3c4e395d	0.012586919
186	0x3db8875e	0.09010194
187	0xbd0195e6	-0.031637095
188	0x3dd58baf	0.10427033
189	0xbcaac85e	-0.020847496
190	0xbc9ba6b4	-0.019000389
191	0x3da22576	0.07917301
192	0xbd8cf4b8	-0.06882614
193	0x3e12d184	0.14337736
194	0xbc931497	-0.017954154
195	0xbc9216ec	-0.017833196
196	0xbdaa3480	-0.08310795
197	0x3d8168dc	0.063188285
198	0xbe5f9dbb	-0.21837513
199	0x3caed27c	0.021340601
200	0x3dc967b5	0.09834234
201	0xbe27aad0	-0.16373754
202	0xbac09cc5	-0.0014695158
203	0xbccb7e83	-0.024840599
204	0x3d7a505b	0.06111179
205	0x3cd70dc6	0.026251685
206	0xbba43c6d	-0.005012086
207	0x3d8266b5	0.06367246
208	0xbdc9578e	-0.09831153
209	0xbc92b6ba	-0.017909396
210	0xbb10a01e	-0.0022068094
211	0xbd17cba0	-0.037059426
212	0xbd9047d6	-0.070449516
213	0x3d60f295	0.054918844
214	0xbd84adee	-0.06478487
215	0xbd7b055c	-0.061284408
216	0xbd023703	-0.031790745
217	0xbd84145b	-0.06449195
218	0x3e53a42e	0.20668098
219	0x3d13dc64	0.036098853
220	0xbcb88e7f	-0.022528885
221	0x3dd303f0	0.103034854
222	0x3e023415	0.1271518
223	0xbe175391	-0.14777972
224	0xbc7c732f	-0.015408321
225	0xbd138e16	-0.036024176
226	0xbd924587	-0.071421675
227	0xbe0f463e	-0.13991639
228	0xbd5018d1	-0.050804917
229	0xbde6f636	-0.1127743
230	0x3de16e16	0.11007325
231	0xbe1a7db1	-0.1508701
232	0x3e2a7e72	0.16649798
233	0x3e33a906	0.17544946
234	0x3db53014	0.08847061
235	0xbd873803	-0.0660248
236	0xbd49ded7	-0.049284782
237	0x3d616756	0.05503019
238	0xbdb2011b	-0.08691617
239	0x3d692075	0.05691572
240	0xbcc5b8dc	-0.024136
241	0xbc64ac80	-0.013957143
242	0xbd75ac2f	-0.05997866
243	0x3d9e911e	0.07742523
244	0x3d2d50da	0.042313434
245	0xbbda2c73	-0.006658131
246	0x3c017e22	0.007903608
247	0x3d85cc52	0.06533112
248	0xbc412987	-0.011789686
249	0xbd51a6cd	-0.051184464
250	0xbdacf1f8	-0.084445894
251	0x3d06c9f5	0.032907445
252	0xbd40c6b4	-0.047064498
253	0xbbdc5de2	-0.006725059
254	0xbe00ffc6	-0.1259757
255	0x3cd41644	0.025889523

net.2.bias f4 [128]
0	0x3ce74444	0.028230794
1	0xbdeb92bc	-0.11502597
2	0xbbc04445	-0.0058675134
3	0x3dbf69b5	0.09346334
4	0x3d1bac5b	0.038006168
5	0xbd0a52da	-0.03377042
6	0xbda0c3ba	-0.07849832
7	0xbd662941	-0.056191687
8	0x3e0bef72	0.1366556
9	0xbd4cf7b9	-0.050040934
10	0x3ddd17ae	0.10795532
11	0x3ce0ab98	0.027425572
12	0xbd97a5bc	-0.07404658
13	0xbca26722	-0.019824568
14	0xbca3e2df	-0.020005642
15	0x3e0e1e0b	0.13878648
16	0xb95cae38	-0.00021045737
17	0x3d27017e	0.040772907
18	0x3e3c4f67	0.18389665
19	0xbd77ab20	-0.060465932
20	0x3d6752f1	0.056475583
21	0x3e3100af	0.17285417
22	0x3db1a19b	0.08673402
23	0x3e12581c	0.14291424
24	0x3deca3b2	0.1155466
25	0x3db7239c	0.08942339
26	0x3d53e748	0.05173424
27	0xbdad74f8	-0.08469576
28	0x3d1267a2	0.035743363
29	0x3d03c620	0.03217137
30	0xbdbb5cb1	-0.09148539
31	0xbdc6f66c	-0.0971497
32	0xbc821d36	-0.01588307
33	0x3c980060	0.018554866
34	0x3db7cde6	0.08974819
35	0xbd32114c	-0.043473527
36	0xbc842380	-0.016130209
37	0x3da7e645	0.08198217
38	0xbc848de8	-0.016180947
39	0xbd0d7f00	-0.034544945
40	0xbd3c6de8	-0.046003252
41	0x3d30770b	0.04308228
42	0x3d1bf1ac	0.038072273
43	0xbd8843ad	-0.06653533
44	0x3cbf92a6	0.023385357
45	0x3d865bfd	0.06560514
46	0xbdbe2d0c	-0.09285936
47	0xbc3c4f90	-0.011493579
48	0xbbd7c17e	-0.0065843454
49	0xbbfa9e05	-0.007648232
50	0x3e0a2819	0.13491859
51	0x3d03c335	0.032168586
52	0xbd8d34d8	-0.06894845
53	0x3d72ff2b	0.05932538
54	0x3dd7f266	0.10544281
55	0xbd384cfb	-0.04499529
56	0x3c8f590a	0.017498512
57	0x3d4e38eb	0.05034725
58	0xbd6414ac	-0.055683777
59	0xbdf1adca	-0.11800726
60	0xbd93c149	-0.072146006
61	0x3dfeed61	0.1244762
62	0xbca668b8	-0.020313606
63	0xbdbc8d92	-0.0920669
64	0x3c258939	0.010103517
65	0x3ccf054a	0.025271077
66	0x3b8fcadf	0.004388198
67	0xbc9f88f8	-0.019474491
68	0xbdb9a9a2	-0.09065558
69	0xbdd58c18	-0.104271114
70	0x3d1488a6	0.03626313
71	0x3d8b2f59	0.0679614
72	0xbd823872	-0.06358422
73	0xbcb574e8	-0.022150472
74	0xbd53a62f	-0.051672157
75	0x3d6cb6c3	0.057791483
76	0xbd203d97	-0.039121237
77	0x3de703d0	0.11280024
78	0xbcee54a6	-0.029093098
79	0x3d3b45fb	0.045721035
80	0x3d379499	0.04481945
81	0xbd9b85e8	-0.075939
82	0xbdb6dead	-0.08929191
83	0x3dcb3fc8	0.09924275
84	0xbd04d52c	-0.03242986
85	0x3dc577d4	0.09641996
86	0x3dcd65e3	0.10029199
87	0x3dbfcb71	0.09364975
88	0x3c887c35	0.016660789
89	0xbd94a840	-0.07258654
90	0x3d0d7c9f	0.034542676
91	0x3e17b60f	0.14815544
92	0x3e30b00a	0.17254654
93	0xbda867ff	-0.08222961
94	0x3de1f738	0.11033481
95	0x3d675d82	0.05648566
96	0x3e1461ed	0.1449048
97	0x3d8ec22f	0.06970631
98	0x3d16fafd	0.036860455
99	0x3dd3e7a3	0.103469156
100	0x3ddfeedf	0.10934233
101	0x3d5083e5	0.050907034
102	0xbcf616a8	-0.0300401
103	0xbd257898	-0.04039821
104	0xbd3cb39c	-0.046069726
105	0xbdaa76d9	-0.0832345
106	0x3dc8e3da	0.09809084
107	0x3e12358c	0.14278239
108	0x3c98ae39	0.018637763
109	0xbd190024	-0.03735365
110	0x3e2a01f5	0.16602309
111	0xbddfeee5	-0.109342374
112	0xbdfcf750	-0.123518586
113	0x3c2fbdae	0.0107263755
114	0x3e37134c	0.17878455
115	0xbceda469	-0.029009061
116	0x3c5ae250	0.013359621
117	0x3bbee7f7	0.005825992
118	0x3db1d6fc	0.08683583
119	0xbcfbcc27	-0.030736996
120	0x3cfedb3e	0.031110402
121	0xbc75b3c0	-0.014996469
122	0x3d984d88	0.07436663
123	0x3db5a280	0.08868885
124	0x3e123451	0.1427777
125	0x3e1a2422	0.15052846
126	0xbb4fde7c	-0.0031718304
127	0xbd79df44	-0.06100394

net.4.weight f4 [256, 128]
0	0xbda93709	-0.0826245
1	0x3d9a7a5f	0.07542872
2	0x3d569588	0.052388698
3	0x3e2d0ca1	0.16899349
4	0x3e008949	0.1255237
5	0xb9e6d566	-0.00044028013
6	0x3bded4b1	0.006800257
7	0x3de88389	0.11353213
8	0x39f6d5ee	0.00047080166
9	0x3e241f09	0.16027464
10	0x3e1b129c	0.15143818
11	0xbd72f698	-0.0593172
12	0x3d5d1e21	0.05398381
13	0xbd3a8b82	-0.0455432
14	0x3da1263a	0.07868619
15	0x3e21da0d	0.15805836
16	0x3d2696a7	0.040671017
17	0x3d868dbc	0.065700024
18	0xbc7c5129	-0.015400209
19	0x3aecd448	0.0018068636
20	0x3e2ed831	0.17074658
21	0x3d11daec	0.03560917
22	0x3d74d2d1	0.059771363
23	0xbcb97615	-0.022639314
24	0x3deffad2	0.11717762
25	0xbc777842	-0.015104355
26	0x3d1a056c	0.037602827
27	0x3c823564	0.0158946
28	0xbdda161d	-0.10648749
29	0x3d8c27f5	0.06843559
30	0x3cc57e7b	0.024108162
31	0x3df8d91c	0.12150785
32	0xbcaf3277	-0.021386368
33	0xbd38f9d5	-0.045160133
34	0x3d9ec72c	0.07752833
35	0xbb792691	-0.0038017372
36	0x3dacbdcc	0.084346384
37	0x3b6daed6	0.003626754
38	0xbdb1e41a	-0.08686085
39	0xbc30992d	-0.010778707
40	0xbd9006dd	-0.07032559
41	0x3e2ce800	0.16885376
42	0xbdc40cb5	-0.09572736
43	0x3b8d358e	0.0043093627
44	0x3d778cf3	0.060437154
45	0xbbc0f18a	-0.0058881687
46	0x3d97b9d7	0.07408493
47	0x3da9e6d4	0.0829598
48	0x3dc956f8	0.09831041
49	0x3e015905	0.12631615
50	0xbda77104	-0.08175853
51	0x3c69d2f6	0.014271488
52	0xbd561a7d	-0.052271355
53	0xbd43f4c3	-0.047840845
54	0x3dcf646c	0.10126576
55	0x3e07cf7f	0.13262747
56	0x3e11d774	0.14242345
57	0xbd030a7f	-0.03199243
58	0x3d783dff	0.060606
59	0x3dce00af	0.10058724
60	0x3e37d035	0.17950518
61	0xbdca45e4	-0.09876612
62	0xbd35eb6b	-0.044413965
63	0xbc0a300b	-0.008434306
64	0xbc0464b0	-0.008080646
65	0x3d44f735	0.048087317
66	0x3d4f564d	0.050619412
67	0x3c18c6a6	0.009324705
68	0xbd2f0af2	-0.042735048
69	0xbcc2655b	-0.02372997
70	0x3e1476d0	0.14498448
71	0x3ddbbf39	0.10729832
72	0x3e122c21	0.14274646
73	0x3d26a82f	0.040687736
74	0x3daa2cce	0.08309327
75	0x3ca0204d	0.019546652
76	0x3db9714c	0.09054813
77	0xbc5989f8	-0.013277523
78	0x3df3a7c4	0.11897233
79	0x3d6c7fc3	0.05773903
80	0x3e083997	0.13303219
81	0xbc863728	-0.016383722
82	0x3cbb0aae	0.02283224
83	0x3dcf6d29	0.101282425
84	0x3d78565e	0.06062924
85	0x3c1292eb	0.008946161
86	0xbda258f0	-0.0792712
87	0xbdd1e7db	-0.10249301
88	0x3d834a6f	0.064106815
89	0x3d92a6f9	0.07160754
90	0x3bbe0f52	0.005800166
91	0x3b424b87	0.0029647069
92	0xbcb98871	-0.022648068
93	0x3d86076b	0.065443836
94	0x3d3c8fd0	0.046035588
95	0xbd9d054c	-0.07667026
96	0x3caa91f1	0.020821543
97	0x3d98f2ed	0.074682094
98	0xbdbdd8ba	-0.09269853
99	0x3d55389c	0.05205594
100	0x3d7dbe18	0.061948866
101	0x3d371b20	0.044703603
102	0xbd92ce65	-0.07168273
103	0x3be61642	0.0070216963
104	0x3bf54c93	0.007485935
105	0xbc29c9bf	-0.010363041
106	0x3dd17a6f	0.102284305
107	0x3bfb7bff	0.0076746936
108	0xbd94984d	-0.072556116
109	0x3d9622f3	0.07330885
110	0xbd95212e	-0.07281719
111	0x3e01975d	0.12655397
112	0xbda89894	-0.08232227
113	0xbdf7fa04	-0.121082336
114	0xbd26ae0e	-0.040693335
115	0x3d057fb2	0.032592483
116	0xbd9b0827	-0.07569914
117	0x3d14dada	0.036341526
118	0x3dd68906	0.10475354
119	0x3e074220	0.13208818
120	0x3e06cf8a	0.13165107
121	0x3db0397c	0.08604714
122	0x3e16ff69	0.14745869
123	0x3dced44f	0.100990884
124	0x3d562666	0.052282713
125	0xbdb240fd	-0.08703802
126	0x3cbdb563	0.023157781
127	0xbd98213e	-0.074282154
128	0x3d566a04	0.052347198
129	0x3d55a172	0.05215592
130	0x39d6bf13	0.00040959622
131	0x3c4f80b5	0.0126649635
132	0xbd89457d	-0.06702707
133	0xbd8dfdf2	-0.06933202
134	0xbd2147a8	-0.039374977
135	0x3d69fc94	0.057125643
136	0xbd8f9c6a	-0.070122555
137	0xbce9a750	-0.028522164
138	0x3cbae82a	0.022815783
139	0x3d468582	0.048467167
140	0x3d2b7555	0.041859943
141	0x3d0f752a	0.035023846
142	0xbcc1642d	-0.023607338
143	0x3afccc1a	0.0019286901
144	0x3b57ba02	0.0032917266
145	0xbc1b8426	-0.009491956
146	0xbc991079	-0.018684613
147	0xbdbe63c7	-0.09296375
148	0x3cf59b52	0.029981289
149	0x3ca6c43d	0.020357246
150	0x3ca42ff3	0.020042395
151	0xbdb52b73	-0.08846178
152	0xbc9c119a	-0.019051362
153	0xbd8996c9	-0.06718213
154	0x3c464bc5	0.012103026
155	0xbb5b7d06	-0.0033491268
156	0x3d8f6062	0.070008054
157	0xbc78242b	-0.015145342
158	0xbd3aa12b	-0.045563858
159	0x3cd3c2b9	0.025849687
160	0xbd9f3e9a	-0.07775612
161	0xbcd2cd87	-0.025732769
162	0xbcb456de	-0.022014078
163	0xbd98aa7a	-0.07454391
164	0xbd40b5e6	-0.047048472
165	0x3d442057	0.047882404
166	0xbd5a563c	-0.053304896
167	0x3be9bef1	0.0071333577
168	0x3c92845e	0.017885383
169	0xbdb533a9	-0.08847744
170	0x3da0c792	0.07850565
171	0xbdb7cb86	-0.08974366
172	0xbd98d92e	-0.07463299
173	0x3d6367e3	0.055518996
174	0xbd2f7369	-0.042834673
175	0xbd1a3bd1	-0.0376547
176	0x3cf37d8b	0.02972295
177	0x3d92e5c2	0.07172729
178	0xbcfabf32	-0.030608747
179	0xbd96aeb9	-0.073575445
180	0xbd951b02	-0.07280542
181	0xbd9404c2	-0.0722747
182	0x3d88307b	0.06649872
183	0x3d4db3e6	0.050220393
184	0xbd01e2fa	-0.031710602
185	0xbbcbb4d4	-0.0062166248
186	0x3d9904b0	0.07471597
187	0x3da1275e	0.07868837
188	0xbd39ffad	-0.045409847
189	0xbd47aafb	-0.048747044
190	0x3cd8680f	0.026416807
191	0xbd8af629	-0.067852326
192	0xbc56e4f4	-0.01311611
193	0x3d8a0574	0.06739321
194	0xbb4908fe	-0.0030675526
195	0x3c94c8fe	0.018162247
196	0x3d09f3a7	0.03367963
197	0xbc6d3454	-0.014477808
198	0xbdb1003e	-0.08642624
199	0x3da43002	0.08016969
200	0x3c9136f1	0.017726393
201	0xbca8bb19	-0.020597028
202	0x3d7b9ae1	0.061427
203	0x3d73662f	0.05942362
204	0x3d5984e5	0.053105254
205	0x3d8c0942	0.06837703
206	0x3d214e03	0.03938104
207	0x3d42060f	0.04736906
208	0xbcf9f306	-0.03051139
209	0xbd365925	-0.04451861
210	0x3d587345	0.052844305
211	0xbd907ee5	-0.07055453
212	0x3d172394	0.036899164
213	0x3cb5edc7	0.022208108
214	0x3cc12a14	0.023579635
215	0x3d7d30ac	0.061813995
216	0xbd901535	-0.07035295
217	0xbd7c5453	-0.061603855
218	0xbd21824f	-0.039430913
219	0x3d66d882	0.05635882
220	0xbbc18655	-0.005905906
221	0xbdbabb58	-0.09117764
222	0x3cf66d5c	0.030081443
223	0xbd46c77f	-0.048530098
224	0xbcf859ce	-0.03031626
225	0xbcb7a055	-0.02241532
226	0x3c923f85	0.017852554
227	0xbc5ff23b	-0.013668592
228	0x3b8ca22f	0.0042917947
229	0xbd781019	-0.060562227
230	0x3d15af8d	0.03654437
231	0x3d5c073b	0.053717833
232	0xbcede209	-0.029038446
233	0xbdc13cc3	-0.094354175
234	0xbda7f1f3	-0.08200445
235	0x3da32713	0.07966437
236	0x3d8554b7	0.06510299
237	0xbda268a5	-0.079301156
238	0x3d8d8def	0.06911837
239	0xbd1d3543	-0.038380872
240	0xbd8ba79c	-0.06819078
241	0x3c5b0fba	0.013370449
242	0xbdb8b315	-0.09018532
243	0x3bd2d12d	0.006433627
244	0x3d9d6ce5	0.076867856
245	0xbda12c10	-0.078697324
246	0xbc897875	-0.016781071
247	0x3d7aadff	0.06120109
248	0xbcda21ed	-0.026627505
249	0x3d85fc15	0.065422215
250	0x3d98a4ce	0.07453309
251	0xbc120c54	-0.008914072
252	0xbda7750b	-0.08176621
253	0x3d48ba8d	0.049006034
254	0xbd196e9b	-0.037458997
255	0xbda6ea27	-0.0815013

net.4.bias f4 [256]
0	0xbdc08bc5	-0.09401659
1	0xbd2d3d83	-0.04229499
2	0xbcf9f756	-0.030513447
3	0xbda9a4c2	-0.08283378
4	0xbca99708	-0.0207019
5	0x3b913086	0.0044308333
6	0xbcfc1411	-0.030771287
7	0x3d2733dd	0.040820945
8	0x3cb6177e	0.022227999
9	0xbc7827d8	-0.015146218
10	0xbbdf5495	-0.006815503
11	0xbd2a06c9	-0.041510377
12	0x3d458efd	0.048232067
13	0xbd81b473	-0.06333246
14	0xbd0ffa8c	-0.03515105
15	0x3d1ff0a0	0.039047837
16	0x3bc641c9	0.0060503227
17	0xbd7a12fc	-0.06105326
18	0xbd6f4dd4	-0.058423832
19	0x3cdc8700	0.026919842
20	0xbd977c7c	-0.073967904
21	0xbca5ba2a	-0.020230372
22	0xbde31669	-0.11088259
23	0x3cbc79a7	0.023007227
24	0x3d90f184	0.070773154
25	0xbd97691b	-0.07393094
26	0x3cb9c18a	0.022675294
27	0xbd679ddf	-0.056547042
28	0xbdcdbe5c	-0.10046074
29	0xbbf84d5d	-0.007577582
30	0x3d0b533d	0.03401493
31	0xbc0d8756	-0.008638224
32	0x3c154b1d	0.009112147
33	0xbd2c7163	-0.04210032
34	0xbdbc7570	-0.09202087
35	0x3dad9f17	0.084776096
36	0xbd2a44c8	-0.0415695
37	0xbd8d0e2d	-0.068874694
38	0x3d2371a1	0.039903287
39	0xbd90d428	-0.070717156
40	0xbd913f1d	-0.07092116
41	0x3d485c94	0.048916414
42	0x3d63c67b	0.055609208
43	0xbc90df0e	-0.017684486
44	0xbdbb758e	-0.09153281
45	0xbd463678	-0.04839179
46	0xbdf5243f	-0.11969804
47	0x3cb02fe4	0.021507211
48	0xbd85e12a	-0.06537087
49	0xbda60faa	-0.081084564
50	0xbcec744c	-0.028864048
51	0xbbba1f23	-0.0056799813
52	0x3d318519	0.043339822
53	0x3d997934	0.07493821
54	0x3da0414e	0.07824956
55	0x3c428825	0.01187328
56	0x3d3d4da6	0.04621663
57	0x3cc97e6c	0.024596415
58	0xbd8b9406	-0.068153426
59	0x3dcfc4d7	0.10144966
60	0xbc710aff	-0.014712094
61	0x3d728d27	0.059216645
62	0xbd845886	-0.06462197
63	0xbdeb460a	-0.11487968
64	0xbda10450	-0.07862151
65	0x3cefde00	0.029280663
66	0x3ca6fb27	0.02038343
67	0x3d80dc53	0.062920235
68	0xbdd49bc8	-0.103812754
69	0x3c81b885	0.015835056
70	0xbd82c404	-0.06385043
71	0xbd87521a	-0.066074565
72	0x3d2ce2ff	0.042208668
73	0xbd35d887	-0.04439595
74	0xbaa562a9	-0.0012617904
75	0xbd8fdefb	-0.07024952
76	0xbd981a58	-0.074269
77	0xbaea2fe1	-0.0017867052
78	0xbc92f61c	-0.01793962
79	0x3db0225e	0.08600305
80	0xbc254c55	-0.010089
81	0xbdb41412	-0.087928906
82	0xbd08106c	-0.033218786
83	0xbd6c0822	-0.057624944
84	0xbd32b4cb	-0.04362945
85	0xbadcfd4f	-0.001686016
86	0xbdc3bc28	-0.09557372
87	0xbc565f0b	-0.013084183
88	0xbb8f3649	-0.004370485
89	0x3c0cf5c2	0.008603515
90	0xbd44cd85	-0.04804756
91	0xbd60157c	-0.05470799
92	0xbdab010c	-0.08349809
93	0x3d0e3698	0.034720033
94	0xbd202455	-0.03909715
95	0x3cd7bfa4	0.026336499
96	0x3d69462c	0.056951687
97	0xbd7b0400	-0.06128311
98	0xbcde7d4f	-0.027159361
99	0x3d0d86bd	0.034552325
100	0x3c177108	0.009243257
101	0xbd87460a	-0.06605156
102	0xbcb04bba	-0.021520484
103	0xbd9a19ad	-0.075244285
104	0xbd6df831	-0.058098022
105	0xbd0375bd	-0.032094706
106	0xbd150265	-0.036379237
107	0xbdbc580c	-0.09196481
108	0x3b75fc1d	0.0037534304
109	0xbd713d3a	-0.05889628
110	0x3a3e4ef3	0.0007259689
111	0xbdafef73	-0.08590593
112	0xbda30271	-0.0795945
113	0x3ca8aaf7	0.020589335
114	0xbd1753d2	-0.03694517
115	0x3c8e38aa	0.017361004
116	0xbd676093	-0.056488585
117	0xbd8c6734	-0.06855622
118	0xbd1d20a8	-0.03836122
119	0xbbc78127	-0.006088394
120	0x3c7cf0f4	0.015438307
121	0xbd8ec110	-0.069704175
122	0xbaac7260	-0.0013156645
123	0xbdc775d4	-0.09739271
124	0xbd26be09	-0.040708575
125	0x3d912380	0.07086849
126	0xbd710aea	-0.0588483
127	0xbcc275fe	-0.023737904
128	0xbd585f6f	-0.052825388
129	0xba8bc38d	-0.0010663137
130	0xbcb99739	-0.022655116
131	0x3d25f273	0.04051442
132	0xbd8eca1e	-0.069721445
133	0xbd8d797a	-0.069079354
134	0x3d2d273b	0.04227374
135	0x3b9f68ad	0.0048647732
136	0x3cd7fb9b	0.026365092
137	0xbd6f508a	-0.058426417
138	0xbde441ce	-0.11145364
139	0xbcea9b10	-0.028638393
140	0xbc44a94b	-0.012003253
141	0xbdad573a	-0.08463903
142	0x3ce3b9fb	0.027798643
143	0x3d2fd26b	0.04292528
144	0xbddb1019	-0.1069643
145	0x3d3f6ea1	0.046736363
146	0x3cbdb2b9	0.02315651
147	0xbd9bdd88	-0.07610613
148	0x3d31ab8f	0.0433765
149	0xbbcd49e0	-0.00626491
150	0xbc5b9fc5	-0.013404791
151	0xbcfb19f0	-0.030652016
152	0x3d593b43	0.053035032
153	0x3d7e584b	0.06209592
154	0x3c3ac099	0.011398458
155	0xbd6bbd2d	-0.05755346
156	0x3db7e254	0.089787155
157	0xbdaf28d2	-0.08552708
158	0xbc873cbe	-0.016508456
159	0xbde8f6e0	-0.11375213
160	0xbd958471	-0.07300652
161	0xbd414043	-0.047180425
162	0x3c353ee5	0.0110623585
163	0xbdb5051e	-0.08838867
164	0x3d364478	0.04449889
165	0x3d3dd4ed	0.04634564
166	0xbc9fb27f	-0.019494293
167	0xbd8df9bd	-0.069323994
168	0x3d25ee20	0.040510297
169	0x3d988dc4	0.07448915
170	0x3c4c37c7	0.01246447
171	0xbd069d58	-0.0328649
172	0x3d08d0f5	0.033402402
173	0x3d444dff	0.047925945
174	0xbc9a04c1	-0.018801095
175	0x3d06b278	0.032885045
176	0xbd97e6de	-0.07417081
177	0x3db1f9bb	0.086902104
178	0xbdfa1295	-0.122105755
179	0xbdc70de7	-0.097194485
180	0xbc303df3	-0.010756957
181	0xbd7e6110	-0.062104285
182	0xbdb36e15	-0.08761231
183	0x3da67257	0.08127277
184	0xbd96e14d	-0.073671915
185	0x3c589db5	0.013221194
186	0xbd8dfe8f	-0.06933319
187	0xbcbe91e6	-0.02326293
188	0xbdbe0cbd	-0.092797734
189	0xbc04720f	-0.008083834
190	0x3c580555	0.013184865
191	0x3da97f6a	0.082762554
192	0xbd0a824e	-0.033815674
193	0x3bf938da	0.007605654
194	0x3caed4da	0.02134173
195	0x3c870d8c	0.016485952
196	0xbcfd5814	-0.030925788
197	0xbd57cd0c	-0.052685782
198	0x3d0888fd	0.033333767
199	0xbdc0fe16	-0.09423463
200	0xbd802543	-0.06257107
201	0x3cbf3dfd	0.023344988
202	0x3b5a06b2	0.003326815
203	0xbd3b5ddf	-0.04574382
204	0x3d137ad9	0.03600583
205	0xbdbe3568	-0.0928753
206	0xbd1ff5e3	-0.039052855
207	0xbc015104	-0.007892851
208	0x3d9180e9	0.07104666
209	0xbdbce7f5	-0.0922393
210	0x3c39f8dc	0.011350837
211	0x3ca148ce	0.019688036
212	0xbd541e91	-0.051786963
213	0x3d04d795	0.032432158
214	0x3c85c034	0.016327001
215	0xbd4cb238	-0.04997465
216	0xbdb58328	-0.08862907
217	0x3c6a2b0d	0.014292491
218	0xbdb9dbd3	-0.09075131
219	0xbde7808e	-0.11303817
220	0xbd0bee34	-0.034162715
221	0xbd866fb6	-0.06564276
222	0xbd97281f	-0.07380699
223	0x3d55802e	0.052124195
224	0xbd897a81	-0.06712819
225	0xbd8747cf	-0.06605493
226	0xbd398131	-0.045289222
227	0x3d1c20bb	0.03811715
228	0xbd95c2c0	-0.07312536
229	0xbd2279f8	-0.0396671
230	0xbde52037	-0.11187785
231	0x3be6e90a	0.0070468234
232	0xbd247635	-0.040151794
233	0xbd9e1b4e	-0.07720052
234	0xbd689e44	-0.05679156
235	0xbd8acfa1	-0.06777883
236	0xbd71c791	-0.059028212
237	0xb9193890	-0.00014612288
238	0xbd9ce5ac	-0.07660994
239	0xbcacb030	-0.021080106
240	0xbd4b6824	-0.049659863
241	0xbd75b146	-0.059983514
242	0x3dabb44a	0.08383997
243	0xbcdaa948	-0.026692048
244	0xbd2e248d	-0.042515326
245	0x3ca14d16	0.019690078
246	0x3d973367	0.07382851
247	0xbda2e9ec	-0.07954773
248	0xbdc4e875	-0.0961465
249	0x3d822e08	0.06356436
250	0x3d9fef07	0.07809263
251	0x3c680304	0.014160875
252	0xbd8a6d29	-0.06759102
253	0x3bd73f7f	0.0065688486
254	0xbd75a5b8	-0.059972495
255	0xbccd2da0	-0.02504617

net.6.weight f4 [2, 256]
0	0xbe327e34	-0.17430955
1	0xbb6d1d1e	-0.0036180685
2	0x3e0fdcdc	0.14049095
3	0xbe2d3752	-0.16915634
4	0x3c943e70	0.018096179
5	0x3bb80b7a	0.0056166025
6	0xbdfaed16	-0.12252252
7	0xbe1b99de	-0.15195414
8	0xbe0c6d48	-0.13713562
9	0x3cdf536c	0.027261458
10	0x3ddd152d	0.107950546
11	0x3cbb7530	0.022883028
12	0xbdd6d08c	-0.10488996
13	0xbe051de6	-0.12999687
14	0xbdccad97	-0.09994047
15	0xbe0dee84	-0.13860518
16	0x3d1b27d4	0.03787978
17	0xbd23e504	-0.04001333
18	0xbe08566a	-0.13314214
19	0xbe064b51	-0.13114668
20	0x3e2a69d2	0.1664193
21	0xbd16e156	-0.03683599
22	0xbe15e612	-0.14638546
23	0x3d44757c	0.047963604
24	0x3d314bfa	0.043285348
25	0x3ddc00ac	0.10742316
26	0x3cdd9637	0.027049167
27	0x3dbb9ef8	0.0916118
28	0xbe1287f6	-0.14309677
29	0x3c98f708	0.018672481
30	0x3e143fd3	0.14477472
31	0x3d8bbc91	0.068230756
32	0x3d71182e	0.05886095
33	0x3d06e8ef	0.032936987
34	0xbe1d46bd	-0.15359016
35	0xbd0e2702	-0.03470517
36	0x3d3baa24	0.045816556
37	0x3da8d55f	0.08243822
38	0xbe1a030b	-0.15040223
39	0xbd97a324	-0.074041635
40	0xbe166156	-0.14685568
41	0x3dcff268	0.10153657
42	0x3dfbfe3a	0.12304349
43	0x3cf7d37f	0.030252216
44	0x3e4164d3	0.18886118
45	0xbd24435e	-0.04010331
46	0xbe2c4b57	-0.16825615
47	0x3d2263e3	0.03964604
48	0x3a94f76f	0.0011365245
49	0xbd7a0238	-0.061037272
50	0xbe057c6f	-0.13035749
51	0xbe27c11d	-0.1638226
52	0xbdd73f46	-0.10510115
53	0x3e24ccc6	0.1609374
54	0x3e094267	0.13404237
55	0xbe1c04b1	-0.15236165
56	0x3cb6f78b	0.022334835
57	0xbe20015a	-0.15625516
58	0x3e299237	0.16559683
59	0x3e0704ac	0.13185376
60	0xbde31ee2	-0.11089875
61	0x3c35d913	0.011099118
62	0x3de17826	0.110092446
63	0xbde5ef42	-0.112272754
64	0x3d1daf90	0.038497508
65	0xbdd6ff35	-0.10497896
66	0xbe17e945	-0.14835079
67	0x3cd1336f	0.02553722
68	0xbe243765	-0.16036756
69	0x3c832c2c	0.016012274
70	0x3d33bee0	0.043883204
71	0x3cf1c836	0.029514413
72	0xbd358cb4	-0.044323638
73	0x3c2b8b74	0.01047026
74	0x3de5d685	0.11222557
75	0x3d219446	0.039448045
76	0x3cf878f4	0.030331112
77	0x3e06147b	0.1309375
78	0xbdf233c4	-0.1182628
79	0x3ddacfd4	0.10684171
80	0xbdfeaeb5	-0.124356665
81	0x3e1c8926	0.15286693
82	0x3cf7ad14	0.030233897
83	0xbe24e2d1	-0.16102149
84	0xbe0d1033	-0.13775711
85	0xbe0f699e	-0.14005134
86	0xbdf821d9	-0.12115831
87	0xbd1b7728	-0.037955433
88	0xbe2b3477	-0.16719232
89	0x3d0cd0c6	0.03437879
90	0x3e2b62c5	0.16736896
91	0xbe106e80	-0.14104652
92	0xbcf3c921	-0.029758992
93	0xbe14bb28	-0.1452452
94	0xbdad10c8	-0.084504664
95	0x3d405dea	0.046964563
96	0x3e069b26	0.13145122
97	0xbe12f2c3	-0.14350419
98	0xbdcb1464	-0.099159986
99	0xbdeb7afc	-0.11498067
100	0xbe2f581b	-0.17123453
101	0xbe243259	-0.16034831
102	0x3ab309b9	0.0013659514
103	0xbd243648	-0.04009083
104	0xbe131eb7	-0.14367186
105	0x3d470cd9	0.048596237
106	0x3d69bb76	0.057063542
107	0xbdb312b7	-0.08743804
108	0x3e0ccf54	0.13750964
109	0x3a5a63d4	0.00083309156
110	0xbd690e92	-0.05689866
111	0xbe24b45a	-0.16084424
112	0x3db6d580	0.08927441
113	0xbde91af5	-0.11382095
114	0x3cdb645b	0.026781252
115	0xbdea3c84	-0.11437324
116	0xbca38258	-0.019959614
117	0xbdd33ba9	-0.10314114
118	0xbdc7627d	-0.09735582
119	0x3d4f6b15	0.05063923
120	0xbe0c745b	-0.13716261
121	0xbcf5b03c	-0.029991262
122	0x3ddfc67e	0.10926531
123	0xbda638c5	-0.08116297
124	0x35eb0000	1.7508864e-06
125	0xbcc7cc8c	-0.024389528
126	0xbdf19217	-0.117954426
127	0xbdfe73fe	-0.124244675
128	0xbdc94967	-0.098284535
129	0x3e092034	0.13391191
130	0xbe11d407	-0.14241038
131	0x3d0dfcf9	0.03466508
132	0x3b312a1c	0.0027033156
133	0x3d3e2646	0.04642322
134	0xbde4d7cc	-0.111739725
135	0xbde92289	-0.1138354
136	0xbe24e0be	-0.16101357
137	0xbe0494d1	-0.12947394
138	0xbde856f1	-0.11344708
139	0x3b148dae	0.0022667455
140	0x3c675730	0.014119908
141	0x3c498c30	0.01230149
142	0xbdfbf330	-0.12302244
143	0xbe03c62c	-0.12868565
144	0xbe2496bf	-0.1607313
145	0xbdbac77f	-0.09120082
146	0x3e478bd4	0.19486934
147	0xbe29f6f4	-0.16598111
148	0x3de3de61	0.111264
149	0x3e391ee6	0.18078193
150	0xbcb22783	-0.021747356
151	0xbdbdaf88	-0.092619956
152	0x3cce62eb	0.025193652
153	0x3cbacbd1	0.022802265
154	0x3deb8c54	0.11501375
155	0x3c0a101a	0.0084266905
156	0x3da62208	0.0811196
157	0xbdd0edeb	-0.10201629
158	0x3df58327	0.11987906
159	0xbe23f3eb	-0.16011016
160	0x3c487290	0.012234345
161	0xbb327ce0	-0.0027235076
162	0xbdb31fd2	-0.087463036
163	0xbe098777	-0.13430582
164	0xbe07fa71	-0.1327913
165	0xbe279de1	-0.1636882
166	0xbdef13b0	-0.11673677
167	0xbe119967	-0.14218675
168	0x3e089805	0.13339241
169	0x3d97d61b	0.07413884
170	0xbdb2d97b	-0.08732887
171	0xbe22677f	-0.15859793
172	0xbde9fca9	-0.11425144
173	0x3d25b55e	0.04045617
174	0x3ca5271e	0.020160254
175	0xbe2f4e76	-0.17119774
176	0xbe06597c	-0.13120073
177	0x3df7e057	0.12103336
178	0xbe0b8003	-0.13623051
179	0xbe36368a	-0.17794243
180	0x3d38574f	0.04500514
181	0x3e2563c1	0.16151334
182	0xbdf8bcd4	-0.12145391
183	0x3d6f414c	0.05841188
184	0xbbb1679b	-0.005413962
185	0x3cde734f	0.027154593
186	0xbce48740	-0.027896523
187	0xbdc97bcd	-0.09838066
188	0xbe3571c4	-0.1771918
189	0x3dc4ca60	0.096089125
190	0xbde2aa8b	-0.11067685
191	0x3c491c2a	0.012274781
192	0xbdc8ef1f	-0.09811234
193	0x3dd3aba4	0.10335472
194	0xbe0add7a	-0.13561049
195	0x3ccf8944	0.025334008
196	0xbe48ed18	-0.19621694
197	0xbdfaf5e4	-0.12253931
198	0xbdc4759b	-0.09592744
199	0xbe2e6dda	-0.17034093
200	0xbdfe02db	-0.124028884
201	0xbde70fa1	-0.11282278
202	0xbe032bfe	-0.1280975
203	0xbd7aa0f8	-0.061188668
204	0xbe045d4b	-0.12926213
205	0x3e28723f	0.16449831
206	0xbc629963	-0.013830516
207	0x3cc5d4c4	0.024149306
208	0xbe1f85ca	-0.1557838
209	0x3df4d7ec	0.11955246
210	0xbe13b275	-0.14423545
211	0x3deae000	0.11468506
212	0xbd379254	-0.044817284
213	0xbd7bde7a	-0.061491467
214	0x3cfb3ccb	0.030668637
215	0xbe0e6af7	-0.13907991
216	0x3d2b4e0e	0.041822486
217	0x3e117a72	0.14206865
218	0x3cb5939c	0.022165112
219	0xbe2234d3	-0.15840463
220	0x3cbc334c	0.022973679
221	0xbddec4f5	-0.1087741
222	0x3c73c0d8	0.0148775205
223	0xbe28c5a1	-0.1648164
224	0xbd74ee92	-0.05979783
225	0xbe3aff39	-0.18261422
226	0xbd7ee626	-0.062231205
227	0xbe3fe0f4	-0.18738157
228	0x3e210520	0.15724611
229	0x3e201d22	0.15636113
230	0xbe14b8b0	-0.14523578
231	0xbe10c206	-0.14136514
232	0x3d1769dc	0.03696619
233	0xbe15fd89	-0.14647497
234	0xbe0fb9a1	-0.14035656
235	0xbd35cec6	-0.044386648
236	0xbe219c62	-0.15782312
237	0xbe315442	-0.17317298
238	0xbe246318	-0.16053426
239	0xbde6ab7f	-0.11263179
240	0xbe30c0ac	-0.17260998
241	0x3bf37725	0.0074299746
242	0x3cb55e9c	0.02213984
243	0x3c8e1ccb	0.017347714
244	0xbc056928	-0.008142747
245	0x3d2da80a	0.042396583
246	0x3df4513c	0.11929557
247	0xbe09e1bb	-0.13465016
248	0x3cf881b3	0.030335283
249	0xbdfbfad0	-0.12303698
250	0x3c2785f2	0.010224806
251	0x3d636f88	0.055526286
252	0xbdbece2d	-0.09316669
253	0xbdd480b8	-0.10376114
254	0x3df0463f	0.117321484
255	0x3d51fe32	0.05126781

net.6.bias f4 [2]
0	0xbc99ed55	-0.018789927
1	0xbc0baa88	-0.008524545

exp_avg f4 [64, 2]
0	0x33841551	6.1506064e-08
1	0xb5ad79dc	-1.292497e-06
2	0x35c0bf14	1.4360726e-06
3	0x36c8e45a	5.987048e-06
4	0x33b7d3b4	8.56011e-08
5	0x36bfc8b1	5.715607e-06
6	0xb5b51a68	-1.3493236e-06
7	0x366562b8	3.418112e-06
8	0xb5bfc9dc	-1.4289358e-06
9	0xb6471f20	-2.9671428e-06
10	0xb6cb8328	-6.06514e-06
11	0x36ff463a	7.6077677e-06
12	0xb6bccae2	-5.6264553e-06
13	0x35845ba6	9.86144e-07
14	0xb698ac46	-4.5500083e-06
15	0x36aac44f	5.089248e-06
16	0x331da4d3	3.6704318e-08
17	0x32411e06	1.1240905e-08
18	0x37136649	8.785698e-06
19	0xb6cf7c68	-6.1835635e-06
20	0xb6591d82	-3.2352696e-06
21	0xb44a2d78	-1.8829257e-07
22	0x36306073	2.6282185e-06
23	0xb691c807	-4.344623e-06
24	0xb6212de3	-2.401758e-06
25	0x36220861	2.4144758e-06
26	0xb5b4639b	-1.3440034e-06
27	0x350cc0a5	5.24344e-07
28	0x32dc914b	2.5677442e-08
29	0x32b584b5	2.1131521e-08
30	0x32b527b9	2.1089237e-08
31	0xb289bc88	-1.6034633e-08
32	0xb5f42b0a	-1.8191943e-06
33	0xb29b68cf	-1.8092036e-08
34	0x3600632a	1.9131207e-06
35	0x32995465	1.7849922e-08
36	0xb6bc8da3	-5.6193253e-06
37	0xb54772ea	-7.43005e-07
38	0x362b428b	2.5519719e-06
39	0x36ca63ba	6.031679e-06
40	0x38500421	4.959491e-05
41	0xb7e5da24	-2.7400507e-05
42	0xb755525f	-1.2714968e-05
43	0xb6daef1c	-6.5247423e-06
44	0x34f1d982	4.5048006e-07
45	0x36988333	4.5452266e-06
46	0xb5a8759c	-1.2551204e-06
47	0x351be7a2	5.807907e-07
48	0x34b478ac	3.3615413e-07
49	0x3582e4e8	9.752375e-07
50	0xb6881587	-4.055622e-06
51	0x366fba7a	3.572232e-06
52	0x35ad4001	1.2908132e-06
53	0xb53b40b1	-6.9757067e-07
54	0x3699d905	4.5850197e-06
55	0x352ecaac	6.511498e-07
56	0x36fa0f5a	7.4523678e-06
57	0xb6c84734	-5.9687536e-06
58	0x32fb313a	2.9242631e-08
59	0xb2c6c312	-2.3138941e-08
60	0x36434f0a	2.910327e-06
61	0x34a586af	3.083164e-07
62	0xb2be31c8	-2.2141549e-08
63	0x323123e7	1.0310919e-08
64	0xb3807a02	-5.9826576e-08
65	0x33253b95	3.8471246e-08
66	0xb41f1eba	-1.4819207e-07
67	0x36788e38	3.7037662e-06
68	0xb6254a74	-2.4630253e-06
69	0x360ce22e	2.099328e-06
70	0xb6667e3a	-3.4346144e-06
71	0x35e15918	1.6789736e-06
72	0xb6a32a7a	-4.8627235e-06
73	0xb51dbe66	-5.8764124e-07
74	0xb2b6d1ac	-2.1282936e-08
75	0xb2080303	-7.916927e-09
76	0x369f308b	4.7442204e-06
77	0x36a9d532	5.0614117e-06
78	0x34e3a52a	4.2402218e-07
79	0xb592ca9d	-1.0936816e-06
80	0x36c99124	6.0071634e-06
81	0xb80363e7	-3.1325875e-05
82	0x3660e653	3.3512667e-06
83	0xb69ed1b4	-4.7331796e-06
84	0xb6a6917c	-4.964122e-06
85	0x380054be	3.05965e-05
86	0x359e0c65	1.1775525e-06
87	0x35c0d6dc	1.4367647e-06
88	0x356ff017	8.9383815e-07
89	0xb5882c9c	-1.0145773e-06
90	0x35e7665d	1.7240633e-06
91	0x368f1146	4.263743e-06
92	0xb6856ef3	-3.976625e-06
93	0xb633db5c	-2.6800762e-06
94	0x32f3816a	2.8347774e-08
95	0x311c85e6	2.27771e-09
96	0xb665576a	-3.417454e-06
97	0xb5f17de8	-1.7992543e-06
98	0x3525d27b	6.177358e-07
99	0xb5074bc2	-5.040166e-07
100	0x353b14e7	6.9693345e-07
101	0xb585eefa	-9.978824e-07
102	0xb313bbb4	-3.439682e-08
103	0xb389c7fd	-6.415937e-08
104	0x36549117	3.1674915e-06
105	0xb60addea	-2.0692773e-06
106	0x3634a9c4	2.6920907e-06
107	0x36b1c051	5.2973996e-06
108	0xb2fa2150	-2.911898e-08
109	0xb21b65cb	-9.0453325e-09
110	0x3611e8b0	2.1742126e-06
111	0xb48650a3	-2.5018116e-07
112	0x3684e3b0	3.960413e-06
113	0xb60c19ac	-2.0876569e-06
114	0xb094dc25	-1.0830986e-09
115	0x31ee9509	6.943655e-09
116	0x363cec39	2.8151683e-06
117	0x350719c1	5.0328896e-07
118	0x36e77fc7	6.8992117e-06
119	0x36c9b57e	6.0113953e-06
120	0x36c1455e	5.7599236e-06
121	0xb59f503d	-1.1869776e-06
122	0xb5a1287f	-1.2007221e-06
123	0x36448cbe	2.9288199e-06
124	0xb4d9b447	-4.055057e-07
125	0x34a52f36	3.0767995e-07
126	0xb5dc21c2	-1.6401102e-06
127	0x350aa300	5.16462e-07

exp_avg_sq f4 [64, 2]
0	0x2ea86df3	7.6592864e-11
1	0x2eb40290	8.1859075e-11
2	0x3096c772	1.0970622e-09
3	0x30200b4f	5.822373e-10
4	0x30a37106	1.1891934e-09
5	0x3156cdc8	3.1258072e-09
6	0x2e21d8f9	3.6799872e-11
7	0x2e66eefc	5.2508206e-11
8	0x2fa97f56	3.0831399e-10
9	0x2fd9f5c6	3.9646703e-10
10	0x302d664d	6.308241e-10
11	0x2fa24d23	2.9522437e-10
12	0x311b953f	2.2640305e-09
13	0x3117fb12	2.211611e-09
14	0x312ae7a6	2.4869933e-09
15	0x30e1c573	1.6427023e-09
16	0x294037d3	4.2680984e-14
17	0x28a71af1	1.8552408e-14
18	0x30fe187f	1.8487895e-09
19	0x322402e1	9.546711e-09
20	0x3055c1a1	7.776411e-10
21	0x2e5ad127	4.9753226e-11
22	0x300272ea	4.7457027e-10
23	0x302bda67	6.2519806e-10
24	0x31030109	1.9063597e-09
25	0x2fb306b0	3.2564662e-10
26	0x2f8a6f36	2.5181074e-10
27	0x2f713ff6	2.1941546e-10
28	0x286aead8	1.3040533e-14
29	0x2827439a	9.285021e-15
30	0x28b51a29	2.0106382e-14
31	0x287992fd	1.385415e-14
32	0x2f4034c8	1.748105e-10
33	0x2e861d42	6.098812e-11
34	0x2f0de0ad	1.2903696e-10
35	0x2f42d646	1.7720322e-10
36	0x31d83303	6.2922267e-09
37	0x300a3777	5.028293e-10
38	0x31a63575	4.837313e-09
39	0x319df3ce	4.5970188e-09
40	0x3322644b	3.780978e-08
41	0x326a021f	1.3621075e-08
42	0x3226cf58	9.709616e-09
43	0x30221926	5.8970995e-10
44	0x3110d602	2.1076407e-09
45	0x31068ca8	1.957952e-09
46	0x2fbc904a	3.4299524e-10
47	0x2e83a5b4	5.986625e-11
48	0x306a6048	8.526553e-10
49	0x2fbf3b28	3.478473e-10
50	0x308b361a	1.0128958e-09
51	0x2f4c424d	1.8577247e-10
52	0x313433d0	2.62229e-09
53	0x301ac2a8	5.6301497e-10
54	0x309cbdd7	1.140445e-09
55	0x2f9571e5	2.718387e-10
56	0x3081493b	9.406799e-10
57	0x3070a648	8.754779e-10
58	0x29133d17	3.2693544e-14
59	0x286807fa	1.2880317e-14
60	0x2f9cece8	2.8544567e-10
61	0x30d3715e	1.5384491e-09
62	0x294e25e3	4.577405e-14
63	0x28c2694b	2.158399e-14
64	0x290da29d	3.1449334e-14
65	0x2a4138cb	1.7161548e-13
66	0x307fcf04	9.3062646e-10
67	0x310c3adb	2.0406137e-09
68	0x2f9a547d	2.807247e-10
69	0x3028e64a	6.1445304e-10
70	0x2fb66ede	3.3184383e-10
71	0x2f897c51	2.5008487e-10
72	0x2feef99a	4.34693e-10
73	0x31117f4b	2.1172635e-09
74	0x28f60861	2.731512e-14
75	0x2836bddd	1.01441996e-14
76	0x2f8404e3	2.4014132e-10
77	0x2f4df026	1.8729959e-10
78	0x3117a47c	2.206689e-09
79	0x31158913	2.1760271e-09
80	0x30bc86c1	1.37171e-09
81	0x30a29b06	1.1831112e-09
82	0x300246bf	4.739426e-10
83	0x30149c7f	5.406448e-10
84	0x33471aba	4.6357606e-08
85	0x3265de65	1.3380121e-08
86	0x2f7da8de	2.307021e-10
87	0x2f3334d6	1.6298726e-10
88	0x2f29fca0	1.5460211e-10
89	0x2ecbcfcf	9.2682854e-11
90	0x3094ce3c	1.0827033e-09
91	0x30cef38b	1.5057692e-09
92	0x308abeb7	1.0095026e-09
93	0x30a1a240	1.1760406e-09
94	0x28eb3577	2.6113428e-14
95	0x2875a984	1.363699e-14
96	0x2f4d2147	1.8656464e-10
97	0x2f16d9c9	1.3719793e-10
98	0x2f33d519	1.6355663e-10
99	0x2f7e982c	2.3155228e-10
100	0x2f6af332	2.1368576e-10
101	0x2ec67f58	9.026618e-11
102	0x2e87c0a7	6.173311e-11
103	0x2ad640ea	3.805908e-13
104	0x30b0b01d	1.285574e-09
105	0x300deaf7	5.1629406e-10
106	0x2ff2c6a3	4.4160683e-10
107	0x31a1d3db	4.709802e-09
108	0x28c14fda	2.1461934e-14
109	0x28a315f3	1.8106154e-14
110	0x2f3bbcae	1.7074583e-10
111	0x2f01c745	1.1803276e-10
112	0x2f8e59f5	2.5893568e-10
113	0x2fb2aa4e	3.249902e-10
114	0x2874ff78	1.3600117e-14
115	0x2849510e	1.1175317e-14
116	0x2fb51b66	3.2943176e-10
117	0x2fa5ed83	3.0182087e-10
118	0x314de5f3	2.9962137e-09
119	0x30be1d4a	1.3832644e-09
120	0x3107c32b	1.9756026e-09
121	0x31692a1b	3.3929897e-09
122	0x2f7ec1ba	2.3169991e-10
123	0x2fa98596	3.083584e-10
124	0x2fc4f50b	3.5826306e-10
125	0x2fed9eab	4.322279e-10
126	0x2fc211cf	3.5301048e-10
127	0x30890a91	9.971065e-10

exp_avg f4 [64]
0	0xb572f077	-9.050195e-07
1	0x37440a14	1.1684857e-05
2	0xb79761b1	-1.8046094e-05
3	0xb60b4c5c	-2.075706e-06
4	0x37146d73	8.846971e-06
5	0xb77e7e96	-1.5169053e-05
6	0x37562dbe	1.2766044e-05
7	0x35a475ba	1.2253215e-06
8	0x33574ce7	5.012853e-08
9	0x3808d8b6	3.2626755e-05
10	0xb67b6593	-3.7461039e-06
11	0x36a1dbcb	4.823761e-06
12	0x36e33890	6.771712e-06
13	0x3680fb26	3.843935e-06
14	0x33aa0733	7.9175514e-08
15	0xb1ac7830	-5.0195226e-09
16	0xb72e35d7	-1.0383744e-05
17	0x36e23858	6.741884e-06
18	0x37fe97f9	3.0349927e-05
19	0x3755e7a0	1.2749719e-05
20	0x37feefa1	3.0390745e-05
21	0x37bca38f	2.248751e-05
22	0xb76bc71e	-1.4053452e-05
23	0xb532e314	-6.664061e-07
24	0x36148514	2.213118e-06
25	0x36d3e95c	6.3154566e-06
26	0xb6e80b08	-6.915423e-06
27	0x36f20fda	7.2140074e-06
28	0xb78f0d5c	-1.705315e-05
29	0x338ae875	6.4684095e-08
30	0x369c33a1	4.6551727e-06
31	0xb4045b29	-1.2326622e-07
32	0x3466147a	2.1427869e-07
33	0xb7b503c6	-2.1578639e-05
34	0xb670032f	-3.576464e-06
35	0xb664b8da	-3.4082245e-06
36	0x368db180	4.222791e-06
37	0xb34371e0	-4.5505544e-08
38	0xb6f0b53e	-7.1736567e-06
39	0x36a28f6b	4.8446723e-06
40	0x37adaa08	2.0702384e-05
41	0x371768d3	9.024708e-06
42	0x381f2952	3.7947037e-05
43	0xb7563038	-1.2766621e-05
44	0x3548fac5	7.4870724e-07
45	0xb5517a27	-7.803632e-07
46	0x3731a3ff	1.0588205e-05
47	0x33a13120	7.5060825e-08
48	0x35f16dbf	1.798784e-06
49	0x36d54117	6.355472e-06
50	0xb7007134	-7.655752e-06
51	0x35a73f14	1.2460828e-06
52	0xb7c5d4e9	-2.3583374e-05
53	0xb5dd86ba	-1.6504994e-06
54	0xb218af2f	-8.887397e-09
55	0x3699cbdd	4.583488e-06
56	0x377b3279	1.4972517e-05
57	0x32e4436a	2.657335e-08
58	0x378451d7	1.5773736e-05
59	0x3659c8ac	3.2452326e-06
60	0x37bddfea	2.2634824e-05
61	0xb4c4c499	-3.6650889e-07
62	0xb753c411	-1.262223e-05
63	0x36a7ca84	5.0005638e-06

exp_avg_sq f4 [64]
0	0x30833854	9.547514e-10
1	0x337e9db8	5.9282428e-08
2	0x328dd8fe	1.6513237e-08
3	0x2fca5b76	3.6808573e-10
4	0x33417540	4.5042952e-08
5	0x30bc4d9d	1.3700859e-09
6	0x3443c39e	1.8231955e-07
7	0x3200371c	7.463111e-09
8	0x2a5cee0d	1.9622516e-13
9	0x32d053b4	2.425245e-08
10	0x3078e5a7	9.054823e-10
11	0x333a5632	4.3384894e-08
12	0x3202efc6	7.621514e-09
13	0x30f3b6ed	1.7732568e-09
14	0x2b3e60aa	6.763571e-13
15	0x2a8f52db	2.5459395e-13
16	0x31779d9d	3.6032823e-09
17	0x325260e9	1.2245644e-08
18	0x340228f4	1.2122092e-07
19	0x32883410	1.5856159e-08
20	0x3493207b	2.7404516e-07
21	0x32fc26fd	2.9354391e-08
22	0x3297e207	1.7681499e-08
23	0x3009297f	4.989928e-10
24	0x30b9e0e1	1.3524436e-09
25	0x30e855b8	1.6904584e-09
26	0x32d9bd97	2.534834e-08
27	0x30f9c4dc	1.8173085e-09
28	0x31fd458c	7.3711757e-09
29	0x2b076d58	4.811338e-13
30	0x32ee5506	2.774551e-08
31	0x2a375d1e	1.6285972e-13
32	0x2d9962cc	1.743796e-11
33	0x32d21c67	2.4460133e-08
34	0x30cc1be3	1.4850879e-09
35	0x3077ca83	9.0145863e-10
36	0x31b201d1	5.1806883e-09
37	0x2a1878b8	1.3542195e-13
38	0x326aee24	1.367474e-08
39	0x31d5ad32	6.218806e-09
40	0x332616f3	3.867076e-08
41	0x322844aa	9.794499e-09
42	0x33811584	6.010944e-08
43	0x335d444f	5.15177e-08
44	0x3188d12b	3.9819006e-09
45	0x319a41a0	4.4894506e-09
46	0x33b54d4f	8.442532e-08
47	0x2a376cbd	1.6291391e-13
48	0x31807498	3.7385455e-09
49	0x31b0050a	5.122847e-09
50	0x32c296dd	2.2653177e-08
51	0x2ee2cc3c	1.03135694e-10
52	0x32393a4b	1.07816716e-08
53	0x3288293c	1.5851235e-08
54	0x2a50f85c	1.8560278e-13
55	0x2fb7f7f8	3.3463698e-10
56	0x32880381	1.5834077e-08
57	0x2b8fb92b	1.0212156e-12
58	0x320b0322	8.091577e-09
59	0x330439ac	3.0786097e-08
60	0x32647d8a	1.3299891e-08
61	0x308f9362	1.0446508e-09
62	0x332a448a	3.9643545e-08
63	0x3310de50	3.3729805e-08
