new_saved_models/v2_n1e6_sk5000.pt (torch, 529309 bytes, 24 tensors)

net.0.weight f4 [64, 2]
-0.32252693 -0.20346653 0.6888644 0.39096776 -0.040494982 0.25070074 0.13832971 0.04691
0.7131714 0.12837978 0.061800312 0.7669224 0.2167032 -0.5652823 0.7235525 0.36936465
-0.3523338 -0.5832255 -0.47127175 -0.5005039 0.26869133 -0.426959 -0.3400627 -0.453528
-0.34597972 0.10494934 -0.056553327 0.42756504 0.16106011 0.4277274 -0.35644504 0.00696701
-0.3599681 0.13579735 -0.2057669 -0.053846452 0.5911848 0.25163934 -0.49990308 0.03553573
-0.18660417 -0.031622507 -0.12626174 0.14246511 0.33379152 -0.5301361 0.58531034 -0.06481258
-0.61272836 0.47554567 0.3048338 0.06807715 -0.67381656 0.65910536 0.62437224 0.19951828
-0.65254754 0.33546868 0.22314598 0.39872327 0.7144021 0.1647147 -0.13975659 -0.5391874
-0.1076919 -0.51589215 -0.5299433 0.7228055 0.29662624 -0.29131234 -0.2660152 -0.25064462
0.06803649 -0.21207921 0.18243793 -0.6405384 -0.073852815 -0.56711185 0.19523562 0.35408035
-0.45246676 -0.5505534 -0.110801354 -0.030029625 0.5190508 -0.7196362 0.16868764 0.56937635
0.45530108 -0.32748693 0.6328594 0.40778103 -0.55977 -0.15322281 0.7102684 -0.591284
-0.50985104 0.5785445 0.26060656 0.25095615 0.14235836 0.13970241 -0.16046725 0.62536806
0.34814885 0.070257604 0.18176503 -0.10821807 0.39799103 0.112950906 0.6778278 -0.61876065
0.25818765 -0.4831248 -0.7118084 -0.3565635 0.29559773 -0.5326982 -0.6752842 -0.41952565
-0.61655325 0.6844067 -0.6522429 0.3442619 -0.594656 -0.2647744 0.21799073 0.26593718
00000000: 4022 a5be 8859 50be 6b59 303f ed2c c83e
00000010: 11de 25bd d95b 803e 4ea6 0d3e b324 403d
00000020: 6792 363f fd75 033e 5322 7d3d 0755 443f
00000030: 72e7 5d3e 57b6 10bf bd3a 393f 5d1d bd3e
00000040: 1965 b4be 444e 15bf 884a f1be 0621 00bf
00000050: e991 893e 5f9a dabe b31c aebe d234 e8be
00000060: 4124 b1be aeef d63d 76a4 67bd cee9 da3e
00000070: f1ec 243e 16ff da3e f77f b6be 844b e43b
00000080: bd4d b8be 760e 0b3e 8fb4 52be 198e 5cbd
00000090: e357 173f dfd6 803e 4cf3 ffbe ea8d 113d
000000a0: 2a15 3fbe 9a86 01bd c24a 01be 60e2 113e
000000b0: b9e6 aa3e 00b7 07bf e6d6 153f 75bc 84bd
000000c0: c4db 1cbf b97a f33e 2d13 9c3e 086c 8b3d
000000d0: 3e7f 2cbf 21bb 283f dcd6 1f3f 854e 4c3e
000000e0: 5b0d 27bf 8dc2 ab3e 6180 643e 7525 cc3e
000000f0: 0ee3 363f f8aa 283e 5a1c 0fbe 2f08 0abf
00000100: 928d dcbd 8211 04bf 5daa 07bf c809 393f
00000110: 65df 973e e426 95be 2533 88be 7e54 80be
00000120: b756 8b3d 4b2b 59be 02d1 3a3e 53fa 23bf
00000130: 2540 97bd 3e2e 11bf d9eb 473e 054a b53e
00000140: b9a9 e7be 11f1 0cbf d2eb e2bd b000 f6bc
00000150: 83e0 043f 143a 38bf 74bc 2c3e a6c2 113f
00000160: 391d e93e 5eac a7be 1303 223f adc8 d03e
00000170: 164d 0fbf 71e6 1cbe 26d4 353f 635e 17bf
00000180: 9985 02bf 7e1b 143f 396e 853e 537d 803e
00000190: 64c6 113e 260e 0f3e 8751 24be 1f18 203f
000001a0: 9140 b23e 38e3 8f3d 9d20 3a3e 6fa1 ddbd
000001b0: 7bc5 cb3e ce52 e73d 1f86 2d3f 1967 1ebf
000001c0: 2c31 843e 225c f7be 1339 36bf 7e8f b6be
000001d0: 9658 973e e95e 08bf 6ddf 2cbf 11cc d6be
000001e0: 6fd6 1dbf 4735 2f3f 64f9 26bf 1943 b03e
000001f0: 603b 18bf 8390 87be f638 5f3e eb28 883e

net.0.bias f4 [64]
0.020605044 0.50170344 0.20365106 -0.40312552 0.31754753 -0.34269345 -0.7068874 0.21444072
0.42782778 -0.44890803 -0.72528815 -0.2038124 -0.18710604 -0.26026005 0.4275791 0.4360546
-0.582821 -0.033528134 0.63543385 -0.6735167 0.32157844 0.61668646 -0.1509251 0.6511034
-0.47801498 0.5798356 -0.23058161 0.41398337 -0.3911663 0.34154773 -0.42395088 0.6522435
-0.4356228 -0.16771084 -0.11916121 -0.2562275 -0.50393873 0.2804303 -0.28557113 0.10434953
0.48144373 0.14572768 0.12077909 -0.11653638 -0.082431965 -0.5255482 -0.36021748 -0.3843856
0.67126495 0.5138824 0.4599654 0.30907816 0.3591027 0.363387 -0.66382414 -0.64526176
-0.57151824 -0.52849996 -0.3898473 0.05313095 -0.43143788 -0.41672498 0.5725365 -0.10156744
00000000: e9cb a83c a36f 003f e789 503e 7866 cebe
00000010: 9795 a23e 8475 afbe 93f6 34bf 5996 5b3e
00000020: 3e0c db3e 46d7 e5be 7cac 39bf 33b4 50be
00000030: ba98 3fbe ce40 85be a6eb da3e 8c42 df3e
00000040: c233 15bf cc54 09bd cbab 223f 976b 2cbf
00000050: eea5 a43e 2adf 1d3f 1c8c 1abe b6ae 263f
00000060: 61be f4be 1b70 143f 961d 6cbe a1f5 d33e
00000070: f346 c8be 58df ae3e 1710 d9be 6ef9 263f
00000080: f409 dfbe 64bc 2bbe cb0a f4bd 4030 83be
00000090: 2102 01bf 8f94 8f3e 6136 92be 35b5 d53d
000000a0: cb7f f63e a339 153e 075b f73d a0aa eebd
000000b0: 17d2 a8bd 548a 06bf 6d6e b8be 30ce c4be
000000c0: 05d8 2b3f cc8d 033f 9680 eb3e 7e3f 9e3e
000000d0: 4fdc b73e dc0d ba3e 61f0 29bf e02f 25bf
000000e0: 054f 12bf c64b 07bf 119a c7be d79f 593d
000000f0: 6de5 dcbe fa5c d5be c191 123f 9702 d0bd

net.2.weight f4 [128, 64]
0.045010917 0.01891379 -0.09846969 0.036341656 -0.14666972 0.110607676 0.011774471 -0.059118524
0.092476666 -0.0028390375 -0.0743774 -0.0540273 0.07606818 -0.026221592 0.07078606 -0.03816577
0.081272215 -0.104739636 -0.004443714 -0.06762681 -0.08187922 0.015328623 0.08699442 -0.08488405
-0.01130579 -0.028656676 0.0025230474 0.073922954 0.15981185 0.030444346 0.027215166 -0.051300004
0.1285015 -0.15676713 0.07604974 0.06115149 0.07482126 0.06969681 -0.01408924 -0.014322391
0.090515435 0.045581564 -0.014375283 -0.029802624 0.116756365 -0.057262238 -0.041731257 0.120741636
-0.06197768 0.030451396 0.012518392 0.13258052 -0.05168674 0.029695226 -0.040930036 0.0541775
0.041455436 0.12108824 0.100017205 -0.04615785 0.043716837 0.12681954 0.07734581 0.049235832
-0.018690675 0.029082984 0.11569047 0.11563857 -0.1027831 0.022005424 -0.08829507 0.046663865
-0.10750346 0.011753693 -0.018880874 -0.10547468 0.122034326 -0.039118648 -0.10253839 0.051927626
-0.06751235 -0.05154586 0.035246864 0.022623524 0.020276949 -0.0045994073 -0.00078496337 0.10726735
0.03750758 -0.08392279 -0.0910673 -0.110018715 0.08439265 -0.062181517 0.094652295 0.0043557733
-0.009632945 -0.06880918 -0.09650108 -0.07495837 -0.082073525 0.03751503 0.06601003 0.017077535
0.07407449 -0.100429654 0.059269145 -0.11421698 -0.09020138 0.07359199 -0.05050233 0.07990754
-0.027146906 -0.10214785 0.003234163 0.039165482 -0.09816639 0.018677667 0.035702765 0.01575382
-0.020971581 0.0030280799 -0.048544243 -0.123571604 0.12435132 0.053833827 -0.06906119 -0.10256854
-0.030472657 -0.09741435 0.019224966 0.06757533 -0.014443952 -0.009423679 -0.08625306 0.11646081
0.17636788 -0.017325668 -0.06989293 0.1038661 0.009371742 -0.062468596 -0.07446105 0.16972697
-0.15465923 0.10824355 0.056318846 0.0054136273 -0.016834857 0.082839616 -0.062476482 -0.057777356
0.048744306 -0.008692032 0.11586927 0.07633268 -0.06886132 -0.14344 -0.0069358936 -0.00086641754
-0.0045630895 0.0067633507 -0.025142042 -0.06039446 -0.077098526 0.1355272 -0.09730836 0.0620594
-0.015405773 0.017217617 0.13280538 0.15176079 -0.081711814 -0.022255026 -0.02683808 -0.05202719
0.09166721 0.0043813186 -0.036842313 -0.06362312 0.1492296 -0.084007345 -0.01799624 0.088563375
0.028858239 0.10287985 -0.07401549 0.055611964 -0.022186173 -0.0129551245 0.07882297 -0.0780971
-0.05928561 -0.119406804 -0.05033338 0.06544568 0.109838545 0.058508232 0.100890964 -0.121023014
-0.020009771 -0.03802602 -0.024947986 0.06945309 -0.064015225 -0.06270568 -0.084300086 -0.12163384
0.12199332 0.05970855 -0.11468792 0.0646023 -0.03546904 0.12424882 -0.05635743 0.0012425333
-0.027732313 0.015262514 -0.01852341 0.111241475 0.039776236 -0.12432183 -0.04047878 0.061707065
0.019744247 -0.119956926 -0.043745726 0.06333819 -0.027829424 -0.0015100241 -0.0046392977 -0.071749195
-0.0014406443 -0.071741 0.007083133 -0.041638434 -0.00468491 0.12457335 0.035380498 -0.11444618
-0.1010807 -0.081560925 -0.119509846 0.0029327273 -0.07738809 0.0917127 0.019725174 -0.06262882
0.12414847 -0.062422797 -0.074781165 -0.060854062 0.082901284 -0.11638346 0.05573134 -0.03401643
00000000: 5e5d 383d 18f1 9a3c 7aaa c9bd fdda 143d
00000010: 9630 16be 4786 e23d b6e9 403c 4426 72bd
00000020: 6864 bd3d 250f 3abb 2e53 98bd bb4b 5dbd
00000030: a2c9 9b3d aace d6bc 48f8 903d b653 1cbd
00000040: 0c72 a63d bc81 d6bd 939c 91bb ed7f 8abd
00000050: 4bb0 a7bd e824 7b3c 212a b23d b0d7 adbd
00000060: ec3b 39bc 68c1 eabc b659 253b eb64 973d
00000070: b8a5 233e 6c66 f93c 57f2 de3c f41f 52bd
00000080: e695 033e 9087 20be f7bf 9b3d fc79 7a3d
00000090: e43b 993d 33bd 8e3d 8ed6 66bc 76a8 6abc
000000a0: 2860 b93d bcb3 3a3d 4f86 6bbc a224 f4bc
000000b0: f61d ef3d cf8b 6abd 65ee 2abd 6447 f73d
000000c0: 4fdc 7dbd 3575 f93c f119 4d3c 30c3 073e
000000d0: 7ab5 53bd 6743 f33c 41a6 27bd 3ae9 5d3d
000000e0: 2dcd 293d 1cfd f73d d2d5 cc3d 0410 3dbd
000000f0: 6d10 333d fbdc 013e 7b67 9e3d 83ab 493d
00000100: 301d 99bc 703f ee3c 20ef ec3d ead3 ec3d
00000110: f27f d2bd b844 b43c 0cd4 b4bd 9c22 3f3d
00000120: c62a dcbd 9092 403c 10ac 9abc 1c03 d8bd
00000130: 22ed f93d e03a 20bd a6ff d1bd 10b2 543d
00000140: ea43 8abd c021 53bd 045f 103d f854 b93c
00000150: d81b a63c a0b6 96bb 00c6 4dba fcae db3d
00000160: 8ca1 193d b6df abbd 7e81 babd 7e51 e1bd
00000170: 0ed6 ac3d 0cb2 7ebd 10d9 c13d e0ba 8e3b
00000180: 80d3 1dbc d4eb 8cbd 5ca2 c5bd c683 99bd
00000190: 2a16 a8bd 5ca9 193d 4430 873d 30e6 8b3c
000001a0: 5eb4 973d 10ae cdbd 34c4 723d 98ea e9bd
000001b0: 80bb b8bd 66b7 963d 88db 4ebd 90a6 a33d
000001c0: 3063 debc e432 d1bd 40f4 533b fc6b 203d
000001d0: 760b c9bd e801 993c 103d 123d 280e 813c
000001e0: 98cc abbc c072 463b 54d6 46bd 1c13 fdbd
000001f0: e8ab fe3d dc80 5c3d f46f 8dbd 740f d2bd
00000200: cba1 f9bc 2d81 c7bd ad7d 9d3c ef64 8a3d
00000210: 53a6 6cbc c665 1abc 72a5 b0bd 0183 ee3d
00000220: c899 343e 8fee 8dbc 0624 8fbd c0b7 d43d
00000230: ef8b 193c 12df 7fbd 097f 98bd e8cc 2d3e
00000240: fd5e 1ebe cbae dd3d 97ae 663d cc64 b13b
00000250: 41e9 89bc d1a7 a93d 57e7 7fbd f3a7 6cbd
00000260: 1ca8 473d 0669 0ebc de4c ed3d 4f54 9c3d
00000270: 2a07 8dbd efe1 12be 7e46 e3bb 4c20 63ba
00000280: f885 95bb 199f dd3b aff6 cdbc 2e60 77bd
00000290: d5e5 9dbd a4c7 0a3e 9b49 c7bd ff31 7e3d
000002a0: 7f68 7cbc f60b 8d3c 22fe 073e 2e67 1b3e
000002b0: 8658 a7bd 2c50 b6bc 88db dbbc 761a 55bd
000002c0: 05bc bb3d 2a91 8f3b f7e7 16bd d74c 82bd
000002d0: a5cf 183e 0b0c acbd da6c 93bc b760 b53d
000002e0: 1d68 ec3c acb2 d23d 6f95 97bd 5fc9 633d
000002f0: c7bf b5bc bb41 54bc f06d a13d 5ff1 9fbd
00000300: 78d5 72bd 8e8b f4bd 602a 4ebd 6208 863d
00000310: 08f3 e03d 54a6 6f3d ec9f ce3d eada f7bd
00000320: 88eb a3bc 2cc1 1bbd b85f ccbc 6c3d 8e3d
00000330: 6a1a 83bd d66b 80bd 86a5 acbd 2a1b f9bd
00000340: a2d7 f93d f490 743d 80e1 eabd 364e 843d
00000350: fc47 11bd 2a76 fe3d 0cd7 66bd 80dc a23a
00000360: e02e e3bc a00f 7a3c 68be 97bc 92d2 e33d
00000370: 68ec 223d 729c febd 14cd 25bd 8cc0 7c3d
00000380: b0be a13c faab f5bd b82e 33bd 74b7 813d
00000390: 88fa e3bc 00ec c5ba 4005 98bb 3ef1 92bd
000003a0: 00d4 bcba f2ec 92bd a019 e83b 108d 2abd
000003b0: e083 99bb 5020 ff3d 24eb 103d c262 eabd
000003c0: 6603 cfbd 6a09 a7bd 94c1 f4bd 0033 403b
000003d0: a67d 9ebd ded3 bb3d b096 a13c 8a43 80bd
000003e0: 8e41 fe3d 0caf 7fbd de26 99bd 1c42 79bd
000003f0: 26c8 a93d 745a eebd 8c46 643d d054 0bbd

net.2.bias f4 [128]
0.03733931 0.016927645 0.13033569 -0.06170906 0.08308458 0.12315796 -0.12455407 0.10002916
-0.0924019 -0.10275872 -0.021317078 -0.085936464 0.02649959 0.007347902 -0.016653841 -0.081227526
-0.09672512 -0.12029341 -0.08798608 0.12859283 -0.022931134 0.0945359 -0.10807588 -0.072333425
0.001908275 -0.06797401 0.07978753 0.053854365 0.042835873 -0.06733439 -0.02304649 0.08099565
0.00708758 0.010140349 -0.09414272 0.14682563 -0.069172755 -0.060844056 -0.07503209 0.16658041
0.09516567 -0.07506455 0.032318708 -0.08859368 0.10348207 -0.0057380344 -0.08085514 -0.09294236
-0.049155824 0.0042836275 0.061014984 0.058879424 -0.016433692 0.09452659 0.016935794 -0.12690203
0.07150304 0.0046704616 -0.03290516 -0.04876153 0.061335064 -0.0027240105 -0.09020188 0.036681026
0.05472582 -0.088184506 -0.0042791516 0.08399087 0.07276039 0.0065858783 0.005885891 -0.041989617
0.016435996 -0.057079233 -0.039936066 0.13566996 0.07259813 -0.06435633 -0.052268125 -0.078940704
0.06945813 -0.05367784 0.030483466 -0.048358887 -0.050124757 0.15304275 0.10023955 0.025684144
-0.06739814 -0.023528647 -0.010253159 0.08658462 0.11865017 0.030442635 0.12156906 0.014881788
-0.08004743 0.1267569 -0.07239158 -0.09223194 0.011878463 -0.06951514 0.11255281 0.0782841
0.14894639 -0.052785862 0.096761085 -0.00795171 -0.05017774 0.15764967 0.051372968 -0.01405566
-0.0069471137 -0.094182506 0.111144505 -0.036113948 0.053645894 -0.112704694 -0.023643602 -0.009976357
0.046631113 0.117604166 -0.07242578 0.12790318 0.11081423 0.014522495 0.06486333 0.045368735
00000000: 1bf1 183d d8ab 8a3c b876 053e a4c2 7cbd
00000010: 4028 aa3d 3e3a fc3d 3416 ffbd 17dc cc3d
00000020: 353d bdbd 2a73 d2bd 27a1 aebc 75ff afbd
00000030: ab15 d93c abc6 f03b a36d 88bc 9e5a a6bd
00000040: d217 c6bd 645c f6bd 0c32 b4bd d7ad 033e
00000050: 13da bbbc 0a9c c13d e356 ddbd 8c23 94bd
00000060: 151f fa3a f535 8bbd a567 a33d 6596 5c3d
00000070: ab74 2f3d 9de6 89bd fecb bcbc 0ce1 a53d
00000080: ee3e e83b b523 263c e6cd c0bd 7559 163e
00000090: 72aa 8dbd 9e37 79bd 6daa 99bd 0e94 2a3e
000000a0: 38e6 c23d 71bb 99bd 9f60 043d 9a70 b5bd
000000b0: 68ee d33d 1f06 bcbb 6197 a5bd 9058 bebd
000000c0: 9e57 49bd ac5d 8c3b d9ea 793d 8d2b 713d
000000d0: f39f 86bc 2897 c13d efbc 8a3c 9bf2 01be
000000e0: 3070 923d ac0a 993b 90c7 06bd 2cba 47bd
000000f0: 7a3a 7b3d 5085 32bb c3bb b8bd d83e 163d
00000100: 2e28 603d 149a b4bd 2038 8cbb 6803 ac3d
00000110: 6603 953d 5ace d73b 6fde c03b 4efd 2bbd
00000120: c8a4 863c eacb 69bd 0094 23bd 11ed 0a3e
00000130: 54ae 943d 40cd 83bd 1a17 56bd aaab a1bd
00000140: 1040 8e3d 4bdd 5bbd 76b8 f93c f813 46bd
00000150: 9e4f 4dbd 3db7 1c3e 654a cd3d 8e67 d23c
00000160: 0908 8abd 26bf c0bc defc 27bc 4753 b13d
00000170: dcfe f23d d562 f93c 33f9 f83d bed2 733c
00000180: e8ef a3bd 90cc 013e 0942 94bd 19e4 bcbd
00000190: e39d 423c f45d 8ebd 1682 e63d 6a53 a03d
000001a0: 6785 183e fd35 58bd ad2a c63d e447 02bc
000001b0: 2d87 4dbd ea6e 213e 766c 523d b649 66bc
000001c0: 9da4 e3bb c2e2 c0bd bb9f e33d 38ec 13bd
000001d0: ccbb 5b3d b8d1 e6bd 3ab0 c1bc e073 23bc
000001e0: 4400 3f3d 74da f03d f853 94bd 0df9 023e
000001f0: 92f2 e23d c2ef 6d3c 11d7 843d 91d4 393d

net.4.weight f4 [256, 128]
0.024011765 -0.047590904 -0.07011497 -0.07103878 -0.025838705 0.07310946 0.032309614 -0.04558584
-0.08736127 -0.012347404 -0.04305901 0.0049383463 0.0337049 -0.03617528 0.011211936 -0.05166641
-0.024077525 0.01861426 -0.031691648 -0.080199435 0.07567841 0.010507261 -0.062223054 -0.075408265
-0.0862755 0.06106506 0.05210468 0.063518226 -0.051655028 0.050943043 -0.07111034 0.06494264
0.0015966385 0.038496964 -0.006583759 0.007940118 -0.054302577 0.080347285 -0.04900398 0.040104948
-0.06877109 -0.040657956 0.0023975128 0.08204778 -0.03901049 0.023967879 -0.017716227 -0.04011769
0.014241019 -0.08545913 -0.07816256 -0.05859751 0.00076345855 -0.038411964 -0.062048074 -0.0041028163
0.073363714 -0.052781437 -0.07562101 0.035586763 0.07896891 -0.0605267 -0.07146545 0.07108779
-0.06925274 0.022463238 0.023354454 -0.022264704 -0.027812358 -0.03390679 0.050035052 -0.03214496
-0.057652872 -0.036611795 0.079662465 -0.00030375234 0.00019366476 -0.014024911 0.047418535 0.0050989785
-0.02978934 0.010971899 -0.010889649 0.036274698 0.053626332 -0.0617135 0.040650867 0.06314149
-0.0014041854 -0.07060203 0.06179459 -0.03840408 -0.013223752 0.05150877 0.034627177 0.050904963
-0.022458728 -0.053446904 -0.08734224 -0.060994033 0.086101964 0.050337024 0.059510265 -0.08637135
-0.01971209 0.021437172 0.08216265 -0.08243935 0.013180099 0.007123228 0.030981295 0.014992044
0.05614472 -0.007900806 0.082241006 -0.08684669 0.051854014 -0.0077338833 0.07922344 0.071660586
-0.079251446 -0.08180976 0.06556732 -0.038728412 -0.008168312 -0.078315966 -0.040322058 -0.027922317
0.07190533 -0.006653017 -0.059067555 0.044004925 0.0994392 0.013502149 -0.0827942 0.0018395678
0.08738611 -0.023156026 0.00647754 -0.122492865 -0.0065264865 -0.0055639916 0.11463735 -0.029870797
0.061197232 0.025786642 0.0002476022 -0.0007386403 0.0389384 -0.015618114 0.1410795 -0.09223015
0.06391082 -0.003240287 0.02894546 0.14632566 -0.035330318 0.005320321 0.08091294 0.12514076
0.09675107 0.12197115 0.031740308 -0.059478104 0.105298586 0.01993552 0.085176334 0.039699785
-0.036090333 0.03057421 0.08570748 -0.04771845 -0.037323162 0.11167723 0.02684502 0.08579766
0.10346615 0.040051326 0.014425515 0.16900015 0.052054387 0.04725696 0.10620358 0.024479983
0.07688095 -0.052671853 0.1472745 0.034762762 -0.07104491 0.13756582 0.14699928 -0.0065617
0.0637398 0.109273665 -0.06221845 -0.0152197145 -0.05483392 -0.08318727 -0.0018857524 0.06859699
0.12265341 0.10166416 0.08389063 0.13332954 0.01082282 0.04373822 0.10217184 0.023522798
0.046250403 -0.07071679 0.10359693 -0.06568672 0.08671838 -0.12375248 0.030772332 0.075731345
0.07653143 -0.0846771 0.06394223 0.07015444 0.058966465 -0.0087670265 0.04413044 0.020838797
-0.05889609 -0.102527715 0.066646546 0.09220635 0.011628285 0.07324169 -0.028122714 0.007768513
-0.08309592 0.020721585 0.16602354 0.061899617 -0.012395738 -0.13485515 -0.015948683 -0.007655052
0.046728604 -0.0036508157 0.08371969 -0.028524937 -0.0061464855 0.050203536 0.0478935 0.07926287
0.058522835 -0.020744037 0.06054345 0.005625907 0.02762915 0.037712682 -0.017253103 0.0031048318
00000000: 52b4 c43c aeee 42bd 7098 8fbd c87c 91bd
00000010: b1ab d3bc 6aba 953d 1657 043d 38b8 3abd
00000020: 77ea b2bd c44c 4abc a55e 30bd dad1 a13b
00000030: 260e 0a3d 882c 14bd 45b2 373c 28a0 53bd
00000040: 3b3e c5bc ef7c 983c 1acf 01bd 9a3f a4bd
00000050: 48fd 9a3d a626 2c3c 9add 7ebd a66f 9abd
00000060: 36b1 b0bd 5b1f 7a3d b86b 553d d815 823d
00000070: 3994 53bd a7a9 503d 4ca2 91bd a600 853d
00000080: 4c46 d13a feae 1d3d 93bc d7bb 4517 023c
00000090: 616c 5ebd 1e8d a43d 66b8 48bd 1645 243d
000000a0: dbd7 8cbd f588 26bd 971f 1d3b ab08 a83d
000000b0: 77c9 1fbd 4958 c43c 9f21 91bc 7252 24bd
000000c0: 2a53 693c 3205 afbd b113 a0bd f103 70bd
000000d0: d622 483a dd55 1dbd 1f26 7ebd eb70 86bb
000000e0: b73f 963d 5931 58bd 30df 9abd 6dc3 113d
000000f0: 74ba a13d d8ea 77bd 7a5c 92bd 7a96 913d
00000100: 61d4 8dbd d304 b83c d751 bf3c 7864 b6bc
00000110: bed6 e3bc d9e1 0abd 8ef1 4c3d 6faa 03bd
00000120: 6b25 6cbd 40f6 15bd 1326 a33d f340 9fb9
00000130: 7d12 4b39 bec8 65bc f039 423d 5515 a73b
00000140: c608 f4bc 7bc3 333c 806a 32bc c794 143d
00000150: 49a7 5b3d 4cc7 7cbd 8681 263d 5350 813d
00000160: a50c b8ba cc97 90bd 531c 7d3d 994d 1dbd
00000170: 70a8 58bc dcfa 523d 3ad5 0d3d b981 503d
00000180: 5efb b7bc 24eb 5abd 7de0 b2bd e1d4 79bd
00000190: 3a56 b03d 322e 4e3d 09c1 733d 76e3 b0bd
000001a0: 407b a1bc 029d af3c e444 a83d f6d5 a8bd
000001b0: 58f1 573c f869 e93b 7ccc fd3c 31a1 753c
000001c0: 02f8 653d 6272 01bc f96d a83d addc b1bd
000001d0: e064 543d 846c fdbb e63f a23d c9c2 923d
000001e0: 954e a2bd e08b a7bd 2948 863d afa1 1ebd
000001f0: 62d4 05bc 1f64 a0bd be28 25bd 58bd e4bc
00000200: 1a43 933d 8d01 dabb d2f0 71bd 823e 343d
00000210: c7a6 cb3d 1e38 5d3c 0190 a9bd a71d f13a
00000220: 7df7 b23d b5b1 bdbc 8b41 d43b 8add fabd
00000230: 23dc d5bb 2552 b6bb fdc6 ea3d 9ab3 f4bc
00000240: f3a9 7a3d 823e d33c 9bd0 8139 50a1 41ba
00000250: df7d 1f3d 1ee3 7fbc 2577 103e 29e3 bcbd
00000260: ade3 823d ff5a 54bb 081f ed3c 65d6 153e
00000270: 86b6 10bd 1656 ae3b afb5 a53d e624 003e
00000280: 6d25 c63d 03cc f93d 2002 023d 509f 73bd
00000290: c9a6 d73d d14f a33c ee70 ae3d 3e9c 223d
000002a0: 75d3 13bd c476 fa3c 6787 af3d 6c74 43bd
000002b0: 2ce0 18bd 08b7 e43d 16ea db3c afb6 af3d
000002c0: 10e6 d33d dc0c 243d ff58 6c3c 600e 2d3e
000002d0: fb36 553d 8490 413d 4381 d93d 3f8a c83c
000002e0: c273 9d3d 71be 57bd 20cf 163e 6663 0e3d
000002f0: fe7f 91bd 0ede 0c3e fb86 163e 8703 d7bb
00000300: 038a 823d dfca df3d c6d8 7ebd 1c5c 79bc
00000310: 8899 60bd 165e aabd 5a2b f7ba 947c 8c3d
00000320: b631 fb3d 4d35 d03d dace ab3d 8a87 083e
00000330: 3252 313c d926 333d 783f d13d e2b2 c03c
00000340: 1071 3d3d f7d3 90bd a12a d43d c286 86bd
00000350: 6899 b13d f171 fdbd 4216 fc3c 0919 9b3d
00000360: 83bc 9c3d 306b adbd 25f4 823d 22ad 8f3d
00000370: d286 713d 93a3 0fbc 1fc2 343d 20b6 aa3c
00000380: 073d 71bd 0dfa d1bd fc7d 883d afd6 bc3d
00000390: 9084 3e3c bdff 953d 9b61 e6bc 038f fe3b
000003a0: 322e aabd 50c0 a93c 1302 2a3e 748a 7d3d
000003b0: 7e17 4bbc 7817 0abe d0a6 82bc 3bd7 fabb
000003c0: 7e66 3f3d 8642 6fbb 3b75 ab3d 21ad e9bc
000003d0: 7568 c9bb 39a2 4d3d fa2b 443d 9254 a23d
000003e0: a4b5 6f3d 66ef a9bc 69fc 773d 8759 b83b
000003f0: 8756 e23c 9d78 1a3d 6156 8dbc 6f7a 4b3b

net.4.bias f4 [256]
0.003314723 -0.034500565 0.026693122 -0.081272416 -0.0101298075 -0.093121044 -0.04715243 -0.046289567
-0.078391805 -0.028614001 -0.053305034 -0.019387368 0.017374704 -0.10756378 0.045307282 -0.029796569
-0.04226722 -0.022997843 -0.055754367 -0.008864912 -0.056582112 -0.0045126746 0.0662335 0.019269945
0.05898243 0.0016434917 0.08600454 -0.11866725 0.091349214 0.071694285 -0.08119564 -0.050994866
-0.0001942256 -0.027436815 -0.01849866 -0.050493088 -0.037500046 -0.050972234 -0.018665172 -0.029203692
-0.025885243 -0.035997484 0.023173358 0.021879112 -0.029655492 -0.087939635 -0.103565834 0.06943609
0.085403465 -0.04793736 -0.07387329 0.042616718 -0.04058263 -0.041837588 -0.021797668 -0.10964492
0.014098684 0.06986271 -0.10755427 0.031583887 0.044515688 0.040897533 -0.0045002955 -0.009577908
-0.09442582 0.041263584 -0.06497242 0.060301468 -0.028850071 -0.07169182 -0.0016914081 -0.06537019
-0.08994675 0.05306643 0.011980621 0.03299312 -0.05839111 -0.093907654 0.048443187 -0.08292794
-0.05202736 -0.10868157 0.067905225 -0.020253025 -0.0734481 0.005395721 -0.0448093 -0.008425698
-0.01213624 0.01151807 0.042689607 -0.048597947 -0.05007676 -0.0040448103 0.054749366 -0.043543622
-0.07191471 -0.0067000007 -0.026904898 0.055812754 -0.049445406 -0.05089145 -0.08065736 -0.015645897
0.04302284 -0.05473047 0.0015215824 -0.05274486 0.065954804 -0.107330605 -0.10302828 0.0278589
0.040638078 -0.013490973 0.0360477 -0.07127235 -0.011447438 -0.116598815 -0.051827993 -0.06403092
0.104168855 -0.074052736 0.086632214 0.045750465 0.038163517 -0.015678644 -0.08207352 0.0024028725
-0.07729658 0.036346108 0.035426132 0.018551115 0.034344453 0.0018494194 -0.11798316 0.04054834
0.0052658934 -0.0034325544 -0.014858622 -0.0814114 0.004189108 0.0022757216 -0.03111541 -0.039249934
-0.02802222 -0.0034117613 0.047027215 -0.072114766 -0.055261943 -0.021789689 -0.0034857898 -0.03689392
-0.033330455 0.12805599 0.019362567 0.01071799 -0.09852494 -0.0317178 -0.044974595 -0.080409
-0.0705498 -0.024161266 0.012059237 0.045289993 0.0019110751 -0.0043323706 -0.047601476 -0.08665963
-0.039517093 -0.07976931 0.022361638 0.040875867 0.040760055 -0.07948589 0.027965778 -0.10065076
-0.032046873 -0.07182259 -0.08144945 0.00813663 0.03076587 -0.10333706 -0.082726955 0.016494552
-0.016911445 -0.07119314 0.004611527 -0.019654956 -0.064020306 -0.010782599 -0.057435025 -0.11280188
-0.07232119 -0.02367589 -0.061097104 -0.06084641 0.015521383 -0.08020298 0.0036304158 0.008728787
0.05604192 -0.087913424 -0.03699071 -0.10909145 0.06872679 -0.033928357 0.008409435 -0.08359914
-0.030150237 0.06979197 0.0139654 0.0089845415 0.0515412 -0.025259413 -0.039757118 -0.03249063
-0.058444276 -0.04750164 0.05279666 0.049515214 0.057400644 -0.06739584 0.016824452 -0.08263736
0.015895197 -0.030546267 -0.014356891 -0.07563972 0.027453637 0.02224904 -0.094023004 0.06454311
0.01505387 -0.08359843 -0.07755515 -0.06439203 -0.007148401 -0.016071467 0.022299707 -0.0045164647
0.024968322 -0.042758018 -0.087780535 0.033796206 -0.05846558 -0.101816125 -0.109367095 -0.020131199
-0.025062345 -0.0660996 -0.026664654 0.058573212 0.03049031 0.015238273 -0.005255039 -0.029637298
00000000: d33b 593b 7750 0dbd 89ab da3c 2772 a6bd
00000010: 7ef7 25bc 3fb6 bebd e822 41bd 219a 3dbd
00000020: e28b a0bd e967 eabc 6156 5abd 42d2 9ebc
00000030: 6555 8e3c 664a dcbd 2194 393d ef17 f4bc
00000040: 6420 2dbd f965 bcbc b15e 64bd 233e 11bc
00000050: a5c2 67bd 0fdf 93bb 6ea5 873d 01dc 9d3c
00000060: 8f97 713d 6e6a d73a 2623 b03d d107 f3bd
00000070: 4c15 bb3d 74d4 923d e649 a6bd fedf 50bd
00000080: 0aa9 4bb9 2cc3 e0bc 808a 97bc d7d1 4ebd
00000090: a699 19bd 43c8 50bd b4e7 98bc 953c efbc
000000a0: 4a0d d4bc 1972 13bd 0ed6 bd3c d33b b33c
000000b0: 13f0 f2bc b219 b4bd 531a d4bd 8234 8e3d
000000c0: 03e8 ae3d f759 44bd e14a 97bd de8e 2e3d
000000d0: f939 26bd e45d 2bbd 0691 b2bc 848d e0bd
000000e0: 2bfe 663c 2e14 8f3d 6a45 dcbd 1b5e 013d
000000f0: 1556 363d 2c84 273d 3777 93bb a8ec 1cbc
00000100: 5362 c1bd 0104 293d 4310 85bd acfe 763d
00000110: fc56 ecbc 29d3 92bd 3db2 ddba cee0 85bd
00000120: 0036 b8bd 2f5c 593d 5e4a 443c cb23 073d
00000130: 842b 6fbd a852 c0bd 5d6c 463d 20d6 a9bd
00000140: a41a 55bd 7194 debd e511 8b3d ace9 a5bc
00000150: f56b 96bd 97ce b03b f589 37bd f00b 0abc
00000160: 14d7 46bc 49b6 3c3c 4cdb 2e3d a40e 47bd
00000170: 4a1d 4dbd 548a 84bb df40 603d cc5a 32bd
00000180: 0548 93bd ae8b dbbb a967 dcbc ea9b 643d
00000190: 4487 4abd 8e73 50bd b02f a5bd d32b 80bc
000001a0: b838 303d 0f2d 60bd d56f c73a ff0a 58bd
000001b0: 5013 873d 26d0 dbbd 7e00 d3bd 5938 e43c
000001c0: 1d74 263d 3e09 5dbc c1a6 133d 3df7 91bd
000001d0: 098e 3bbc 5ccb eebd 9749 54bd a522 83bd
000001e0: 7b56 d53d f6a8 97bd 3b6c b13d d764 3b3d
000001f0: 5951 1c3d 8070 80bc 2916 a8bd 8379 1d3b
00000200: ab4d 9ebd a8df 143d fe1a 113d 82f8 973c
00000210: c5ac 0c3d 3868 f23a 28a1 f1bd 0416 263d
00000220: 848d ac3b b5f4 60bb 9471 73bc 05bb a6bd
00000230: c944 893b 4624 153b bfe5 febc 8ac4 20bd
00000240: db8e e5bc db97 5fbb 9c9f 403d e8b0 93bd
00000250: 595a 62bd 4a80 b2bc d971 64bb 141e 17bd
00000260: 8485 08bd 1c21 033e 3f9e 9e3c 829a 2f3c
00000270: 72c7 c9bd 86ea 01bd 4837 38bd 79ad a4bd
00000280: 6a7c 90bd d9ed c5bc 1b94 453c 0082 393d
00000290: 0a7d fa3a 8ff6 8dbb c4f9 42bd 9b7a b1bd
000002a0: addc 21bd 185e a3bd c12f b73c 746d 273d
000002b0: 04f4 263d 80c9 a2bd 7d18 e53c fc21 cebd
000002c0: 9543 03bd b917 93bd f8ce a6bd 804f 053c
000002d0: b508 fc3c 61a2 d3bd c06c a9bd 951f 873c
000002e0: df89 8abc b5cd 91bd 4b1c 973b 6e03 a1bc
000002f0: 141d 83bd 80a9 30bc fd40 6bbd ac04 e7bd
00000300: 221d 94bd f1f3 c1bc f540 7abd 163a 79bd
00000310: 664d 7e3c 7641 a4bd 45ec 6d3b 3003 0f3c
00000320: 368c 653d f40b b4bd 9283 17bd 576b dfbd
00000330: a2c0 8c3d 76f8 0abd bac7 093c 0736 abbd
00000340: a1fd f6bc 18ef 8e3d 22cf 643c e633 133c
00000350: de1c 533d d4ec cebc 5cd8 22bd e514 05bd
00000360: 4463 6fbd 1491 42bd 5041 583d 77d0 4a3d
00000370: f01c 6b3d d506 8abd 6fd3 893c c73d a9bd
00000380: a536 823c 2a3c fabc 2a39 6bbc ffe8 9abd
00000390: 73e6 e03c 9e43 b63c 228f c0bd 2e2f 843d
000003a0: 82a4 763c a735 abbd 3cd5 9ebd f8df 83bd
000003b0: 223d eabb 4fa8 83bc e0ad b63c dafe 93bb
000003c0: 5e8a cc3c 0823 2fbd 48c6 b3bd e46d 0a3d
000003d0: 9b79 6fbd f984 d0bd dbfb dfbd 2fea a4bc
000003e0: 8c4f cdbc 3a5f 87bd d56f dabc 77ea 6f3d
000003f0: d1c6 f93c f3a9 793c 7632 acbb ebc9 f2bc

net.6.weight f4 [2, 256]
-0.028684698 0.068301626 0.04416755 0.12962773 -0.040977813 0.0113330325 -0.031815954 0.12457927
0.16484904 -0.016878806 -0.02066231 0.06459473 0.04431058 0.17703062 0.13124074 0.08194177
-0.041195683 0.11471907 0.14655258 0.13130215 0.06209161 -0.029925156 -0.060447432 -0.08752438
-0.034293324 -0.013587885 -0.110334516 0.13519624 -0.12013371 0.12263221 0.09753668 0.14021076
0.13644418 0.15112409 0.054225627 0.031817365 -0.029503955 0.16502939 -0.03537008 -0.075735666
-0.015641207 0.14644676 0.17284708 -0.0441235 -0.007802658 0.137621 0.15353931 -0.04885973
-0.088564694 -0.028575465 -0.05934523 0.10808227 0.12696224 0.17885587 0.01442841 0.12922408
0.119806245 -0.05352302 0.03799629 0.08074567 -0.07845045 0.15547481 0.103694215 0.113896444
0.14265366 -0.02111612 -0.03188806 -0.13418807 -0.014324148 0.18315525 0.092234075 0.16809745
0.1292443 0.013298356 0.0047266427 0.07558941 0.1207128 0.16790968 0.15236817 -0.017793063
0.17743723 0.13516112 -0.11275621 0.15401441 -0.11258634 0.10194322 0.14674354 0.13163123
-0.020910092 0.01574219 0.1350262 0.14970392 -0.019250674 0.02645036 0.0042351633 0.12673463
0.15096892 0.1316404 -0.02301572 0.0990739 0.07034752 0.11454758 0.068441845 0.060868867
0.0757291 0.1337011 -0.09366172 0.0068066865 -0.007291811 0.13621452 0.122613005 0.11092972
0.10066464 -0.044364646 0.1357403 0.047064137 -0.10138076 0.12641351 0.14991075 -0.051080517
-0.117708065 0.14857337 0.039068617 0.13690318 0.010552405 0.08448942 -0.0056070983 0.1877093
-0.017936219 0.11843164 -0.026365072 -0.056902304 -0.013661429 0.120420195 0.15642191 -0.0026296626
0.12301682 0.04245308 0.098591946 0.09392146 0.009255749 0.0056617325 -0.021743838 -0.087346934
-0.08528031 0.1314998 -0.09518361 0.12838125 0.1431811 0.050643213 0.07146419 -0.05153902
-0.02649407 -0.06011483 -0.046034403 0.10332294 0.1680639 0.112923875 0.11153761 0.053725578
0.12450778 0.15420452 0.14490023 0.1818865 0.036069855 0.16677079 -0.12246353 0.08264575
0.14035837 0.04022249 0.14436388 0.14256708 0.0872075 -0.02528506 0.1563359 0.12349328
0.14390261 -0.040067278 -0.1088731 0.08849635 -0.06359786 0.0807928 0.053205293 0.18416144
0.15671664 -0.048714433 0.14478101 0.15901652 0.06581395 0.08209925 -0.008341607 0.15367855
0.18045206 0.09701361 -0.03377001 0.14107186 -0.048293024 0.06756698 0.12147884 0.0993061
-0.054004237 0.003242202 0.13936631 0.17210498 -0.020936398 -0.06394943 -0.022883167 -0.055567537
0.15400165 0.043655753 0.092615664 -0.12278264 -0.0011686265 0.13519937 0.05949006 0.15223095
-0.0209365 0.09373325 0.12814285 0.09866624 -0.037757922 -0.03865856 -0.106453225 0.101690814
-0.1045642 0.123256706 0.045062505 0.12638915 -0.14463018 -0.08438317 -0.0011423825 -0.047904853
-0.0015072963 0.09846117 0.081958435 -0.031868838 0.14095317 0.036942728 0.085978255 0.12145944
-0.04595195 -0.038650624 0.11513789 0.09937693 -0.055015065 0.05367723 0.15299709 0.1622211
0.12564151 0.106050424 -0.00048136193 -0.053209424 0.16477275 -0.02516195 0.077615544 0.14459299
00000000: 2cfc eabc b9e1 8b3d 08e9 343d 22bd 043e
00000010: 5ad8 27bd 2fae 393c 7251 02bd 6b23 ff3d
00000020: 30ce 283e 6c45 8abc 0144 a9bc 3e4a 843d
00000030: 037f 353d 8447 353e f963 063e 16d1 a73d
00000040: cebc 28bd d5f1 ea3d e111 163e 1274 063e
00000050: c653 7e3d 9a25 f5bc ba97 77bd fb3f b3bd
00000060: 2877 0cbd b89f 5ebc 10f7 e1bd e270 0a3e
00000070: aa08 f6bd 9926 fb3d 50c1 c73d 6993 0f3e
00000080: 06b8 0b3e 46c0 1a3e b11b 5e3d ed52 023d
00000090: 47b2 f1bc 77fd 283e 38e0 10bd 4d1b 9bbd
000000a0: fd21 80bc 24f6 153e d3fe 303e d8ba 34bd
000000b0: 70ad ffbb 85ec 0c3e 6939 1d3e 2421 48bd
000000c0: 6861 b5bd 1817 eabc fc13 73bd 3d5a dd3d
000000d0: 6402 023e fe25 373e 2365 6c3c 5153 043e
000000e0: fa5c f53d f43a 5bbd ffa1 1b3d fc5d a53d
000000f0: a1aa a0bd ca34 1f3e a25d d43d 8a42 e93d
00000100: cd13 123e b7fb acbc 0e9d 02bd 9968 09be
00000110: d5af 6abc 0d8d 3b3e 38e5 bc3d bd21 2c3e
00000120: 9e58 043e 59e1 593c f4e1 9a3b 9fce 9a3d
00000130: 4638 f73d 84f0 2b3e 6706 1c3e c2c2 91bc
00000140: 1bb2 353e ad67 0a3e baec e6bd f4b5 1d3e
00000150: ab93 e6bd 9bc7 d03d f043 163e 56ca 063e
00000160: a44b abbc c4f5 803c 4f44 0a3e fc4b 193e
00000170: 97b3 9dbc 6dae d83c 20c7 8a3b b9c6 013e
00000180: 9997 1a3e becc 063e 778b bcbc 42e7 ca3d
00000190: 5c12 903d ec97 ea3d 3d2b 8c3d a251 793d
000001a0: dc17 9b3d f1e8 083e b7d1 bfbd a00a df3b
000001b0: 25f0 eebb d27b 0b3e 871c fb3d 1f2f e33d
000001c0: 4329 ce3d b4b7 35bd 81ff 0a3e 53c6 403d
000001d0: b7a0 cfbd 8b72 013e 3482 193e ce39 51bd
000001e0: ed10 f1bd 9e23 183e 6a06 203d 5930 0c3e
000001f0: ffe3 2c3c ca08 ad3d c0bb b7bb de36 403e
00000200: faee 92bc 4a8c f23d 90fb d7bc 6412 69bd
00000210: 30d4 5fbc dd9e f63d 112d 203e 6b56 2cbb
00000220: 3ef0 fb3d 48e3 2d3d 93ea c93d e559 c03d
00000230: 6da5 173c 0e86 b93b 2220 b2bc f3e2 b2bd
00000240: 71a7 aebd e2a7 063e a0ef c2bd 6076 033e
00000250: 119e 123e 426f 4f3d d15b 923d 941a 53bd
00000260: 180a d9bc f83a 76bd 928e 3cbd fa9a d33d
00000270: f118 2c3e a244 e73d d56d e43d 5a0f 5c3d
00000280: effd fe3d cae7 1d3e ba60 143e 7440 3a3e
00000290: fcbd 133d f6c5 2a3e 29ce fabd 2d42 a93d
000002a0: 1bba 0f3e 56c0 243d 20d4 133e 1bfd 113e
000002b0: d999 b23d 9d22 cfbc 8516 203e 0bea fc3d
000002c0: 355b 133e 961d 24bd dcf8 debd 933d b53d
000002d0: 983f 82bd b276 a53d cbed 593d d194 3c3e
000002e0: 547a 203e c988 47bd 7941 143e 3ad5 223e
000002f0: 77c9 863d a723 a83d 3cab 08bc e95d 1d3e
00000300: 6dc8 383e 12af c63d 6c52 0abd 2475 103e
00000310: e8ce 45bd 8f60 8a3d e6c9 f83d ff60 cb3d
00000320: 8c33 5dbd 207b 543b 0bb6 0e3e 4a3c 303e
00000330: cf82 abbc ebf7 82bd 7b75 bbbc c99a 63bd
00000340: 9cb2 1d3e 60d0 323d 48ad bd3d 7775 fbbd
00000350: 992c 99ba b471 0a3e d9ab 733d 6ee2 1b3e
00000360: 0683 abbc 38f7 bf3d e137 033e 8711 ca3d
00000370: 0da8 1abd 7058 1ebd 2604 dabd 4643 d03d
00000380: c125 d6bd 036e fc3d 7693 383d 286c 013e
00000390: ef19 14be 15d1 acbd ffbb 95ba e137 44bd
000003a0: 7990 c5ba 03a6 c93d d3d9 a73d e688 02bd
000003b0: 0756 103e 4251 173d 5e15 b03d babf f83d
000003c0: 1d38 3cbd 1e50 1ebd 6acd eb3d 2286 cb3d
000003d0: 7a57 61bd a8dc 5b3d 45ab 1c3e 4a1d 263e
000003e0: 2ba8 003e f730 d93d 4e5f fcb9 20f2 59bd
000003f0: 30ba 283e 6f20 cebc e6f4 9e3d 2f10 143e

net.6.bias f4 [2]
-0.03598215 0.0059273834
00000000: 0562 13bd 7f3a c23b

exp_avg f4 [64, 2]
-5.4727016e-06 -1.1792698e-06 4.3084566e-07 -4.285555e-07 1.958324e-06 2.9908904e-06 -1.201855e-08 1.63176e-08
5.8219604e-07 5.567858e-07 4.1190422e-05 2.5256786e-06 -4.264154e-09 2.8133645e-08 9.7244365e-06 -8.629633e-07
5.4975744e-06 4.653615e-06 8.470496e-07 9.9748995e-06 -2.5347097e-08 1.7606062e-08 -2.937392e-06 -3.5398796e-07
1.01485175e-05 1.2634283e-06 2.4001274e-09 2.1174808e-08 5.112915e-07 1.8874931e-06 4.1032825e-07 5.624485e-07
6.402333e-10 -1.942999e-08 -7.4106974e-06 -2.4968297e-06 -1.9979193e-06 6.9669545e-07 4.1593826e-09 -4.898011e-09
6.991951e-07 -1.8236476e-06 1.9406832e-06 5.9560193e-08 7.412051e-07 9.975188e-07 -1.5994059e-06 -5.108746e-07
-2.356749e-08 3.5285527e-07 -3.4250823e-07 -6.4227567e-07 -4.3603795e-06 8.3185944e-07 7.9314006e-08 -2.2960157e-06
-1.6078011e-06 -2.8392162e-07 -9.590681e-07 2.0593418e-06 5.8907807e-07 -5.420191e-06 1.5750578e-06 4.199604e-07
-1.17334324e-07 -3.205261e-07 -1.6436048e-05 -3.7227463e-07 -1.0665564e-06 -4.1997505e-06 3.627993e-06 5.8066344e-06
-1.2122493e-08 1.0693876e-08 4.43059e-08 1.0491962e-05 -1.526897e-07 -7.0692286e-06 -1.271803e-06 2.0183008e-06
-4.0272656e-07 7.885025e-06 -3.036072e-07 -3.6472306e-06 1.6267815e-06 5.4706807e-06 5.7919846e-07 9.774882e-07
-1.3369299e-05 1.2335683e-05 2.442288e-07 4.925542e-07 4.0891746e-07 9.8847495e-06 -3.3991887e-06 -5.0559147e-06
7.315437e-07 8.289359e-07 -5.132028e-07 -4.4670224e-07 1.2455434e-06 -1.1323065e-07 1.8098926e-06 1.2500741e-06
-2.6250593e-06 -4.9353406e-07 8.8808626e-08 1.8340173e-06 -5.8289547e-09 -2.340597e-09 -5.813372e-07 -1.6050636e-06
3.981894e-08 -9.716789e-09 1.4920315e-06 1.4276718e-06 -5.0908267e-07 -1.6198757e-06 7.41499e-08 -8.153215e-07
9.674462e-07 -4.2342543e-07 1.3304734e-06 5.023437e-07 -9.174503e-06 1.2189525e-06 -7.2135035e-06 1.6492422e-07
00000000: 26a2 b7b6 6747 9eb5 fa4e e734 3814 e6b4
00000010: c06b 0336 1bb7 4836 247a 4eb2 c82a 8c32
00000020: 3548 1c35 0776 1535 e1c3 2c38 d47e 2936
00000030: e583 92b1 8aaa f132 2326 2337 63a6 67b5
00000040: ce77 b836 4026 9c36 ce60 6335 de59 2737
00000050: dbba d9b2 243c 9732 0320 45b6 bc0b beb4
00000060: 8d43 2a37 1193 a935 7def 2431 e5e3 b532
00000070: af3f 0935 c555 fd35 164b dc34 2bfb 1635
00000080: 6afc 2f30 00e7 a6b2 68a9 f8b6 358f 27b6
00000090: fe13 06b6 8c04 3b35 51ea 8e31 5c4b a8b1
000000a0: 52b0 3b35 0ec4 f4b5 af3c 0236 20cf 7f33
000000b0: 3af7 4635 7ce2 8535 2bab d6b5 0923 09b5
000000c0: 7571 cab2 0f70 bd34 f9e1 b7b4 d968 2cb5
000000d0: 604f 92b6 f24c 5f35 5653 aa33 4015 1ab6
000000e0: a0cb d7b5 e46d 98b4 54b9 80b5 3933 0a36
000000f0: 2321 1e35 16df b5b6 9366 d335 eb76 e134
00000100: 3af9 fbb3 c614 acb4 25e0 89b7 09dd c7b4
00000110: 9926 8fb5 95eb 8cb6 7278 7336 9cd6 c236
00000120: 4a43 50b2 2ab8 3732 da4a 3e33 a206 3037
00000130: 06f3 23b4 3634 edb6 d1b2 aab5 2572 0736
00000140: 5136 d8b4 ed49 0437 75ff a2b4 f2c2 74b6
00000150: c957 da35 ca90 b736 377a 1b35 3d32 8335
00000160: b44c 60b7 5bf5 4e37 8d1e 8334 1138 0435
00000170: 3089 db34 add6 2537 9e1d 64b6 faa5 a9b6
00000180: 4d5f 4435 0b84 5e35 07c3 09b5 4ad2 efb4
00000190: 8c2c a735 3529 f3b3 70eb f235 38c8 a735
000001a0: 2d2a 30b6 677b 04b5 0fb7 be33 5b28 f635
000001b0: 0748 c8b1 38d8 20b1 300d 1cb5 916d d7b5
000001c0: 6305 2b33 e4ee 26b2 d041 c835 6e9e bf35
000001d0: e5a7 08b5 816a d9b5 573c 9f33 78dc 5ab5
000001e0: 33d9 8135 2653 e3b4 b892 b235 ccd8 0635
000001f0: 31ec 19b7 e49a a335 860b f2b6 0616 3134

exp_avg_sq f4 [64, 2]
4.673586e-09 3.3039314e-09 8.34283e-10 5.164421e-12 7.4100615e-10 6.252416e-10 2.4978122e-14 6.810026e-14
2.70763e-09 4.0427306e-10 1.4980526e-09 6.896198e-10 4.182025e-14 3.501444e-14 5.259218e-09 3.7183726e-10
1.066963e-09 5.421764e-10 2.4349567e-09 4.6918758e-09 5.209575e-14 4.4813138e-15 2.6632693e-10 2.4616598e-10
1.2296305e-08 2.8505914e-10 4.1007148e-15 3.0270013e-14 8.708081e-12 2.674855e-10 7.772797e-11 1.2452937e-10
4.5078767e-15 1.0338519e-15 1.9676314e-08 3.6729784e-09 2.4707036e-10 3.0368496e-12 1.8546845e-15 3.3950493e-15
9.4034495e-11 1.4334327e-10 2.2258318e-11 5.8295826e-11 1.2563506e-10 1.8817692e-10 6.72421e-10 5.279654e-11
1.8927787e-12 1.2067687e-13 3.2817457e-11 2.1500046e-12 1.1053721e-09 6.900131e-10 3.674916e-11 2.0863208e-10
4.2605287e-11 1.824499e-13 2.3191331e-10 6.0419864e-10 4.7165756e-09 4.2171727e-10 1.1550486e-09 3.783384e-11
1.3534852e-11 2.1080045e-10 6.7853625e-09 5.1441966e-09 4.613387e-09 8.026971e-09 2.1825848e-10 4.123073e-10
8.192119e-15 9.650579e-16 1.8590154e-10 1.5215889e-08 2.2566142e-10 6.702265e-09 1.19556205e-11 9.413721e-12
5.4205124e-10 7.518751e-10 3.9126376e-12 1.2711135e-09 5.713836e-10 2.982768e-10 5.080262e-11 1.4000004e-09
2.3975728e-08 3.0859827e-08 1.9816193e-12 3.7887654e-13 8.356032e-10 2.8663533e-10 1.7938282e-09 1.6073649e-09
2.5447686e-09 1.1275322e-11 4.2229352e-11 5.595641e-11 6.400948e-12 2.764144e-11 1.2638035e-10 1.1966672e-10
5.3372423e-10 1.8795633e-10 1.1263542e-11 3.3675404e-10 2.1132936e-15 3.806794e-15 5.3689064e-10 8.400074e-11
2.7498101e-14 6.855752e-14 3.2143004e-11 2.077277e-11 2.2404426e-12 4.5793837e-11 1.1178132e-10 1.8170272e-10
7.004191e-10 3.2197472e-10 4.9373317e-10 2.4737745e-11 8.082916e-10 1.8201739e-10 4.5502685e-10 2.7898453e-10
00000000: 4c95 a031 600b 6331 7253 6530 f8b4 b52c
00000010: acaf 4b30 77dd 2b30 a1fb e028 2159 9929
00000020: 2111 3a31 6040 de2f 0ae4 cd30 ae8f 3d30
00000030: 7757 3c29 e7b0 1d29 92b4 b431 716b cc2f
00000040: 6ca4 9230 4608 1530 3654 2731 2d36 a131
00000050: 4f9e 6a29 d374 a127 2f6a 922f c854 872f
00000060: b93f 5332 82b6 9c2f 6bbe 9327 f352 0829
00000070: b631 192d 3d0d 932f f5ec aa2e e7eb 082f
00000080: d369 a227 67fe 9426 ac04 a932 b867 7c31
00000090: 10d4 872f 05b3 552c e4a4 0527 9ba3 7427
000000a0: b7c8 ce2e 8b9b 1d2f 47c9 c32d a231 802e
000000b0: 2023 0a2f 18e7 4e2f 6cd5 3830 9f33 682e
000000c0: 4531 052c bdde 072a 2c55 102e 0a4b 172c
000000d0: d3eb 9730 5bab 3d30 e09f 212e b664 652f
000000e0: 4a61 3b2e 9a6b 4d2a cbfd 7e2f b314 2630
000000f0: 700f a231 6ed7 e72f a9bf 9e30 1e65 262e
00000100: 8e1b 6e2d 0dc7 672f ae24 e931 d5c0 b031
00000110: c883 9e31 fee6 0932 4dfa 6f2f 18ab e22f
00000120: 7b93 1328 5a14 8b26 a266 4c2f 18b4 8232
00000130: 0b1e 782f bf49 e631 5453 522d a19b 252d
00000140: 77ff 1430 82ac 4e30 e8a9 892c 55b3 ae30
00000150: 8c0f 1d30 bafa a32f aa6e 5f2e 236a c030
00000160: 2ff3 cd32 bd8a 0433 ae71 0b2c dd49 d52a
00000170: 59b0 6530 5694 9d2f b88a f630 20ea dc30
00000180: 0be0 2e31 895b 462d 06ba 392e 5119 762e
00000190: 9d36 e12c fd22 f32d e8f4 0a2f 3093 032f
000001a0: 81b5 1230 01a9 4e2f 7c26 462d eb21 b92f
000001b0: 6347 1827 7a27 8927 5294 1330 36b8 b82e
000001c0: 4eae f728 b860 9a29 ce5d 0d2e 1fb8 b62d
000001d0: 3aa8 1d2c 4767 492e 4acf f52e c5c8 472f
000001e0: 9d87 4030 ea01 b12f 62b7 0730 7398 d92d
000001f0: 772e 5e30 5721 482f 5627 fa2f 955f 992f

exp_avg f4 [64]
-8.5255915e-06 -1.19403985e-05 -2.7391603e-05 -1.1003155e-07 1.7287564e-05 1.5282125e-05 -1.5050313e-08 6.337126e-06
1.1963344e-06 -1.16188185e-05 1.0157632e-08 4.1356448e-06 -1.42513e-05 -1.7101281e-07 -9.67898e-06 7.6023287e-07
-2.271791e-09 2.007898e-05 2.0281307e-07 -1.5370091e-08 -2.614208e-06 9.160246e-08 -2.249039e-06 5.2999226e-06
-6.792995e-08 1.9572321e-06 1.7112809e-05 -9.707225e-06 2.4613128e-06 -2.3436194e-05 -3.1426619e-06 2.090897e-06
4.5954513e-07 4.7554895e-05 3.2400008e-06 -1.1134446e-05 -1.0764317e-08 -2.9166888e-05 1.7528324e-05 -4.3111004e-07
1.0849824e-05 1.70253e-05 -8.441422e-06 7.637819e-06 -2.867016e-05 4.539475e-07 -6.1366463e-06 -5.902873e-06
-2.9171777e-05 -3.9051206e-06 6.8887152e-06 1.3937172e-06 4.3941577e-06 -1.0570413e-07 -6.8374675e-08 5.3527697e-07
-4.1593253e-08 -3.0039694e-06 1.1866064e-06 6.1922844e-07 -1.8156501e-06 -2.461335e-06 -7.137758e-06 -1.539595e-05
00000000: 2309 0fb7 9f53 48b7 05c7 e5b7 7c4a ecb3
00000010: c304 9137 1d32 8037 fd47 81b2 7fa3 d436
00000020: bd91 a035 72ee 42b7 bd81 2e32 ebc4 8a36
00000030: de18 6fb7 a59f 37b4 e762 22b7 ce12 4c35
00000040: c51d 1cb1 486f a837 d5c4 5934 3007 84b2
00000050: c06f 2fb6 fcb6 c433 32ee 16b6 fdd5 b136
00000060: e3e0 91b3 fe58 0336 7a8d 8f37 37dc 22b7
00000070: 082d 2536 d898 c4b7 85e6 52b6 5651 0c36
00000080: 67b7 f634 ae75 4738 ca6e 5936 15ce 3ab7
00000090: f8ed 38b2 6aab f4b7 ca09 9337 5073 e7b4
000000a0: a407 3637 8ed1 8e37 a29f 0db7 2f24 0037
000000b0: b380 f0b7 12b6 f334 64e9 cdb6 4b11 c6b6
000000c0: eab5 f4b7 bb08 83b6 9d25 e736 c20f bb35
000000d0: 8771 9336 76ff e2b3 60d5 92b3 f4af 0f35
000000e0: 44a4 32b3 cd97 49b6 7c43 9f35 0e39 2635
000000f0: 43b1 f3b5 6a2d 25b6 e080 efb6 8d26 81b7

exp_avg_sq f4 [64]
4.8864557e-08 4.9412325e-08 2.6066218e-07 6.0690615e-12 2.0011647e-07 5.0091526e-09 3.0093234e-15 1.335725e-07
3.8895145e-09 1.6040186e-08 1.2604596e-13 1.5082361e-09 4.4278387e-08 1.2792039e-11 5.069974e-08 5.9977946e-11
2.0676948e-14 1.12134636e-07 2.489344e-10 1.0024947e-13 2.3114954e-09 2.8908992e-10 3.7209902e-10 7.486123e-09
9.360051e-11 1.5631447e-09 1.03215605e-08 5.3342863e-08 9.821937e-11 2.2359427e-07 7.466908e-09 2.227626e-09
5.5592175e-10 8.1808295e-08 2.665638e-08 1.5534724e-09 4.4127442e-14 5.0311166e-07 1.5833034e-08 3.1067404e-09
3.6688505e-08 1.05564034e-07 1.264728e-09 1.724654e-08 1.5536206e-07 1.9607478e-12 2.9236253e-09 6.7018324e-09
2.6961683e-07 8.318826e-09 1.6160735e-08 3.7852505e-08 1.0395418e-08 2.3992494e-10 2.0403937e-12 8.7583246e-10
3.0272401e-12 1.5811823e-10 1.5442295e-10 2.0729798e-09 4.3520445e-09 2.2822593e-09 8.719552e-09 5.143474e-09
00000000: 26df 5133 6d39 5433 23f1 8b34 3f89 d52c
00000010: 99df 5634 f91c ac31 38d8 5827 216c 0f34
00000020: 88a4 8531 bec8 8932 46ea 0d2a 574a cf30
00000030: 9a2c 3e33 390a 612d f4c0 5933 95e4 832e
00000040: cc3d ba28 abce f033 67da 882f e3bd e129
00000050: 42d8 1e31 caed 9e2f 4890 cc2f 519c 0032
00000060: 67d4 cd2e 44d6 d630 b452 3132 191b 6533
00000070: 97fc d72e 2015 7034 cf47 0032 d014 1931
00000080: 84cf 1830 96ae af33 00fa e432 f381 d530
00000090: 7abb 4629 920d 0735 3601 8832 5b7e 5531
000000a0: 7093 1d33 71b2 e233 a9d2 ad30 8b25 9432
000000b0: 99d1 2634 b1f9 092c f6e8 4831 f145 e631
000000c0: dbbf 9034 95ea 0e32 d5d1 8a32 4593 2233
000000d0: 8897 3232 6fe6 832f 7794 0f2c 3bbf 7030
000000e0: e905 552c 53da 2d2f 32ca 292f 3f74 0e31
000000f0: fd88 9531 eed5 1c31 ffcc 1532 7aba b031

exp_avg f4 [128, 64]
-9.4317454e-07 -3.029342e-06 -2.0095608e-06 5.034828e-08 -1.0798237e-06 6.922848e-08 7.7242355e-08 -1.4532372e-06
-6.8242516e-06 1.3710707e-07 8.311039e-08 -8.2868127e-07 -1.0985562e-07 3.42904e-08 -3.630849e-06 -5.9959434e-06
5.6507844e-08 -3.4098468e-07 -4.9126375e-06 6.077975e-08 -4.243566e-06 -7.0986407e-06 -2.3569174e-07 -5.607558e-06
4.945276e-08 -5.465666e-06 -1.1972446e-07 -2.2361887e-06 5.1609515e-08 -2.677636e-06 3.159854e-07 -8.618427e-06
-6.776371e-09 2.6998438e-07 4.6013236e-07 1.3889007e-07 5.540562e-08 -3.5494022e-06 8.911709e-09 -8.5116244e-07
-7.685726e-06 -2.029212e-06 -1.2407129e-06 1.977845e-07 -5.8177132e-08 1.4674025e-07 2.4941616e-07 3.5952058e-07
-7.5686094e-06 -4.5720676e-06 -4.508494e-06 -3.083762e-06 -2.846533e-06 -3.692783e-06 8.874931e-08 -6.570015e-07
6.507495e-08 1.5997905e-07 -7.1556926e-08 -1.908043e-06 -1.9384846e-08 6.036067e-08 -8.69852e-06 4.645832e-07
0.0 0.0 0.0 0.0 0.0 0.0 0.0 0.0
0.0 0.0 0.0 0.0 0.0 0.0 0.0 0.0
0.0 0.0 0.0 0.0 0.0 0.0 0.0 0.0
0.0 0.0 0.0 0.0 0.0 0.0 0.0 0.0
0.0 0.0 0.0 0.0 0.0 0.0 0.0 0.0
0.0 0.0 0.0 0.0 0.0 0.0 0.0 0.0
0.0 0.0 0.0 0.0 0.0 0.0 0.0 0.0
0.0 0.0 0.0 0.0 0.0 0.0 0.0 0.0
4.0004085e-07 2.3015998e-06 9.4658407e-07 -2.2621965e-08 1.3832951e-06 5.717734e-08 -3.5272983e-08 1.4609866e-06
2.06495e-06 -6.742005e-08 -3.7355374e-08 3.3269546e-07 4.120294e-08 -1.6805437e-08 1.9852316e-06 2.4730778e-06
-3.141105e-08 1.4064128e-07 3.0963383e-06 -3.52284e-08 1.8245141e-06 3.2912492e-06 4.7774046e-07 3.3940532e-06
-3.0102157e-08 3.0062813e-06 2.2779614e-07 1.8494013e-06 -2.9367776e-08 1.5826182e-06 9.111476e-08 3.9425868e-06
-2.1687474e-09 3.2664536e-07 1.19083616e-07 -6.191137e-08 -2.614815e-08 1.921867e-06 2.8102314e-09 6.1709846e-07
2.2703468e-06 8.4545655e-07 1.6869764e-06 -2.029942e-08 6.780319e-07 -4.6520082e-08 -1.1070471e-07 4.836859e-07
3.1673173e-06 2.5403065e-06 2.3587324e-06 1.3573083e-06 1.7933899e-06 1.9874742e-06 -3.8020517e-08 -9.2198576e-08
-2.8784342e-08 -7.893816e-08 2.2603759e-08 8.130975e-07 4.6875925e-10 -3.4059212e-08 3.3240253e-06 -9.979783e-08
0.0 0.0 0.0 0.0 0.0 0.0 0.0 0.0
0.0 0.0 0.0 0.0 0.0 0.0 0.0 0.0
0.0 0.0 0.0 0.0 0.0 0.0 0.0 0.0
0.0 0.0 0.0 0.0 0.0 0.0 0.0 0.0
0.0 0.0 0.0 0.0 0.0 0.0 0.0 0.0
0.0 0.0 0.0 0.0 0.0 0.0 0.0 0.0
0.0 0.0 0.0 0.0 0.0 0.0 0.0 0.0
0.0 0.0 0.0 0.0 0.0 0.0 0.0 0.0
00000000: 762e 7db5 b34b 4bb6 fedb 06b6 853e 5833
00000010: 76ee 90b5 c2aa 9433 6fe0 a533 da0c c3b5
00000020: e0fb e4b6 b437 1334 6c7a b233 8b72 5eb5
00000030: c4e9 ebb3 b246 1333 83a9 73b6 c330 c9b6
00000040: 08b3 7233 9410 b7b4 3cd7 a4b6 0586 8233
00000050: f463 8eb6 dc30 eeb6 7412 7db4 8e28 bcb6
00000060: e265 5433 b765 b7b6 9c8d 00b4 6e11 16b6
00000070: 43a9 5d33 70b1 33b6 b4a4 a934 dd97 10b7
00000080: 97d5 e8b1 5ff2 9034 1c08 f734 d021 1534
00000090: 20f7 6d33 4432 6eb6 1c1a 1932 707b 64b5
000000a0: f1f1 00b7 992d 08b6 9286 a6b5 975e 5434
000000b0: 6fde 79b3 a78f 1d34 7fe7 8534 2204 c134
000000c0: dcf5 fdb6 c369 99b6 ab47 97b6 a1f2 4eb6
000000d0: 1107 3fb6 87d1 77b6 7396 be33 cd5c 30b5
000000e0: 55bf 8b33 b5c6 2b34 d6aa 99b3 ee0b 00b6
000000f0: ba83 a6b2 a19f 8133 dcef 11b7 d46b f934
00000100: 0000 0000 0000 0000 0000 0000 0000 0000
00000110: 0000 0000 0000 0000 0000 0000 0000 0000
00000120: 0000 0000 0000 0000 0000 0000 0000 0000
00000130: 0000 0000 0000 0000 0000 0000 0000 0000
00000140: 0000 0000 0000 0000 0000 0000 0000 0000
00000150: 0000 0000 0000 0000 0000 0000 0000 0000
00000160: 0000 0000 0000 0000 0000 0000 0000 0000
00000170: 0000 0000 0000 0000 0000 0000 0000 0000
00000180: 0000 0000 0000 0000 0000 0000 0000 0000
00000190: 0000 0000 0000 0000 0000 0000 0000 0000
000001a0: 0000 0000 0000 0000 0000 0000 0000 0000
000001b0: 0000 0000 0000 0000 0000 0000 0000 0000
000001c0: 0000 0000 0000 0000 0000 0000 0000 0000
000001d0: 0000 0000 0000 0000 0000 0000 0000 0000
000001e0: 0000 0000 0000 0000 0000 0000 0000 0000
000001f0: 0000 0000 0000 0000 0000 0000 0000 0000
00000200: 32c5 d634 2f75 1a36 c318 7e35 3a52 c2b2
00000210: a8a9 b935 2693 7533 0e7f 17b3 1e17 c435
00000220: 9293 0a36 91c8 90b3 ab70 20b3 519d b234
00000230: 1df7 3033 8c5b 90b2 053a 0536 27f7 2536
00000240: d1e8 06b3 2e03 1734 b0ca 4f36 094e 17b3
00000250: d4e1 f435 3bdf 5c36 133e 0035 64c5 6336
00000260: ac49 01b3 85bf 4936 2098 7434 f238 f835
00000270: 6c44 fcb2 596a d435 deaa c333 904a 8436
00000280: 0209 15b1 cc5d af34 e9ba ff33 23f4 84b3
00000290: 649c e0b2 6cf9 0036 1d1e 4131 afa6 2535
000002a0: 435c 1836 55f3 6235 116c e235 e65e aeb2
000002b0: ff01 3635 5fcd 47b3 8fbc edb3 a4d6 0135
000002c0: 198e 5436 227a 2a36 b74a 1e36 c22c b635
000002d0: 68b4 f035 8c60 0536 004c 23b3 b4fe c5b3
000002e0: 7041 f7b2 b684 a9b3 312a c232 a243 5a35
000002f0: 00da 0030 8048 12b3 5212 5f36 7050 d6b3
00000300: 0000 0000 0000 0000 0000 0000 0000 0000
00000310: 0000 0000 0000 0000 0000 0000 0000 0000
00000320: 0000 0000 0000 0000 0000 0000 0000 0000
00000330: 0000 0000 0000 0000 0000 0000 0000 0000
00000340: 0000 0000 0000 0000 0000 0000 0000 0000
00000350: 0000 0000 0000 0000 0000 0000 0000 0000
00000360: 0000 0000 0000 0000 0000 0000 0000 0000
00000370: 0000 0000 0000 0000 0000 0000 0000 0000
00000380: 0000 0000 0000 0000 0000 0000 0000 0000
00000390: 0000 0000 0000 0000 0000 0000 0000 0000
000003a0: 0000 0000 0000 0000 0000 0000 0000 0000
000003b0: 0000 0000 0000 0000 0000 0000 0000 0000
000003c0: 0000 0000 0000 0000 0000 0000 0000 0000
000003d0: 0000 0000 0000 0000 0000 0000 0000 0000
000003e0: 0000 0000 0000 0000 0000 0000 0000 0000
000003f0: 0000 0000 0000 0000 0000 0000 0000 0000
