new_saved_models/v2_n1e6_sk50.pt (torch, 529309 bytes, 24 tensors)

net.0.weight f4 [64, 2]
00000000: c8a0 e1bb d782 b5be 6695 2cbf 15e9 07be
00000010: ecf4 b6be b2bd ae3e 7454 10be 2264 23bf
00000020: 7a14 ee3e 3cae 62be 1662 233e cbca a83d
00000030: 0245 98bc 1bb8 e6be 8a94 bebd 1a88 59bd
00000040: e0db 07bf ad5b 42be 4149 a5bd 1706 963e
00000050: 2088 243e 7e86 2dbf bc4f 403d 3107 b23c
00000060: e4cc 8ebe 1600 babe d7f0 8fbe 6d2b b73e
00000070: ce1d 2b3f f1e8 0f3b a71f 82be 1eff b73d
00000080: ba57 2d3f 828d 633e 3fd4 d4bd 7f58 4cbe
00000090: 78fa 43bf 699c eb3e e70c 3dbd ea49 173f
000000a0: 6207 693c 30ff aa3e 026f dbbe 69a8 b43e
000000b0: 320b 33bd 6ee4 51be 6906 4bbe 2b84 25bf
000000c0: 8486 013f 7a09 e6be e077 74be 42a3 303f
000000d0: ab00 15bf da6b ee3d a429 b9bd 4204 22bf
000000e0: 8035 c83d ce4e 8c3c 5973 a73e 865e 0f3f
000000f0: 759f 02be 982e 18bf 1079 c23c 14a3 42bf
00000100: cba4 36bf 8951 0abf 3496 003f a42c 5abe
00000110: d979 023f 11ed 92be 5c57 70bd fb73 7ebe
00000120: 409a 473f 2c96 31bf f18c 02be e88e 05bf
00000130: 1491 3ebf 6a56 213f 6fd0 bcbd dfd7 173e
00000140: 2f2f b4be 7baf 8d3e 7592 3bbd 3b91 aebe
00000150: 56ac d83e 10ab 0fbe ca0a 333f b4fc 963d
00000160: 32a2 7e3e 4e73 81bd d328 2dbe fe7f e33e
00000170: fe8b e33e fcfe 27bf 72f6 8a3c eb1c 9abd
00000180: c935 c8bd e818 f6bd 7bdb cebe e8fe 29bf
00000190: 9461 92be b74d a5be 4c55 8f3e 3be0 543f
000001a0: 0a64 2ebe c99a 2abe 74ab ea3e 5cf8 ee3e
000001b0: cadb 9a3e 1974 9ebd 7ffa 19bf ab12 743e
000001c0: c8bf a1be eb47 253e 7a92 d1bc 266a 27bf
000001d0: a291 2f3f 5a6c c8be 70a7 5db9 82ae 9fbd
000001e0: 2530 51bf c6f0 223f 438c b2bd 2aad 75bd
000001f0: 61fe 05be 1e6e bc3d 0132 253f a86e a1bd
-0.0068856217 -0.35451385 -0.67415464 -0.13272507 -0.35733736 0.341291 -0.14094716 -0.63824666
0.46499997 -0.22136778 0.15955386 0.08241805 -0.018587593 -0.45062336 -0.09305675 -0.053108312
-0.5306988 -0.18980284 -0.08070613 0.2930152 0.16067553 -0.67783344 0.04695104 0.021731945
-0.27890694 -0.3632819 -0.28113434 0.3577532 0.66842353 0.0021958912 -0.25414774 0.089842066
0.67711985 0.2222195 -0.10392045 -0.19955634 -0.7655406 0.4601777 -0.046154883 0.5909716
0.014222952 0.33397818 -0.4285813 0.35284737 -0.04371185 -0.20497295 -0.19826664 -0.646548
0.5059588 -0.44929105 -0.23873854 0.6899911 -0.58204144 0.11641665 -0.090411454 -0.63287747
0.09775829 0.01712742 0.3270519 0.56003606 -0.1275614 -0.59446096 0.023739368 -0.7603009
-0.71345204 -0.5403066 0.5022919 -0.21306092 0.50967175 -0.28696492 -0.058677062 -0.2484893
0.7796974 -0.6936977 -0.12749077 -0.5217118 -0.7444012 0.6302248 -0.09219443 0.14828442
-0.35192248 0.27672943 -0.04579397 -0.34095177 0.42318982 -0.14030099 0.6993834 0.07372418
0.2486656 -0.06320821 -0.16910104 0.44433588 0.44442743 -0.6562345 0.016963217 -0.07525047
-0.09775884 -0.12016469 -0.40401825 -0.6640458 -0.2859007 -0.32285854 0.27994764 0.8315465
-0.1703035 -0.16660608 0.45833933 0.46673858 0.3024581 -0.077369876 -0.6014785 0.23835246
-0.3159163 0.16140716 -0.02558254 -0.65396345 0.68581593 -0.39145166 -0.00021138578 -0.077969566
-0.8171409 0.6364864 -0.08718159 -0.059979595 -0.13085319 0.09200691 0.64529425 -0.07882434

net.0.bias f4 [64]
00000000: 16f7 8e3e 8056 993e ba07 ac3e c0c9 833e
00000010: 0f05 4cbe c21a dfbe 5b03 343f a943 a73e
00000020: 4269 1d3e 0f48 12bf ce56 e5be d401 0dbf
00000030: df37 10bf 8711 013f 56a9 353e b8a7 ac3d
00000040: 4b28 cd3c 09ea 33be 84de 56be 3ce9 17bf
00000050: 8809 0f3f b966 013f 66c1 1e3f da81 153e
00000060: 6ede 033f 60e0 103f de93 96bd 59e8 c2bd
00000070: a394 123f 53b5 013f 7eac c7be 60dc da3e
00000080: 0524 0ebf 22bd 7c3d ecbb 993e f066 f5be
00000090: 21e2 813e de6b 39bf 8c6e 1dbf 1818 8d3e
000000a0: 70a9 d6be f523 e43c 17b3 ca3e 4da4 c73e
000000b0: fe55 13bf 2415 3dbf 5110 c2be 865d 1abf
000000c0: c508 1c3f bb56 61bd f1cd 053e 06f3 0ebb
000000d0: 7ad3 39bf 850b bebe 35d5 843e 08cf d63e
000000e0: 3821 1abf e48b 1bbe c61f 73be 064c 573e
000000f0: 28b3 dd3e 6821 243f fe9d 17bf 5043 2cbe
0.27922887 0.29948807 0.33599645 0.2573986 -0.19923805 -0.43575102 0.7031762 0.32668808
0.15372184 -0.571412 -0.4479279 -0.55080914 -0.5633525 0.5041737 0.17740378 0.08430427
0.025043627 -0.17569746 -0.2098332 -0.5934026 0.5587392 0.5054737 0.6201385 0.14600316
0.51511276 0.5659237 -0.07352422 -0.09516973 0.5725805 0.50667304 -0.3899879 0.42746258
-0.5552371 0.06170381 0.30026186 -0.47930098 0.25367835 -0.7243022 -0.61496806 0.27557445
-0.41926146 0.027849177 0.3958976 0.3899254 -0.5755309 -0.73860383 -0.37903073 -0.60298955
0.6095088 -0.055014353 0.13066842 -0.0021812334 -0.7258831 -0.37118164 0.25943914 0.41954827
-0.6020694 -0.15190083 -0.2374259 0.21025094 0.43300748 0.64113474 -0.5922545 -0.16822553

net.2.weight f4 [128, 64]
00000000: 18e1 2ebd 4402 d0bd 3a42 afbd 985a 5e3d
00000010: 14ea c9bd e883 563d 7a49 e7bd 0a16 a03d
00000020: ee3c e7bd a697 fd3d 36db ce3d 1836 353d
00000030: 9e15 dc3d 0477 90bd d015 06bc bca3 a3bd
00000040: 0809 c53c 2093 02bc 145c 5b3d 6c63 4fbd
00000050: 7293 c9bd be06 ca3d 0493 88bd 2e8f f83d
00000060: e0bf 99bc 0030 823c 6865 4c3d 28df d4bd
00000070: 8c39 b43d 7a73 bbbd f2db a33d 1080 d8bd
00000080: 309c 16bc 38a5 e53c c03e 5abc 3859 893c
00000090: 163e 8abd b2cb c2bd f862 c53c 148f 1cbd
000000a0: 80c6 c93d 1e7d 91bd f0c1 823d a013 5a3d
000000b0: e004 943d 9439 bb3d 408f a33c 7843 443d
000000c0: c0ee 2f3b 7860 05bd b8f3 a93d a461 c8bd
000000d0: 484c e7bc cc45 42bd 9418 7cbd e001 3abc
000000e0: fc62 e63d 5c58 d5bd 489b ca3c 0252 84bd
000000f0: 9041 b1bd 9899 a13d 1c8f 2ebd 127a e63d
00000100: 87c4 b5bd b39d 09be a910 2a3e 5263 303e
00000110: c624 ffbd 9c94 11bd 9a6b 45bd c8a1 903d
00000120: 2176 aa3d cf13 13bc 148b 76be 52e6 4abd
00000130: 5d97 df3b 265c f93d 6d26 833d 0645 25be
00000140: 8197 33be 8ecc 133d 9d9f 07bc 234b 68bd
00000150: 1d66 cb3d aa8b 13bb 82a7 28bd f98f 3e3d
00000160: 5ff1 f1bd 53ba cf3d 499d 073e e16c 7c3c
00000170: 6c6a efbd 7140 323c 1458 67be 830d e2bb
00000180: 56d6 8b3d c8e1 b8bd 8fd2 8b3d c3a1 38bd
00000190: 38e6 b53d 39d6 59bd 9ddf 103e 493e dc3d
000001a0: a430 643c f058 99bd 625a e0bd 4ff5 043e
000001b0: 0ab8 b2bd 24c3 793d 14fa 16be 24d8 f53d
000001c0: 2dac ce3d 8591 0cbe 02a4 323d 3b91 883d
000001d0: 61d8 86bc e5d1 f53d 22dc d6bd 2ccd 8dbd
000001e0: 40ca 9abc ed4d 733d 0f59 11be 3cc8 b13d
000001f0: 9373 88bd e478 b23d bdd1 a0bd bd4e d83d
00000200: afee 843d 9caa 343d 52f4 313e f496 7e3d
00000210: ea7f 843d 1600 09bd 9a5e 6bbd 7d03 5e3d
00000220: 5bea e43d 6741 d63d 6437 aa3d 3a4f 693d
00000230: b82c 6f3b 5b61 65bd 86a4 4dbd 8507 21be
00000240: 596c 1bbe 27a9 993c 67e5 d3bc c189 bebd
00000250: 4f50 013c 9196 da3d 9654 5d3c 9f9d 9cbd
00000260: 1e3b 80bd a66a d3bc f666 5ebd 295b e43d
00000270: df67 fabd d2e6 5c3d c050 3c3e 4b20 febc
00000280: 725a cb3d 42f9 533d c995 64bc e8d6 063e
00000290: 3e77 d8bb 7d81 dc3c 5b4f 2f3d 3db6 993d
000002a0: 5e61 0fbc af80 1b3e 3b16 7a3d 03e4 c33d
000002b0: 3ebd 9fbd 42f2 4cbd 5258 73bd de51 fe3d
000002c0: e8d0 ca3d 0f6b 48bc 8a69 b33d d7d7 d13d
000002d0: 8b32 353d 5c85 0bbe eb3e bbbd d04a d23d
000002e0: 1802 3ebc cc7f b4bd 99bf 003e a20d f33d
000002f0: 5daf 28be 2055 10bd 32ec ea3d 0051 3cbd
00000300: 4774 83bd c4b2 6bbd 2a41 7e3d 24c4 293d
00000310: 7c19 31bd 019b b9bd 9bd6 19bc 71e1 59bd
00000320: a825 9dbc de0d c53d 06a9 09bd 576a c5bd
00000330: 9bbd e23b e771 ebbd a5b0 003e 846d f6bd
00000340: fac8 b8bd 8e52 f73c 2afc 9cbc 955b 123c
00000350: 538a c93d 9182 0d3c f01e 753d e2f7 083d
00000360: d005 f83d b634 acbc 72e2 e9bd 0844 ddbd
00000370: 0db0 dcbc f560 d13d 626c 463e 5199 be3d
00000380: b9f8 30bd 7552 17be b89f da3d 641a 873d
00000390: 8e56 a2bb c07a 163d f262 06bd 2f55 59bc
000003a0: 7d47 063c b926 94bd d5ee bc3d e9be 74bc
000003b0: 5314 b2bd c9b2 133d 24b0 27be fa4b a7bd
000003c0: 2a1c f73d c84e 05bd 4d72 8abd e14c cbbd
000003d0: 041e 8b3d aa34 f5bb e4f0 fb3d be3c d93c
000003e0: 7b2a c43d 76bc fdbd bc0c d4bd 63f2 e4bc
000003f0: 5816 c8bd bb1e e33d db5a a3bb 5ceb ed3d
-0.042695135 -0.10156682 -0.085575536 0.054285616 -0.098591 0.05237189 -0.112933114 0.078167036
-0.11290918 0.1238244 0.10100405 0.04424104 0.10746311 -0.070539504 -0.008183911 -0.07990214
0.024052158 -0.007969648 0.05355461 -0.050631925 -0.09842576 0.09864567 -0.06668666 0.12136684
-0.018768251 0.015892029 0.049901396 -0.10394126 0.08800039 -0.09152885 0.080009356 -0.10571301
-0.009192511 0.028032884 -0.013320625 0.016766176 -0.06750123 -0.09511508 0.024095044 -0.038222387
0.09852314 -0.07103942 0.06384647 0.053241372 0.07227492 0.091418415 0.019965768 0.047915906
0.0026845187 -0.032562703 0.08298439 -0.097842485 -0.028234616 -0.047429845 -0.061546877 -0.011352986
0.112493485 -0.10417244 0.024732247 -0.06460954 -0.08655083 0.07890624 -0.04261695 0.11253752
-0.08875375 -0.13439064 0.16607918 0.17225388 -0.12458186 -0.035542116 -0.04819832 0.07062107
0.083233126 -0.008976891 -0.24076492 -0.049536057 0.006823464 0.12175779 0.064038135 -0.16139612
-0.17538263 0.03608375 -0.008277801 -0.05671228 0.09931586 -0.0022513666 -0.041175373 0.04652402
-0.11813616 0.101429604 0.13243593 0.015406818 -0.1169022 0.010879622 -0.22592193 -0.0068985834
0.06827991 -0.09027439 0.0682727 -0.045076143 0.08881801 -0.053182814 0.14147802 0.107540675
0.013927612 -0.074876666 -0.10954739 0.12984203 -0.08726509 0.060977116 -0.14743835 0.12004116
0.10091434 -0.13727386 0.04361344 0.066683255 -0.0164606 0.12002925 -0.10491206 -0.06923899
-0.018895268 0.059400488 -0.1419413 0.0868077 -0.06662669 0.08714464 -0.078525044 0.10561893
0.06490838 0.04410802 0.17378357 0.06215568 0.0646971 -0.033447348 -0.057463266 0.054202545
0.11177512 0.10461693 0.08311346 0.056960322 0.003649516 -0.05600105 -0.05020573 -0.15725525
-0.1517805 0.018757416 -0.025866223 -0.09303618 0.007892682 0.106732495 0.013508936 -0.07647251
-0.06261276 -0.02580769 -0.05429741 0.111502 -0.12226843 0.053931065 0.18390179 -0.031021258
0.099293604 0.051751383 -0.013951727 0.13167918 -0.0066060117 0.026917214 0.04280029 0.07505462
-0.0087512415 0.15185808 0.061056357 0.09564974 -0.07799767 -0.050035723 -0.0594104 0.12417959
0.09903127 -0.012232556 0.08760364 0.10246246 0.044237655 -0.13625091 -0.0914286 0.102681756
-0.011597179 -0.08813438 0.12573089 0.11867835 -0.16473146 -0.03523743 0.11470832 -0.045975685
-0.064186625 -0.05754353 0.062073864 0.04144682 -0.043237194 -0.09062768 -0.009389545 -0.053193513
-0.019182995 0.096217856 -0.03360846 -0.09639423 0.0069195754 -0.114963345 0.12567385 -0.12032607
-0.09022708 0.030190732 -0.01916321 0.008932968 0.098408364 0.0086370865 0.059843957 0.033439524
0.12110484 -0.021021228 -0.11420144 -0.108039916 -0.026939416 0.10223571 0.19377282 0.093065865
-0.04320595 -0.14777549 0.10674995 0.065968305 -0.004954166 0.036738157 -0.032809205 -0.013264938
0.008195755 -0.07233948 0.09225241 -0.014938095 -0.08695283 0.036059175 -0.16375786 -0.08168788
0.12065919 -0.032545835 -0.067600824 -0.09926773 0.067928344 -0.0074830847 0.123018056 0.026518222
0.09578415 -0.12389462 -0.103539914 -0.02794761 -0.09769887 0.11089846 -0.004985196 0.11617157

net.2.bias f4 [128]
00000000: 3cbb 4cbd bacc 9dbc 8621 2d3c 388d 39bd
00000010: 288a 0fbd b9d7 e03d 4de4 b63d 1ea6 ea3b
00000020: ed04 18be 994f 79bb 55cd ca3d a4d1 46bd
00000030: cb5e 0c3c 7a95 0f3e be22 a53d f348 d23d
00000040: cf7b febd 208a e4bd 89fa e6bd 229b 183e
00000050: a4ca 0bbd a56d 69bc 1de8 873c ad17 193d
00000060: e485 62bd db66 2b3e bb47 c7bd 87e1 84bd
00000070: 0133 aebb 9067 8abd 1f81 2b3d f8cd 043c
00000080: 0dda f7bd 06d5 edbd 3653 b9bd 623b 92bd
00000090: a7a0 9ebd 342c 28bc 400a 29bc 20cf f43b
000000a0: 082e fdbd 319d 88bd 548c 933d 2c89 ebbd
000000b0: f29a b83c 7fa4 b03d 917b 25bc df0f 8a3d
000000c0: 9b7f 0abe 6590 403d 168e 00bc 536f 2d3c
000000d0: aa57 dabd f5d2 ac3b 4e4e b63d 3e99 a9bd
000000e0: 88db 79bc 5c3a aebd 34d4 8bbd b0de 6ebd
000000f0: 0c4d 0b3d 3046 2c3c b649 8f3d 931a 37bc
00000100: 3a3c 43bd 60de 61bc 41cd 183e 9f1c d1bd
00000110: 82d9 abbb 80e5 cc3d f851 203d c1ca 06bd
00000120: 96e1 633b ddad c03d 743f f63d d30e eb3d
00000130: 9634 0abd 602a a23c 1adc d33c 67b6 0fbd
00000140: 79ef 8abd 6029 2dbd 7a3f dfbd 9fea 913d
00000150: 4771 f3bd c54d 233c 3d46 adbc 50a1 dfbd
00000160: 6eef 9cbc 7669 663d c661 ffba 2958 d03c
00000170: ce1e d93d 62a9 223d b628 dabc 1c50 82bc
00000180: eabd b7bd 46ed ff3d a614 1abd 1002 413c
00000190: af77 073e 8040 e4bb 3160 963d 9268 c2bd
000001a0: 6137 9bbd 66dd 2dbc d7b4 b7bd 6b45 6cbd
000001b0: 1f63 953d 5781 b63d cd05 9ebc 89df 6f3d
000001c0: 5be7 c0bd f0e6 41bc 2017 45bc d0be 443d
000001d0: e2b0 793d 8922 36bd b170 fd3a 3e9d 4d3d
000001e0: 9b59 dfbc b5e5 a23d 3f06 943d eb1e 59bd
000001f0: 8d91 a43a d939 8b3c ff37 b93d f6a7 65bd
-0.049983248 -0.01926266 0.010567075 -0.045300692 -0.035043865 0.10978646 0.08930264 0.007160916
-0.14845629 -0.0038041829 0.09902445 -0.048539773 0.008567522 0.14021865 0.08063267 0.1026782
-0.12425958 -0.11159158 -0.112782545 0.14902928 -0.0341288 -0.014247333 0.016590172 0.037376095
-0.05530347 0.16738455 -0.097304784 -0.064883284 -0.0053161387 -0.06758034 0.041871186 0.008105747
-0.12102137 -0.116128966 -0.09049074 -0.071402326 -0.07745486 -0.010264445 -0.010317385 0.0074709803
-0.123622954 -0.06670607 0.072045 -0.11500773 0.022534821 0.08625125 -0.010100261 0.067413084
-0.1352524 0.047012705 -0.007846376 0.010585624 -0.10661252 0.0052741715 0.08901654 -0.08281182
-0.015250094 -0.08507225 -0.06827584 -0.05831784 0.034009025 0.010514781 0.06996481 -0.011175769
-0.04766486 -0.0137859285 0.14922048 -0.10210537 -0.005244435 0.10004711 0.03914067 -0.032908205
0.003477191 0.09408162 0.120238215 0.11477437 -0.033741556 0.019795597 0.025861789 -0.03508606
-0.06783957 -0.042275786 -0.10900779 0.071248285 -0.1188684 0.009967272 -0.021151656 -0.1091944
-0.019157138 0.05625292 -0.0019484095 0.025432663 0.10601579 0.039712317 -0.02663074 -0.01590734
-0.0897177 0.12496428 -0.037617348 0.011780277 0.1322925 -0.006965697 0.07342566 -0.094926015
-0.07578922 -0.0106118675 -0.08970039 -0.05768339 0.072942965 0.08911388 -0.019289875 0.05856279
-0.094191276 -0.011834845 -0.012029439 0.048033535 0.060959704 -0.04446653 0.0019335953 0.050198786
-0.027264407 0.079539694 0.07227754 -0.053008 0.0012555585 0.016995357 0.090438835 -0.056068383

net.4.weight f4 [256, 128]
00000000: 3b15 49bd bcf7 aa3c 6b79 cc3c 1b9b 34be
00000010: 6d4a a3bd 8f2d debd 24ba db3d 6cdc 5fbe
00000020: f4ae 61bd 5792 a83d 7a3b fabc c5cb 15bd
00000030: 655c 98bd 990a 88bc 4d49 8a3d c8ff 67bd
00000040: edc6 543c 9730 7bbd 1f44 53bc a812 9c3d
00000050: 7343 97bd 1e43 e8bc 6ea3 a93d 9290 5dbd
00000060: cabf d73d f121 dd3c 06ae 413d 0faa 953b
00000070: 942e 693c 5a18 a93c f787 f43d e1e8 44bc
00000080: 315c de3d 30b0 49be 1e6a 71be a0ba 3a3d
00000090: e64d a0bd 0550 0c3e 99f9 e33d 4cc9 3d3d
000000a0: 867a 803d 6153 fcbd eb4a f33d 1447 16be
000000b0: c60b a5bd 3d54 723d 4b5c 6ebb 4e72 6ebd
000000c0: b024 0c3e 4b46 1cbd 6b60 3fbe cde8 59bd
000000d0: 44b1 89bd abb3 16be bea2 13bd 7115 ef3d
000000e0: f6ae 34bd dac5 9dbc ea5d a4bd 006d 403d
000000f0: bcbb 553d 01ea 033b c5a2 e23d 0886 46bd
00000100: 7669 0a3e aff6 d0bc fd31 c73d 64b0 25be
00000110: 1ffd 6bbd 7316 fa3d 1d17 e3bc 303d f9bd
00000120: bdaa 8d3c 0257 0dbe f51f 3c3d 4a83 f8ba
00000130: 2041 2d3d f369 79bd 2480 293d afb1 22be
00000140: 14b0 d9bc e483 4dbd d485 553d 5797 6abe
00000150: fe0b 383d 4172 a5bd 5804 f13d b944 5d3d
00000160: 7602 0cbe 4096 a6bd 29cb 03be 0e1f e4bd
00000170: 5a3f 6a3c 8755 af3d edb7 7c3d 3fa6 15be
00000180: 88b0 3c3d a23b f3bc debc cfbc d8d5 6cbd
00000190: dcc4 57be a052 c93b 5f05 2fbd f7b3 923c
000001a0: c686 753d 0e4e 07bd a4b7 f6bd b5d3 8b3c
000001b0: 3468 85be d7d8 acbd 5033 873d 528c 78bc
000001c0: 587e 6b3d 2c09 ff3d 615b 963d f062 b5bd
000001d0: d31c edbd 29e1 5f3c 566c bcbd 4093 463d
000001e0: 6fd4 ecbd d226 07be a469 0dbc 3613 7a3b
000001f0: a8cd 43be e4fa e73d becc 0a3d 94c0 c5bd
00000200: 9224 f8bc 0438 75bd 3fe5 cabd a6c3 5dbd
00000210: ced2 82bd 95ea 88bd 6f7b 2ebd 3c4b a8bc
00000220: 44fe 14bd 91cf 0cbd b425 953d bd3f 133d
00000230: 0f1e 213d e33e e1bc 343c 423c f97f ac3d
00000240: 2b9d 153d f839 92bd 5450 b2bd 2369 b8bc
00000250: 7d5e abbd d3e0 4e3c 544b 4c3d fbd7 7cbd
00000260: d0df efbb 002c 0cbc 4db6 473d 4c05 c93b
00000270: 234b 953d 6987 24bd ceff 81bd b879 6e3c
00000280: 5735 8dbd 73e0 9bbd bbe0 b6bd 7381 8c3d
00000290: 9c83 87bd 5a44 433d 5c7f ab3d 44a7 95bc
000002a0: eb9b ec3c 2817 903c 18d2 9ebd caa7 a23d
000002b0: 8655 8cbd f02f 073d 7edd 71bd de55 f0ba
000002c0: d5cc 1abd a5cd d6bc e680 093d c8a3 adbc
000002d0: 7708 543d ab88 59bd 8006 40bd e3e8 d13c
000002e0: b47e 093d 8987 8a3d cf10 02bd 8175 893d
000002f0: add3 ee3c 3c95 d4bb 1d51 c6bc 0ccb ffbb
00000300: f5b0 0abd 3d14 463d 08da 2cbd ade5 f53c
00000310: 739c 65bb 6bb9 65bd 0e1c c33c 6e1d 32bd
00000320: 7db9 65bd 7996 913d 7a83 923d 0d54 81bd
00000330: 9bbf e7bc e05c 253d 79d4 5cbb 1a94 023c
00000340: 2068 fcbc b0c0 673c bc89 2abd f719 8fbd
00000350: da93 ce3c dad7 5e3c c36e 8ebd cb4b 63bd
00000360: 18d6 90bc c55b 923d 8401 b0bd 1dd7 85bd
00000370: 8c7a 26bd 9284 0e3d 56c0 7e3d a6d8 393d
00000380: 9fd1 d53c 889c 823d 4e11 453b d8f6 9e3d
00000390: 5d3b 4ebd dc77 3abd 09cc 833c 6859 80bd
000003a0: 7166 59bd af05 893d b9a3 27bd 0f1c 53bd
000003b0: 67aa b4bd 0cc8 26bc 3c69 843b 53c1 133d
000003c0: c972 10bb d971 9cbd 96f3 7d3d 94c8 b1bd
000003d0: 8b90 19bc 91da b5bc d53e c7bc d40d 6b3d
000003e0: 14b6 a53d be9f 66bd d56a 923d d9db 873d
000003f0: 60f1 91bd 350b 623c 9a3d 03bd 9307 563d
-0.049092513 0.020870082 0.02496024 -0.17637293 -0.0797318 -0.10848533 0.10728863 -0.21861428
-0.05509849 0.08231037 -0.030545939 -0.036571283 -0.07439498 -0.016606616 0.06752262 -0.056640416
0.012986881 -0.061325636 -0.012894659 0.07620746 -0.07385912 -0.028352316 0.08283125 -0.05409295
0.10534628 0.026993724 0.047285102 0.0045673917 0.0142322965 0.020641495 0.11939996 -0.012018413
0.10857428 -0.19696116 -0.23575637 0.045588136 -0.07827358 0.137024 0.11131591 0.04633455
0.062733695 -0.12320591 0.11879524 -0.14675552 -0.08058886 0.059162367 -0.003637093 -0.05821448
0.1368587 -0.038152974 -0.18689124 -0.05320053 -0.06723264 -0.14716975 -0.036043875 0.116740115
-0.04411217 -0.019259382 -0.08025725 0.04697895 0.05218099 0.002012849 0.11066202 -0.048467666
0.13516793 -0.025508253 0.097263314 -0.16180569 -0.057614442 0.12211313 -0.027720982 -0.12169874
0.017293328 -0.13802722 0.045928914 -0.0018960026 0.042298436 -0.060892057 0.04138197 -0.15888093
-0.026573218 -0.05017461 0.05212958 -0.22909294 0.04493331 -0.08078433 0.11768407 0.054020617
-0.13672814 -0.08134127 -0.12870468 -0.11138736 0.014297331 0.08561235 0.061698843 -0.14614199
0.04606679 -0.029691521 -0.025358614 -0.057821125 -0.2107119 0.006143883 -0.04272973 0.01790808
0.059942983 -0.033033423 -0.120467454 0.017068723 -0.26056063 -0.084397964 0.06601584 -0.015170174
0.057493538 0.12452921 0.07341648 -0.088567615 -0.115777634 0.013664522 -0.09200351 0.048480272
-0.11563956 -0.13198403 -0.008631144 0.0038158423 -0.1912142 0.113271505 0.033886664 -0.09655872
-0.030290876 -0.059867874 -0.099070065 -0.054141663 -0.06387864 -0.06685368 -0.042598184 -0.020543687
-0.0363753 -0.03437764 0.07282582 0.035949457 0.039335307 -0.027495807 0.011855174 0.08422846
0.03652684 -0.07139963 -0.087067276 -0.02251107 -0.083676316 0.012626844 0.049876526 -0.061729413
-0.0073203817 -0.008555412 0.04875784 0.0061346646 0.07289722 -0.0401682 -0.06347619 0.014555387
-0.068949394 -0.0761117 -0.08929583 0.06860628 -0.06616899 0.047672607 0.08373901 -0.018268235
0.028882941 0.017589167 -0.07754916 0.079421595 -0.0685225 0.0330047 -0.059049122 -0.0018336137
-0.037793 -0.026221106 0.033570193 -0.021196261 0.051765885 -0.053108852 -0.0468812 0.025623744
0.0335681 0.067641325 -0.03175431 0.06711865 0.02915367 -0.0064875167 -0.0242086 -0.0078061875
-0.033860166 0.048359144 -0.04220012 0.030016745 -0.0035035878 -0.05608503 0.023817088 -0.043485098
-0.0560851 0.071087785 0.071539834 -0.063148595 -0.028289607 0.040371776 -0.003369598 0.0079698805
-0.03081137 0.014145061 -0.04163526 -0.06987374 0.025216985 0.013601268 -0.0695472 -0.055492204
-0.017680213 0.0714641 -0.08594039 -0.0653517 -0.040644214 0.034794398 0.062195145 0.045372628
0.026100932 0.06377512 0.003007013 0.077619255 -0.050349582 -0.045524463 0.016088502 -0.06267053
-0.05307621 0.06690537 -0.040927622 -0.05154043 -0.08821564 -0.010179531 0.004040865 0.03607304
-0.0022041074 -0.07638902 0.06199988 -0.08680835 -0.009372841 -0.022198947 -0.024321953 0.057386234
0.08091369 -0.056304686 0.07149283 0.066337295 -0.07126117 0.013796617 -0.03204117 0.052253317

net.4.bias f4 [256]
00000000: abc0 babd ffba 8dbd efc0 5fbd 7cd8 933c
00000010: ea08 fbbc 2df6 fbbd fa85 0bbc caa1 d8bc
00000020: 1a9b 023e 69e4 8a3c bb17 b7bd d34e 4e3d
00000030: acd5 4cbd 3c98 ffbc 5bdd 25bd cb60 b839
00000040: 1a46 143d 1a12 9fbd 0793 8bbd e005 81bd
00000050: fca8 6cbc 6f85 fabc 662b 9abd c00b a43d
00000060: 4e6e 083c 86ed 893c 0e14 9bbd 20d7 5ebd
00000070: d86c 55bd 771d 4cbd 6395 df3d 4f65 00be
00000080: acbf 553d 7c85 14bd 8acc 99bd d16e ef3b
00000090: 6dae 813b fa1b 7b3c 38db b8bd 0e04 8cba
000000a0: 19d3 4b3d a282 2cbc 8740 05be 3d05 1ebe
000000b0: 7c7a 993d 081b a23d f96c 7c3d 3e5e 94bd
000000c0: 5e9c 0fbe 06e3 f03c ff98 b43b 42be afbd
000000d0: 0ff2 68bd f696 283d b93c b1ba fca5 133d
000000e0: 177d 4bbd b511 ae3d 1b33 623d c08d 4a3d
000000f0: 06c7 133d b80a edbc 5665 9dba 5d2c 54bd
00000100: c67b b13c 290d f6bc ffda 8cbd ab77 e0bd
00000110: b8e4 85bd 24ed 4f3c 0532 88bc 4c08 6e3d
00000120: 9159 513c ed62 a8bc 83a1 55bc eabf 09bb
00000130: bbc8 c23b 82a7 8e3c 5ea9 b1bc 8870 a13c
00000140: d9dd 0dbe 92b7 1c3d fdfb ee3c 9334 11bc
00000150: 9a24 05bd 1773 923d 6081 07be 8e8f 9aba
00000160: 8d86 9dbc 30c4 0dbd a681 9fbd 075a 86bc
00000170: 71cd 1e3d afa7 073d f2c6 b8bd 1ecf 9fbd
00000180: 1dfe 9bbc 0ce1 7fbc aac9 a2bb 2ee7 81bd
00000190: 01c6 91bc b72a 463c 8d5f 2abd 48ad 9a3d
000001a0: 502f 45bc aea7 e8bc 68f1 debd 4bf9 a8bd
000001b0: dc46 87bb e899 e8bd 416f fd3c 879f d93b
000001c0: 1364 84bd ac4e d1bd 144c 3c3d cf49 a4bd
000001d0: 6bca 383d 0cbd 29bd 3bef d3bd f1a6 e93c
000001e0: 81e3 8d3d 3e0e dfbd b2bc 973d 8cb3 073c
000001f0: 0660 193e 6dea 94bd 360b ac3b 6f80 b4bd
00000200: 5e7e 1cbd d686 85bc 885c aebd 4fdc 7ebd
00000210: ff21 f8bc 11b4 633d 875c 1db8 b3df 93bd
00000220: e999 7f3d 74e2 283d a6e4 583b 5e69 42bc
00000230: 5981 e9bc b3ed d93c fe84 f2bc 912f 4dbd
00000240: 3bfd ae3d 19e0 87bd d542 b1bd a559 c2bb
00000250: 7c9b d8bd 7f4c 0cbd b773 82bb 182c 4bbd
00000260: c1e1 8cbd aeb5 24bd 5ba6 843d d155 af3d
00000270: 9ea0 adbc 93dd 05bd c3cb 5fbd c536 7cbd
00000280: f420 b3bd fe30 cfbc 61fa 97bd c44f 2f3c
00000290: 7094 3d3d ec88 21bb 3d4a b0bc 1524 873a
000002a0: 0e93 75bc 7830 083d 6b03 893c 832c 0bbc
000002b0: 21f6 66bc a4d7 893d f47c acbd bb4b 123c
000002c0: ae09 293c 9598 acbd 3fb0 dfbb c9be 2cbd
000002d0: 63e8 b4bc a3b5 89bc 7de2 dd3c f129 98bc
000002e0: 9717 133d 07e0 b5bd ccd1 fabd cfba 84bd
000002f0: 0ce5 9c3d 0468 09bd a44e a6bd 1436 92bc
00000300: 96a5 bf3c f18e 443c 23fb bdbc be63 eb3c
00000310: 1aea 3ebc ed55 2c3d 5952 00be 1809 543d
00000320: 88d5 4abb fe3b babd 444f 78bd 0ee3 e1ba
00000330: 3b2c 0b3e 3137 d8bd 7fed afbd 47de 00be
00000340: 4383 15bd f539 fdbc df86 41bd 0fdc 35bd
00000350: 2796 bfbd d1e4 b4bc 4b4c b4bd 7bd0 edba
00000360: 001d b5bd 0d91 92bd c6ec 9d3d 3b55 9dbd
00000370: 1122 de3c 6045 2d3d da69 16bc 5a81 7fbd
00000380: dad7 9ebd dc88 95bd 6ad6 153e 9fec 8b3a
00000390: f57f 603d ba28 923d 9f29 3f3c 8ab2 753c
000003a0: f834 12bd c13c 493d 2f16 643d 344d 96bd
000003b0: af3f c3bb be15 24bb 4cd8 4ebd aa9b 2abd
000003c0: ca91 b6bc 258b 7d3c 01e7 60bd 085f 4e3d
000003d0: 4954 c0bd 8dad 1c37 664a d5bd 9009 a8bc
000003e0: 498b 10be 111d 3c3c eaaa 5bbd b9e6 c6bc
000003f0: a958 eebd 2e86 c0bc c589 74bd 847b 7e3b
-0.0911878 -0.06920432 -0.054627355 0.018047564 -0.030643899 -0.12302814 -0.008515829 -0.026444335
0.12754479 0.016954618 -0.08940073 0.05036814 -0.05000846 -0.03120052 -0.040494304 0.0003516733
0.036199667 -0.077671245 -0.068151526 -0.06299949 -0.014444586 -0.030581204 -0.07527809 0.08010054
0.00832708 0.016836893 -0.075721845 -0.054404378 -0.052105755 -0.049832787 0.10917165 -0.12538646
0.052184746 -0.036260113 -0.07509716 0.0073069115 0.0039575608 0.015326494 -0.09026188 -0.0010682361
0.049761865 -0.010529192 -0.13012896 -0.15431686 0.07494065 0.07915312 0.061627362 -0.07244538
-0.14024493 0.029405128 0.0055114026 -0.08581211 -0.05687147 0.041159593 -0.0013522125 0.036046967
-0.04967984 0.08499471 0.05522452 0.04945159 0.036078475 -0.028935775 -0.001200835 -0.05180012
0.021665465 -0.030035572 -0.06877708 -0.10960325 -0.06537765 0.012690816 -0.016625414 0.05811338
0.012777702 -0.020554984 -0.013038996 -0.002101893 0.005944339 0.017413858 -0.021687206 0.01970698
-0.1385416 0.038261004 0.029172892 -0.008862632 -0.03250561 0.07150858 -0.13232946 -0.001179205
-0.019229198 -0.034610927 -0.077884 -0.01640035 0.038770143 0.0331189 -0.09022321 -0.07803176
-0.01904207 -0.01561762 -0.004967888 -0.06342922 -0.017794611 0.012095145 -0.04159503 0.07552582
-0.012035206 -0.028400268 -0.10885888 -0.08250674 -0.00412832 -0.1135748 0.030936839 0.0066413316
-0.064644 -0.102200836 0.04597099 -0.0802189 0.045114916 -0.041440055 -0.10348364 0.028521987
0.069281586 -0.10891388 0.07409038 0.008282553 0.14978036 -0.07271276 0.00525036 -0.08813559
-0.03820645 -0.016299646 -0.08513743 -0.06222182 -0.030289648 0.055591647 -3.751789e-05 -0.072204016
0.06240264 0.041231588 0.003309527 -0.011865942 -0.02850406 0.026602602 -0.029604431 -0.05009419
0.08544394 -0.0663454 -0.08655325 -0.0059310966 -0.10576531 -0.03425264 -0.0039810794 -0.049602598
-0.06878997 -0.040212326 0.06477042 0.0856129 -0.021194752 -0.032682013 -0.05463768 -0.06157567
-0.0874652 -0.025291916 -0.07420803 0.01070017 0.04628414 -0.0024648262 -0.021519775 0.0010310436
-0.014988674 0.03324935 0.016725263 -0.008494499 -0.014096768 0.06730583 -0.084222704 0.008929188
0.010317249 -0.0842754 -0.00682643 -0.042174134 -0.022083467 -0.016810244 0.027085537 -0.018574687
0.03591117 -0.088806204 -0.12247047 -0.064809434 0.07660875 -0.033546463 -0.08120468 -0.017848052
0.023394387 0.0119969705 -0.02319104 0.028734084 -0.011652494 0.042074133 -0.12531413 0.051766485
-0.0030950028 -0.09093474 -0.06062247 -0.0017233805 0.13591091 -0.10557402 -0.08590221 -0.12584792
-0.036502134 -0.030911425 -0.047247764 -0.044399317 -0.09354811 -0.022081764 -0.08803614 -0.0018143797
-0.08843422 -0.071565725 0.077111766 -0.07682272 0.027115854 0.04230249 -0.00918051 -0.06237922
-0.07756014 -0.073014945 0.14632574 0.0010675377 0.05480953 0.07136674 0.011667638 0.01499618
-0.035695046 0.049130205 0.05568522 -0.07338944 -0.0059585194 -0.0025037373 -0.050499246 -0.04165236
-0.022286315 0.015475069 -0.054907802 0.050383598 -0.09391076 9.3387325e-06 -0.10414581 -0.020512372
-0.14115633 0.011481539 -0.053629793 -0.024279939 -0.11638004 -0.023501482 -0.0597017 0.0038830945

net.6.weight f4 [2, 256]
00000000: e630 46be e72e 9dbd 868d 3c3e 66fb 433e
00000010: 8651 6c3d ba84 06be 8d79 e8bd 6665 2abd
00000020: 0795 0dbe 8a8f 543e 27c0 1bbb fe77 65bd
00000030: ee94 553e c08c 433e 4bb9 bbbd 488f 533c
00000040: 9ce1 2abe 009c 56bd 934c 3f3e 6595 9bbc
00000050: e3b4 613e 980c 5f3e e917 c33d 3246 34be
00000060: b9a9 4a3e 22c0 143e 41c1 5abd b921 643e
00000070: 11cd 283c 2170 653e efd8 46be cc77 713e
00000080: 0033 783e 9011 9c3c 628f 52bd 5af7 603e
00000090: 7d05 43be bb1a adbd 9ee1 553e 85e4 3b3e
000000a0: 560e 4ebe f1a1 693e 9013 753e ace4 5f3e
000000b0: 1310 3bbe f30f 343e 5ce1 77bd 4a82 683e
000000c0: 2e70 643e 5e11 323d 2e59 3d3e 47c2 3b3e
000000d0: 9aaa 333d 805c 76bc d17a 473e 6415 f6bc
000000e0: f5ed 5e3e 37a6 31be 1ebf c3bd 884c 363e
000000f0: a6a1 5e3e 1f85 1bbd ccfb 1fbe 0505 103e
00000100: 35ba 4b3e d35c fdbb 02c1 743e 5f3f 683e
00000110: c009 723d 6a7f 0a3d 38b9 763e 2c1b 29be
00000120: d3c5 2c3e e57c 393e d5f0 28bd 2f4e 4ebe
00000130: b64c 69be 3cbb 6d3e e2fd 403e 1887 403e
00000140: 2426 673e 3f23 68bd 5958 59bd d10d 6d3e
00000150: 8907 603e 4a61 7b3e 19b5 3d3e 43bd 793e
00000160: 7836 4d3e bb54 6c3e a0e9 6b3b 4cda a53c
00000170: 15c3 2abe 3823 85bd 1b91 5dbd bcae 2d3e
00000180: 1cea 423e 0c04 73bd 0c90 693e 93be 7fbd
00000190: 4a9d 0ebe 4336 693e c6ae 6c3e 4277 49bd
000001a0: 2b69 773e 876a 60bc 7ed0 4d3e bac5 febb
000001b0: 53e5 3abe 2ffd 663e 6162 18bd f28d 61bd
000001c0: 07b6 263e 71e3 2d3e 7f81 463e 2caf 6f3e
000001d0: 4c62 0ebe d85d 5c3d 4bb6 5f3e 0a0b b8bd
000001e0: 4686 46be a363 373e c382 2cbe a8ca 3fbe
000001f0: a276 49be 44bc 853c c682 29bd 4261 02bd
00000200: af4b 663e 93de 5b3e fb5f 3abe 3939 bdbc
00000210: 67df 45be 1c7b 3dbe c78f 203e 842f c33c
00000220: 6478 09be d4cf 4cbc f620 623e adcb 763e
00000230: b894 213e e1c1 5fbe 6555 4f3e 6df0 54be
00000240: edac 18bd 2099 583e b009 96bb 88f0 bb3c
00000250: b447 6b3e 8f4a 573e c7bd 41be 1efb 763e
00000260: 726f 1e3e 06c1 643e ac92 98bc 1c53 59be
00000270: bea5 4d3e c959 0ebd 3f40 3c3e 4ca3 a13c
00000280: c1d1 733e c24d 52be aae1 6ebd f879 743e
00000290: eb86 56be 6828 4f3e f5b5 febc d1a8 49be
000002a0: a860 663e a296 46be 203a 3a3e 95dc fbbd
000002b0: 2072 143e 7777 28be dc1b 563e 4a22 50be
000002c0: bc0c 0f3e 41b1 613e d23b 4dbd f355 f2bd
000002d0: 991e 563e 33b6 f7bd 0746 763e b361 54bd
000002e0: 79a4 603e 11ff 4e3e 4a0f 5c3e ac7b 3b3e
000002f0: 175f 44be 869c 10be 5e95 70bd 58d0 c2bc
00000300: 4817 723c 98d4 17be 1f5a 493e 1dcc 6d3e
00000310: 0f80 163e dcf3 763e 2f30 493e 2e1a d7bd
00000320: d3f4 6ebe 9f88 563e a65b 6f3e 9d5a 503e
00000330: 0a1b 68be 1886 353e 4047 1fbd 7489 2d3e
00000340: 8949 60bd 7e03 65bd b543 4f3e 55d0 69be
00000350: 1d97 703e 5ed4 183e e473 263d d6ce 443d
00000360: cb91 353e 7bf2 6e3e 0f18 2dbe 8c4d 24bd
00000370: 1b85 56bd 7fb2 4fbe 384f f33c ce44 44be
00000380: c835 7dbd fc49 bb3c 3721 48be 556d 5ebe
00000390: d655 3fbe 153f 04be bd32 41be 2ac4 133e
000003a0: f651 523e c4b5 32be dd8e 3bbe e26d fc3d
000003b0: 6f4e 563e 4ff9 543e 53c4 293e d43f 513e
000003c0: e4b8 75bd baaa 673e b4de 293e 4bc6 023e
000003d0: 6bf9 253e fe47 6d3e 97bc fa3d 8dca 273e
000003e0: a75c 3c3e d831 223d c15b 353e 61fe 5b3e
000003f0: 2e97 4e3e 36a4 413e ec6a 4a3e d002 cebc
-0.19354591 -0.076749615 0.18413362 0.1913887 0.057694934 -0.13136569 -0.11351309 -0.041600607
-0.1382638 0.20757881 -0.0023765655 -0.056022637 0.20857593 0.1909666 -0.09166201 0.012912579
-0.16687626 -0.052394867 0.18681554 -0.018992135 0.22041659 0.21782148 0.09526045 -0.17604902
0.19791307 0.14526418 -0.053406958 0.22278489 0.010302798 0.22406055 -0.19418691 0.23580855
0.24238205 0.019051343 -0.05140627 0.21969357 -0.19045062 -0.08452364 0.20886847 0.18348892
-0.20122656 0.22815682 0.23933244 0.21864575 -0.1826785 0.17584209 -0.060517654 0.22705951
0.22308418 0.043473594 0.1849105 0.1833583 0.04386387 -0.015036702 0.19480444 -0.030039497
0.21770461 -0.17348562 -0.09557937 0.17802632 0.21741351 -0.03796875 -0.15623397 0.14064415
0.19895251 -0.007732013 0.23901752 0.22680424 0.05909133 0.033812918 0.24094093 -0.16514271
0.16872339 0.1811405 -0.0412453 -0.20147012 -0.22783169 0.23215955 0.18846849 0.18801534
0.22573143 -0.05667424 -0.05306277 0.23149802 0.21877874 0.24548832 0.18526115 0.24388604
0.2004031 0.23079197 0.0035997406 0.020245694 -0.1667598 -0.06500858 -0.05409346 0.16961187
0.19034618 -0.05933003 0.22808856 -0.062437605 -0.13927189 0.22774605 0.23113546 -0.049186
0.24161212 -0.013697273 0.20099065 -0.0077750357 -0.18251543 0.2255752 -0.037203196 -0.05506701
0.16280375 0.16981293 0.19385336 0.23406667 -0.13904685 0.053800434 0.21846883 -0.089864805
-0.19387159 0.17909102 -0.16846757 -0.18729651 -0.19674161 0.016325124 -0.04138448 -0.031831034
0.22489808 0.21471624 -0.18200676 -0.023098575 -0.19323502 -0.18503994 0.15679847 0.023826368
-0.13424832 -0.012500722 0.22082886 0.24101134 0.15779388 -0.21851303 0.20247419 -0.2079484
-0.03727429 0.21152163 -0.0045787916 0.022941843 0.22976571 0.21024536 -0.1892005 0.24119231
0.154722 0.22339258 -0.018624626 -0.2122311 0.20082757 -0.034753595 0.18383883 0.019731186
0.23810484 -0.20537475 -0.05832068 0.23874652 -0.20949905 0.20230258 -0.031092623 -0.19693305
0.22497809 -0.193934 0.18186235 -0.12297932 0.1449666 -0.16451822 0.20909065 -0.2032558
0.13969702 0.22040273 -0.050105877 -0.118328 0.2091011 -0.120952986 0.24050151 -0.051850986
0.21937741 0.20214488 0.21490207 0.18308896 -0.19176899 -0.14122209 -0.058736198 -0.023780987
0.0147760585 -0.14827192 0.19663285 0.23222394 0.14697288 0.24116462 0.19647287 -0.1050304
-0.2333558 0.20950554 0.23374805 0.20347066 -0.22666565 0.17726934 -0.03888631 0.16946965
-0.05475763 -0.055911534 0.20240672 -0.22833379 0.23495145 0.14924762 0.040637866 0.048048817
0.17731397 0.23334686 -0.16903709 -0.040113017 -0.052373033 -0.20282935 0.02970086 -0.19166872
-0.061818868 0.022862427 -0.1954392 -0.21721394 -0.18685088 -0.12914689 -0.18867011 0.144303
0.20539078 -0.1745215 -0.18316217 0.12325646 0.20928358 0.20798229 0.16578798 0.20434505
-0.05999078 0.22623721 0.16588861 0.12770955 0.16208427 0.23171994 0.12243002 0.1638586
0.18394719 0.039598316 0.17710783 0.21483757 0.20174858 0.18910298 0.1976735 -0.025147825

net.6.bias f4 [2]
00000000: 3ace 67bd 0b05 7b3d
-0.056593157 0.061284106

exp_avg f4 [64, 2]
00000000: 1c08 c336 07c3 9536 1fcf b437 0a36 a9b7
00000010: 0673 95b9 e88b f9b9 2404 7d37 9eeb 9c38
00000020: b551 08b8 e8af db37 6995 4633 8b46 f3b3
00000030: 3f9c 3037 003c a634 5fa4 cd36 a93a 5d37
00000040: 8e3d e637 94fd c1b7 951b 1cb3 cdb3 cf33
00000050: d54d 64b8 8493 1cb7 0c8d a0b3 67fb bdb3
00000060: 4512 91b3 b6f1 1f33 14c0 fa37 96cc 7fb7
00000070: efb1 3db7 2e5a 8b36 959c cdb5 1789 5837
00000080: 907e 24b7 1b48 4f37 bb7d 7437 ec7e 9db5
00000090: d42c a536 b682 e635 f5e4 0bb3 e2f6 7eb3
000000a0: 030a 1637 4b43 a036 e5f6 3cb8 51f4 aeb8
000000b0: f393 4937 15b5 adb5 5b6d c535 e523 6338
000000c0: bde1 34b7 b7e1 1836 61b2 deb6 47c7 32b8
000000d0: 27a7 e6b4 ab97 8fb6 bb50 79b7 f3f0 5338
000000e0: 80c1 0537 3960 6db7 c1a9 1138 a85e 9837
000000f0: b445 4b38 4eaf c138 1e17 4cb8 a7f5 8b38
00000100: 5ca3 adb5 c725 a436 849f 17b8 dc63 2538
00000110: 458f c6b6 a4c8 a937 7a5f 9eb3 f5ca 12b3
00000120: 58fa d3b7 b8e9 a2b7 d9a7 4ab3 89fc 00b3
00000130: 0905 2eb6 ed6b aab6 a829 ae36 0b77 8136
00000140: cf29 f333 535f 1233 377d ba36 eda2 2038
00000150: e46f 6435 44a1 87b6 8087 21b5 3af1 deb6
00000160: 32c4 3bb3 3194 dfb3 c23c ae32 ffec 99b1
00000170: ffac 17b7 9e1a 7a36 e29e 09b4 4515 79b3
00000180: cc79 d1b7 1e89 f235 6efc 9d38 472b 38b8
00000190: c7f5 87b7 2322 2939 8624 d736 907d 01b8
000001a0: a939 9533 b242 1ab2 b6ef 4837 6474 27b8
000001b0: 8c8f fe36 aeb5 2eb7 1924 f2b6 6639 5537
000001c0: 492b 6833 da88 32b4 5abf f1b6 6a0d 1e38
000001d0: e8c1 c7b7 3dfd 8b37 71a7 e2b6 a5bd be37
000001e0: 25fd 25b7 9491 8036 31fc 9337 7b3c 2e35
000001f0: bf93 b7b3 bbc1 c432 a06d 91b7 72ac 6fb8
5.812397e-06 4.46325e-06 2.155412e-05 -2.0171534e-05 -0.00028505194 -0.0004759722 1.5080939e-05 7.482547e-05
-3.2501022e-05 2.6188747e-05 4.6236355e-08 -1.1328401e-07 1.0526796e-05 3.0963565e-07 6.1286114e-06 1.3186284e-05
2.74468e-05 -2.3125474e-05 -3.6346666e-08 9.671894e-08 -5.4431923e-05 -9.332671e-06 -7.476237e-08 -8.846728e-08
-6.755412e-08 3.7239907e-08 2.9891766e-05 -1.5246818e-05 -1.1306706e-05 4.153021e-06 -1.5319262e-06 1.2906522e-05
-9.804629e-06 1.235495e-05 1.4572807e-05 -1.1734351e-06 4.922602e-06 1.7174377e-06 -3.2571695e-08 -5.9363522e-08
8.943028e-06 4.7762055e-06 -4.505263e-05 -8.342474e-05 1.2014981e-05 -1.2942206e-06 1.470947e-06 5.4154447e-05
-1.0781395e-05 2.2781148e-06 -6.6368816e-06 -4.26241e-05 -4.2962458e-07 -4.2793886e-06 -1.4860353e-05 5.053072e-05
7.9724705e-06 -1.4148704e-05 3.472879e-05 1.816389e-05 4.8463888e-05 9.23561e-05 -4.865892e-05 6.673793e-05
-1.2937048e-06 4.8919787e-06 -3.6149766e-05 3.9432067e-05 -5.9175386e-06 2.02398e-05 -7.3748154e-08 -3.4177862e-08
-2.5269735e-05 -1.9420739e-05 -4.7184447e-08 -3.0032e-08 -2.5930951e-06 -5.078959e-06 5.1904535e-06 3.858358e-06
1.1323174e-07 3.407997e-08 5.557809e-06 3.829871e-05 8.509944e-07 -4.0420873e-06 -6.017435e-07 -6.644198e-06
-4.371777e-08 -1.04112026e-07 2.0283895e-08 -4.4798294e-09 -9.04058e-06 3.7268396e-06 -1.281692e-07 -5.7994175e-08
-2.4971458e-05 1.8070311e-06 7.533362e-05 -4.3909324e-05 -1.6207703e-05 0.00016129813 6.411751e-06 -3.0872936e-05
6.9488415e-08 -8.9791445e-09 1.1976741e-05 -3.99243e-05 7.586501e-06 -1.0413509e-05 -7.2163643e-06 1.2709153e-05
5.4056077e-08 -1.6627328e-07 -7.204636e-06 3.768263e-05 -2.3812943e-05 1.6688015e-05 -6.7548176e-06 2.2738075e-05
-9.893706e-06 3.831645e-06 1.7641201e-05 6.490806e-07 -8.5484764e-08 2.2905501e-08 -1.7336395e-05 -5.7142643e-05

exp_avg_sq f4 [64, 2]
00000000: 8d7d 8f31 a493 b430 07f4 e232 754f 9033
00000010: 87e2 2935 f4a1 9834 42f3 1a33 41c2 9134
00000020: c75b c232 5bbc 0a33 b2a5 f12a 244c 8a2b
00000030: 0f21 3331 882d eb31 749c 6731 ee68 8932
00000040: c3fe 9032 0e8e 4133 0528 b02a c8f3 2e2a
00000050: cf62 c632 0365 6033 9c0b f22a 7423 4a2a
00000060: 3034 012b c7e6 b82a 8f1d b031 876f be31
00000070: 9ea4 1f32 8e19 2232 67ea 0832 bb8b bb31
00000080: b205 2933 731e d831 ef5a 9131 04c6 9931
00000090: 3827 2230 272a d12f 635f 192b f95d 2e2a
000000a0: 55d6 d631 44a9 aa30 2330 0d32 c2d2 7532
000000b0: ee46 5e31 b8ff 7631 bd20 ed31 b71e 1233
000000c0: 6295 b731 19c5 b230 c79b 2232 993c 8831
000000d0: 0b93 2332 045f c131 30e3 9132 d6eb 6132
000000e0: f544 e431 759d 1a32 82ac 0132 6f16 d132
000000f0: 1dbb 4731 8817 1234 576c 2432 433f 7d33
00000100: 00bc e532 dbc2 3432 3c38 7433 2361 1634
00000110: 5c60 1432 52c6 8c33 747d 312b 2fe1 dc2a
00000120: b0b9 ae31 b2c1 7932 f25f 392b 5d9c 192b
00000130: 71a6 5b2e 0fae 7030 75fe d331 67d6 e530
00000140: cd95 d52a d851 032b b245 e732 c477 e833
00000150: 0823 df31 189a 2031 0e63 8e32 5d39 0733
00000160: 84fd 0e2b 16f4 1d2b 5c5b dd2a 5522 c32b
00000170: a300 9132 239a 8032 09bf 232b d120 272b
00000180: e107 8431 2aca 5031 e6a5 3e32 ad28 6f33
00000190: b06c 7732 ab46 1b34 f2c0 b331 9683 9f30
000001a0: 55aa a92a 9919 e82a c0a2 7d30 4b30 e430
000001b0: 03dc fe31 284b 0131 f259 6f30 816f 8f30
000001c0: f56f 5b2a 91ed a129 6cb6 b333 12ee d033
000001d0: 967d 2a32 434b 9031 e2cf b731 2d6e c931
000001e0: a501 3e31 bef0 cb2f 34bb 8031 71ba b930
000001f0: a8f1 1a2b 9586 e62a b383 5d33 266c 6e33
4.1761212e-09 1.3138686e-09 2.6420834e-08 6.719976e-08 6.3287047e-07 2.8430043e-07 3.607716e-08 2.7149693e-07
2.2626308e-08 3.2301937e-08 4.2925174e-13 9.826623e-13 2.606672e-09 6.8445765e-09 3.3703857e-09 1.5996616e-08
1.6879659e-08 4.5065512e-08 3.129165e-13 1.5538883e-13 2.3095167e-08 5.2245934e-08 4.299589e-13 1.7953504e-13
4.590243e-13 3.28451e-13 5.1256346e-09 5.542407e-09 9.292448e-09 9.4354515e-09 7.969539e-09 5.458302e-09
3.935356e-08 6.289889e-09 4.2303934e-09 4.475398e-09 5.899099e-10 3.804683e-10 5.4488895e-13 1.5486908e-13
6.2525864e-09 1.2417236e-09 8.218225e-09 1.4308798e-08 3.234557e-09 3.594307e-09 6.9013297e-09 3.402121e-08
5.342984e-09 1.3007223e-09 9.465061e-09 3.96501e-09 9.521282e-09 5.6278413e-09 1.6983535e-08 1.3150347e-08
6.643513e-09 8.999781e-09 7.548012e-09 2.4341004e-08 2.9064673e-09 1.360587e-07 9.57069e-09 5.896369e-08
2.6744601e-08 1.0521684e-08 5.6861822e-08 1.4005177e-07 8.636643e-09 6.555332e-08 6.3057133e-13 3.9236103e-13
5.0851767e-09 1.4537749e-08 6.5858354e-13 5.4573517e-13 4.9942665e-11 8.7558844e-10 6.1698366e-09 1.672288e-09
3.7940346e-13 4.665413e-13 2.6923633e-08 1.0825127e-07 6.494137e-09 2.3370657e-09 1.657602e-08 3.148431e-08
5.080036e-13 5.611634e-13 3.932088e-13 1.3865112e-12 1.6880511e-08 1.4971254e-08 5.817435e-13 5.937586e-13
3.8426013e-09 3.03829e-09 1.10971765e-08 5.568352e-08 1.4402005e-08 1.4461209e-07 5.231521e-09 1.1606172e-09
3.0138622e-13 4.122924e-13 9.2272145e-10 1.6602909e-09 7.4173854e-09 1.8814692e-09 8.7075513e-10 1.0436311e-09
1.948995e-13 7.1910475e-14 8.3685194e-08 9.7290595e-08 9.923857e-09 4.199508e-09 5.3496345e-09 5.8623955e-09
2.7649574e-09 3.7096543e-10 3.746573e-09 1.3513511e-09 5.5047156e-13 4.0949592e-13 5.1575352e-08 5.5512054e-08

exp_avg f4 [64]
00000000: c101 25b6 70ca a4b7 766a d938 564e 81b8
00000010: e835 bbb7 3455 2c34 3506 7537 f6f2 a534
00000020: bcce 8337 aee3 21b4 9209 1e37 ed8f 8a33
00000030: 6295 87b3 d4f6 4ab5 61b0 84b7 7588 11b8
00000040: 09af 89b8 09f4 c5b6 1ac6 e333 6d17 c033
00000050: 95e8 1fb7 5901 8bb7 2da5 2c37 165d 2739
00000060: 5f41 58b5 1f8c 0538 8cb2 3ab7 206a ceb6
00000070: 0fa4 8937 09b6 bcb8 5b02 17b9 9903 f838
00000080: 7485 a936 bf30 23b8 538a 9837 02cf 55b3
00000090: cff4 2437 9479 f5b2 4534 4134 b519 2f36
000000a0: dbfa c032 6fd5 8ab8 96b3 fe35 fed0 15b8
000000b0: 8539 b533 a535 11b2 cce6 9437 6a35 21b4
000000c0: 1274 a4b7 1ed1 abb7 e2f5 7a38 9489 90b7
000000d0: ee0a 0233 d87e cfb7 8942 4737 3671 ddb6
000000e0: 74b2 7833 ef1d 0738 034e 4fb7 6138 e9b6
000000f0: ec20 d8b6 e7b5 3837 369a c4b2 9a9c c837
-2.4587937e-06 -1.964459e-05 0.00010367196 -6.1657905e-05 -2.231724e-05 1.6049745e-07 1.4604583e-05 3.0910422e-07
1.5712685e-05 -1.5077123e-07 9.419762e-06 6.452306e-08 -6.3136e-08 -7.5610046e-07 -1.5817759e-05 -3.469778e-05
-6.565272e-05 -5.899467e-06 1.0606546e-07 8.944958e-08 -9.531291e-06 -1.6570719e-05 1.0290457e-05 0.00015961038
-8.05614e-07 3.184017e-05 -1.1128035e-05 -6.151633e-06 1.6408068e-05 -8.998445e-05 -0.0001440136 0.00011826232
5.0521285e-06 -3.8907627e-05 1.8184224e-05 -4.97812e-08 9.832161e-06 -2.8577041e-08 1.7993541e-07 2.6091996e-06
2.2465818e-08 -6.620108e-05 1.8976741e-06 -3.5719007e-05 8.438932e-08 -8.452308e-09 1.7750448e-05 -1.5013725e-07
-1.9604373e-05 -2.0482166e-05 5.983364e-05 -1.7230203e-05 3.0277924e-08 -2.473539e-05 1.1876816e-05 -6.5994927e-06
5.7904302e-08 3.2214386e-05 -1.2356325e-05 -6.9505045e-06 -6.4411342e-06 1.1009607e-05 -2.288753e-08 2.3914781e-05

exp_avg_sq f4 [64]
00000000: 02e0 5833 8780 0d35 f724 c135 17a9 5636
00000010: 5bd0 c533 7caf 1c2d 36b3 cf33 0523 8134
00000020: 0d97 8435 3219 8a2c 6534 f133 c53a e52b
00000030: 2c03 612c ee44 7233 7c67 8334 9782 6534
00000040: edec bb34 07ad 6632 8e26 4231 ffe0 a02b
00000050: 7764 f832 2f14 b833 1bf2 4c33 9a32 3a34
00000060: db6c 4132 46ae 1934 1a9d e033 436f 6c33
00000070: c3df 2434 6887 de34 27e3 8434 d194 4435
00000080: df2a be33 138b 6235 5627 6135 5659 b82b
00000090: f130 a933 c45b 532c 7505 3d31 8922 5f32
000000a0: 6d58 282d 2015 d634 8dc5 9132 af2c 3635
000000b0: 8c44 282d 5b8d ce2d 23ac 6a33 94e2 242d
000000c0: 9157 9233 803a 4234 c477 9635 c62c 2632
000000d0: 6704 362d f380 2131 ceac 0d33 a018 f732
000000e0: ece6 0c2c abcc cd34 2db5 bf32 6aca 9f33
000000f0: c5da 5d33 e5e1 0832 bdbb 392d 4a15 2b34
5.0495153e-08 5.2713625e-07 1.4390379e-06 3.1986908e-06 9.211427e-08 8.906539e-12 9.671787e-08 2.4053602e-07
9.878728e-07 3.924993e-12 1.12319675e-07 1.628774e-12 3.1976184e-12 5.6407707e-08 2.4475946e-07 2.1374795e-07
3.500385e-07 1.3427104e-08 2.8252631e-09 1.1431133e-12 2.8916686e-08 8.571839e-08 4.7717645e-08 1.7341009e-07
1.1258829e-08 1.4312636e-07 1.04593894e-07 5.5049224e-08 1.5355094e-07 4.1449243e-07 2.475219e-07 7.3232246e-07
8.855363e-08 8.439394e-07 8.3876273e-07 1.3098782e-12 7.878578e-08 3.0035844e-12 2.7506222e-09 1.2988161e-08
9.569329e-12 3.9875977e-07 1.6970057e-08 6.7865307e-07 9.564915e-12 2.3482263e-11 5.4638928e-08 9.372631e-12
6.814583e-08 1.808894e-07 1.1210727e-06 9.672652e-09 1.034648e-11 2.3501883e-09 3.2986286e-08 2.8765783e-08
2.0023384e-12 3.833314e-07 2.2317716e-08 7.4408334e-08 5.1654542e-08 7.967604e-09 1.0557719e-11 1.5933361e-07

exp_avg f4 [128, 64]
00000000: 0000 0000 0000 0000 0000 0000 0000 0000
00000010: 0000 0000 0000 0000 0000 0000 0000 0000
00000020: 0000 0000 0000 0000 0000 0000 0000 0000
00000030: 0000 0000 0000 0000 0000 0000 0000 0000
00000040: 0000 0000 0000 0000 0000 0000 0000 0000
00000050: 0000 0000 0000 0000 0000 0000 0000 0000
00000060: 0000 0000 0000 0000 0000 0000 0000 0000
00000070: 0000 0000 0000 0000 0000 0000 0000 0000
00000080: 0000 0000 0000 0000 0000 0000 0000 0000
00000090: 0000 0000 0000 0000 0000 0000 0000 0000
000000a0: 0000 0000 0000 0000 0000 0000 0000 0000
000000b0: 0000 0000 0000 0000 0000 0000 0000 0000
000000c0: 0000 0000 0000 0000 0000 0000 0000 0000
000000d0: 0000 0000 0000 0000 0000 0000 0000 0000
000000e0: 0000 0000 0000 0000 0000 0000 0000 0000
000000f0: 0000 0000 0000 0000 0000 0000 0000 0000
00000100: 65c5 a3b6 4d78 0a36 f479 f8b6 3b4e 37b7
00000110: d283 8d36 bfc9 b233 dd80 55b7 c799 d1b6
00000120: cde0 dcb4 002a e033 026e 7335 f3e8 e333
00000130: 33c8 f533 afc9 30b7 24a8 9db5 42b4 99b4
00000140: e80a 6136 50d1 9eb3 64a4 0535 df6d dd33
00000150: 1988 3fb7 0d23 32b7 f7a2 42b7 046c 41b6
00000160: 7ac7 14b7 f915 4fb7 7916 e1b4 dbd8 dd35
00000170: d148 39b7 c21c 35b7 5af3 b636 04ed 2cb7
00000180: 21a0 8cb4 4d12 8036 5397 93b6 8d50 d033
00000190: 2442 11b7 4334 2034 ea2b d1b3 aa56 bdb6
000001a0: 2c33 9f33 4571 59b6 8b47 f1b6 36f5 afb6
000001b0: 7687 f333 793b 0f34 b4c8 0537 e739 fd33
000001c0: 654c 42b7 3518 5936 616f acb6 72dc 16b7
000001d0: ed12 1934 5d25 99b6 1dad 9eb6 c125 d635
000001e0: 990a f033 9c30 36b5 6290 3f36 de38 83b6
000001f0: f864 2bb6 9f62 4eb7 638c f033 3c4a 9236
00000200: c1aa deb7 c166 a736 4769 9db6 d84e 02b8
00000210: 0f70 41b7 d5d9 7d34 379f 6ab8 2c73 9cb7
00000220: 06c6 31b3 574c 0035 e4f0 8db6 dc4c b934
00000230: d4eb d634 8d04 52b7 4f74 22b8 8d67 a734
00000240: 23fb ccb7 41f2 bd33 37f0 4a35 ad52 1335
00000250: 246d f4b7 a591 dcb6 25ba 36b8 6ae1 7cb7
00000260: 8867 8ab8 1d73 f7b6 e6ae 95b1 f1bb 1cb7
00000270: e6bb 2cb8 7a24 0db8 8dfc 3533 4a06 50b8
00000280: a400 9b34 f451 e7b7 3eba 48b8 d7b7 9534
00000290: a7fd 92b8 4c5f d834 b929 4435 83ae 30b7
000002a0: 969f 0335 31a8 1db7 2754 46b8 67e4 5ab8
000002b0: 2bdd 8834 6377 3135 57e8 2cb7 6707 c634
000002c0: bca2 21b8 f52f 02b5 9114 feb6 d0e2 20b7
000002d0: cd28 0835 ecc1 88b4 5001 05b8 d4bf c536
000002e0: 372b 1835 fcc3 42b7 1fe6 d1b7 f1d4 82b7
000002f0: 7959 bab5 9529 26b8 d997 f934 e57e a6b7
00000300: 680d ed36 2d35 9c36 2cfe 91b7 ec77 1a37
00000310: 620c b835 2e77 cb32 2b87 bd36 730b 04b6
00000320: 4728 ec35 a721 e9b2 c16f 71b4 2f51 5733
00000330: 8b0e 2534 1588 86b7 914c 07b5 4f02 67b6
00000340: 2599 99b5 a581 3f33 d78c 5bb7 8a11 e9b3
00000350: 7b36 7cb7 c049 b7b6 4d36 0bb5 87e0 ae37
00000360: 99a8 0f37 7d90 b6b7 bed0 b0b6 6d55 ca37
00000370: cd9a cab6 9aef a8b7 2893 4b35 8a1c 6b37
00000380: fb41 4637 dcf6 5036 530b 7c36 ffd1 fb33
00000390: ff5a dbb6 7dd7 6934 8012 a8b4 0aee efb6
000003a0: aa05 3ab3 17c4 4637 0f3f 6435 5100 d536
000003b0: dd60 ad33 ad01 6cb3 31c1 e435 2689 b033
000003c0: 2404 44b6 de7c d637 26b3 cb35 e489 5637
000003d0: fe66 fa33 1aee 6bb3 4d59 5234 ad1e 92b6
000003e0: e17f 1032 b934 8437 2bc6 dfb5 d8cd c833
000003f0: cbce cdb7 6d16 a5b6 4a53 0433 6f0e 07b6
0.0 0.0 0.0 0.0 0.0 0.0 0.0 0.0
0.0 0.0 0.0 0.0 0.0 0.0 0.0 0.0
0.0 0.0 0.0 0.0 0.0 0.0 0.0 0.0
0.0 0.0 0.0 0.0 0.0 0.0 0.0 0.0
0.0 0.0 0.0 0.0 0.0 0.0 0.0 0.0
0.0 0.0 0.0 0.0 0.0 0.0 0.0 0.0
0.0 0.0 0.0 0.0 0.0 0.0 0.0 0.0
0.0 0.0 0.0 0.0 0.0 0.0 0.0 0.0
-4.8807583e-06 2.0633627e-06 -7.405173e-06 -1.0925864e-05 4.2174734e-06 8.325468e-08 -1.2725793e-05 -6.2465874e-06
-4.1141757e-07 1.04384526e-07 9.0684637e-07 1.06128844e-07 1.14451176e-07 -1.0537376e-05 -1.1746347e-06 -2.8629626e-07
3.353396e-06 -7.395522e-08 4.978558e-07 1.03111e-07 -1.1416175e-05 -1.0617788e-05 -1.1601244e-05 -2.8822114e-06
-8.867932e-06 -1.2343277e-05 -4.1925867e-07 1.6528896e-06 -1.1043813e-05 -1.0795136e-05 5.4523525e-06 -1.0307183e-05
-2.619354e-07 3.8168278e-06 -4.398558e-06 9.700407e-08 -8.658073e-06 1.4920174e-07 -9.740309e-08 -5.642728e-06
7.4133226e-08 -3.2401451e-06 -7.1906884e-06 -5.2439527e-06 1.13402095e-07 1.3339549e-07 7.974148e-06 1.1791763e-07
-1.1581088e-05 3.234961e-06 -5.1389657e-06 -8.992023e-06 1.425612e-07 -4.564105e-06 -4.72892e-06 1.595523e-06
1.11777986e-07 -6.787102e-07 2.854526e-06 -3.9107244e-06 -2.5539757e-06 -1.2301519e-05 1.1201407e-07 4.359781e-06
-2.6543976e-05 4.98895e-06 -4.6912205e-06 -3.1067844e-05 -1.1529787e-05 2.3641708e-07 -5.5938228e-05 -1.865028e-05
-4.1391125e-08 4.7794805e-07 -4.230171e-06 3.4514858e-07 4.0032194e-07 -1.2518035e-05 -3.873213e-05 3.1181517e-07
-2.443564e-05 8.845064e-08 7.560042e-07 5.4882076e-07 -2.913789e-05 -6.573466e-06 -4.3565542e-05 -1.5072854e-05
-6.599637e-05 -7.3745746e-06 -4.3563544e-09 -9.342083e-06 -4.118299e-05 -3.365099e-05 4.237204e-08 -4.959692e-05
2.8871466e-07 -2.7575508e-05 -4.7857167e-05 2.7887174e-07 -7.009069e-05 4.0302473e-07 7.3076404e-07 -1.0531049e-05
4.903353e-07 -9.397089e-06 -4.728525e-05 -5.2187967e-05 2.5492895e-07 6.611137e-07 -1.0306095e-05 3.688576e-07
-3.853695e-05 -4.849856e-07 -7.572184e-06 -9.589552e-06 5.072332e-07 -2.547307e-07 -3.1710893e-05 5.8933892e-06
5.66873e-07 -1.1608932e-05 -2.50219e-05 -1.5596366e-05 -1.388412e-06 -3.961621e-05 4.6490348e-07 -1.9847832e-05
7.064711e-06 4.6553528e-06 -1.7403705e-05 9.207037e-06 1.3712672e-06 2.3686507e-08 5.6483746e-06 -1.9676197e-06
1.7595092e-06 -2.7140073e-08 -2.248553e-07 5.0132424e-08 1.5372113e-07 -1.6037413e-05 -5.040284e-07 -3.4423026e-06
-1.1443959e-06 4.4588564e-08 -1.3086209e-05 -1.0853098e-07 -1.5033055e-05 -5.4624106e-06 -5.1860553e-07 2.084697e-05
8.562719e-06 -2.1763373e-05 -5.2695095e-06 2.4120056e-05 -6.0380903e-06 -2.0138734e-05 7.5837534e-07 1.4013736e-05
1.1817082e-05 3.1138106e-06 3.7557518e-06 1.17262964e-07 -6.537302e-06 2.177821e-07 -3.13059e-07 -7.1504664e-06
-4.331165e-08 1.1847375e-05 8.502838e-07 6.3479315e-06 8.0735596e-08 -5.4949556e-08 1.704355e-06 8.220586e-08
-2.9208686e-06 2.5568934e-05 1.5176818e-06 1.2787499e-05 1.1660266e-07 -5.4931753e-08 1.9590262e-07 -4.35471e-06
8.4109795e-09 1.5760177e-05 -1.6672469e-06 9.3506685e-08 -2.45342e-05 -4.919994e-06 3.0809396e-08 -2.012497e-06
