new_saved_models/v2_n1e6_sk200.pt (torch, 529309 bytes, 24 tensors)

net.0.weight f4 [64, 2]
000000 9c e0 08 be be 10 18 3f 5d f7 df 3d cc c6 17 3f
       -0.13366932 0.59400547 0.10935853 0.59287715
000010 34 1b 29 3d 79 e9 66 be 9c 23 18 3f 9e ec b0 3e
       0.04128571 -0.2255 0.59429336 0.34555525
000020 90 47 15 3f 19 7c 22 3f 69 b8 c6 3e 47 54 41 3e
       0.5831232 0.6347061 0.3881257 0.18879806
000030 a8 6b 0b be d6 70 a8 be 85 67 b8 3e a7 ec 08 bf
       -0.13615286 -0.32898587 0.3601648 -0.534861
000040 8b 55 e1 3e a4 c0 dd 3e 51 48 d7 be 3a 4b 23 3f
       0.44010577 0.43311036 -0.4204736 0.6378666
000050 81 54 44 be d5 34 40 bf 19 17 bc bd e1 94 20 3f
       -0.1917286 -0.75080615 -0.09184093 0.6272717
000060 6d 44 1d 3f fe cd 94 be 32 d5 7b bd 42 3a cb 3e
       0.61432534 -0.2906341 -0.061482616 0.39692885
000070 d2 d0 38 bf 9e 07 1a bf e1 44 2f 3f f3 8f 1a 3f
       -0.72193635 -0.6016787 0.68464476 0.603759
000080 8e 2c 3e be 67 19 ae 3e 59 04 44 3d 00 39 0b bf
       -0.18571684 0.34003755 0.04785571 -0.5438385
000090 47 d4 0a be f7 01 c4 3e 3a 5f 9e 3e 7c 3b f6 bd
       -0.1355754 0.3828275 0.30932027 -0.120230645
0000a0 76 af 57 be f7 cc 9c 3d 4b 23 9a 3e 6a ed 3f 3f
       -0.21063027 0.076562814 0.3010505 0.7497164
0000b0 1e ac 30 3e 8b 26 59 3e 30 ef 3f 3f cc bd 36 bf
       0.17253157 0.21206109 0.74974346 -0.7138336
0000c0 29 ea 08 3f ea 9d d8 be 38 29 2e 3f f2 33 25 3f
       0.534823 -0.4230798 0.68031645 0.6453239
0000d0 83 1e df 3e 49 e8 bc bd 9b c1 11 bf b6 4a 07 bf
       0.43577966 -0.092239924 -0.56936044 -0.52848375
0000e0 26 e1 4c bf 9b cb 0c 3f c2 4c 08 3f 4b 97 ec 3e
       -0.8003105 0.5499818 0.53242123 0.46209177
0000f0 27 7d 86 be cf f9 a4 3e 8f a2 ad 3e 7a 87 94 be
       -0.2626736 0.3222184 0.33913085 -0.2900961
000100 77 62 0c 3e fc 48 f2 3e 63 e2 cc be 11 f0 c7 be
       0.13709436 0.47321308 -0.4001647 -0.39050344
000110 69 ed b8 be 10 fa aa bc ee 53 36 3f 84 cd 05 3f
       -0.3611863 -0.020871192 0.71221817 0.52266717
000120 36 8e d2 bd d6 a3 56 be d8 c1 2f be 53 14 84 be
       -0.10281031 -0.20960936 -0.1716379 -0.25796756
000130 5e 03 28 3f f9 d9 11 3e c2 42 0a 3f f8 97 9a 3e
       0.6563014 0.14243306 0.54008114 0.30194068
000140 9a 21 27 3f 93 32 b7 3c 6b 1d 83 bd 7d ff de 3e
       0.65285647 0.022362983 -0.064020954 0.43554297
000150 0b b9 1c 3f d1 85 0d bf c0 ac 89 bc ab 02 a3 3c
       0.61219853 -0.5528231 -0.016806006 0.019898733
000160 9e d8 08 3f cc 88 35 bf 61 7d 0a bf 50 9f 3a be
       0.5345553 -0.7091186 -0.54097563 -0.18224835
000170 1e 46 94 3d 40 44 a7 3e 72 8e d1 3e b1 2a 1d 3f
       0.07239936 0.32669258 0.4092899 0.61393267
000180 da 50 bd bd e1 0e d2 3d e4 57 0b 3e 29 2c d2 3e
       -0.09243937 0.10256744 0.13607746 0.41049317
000190 e5 4a 07 bf 6d db 89 3e 45 67 fa bd d9 ce df be
       -0.52848655 0.2692522 -0.12226728 -0.437125
0001a0 2f f3 71 be 88 df 13 bf 6b a6 fb 3e c6 4a e5 3d
       -0.23627923 -0.57762957 0.49150404 0.111959025
0001b0 01 61 0d bf dd 3f 2a 3e a4 95 9b 3e c5 8e df 3e
       -0.5522614 0.16625924 0.30387604 0.43663612
0001c0 92 4d 11 3d 18 bf 2e 3f 2e 2d 41 bf ac 90 48 3c
       0.035474367 0.68260336 -0.75459564 0.012241524
0001d0 28 b2 32 bf 1f b5 1f 3f 40 b4 35 bf 93 71 ab bd
       -0.69803095 0.62385744 -0.70978165 -0.08371272
0001e0 31 36 19 bf 71 8e f1 be 84 32 f3 bc 10 ee 33 3e
       -0.59848315 -0.47178987 -0.029687174 0.17571282
0001f0 a0 14 2b 3f ca 78 71 bd af da de bd 70 10 76 bd
       0.66828346 -0.058953084 -0.10881554 -0.06007427

net.0.bias f4 [64]
000000 81 42 1f 3e 69 a0 0a bf 45 b9 0c 3e d9 1a 3a 3e
       0.15552713 -0.54151016 0.1374255 0.18174304
000010 c8 a9 2e be 80 3c 0a 3f 97 ea 11 3d 42 6a 9f 3e
       -0.17056954 0.53998566 0.035624113 0.31135756
000020 88 22 0f bf a6 4e 36 3e de f2 47 be 23 7f 96 3e
       -0.55912066 0.1780344 -0.1952624 0.29393873
000030 df 96 28 3d 84 50 26 be 33 f7 91 3e e5 c6 25 bf
       0.041159507 -0.16241652 0.2850891 -0.64756614
000040 c5 83 d0 3e 43 cc d2 be 74 87 36 bf 48 84 1c 3e
       0.40725532 -0.41171464 -0.71300435 0.15284836
000050 fd 89 f1 be 9e 99 17 3f 0d 1f d9 3e f6 09 00 be
       -0.4717559 0.59218776 0.42406502 -0.125038
000060 d8 19 2b 3f e2 54 df be e9 f8 8e be 99 4d 15 be
       0.6683631 -0.43619448 -0.27924278 -0.14580382
000070 1c 5e 0d bf 6c 9d e9 3e 5e 87 1a bf e2 2d 02 3f
       -0.55221725 0.45627916 -0.60362804 0.5085126
000080 bc ea 5d be e9 52 af 3e 1c 12 ec 3e 88 20 a1 be
       -0.21671575 0.34242943 0.46107566 -0.31470132
000090 eb 4d 30 3c b6 84 17 3f ee 3c 02 bf 95 ec df 3e
       0.010760765 0.59186876 -0.5087422 0.43735185
0000a0 4a 26 c8 3e dc 5b 31 3f b8 6f b6 be 30 37 03 bf
       0.39091712 0.6928079 -0.3563211 -0.51256084
0000b0 b6 05 fe 3d 54 1d 15 3f 6c 0d 81 bd b2 1b 07 3f
       0.12403433 0.58247876 -0.06301388 0.52776635
0000c0 36 ee 22 3f f2 cd c8 be f2 ba 0b 3f 51 52 1e 3e
       0.6364473 -0.39219624 0.5458213 0.15461089
0000d0 06 0a 85 3d 8a c0 2e bf 26 5c 8f be 70 57 2a 3f
       0.064960524 -0.6826254 -0.2799999 0.6653967
0000e0 d1 b5 ea be 2d c5 18 bf a8 96 b0 3e 02 ba 2b bf
       -0.4584184 -0.59675866 0.34489942 -0.670807
0000f0 1c 88 d1 bd ba d9 02 3e f3 6c 17 3e 04 cf cf be
       -0.10231039 0.12778369 0.14787655 -0.40587628

net.2.weight f4 [128, 64]
000000 62 c8 82 bc 4e 09 95 bd 9a b5 06 bd 94 27 61 3d
       -0.01596469 -0.07277165 -0.032888032 0.054969385
000010 c5 56 f4 3c b2 bb a3 3d d8 9f c0 bc c2 f3 8e 3d
       0.029826531 0.079947844 -0.02351372 0.06980087
000020 fc 58 02 3e b1 ed cd 3d 07 33 2d bd 97 12 9a 3d
       0.12729257 0.10055102 -0.04228499 0.07523077
000030 1b 71 79 3d ba 1b f2 3b 93 d8 33 3e cf dc 4f bd
       0.06089888 0.007388559 0.17563085 -0.05074769
000040 17 eb 59 3d 03 f1 c8 3d 03 32 cd bc 88 21 28 bd
       0.053202715 0.09811594 -0.025048262 -0.041047603
000050 1f 5a 05 3e 0e 24 15 3e cb 99 9b bd ee fd 3b 3e
       0.1302266 0.14564535 -0.07597693 0.18358585
000060 8c 70 7e bd ab 89 2a 3e 14 95 5e 3e 28 89 36 bd
       -0.06211905 0.16654079 0.21736556 -0.044564396
000070 2c 5b b1 3d 6c ff 36 bd 10 24 ea 3c ba f5 d2 3b
       0.08659968 -0.044677183 0.028581649 0.0064379843
000080 8b 1c 77 3d fc 3f c8 3d 40 8c 42 bd bf 83 5b 3e
       0.060329955 0.09777829 -0.047497034 0.21436976
000090 56 1e d1 3c 1d c9 d0 bd b3 4f c9 bd dd 5b d7 3d
       0.02552716 -0.10194609 -0.098296545 0.105155684
0000a0 51 09 b8 3d a8 f5 05 3d 4d 1e e0 3c 45 5a aa bc
       0.08986152 0.03270498 0.027358199 -0.020794997
0000b0 f4 a3 96 bd 01 31 0c 3d 24 40 e0 3d 44 6b 9e bd
       -0.0735549 0.03422642 0.10949734 -0.07735303
0000c0 ab 06 37 bd 2d 25 80 bd 89 59 b8 bd 37 f2 20 bd
       -0.044684093 -0.06257091 -0.090014525 -0.039293494
0000d0 30 17 91 3d 02 0b ab bd 43 c4 bd 3d f2 35 be bd
       0.07084501 -0.08351709 0.092659496 -0.09287633
0000e0 e7 62 a5 bd b9 6d ed 3d 7f 4f 04 bd 3b 34 0d 3e
       -0.08075505 0.115931936 -0.032302376 0.13789456
0000f0 63 9c d0 bd b7 a8 ce bc 79 8a 02 be 57 09 86 bd
       -0.101860784 -0.025226934 -0.12748136 -0.0654475
000100 5b 92 ac bd f8 b0 ae 3d 22 28 d8 bd f9 ee be bd
       -0.084263526 0.08529848 -0.1055453 -0.09322924
000110 e3 0d 1a 3e 79 c3 93 3d 19 9b 71 3c 8d be d0 3d
       0.1504436 0.07215018 0.014746451 0.10192595
000120 09 41 e6 3c 34 1f 90 3c d4 0e ff 3c df 15 30 3e
       0.028107183 0.017593004 0.031135 0.17195843
000130 18 42 3e 3c 8a cc db bd 8e 38 1b 3c 7b 42 82 bd
       0.011612438 -0.10732372 0.009473933 -0.063603364
000140 ba ea 67 3b d6 c8 e1 3c 39 da cd bd 7a e5 bc 3c
       0.003538771 0.027561586 -0.10051388 0.023058642
000150 a3 bb 87 3b 06 67 15 3e 7e 15 27 bd f9 20 03 3e
       0.004142241 0.14590082 -0.04079198 0.12805547
000160 3f 1e fa 3c 30 d1 8c 3c 9d 53 20 3e 5e 94 f5 3d
       0.030532 0.017189592 0.15656896 0.119911894
000170 39 f4 b1 3c ac 64 c9 3c 59 cc d9 bd 83 ba 97 bd
       0.0217229 0.024584137 -0.10634679 -0.07408621
000180 aa 8f 49 3c 33 bd 46 bd 06 d3 db bd 3b 72 54 3c
       0.012302319 -0.04852028 -0.10733609 0.012966688
000190 e1 9c cf 3c 80 ee ec 3c 57 9c f8 bd cf 26 d6 3d
       0.02534336 0.02892232 -0.121391945 0.10456621
0001a0 de 44 e0 3d 0c f3 57 3d 12 7d d5 bd a4 0b 80 3d
       0.109506354 0.052722022 -0.10424246 0.0625222
0001b0 dc e1 48 3d 8a 36 e1 3d c9 81 a2 3d d5 9b bc 3d
       0.04904352 0.109967306 0.07934911 0.0920941
0001c0 27 17 bd bd 1f 84 c9 3c fa 50 25 3d 56 c0 72 bb
       -0.092329316 0.024599133 0.04036043 -0.003704091
0001d0 7d c6 37 3c ef 05 71 bc e5 c8 5b 3e 95 63 2b bd
       0.011216757 -0.014710887 0.21463354 -0.041843016
0001e0 78 81 d3 3d a2 36 20 3e dc a8 e8 bc 43 f5 86 bc
       0.103274286 0.15645841 -0.02840083 -0.016474372
0001f0 1b 58 0c bb 0f e3 9e 3c 5a bc 7e bd 37 c9 8d 3d
       -0.002141482 0.01939538 -0.062191345 0.06923144
000200 bb 32 7d bc 19 7f cd 3c c8 bd 5e 3c 12 f7 9b bc
       -0.01545399 0.025085019 0.013595052 -0.01903871
000210 37 1a 0d 3c c5 e3 86 bd 83 db 13 bd eb f4 e3 3c
       0.008612207 -0.06586412 -0.036098015 0.027826747
000220 87 c9 55 bd 0d ab 07 3e f5 ba 48 3d 6d 1c 67 3c
       -0.052194145 0.13248844 0.04900642 0.014105898
000230 1c 75 81 3d 4e 85 05 3e 3b 9d 2e 3e 41 6c 01 3e
       0.06321165 0.13039133 0.17052166 0.12638952
000240 bc 9c f6 3b 47 c1 b3 3d 8c 86 4c 3d 06 c5 1f bd
       0.0075260084 0.08777099 0.049933 -0.039006256
000250 6c 8d 3d 3d 5f e0 07 3d 48 ff 36 bd 2e ff b6 3d
       0.04627745 0.03317296 -0.04467705 0.089353904
000260 07 cc 0a 3d 06 b3 12 3e 62 84 45 3e 28 af 08 3e
       0.033885982 0.14326105 0.19288781 0.13348067
000270 f2 11 d1 3d ea b4 d7 3c 3e 12 f5 bd ef c0 db bd
       0.10208501 0.026331384 -0.1196637 -0.107301585
000280 c7 62 04 3e 04 e1 c2 3d 6a 1a a8 bb 6a ed 2c 3e
       0.12928306 0.095155746 -0.005130102 0.16887441
000290 d6 74 b3 3d 39 e1 aa 3c 27 8e 21 be 67 07 98 bd
       0.08762519 0.020859348 -0.15776883 -0.07423287
0002a0 09 5d 29 3d d4 48 10 3d 5b bd 70 bd c9 83 03 3d
       0.04134849 0.035225704 -0.058774333 0.032108102
0002b0 14 c0 c9 bc 24 86 ba 3b b6 37 50 bd 73 c3 07 ba
       -0.024627723 0.0056922603 -0.05083438 -0.00051789655
0002c0 58 4b 3f bd 10 60 05 be d6 bf 08 bd 79 40 20 3b
       -0.046702713 -0.13024926 -0.033386074 0.0024452491
0002d0 aa e4 6f 3d b6 c5 9c 3d 75 96 3c 3e af 15 d1 bd
       0.05856768 0.07654898 0.1841677 -0.10209214
0002e0 03 ea ef 3d d5 a1 01 3e a7 93 a8 bc 0e 48 09 3d
       0.11714556 0.1265939 -0.020578219 0.033515982
0002f0 04 13 96 3d a3 71 f8 3d b8 b9 85 bd ac 1b 21 3c
       0.07327846 0.121310495 -0.06529564 0.009833258
000300 4e f9 34 3d 84 4b 93 bc b1 e3 f0 3d df 40 4a 3d
       0.044183068 -0.017980345 0.11762179 0.049378272
000310 9f 8f 0a be a8 35 a2 3d be 69 66 bd f8 7c 34 3c
       -0.1353135 0.0792039 -0.056253187 0.011016123
000320 27 ec 21 3c df 3d 9c bd d5 b4 f4 bc 48 82 16 3e
       0.009882963 -0.076289885 -0.029871384 0.14698136
000330 cf cf fd 3c a7 ac 6b bd 01 d9 8d bd d6 18 4a 3b
       0.03098288 -0.0575377 -0.06926156 0.0030837557
000340 0b ce f2 3d b0 31 7b bd 46 36 00 3d ed b3 0c be
       0.11855706 -0.061326683 0.03130176 -0.13740511
000350 ff f0 f1 bd 45 48 4b 3d 20 b6 ff 3d d2 a7 e4 bd
       -0.118135445 0.04962947 0.124859095 -0.11164822
000360 e2 2a 31 bd 8c 38 63 3c 9b d0 e3 bd 09 24 10 3d
       -0.043253787 0.013868462 -0.11123773 0.035190616
000370 ca a1 1e bd 22 70 04 3e de b1 80 bd f7 77 43 3d
       -0.038728513 0.129334 -0.062839255 0.04772183
000380 00 bc 8a 3c c3 19 04 3e b6 d6 1d bd 29 7d 4b 3d
       0.016935349 0.12900452 -0.038534842 0.04967991
000390 71 bd 3c bd 29 3c 03 3e 3b ec a0 bb 95 cc 39 3d
       -0.046079103 0.12815918 -0.0049109734 0.04536112
0003a0 1a 85 0e be ac d1 d7 3d 6c ec ab bd 9f 0f 8f 3c
       -0.13917962 0.105380386 -0.08394703 0.017463503
0003b0 85 c2 14 bd 9e 94 fa 3d 7b 3b 81 3d ee 42 ad 3d
       -0.03631832 0.12235378 0.06310173 0.084600314
0003c0 bf f9 72 3d fe 86 7a 3d 65 09 5c 3d f4 26 c5 3d
       0.059320208 0.061163895 0.053719897 0.0962657
0003d0 43 a4 90 3c c2 ef fc bd 4c bd 9d bd a8 9c e3 3d
       0.017656451 -0.12350418 -0.07702121 0.11113864
0003e0 ea e9 d4 3d 16 7f 01 be 42 3e e3 bc 38 1b 14 bd
       0.10396178 -0.12646136 -0.027739648 -0.03615877
0003f0 19 f7 51 bd 9c 3e 03 3d 49 05 b7 3d 9c da 23 be
       -0.05126104 0.03204213 0.08936555 -0.16001362

net.2.bias f4 [128]
000000 fa fd 3e 3c 2c 50 f8 bd 49 41 01 3e d7 b6 e4 3d
       0.011657232 -0.121246666 0.1262256 0.111676864
000010 16 b7 d6 bd c0 fb ef bc bf 0f d4 3d 35 66 eb 3d
       -0.104841396 -0.029294848 0.10354566 0.11494104
000020 c5 ba ac 3b fa e6 a0 3d 28 de 53 3c cb ef ff 3c
       0.005271288 0.07856555 0.012931384 0.031242272
000030 70 42 d0 bc c7 1a 9b 3d c8 78 ce 3d 9d 5f 75 3d
       -0.025422305 0.07573467 0.10081631 0.059905637
000040 f5 3b 04 3d 8a bb dc 3c 38 57 79 3c 29 d8 8a bb
       0.032283742 0.026944894 0.0152185485 -0.004237194
000050 d8 0f c7 bd d6 3f f3 3c fd f2 61 bd 29 6e b9 bb
       -0.09719819 0.029693525 -0.055163372 -0.005658884
000060 81 11 e1 3d 52 61 14 3e e5 95 95 bd 20 a4 77 bd
       0.10989667 0.1449025 -0.07303981 -0.060459256
000070 d0 b7 3c 3d ed 0b cc 3d 85 c1 12 3d 12 89 8d 3d
       0.046073735 0.09963212 0.035829086 0.0691091
000080 aa c9 ff 3d ef 57 06 3e b2 69 b1 3d 03 5a 30 3e
       0.12489636 0.13119482 0.08662738 0.17221837
000090 bf 8c c8 3d 69 eb ef 3d aa 81 c5 3d 3d 6e 9c bc
       0.0979247 0.11714823 0.09643872 -0.019095534
0000a0 a3 25 71 3d b9 99 b9 bd 0e a2 a6 bd 95 51 70 3d
       0.058873784 -0.090625234 -0.08136378 0.058671553
0000b0 4e 94 a7 bd 07 ff 50 3d 31 7c db 3d 34 c0 e8 3d
       -0.08182584 0.051024463 0.10717047 0.11364785
0000c0 9f f5 c5 bd 00 66 d9 bd 08 d5 65 bd 3a e1 8b 3c
       -0.09665989 -0.10615158 -0.056111366 0.01707517
0000d0 e5 57 ca 3d a4 fb 4d bd 6b ed 8d 3d 4e 8a 8e 3d
       0.09880046 -0.05028881 0.069300495 0.06959973
0000e0 3c cd d7 3d ef a1 f0 bc 35 59 2a 3e f8 40 03 bd
       0.10537192 -0.029374091 0.16635592 -0.03204438
0000f0 45 1d 22 3d bb 20 88 3d 92 38 2d 3d 54 1a 18 bd
       0.039578695 0.06646868 0.042290278 -0.037134483
000100 05 f3 90 3d da 38 e4 3d 04 a3 b3 bd 4d 67 50 bc
       0.07077602 0.11143656 -0.08771327 -0.012719941
000110 3f 44 6f bd 7e 93 1a bd a1 3d c5 3d d7 72 f5 bd
       -0.058414694 -0.037738316 0.096308954 -0.119847946
000120 7f 55 ae 3d 10 7b 8f 3d 4e f9 82 bd 69 1f 53 bd
       0.08512401 0.07005894 -0.06395207 -0.051543627
000130 ce 63 83 bd 99 18 07 bd b2 88 d7 3d 5f ec 49 3b
       -0.064155206 -0.032982443 0.105241194 0.0030811054
000140 bc b8 82 3c 73 28 fe bb 80 6d e6 bd a8 27 6c bd
       0.015957229 -0.0077562868 -0.11251354 -0.057655007
000150 2a b8 6c 3d 47 4d 2a bb 64 44 f0 3d 66 99 f7 bd
       0.05779282 -0.0025986002 0.117317945 -0.12089805
000160 3c b1 1d 3d 27 0a 53 bd 9f 6c c3 bc d4 2d fd bd
       0.038499102 -0.051523354 -0.023855506 -0.12362257
000170 f6 f9 cf 39 d4 53 6d bd 60 a2 34 bd 34 b3 41 3d
       0.00039668352 -0.057941273 -0.044100165 0.047290042
000180 92 5d ee 3d 27 8c 0a ba c2 a5 f1 3d 3d 1e 00 3e
       0.11638941 -0.00052851666 0.11799194 0.12511535
000190 a8 11 8c bc 78 46 a5 bd 80 5c e5 bb ca 49 da 3d
       -0.017098263 -0.080700815 -0.0069995522 0.106586054
0001a0 b5 b5 17 3d 67 42 e6 bd 91 32 4a bd c1 65 cc 3d
       0.037038524 -0.11243134 -0.04936463 0.099803455
0001b0 69 6f 8d bd c8 d1 b0 bd 86 c6 fd 3c 7f 6f e0 3d
       -0.069060154 -0.086337626 0.030978452 0.10958766
0001c0 75 a6 85 bd d8 c0 b0 bd 6a af f5 bd e1 d0 19 bd
       -0.0652589 -0.08630532 -0.11996348 -0.037552718
0001d0 4a ca b0 bd 79 7f 86 bd 48 41 4b 3d 97 70 82 bd
       -0.086323336 -0.06567282 0.049622804 -0.06369131
0001e0 95 f4 83 bd 1c 52 18 bd 0b 75 c7 bd 8b a9 bb bc
       -0.06443135 -0.03718768 -0.09739121 -0.022907993
0001f0 93 6a ef bd ac f1 3a bd 9e 73 ed 3d 6c c7 c0 bd
       -0.11690249 -0.045640633 0.11594318 -0.09413037

net.4.weight f4 [256, 128]
000000 bc d8 a7 3d 65 af a6 3d d2 40 a0 3d 8b e5 b2 bc
       0.08195636 0.081389226 0.078248635 -0.02183797
000010 97 4b e2 bb d2 0d cf 3d d6 14 27 3e f3 b5 fd 3d
       -0.0069059837 0.10110058 0.16316542 0.1238822
000020 4c 84 5b 3d 79 e0 39 bd f3 a2 53 3e 63 3e 48 3c
       0.053592965 -0.04538009 0.20667629 0.012221905
000030 6d a3 df 3d b4 42 3c bd cc 3a 69 bd 0a 8a 49 bd
       0.10919843 -0.04596205 -0.05694084 -0.04920391
000040 5a e2 93 bd 8a 80 05 bd 0f ab c9 3d 24 1b 8f bb
       -0.072209075 -0.032593288 0.0984708 -0.004367249
000050 6b da 09 bd 44 4a 14 3c 83 86 53 bd 38 a3 11 3e
       -0.033655565 0.009050909 -0.051641952 0.1422242
000060 60 76 14 bd e1 f7 88 bd f8 38 6e 3c 09 94 d9 3b
       -0.036245704 -0.06687904 0.01453995 0.0066399616
000070 27 40 06 3e 3c cd 18 3c a1 36 d3 bd 7a c9 16 3e
       0.1311041 0.009326275 -0.10313154 0.14725295
000080 3c 74 58 3d 90 2d 94 bd 6a f8 98 bc 32 70 52 bd
       0.052845225 -0.07235253 -0.01867314 -0.05137653
000090 c5 94 08 be f2 10 53 3d d2 d8 4e 3d 87 dd fa 3d
       -0.13338001 0.051529832 0.050499745 0.12249284
0000a0 e1 5d c6 bd 8b 83 0b 3d 36 2a 8b 3d fd 88 c1 3d
       -0.09685875 0.034060996 0.067951605 0.094499566
0000b0 d9 2d cd bc b4 15 fa 3d 16 51 c3 3d bf c8 a4 3c
       -0.025046276 0.12211171 0.0953695 0.020115254
0000c0 d1 c6 9a 3d 33 fb ed bc 48 df 04 bc a1 4d 2d 3e
       0.075574525 -0.029050445 -0.008109875 0.16924144
0000d0 88 48 4a 3d bd b2 38 3d 34 06 0a 3e 32 9a 70 3d
       0.049385577 0.045092333 0.13478929 0.058740802
0000e0 35 11 1e bd 77 fc c2 3c 1e cb 39 bd a0 ff 26 3e
       -0.03859063 0.023802025 -0.045359723 0.1630845
0000f0 25 61 ff 3d 3d f8 17 3c 13 97 1e bc 3f eb 80 3d
       0.12469701 0.009275493 -0.009679574 0.0629487
000100 82 28 9d 3d 97 ed 2f 3e 07 fb cf 3d 4a ee f2 3d
       0.07673742 0.17180477 0.101553015 0.11861856
000110 b8 5f 45 3e 51 1f 35 3d 45 ae b3 3b 87 be 02 3e
       0.19274795 0.04421932 0.005483421 0.12767993
000120 dd 4b 38 3e 22 35 01 3e 46 b9 4a 3e 7c 6c fc 3c
       0.1799769 0.12617925 0.19797239 0.030813448
000130 15 0b be 3d 87 5e 27 3e 74 db 2c 3e bb 43 19 3e
       0.092794575 0.16344653 0.1688059 0.14967243
000140 29 8c ae 3c 10 94 04 3d d5 34 df bc 94 c1 77 bd
       0.021307068 0.032367766 -0.027246872 -0.060487345
000150 a8 43 c7 bd 60 d7 37 3c fa 1a f4 3c f7 27 05 3e
       -0.09729701 0.011220783 0.02979802 0.13003527
000160 3b ac 92 3d 40 d3 08 3d 58 fa 1a 3e 00 2f 9c 3b
       0.071617566 0.03340459 0.15134561 0.004766345
000170 f7 68 11 be 16 9c 88 b9 bb 64 4d bc ee 03 62 3c
       -0.14200197 -0.00026056234 -0.012536223 0.013794882
000180 b6 2f 6f bd ef ec 11 3d 7e 29 c3 3d aa 76 05 3d
       -0.05839511 0.035626348 0.095293984 0.03258387
000190 e0 49 ef 3c c6 c5 a0 3d d8 d1 55 bd 72 e9 18 bb
       0.029210031 0.07850222 -0.052202076 -0.0023332504
0001a0 5b 02 9e 3d c5 26 9c ba e9 4c a3 3c ab 50 0f bd
       0.07715293 -0.001191341 0.019934135 -0.03498904
0001b0 2e 7a f4 3c 02 c2 49 3d fa d9 53 3d f2 79 8a bc
       0.029843416 0.049257286 0.05172155 -0.016903851
0001c0 9e 07 7b 3d 44 6e 14 bd b6 dd 81 3d 0a b8 15 3e
       0.06128656 -0.03623797 0.06341116 0.14620987
0001d0 81 40 0a bd 1a 46 9e 3d 6a a8 8d 3c c3 61 16 3e
       -0.033752922 0.077282146 0.01729222 0.1468573
0001e0 d9 a1 c0 3d bd 53 0b 3e 6f 22 eb bd 60 f3 84 3c
       0.0940587 0.13606162 -0.11481177 0.016229331
0001f0 4b 31 f8 3d 80 84 d1 3c 8a 33 08 3e ee bd 4d 3d
       0.12118777 0.025575876 0.1330091 0.05022996
000200 3a 18 c1 3d 7a df c7 bc eb 08 54 3a dd 4d 85 3c
       0.09428449 -0.024398554 0.0008088487 0.01627248
000210 f3 b9 0d 3e 4c 07 e9 3d 70 1f 46 3d 7a 42 c0 3d
       0.13840465 0.11378345 0.048369825 0.093876794
000220 49 10 39 3d 89 32 15 3c e2 bb 57 3e b5 d7 0e 3e
       0.045181546 0.009106287 0.21067765 0.13949473
000230 12 7d 0a 3e 1f 4e 38 3d ba cf 7d bd 1e 96 82 3d
       0.13524273 0.044996377 -0.06196568 0.06376289
000240 d8 ea b3 3c 2b 1c 86 bd 29 bb 64 3d fd 43 77 bc
       0.021962568 -0.06548341 0.055842552 -0.015091893
000250 80 e7 7a 3c df 7d c0 bd 78 4d 86 bd 22 a2 6e 3d
       0.015313983 -0.09399008 -0.06557745 0.05826009
000260 e3 68 ab bd 20 14 59 bd 4d d4 f5 3d b6 40 b4 3d
       -0.08369615 -0.05299771 0.12003384 0.08801405
000270 4a 5e f3 3d 6a 8b 12 3c c7 c2 a8 bc 6c 91 bf 3c
       0.118832186 0.008944372 -0.02060069 0.023384772
000280 7a 67 ed bd 7b 4f c8 bd 7c 89 18 bc ce 2c 03 be
       -0.11592002 -0.09780785 -0.009310123 -0.1281006
000290 9d 1e 13 bd c7 d7 5b 3c 80 62 22 3e 3f d0 ba 3d
       -0.035917867 0.013418145 0.15857887 0.09121751
0002a0 46 dc 1b bb f3 0a 04 3e c1 f1 95 3d 47 5b 00 3e
       -0.0023782416 0.12894802 0.073215015 0.1253482
0002b0 db ec 07 3e c9 ee 96 3d a7 6d 1d 3e a0 f4 ad bd
       0.13273947 0.073697634 0.1537386 -0.08493924
0002c0 17 56 a5 3d 61 7e c5 bd 0f 11 74 bc e5 a0 98 3d
       0.08073061 -0.096432455 -0.014896645 0.07452563
0002d0 1e 58 37 3d c9 62 a8 3d b6 c9 1d 3e 43 2b f7 3d
       0.04476177 0.08221967 0.15408978 0.120687984
0002e0 77 a1 92 bc 38 73 3f 3d f2 96 a2 bd 4e 87 02 3d
       -0.017899258 0.04674074 -0.07938947 0.031867318
0002f0 8c d7 12 3d 0a 96 da 3d b2 81 bd bd 8a 90 b6 3d
       0.035850093 0.10673149 -0.09253253 0.089142874
000300 7f 09 bd 3c a5 5d ff 3d 42 ad 15 3e 17 29 5e 3a
       0.023075817 0.12469033 0.14616874 0.0008474751
000310 de 0f 13 3e fb 4b 64 3d 21 cd 48 3d f3 51 ae 3d
       0.14361522 0.055736523 0.04902375 0.08511724
000320 8f 04 b9 3d 85 08 10 3e 95 70 a2 3d 65 88 0a 3e
       0.090340726 0.1406575 0.079316296 0.13528593
000330 42 13 7d 3d 45 25 5a 3e 6e ca 12 3e 32 a9 a0 3d
       0.061785944 0.2130328 0.14335033 0.078447714
000340 78 45 5c 3d 7b 2c 27 3e 0b ac 77 3d bf d5 41 3d
       0.053777188 0.16325562 0.060466807 0.047322985
000350 37 b3 d9 3c 43 6a a0 3c b8 95 b0 bd b6 e2 11 3d
       0.026574714 0.01958192 -0.086223066 0.0356166
000360 f4 0f 41 3c f7 fe 2e 3c ed be 4a 3d 69 1f 5d bd
       0.011783589 0.010680906 0.049498487 -0.053985033
000370 da 32 f2 bc 13 54 49 3d 74 91 3a bb 0f 73 19 3e
       -0.029565264 0.049152445 -0.0028468044 0.14985298
000380 60 2b 0c bd 88 94 04 3c a4 80 b7 3d ec 67 98 3b
       -0.034221053 0.008092053 0.08960083 0.0046510603
000390 f8 01 a9 bd d7 a5 83 bd 97 db 91 bd 28 b6 13 3b
       -0.08252329 -0.06428116 -0.071219616 0.0022538994
0003a0 c1 fe a9 3d 00 43 ab bd 92 e6 fe 3d 6c 16 99 bd
       0.083005436 -0.083623886 0.124463215 -0.0747498
0003b0 da bc c2 3d 18 1b 6b 3d 68 ae d5 3d 2b 25 76 3b
       0.09508677 0.057398885 0.10433656 0.0037558775
0003c0 fa 80 e9 3d 80 43 1e be dd 8f 03 3e 59 cb 26 3e
       0.114015535 -0.15455437 0.12847848 0.16288508
0003d0 f4 48 af 3d 06 7c b4 3d 76 84 f6 bc e6 0f c8 3c
       0.085588366 0.08812718 -0.03009246 0.024421643
0003e0 c6 bb 88 bb 77 70 a1 39 86 20 c7 bd 94 cf f1 3d
       -0.004172775 0.00030792106 -0.09723 0.118071705
0003f0 7b da 6a 3d 12 ac 8d 3d 06 c3 1a 3c d4 8e 7c 3d
       0.057337265 0.069175854 0.009445911 0.06165965

net.4.bias f4 [256]
000000 61 44 e8 3c da 1c da bd 44 02 60 bd ea 07 b9 bd
       0.028352918 -0.10650034 -0.05468966 -0.090347126
000010 46 09 b2 bc 6c 92 77 bd 58 f4 7f bd 39 39 92 bc
       -0.021732938 -0.060442373 -0.062488884 -0.017849552
000020 88 13 81 3d c9 39 04 bd bd 0f e1 3d 71 50 81 bb
       0.063025534 -0.03228167 0.1098933 -0.003946357
000030 df 58 37 bd 33 9a fa bd 5e 5e 89 bd 46 ec 79 3c
       -0.04476249 -0.122364424 -0.06707452 0.015254086
000040 5c 10 aa bd 5d 12 86 3d aa 24 b9 bd 9b d8 c9 3c
       -0.083039016 0.06546471 -0.09040196 0.024639418
000050 a2 ab 7a bd c4 e0 a1 bc 6a 9c ee bc b0 14 f0 bd
       -0.061198838 -0.019760497 -0.029127318 -0.11722696
000060 c9 c7 ac bd d4 5f dc bc fd 24 1d bd 17 1b 90 bc
       -0.084365435 -0.026901163 -0.038365353 -0.017591042
000070 c8 aa 93 bc e7 cf 17 3d 64 78 cf bc 64 22 99 bd
       -0.01802577 0.037063506 -0.025325961 -0.074772626
000080 d9 bc 85 bd f6 2e 04 bd e6 2d 6a bc e3 16 0f bd
       -0.065301605 -0.032271348 -0.01429317 -0.034933936
000090 1d dd 06 bc e7 85 c8 3c 66 d7 bf bc f8 da 99 3d
       -0.008231428 0.024477912 -0.02341814 0.07512468
0000a0 b9 ff a3 3d 21 bf 65 3d de 24 b4 bd bf d3 59 3d
       0.080077596 0.056090478 -0.08796094 0.053180452
0000b0 e6 85 ad bd 1a 18 3a 3c 7d a0 ef bd b7 f2 10 3d
       -0.08472805 0.011358285 -0.117005326 0.03538772
0000c0 cd d3 59 bd 2d 34 d7 bd 4a 84 39 bc ac 8b 8e 3c
       -0.053180505 -0.105079986 -0.011323044 0.017400585
0000d0 f9 dd 86 bd 22 03 a0 bd 1f 0c 4a bc 2c 84 ae 3c
       -0.06585307 -0.078130975 -0.012331991 0.021303259
0000e0 7a c8 9e 3d 47 cd b5 bd fa c2 ec bd 8b 3c 88 bd
       0.077530816 -0.08877044 -0.11560626 -0.06652173
0000f0 85 f5 93 bc 3a 3b 9d bb 90 6b 87 bd b4 c4 08 bd
       -0.018061409 -0.00479832 -0.06612313 -0.033390716
000100 64 e5 09 3d c3 1a 93 bd d6 a7 38 bb f0 c6 fe bb
       0.03366603 -0.07182839 -0.002817621 -0.00777518
000110 95 8d 90 bd 17 c9 db 3c 15 10 6e bb 05 a8 6b 3d
       -0.07058255 0.026829286 -0.0036325504 0.057533283
000120 79 39 82 bd e4 95 a9 bb 98 4d 92 3d 0b 25 05 bd
       -0.06358618 -0.005175339 0.07143706 -0.03250603
000130 06 c1 a6 bd 38 ee 90 3d dc 20 12 3d 7f 7c 51 bd
       -0.08142285 0.070766866 0.03567587 -0.05114412
000140 fc 8c 72 bd 34 7a 68 bd a6 3c 41 3d 35 2d b8 bd
       -0.059216484 -0.056757167 0.04717698 -0.089929976
000150 50 d3 d2 3b 62 9b bf bb 60 c2 12 bd 6c b9 ce bc
       0.006433882 -0.0058473805 -0.0358299 -0.0252349
000160 0c 48 5c bc 23 e9 aa bd 3c d3 b6 bb c7 20 96 bd
       -0.013444912 -0.083452486 -0.0055793803 -0.073304705
000170 eb 81 38 bd 44 6f 1f 3d 46 32 c6 bc d5 a9 43 3c
       -0.045045774 0.03892447 -0.024193894 0.011942347
000180 ed e4 97 bd cd ca 89 bc 51 51 61 bd 69 a4 66 3c
       -0.07416711 -0.016820336 -0.05500919 0.014077284
000190 07 92 2c 3d eb 87 64 3c 31 91 db bd 72 91 d5 bd
       0.04213145 0.013948421 -0.107210524 -0.10428132
0001a0 62 5e 8e 3d 62 b7 b3 3d 01 eb 66 3d fe bf 96 3d
       0.06951596 0.08775212 0.05637646 0.07360838
0001b0 45 98 4c 3c 54 bc 63 bc 88 38 5a bd ce 01 e9 bd
       0.012487476 -0.013899881 -0.05327657 -0.11377297
0001c0 46 b6 e6 3b 6c 01 a8 bd 02 7f cc bc 58 60 d8 3d
       0.0070407717 -0.08203396 -0.024962906 0.10565251
0001d0 4b fb 1c bd 02 4d 6f bd c6 6a 00 bd 19 40 35 bd
       -0.03832559 -0.05842305 -0.031351827 -0.04425058
0001e0 35 cd 1d bd fd bb c1 bb 08 a1 34 3d d6 7f 0a bb
       -0.03852578 -0.0059123025 0.044098884 -0.0021133325
0001f0 22 f2 9b bd 5c 1d 9b bc 73 34 ce bc d2 95 49 bc
       -0.076145425 -0.018934898 -0.025171494 -0.012303786
000200 b3 a3 38 bc 6f f9 93 bc b6 b2 9f bd 99 76 3b bd
       -0.011269498 -0.018063275 -0.07797758 -0.0457674
000210 13 a7 7d bc ec 6c 8a bc 54 4b a0 bc 90 ec b4 bc
       -0.015481728 -0.016897641 -0.01956717 -0.022085458
000220 ec bd 85 bd 07 16 97 bd 32 cf e1 bc 93 e5 a3 bd
       -0.06530365 -0.07377248 -0.027564619 -0.08002772
000230 b6 8f 1b bd 15 6a 2b bd 40 d1 4c bd 77 9e 57 bd
       -0.03797885 -0.041849215 -0.050004244 -0.05264136
000240 15 44 59 3d d3 dd 53 bd eb 5f 8c 3d 29 6f 3b bd
       0.053043444 -0.05172522 0.068542324 -0.045760307
000250 7b 9d d6 bd 88 fa 4a 3d 42 97 e8 3c 67 b6 88 3c
       -0.10479256 0.04955533 0.028392438 0.016688539
000260 b3 ae f4 3c 5d d1 85 bd 52 0f c9 3c fc 7e f0 3b
       0.02986846 -0.065340735 0.024543438 0.0073393565
000270 ee e6 c7 bc 7b 05 38 bb 52 57 d4 bd fe b1 a7 3d
       -0.024402108 -0.0028079438 -0.103682175 0.08188246
000280 82 9d 42 3d cb e2 df 3d d0 1c 65 bb 66 93 04 bd
       0.047513492 0.10931929 -0.00349598 -0.032367133
000290 07 3a 4b bd 88 fb f1 3d db 28 8c bd 91 fa 87 bc
       -0.049615886 0.11815554 -0.0684373 -0.016598972
0002a0 50 f2 12 be b9 c0 d3 bc ee db 3b bd 4d 78 94 bd
       -0.14350247 -0.025848733 -0.04586404 -0.07249508
0002b0 18 ca 0b 3d 3a 47 ef 3c 2b bd a6 bd 22 39 a0 3c
       0.03412828 0.029208768 -0.0814155 0.019558493
0002c0 5b 85 47 bb 4f a8 02 bd 15 b3 ab 3d 95 1e da 3c
       -0.0030444476 -0.031898793 0.083837666 0.02662591
0002d0 6a 2c e0 3d f2 1b 14 bd cf b7 05 be a0 6a 88 bd
       0.10945971 -0.036159463 -0.13058399 -0.06660962
0002e0 15 f4 89 bc 46 26 8f 3c 50 ff 4e 3c 5f df 62 3d
       -0.01684002 0.017474305 0.012634113 0.055388805
0002f0 07 2e 04 bd 34 63 44 bd 49 c3 00 bc 24 22 21 3d
       -0.032270458 -0.04794617 -0.00785906 0.0393392
000300 29 8c 38 3d 34 8a 30 bd 08 10 eb 3d 45 a0 bf bc
       0.045055542 -0.04310055 0.11477667 -0.023391852
000310 ef 1f 13 be ef 13 0a 3d 9d 9e de bc ca e2 2a bc
       -0.1436765 0.033710416 -0.027175242 -0.010430047
000320 74 f4 9d bc e5 4e 09 3c 18 5e 1e 3d 2a 5f 8f bc
       -0.019281603 0.008380626 0.038663954 -0.017501432
000330 d0 21 ba bd e5 f0 5c 3c f6 3e 96 bd 65 92 b1 3d
       -0.090884805 0.013485168 -0.073362276 0.08670501
000340 fc 71 aa bc 2c 00 9a 3d cb 56 82 bc 1e fd 85 bc
       -0.020806305 0.07519564 -0.015910527 -0.016356047
000350 42 59 93 bb bb 02 25 3d 5b 06 83 bd 5e 1d b6 bd
       -0.0044967243 0.040285807 -0.063976966 -0.0889232
000360 ea 7f 9d bd 13 86 44 3c e9 9b 31 bd cc 89 e6 3c
       -0.07690413 0.011994856 -0.043361578 0.028141879
000370 00 7b 45 3b bb 25 fa 3b 36 c6 1e bd 84 11 c5 bc
       0.0030133128 0.0076338924 -0.038763247 -0.024056204
000380 d1 f7 aa 3d 76 d7 ba bc ba 42 98 bd a6 6c db 3c
       0.083480485 -0.022807818 -0.07434602 0.026785206
000390 c9 96 95 3c 42 71 1e bd 04 8b 98 3d b6 72 50 3d
       0.018260377 -0.03868223 0.0744839 0.050890647
0003a0 65 70 cd bc 96 85 dc 3c a7 50 34 3d b2 f7 c4 3c
       -0.025078008 0.026919167 0.04402223 0.024043892
0003b0 8e 0e 0b bd c1 81 8d 3d c6 bf e9 bc e8 ba a2 3c
       -0.033949427 0.06909514 -0.028533828 0.019864514
0003c0 98 45 4c 3c 8c 84 6e 3d a3 fb f9 3b de 8d 24 3c
       0.012467764 0.058231875 0.0076288744 0.010043589
0003d0 48 57 90 bc e5 b5 bb bd 25 74 6b bd ec f2 bc bc
       -0.017619744 -0.09165553 -0.05748381 -0.023065053
0003e0 f5 9b bd 3d 33 47 65 bb 55 b1 ce 3b a2 29 6b bd
       0.09258262 -0.0034985065 0.0063077607 -0.05741275
0003f0 f0 9f 7f 3d e3 f7 c7 bd b9 5c dc 3c 67 19 b6 bd
       0.062408388 -0.097640775 0.026899682 -0.08891564

net.6.weight f4 [2, 256]
000000 d4 2f 13 3e 13 50 41 3e f3 ba 35 3e f7 bb 4f 3e
       0.14373714 0.18878202 0.17747097 0.20286547
000010 b3 b0 02 bc 30 8d 36 bc 65 5a 0d 3e 3a 87 49 3e
       -0.007976699 -0.01114206 0.13804014 0.19680491
000020 61 fa 22 bd 9d 1e f3 bd 89 c5 38 bd e2 65 06 bd
       -0.03978956 -0.118710734 -0.04511026 -0.032812007
000030 84 2b 37 3e e4 96 38 3e d2 72 4c 3e 71 a8 f4 3d
       0.17887694 0.1802631 0.19965675 0.1194619
000040 16 23 2a 3e 4e 8b be bc 79 c0 07 3e 54 fb 36 3e
       0.16614947 -0.023259785 0.13257016 0.17869312
000050 ef 24 35 be d7 4c 04 3e 6a 20 27 3d 0f a9 31 3e
       -0.1768987 0.12919937 0.040802397 0.17349647
000060 ae cc db bd d8 57 df bd 35 82 18 3e 8c 15 a9 3d
       -0.10732399 -0.10905427 0.1489342 0.08256063
000070 c5 4c 59 3e 5e 9b 32 3d d9 25 ae 3d 2c c4 2b 3e
       0.21220692 0.0436052 0.085033126 0.16774052
000080 ee 42 1a 3e b0 6e 40 3e ec a8 67 3e 83 75 1f 3e
       0.15064594 0.18792224 0.22623032 0.15572171
000090 03 4d c8 3d db 7c 53 bd 1e bc 39 bd 5b dc ac 3d
       0.09780314 -0.051632743 -0.04534542 0.08440467
0000a0 29 65 05 be 2a 42 77 3d 43 f0 d3 3c 6a fb 2d 3d
       -0.13026871 0.060365833 0.025871402 0.042476095
0000b0 64 d4 4f 3e ea 82 49 3e 1c 9a e5 3d 5e d5 07 3e
       0.20295864 0.19678846 0.11211035 0.13264987
0000c0 9c 75 3e 3d 77 14 0f 3e b1 00 a8 3d ef 4b 75 bd
       0.04649888 0.1397265 0.08203257 -0.05988687
0000d0 5c 27 a0 bc 63 17 ee 3d 0c 84 ac 3d e5 aa 59 bd
       -0.019550018 0.116255544 0.084236234 -0.053141493
0000e0 fc 4a ca bd 13 1b fe 3d 12 a9 ae 3d 02 67 2d be
       -0.098775834 0.12407508 0.08528341 -0.16933826
0000f0 27 51 75 3d 40 ee 00 3e 52 9f b6 bc 84 f9 f8 3d
       0.059891846 0.12590885 -0.022292767 0.12156966
000100 1c 2c 5c bd a1 fa 31 3e a2 9d 0d be 1d 85 3b 3e
       -0.053753003 0.17380764 -0.13829663 0.18312497
000110 e0 0c 55 bc 3f 85 5f 3e 97 33 fa 3c 40 1f 23 be
       -0.013003558 0.21828173 0.030542178 -0.1592989
000120 0a 13 05 3e d2 9b 37 3e 30 15 7f bc ae 04 1d be
       0.12995544 0.17930534 -0.015569016 -0.15333816
000130 5c a2 0f 3e b2 ea 47 be 2d d1 83 bc bb 28 51 3e
       0.14026779 -0.19523123 -0.016090954 0.20425694
000140 69 c1 b1 3d 74 83 7d bd 05 fa 7b 3d 0b c8 20 3e
       0.08679468 -0.06189294 0.061517734 0.1570131
000150 81 44 13 be 4f 41 de bc 5f 6e 46 3e 42 e2 50 bd
       -0.14381601 -0.027130751 0.1937804 -0.050997026
000160 b0 2e a8 3d bf 75 be 3c 3f aa d6 3d f2 8a 4b 3d
       0.0821203 0.023249505 0.104816906 0.049693055
000170 10 c6 28 3e 78 97 e9 3d 9c 05 bb 3c 82 f8 50 3e
       0.16481805 0.114058435 0.022829823 0.20407298
000180 04 5b ec 3d 51 4f 12 3e 8b 2f 56 be 2a 8d 37 3e
       0.11540797 0.1428807 -0.20916574 0.17924944
000190 35 cf f3 3d 80 e8 ad 3b a9 e0 b3 3d 53 0e 54 3e
       0.11904756 0.005307257 0.08783085 0.2070859
0001a0 c9 99 a3 ba 8e 2c 08 be db 93 2d bd c1 9b 0d 3e
       -0.0012481745 -0.13298246 -0.042377334 0.13828947
0001b0 8e 92 dd bd ee ca 55 3e af ff 2b 3e 49 1e f8 3d
       -0.10818969 0.20878193 0.16796754 0.121151514
0001c0 c6 72 05 3e 41 74 2e 3e d1 05 d8 3d 2c 14 1e be
       0.13032064 0.17036535 0.105479844 -0.15437382
0001d0 57 de 17 3e 51 57 46 3e b8 ab e2 bc 74 fa 1e bd
       0.1483091 0.19369246 -0.027669773 -0.03881307
0001e0 07 d9 5d 3e f0 8a af 3d 45 c8 3f 3e 83 7c 49 3e
       0.2166482 0.08571422 0.1872874 0.19676404
0001f0 94 36 f9 bd b8 d8 ae 3d e7 05 7b bb 8a 92 40 3e
       -0.12168613 0.085374296 -0.0038303079 0.188059
000200 82 14 1d 3e 98 3d 0f 3e 98 3d 72 3c 70 04 be bb
       0.15339854 0.1398834 0.014785193 -0.005798869
000210 78 67 d6 3c 30 ec 53 3d 6b 3b 7e bd f6 20 09 3e
       0.026172385 0.051738918 -0.062068384 0.1339148
000220 d6 f5 41 3e f6 60 e7 3d 5c 7a 0a 3d 0c 64 2f be
       0.18941435 0.11297791 0.033808097 -0.17128009
000230 78 6e 8d 3c 43 d9 d2 3d fa 8f 22 3e 16 21 17 3e
       0.01726459 0.10295346 0.15875235 0.14758715
000240 de a0 4e bd bf 7a ea bd df 84 c4 bd dd 1b 1e 3e
       -0.050446384 -0.11449193 -0.09595656 0.15440316
000250 7a d9 00 3e 67 c3 06 3e 25 cb 37 3e 80 d7 a8 3a
       0.1258296 0.13160478 0.17948587 0.0012881607
000260 be 88 61 3d ce f5 1a bd 04 7a 28 3e 24 ca 29 3e
       0.055062048 -0.037832074 0.16452795 0.16581017
000270 fc ac cc bd 6c 6c 31 3e 8e 2d e0 3d e3 40 57 bb
       -0.09993932 0.17326516 0.10946189 -0.0032845072
000280 33 a6 0d be 54 36 27 be 92 0f 40 3e 50 a2 fc 3d
       -0.13832931 -0.16329318 0.1875594 0.12335646
000290 c5 9c 32 3e 1a 51 71 bd 0f 73 f3 3d f6 a3 4b 3e
       0.17442615 -0.058915235 0.1188718 0.19886765
0002a0 c4 4b 3a 3e 11 ca 14 3e 2e 83 fc 3d 13 da cd 3c
       0.18192965 0.14530207 0.12329708 0.0251284
0002b0 75 e6 26 bd 60 19 45 3e 0c b8 ff bc 2e d7 f1 bc
       -0.040747125 0.19247961 -0.03121569 -0.029521551
0002c0 11 46 23 3e e3 7a c1 bd 11 c9 85 bd 26 8c aa 3b
       0.15944697 -0.09447267 -0.06532491 0.0052046953
0002d0 94 fc 29 be af 1e 25 3e 7c fd 11 3e 81 0f f7 bb
       -0.16600257 0.16124986 0.14256853 -0.00753969
0002e0 86 5f ad bd df 06 07 3e 60 1f 21 be 55 1f d2 3d
       -0.08465485 0.13186215 -0.15734625 0.10259882
0002f0 ba c3 08 3e 5e 56 21 be 98 3c f3 3c 5e 40 0f be
       0.13355914 -0.15755603 0.02969198 -0.13989398
000300 38 1d 3c bd 57 bf 39 3e e5 fe 3a bd 60 90 34 be
       -0.045926303 0.18139397 -0.045653243 -0.176332
000310 ab dc 56 3e 95 f9 17 bd ce ee 39 3e bf c1 42 3e
       0.20982616 -0.037103254 0.18157503 0.19019221
000320 2e 16 64 3d f0 ec c1 3c 93 e4 18 3e 68 c5 da 3d
       0.055685215 0.02367255 0.14930944 0.106821835
000330 8e 96 5b bd b1 06 5b 3e 92 f7 5c 3e bc 9d 46 3d
       -0.053610377 0.21389271 0.21578816 0.04849027
000340 f2 4b 32 3e 0c b9 23 be 9a 94 ec 3d 02 d3 e3 3d
       0.17411783 -0.15988559 0.11551781 0.11124231
000350 43 c2 c9 3d d9 92 41 3c 7d 07 40 3e 25 dd bf 3d
       0.098515056 0.011814796 0.18752857 0.09368352
000360 38 74 3e 3e b2 79 d4 3d df 56 47 bd fd 39 18 3e
       0.18599021 0.10374774 -0.04866683 0.14865871
000370 97 9f a3 3d ca 1f 46 3e de 28 36 3e 1e 0a 07 bd
       0.07989424 0.19348064 0.17789027 -0.032968633
000380 5d fe 28 be fd 28 50 be 2f 0f a6 bb a0 29 03 3e
       -0.16503282 -0.20328136 -0.005067728 0.12808847
000390 71 80 44 3e bb 36 1e bd 26 ce 13 3e 63 74 0c be
       0.19189622 -0.038626414 0.14434108 -0.13716273
0003a0 8d ee 02 be a4 8c c8 bd 83 c6 4a 3e 29 01 90 bd
       -0.12786312 -0.0979245 0.19802289 -0.07031471
0003b0 0d 4a 3d 3e 6a dd 1c bd 68 ef 25 bc 5e 17 e5 3d
       0.1848528 -0.038297094 -0.01012788 0.111860976
0003c0 af cf 36 3e f1 ce 23 be 84 21 32 bd a3 19 2a 3e
       0.17852663 -0.1599691 -0.043488994 0.16611342
0003d0 a8 3c 17 3e c4 33 13 3e 55 46 ff bd 4a 38 47 bd
       0.14769232 0.14375216 -0.12464587 -0.048637666
0003e0 4e 10 03 be da e0 34 3e de 38 1a bb 0c f9 20 3d
       -0.12799188 0.17663899 -0.002353243 0.03930001
0003f0 78 5a 24 3c e0 b3 0f 3e 25 00 47 bd 10 a1 be 3d
       0.010031335 0.1403346 -0.048584122 0.09308064

net.6.bias f4 [2]
000000 53 e2 ee bd 62 bc 36 bc
       -0.11664262 -0.011153312

exp_avg f4 [64, 2]
000000 c3 d4 c0 36 b4 26 d7 b5 55 84 8d b2 72 6b 80 b2
       5.7468146e-06 -1.6030012e-06 -1.6474738e-08 -1.4950022e-08
000010 81 57 a6 b6 75 37 f5 36 b4 b4 66 b6 48 de c7 35
       -4.9573723e-06 7.308025e-06 -3.4377854e-06 1.4891348e-06
000020 7f e7 45 36 87 70 9e b7 52 1f 90 b6 18 ee ea 36
       2.9490036e-06 -1.8887467e-05 -4.2951806e-06 7.001461e-06
000030 08 62 71 37 76 47 e3 36 b6 df 45 36 aa 20 78 36
       1.4387544e-05 6.7734463e-06 2.9485504e-06 3.6973893e-06
000040 4c 92 64 b3 2c 70 46 33 e7 bf 5c 37 df 42 c3 35
       -5.3218443e-08 4.6202487e-08 1.3157703e-05 1.4548094e-06
000050 7d 2a 1c 34 28 78 21 37 44 d9 16 b7 39 6b 85 b6
       1.454409e-07 9.624324e-06 -8.991283e-06 -3.9761912e-06
000060 94 bf a4 35 01 f5 01 b8 60 ba 71 36 26 54 1d 36
       1.2274709e-06 -3.0984174e-05 3.6020283e-06 2.3443804e-06
000070 48 77 56 35 ad e9 90 b7 dc 92 b1 32 83 8b 66 33
       7.989479e-07 -1.7274951e-05 2.0672296e-08 5.3677933e-08
000080 47 f6 0b b6 9d cb 07 b7 f7 50 dc b7 d0 2b 38 38
       -2.0855966e-06 -8.0940345e-06 -2.6263746e-05 4.3909822e-05
000090 50 cd a2 33 1a bd a0 32 a4 0c 00 b6 24 83 09 b6
       7.581059e-08 1.8712445e-08 -1.9080844e-06 -2.0490925e-06
0000a0 15 87 3b 33 89 fe 3d b3 78 1a a5 37 6b 76 42 37
       4.3662187e-08 -4.423649e-08 1.9681858e-05 1.1590872e-05
0000b0 73 e8 ce b5 1f ef b6 36 d4 6b 10 34 dd a0 f8 36
       -1.5415848e-06 5.45186e-06 1.3450273e-07 7.409703e-06
0000c0 d5 7c ae 35 96 3c 09 b6 60 b5 d3 32 f2 de 99 33
       1.3000341e-06 -2.0449856e-06 2.4646113e-08 7.165171e-08
0000d0 0c c7 e5 b7 9c 57 80 b8 1c d4 f4 b6 67 b4 a9 37
       -2.7391616e-05 -6.119834e-05 -7.2964594e-06 2.0230376e-05
0000e0 44 5c ab b4 5e 4a 44 b5 95 95 0e 37 b3 33 cd 37
       -3.1918364e-07 -7.312391e-07 8.498687e-06 2.4461979e-05
0000f0 07 ad 25 2f 82 cc 4f 32 53 c2 b6 b4 a3 6b 9f b5
       1.5068134e-10 1.20954855e-08 -3.404153e-07 -1.187775e-06
000100 07 96 69 33 44 dc 7c 35 2d fe 36 b5 98 3b 0e 36
       5.438599e-08 9.4197844e-07 -6.817016e-07 2.1194337e-06
000110 51 04 dd b5 aa f6 23 b7 d9 58 25 b6 4f ae e9 35
       -1.6467039e-06 -9.772988e-06 -2.4638632e-06 1.7410583e-06
000120 f6 e4 26 37 a8 c7 38 b6 a8 37 7d b3 8c 6e b1 36
       9.94768e-06 -2.7534352e-06 -5.8956772e-08 5.2878804e-06
000130 87 53 ad b0 d0 fa 56 b3 a0 44 25 36 4f d3 58 37
       -1.2611147e-09 -5.005387e-08 2.462686e-06 1.2923802e-05
000140 1e ce 7c b6 d0 8a 4b 37 31 40 22 36 14 a0 61 b6
       -3.7670902e-06 1.2132063e-05 2.4177245e-06 -3.362079e-06
000150 fa 3d 7c b7 c7 d9 4d 37 22 82 10 33 f3 82 9e b2
       -1.50348005e-05 1.2269657e-05 3.3645968e-08 -1.845317e-08
000160 61 3a 48 34 4b 57 1c b7 d4 97 45 35 12 4a 24 b7
       1.864769e-07 -9.318649e-06 7.360916e-07 -9.792408e-06
000170 a4 7d 08 37 fb 86 58 36 b5 59 84 36 62 c1 d6 b8
       8.135485e-06 3.2265077e-06 3.94435e-06 -0.000102403355
000180 7e 18 4e b5 6b 2d df b5 73 89 29 33 b7 ad 28 33
       -7.677662e-07 -1.6628013e-06 3.9473388e-08 3.927354e-08
000190 56 9f 82 35 7f cb e3 35 56 f6 66 36 f8 48 34 37
       9.732128e-07 1.6972043e-06 3.4416057e-06 1.0745825e-05
0001a0 15 ce ef 36 89 ac 1f 37 17 99 2a b3 ba 51 6e 33
       7.146746e-06 9.51731e-06 -3.9720444e-08 5.5488023e-08
0001b0 73 cd 33 37 9f c1 b7 b4 50 d3 b7 34 d4 06 a2 36
       1.0717066e-05 -3.4227284e-07 3.4240156e-07 4.828771e-06
0001c0 00 8f 08 33 c6 46 56 33 02 5d ac 33 79 a0 33 b3
       3.1795025e-08 4.9890126e-08 8.026292e-08 -4.1822634e-08
0001d0 bd c9 2c 37 56 35 ec b7 67 90 0a 33 44 b8 61 33
       1.029897e-05 -2.8158229e-05 3.2261962e-08 5.2554483e-08
0001e0 d9 14 15 b5 00 02 04 b7 9d e7 20 38 3c 80 13 38
       -5.553716e-07 -7.868279e-06 3.836268e-05 3.516696e-05
0001f0 59 f9 72 36 87 22 02 37 c7 34 cc b1 7d cd 52 b3
       3.620595e-06 7.756643e-06 -5.9431815e-09 -4.9081326e-08

exp_avg_sq f4 [64, 2]
000000 42 69 07 31 f5 1d 56 31 9d 10 49 28 0b e1 9b 2a
       1.9704918e-09 3.1158127e-09 1.1161344e-14 2.7689686e-13
000010 88 08 6b 2f d0 b6 74 31 2b c4 62 32 6c 64 83 30
       2.1376156e-10 3.561059e-09 1.3199535e-08 9.560046e-10
000020 88 a0 e4 30 bd 49 e6 30 53 c0 4c 30 c4 9b 1d 31
       1.6634809e-09 1.675566e-09 7.4488077e-10 2.293505e-09
000030 fd de e3 30 29 95 0f 33 f7 cb 1e 30 b8 13 e0 31
       1.6579801e-09 3.3430442e-08 5.7769917e-10 6.5215e-09
000040 f9 5f 56 29 23 c3 30 2b 2d 6b b6 30 b3 ef 9f 30
       4.760079e-14 6.279857e-13 1.3272704e-09 1.1636899e-09
000050 e4 ad 2b 2f d1 2b 53 32 a9 4b 16 30 c4 3f ec 2f
       1.5614138e-10 1.2291779e-08 5.46772e-10 4.2973458e-10
000060 27 be 3a 32 56 3e 1c 33 bf 92 1d 2f de fd a9 2f
       1.0869861e-08 3.6378275e-08 1.4331202e-10 3.0921304e-10
000070 2c e8 19 31 3f 4e 05 33 ba 2c bc 28 69 1c 08 2b
       2.2396405e-09 3.103764e-08 2.089159e-14 4.8356333e-13
000080 20 9b 67 2f d8 dc 52 31 ce 9c 99 32 9b be 1d 34
       2.1064439e-10 3.0684557e-09 1.788285e-08 1.4691106e-07
000090 db ce a3 28 37 37 25 2a 81 9c 0a 30 01 d7 bd 31
       1.8186345e-14 1.46741e-13 5.0426513e-10 5.525067e-09
0000a0 fc a1 e4 28 1c 70 0e 2b a4 96 3f 31 c3 46 ab 32
       2.5383334e-14 5.0604117e-13 2.7879787e-09 1.9939199e-08
0000b0 49 af cb 2e b9 09 c8 30 eb 3e ab 31 d6 1b 3f 33
       9.262508e-11 1.4554679e-09 4.983908e-09 4.449597e-08
0000c0 d9 69 ff 2f 38 62 ce 31 a8 c8 27 29 ea 83 83 2b
       4.645944e-10 6.0065553e-09 3.725549e-14 9.344723e-13
0000d0 4c 39 e8 32 4e c3 83 33 a7 05 aa 2f 85 f4 d7 31
       2.703441e-08 6.1356886e-08 3.0926836e-10 6.285122e-09
0000e0 d0 90 31 2e f7 4c 2a 2d 20 62 22 31 83 97 95 32
       4.037376e-11 9.680471e-12 2.362988e-09 1.7414783e-08
0000f0 fc 85 8c 28 d5 1c 24 2a 3b a0 1f 30 37 ca 21 32
       1.5601229e-14 1.4576129e-13 5.8071564e-10 9.417412e-09
000100 e4 02 24 2c 30 d8 aa 2e c1 6c ed 2e da bf af 30
       2.3307406e-12 7.7691076e-11 1.0796831e-10 1.2787453e-09
000110 a6 99 4a 2f 3d d6 43 31 eb 18 28 31 21 80 73 30
       1.842638e-10 2.8498015e-09 2.4461382e-09 8.8584967e-10
000120 c0 1b 1b 30 94 cb 9b 31 7c fe 7e 2f d0 9c f7 30
       5.6428107e-10 4.534238e-09 2.3191576e-10 1.8016184e-09
000130 96 1e 59 2a 26 b7 97 2c 89 42 45 31 de 26 17 33
       1.9284083e-13 4.3120117e-12 2.8705094e-09 3.5192777e-08
000140 12 1d 50 30 a9 93 be 32 9f 3f 02 2f 29 22 17 31
       7.571127e-10 2.218606e-08 1.1846034e-10 2.199281e-09
000150 13 a4 03 31 cc bd 62 32 4a f5 51 28 dc 19 25 2a
       1.9156274e-09 1.3198086e-08 1.1655019e-14 1.4663916e-13
000160 77 c8 40 30 b1 08 ac 32 d2 06 f5 2e 03 8b f4 30
       7.013407e-10 2.0027388e-08 1.11425216e-10 1.7792846e-09
000170 a4 8b 69 2f 3a 6e 91 31 3d 30 39 31 92 f6 66 34
       2.1240837e-10 4.2325867e-09 2.6948463e-09 2.1510121e-07
000180 7d 24 1f 2f 13 50 12 31 6a f0 b6 28 a2 50 11 2a
       1.4473929e-10 2.1291313e-09 2.0310322e-14 1.2906562e-13
000190 49 57 9b 2f 20 d6 9a 31 8f 5f 19 30 78 eb fc 31
       2.8256356e-10 4.506333e-09 5.579687e-10 7.360935e-09
0001a0 85 94 b5 2f e5 18 b9 31 0c 6a 2e 28 76 65 44 2a
       3.3029238e-10 5.387039e-09 9.6819356e-15 1.7443498e-13
0001b0 8a f0 90 32 a0 c0 e3 2f 3c 24 f5 2f 68 48 1a 31
       1.687319e-08 4.1427928e-10 4.4590986e-10 2.2451108e-09
0001c0 92 3d 2d 29 bb f3 b5 2a d1 35 8e 2a ba 5c ac 2b
       3.846712e-14 3.232118e-13 2.526161e-13 1.2247072e-12
0001d0 16 7f cf 30 df 3e 85 30 3a 40 16 29 37 7f e8 2a
       1.5097352e-09 9.694893e-10 3.33624e-14 4.1299752e-13
0001e0 09 c5 56 32 15 5b 6e 33 97 bb 25 32 8f ea cc 32
       1.250124e-08 5.5496532e-08 9.646917e-09 2.385539e-08
0001f0 1c 9d ef 31 f6 90 40 32 19 51 d5 28 7b a6 79 2a
       6.9736767e-09 1.1208831e-08 2.3682921e-14 2.2173402e-13

exp_avg f4 [64]
000000 e9 bc 27 37 1a 27 1d 34 b6 85 58 36 73 3c 9d 37
       9.99796e-06 1.463599e-07 3.2264338e-06 1.8744007e-05
000010 34 a4 89 b8 76 60 a4 36 1f 04 0a b6 58 4d 50 b7
       -6.563254e-05 4.8988104e-06 -2.0566001e-06 -1.2415774e-05
000020 1b 7b 32 b4 29 ce 85 37 1f b7 7b b7 5c 94 04 36
       -1.6622327e-07 1.5950836e-05 -1.5003402e-05 1.975589e-06
000030 5e b6 23 38 95 02 2b 36 fc 00 69 b8 b1 ef 6c b4
       3.903207e-05 2.5482489e-06 -5.5552446e-05 -2.2066412e-07
000040 12 60 77 37 7d 15 80 b8 54 0d 79 33 74 26 6c b7
       1.4744715e-05 -6.107518e-05 5.7986952e-08 -1.4075649e-05
000050 2f 25 45 b3 55 c8 02 b8 01 a9 e4 33 81 27 6f 37
       -4.5901455e-08 -3.118099e-05 1.0647819e-07 1.4254708e-05
000060 d3 88 27 37 f7 89 84 b4 f5 f6 72 b7 7b 35 9c b7
       9.985833e-06 -2.46873e-07 -1.4481823e-05 -1.8621553e-05
000070 86 23 25 35 8f 6a 88 b8 05 83 b5 b2 7b e9 2a 37
       6.1518983e-07 -6.5048334e-05 -2.1130754e-08 1.0187151e-05
000080 75 96 10 36 ec be 57 b6 d9 ae 25 36 b5 4c 39 b6
       2.154525e-06 -3.2148628e-06 2.468869e-06 -2.7611798e-06
000090 68 1e c2 37 2f 48 1c b7 7d d4 00 35 99 b8 57 b8
       2.3140761e-05 -9.315131e-06 4.7992927e-07 -5.1431914e-05
0000a0 91 a0 40 b8 db 09 b0 b6 63 96 04 b8 9b b7 28 b3
       -4.5925906e-05 -5.246356e-06 -3.161131e-05 -3.9282536e-08
0000b0 38 67 4a 38 31 a4 4d 36 06 dc a9 b7 62 6a 96 38
       4.8256683e-05 3.0642952e-06 -2.0248826e-05 7.172373e-05
0000c0 60 46 2b 37 b7 92 ac b3 0d bb 65 b7 0a b2 3e 37
       1.020878e-05 -8.0360614e-08 -1.3693015e-05 1.13663355e-05
0000d0 04 42 6c 36 01 1b b8 b3 af 78 b1 b7 e1 39 ae 36
       3.5205167e-06 -8.57308e-08 -2.1156242e-05 5.192342e-06
0000e0 c2 5d 0b b4 48 92 b7 b4 c7 63 30 38 92 ad 3a b4
       -1.2979493e-07 -3.419284e-07 4.2054595e-05 -1.7385744e-07
0000f0 af e1 91 37 bc 41 b2 b8 b7 ce 97 b7 53 13 be b3
       1.739044e-05 -8.4999454e-05 -1.8096862e-05 -8.8510795e-08

exp_avg_sq f4 [64]
000000 93 17 ec 33 57 f8 82 2b dc 99 b5 33 36 3a da 34
       1.09938945e-07 9.305984e-13 8.456456e-08 4.0648018e-07
000010 bb f6 0d 33 49 a7 90 33 2d f2 1e 34 9e d1 42 34
       3.305352e-08 6.7359515e-08 1.4803e-07 1.8143916e-07
000020 bf 65 4a 2d 19 a0 c7 33 a1 96 e5 32 69 91 98 32
       1.1504963e-11 9.295781e-08 2.6727607e-08 1.7761254e-08
000030 1c da a0 34 77 6b 29 31 70 a1 5a 35 03 7f 49 2d
       2.9961018e-07 2.4653823e-09 8.144625e-07 1.14537295e-11
000040 21 6b a7 31 8b 85 80 34 00 b9 d6 2b bd a6 be 33
       4.872519e-09 2.3939023e-07 1.5256962e-12 8.877894e-08
000050 ba 08 1d 2d dc fc 9d 34 23 f3 84 32 19 37 02 34
       8.9263544e-12 2.9427508e-07 1.5477388e-08 1.2127238e-07
000060 ac 18 b3 33 02 27 18 2e 38 5f e0 33 19 8c 0e 32
       8.339825e-08 3.4595445e-11 1.0448133e-07 8.297342e-09
000070 b4 01 96 30 98 55 85 34 e2 67 e1 2b 88 a7 2a 34
       1.091442e-09 2.4835458e-07 1.6016045e-12 1.5893431e-07
000080 a5 2b 9c 30 3b aa 52 32 9c ad dd 31 5a 3b 9c 31
       1.1362898e-09 1.2262315e-08 6.4516836e-09 4.546945e-09
000090 fd a7 a9 32 21 05 4b 32 c2 8d 04 2f a6 81 41 35
       1.9750582e-08 1.1817321e-08 1.2055693e-10 7.2086766e-07
0000a0 9b 94 07 35 2b 88 9b 32 a6 48 c5 32 74 fa ba 2c
       5.050767e-07 1.8106297e-08 2.2966855e-08 5.314244e-12
0000b0 89 e3 ef 33 ca 7e e4 31 90 f9 58 33 d9 7a 47 35
       1.1170693e-07 6.6500876e-09 5.0518395e-08 7.4312044e-07
0000c0 09 72 2d 32 3b da ee 2a 09 d7 b4 33 18 95 d4 33
       1.0095854e-08 4.242872e-13 8.421018e-08 9.899139e-08
0000d0 b0 5b ae 32 bf 04 d1 2b 34 c2 8c 33 77 d6 34 33
       2.029796e-08 1.485166e-12 6.5545834e-08 4.210457e-08
0000e0 5f ae a5 2c ff 57 4d 2e b7 d3 88 33 13 aa 06 2d
       4.708941e-12 4.668976e-11 6.371504e-08 7.654782e-12
0000f0 84 d8 4e 34 22 1a e8 34 33 7a 87 34 ba 54 04 2c
       1.9264013e-07 4.3232382e-07 2.523462e-07 1.880536e-12
