new_saved_models/v2_n1e6_gmm_sk500.pt (torch, 529309 bytes, 24 tensors)

net.0.weight f4 [64, 2]
-0.34785876 -0.09077441 -0.51549566 -0.02695271 0.6324775 0.61626774 -0.5065538 -0.31567624
0.7601163 -0.6167308 0.38508233 0.59228885 -0.24330358 0.35374355 -0.23275772 -0.7432285
0.015679315 0.39565715 0.40486327 0.023101259 0.39252183 0.43787965 0.6968711 0.047536515
0.44716597 0.23453535 -0.28175023 -0.2877867 -0.4361036 0.7221006 -0.61522037 -0.60596114
-0.79210633 0.1280053 -0.58646965 -0.5232402 -0.059376646 0.20599693 -0.4150048 0.6786104
0.34244344 0.17962767 0.19209929 -0.20255709 0.5004537 0.70654905 0.7649209 -0.54929316
-0.6465572 -0.05667825 0.1327052 -0.36486816 -0.43549287 -0.38317344 -0.64524376 0.13753934
-0.4376225 0.8022714 0.37351203 0.54820234 -0.6533509 -0.6058512 0.53514826 -0.14491196
-0.26612496 0.5150851 0.13138977 0.56070405 0.10631332 -0.3274966 0.119019724 0.21519849
-0.043507136 0.6561438 -0.7241985 0.59754825 0.28920764 -0.5430227 0.042955656 -0.66421026
-0.5873848 -0.15876916 -0.17950211 0.083666675 0.47036245 -0.7035168 -0.2581297 0.547854
-0.12488362 -0.5458487 -0.38044333 0.1575037 -0.49843296 -0.24380748 0.027230497 0.5841145
0.6086769 0.353538 -0.21090272 0.12591739 0.298325 0.37822723 0.301824 0.5161871
0.6977502 0.09699372 -0.5080813 -0.48170894 0.31378058 -0.46476498 -0.27398208 -0.69175816
-0.031722974 0.18679304 -0.2353448 0.42463073 0.76206505 -0.059114367 0.02749056 -0.5311508
-0.7842938 0.6130966 -0.49903566 -0.39281565 -0.28246266 -0.5706554 -0.51938325 0.53467506
00000000: 8b1a b2be efe7 b9bd 86f7 03bf eecb dcbc
00000010: 0cea 213f b9c3 1d3f 83ad 01bf 51a0 a1be
00000020: fb96 423f 12e2 1dbf 8329 c53e 3ea0 173f
00000030: 9324 79be e01d b53e 0a58 6ebe 3944 3ebf
00000040: e871 803c 9393 ca3e 3d4a cf3e da3e bd3c
00000050: 9ff8 c83e c331 e03e 2566 323f a6b5 423d
00000060: f0f2 e43e 092a 703e 9141 90be c758 93be
00000070: f948 dfbe 96db 383f 157f 1dbf 4520 1bbf
00000080: 7bc7 4abf d213 033e e022 16bf 12f3 05bf
00000090: ed34 73bd dcf0 523e 827b d4be 69b9 2d3f
000000a0: bf54 af3e 51f0 373e adb5 443e 206b 4fbe
000000b0: bc1d 003f 66e0 343f dbd1 433f 7a9e 0cbf
000000c0: c684 25bf 7427 68bd dfe3 073e 00d0 babe
000000d0: ecf8 debe 4f2f c4be b22e 25bf 1dd7 0c3e
000000e0: 0e10 e0be a961 4d3f f83c bf3e fd56 0c3f
000000f0: 0142 27bf 1019 1bbf 7aff 083f cd63 14be
00000100: 8841 88be 9edc 033f 0a8b 063e 4d8a 0f3f
00000110: ccba d93d a2ad a7be 9dc0 f33d fe5c 5c3e
00000120: 8a34 32bd 0af9 273f 1365 39bf ecf8 183f
00000130: 0613 943e 8903 0bbf 45f2 2f3d af09 2abf
00000140: da5e 16bf 6294 22be 67cf 37be 6f59 ab3d
00000150: 59d3 f03e ad19 34bf 9329 84be 2940 0c3f
00000160: fcc2 ffbd bebc 0bbf 78c9 c2be a648 213e
00000170: 9b32 ffbe aba8 79be 7e12 df3c 8788 153f
00000180: 40d2 1b3f ef02 b53e e2f6 57be 7df0 003e
00000190: 0ebe 983e 00a7 c13e ad88 9a3e d624 043f
000001a0: c29f 323f a5a4 c63d 9e11 02bf 8ea2 f6be
000001b0: d9a7 a03e adf5 edbe 6147 8cbe 1017 31bf
000001c0: f3ef 01bd ad46 3f3e 3afe 70be 3369 d93e
000001d0: b216 433f e821 72bd e233 e13c 80f9 07bf
000001e0: 7ac7 48bf e6f3 1c3f 9a81 ffbe 221f c9be
000001f0: f29e 90be 7916 12bf 4df6 04bf 77e0 083f

net.0.bias f4 [64]
-0.25073695 -0.078350075 -0.0007067481 -0.30206907 -0.526898 0.5865924 0.4877112 0.10968568
-0.31629777 0.32382384 0.012168461 0.60301334 -0.7080208 0.3795831 0.63555276 -0.06417209
0.09164364 -0.6294488 0.10695236 -0.068347044 0.2534179 0.41530025 -0.6174872 -0.3142863
0.0930514 -0.08553131 -0.55769753 0.5638947 0.30561143 -0.030795135 -0.32698148 0.638103
-0.5484215 0.41936386 0.577174 0.2030747 -0.67217356 -0.01134573 -0.18629931 0.0021471907
-0.25221556 -0.1957047 -0.019269984 -0.5969107 0.065088585 0.15125605 0.6803932 -0.4619231
-0.6713777 -0.68843055 -0.60128903 0.29089934 0.0404412 -0.5541366 0.16357079 0.13810848
0.4674591 0.02926086 -0.33501527 -0.66431963 -0.35063335 0.71438825 0.43637043 -0.50749344
00000000: 9860 80be 0176 a0bd 1045 39ba cca8 9abe
00000010: cae2 06bf eb2a 163f 48b5 f93e e3a2 e03d
00000020: c8f1 a1be 3dcc a53e 3a5e 473c 155f 1a3f
00000030: da40 35bf b758 c23e 96b3 223f a86c 83bd
00000040: a9af bb3d 8e23 21bf d709 db3d 89f9 8bbd
00000050: febf 813e 3ca2 d43e a413 1ebf 22ea a0be
00000060: bb91 be3d 0a2b afbd 44c5 0ebf 675b 103f
00000070: 1a79 9c3e 1446 fcbc 1e6a a7be b85a 233f
00000080: 5a65 0cbf dcb6 d63e adc1 133f d0f2 4f3e
00000090: 9113 2cbf 71e3 39bc 3fc5 3ebe e2b7 0c3b
000000a0: 6622 81be d066 48be 16dc 9dbc 24cf 18bf
000000b0: 2a4d 853d dee2 1a3e 402e 2e3f 2f81 ecbe
000000c0: 69df 2bbf fc3c 30bf 14ee 19bf c2f0 943e
000000d0: aca5 253d e5db 0dbf 1a7f 273e 4f6c 0d3e
000000e0: cd56 ef3e 79b4 ef3c 1f87 abbe da10 2abf
000000f0: 3786 b3be 26e2 363f f26b df3e 17eb 01bf

net.2.weight f4 [128, 64]
-0.11753003 -0.0903056 0.036002964 0.09588152 -0.09603827 -0.08157739 0.021363646 0.12406638
0.12087281 -0.029204369 0.06908728 -0.03271173 0.07898381 -0.007939056 0.046194956 0.12109545
0.10934803 -0.010282278 -0.004298508 -0.049155325 -0.05885236 -0.12495199 0.08479838 0.010054857
0.026219621 0.040608108 0.074540794 0.07691577 0.08240996 0.03592752 -0.061301365 -0.10345788
0.032962203 -0.1143502 -0.061465114 0.04004182 0.1145813 -0.11580987 0.08425881 -0.04377161
0.018470243 0.014863282 0.10012552 -0.09053789 -0.124240264 0.03833835 -0.0698749 -0.0954359
0.02923742 0.065466866 -0.01618433 -0.060994476 0.05533412 0.044944823 -0.093973055 0.063690215
-0.09516892 0.0679235 0.021879494 -0.09179284 -0.11295235 -0.118244305 0.0054344386 0.028747559
0.012928476 -0.015124322 0.0322849 0.029360406 -0.12788877 0.021061985 -0.0014123553 -0.1351814
-0.065573506 -0.02445409 -0.15037663 -0.1366655 -0.1389065 0.14273582 0.1302956 -0.03772101
0.15920198 -0.052370254 -0.08701979 0.017846104 -0.01710067 0.10713963 -0.013562867 -0.00823903
0.083430775 0.110357665 0.12425445 -0.064748175 0.01336106 -0.04736782 0.026726974 -0.030416735
-0.08420416 0.12402578 -0.10698352 -0.08003638 -0.052028656 -0.124597676 0.058574043 0.07100868
-0.1368516 0.10804041 -0.14174326 -0.07225886 -0.098690435 -0.06455704 0.13641194 0.091608316
0.008643182 0.046897795 0.07199322 -0.011512265 -0.17193165 0.08562045 -0.019583974 0.00037164122
-0.03840218 0.02428289 -0.08796694 -0.12484254 0.051926583 0.1628186 0.0073224963 0.05752487
-0.17072703 0.046056967 0.15737602 -0.11993975 0.05119253 -0.059088837 0.0939117 -0.016888777
0.069931686 0.046293497 0.032335382 0.11936485 -0.071094394 0.11675462 0.06471783 -0.0912191
0.036352765 -0.10502092 0.09848756 -0.083488956 -0.075120814 -0.0131865125 0.024900189 -0.065807
0.026560768 0.034635805 0.052328333 0.11161812 -0.08466808 0.004721115 0.087932914 -0.021858143
0.07112453 0.0013091952 -0.0011803196 -0.039477963 -0.08061073 0.15813254 0.04308043 -0.16144286
0.07337852 -0.124965966 0.013186728 -0.15056409 0.009399935 0.06192128 0.1088597 -0.0040173065
-0.12108504 0.05567124 -0.06780195 0.09699129 -0.0014226941 0.028578885 0.09036411 0.021966629
-0.04486731 -0.122560754 0.013951664 -0.08248459 0.041336104 -0.02584029 0.07601886 -0.006226486
0.024322867 -0.10922143 0.0018571168 -0.03861986 0.0231947 -0.011029422 -0.05192791 -0.008353934
-0.051548705 0.06211856 -0.009365931 0.0037833154 -0.015027508 -0.009728536 -0.06025189 -0.095885724
0.118670255 -0.080481485 -0.019999906 0.002088502 -0.069787994 -0.057642788 0.07608147 0.065059945
0.025247738 -0.04940228 0.08848408 0.012754679 8.326769e-05 -0.028713211 0.046049356 0.06860067
0.027775466 -0.01818274 -0.08564228 -0.11398861 -0.020481095 -0.10869561 0.022146165 0.016892344
0.103132054 0.050169364 -0.06567502 0.029884323 -0.06878142 0.10349789 -0.07310173 -0.12497306
-0.02384612 0.013853148 0.07861021 -0.098693624 -0.11837481 -0.01886423 0.057261482 -0.0681857
0.07160278 -0.029743284 -0.08835566 0.0548072 -0.057140917 0.03473687 -0.11246842 -0.119387746
00000000: 96b3 f0bd 24f2 b8bd d877 133d 885d c43d
00000010: b6af c4bd 0c12 a7bd d002 af3c 8416 fe3d
00000020: 2a8c f73d 003e efbc a27d 8d3d bcfc 05bd
00000030: 44c2 a13d d012 02bc ec36 3d3d e400 f83d
00000040: dcf1 df3d 0077 28bc 80da 8cbb 1857 49bd
00000050: 2c0f 71bd d4e6 ffbd c6aa ad3d 20bd 243c
00000060: 88ca d63c b054 263d d8a8 983d 0486 9d3d
00000070: 8ec6 a83d bc28 133d 2417 7bbd bae1 d3bd
00000080: 6003 073d 7030 eabd d8c2 7bbd e402 243d
00000090: 9aa9 ea3d ba2d edbd e28f ac3d dc49 33bd
000000a0: e84e 973c 2085 733c 9c0e cd3d ee6b b9bd
000000b0: ae71 febd ac08 1d3d 921a 8fbd e673 c3bd
000000c0: 5083 ef3c 7e13 863d 0095 84bc 58d5 79bd
000000d0: 08a6 623d 1018 383d f274 c0bd 0470 823d
000000e0: ece7 c2bd 7a1b 8b3d a03c b33c e2fd bbbd
000000f0: 9053 e7bd 122a f2bd 6013 b23b 0080 eb3c
00000100: f5d1 533c 01cc 77bc 2c3d 043d 3c85 f03c
00000110: 46f5 02be 2f8a ac3c c81e b9ba fe6c 0abe
00000120: 674b 86bd f253 c8bc 55fc 19be 0af2 0bbe
00000130: 813d 0ebe 5729 123e 366c 053e 5981 1abd
00000140: d805 233e 3182 56bd 6f37 b2bd fe31 923c
00000150: b416 8cbc 066c db3d ca36 5ebc fffc 06bc
00000160: c1dd aa3d 3303 e23d 1e79 fe3d b19a 84bd
00000170: 59e8 5a3c c204 42bd 87f2 da3c 842c f9bc
00000180: 3b73 acbd 3a01 fe3d 2d1a dbbd 1dea a3bd
00000190: 001c 55bd 112d ffbd 56eb 6f3d 006d 913d
000001a0: d322 0cbe 4a44 dd3d 2525 11be 74fc 93bd
000001b0: 361e cabd 7b36 84bd 92af 0b3e 249d bb3d
000001c0: 229c 0d3c e717 403d 2e71 933d f09d 3cbc
000001d0: da0e 30be c659 af3d 926e a0bc d7d8 c239
000001e0: 9b4b 1dbd e9ec c63c 0328 b4bd 72ad ffbd
000001f0: f8b0 543d ebb9 263e 8df1 ef3b 339f 6b3d
00000200: 11d3 2ebe 3ba6 3c3d 2e27 213e f9a2 f5bd
00000210: 42af 513d 2307 72bd c754 c03d 555a 8abc
00000220: 5838 8f3d 409e 3d3d 1b72 043d 8f75 f43d
00000230: f099 91bd 0c1d ef3d c88a 843d 14d1 babd
00000240: a3e6 143d 3515 d7bd d9b3 c93d 42fc aabd
00000250: f1d8 99bd 3e0c 58bc 7bfb cb3c d2c5 86bd
00000260: f895 d93c 46de 0d3d 3c56 563d 0a98 e43d
00000270: 7566 adbd 95b3 9a3b 2c16 b43d d90f b3bc
00000280: bda9 913d 4d99 ab3a f4b4 9aba a5b3 21bd
00000290: 3d17 a5bd 7fed 213e 1b75 303d 4751 25be
000002a0: 7a47 963d 28ee ffbd 250d 583c 792d 1abe
000002b0: 2f02 1a3c 2ba1 7d3d d6f1 de3d 9ca3 83bb
000002c0: 6ffb f7bd 8707 643d c0db 8abd 5fa3 c63d
000002d0: b179 baba 441e ea3c d210 b93d 5cf3 b33c
000002e0: c9c6 37bd 2201 fbbd 8595 643c aeed a8bd
000002f0: 0c50 293d 04af d3bc c7af 9b3d 8d07 ccbb
00000300: c040 c73c 7caf dfbd 806a f33a dc2f 1ebd
00000310: d002 be3c c0b4 34bc 5cb2 54bd f0de 08bc
00000320: bc24 53bd 0870 7e3d 9073 19bc 80f1 773b
00000330: f035 76bc 7064 1fbc b0ca 76bd bc5f c4bd
00000340: 6409 f33d 7ad3 a4bd d8d6 a3bc 40df 083b
00000350: 02ed 8ebd d81a 6cbd 9ad0 9b3d 263e 853d
00000360: 58d4 ce3c 0c5a 4abd 2437 b53d 00f9 503c
00000370: 00a0 ae38 f837 ebbc 409e 3c3d 827e 8c3d
00000380: 6089 e33c f8f3 94bc 3865 afbd dc72 e9bd
00000390: f8c7 a7bc ce9b debd e06b b53c d061 8a3c
000003a0: e636 d33d 647e 4d3d a080 86bd f8cf f43c
000003b0: 46dd 8cbd b4f6 d33d 5cb6 95bd e0f1 ffbd
000003c0: f058 c3bc 50f8 623c 64fe a03d e21f cabd
000003d0: 7e6e f2bd 2889 9abc 048b 6a3d f2a4 8bbd
000003e0: 7aa4 923d 30a8 f3bc d0f3 b4bd 847d 603d
000003f0: 980c 6abd 4048 0e3d d855 e6bd 9081 f4bd

net.2.bias f4 [128]
-0.08016579 -0.12276246 -0.03868545 0.0991279 -0.0038434216 0.10524852 -0.11702153 -0.088358074
0.020636246 -0.11897819 0.055192012 0.08021184 0.12956259 -0.061029445 0.08174237 0.12387495
0.012118071 0.02178186 0.017612243 -0.010971023 0.052344255 -0.04136813 -0.038188644 -0.014420782
0.10432857 -0.021361653 0.11690776 0.13386567 -0.0016149593 -0.079353236 -0.034648094 0.071728766
0.06791981 0.057576872 -0.05299762 0.011728244 -0.014390372 0.06991353 0.07954996 -0.06687679
0.06558673 -0.07372591 -0.1106933 0.029830296 0.09892216 0.038109966 0.047475807 0.08471718
0.0048521818 0.017489042 -0.073416315 -0.010436848 0.1272719 0.06706289 0.12711854 0.11217423
0.100695744 -0.11138993 -0.105398595 0.05746894 -0.121832654 0.063998915 0.049491543 0.019289272
-0.019505728 -0.05880239 -0.0030466148 0.01593168 0.11383028 -0.05667007 -0.046236187 -0.04609902
-0.010560695 0.06396133 -0.015279793 0.10746846 -0.023458745 -0.03492668 -0.09949119 0.07369712
0.10757992 0.07854078 -0.06311596 0.10517356 -0.117961474 -0.08831498 -0.009426854 -0.036587477
0.05290742 -0.06021847 -0.0767636 0.040731363 -0.0059991106 -0.12473695 0.06287385 -0.026138082
-0.10552172 -0.10272906 -0.018280262 0.01274735 0.031711582 -0.0029759854 -0.01875594 -0.017857136
0.023213489 -0.03547117 0.12827148 -0.041478 0.01442407 0.03759524 0.10878964 0.061343335
-0.010077555 -0.057371173 0.08618415 0.056689255 -0.11628329 0.03774869 0.09157969 -0.009438141
0.09968165 0.01580774 -0.08035846 -0.071893744 0.09415927 0.11774628 -0.0050816145 -0.0074302047
00000000: f62d a4bd e26a fbbd a274 1ebd 9203 cb3d
00000010: eae1 7bbb 898c d73d fca8 efbd 14f5 b4bd
00000020: 580d a93c d6aa f3bd 0511 623d 1b46 a43d
00000030: 0eac 043e 03fa 79bd 8b68 a73d 26b2 fd3d
00000040: e08a 463c df6f b23c 8d47 903c cebf 33bc
00000050: ee66 563d a171 29bd b26b 1cbd 2545 6cbc
00000060: 38aa d53d a2fe aebc 566d ef3d 1514 093e
00000070: 0bad d3ba f383 a2bd 29eb 0dbd 88e6 923d
00000080: 8b19 8b3d bad5 6b3d 0814 59bd d227 403c
00000090: 98c5 6bbc d32e 8f3d 17eb a23d b3f6 88bd
000000a0: 5652 863d 9cfd 96bd 2bb3 e2bd aa5e f43c
000000b0: b497 ca3d 3219 1c3d fe75 423d 3380 ad3d
000000c0: 0dff 9e3b 2e45 8f3c 4b5b 96bd 50ff 2abc
000000d0: 9153 023e 4558 893d 5d2b 023e 9abb e53d
000000e0: 9239 ce3d 6720 e4bd 38db d7bd 8d64 6b3d
000000f0: 6683 f9bd dd11 833d a5b7 4a3d 8904 9e3c
00000100: 7aca 9fbc c6da 70bd b7a9 47bb 2883 823c
00000110: da1f e93d e01e 68bd 2862 3dbd 53d2 3cbd
00000120: c406 2dbc 28fe 823d 1958 7abc 6d18 dc3d
00000130: 8e2c c0bc 470f 0fbd 09c2 cbbd 84ee 963d
00000140: dc52 dc3d fdd9 a03d f142 81bd 3c65 d73d
00000150: c995 f1bd 7cde b4bd 1773 1abc c0dc 15bd
00000160: 73b5 583d a4a7 76bd 3c36 9dbd eed5 263d
00000170: 3094 c4bb 1676 ffbd 01c4 803d 881f d6bc
00000180: c61b d8bd 9d63 d2bd 7dc0 95bc 43da 503c
00000190: 01e4 013d c008 43bb 0fa6 99bc 2149 92bc
000001a0: 372a be3c 384a 11bd 9959 033e d6e4 29bd
000001b0: ef52 6c3c 77fd 193d 1acd de3d 2643 7b3d
000001c0: 541c 25bc 09fe 6abd 5181 b03d fe32 683d
000001d0: ef25 eebd 5f9e 1a3d 228e bb3d 6fa2 1abc
000001e0: e525 cc3d 3c7f 813c fa92 a4bd 073d 93bd
000001f0: 93d6 c03d f624 f13d ac83 a6bb 1379 f3bb

net.4.weight f4 [256, 128]
-0.018842 0.09840603 -0.061663892 -0.043877188 0.04533935 0.017644532 -0.036442123 0.029269239
-0.07561149 0.07757698 -0.046374146 -0.038342785 0.0575488 0.015531424 -0.02248688 0.082395904
-0.05157991 0.06353049 0.104155846 0.124248564 0.07600895 0.049969595 0.029069677 0.024315314
-0.1459331 0.15153946 0.005986696 0.1267704 0.0039465637 -0.019820817 0.11367876 0.10078187
0.12692893 0.12432766 0.13058074 0.094173044 -0.14430068 -0.0278563 0.14442202 0.05068371
0.10358158 0.028487075 0.08325736 -0.023730159 0.096776254 0.039866947 0.16200209 0.0518925
0.07952802 0.088414446 0.1317062 0.04410319 -0.021729084 0.028591735 -0.04732798 0.00042764845
0.07473049 0.04199766 -0.03092569 0.0152706 0.024808152 -0.019819496 -0.032065984 -0.112043336
0.15201046 0.18729196 -0.06796008 -0.013418373 0.075985305 0.028555017 0.044584643 0.018141735
0.069239974 0.05455139 0.13995405 -0.02386378 0.019801263 0.07932374 0.07736896 -0.047425106
0.06543876 -0.059094835 -0.123208545 0.065563835 0.040247545 0.010819812 -0.044036027 0.04412211
0.016190164 -0.100678325 0.008645727 0.15703568 -0.10272682 0.05010803 0.0653168 -0.085356385
-0.07935416 0.18808053 0.059752442 -0.018346036 0.033412237 -0.027816718 0.119545996 0.007003052
0.018585429 0.004526697 0.06980613 0.08580776 0.027923387 0.096405044 0.03699877 0.060804375
-0.088680744 0.003949391 -0.07880826 0.06055897 0.15912734 -0.03860035 0.09675294 -0.11585827
-0.0057476284 0.023950102 -0.03378819 0.020693468 0.016179604 0.11870309 -0.025799852 -0.09867832
0.03790836 0.04467916 -0.07423517 -0.02834073 -0.014319024 0.05562901 0.039094742 0.024390386
-0.012277577 0.027641874 0.03371947 -0.08389854 0.024704417 0.05181751 -0.12943995 -0.050421406
-0.059041284 0.12287423 0.14011313 0.025390256 0.027548369 -0.015016316 0.027499035 0.029986054
-0.0034556466 0.13186555 0.06943669 0.15863933 -0.07869149 -0.008116332 0.052519217 0.0984424
0.091455914 0.026227685 0.008223473 0.09237622 -0.07747117 0.008801884 0.0007377846 -0.0008883954
0.09420817 0.003939413 0.09356534 -0.061804514 0.12146075 0.043308914 0.1664563 0.044275444
0.13279395 0.07429159 0.10863208 0.011360988 -0.053500064 0.041130155 -0.020064441 -0.107782796
0.14809693 -0.106126055 -0.050429948 -0.057342198 -0.06616223 -0.06930564 0.08649942 -0.03208324
0.10469814 0.11169251 -0.07370494 0.03234122 0.10428607 -0.06942057 0.08627881 0.17104365
-0.014549317 0.0045760768 0.013827283 -0.006336563 -0.049295045 0.1150474 -0.0035309468 0.020773897
0.15596783 0.09017864 0.044224363 0.02352009 0.0059228227 0.0112791285 0.02182706 0.08504768
-0.06039605 -0.08543702 0.0965536 0.038152438 -0.08656473 0.072764665 0.073211476 0.0047403825
-0.0087361 0.073024675 0.065480985 0.035218775 0.09253837 0.03611929 -0.031531215 0.037123125
-0.06152711 0.08817386 0.16064298 0.08368118 0.058933105 0.11445151 0.14928468 0.08608879
-0.07507823 0.05225433 -0.10988098 0.14958674 0.0033830844 0.05729284 0.017099129 -0.06608435
-0.14962669 -0.06766568 -0.020934287 -0.018987173 0.045697473 0.052499834 -0.026324028 -0.0767673
00000000: 8a5a 9abc 1a89 c93d 4793 7cbd 91b8 33bd
00000010: c1b5 393d 448b 903c 5644 15bd 0bc6 ef3c
00000020: 32da 9abd aee0 9e3d d1f2 3dbd 530d 1dbd
00000030: 4ab8 6b3d 8477 7e3c 6836 b8bc 2fbf a83d
00000040: 7545 53bd 461c 823d a94f d53d 0876 fe3d
00000050: 95aa 9b3d ebac 4c3d 8823 ee3c e930 c73c
00000060: 7d6f 15be 292d 1b3e 0c2c c43b 1ad0 013e
00000070: 2d52 813b 445f a2bc 69d0 e83d ba66 ce3d
00000080: a8f9 013e 809f fe3d f5b6 053e ccdd c03d
00000090: 8fc3 13be e532 e4bc 5ee3 133e b999 4f3d
000000a0: 9422 d43d ba5d e93c d682 aa3d c065 c2bc
000000b0: a132 c63d 864b 233d e0e3 253e 3b8d 543d
000000c0: 96df a23d a212 b53d fddd 063e 8ca5 343d
000000d0: 3101 b2bc 3739 ea3c fcda 41bd 0136 e039
000000e0: 4d0c 993d bd05 2c3d df57 fdbc 8a31 7a3c
000000f0: 773a cb3c 7f5c a2bc 9f57 03bd fa76 e5bd
00000100: a1a8 1b3e 77c9 3f3e a82e 8bbd bcd8 5bbc
00000110: 2f9e 9b3d 36ec e93c 639e 363d fa9d 943c
00000120: b0cd 8d3d 4771 5f3d 1d50 0f3e f97d c3bc
00000130: 4236 a23c 7c74 a23d 9e73 9e3d d440 42bd
00000140: c204 863d 6d0d 72bd c354 fcbd 5546 863d
00000150: 9cda 243d 9545 313c 1f5f 34bd 63b9 343d
00000160: 3ca1 843c 7030 cebd cfa6 0d3c f6cd 203e
00000170: 7062 d2bd 143e 4d3d d0c4 853d 54cf aebd
00000180: 6f84 a2bd 2f98 403e fabe 743d 6d4a 96bc
00000190: 45db 083d e3df e3bc 88d4 f43d dc79 e53b
000001a0: 7840 983c b054 943b 84f6 8e3d fbbb af3d
000001b0: 96bf e43c 0270 c53d 068c 173d 020e 793d
000001c0: 409e b5bd e569 813b 3a66 a1bd af0c 783d
000001d0: 47f2 223e 671b 1ebd 6826 c63d 1a47 edbd
000001e0: 9a56 bcbb 0133 c43c 7c65 0abd 5985 a93c
000001f0: 178b 843c 9b1a f33d 365a d3bc dc17 cabd
00000200: cc45 1b3d 7f01 373d 9c08 98bd d22a e8bc
00000210: 579a 6abc 3fdb 633d cf21 203d 59ce c73c
00000220: e427 49bc 3671 e23c 6d1d 0a3d ffd2 abbd
00000230: eb60 ca3c 993e 543d e88b 04be ad86 4ebd
00000240: 46d5 71bd 7ca5 fb3d d179 0f3e 3aff cf3c
00000250: 1ead e13c ff06 76bc a845 e13c 50a5 f53c
00000260: 2178 62bb c307 073e d334 8e3d 5972 223e
00000270: 0129 a1bd 5dfa 04bc 641e 573d 2b9c c93d
00000280: 3d4d bb3d 71db d63c bfbb 063c be2f bd3d
00000290: 34a9 9ebd c735 103c e367 413a 35e3 68ba
000002a0: 37f0 c03d 3116 813b 2f9f bf3d bb26 7dbd
000002b0: 6ac0 f83d b064 313d 8573 2a3e 2b5a 353d
000002c0: 23fb 073e 3026 983d 7f7a de3d 7023 3a3c
000002d0: e222 5bbd 1878 283d 2f5e a4bc 3abd dcbd
000002e0: b9a6 173e 9e58 d9bd a28f 4ebd a7df 6abd
000002f0: 1080 87bd 1ef0 8dbd 9c26 b13d b769 03bd
00000300: fa6b d63d 0bbf e43d 9ef2 96bd 3a78 043d
00000310: ef93 d53d 5f2c 8ebd f2b2 b03d 1126 2f3e
00000320: 4260 6ebc eaf2 953b d48b 623c f1a2 cfbb
00000330: 9ae9 49bd f99d eb3d 7567 67bb 052e aa3c
00000340: 08b6 1f3e 94af b83d 9b24 353d 34ad c03c
00000350: 3d14 c23b 18cc 383c aace b23c 7a2d ae3d
00000360: d961 77bd 9bf9 aebd e5bd c53d bb45 1c3d
00000370: d948 b1bd a405 953d e6ef 953d 3655 9b3b
00000380: dc21 0fbc f68d 953d e51a 863d 9041 103d
00000390: c284 bd3d d2f1 133d e026 01bd 6b0e 183d
000003a0: da03 7cbd 7f94 b43d 987f 243e 0a61 ab3d
000003b0: d763 713d 8e65 ea3d 15de 183e 524f b03d
000003c0: 9dc2 99bd a308 563d 4709 e1bd 442d 193e
000003d0: bdb6 5d3b e6ab 6a3d 7913 8c3c 3b57 87bd
000003e0: bd37 19be 4e94 8abd 627e abbc fd8a 9bbc
000003f0: 462d 3b3d 110a 573d 7da5 d7bc 2d38 9dbd

net.4.bias f4 [256]
-0.07355345 0.07348748 0.077863954 0.00074282195 -0.07524579 0.026523031 -0.0017426634 -0.0062571843
-0.014901161 0.057312425 0.081884354 0.042887058 0.052254666 -0.07139497 0.031583816 0.040945847
0.002434007 -0.020988207 0.07401469 -0.065691575 0.020719886 0.06703353 0.03368149 0.05709012
0.066269994 0.011991168 -0.04776381 0.075774424 -0.067482136 0.004737497 0.06995677 -0.07572203
0.00467882 -0.045097128 -0.0034670494 -0.054288164 0.010884349 0.038296442 -0.051264167 -0.0713592
0.0373012 -0.02703959 0.06308337 0.057841964 -0.057623368 0.008359594 0.05914644 0.0077239955
-0.061056163 -0.04352889 -0.049899805 0.049456358 -0.06590676 0.05078796 -0.041698348 -0.028590715
0.042722877 0.09322603 -0.025609674 0.069715634 -0.016270185 0.054853912 0.03908982 0.03536539
0.083936706 -0.024164224 -0.066587284 -0.03465435 0.08972714 0.03269915 -0.060823377 0.08247713
-0.02993373 0.0021993055 -0.09781914 -0.038792875 0.050362095 0.029541215 0.078247815 -0.001487377
-0.06257887 -0.0013456495 0.011113713 -0.045873865 0.019351996 0.011287453 0.05236851 -0.06300951
-0.074338175 -0.07581929 0.06557594 -0.0035887694 -0.0063814255 -0.030341456 -0.024968542 -0.0635839
0.060040925 -0.061361007 -0.036342308 0.063354544 0.011684115 0.031748727 -0.05609266 -0.06577451
0.044964824 0.06999344 0.033248585 0.0069673904 0.07700236 0.087415785 -0.00080879265 -0.0030995044
0.05372294 0.041942045 0.08436975 0.01498193 -0.04399567 0.024648212 -0.079566516 0.07298264
-0.066846505 -0.05868231 -0.07476674 0.007710212 -0.014538866 -0.07010546 -0.046445563 -0.018331908
0.07160995 0.020857694 -0.019850058 0.059646226 -0.021729229 0.056005936 -0.00955476 0.023035862
-0.00437375 -0.06796746 0.023401191 -0.025452467 -0.047137257 0.09950604 -0.073246725 0.041241188
0.01154202 -0.0072801695 0.055307396 0.06630975 0.067215085 0.014903509 -0.006157275 0.0855754
-0.018237606 -0.06740616 -0.06029404 0.034291063 0.027004138 0.059325363 0.031781152 -0.053861585
-0.025948508 -0.010563107 -0.016878568 -0.04653628 -0.037571948 0.006892858 0.012488316 -0.07518104
0.051114812 0.0023432716 0.01845004 0.08214861 0.06927461 -0.08727713 0.07879825 0.07013528
0.028583182 -0.06833028 -0.025430804 -0.024841068 -0.07054696 0.044311073 -0.08704149 -0.0320232
-0.038094945 -0.058678254 -0.08591008 -0.04579297 -0.008737474 -0.065126956 0.076723024 -0.015368708
-0.06893968 0.044767644 0.01024131 0.042458482 0.07968337 -0.0022880628 0.002585586 -0.043343786
-0.10159764 0.027456101 -0.037642863 -0.06316093 -0.026175164 0.09777226 0.062706016 0.058386162
-0.0441355 0.03382538 0.034808055 0.08455169 -0.006717333 0.08840709 -0.014484109 -0.011649366
-0.0024958288 0.036855597 0.053565122 -0.024519395 -0.06919935 0.056111146 -0.027589101 -0.05322759
0.024021503 -0.059203632 -0.006801674 -0.054860383 -0.07213517 0.048240263 0.06635487 -0.059052885
-0.04891969 -0.07019092 0.034995433 0.02868275 0.029957049 -0.06233095 0.02239638 -0.069541365
-0.040545166 0.032632258 0.05826137 0.039401002 -0.025912123 0.010443755 -0.030077541 0.055361196
0.03846131 0.062022068 0.0145193385 -0.084487066 0.035704818 -0.055982403 -0.030556804 -0.010173918
00000000: 31a3 96bd 9b80 963d 2377 9f3d f0b9 423a
00000010: 771a 9abd d446 d93c 156a e4ba 1109 cdbb
00000020: 0024 74bc 6fc0 6a3d fcb2 a73d 57aa 2f3d
00000030: fd08 563d 8737 92bd 085e 013d d5b6 273d
00000040: dc83 1f3b 76ef abbc 0495 973d 4e89 86bd
00000050: c0bc a93c e048 893d 9af5 093d 54d7 693d
00000060: 90b8 873d 9b76 443c fca3 43bd 9f2f 9b3d
00000070: 1334 8abd 013d 9b3b 7f45 8f3d 2714 9bbd
00000080: c950 993b c4b7 38bd 7037 63bb 445d 5ebd
00000090: 4554 323c bbdc 1c3d 60fa 51bd c624 92bd
000000a0: 25c9 183d 2182 ddbc db31 813d b2eb 6c3d
000000b0: 7b06 6cbd aef6 083c 8a43 723d 9219 fd3b
000000c0: 0716 7abd 594b 32bd bd63 4cbd c092 4a3d
000000d0: 20fa 86bd 0907 503d e3cb 2abd 1337 eabc
000000e0: 2ffe 2e3d 4aed be3d 61cb d1bc 12c7 8e3d
000000f0: 0d49 85bc 7fae 603d a61c 203d 4ddb 103d
00000100: 02e7 ab3d 0df4 c5bc ea5e 88bd b8f1 0dbd
00000110: ddc2 b73d 8bef 053d ef21 79bd c5e9 a83d
00000120: 9537 f5bc 3922 103b 6755 c8bd 47e5 1ebd
00000130: 7c48 4e3d 6b00 f23c 6440 a03d 17f4 c2ba
00000140: 5a29 80bd 8160 b0ba 4a16 363c 3ce6 3bbd
00000150: 1488 9e3c 02ef 383c 5d80 563d 210b 81bd
00000160: 9d3e 98bd 2547 9bbd ae4c 863d 8f31 6bbb
00000170: 471b d1bb a58e f8bc d48a ccbc 4738 82bd
00000180: 79ed 753d ae55 7bbd acdb 14bd 07c0 813d
00000190: bb6e 3f3c f40a 023d 6bc1 65bd c9b4 86bd
000001a0: 092d 383d b858 8f3d ab2f 083d b54e e43b
000001b0: 6ab3 9d3d 0c07 b33d 2805 54ba 0e21 4bbb
000001c0: 960c 5c3d 6ccb 2b3d 0cca ac3d c576 753c
000001d0: ce34 34bd 0ceb c93c c5f3 a2bd ec77 953d
000001e0: d2e6 88bd dd5c 70bd 4e1f 99bd f2a5 fc3b
000001f0: 6c34 6ebc 7493 8fbd b43d 3ebd cc2c 96bc
00000200: 3da8 923d c1dd aa3c 979c a2bc 9a4f 743d
00000210: 7f01 b2bc 7b66 653d 918b 1cbc b4b5 bc3c
00000220: ad51 8fbb 8632 8bbd dbb3 bf3c b181 d0bc
00000230: ff12 41bd d3c9 cb3d 6102 96bd 85ec 283d
00000240: be1a 3d3c 7d8e eebb 028a 623d 68cd 873d
00000250: 10a8 893d d92d 743c f7c2 c9bb 2842 af3d
00000260: 0867 95bc 3e0c 8abd e2f6 76bd c974 0c3d
00000270: c837 dd3c 27ff 723d f42c 023d f79d 5cbd
00000280: f791 d4bc e210 2dbc ec44 8abc d49c 3ebd
00000290: 0be5 19bd 7cdd e13b cb9b 4c3c 84f8 99bd
000002a0: c45d 513d 9391 193b 8a24 973c 883d a83d
000002b0: d9df 8d3d 5abe b2bd fa60 a13d 16a3 8f3d
000002c0: 4727 ea3c bff0 8bbd 4354 d0bc 7f7f cbbc
000002d0: ed7a 90bd 877f 353d cf42 b2bd c22a 03bd
000002e0: 7209 1cbd 9c58 70bd a0f1 afbd 6991 3bbd
000002f0: 9f27 0fbc 4861 85bd f620 9d3d 09cd 7bbc
00000300: 3f30 8dbd 475e 373d 2bcb 273c f2e8 2d3d
00000310: 0931 a33d 53f3 15bb ef72 293b 4189 31bd
00000320: 6c12 d0bd 9eeb e03c 672f 1abd 855a 81bd
00000330: 4c6d d6bc d33c c83d 036c 803d 5426 6f3d
00000340: 6dc7 34bd 7b8c 0a3d e492 0e3d 7029 ad3d
00000350: 131d dcbb c70e b53d c24e 6dbc fbdc 3ebc
00000360: 0f91 23bb e5f5 163d 1a67 5b3d e6dc c8bc
00000370: 64b8 8dbd cdd4 653d 8a02 e2bc 2c05 5abd
00000380: bec8 c43c 827f 72bd 94e0 debb 48b5 60bd
00000390: 9bbb 93bd 9597 453d 10e5 873d 70e1 71bd
000003a0: 0360 48bd 42c0 8fbd 5f57 0f3d 16f8 ea3c
000003b0: 7c68 f53c bd4e 7fbd 9d78 b73c b46b 8ebd
000003c0: b012 26bd 67a9 053d 79a3 6e3d f262 213d
000003d0: a945 d4bc 491c 2b3c 2d65 f6bc 6cc2 623d
000003e0: 9b89 1d3d da0a 7e3d 85e2 6d3c 8e07 adbd
000003f0: 373f 123d ce4d 65bd 4352 fabc 81b0 26bc

net.6.weight f4 [2, 256]
0.16058294 0.17340861 0.1965925 0.1657517 0.14464009 0.12937027 -0.040976916 0.00045490265
-0.06615923 -0.15328121 -0.14156659 -0.107276805 0.18188363 -0.113681436 0.00023883129 -0.05468761
0.15298995 -0.031192744 0.080856755 -0.06175579 0.13162608 0.15842634 -0.06470251 0.015159673
0.17186052 0.18739039 -0.12183896 -0.058303677 -0.12473174 0.1969012 0.11503562 0.015210941
-0.13097596 -0.09287572 0.15151972 0.17336093 0.18873465 0.12633005 0.09161768 0.19716406
-0.105290286 0.19075233 -0.06543342 -0.067265615 -0.032341193 -0.10817503 0.11763165 -0.10255933
0.19800502 0.116735145 0.10204354 0.17515142 0.013516959 -0.03373771 0.09850968 0.12996529
-0.09979222 -0.110381834 0.16879182 0.15853038 -0.11609628 0.15273485 0.10245983 0.18041456
0.11973628 0.15408678 0.011005866 0.03432484 -0.11750558 0.12744632 0.060922276 0.12352963
-0.06681504 0.1551952 0.11216743 -0.0025091395 0.09672408 -0.05011862 -0.15137358 0.10581741
0.17275447 0.14593016 0.10439043 -0.14948136 0.20265579 -0.1389843 0.1651485 0.009350125
-0.0538622 -0.049395837 -0.06636691 -0.09044481 -0.003793281 0.10039043 0.10382237 -0.036106464
-0.018462777 0.16851874 0.16586539 -0.09599806 0.11966519 -0.029995315 0.12065241 0.116399825
0.030622674 0.029991692 0.093139686 0.048106927 0.18161982 0.15805668 0.07243198 0.12086225
0.15482496 -0.029416583 0.12523195 0.17698821 -0.033242658 0.14770584 -0.16084883 0.15319572
0.12530844 -0.0326628 0.06636615 -0.07414902 0.18912297 0.056045983 -0.004583843 0.15332966
0.041694343 0.19402005 0.12836522 0.14097711 -0.053597838 -0.09930654 -0.14610663 0.016926926
-0.15033366 -0.022761717 0.07957625 0.19273895 0.114897884 -0.0783123 0.002303869 0.06976548
0.18074068 -0.15545984 0.17220947 0.10796527 -0.12078656 -0.12876104 0.13528444 0.14983094
-0.023473501 -0.15344818 0.103276715 0.13398957 0.09471525 0.16573694 -0.14783004 0.022970693
0.047166348 0.15698464 -0.15602006 0.10374604 -0.010424719 0.13789165 0.1827551 0.11458098
0.052908767 -0.14569253 0.14718582 0.15531665 0.14605598 0.16687822 -0.10073894 0.07313964
-0.16176717 -0.18523224 -0.038863022 0.15099461 0.19887054 -0.1650073 0.0035718605 0.17202441
-0.13659412 -0.021442965 0.17445752 -0.04293215 -0.13328488 0.09543599 0.1353467 0.118738994
-0.119068 0.019159224 0.1468973 0.1309566 -0.06913361 -0.06352202 -0.15308473 0.19680509
-0.08380936 0.18220696 0.16703999 0.15888822 -0.040692165 -0.12131054 0.1893957 0.020375853
0.13736124 0.09893444 0.034298398 0.070960335 -0.03630048 -0.14520158 0.18031657 -0.18428808
-0.00859953 0.21272096 0.14929931 0.1866643 0.1523505 -0.09935182 0.20151679 -0.08958217
-0.117113106 -0.0891806 -0.07109727 -0.06343467 0.1818025 -0.18866767 0.12947915 -0.04422865
0.0053206533 0.05209293 -0.1429209 -0.15545465 0.1471174 0.17071742 0.116296515 0.09306225
0.19602491 0.11687834 -0.12126997 0.09496781 0.17220137 -0.16029961 0.09434973 0.17716983
0.06755249 -0.10754284 -0.056459833 0.14126925 -0.13400297 -0.07108361 0.18962575 -0.092603914
00000000: db6f 243e 0792 313e 8b4f 493e d0ba 293e
00000010: 881c 143e a479 043e 69d7 27bd 0080 ee39
00000020: 7e7e 87bd c0f5 1cbe d5f6 10be f1b3 dbbd
00000030: b43f 3a3e d0d1 e8bd c96e 7a39 1e00 60bd
00000040: 66a9 1c3e ed87 ffbc 3a98 a53d a4f3 7cbd
00000050: fdc8 063e 843a 223e c082 84bd 4760 783c
00000060: 34fc 2f3e 44e3 3f3e b486 f9bd d6cf 6ebd
00000070: 5b73 ffbd 78a0 493e cc97 eb3d 5037 793c
00000080: 901e 06be a035 bebd fc27 1b3e 8785 313e
00000090: a843 413e aa5c 013e 0da2 bb3d 60e5 493e
000000a0: 6fa2 d7bd 9454 433e f501 86bd 8ec2 89bd
000000b0: 3378 04bd df8a ddbd dde8 f03d a00a d2bd
000000c0: d4c1 4a3e d612 ef3d 34fc d03d e55a 333e
000000d0: 3c76 5d3c 8e30 0abd 71bf c93d 9f15 053e
000000e0: dd5f ccbd df0f e2bd c3d7 2c3e ca55 223e
000000f0: e3c3 edbd 8666 1c3e 76d6 d13d 98be 383e
00000100: 4b38 f53d edc8 1d3e f351 343c 3498 0c3d
00000110: c4a6 f0bd 4a81 023e a389 793d 1afd fc3d
00000120: 53d6 88bd 7eeb 1e3e 0ab8 e53d 6070 24bb
00000130: 4617 c63d 2f49 4dbd ad01 1bbe ccb6 d83d
00000140: 8ce6 303e b76e 153e a6ca d53d a411 19be
00000150: 0085 4f3e e651 0ebe b01c 293e 4431 193c
00000160: 9c9e 5cbd 4a53 4abd 60eb 87bd 213b b9bd
00000170: b298 78bb 7f99 cd3d d3a0 d43d 5fe4 13bd
00000180: 403f 97bc 2d90 2c3e 9ed8 293e a29a c4bd
00000190: 0613 f53d bcb8 f5bc 9c18 f73d 0863 ee3d
000001a0: 67dc fa3c 23b1 f53c 05c0 be3d c50b 453d
000001b0: 8cfa 393e 9cd9 213e 3857 943d a186 f73d
000001c0: 6f8a 1e3e 0cfb f0bc ce3c 003e 663c 353e
000001d0: 7429 08bd 3340 173e 8eb5 24be 57df 1c3e
000001e0: db50 003e 6ec9 05bd faea 873d 71db 97bd
000001f0: 74a9 413e 7990 653d 1034 96bb 7302 1d3e
00000200: b0c7 2a3d 31ad 463e 2c72 033e 4e5c 103e
00000210: 6889 5bbd 3a61 cbbd fa9c 15be 56aa 8a3c
00000220: 11f1 19be c876 babc dff8 a23d 5c5d 453e
00000230: 954f eb3d 3362 a0bd 82fc 163b 34e1 8e3d
00000240: 1614 393e dd30 1fbe ae57 303e e51c dd3d
00000250: f25e f7bd efd9 03be 0188 0a3e 486d 193e
00000260: 804b c0bc 8521 1dbe be82 d33d 9034 093e
00000270: 12fa c13d f2b6 293e c260 17be 092d bc3c
00000280: 8031 413d 95c0 203e b9c3 1fbe ce78 d43d
00000290: 71cc 2abc 7833 0d3e 2724 3b3e 6fa9 ea3d
000002a0: ddb6 583d 6c30 15be e1b7 163e 540b 1f3e
000002b0: b38f 153e 20e2 2a3e 3850 cebd 3cca 953d
000002c0: 4ba6 25be 85ad 3dbe d52e 1fbd 559e 1a3e
000002d0: b8a4 4b3e acf7 28be e015 6a3b 2b27 303e
000002e0: 54df 0bbe 28a9 afbc fea4 323e 9fd9 2fbd
000002f0: d57b 08be f273 c33d 5398 0a3e 6e2d f33d
00000300: ecd9 f3bd cef3 9c3c 3f6c 163e 7d19 063e
00000310: ec95 8dbd d517 82bd 3ec2 1cbe 4687 493e
00000320: 3ea4 abbd 7694 3a3e 880c 2b3e 98b3 223e
00000330: d4ac 26bd a971 f8bd f2f0 413e 43eb a63c
00000340: 6da8 0c3e 249e ca3d 7a7c 0c3d a753 913d
00000350: d0af 14bd b9af 14be e8a4 383e 04b6 3cbe
00000360: 0be5 0cbc 86d3 593e ebe1 183e ed24 3f3e
00000370: c501 1c3e f878 cbbd 6b5a 4e3e db76 b7bd
00000380: ffd8 efbd 52a4 b6bd 729b 91bd 09ea 81bd
00000390: 6f2a 3a3e 1932 41be 2f96 043e 1a29 35bd
000003a0: e058 ae3b 655f 553d db59 12be 812f 1fbe
000003b0: f2a5 163e 8cd0 2e3e de2c ee3d 6c97 be3d
000003c0: c1ba 483e e95d ef3d 645c f8bd 7c7e c23d
000003d0: 8e55 303e 9525 24be 6e3a c13d 026c 353e
000003e0: f658 8a3d 6c3f dcbd 6d42 67bd e3a8 103e
000003f0: 1338 09be 4994 91bd 412d 423e 1fa7 bdbd

net.6.bias f4 [2]
0.03336222 -0.026905501
00000000: d3a6 083d ed68 dcbc

exp_avg f4 [64, 2]
2.6840053e-05 1.4261559e-05 7.5816583e-06 3.2807828e-05 -3.4380762e-05 4.523761e-05 -5.848521e-05 3.9372502e-05
-4.9940973e-06 1.2766465e-07 4.14982e-06 -7.828935e-06 -5.333137e-07 -3.4042145e-07 3.897235e-05 -4.5707802e-05
-1.36355375e-05 5.028503e-06 -6.4943733e-06 -1.187957e-06 -2.718509e-05 3.731408e-05 2.2436614e-06 -7.5571998e-06
1.0036625e-07 2.3308237e-08 1.0911319e-05 -1.5045554e-06 2.7777107e-06 -4.6216846e-06 -1.4108907e-06 1.9625464e-05
1.1284599e-05 -6.8550207e-06 6.287028e-08 6.024263e-08 5.1032674e-07 -1.0144635e-05 3.3612657e-06 6.0496545e-06
3.6293022e-07 5.0974944e-07 -6.267391e-06 -7.949138e-06 -4.9059953e-08 -8.859999e-07 -7.095392e-06 2.724933e-07
2.8896268e-06 4.942281e-06 -7.135966e-08 1.37459065e-05 -9.071647e-08 2.3031637e-08 -9.646716e-07 1.0123297e-05
7.782423e-06 -2.4052287e-07 -2.8284707e-05 3.732821e-05 0.0001651831 -1.4870629e-05 1.7434668e-07 -7.9971205e-06
4.0518257e-06 -8.052299e-06 9.438079e-06 -4.127704e-06 -6.7796036e-06 1.1423404e-06 3.3057704e-06 5.906365e-06
7.1064726e-08 4.6705416e-08 7.0515107e-06 -3.2274496e-05 1.5479375e-06 2.1338333e-06 -6.0789127e-05 -5.5324203e-06
8.1902464e-05 -0.0001567573 1.4000967e-07 -3.1403406e-08 -4.4567914e-05 -7.0784704e-06 1.0080583e-06 -6.1715394e-07
-1.2192615e-05 -7.995569e-06 5.4131783e-06 -6.421831e-06 1.4619867e-07 5.733396e-06 -1.5737277e-06 -1.7018059e-06
-3.4620566e-08 6.760896e-08 2.0884224e-08 -4.0852942e-08 5.0104994e-08 -8.5091024e-08 9.312205e-07 1.0600709e-05
-7.087238e-06 3.2938922e-05 -7.751387e-08 -8.127388e-08 3.9823655e-05 1.813576e-05 6.9625617e-06 -1.3310838e-05
-4.3699315e-06 6.5473305e-06 2.9262367e-06 -8.161278e-07 -2.6606356e-06 -1.037698e-05 6.296856e-08 4.0804185e-08
-1.1492017e-05 3.5795576e-06 8.887053e-06 3.8458747e-06 -1.0149748e-05 3.1984382e-06 -0.00014699428 -8.620919e-07
00000000: 9326 e137 ee44 6f37 f365 fe36 239b 0938
00000010: 1034 10b8 84bd 3d38 044e 75b8 e723 2538
00000020: f892 a7b6 3114 0934 af3e 8b36 0559 03b7
00000030: 0a29 0fb5 2bc3 b6b4 3e76 2338 61b6 3fb8
00000040: 30c4 64b7 83ba a836 3eea d9b6 e471 9fb5
00000050: 890b e4b7 b081 1c38 cf91 1636 da93 fdb6
00000060: ee88 d733 5b37 c832 c20f 3737 21f0 c9b5
00000070: b568 3a36 f813 9bb6 d65d bdb5 5da1 a437
00000080: fc52 3d37 2e04 e6b6 4d03 8733 bc5e 8133
00000090: 63fd 0835 e032 2ab7 1b92 6136 23fe ca36
000000a0: c0d8 c234 b7d5 0835 7b4c d2b6 4a5d 05b7
000000b0: fdb5 52b3 73d5 6db5 f414 eeb6 324b 9234
000000c0: 69eb 4136 dfd5 a536 633e 99b3 389e 6637
000000d0: e8cf c2b3 1bd7 c532 dd79 81b5 3bd7 2937
000000e0: 4191 0237 3621 81b4 f244 edb7 dc90 1c38
000000f0: 0035 2d39 dd7c 79b7 0d34 3b34 5f2b 06b7
00000100: ebf4 8736 5c18 07b7 3e58 1e37 b580 8ab6
00000110: 5a7c e3b6 8452 9935 b4d8 5d36 4a2f c636
00000120: 3f9c 9833 2699 4833 049c ec36 7a5e 07b8
00000130: bac2 cf35 fa32 0f36 d4f7 7eb8 21a3 b9b6
00000140: 0dc3 ab38 385f 24b9 9155 1634 69e0 06b3
00000150: 6fee 3ab8 9983 edb6 9f4c 8735 7faa 25b5
00000160: e28e 4cb7 b524 06b7 d9a2 b536 1c7b d7b6
00000170: c9fa 1c34 7f61 c036 df38 d3b5 9b69 e4b5
00000180: b7b1 14b3 6b30 9133 e564 b332 4976 2fb3
00000190: 0633 5733 49bb b6b3 fcf8 7935 b3d9 3137
000001a0: e9ce edb6 e627 0a38 b375 a6b3 ca88 aeb3
000001b0: 5308 2738 3f22 9837 f39f e936 9d51 5fb7
000001c0: 6da1 92b6 24b1 db36 5d60 4436 e013 5bb5
000001d0: 5f8d 32b6 ca18 2eb7 5539 8733 ad40 2f33
000001e0: d6cd 40b7 5538 7036 9a19 1537 d00b 8136
000001f0: d648 2ab7 c0a4 5636 7a22 1ab9 816a 67b5

exp_avg_sq f4 [64, 2]
7.693228e-09 1.3157376e-09 3.849632e-10 9.962783e-10 1.4745702e-09 2.3594817e-09 1.1208552e-09 8.3856216e-10
5.4667052e-11 7.853657e-11 1.2203172e-10 1.6586957e-10 2.1870426e-10 2.40984e-10 1.53421e-09 2.043211e-09
1.8967307e-10 1.4106182e-10 2.2123865e-10 3.0074138e-10 1.0897022e-09 1.6163564e-09 1.8023273e-10 1.08498814e-10
2.846231e-14 7.380983e-15 2.1616015e-10 1.0506083e-10 1.9865327e-10 5.5491495e-10 1.0783811e-10 3.5518205e-10
3.6107464e-10 8.1792223e-10 2.0320773e-14 1.5818476e-14 1.9807792e-10 1.5057839e-09 7.8120434e-11 9.336043e-11
4.030337e-10 1.6345296e-10 1.5713601e-10 9.7253e-11 5.168245e-14 2.8012742e-12 9.661056e-11 9.2507405e-11
2.0258491e-10 1.6461618e-10 5.547998e-11 2.5440444e-10 2.0933449e-14 1.0945206e-14 2.6363012e-10 1.5875078e-10
2.4724256e-10 3.750447e-10 7.51193e-10 1.6471493e-09 1.6710926e-08 1.452829e-10 1.1445388e-10 1.5997378e-10
1.1992047e-11 4.7271107e-11 2.0833466e-10 3.894069e-10 1.9860451e-10 2.8265307e-10 1.764302e-10 2.2051715e-10
1.931511e-14 2.8986406e-14 6.373877e-10 2.1442053e-09 1.7547876e-10 3.3428538e-10 3.7971404e-09 8.9175045e-10
8.0388105e-09 2.0947839e-08 2.3172175e-14 1.0792545e-14 1.9826303e-09 9.7184615e-11 8.060346e-13 1.3590734e-12
3.5540976e-10 3.617842e-10 2.0339773e-10 7.0649536e-10 1.8784016e-10 1.15534596e-10 3.762139e-12 7.427228e-12
1.9057757e-14 1.867626e-14 9.901314e-15 1.298109e-14 2.7802135e-14 1.7618184e-14 1.6010271e-10 3.9649659e-10
3.9670842e-10 5.8684546e-10 2.0594066e-14 2.1016432e-14 6.4728334e-10 4.5652412e-10 1.12107205e-10 3.2508915e-10
1.5521234e-10 9.235009e-11 2.598575e-10 1.7314872e-10 1.463411e-10 1.2601895e-10 1.9041141e-14 9.7201715e-15
2.3153049e-10 1.1986627e-10 2.2695762e-10 1.4816749e-10 2.0144907e-10 4.4900678e-10 1.2418695e-08 1.926046e-10
00000000: 2d2b 0432 67d5 b430 c1a2 d32f 6ded 8830
00000010: d4a9 ca30 7124 2231 960c 9a30 9180 6630
00000020: a16d 702e 29b4 ac2e e02c 062f 2260 362f
00000030: c777 702f 7c7b 842f 37dc d230 8c68 0c31
00000040: 398c 502f 5f19 1b2f 2541 732f 9655 a52f
00000050: 7dc4 9530 7c26 de30 012b 462f 6797 ee2e
00000060: cf2e 0029 c7f6 0428 acab 6d2f fd07 e72e
00000070: ed6b 5a2f ab88 1830 7623 ed2e 6e43 c32f
00000080: bd80 c62f 29d4 6030 8308 b728 ec7a 8e28
00000090: fac9 592f 10f4 ce30 e5c9 ab2e 404d cd2e
000000a0: f391 dd2f ebb7 332f dbc5 2c2f 92dc d52e
000000b0: cfc1 6829 451f 452c e972 d42e 0a6d cb2e
000000c0: 95be 5e2f 56ff 342f e800 742e 3edc 8b2f
000000d0: 3f8d bc28 da2b 4528 a4ee 902f 5f8c 2e2f
000000e0: 4cec 872f d92e ce2f 827c 4e30 ea61 e230
000000f0: b78b 8f32 80bd 1f2f ceaf fb2e 9ee4 2f2f
00000100: 61f7 522d 89e6 4f2e fe10 652f 2614 d62f
00000110: 335e 5a2f e263 9b2f b0fc 412f 0f76 722f
00000120: 9df9 ad28 0d8b 0229 2c34 2f30 4259 1331
00000130: e1f0 402f 7cc6 b72f 0078 8231 5c1f 7530
00000140: 101b 0a32 c9f0 b332 66b7 d028 d46b 4228
00000150: cd3e 0831 13b6 d52e eae0 622b c845 bf2b
00000160: 7a63 c32f 9ae4 c62f 5fa3 5f2f 3133 4230
00000170: 4e88 4e2f 3210 fe2e 565e 842c 43a9 022d
00000180: 32a8 ab28 8638 a828 c05d 3228 b6d8 6928
00000190: 5c6b fa28 c4b0 9e28 e808 302f eff9 d92f
000001a0: bf17 da2f 944f 2130 af7e b928 984c bd28
000001b0: 84ec 3130 0ffa fa2f bf86 f62e 3bb8 b22f
000001c0: 64a8 2a2f 7b14 cb2e b1db 8e2f 0861 3e2f
000001d0: 5ce7 202f 2e8f 0a2f e281 ab28 611a 2f28
000001e0: 0a92 7e2f 5bcb 032f e48a 792f 71e9 222f
000001f0: df7e 5d2f 16d8 f62f 005a 5532 60c5 532f

exp_avg f4 [64]
-3.3787168e-05 7.827803e-05 5.5117678e-05 8.3084145e-05 3.0537105e-06 9.346542e-06 -8.139294e-06 1.25479655e-05
6.7929427e-06 -4.006872e-06 7.872081e-05 6.216484e-06 -2.9496934e-09 -8.566797e-06 -5.8720425e-06 -4.876342e-06
7.6016963e-06 9.0990975e-09 2.4885487e-06 -9.222774e-06 -7.955431e-06 3.7018588e-06 -1.3672428e-06 5.007484e-06
-1.3891085e-05 -1.8933693e-05 -9.734323e-08 1.15885264e-07 3.6418328e-06 1.2690905e-05 -0.00026157565 1.227508e-05
-8.986673e-06 -1.0589948e-05 2.3246048e-06 -9.497841e-06 1.4906897e-07 -7.088646e-06 1.5950936e-05 -3.193323e-05
-8.862214e-05 -1.8703342e-07 -0.00010477348 -8.978118e-07 -1.7085451e-05 1.0331999e-05 6.2991826e-06 -1.3046133e-06
-2.6805909e-08 5.0503903e-08 1.09796225e-07 -2.0066143e-05 -3.160717e-05 1.0242335e-07 -9.575914e-05 -6.32886e-06
-4.0389014e-06 -6.4281803e-06 -1.480342e-06 4.5531785e-08 7.6103366e-05 1.1390545e-06 3.7913403e-06 0.0001412997
00000000: b2b6 0db8 3329 a438 282e 6738 763d ae38
00000010: 59ee 4c36 18cf 1c37 008e 08b7 1a85 5237
00000020: efee e336 c572 86b6 ea16 a538 3197 d036
00000030: 8eb3 4ab1 1dba 0fb7 7608 c5b6 759f a3b6
00000040: 1312 ff36 4152 1c32 f100 2736 83bb 1ab7
00000050: 5178 05b7 736d 7836 1b82 b7b5 f605 a836
00000060: c10d 69b7 ccd3 9eb7 020b d1b3 99dc f833
00000070: 3666 7436 06eb 5437 1724 89b9 11f1 4d37
00000080: 77c5 16b7 7bab 31b7 6800 1c36 eb58 1fb7
00000090: c40f 2034 01db edb6 60ce 8537 0bf0 05b8
000000a0: a6da b9b8 5bd3 48b4 d5b9 dbb8 2801 71b5
000000b0: ba52 8fb7 9957 2d37 915d d336 2c1a afb5
000000c0: d142 e6b2 a1e9 5833 1dc9 eb33 b753 a8b7
000000d0: f191 04b8 d5f3 db33 4cd2 c8b8 7e5c d4b6
000000e0: e685 87b6 a6b1 d7b6 2ab0 c6b5 ba8e 4333
000000f0: af99 9f38 9de1 9835 bb6e 7e36 d929 1439

exp_avg_sq f4 [64]
1.2394044e-08 1.0004973e-08 3.4383444e-08 2.316866e-09 1.7521427e-10 1.3368715e-08 1.8088213e-09 4.2434124e-08
3.4245032e-10 3.0252008e-09 4.5688303e-08 2.512955e-08 1.2850224e-13 4.755791e-09 2.7131971e-08 7.5657836e-10
1.0442217e-07 1.1539474e-13 9.561299e-08 4.5021872e-10 1.0140526e-08 3.6594077e-09 1.6059752e-11 4.5189485e-10
2.7226417e-09 9.957296e-10 6.366589e-13 8.442217e-09 8.2628775e-09 8.120781e-09 4.3768885e-08 3.7582193e-08
6.3499844e-11 6.6224106e-09 7.7047474e-10 1.12411405e-08 2.2511523e-13 5.3510647e-08 1.5735361e-09 2.8737407e-08
8.127273e-09 8.983415e-13 1.0915845e-08 1.3491701e-11 1.15349e-08 4.9746083e-09 1.4267747e-09 1.8092451e-11
7.4644006e-14 3.6050175e-13 1.0599823e-12 4.6543045e-09 1.492631e-08 7.3745724e-13 4.090518e-08 1.0408746e-09
4.930476e-09 1.8330727e-09 3.8939676e-10 9.826788e-14 3.997905e-09 9.930601e-09 1.4809673e-09 1.02087645e-08
00000000: 95ed 5432 56e2 2b32 ffac 1333 bd36 1f31
00000010: 6fa6 402f 3bac 6532 3e9a f830 d040 3633
00000020: 9943 bc2f e5e3 4f31 d23a 4433 77dc d732
00000030: 40ae 102a 6168 a331 d60f e932 78f7 4f30
00000040: b23e e033 45ec 012a cc53 cd33 a782 f72f
00000050: 8136 2e32 fb78 7b31 5943 8d2d 8c6e f82f
00000060: 3819 3b31 1fda 8830 1c34 332b 4309 1132
00000070: 85f4 0d32 9383 0b32 66fc 3b33 0f6a 2133
00000080: 3ca3 8b2e 578b e331 57c9 5330 0f1f 4132
00000090: 0c75 7d2a 94d3 6533 e143 d830 3ada f632
000000a0: 20a0 0b32 54dc 7c2b 6588 3b32 3859 6d2d
000000b0: 072b 4632 1eed aa31 2c18 c430 9424 9f2d
000000c0: 5715 a829 c7f1 ca2a e32d 952b b2eb 9f31
000000d0: 4e37 8032 6593 4f2b b9af 2f33 850e 8f30
000000e0: ed68 a931 83ef fb30 b912 d62f 9347 dd29
000000f0: f25d 8931 3f9b 2a32 e88a cb30 9f62 2f32

exp_avg f4 [128, 64]
0.0 0.0 0.0 0.0 0.0 0.0 0.0 0.0
0.0 0.0 0.0 0.0 0.0 0.0 0.0 0.0
0.0 0.0 0.0 0.0 0.0 0.0 0.0 0.0
0.0 0.0 0.0 0.0 0.0 0.0 0.0 0.0
0.0 0.0 0.0 0.0 0.0 0.0 0.0 0.0
0.0 0.0 0.0 0.0 0.0 0.0 0.0 0.0
0.0 0.0 0.0 0.0 0.0 0.0 0.0 0.0
0.0 0.0 0.0 0.0 0.0 0.0 0.0 0.0
-8.18332e-07 2.8299253e-06 -6.5465565e-06 -2.6579794e-06 -2.4907795e-08 3.9736083e-06 2.127105e-06 -1.8970772e-05
5.639853e-09 1.346019e-06 -6.156273e-06 2.4852836e-06 -3.9131303e-09 -4.0118476e-07 3.525054e-06 -1.1842805e-05
-3.1306377e-07 -4.0912795e-08 9.019145e-07 5.8952082e-06 1.5141026e-06 5.684973e-07 9.8324925e-08 -1.7253873e-08
-7.661846e-07 8.854603e-07 -3.243253e-08 1.0720636e-06 3.2815951e-06 -8.875839e-06 -1.0850663e-05 1.744552e-06
-2.546109e-07 3.135906e-06 4.3241693e-07 1.3929754e-06 5.4365943e-09 4.645376e-06 3.0378774e-07 6.4397877e-06
-1.1878548e-06 -5.2552624e-09 4.025849e-06 -1.8991372e-07 -1.4374001e-05 4.465795e-07 2.2738332e-07 1.5651462e-08
3.100411e-09 -1.532993e-08 1.8425554e-09 2.8735187e-06 3.9146275e-06 -3.6642742e-08 7.197589e-06 -1.6096377e-05
1.7632997e-06 3.7699708e-06 -8.9697966e-10 -3.4440536e-08 6.764427e-06 -2.0305379e-07 -1.510781e-07 2.5578336e-06
4.2043385e-07 -1.2767848e-06 1.5969161e-06 1.3742857e-06 -3.728654e-07 -2.1942817e-06 -7.594126e-07 1.13286405e-05
3.6777787e-09 5.5156914e-07 1.963661e-06 1.0059125e-06 -3.4167023e-08 2.8205002e-06 -4.5505365e-07 6.7733386e-06
-6.862025e-07 1.7519733e-08 5.9393665e-07 -4.3546434e-06 -4.8001937e-07 2.2080778e-06 -8.3721616e-08 6.0130077e-07
3.022836e-07 -4.3253985e-07 1.0356873e-08 2.9062971e-06 -3.9170895e-06 4.1686644e-06 4.164039e-06 2.2974173e-06
7.986307e-08 -3.4452344e-06 3.4100774e-06 -8.335025e-07 -5.651498e-08 -3.7557525e-06 -6.580664e-08 -1.3227087e-06
7.5951465e-07 -8.775062e-09 3.0175156e-06 4.4163496e-08 8.707852e-06 -7.33858e-07 3.4218983e-06 8.6623775e-09
-4.1015927e-08 -2.4458927e-08 -3.9418264e-08 -3.890669e-06 -2.0549908e-06 1.6653987e-08 -1.7040172e-06 9.7426355e-06
9.969897e-08 -2.0531686e-06 1.4833365e-07 1.4584924e-08 -4.5193383e-06 4.4032836e-06 4.2757038e-06 -1.5703073e-06
0.0 0.0 0.0 0.0 0.0 0.0 0.0 0.0
0.0 0.0 0.0 0.0 0.0 0.0 0.0 0.0
0.0 0.0 0.0 0.0 0.0 0.0 0.0 0.0
0.0 0.0 0.0 0.0 0.0 0.0 0.0 0.0
0.0 0.0 0.0 0.0 0.0 0.0 0.0 0.0
0.0 0.0 0.0 0.0 0.0 0.0 0.0 0.0
0.0 0.0 0.0 0.0 0.0 0.0 0.0 0.0
0.0 0.0 0.0 0.0 0.0 0.0 0.0 0.0
00000000: 0000 0000 0000 0000 0000 0000 0000 0000
00000010: 0000 0000 0000 0000 0000 0000 0000 0000
00000020: 0000 0000 0000 0000 0000 0000 0000 0000
00000030: 0000 0000 0000 0000 0000 0000 0000 0000
00000040: 0000 0000 0000 0000 0000 0000 0000 0000
00000050: 0000 0000 0000 0000 0000 0000 0000 0000
00000060: 0000 0000 0000 0000 0000 0000 0000 0000
00000070: 0000 0000 0000 0000 0000 0000 0000 0000
00000080: 0000 0000 0000 0000 0000 0000 0000 0000
00000090: 0000 0000 0000 0000 0000 0000 0000 0000
000000a0: 0000 0000 0000 0000 0000 0000 0000 0000
000000b0: 0000 0000 0000 0000 0000 0000 0000 0000
000000c0: 0000 0000 0000 0000 0000 0000 0000 0000
000000d0: 0000 0000 0000 0000 0000 0000 0000 0000
000000e0: 0000 0000 0000 0000 0000 0000 0000 0000
000000f0: 0000 0000 0000 0000 0000 0000 0000 0000
00000100: 59ab 5bb5 bfe9 3d36 7eaa dbb6 bd5f 32b6
00000110: d2f4 d5b2 0955 8536 63bf 0e36 6c23 9fb7
00000120: acc8 c131 dca8 b435 fb91 ceb6 d9c8 2636
00000130: 4274 86b1 6a62 d7b4 f78f 6c36 76b0 46b7
00000140: 2813 a8b4 18b8 2fb3 181b 7235 74cf c536
00000150: 2b38 cb35 d69a 1835 b326 d333 ab35 94b2
00000160: ceab 4db5 5eb0 6d35 f24b 0bb3 d3e3 8f35
00000170: 6039 5c36 70e9 14b7 3e0b 36b7 5a26 ea35
00000180: 75b1 88b4 7472 5236 ee26 e834 45f6 ba35
00000190: cacc ba31 7adf 9b36 4518 a334 5b15 d836
000001a0: 616e 9fb5 c791 b4b1 c815 8736 16eb 4bb4
000001b0: dd27 71b7 6bc1 ef34 a726 7434 ee71 8632
000001c0: 020f 5531 dfae 83b2 283d fd30 add6 4036
000001d0: 655a 8336 1f61 1db3 d282 f136 b506 87b7
000001e0: 84aa ec35 9bff 7c36 558f 76b0 c5eb 13b3
000001f0: fcf9 e236 0007 5ab4 0838 22b4 3fa7 2b36
00000200: fdb7 e134 fe5d abb5 9f55 d635 1974 b835
00000210: 3b2e c8b4 7941 13b6 70da 4bb5 2410 3e37
00000220: 2bbc 7c31 8b0f 1435 70c7 0336 e402 8735
00000230: 0abf 12b3 d347 3d36 194e f4b4 8946 e336
00000240: 7a33 38b5 4d7e 9632 046f 1f35 1a1e 92b6
00000250: aeda 00b5 7d2e 1436 72ca b3b3 1369 2135
00000260: 8b49 a234 d337 e8b4 02ee 3132 ce09 4336
00000270: 8b6f 83b6 8ee0 8b36 d3b8 8b36 542d 1a36
00000280: 3081 ab33 ad34 67b6 afd8 6436 dbbd 5fb5
00000290: e1ba 72b3 560b 7cb6 9551 8db3 ed87 b1b5
000002a0: 73e1 4b35 21c1 16b2 8680 4a36 47ae 3d33
000002b0: f117 1237 56fe 44b5 c4a3 6536 8ad1 1432
000002c0: 7d29 30b3 c019 d2b2 d74c 29b3 988c 82b6
000002d0: 79e8 09b6 810e 8f32 96b5 e4b5 4d74 2337
000002e0: 171a d633 2bc9 09b6 a545 1f34 2d91 7a32
000002f0: d2a4 97b6 ebbf 9336 0478 8f36 59c3 d2b5
00000300: 0000 0000 0000 0000 0000 0000 0000 0000
00000310: 0000 0000 0000 0000 0000 0000 0000 0000
00000320: 0000 0000 0000 0000 0000 0000 0000 0000
00000330: 0000 0000 0000 0000 0000 0000 0000 0000
00000340: 0000 0000 0000 0000 0000 0000 0000 0000
00000350: 0000 0000 0000 0000 0000 0000 0000 0000
00000360: 0000 0000 0000 0000 0000 0000 0000 0000
00000370: 0000 0000 0000 0000 0000 0000 0000 0000
00000380: 0000 0000 0000 0000 0000 0000 0000 0000
00000390: 0000 0000 0000 0000 0000 0000 0000 0000
000003a0: 0000 0000 0000 0000 0000 0000 0000 0000
000003b0: 0000 0000 0000 0000 0000 0000 0000 0000
000003c0: 0000 0000 0000 0000 0000 0000 0000 0000
000003d0: 0000 0000 0000 0000 0000 0000 0000 0000
000003e0: 0000 0000 0000 0000 0000 0000 0000 0000
000003f0: 0000 0000 0000 0000 0000 0000 0000 0000
