new_saved_models/v2_n1e6_gmm_sk1000.pt (torch, 529309 bytes, 24 tensors)

net.0.weight f4 [64, 2]
00000000: b24f 683e 4e98 e43d c39a 3cbe 764d b43e
00000010: a2d5 18be 16c9 823e 1124 ba3e 5221 0ebf
00000020: 20f6 223f c6eb 2a3f 22cd 153f 2132 c0be
00000030: 8bee 3c3f 2509 36bf 13f1 e7be 9262 2f3f
00000040: dcfa 51be edfe 2d3f 661b 033f 3d65 813e
00000050: 1f25 0dbf 6427 3fbf 77df 19bf de3f 363e
00000060: 4363 213f c065 d9bd 8f95 1bbe 384d 29bf
00000070: 5fb4 743d c221 4c3d b4e7 7ebe afc6 0fbf
00000080: 913d 473f a76f f03e 9070 11bf 369f 29be
00000090: b960 433c 485a 9a3e fccf 31be 8f30 403f
000000a0: 5c92 a73e 770e 863d 0f58 25bf 2fa1 583e
000000b0: 03f5 0e3f 00b5 1a3e 256b ed3d 2a28 e83e
000000c0: b61d 51bf 495d 95bd 66be 0b3f 2748 e4be
000000d0: 9d71 38bf 7657 963e 37f2 103f fdbb 243f
000000e0: c369 3c3e 80f1 263f 3ab2 843e 3d9d 083f
000000f0: f473 693e 6cdc 05bf f942 d7bd 7245 d73e
00000100: 8484 0d3f 0c27 17bf 03e1 e33e f6f6 d63e
00000110: 5f00 85be 9543 063f ec55 223f 3a0a 9abe
00000120: 4bc0 b43e cf91 e3bd e3ca 263f 68f5 1f3f
00000130: 4754 133f ab6c 273f 8174 7b3e 569d 183f
00000140: 998e 84be dee6 613e e976 c13e 042c 14bf
00000150: bd05 46bf 9b97 5abd 21d3 bcbc 3cf1 27be
00000160: 282b 093f 6186 34bf 63ca a6be f99e 15bf
00000170: 4b9d 4c3e 5cdc 43bf a561 883d 3480 803d
00000180: af20 163f 2430 0b3f 91f9 2dbf e42f 1fbf
00000190: dc0a b23e 4714 09bf 22cb 97bb bdba 103d
000001a0: a58a a0be eebe 9d3d 6fed 203f 3970 11bf
000001b0: 495b 45bf a41e d43e fab9 cf3e a975 edbe
000001c0: 5511 43bf d506 9cbd 935a a33e d1b1 7a3e
000001d0: 8870 ac3e 86e3 bcbe 6331 23bf 47f3 5e3e
000001e0: ac0c 2b3f 08ad 19be aaa3 123f 1aff c03d
000001f0: 9ff1 4f3e a60e 293f a175 223f 4cd9 333f
0.22686651 0.11161862 -0.18418412 0.35215348 -0.14925244 0.2554404 0.3635564 -0.5551959
0.63656807 0.6676601 0.5851613 -0.37538245 0.7380149 -0.71107703 -0.45301113 0.6850978
-0.20505852 0.6796711 0.5121368 0.2527255 -0.5513477 -0.7466948 -0.60106605 0.17797801
0.63042086 -0.106151104 -0.15193771 -0.6613345 0.059742328 0.04983688 -0.24893075 -0.5616254
0.7782832 0.46960184 -0.5681238 -0.1656464 0.011924916 0.30147004 -0.17364496 0.75074095
0.3272885 0.06545728 -0.6458749 0.21155237 0.5584261 0.15108109 0.11592702 0.45343143
-0.8168596 -0.07293183 0.545874 -0.44586298 -0.7204836 0.29363602 0.5661959 0.6434935
0.1839972 0.6521225 0.25917226 0.53364927 0.22798139 -0.5228946 -0.10510821 0.4204517
0.5528033 -0.59043956 0.44507608 0.4198529 -0.25976846 0.5244687 0.63412356 -0.30085927
0.35302958 -0.11111795 0.6515333 0.62483835 0.5755047 0.6540019 0.24556161 0.59615076
-0.25890043 0.22060725 0.37786034 -0.5787966 -0.77352506 -0.05336724 -0.023049893 -0.16400617
0.53581476 -0.70517546 -0.32576284 -0.584457 0.19981878 -0.76508117 0.06659249 0.06274453
0.5864362 0.5437033 -0.67958933 -0.6218245 0.3477391 -0.53546566 -0.0046323696 0.035334338
-0.31355777 0.077024326 0.62862295 -0.56811863 -0.77092415 0.41429627 0.40571576 -0.4637883
-0.7619832 -0.076184906 0.3190504 0.24481894 0.33679605 -0.36892337 -0.63747233 0.2177249
0.6681621 -0.15007412 0.5728098 0.09423657 0.20307015 0.66037977 0.6346074 0.70253444

net.0.bias f4 [64]
00000000: 21d6 00bf 25bd 38bf f1f4 1b3f 7b3b d03e
00000010: 43bb 863e e253 103f 602d c03c bfa0 21bc
00000020: 39fc dc3e b9a4 c8be 69a9 d8bd 5044 013f
00000030: 0dc2 493d b8df ba3d 13fd e6be a5ba b3be
00000040: 1635 313f 490c 343f c957 433e 91cb 083e
00000050: 26c8 61be 9f65 143f 4774 2cbf ac94 91bd
00000060: 0b73 273e 7160 34bf 4baf 403e 6ccf 1d3f
00000070: 5ec4 31bf 36f3 39be 11b3 aebd 3f49 24be
00000080: 0f91 d1be 860c cf3e 338f e3be 445f d63e
00000090: 6f81 253f de3e 05be 9aee 9d3e 030b d3be
000000a0: 52b1 2c3f 4d5c ab3e f78f 6dbd 4a20 d0be
000000b0: 550c 823d 1b48 99be 10ce 93be cf55 2d3f
000000c0: 3be5 9cbe 3ee1 e93e 1fa4 d33e 78e5 9b3e
000000d0: 66d6 c33e 9186 ebbe 5158 a53e 57a0 9a3e
000000e0: 1625 b83e a308 40bc 34fc f8bd dbd2 353e
000000f0: b67d 0e3f f1a3 85be 76bf 27bf eba1 35bc
-0.50326735 -0.7216361 0.60920626 0.4067038 0.26314744 0.56377995 0.023459136 -0.009864985
0.4316118 -0.39188173 -0.105791874 0.5049486 0.049257327 0.09124702 -0.45114955 -0.35103336
0.6922163 0.70331246 0.19076456 0.13358904 -0.22049007 0.5796756 -0.67364925 -0.07108435
0.16352479 -0.7045966 0.18816869 0.61644626 -0.6944026 -0.18159184 -0.08530248 -0.16043566
-0.40930983 0.40439242 -0.4444519 0.41869557 0.64650625 -0.13012263 0.308461 -0.4121934
0.6745807 0.33468857 -0.057998624 -0.40649635 0.063500084 -0.29937825 -0.2886815 0.6770906
-0.3064364 0.4567966 0.41336152 0.30448508 0.3824951 -0.46001104 0.32293943 0.30200455
0.35965794 -0.011720809 -0.12157479 0.17756216 0.5566057 -0.2610164 -0.6552652 -0.0110859675

net.2.weight f4 [128, 64]
00000000: f86a e93b 1048 dd3c 55db 863d c489 d93d
00000010: 349c 223d 1e6d 69b9 34c2 a73d c41c c8bd
00000020: 1df6 2c3b 49c1 e4bd 79e2 06be 5523 b03b
00000030: e7cb f33d 6917 f13d 0dfb 83bd f600 4c3e
00000040: f501 68bc 11ab cd3d 93e3 e7bc 7ad0 3bbe
00000050: 6692 6fbc 0fa3 323d 93ed 72bd 5b17 82bd
00000060: 9f99 013e 87a8 9abd 28cf 61bd 79c4 9f3d
00000070: 031d ddbc bb99 b4ba ef0d c6bd 389e 483d
00000080: b525 253e 8902 0cbe 3c63 04be caf4 053e
00000090: 306f a7bd 7aa9 63be 66a3 07bd 67c4 babd
000000a0: 8669 dfbd 2867 423d 86f0 98bd ab46 96bc
000000b0: 12c8 e4bc 638b cd3d 6800 8d3e 5622 f8bd
000000c0: 6de4 f53b 5318 b13c 207e bfbd 517a 643d
000000d0: 1ec2 9e3d 58af 40bd b741 92bd e463 753d
000000e0: b2e8 913d 06c3 79bc e2c3 c6bd d92c 383c
000000f0: d5f1 a5bd 0bf1 98bd 25ae b43d 3430 49be
00000100: 9da3 fd3d 9c03 b83b 1fdc 1b3d 8287 c2bd
00000110: da9d 8cbb a5c7 f53d 49be c5bd e17f b5bd
00000120: ff17 113e 126c 463e 39f5 49be 2e8d 0dbd
00000130: 6a01 933c f5da 2dbe 3636 88bd 7922 99bd
00000140: dcf8 a33c 9bc3 9fbd 4868 f43d a995 56bc
00000150: 3170 323d f03d 7cbc 715e dcbd b8f2 adbb
00000160: a406 7a3c 5eac b43d ca08 c33d ab89 993d
00000170: da5a 73bc 6933 573d 1ff8 4a3c d12e 3c3e
00000180: 32b6 90bd f857 e83d 3521 19bd bcbc f1bd
00000190: 9bd5 9ebc 1ecf d63c d482 2d3d 48de e33d
000001a0: d4b8 2bbd 377f 51bd 6786 673d 5166 9dbd
000001b0: 2b99 e33a 4e26 c13d 3c93 69bd c784 65bd
000001c0: 7059 a1bc 85bf 23bc 3baf 27bd 11cc c73d
000001d0: 7a20 d73c 1ca4 9a3d 2c3e bcbc 4c6c 00be
000001e0: 06b1 09bd f440 a73c e9e7 e1bd 3f61 05be
000001f0: 96a3 adbc 18b0 4b3d 59c4 cd3d 61fc d03d
00000200: cc9a 0e3d 6cf7 0abd 6cd9 31bd 58f7 0bbd
00000210: ea6f fc3d 8e31 a4bd 1813 cb3d d8b5 9abd
00000220: e0f1 833b 901c 7ebd f468 d03d c098 43bd
00000230: 5202 c2bd bef3 8e3d 800e 85bb 7894 cdbc
00000240: e0f3 773d 189f a7bc c0ed 6bbb c410 75bd
00000250: 0c4d ca3d 588e edbd b4a2 8a3d 74ae 6c3d
00000260: c4d7 dbbd d436 cbbd 3002 a13d 9e3e bbbd
00000270: e009 2b3c 669e c23d ce86 f63d 7cf0 af3d
00000280: 7866 8b3c 589d c43c 003e b43c 304d 4d3d
00000290: f29a c3bd 6452 633d c2a9 c5bd b043 44bc
000002a0: bacb d1bd 80b7 4fbc d834 eabd c24c db3d
000002b0: d26c d1bd 38f2 e53d 843e 3cbd c001 cebb
000002c0: ce77 aabd 0232 c4bd 2094 b33d 487f 84bd
000002d0: 5028 69bd 405a ff3b 408e 8c3d 1c94 153d
000002e0: 00dc 98bb 5ad4 f0bd 14a7 c8bd 76b7 90bd
000002f0: 74b4 efbd 2046 2bbd 9291 bb3d c4d2 d63d
00000300: 2bbc 2a3d c074 e93d 918a 4abb 8bf7 c0b9
00000310: 2670 3bbb 9f2e fcbb a894 aa3d 2190 2cbb
00000320: 930f ac3d 50bc fc3c fbf1 db39 93a4 dcbd
00000330: 6102 323e 2fb7 643d 1d98 983d e92a 8ebd
00000340: 09a2 453d 073b f1bd 324f 8e3b e52a 55bd
00000350: aad9 38be 2127 f2bc eab9 293d 02a4 20be
00000360: 7c84 ffbc 5223 5dbd 1859 66bd 82fb 773d
00000370: bf90 9bbd 9a34 b93c 8962 e7bd b92b 18bd
00000380: 80d1 23bd 44aa e4bd a2e0 62bb 69ba 003d
00000390: 21d4 c63d 5b13 56bd 6553 82bc cff8 37bd
000003a0: 1d37 a63c 8691 6fb7 aa9b bebd 4992 b0bd
000003b0: 3de4 aa3d 6951 7cbd 2eac 7abd aad0 c7bd
000003c0: 31dc 06bd bf4d c5bd a882 bb3d 5a15 32bc
000003d0: e825 ce3d 2cc4 ebba dbac 02bd 3b00 eb3d
000003e0: 14f4 473d a229 12bc b71d cf3d 0439 1bbd
000003f0: 8fc4 053e 0622 e03d 747d 0ebb 1ba9 ba3c
0.0071233474 0.027011901 0.06584803 0.1062198 0.03969975 -0.00022261261 0.08191338 -0.097711116
0.0026391812 -0.11169679 -0.1317233 0.0053753057 0.11904126 0.11772043 -0.064443685 0.19922242
-0.014160623 0.10042394 -0.028306758 -0.18341246 -0.014622306 0.043612536 -0.0593086 -0.06352111
0.12656258 -0.07551675 -0.0551292 0.07801146 -0.026991373 -0.0013778725 -0.09670626 0.048979014
0.16127665 -0.13672842 -0.1292848 0.13081661 -0.08175504 -0.22232619 -0.033114813 -0.09119492
-0.10908799 0.04746166 -0.07467751 -0.018344244 -0.027927432 0.100363515 0.27539372 -0.12115924
0.007504037 0.021618044 -0.09350228 0.055780713 0.07751869 -0.04704222 -0.0714144 0.059909716
0.07124461 -0.015244251 -0.097053304 0.011241161 -0.081027664 -0.0746785 0.08822278 -0.19647294
0.123847224 0.0056156646 0.03805172 -0.09498502 -0.0042912783 0.1200097 -0.09655435 -0.088622816
0.1416931 0.19377163 -0.19722451 -0.034558468 0.01794501 -0.16978057 -0.06650965 -0.07477278
0.020016126 -0.07800981 0.119339526 -0.013097205 0.043564025 -0.015395626 -0.10760201 -0.0053084753
0.015260372 0.08821939 0.09523161 0.07496961 -0.014853204 0.052539263 0.012388258 0.18377234
-0.07066001 0.11344904 -0.037385184 -0.11803576 -0.019388964 0.026221808 0.042361096 0.11126381
-0.041924313 -0.051146712 0.05652466 -0.07685531 0.0017364373 0.09431134 -0.05702518 -0.05603483
-0.019695967 -0.009994392 -0.040938597 0.097557195 0.026260603 0.07550833 -0.022978865 -0.12541312
-0.03361609 0.020416714 -0.110305615 -0.13025378 -0.021196168 0.049728483 0.10047216 0.102043875
0.034815595 -0.033927366 -0.04342024 -0.034171432 0.123260334 -0.08017264 0.09915751 -0.07554215
0.0040266365 -0.062038958 0.10176268 -0.047753096 -0.09473099 0.06980084 -0.0040605664 -0.02509521
0.06053531 -0.020461604 -0.0035999864 -0.059830442 0.09877977 -0.115994155 0.067693144 0.05778356
-0.107345134 -0.09922567 0.07861745 -0.09142803 0.010439366 0.09502868 0.12037431 0.08590791
0.017016634 0.024000809 0.02200222 0.05012244 -0.09551038 0.055498496 -0.09651519 -0.011979029
-0.10243936 -0.012678027 -0.114358604 0.10708 -0.10225834 0.1122784 -0.045958057 -0.0062868297
-0.08323632 -0.09579851 0.08768487 -0.064695895 -0.05692321 0.007792741 0.068630695 0.0365182
-0.004664898 -0.11759253 -0.097974926 -0.070662424 -0.117043406 -0.041814923 0.09158625 0.10489419
0.041683357 0.113992214 -0.0030905346 -0.00036805528 -0.0028600781 -0.0076959874 0.08329135 -0.0026331025
0.08401408 0.030851513 0.00041951225 -0.107735775 0.1738372 0.05583876 0.07450888 -0.06941778
0.048250232 -0.11778837 0.004342937 -0.05204286 -0.18051782 -0.029559674 0.041437067 -0.15687564
-0.031191103 -0.053988762 -0.05623731 0.06054259 -0.075959675 0.02260809 -0.11298091 -0.037151072
-0.039994717 -0.11165288 -0.0034618755 0.031427775 0.09708429 -0.052264553 -0.015908906 -0.044915017
0.020289952 -1.4279392e-05 -0.09307034 -0.08621652 0.08344314 -0.061601076 -0.06119936 -0.097565964
-0.032924835 -0.096339695 0.0915578 -0.010869348 0.10065824 -0.0017987541 -0.03190313 0.11474653
0.048816755 -0.008921059 0.101130895 -0.03789617 0.13063262 0.109439895 -0.0021742256 0.022785714

net.2.bias f4 [128]
00000000: f318 81bb d756 953d 082e da3d 08af 63bc
00000010: d2d8 b8bd cbdb d73d 019f 28bd 2e25 c4bd
00000020: 4f66 003e edf0 c13d 9ca3 b4bd 734a 5b3d
00000030: fd27 49bd f385 9b3d 9150 033e d93f 9f3c
00000040: 6e5d ba3d ef53 d8bd 80ba 7cbc e1ea d83d
00000050: ec76 ecbd c30d fa3c 9b8e c63d e166 93bd
00000060: 90e7 b83d 9b32 df3c df56 47bd 8a79 74bd
00000070: 8a04 313d 2138 a1bd 5101 8cbc 38a0 2f3d
00000080: 86f8 ecbd 7bac de3c f88c 99bc e7a2 0abc
00000090: 9fbd 74bd 34aa 00bd 2e37 403d c54a 44bd
000000a0: e917 003e 636b 613d 9dcf 963d 3113 3abd
000000b0: 5484 8ebd e3a2 cabc de11 92bd 581b 89bd
000000c0: dd63 153d edb2 9ebd c598 b13d 549a 403d
000000d0: 4eba 1b3d 12c4 bbbd a4ac 5b3d ec0d 533d
000000e0: 3d54 a0bc 7c6d 4e3d 3cb8 eb3d aa97 cb3d
000000f0: d843 fc3c 7b47 18bd af32 bcbd 63f1 6f3d
00000100: b22e fe3d 9b7f abbd 6469 7d3d 6b45 d9bd
00000110: 5130 57bd 99c0 17bc 729b ff3c aab6 db3d
00000120: 9e72 c33d dcbc 3b3d 6cf8 c0bd 2e89 67bd
00000130: 3e7e 8fbd d294 cb3d b17d 6fbd 88a0 f8bc
00000140: f83b d5bd b0b3 f1bc 5733 3cbd d417 af3d
00000150: 5220 29bc d515 523c 97a6 0fbe 4474 28bd
00000160: a5aa 813d 9178 e33d be75 9cbd 0e3e b03d
00000170: d6a8 82bd 5c7e 163d 01a2 1dbc cf07 7dbd
00000180: b6f6 c8bc d4c5 00bc 850e e3bd fc59 dbbd
00000190: 6fc9 0abd 24f1 9a3d bc9d a6bd 077a 1cbc
000001a0: 50fd 043e 42a8 0ebe c414 ae3d 507c aa3d
000001b0: 6255 13bd 0f41 5dbd 592e 1f3d 4d1c 95bd
000001c0: 372b e03a ac9f 9b3c c234 9dbd 2f5e b23d
000001d0: 388e b8bc bda7 023e ae71 983d 00e5 a2bd
000001e0: bd74 83bd 6043 b43d 1a52 ccbd 4f5c 273d
000001f0: 297d 36bd c8d9 073d 1b8d 55bd 295f aa3d
-0.0039397418 0.07291954 0.10653311 -0.013896711 -0.0902573 0.10539969 -0.041167263 -0.09577404
0.12539028 0.09469781 -0.088202685 0.053537797 -0.0491104 0.07593908 0.12823702 0.019439625
0.090998515 -0.10562884 -0.015425324 0.105916746 -0.1154612 0.03052414 0.096951686 -0.07197357
0.09028542 0.02724581 -0.04866683 -0.05968622 0.04321722 -0.07872034 -0.017090471 0.042877406
-0.115708396 0.027181854 -0.018743977 -0.0084616905 -0.05975115 -0.03141232 0.046927623 -0.04792287
0.12509121 0.055034053 0.07363818 -0.04542846 -0.06958833 -0.024735874 -0.07132314 -0.066946685
0.03647219 -0.07748971 0.086717166 0.04702218 0.03801947 -0.09168257 0.05363144 0.05152695
-0.019571418 0.05039738 0.11509749 0.09941037 0.03079407 -0.037177544 -0.09189355 0.058579814
0.1241125 -0.08373948 0.061868086 -0.106089436 -0.052536312 -0.009262227 0.031202052 0.107282
0.09543346 0.045834407 -0.09422383 -0.05652731 -0.07006501 0.099404946 -0.058469478 -0.030349985
-0.10411829 -0.029504627 -0.0459474 0.08549467 -0.010322647 0.012822588 -0.14028393 -0.041126505
0.06331376 0.111069806 -0.07639645 0.08605586 -0.06379859 0.0367416 -0.009621144 -0.061775025
-0.024531703 -0.007859666 -0.11086754 -0.107105225 -0.03388351 0.07565525 -0.08135554 -0.009550578
0.12987256 -0.13931373 0.085000545 0.08324492 -0.0359701 -0.054017123 0.03886256 -0.072807886
0.0017102723 0.018997036 -0.076760784 0.0870937 -0.022528753 0.127593 0.07443558 -0.079538345
-0.064187504 0.08801913 -0.09976597 0.040859517 -0.044552956 0.033166677 -0.05213652 0.083189316

net.4.weight f4 [256, 128]
00000000: fd63 de3d 2cca ca3c bbee a6bd a2b9 cebd
00000010: 0426 963d c7d8 bebd 2749 fb3c fa87 7ebc
00000020: dd7e 083d 7918 1ebc 30a3 de3d 2bd4 96bc
00000030: 69d6 29bb c344 d73c 3154 1a3e c5f0 c9bd
00000040: e1fb 353c f6e1 103d 7599 4bbd 917e 6f3d
00000050: 888b 053d e2ca 8abc e437 7abd d234 2c3e
00000060: 3b37 85bd 5bcf 083e a9d5 113e 129e dbbd
00000070: d816 363d 546b bb3c a4b8 203e 6fcf 3a3d
00000080: 1fb0 e0bd e4ab de3b 0295 6cbd 74e0 933d
00000090: 48ee 103d d69b 4cbd a9cd 58bd c5e8 17bd
000000a0: 7d65 973d a3c0 f93c 9b93 3cbd 5721 56bd
000000b0: 2d9d 83bc ba2c b83d 7d1a dd3c edc6 893d
000000c0: e4c4 28bd d901 82bd cdeb c83c c961 01bd
000000d0: b564 9c3d 403d 3f3d f4da 603c 5281 eabc
000000e0: 5297 a73d a292 0bbd 4af7 b9bc 8732 aabc
000000f0: efee 893d 2cb5 27bd c3a8 7cbd 222f 9a3d
00000100: 19b9 10bc c034 0dbd a87c dd38 75a6 ae3d
00000110: 1267 d6bd 86bd b83c 52f0 8f3d 9fd0 893d
00000120: 6683 af3d dd22 323d cd6c 8abc 717e 5dbd
00000130: f8f0 ff3d 5f4e a83d 7cea 0e3e 82d3 a33d
00000140: 15b2 43bd f942 bfbc 715e adbd 0b90 abbc
00000150: 04d2 363e 1d9f 82bc 626f ae3d 90cd c33c
00000160: d55a 123e d227 fabb 22c5 c93c add7 5d3c
00000170: d288 be3c 9175 053c 9fa0 0b3d 3718 993d
00000180: eeb2 a7bd 0546 a7bd 301a 4bbc b3ea 05bc
00000190: efdd cebc 31c3 01bd e2fe 8abd 3d47 86bd
000001a0: 47d8 9c3d 02b3 5a3e bce2 983d d2be 783d
000001b0: d2cf e4bc bc26 5fbd 1619 3f3d 5c70 903d
000001c0: 751a 073e 092c 663d 0679 ad3d 2f6c 45bd
000001d0: a947 1abd 14e6 f93d 95c8 003e e409 b03d
000001e0: 38a2 f03b 913a 0c3d 2deb eabc 966e b4ba
000001f0: 01b6 313d c684 5b3d 0f91 913d 0257 8f3c
00000200: 32ed 7b3d 1ec5 81bd bf5a f13c 4de3 943d
00000210: 2b5f 18bd 0734 a0bd d14b a83c 038f 1e3d
00000220: 1e97 9d3d df0c 033c 5f56 283d 82ae 493d
00000230: b136 31bd f502 55bd 0c8f 4d3d 3046 62bb
00000240: b1d4 b83b 52d9 753c d07e 883d b5db ecbc
00000250: 180f d63c ce99 bebd d1bf 8dbc 6930 a6bc
00000260: d713 2a3d 05cb a8bd 8c2d ffbc f376 95bd
00000270: 4e9f 44bd 638e c7bc eecd af3b 3ea4 a1bd
00000280: 265f 663c 7d6e 653d 4c5b 54bd 0fed c7bb
00000290: a18c a43d 62aa 883c 6135 d83c 6a84 4fbd
000002a0: 3346 813d 7665 f6ba d924 97bd 2f8f 773d
000002b0: ed5e b0bd 1197 533c 4a93 533b 132d 5b3d
000002c0: 8d02 e9bb f291 0e3b 17e4 7fbc 02f5 5039
000002d0: 1a26 90bd c517 8cbd 3b94 803d 75d3 f6bc
000002e0: 9d05 aabd 0e1b 4fbd 2412 02bc 14ec a33c
000002f0: 41e3 b5bd 3c0b 383a 9979 4bbb a503 bf3c
00000300: 24b7 25bc e350 473d 231c 21ba a119 81bd
00000310: a96d b73b 2caf 7c3c 406d 85bd 6e8e 5ebd
00000320: 9d1f 85bd 2754 d53c e014 063d df04 19bc
00000330: eb0e 253d 7b45 a0bd 7ecd 94bd 0efa 58bd
00000340: c891 bebd 318e 0b3d f0de 90bd f0e2 94bd
00000350: 6471 073d df10 0bbd b687 8e3d 61e5 9e3a
00000360: ad11 b43c 22a7 e4bc 2109 933d 3d81 abbd
00000370: fc50 9c3c 36fd 1b3d 0731 303c 6c23 213d
00000380: 9374 71bd 9120 66bd 6d84 74bd 01bb 313d
00000390: d25f a2bc de56 6b3c 9566 85bc 44d1 8fbd
000003a0: affb c03c 9162 e1bb 498e b0bd 9aac 35bd
000003b0: f9c2 a63c c9fe 983d 5f20 6a3d c73d e8bb
000003c0: fc3e 6a3d 2e0c bd3c 048e 353d 5699 6cbd
000003d0: 32c7 7e3d 8a28 b4bd ba45 09bd 18e8 ea3c
000003e0: 528e 88bd fa33 88bd 1456 9e3d a5be ee3b
000003f0: 429c 173d 750c 71bd 1ad3 bebc 8249 6bbd
0.10858915 0.024754606 -0.08151003 -0.100940004 0.0733147 -0.09318691 0.03067453 -0.015535349
0.03332411 -0.009649389 0.10870969 -0.018411716 -0.0025915152 0.026277905 0.15071179 -0.09860376
0.011107416 0.035371743 -0.049706895 0.058470313 0.03260377 -0.016942445 -0.061088458 0.16817024
-0.06504675 0.1336035 0.14241661 -0.10723509 0.04445538 0.022878326 0.15695435 0.04560798
-0.109710924 0.0067953933 -0.057759292 0.072205454 0.035383493 -0.049953304 -0.052930508 -0.03708722
0.07392404 0.030487364 -0.046039205 -0.05227789 -0.016066158 0.08992906 0.02699017 0.06727395
-0.041203395 -0.06348009 0.024526501 -0.031587396 0.07636396 0.046689272 0.0137240775 -0.028626118
0.08183159 -0.034075387 -0.022700924 -0.020776046 0.06735026 -0.040944263 -0.06168438 0.07528521
-0.008833193 -0.034474134 0.0001056132 0.08527843 -0.10468878 0.02255131 0.07028259 0.067292444
0.08569984 0.04349028 -0.016897583 -0.054075662 0.12497133 0.08218073 0.13956636 0.07999326
-0.047777254 -0.023347365 -0.08465279 -0.020942708 0.17853552 -0.015945012 0.08517338 0.02390173
0.14292462 -0.0076341415 0.024630133 0.013540191 0.0232586 0.008145706 0.034088727 0.07475322
-0.08188425 -0.08167652 -0.01239638 -0.008173632 -0.02525231 -0.03168029 -0.06786896 -0.065565564
0.07658439 0.21357349 0.07465121 0.060728855 -0.027931128 -0.0544803 0.046654783 0.07052681
0.13193686 0.05619434 0.08470349 -0.048198875 -0.037665997 0.12202087 0.12576516 0.085956365
0.0073435567 0.03423554 -0.028676594 -0.0013765867 0.043386463 0.05359342 0.07107746 0.017497543
0.061505504 -0.06336425 0.029462216 0.07269917 -0.037200134 -0.078224234 0.020543965 0.038710605
0.07694839 0.007998674 0.041097995 0.04923869 -0.04326505 -0.052004773 0.05018525 -0.0034526698
0.005640589 0.0150054265 0.066648126 -0.028913358 0.026130244 -0.0930668 -0.01730338 -0.020286756
0.041522827 -0.08241848 -0.031149648 -0.072980784 -0.048003487 -0.024359887 0.005365125 -0.07892655
0.014060771 0.056013573 -0.05184488 -0.0061012576 0.08034635 0.016682807 0.02639264 -0.05066339
0.063122176 -0.0018798548 -0.07380075 0.060439285 -0.08611856 0.012914435 0.0032283836 0.053509783
-0.0071109 0.002175447 -0.015618346 0.00019927698 -0.07038517 -0.06840471 0.06278273 -0.030130127
-0.08301852 -0.05056291 -0.007938895 0.020010032 -0.08881236 0.0007020717 -0.003104782 0.023317168
-0.010114465 0.048661124 -0.00061458553 -0.063037165 0.0055977893 0.015422624 -0.065149784 -0.05433505
-0.065001704 0.026041104 0.03273475 -0.00933954 0.04029743 -0.07825752 -0.07265757 -0.052972846
-0.09305149 0.03407115 -0.07073772 -0.072698474 0.033067122 -0.033951636 0.069594786 0.0012122804
0.021981085 -0.027911726 0.071794756 -0.083742596 0.019081585 0.038083278 0.0107538765 0.03934042
-0.058949064 -0.0561834 -0.059696604 0.04339123 -0.019821081 0.0143639725 -0.016284266 -0.07022336
0.023557512 -0.006878205 -0.08620889 -0.04435406 0.020356642 0.074704714 0.057159778 -0.0070874426
0.057188973 0.023077097 0.04432489 -0.05776342 0.062201686 -0.08796795 -0.033513762 0.028675124
-0.066677704 -0.06650539 0.07731262 0.00728591 0.037014253 -0.05884977 -0.02329402 -0.05744315

net.4.bias f4 [256]
00000000: 6ec7 6a3d 9479 75bd 5a24 86bd d3d2 9f3c
00000010: b042 ecbc 23dd 923c 4449 823d 4b29 bfbd
00000020: 88c0 673c 48e1 fabc fe3c 9bbb 23df 74bd
00000030: 7ac2 7e3d d97a 4b3c d95e 93bc 0a52 c4bc
00000040: 3554 5cbd 3b9f 9f3d 46dd 12bd 3b1f 5cbd
00000050: 8a22 4cbc cb09 3c3d 39f1 ee3c 6e75 5cbd
00000060: 12ce 04bd 3b04 813d d4b7 9cbc 34f6 77bd
00000070: 9097 81bd 566f 32bd 4415 a5bd 7ac5 a2bd
00000080: 6c52 bb3d 6dd6 21bd 85ee 9a3d 065c 553d
00000090: ea57 51bd fece a63d 362c f7bc 601e a63c
000000a0: 9956 ba3d 769c 0a3d bcd1 6ebc 127c 573d
000000b0: d052 ad3c c565 973d 8e19 b83c faac aa3d
000000c0: c347 023d 2290 56bd fc57 40bd bb7f ccbc
000000d0: 1dad 313d f51c 27bd ca82 b23d 6464 203c
000000e0: b23a 5cbd e8b1 863d 5801 b13d d69d f43c
000000f0: 854b d63c 422b f1bc f8e9 0ebd d138 ce3d
00000100: 72ee 92bd dab0 af3c 5297 353c 814f 44bd
00000110: 215d b43b e45f 763c e650 b0bd b126 0f3d
00000120: a3f3 933d 851b 30bd 9007 75bd 52e0 b23c
00000130: f343 a53d 1fbe f3bc 4ecb 893c d086 943d
00000140: 0910 aa3d 2c9e 993d 414c 453d b627 0abd
00000150: 1e77 b4bd 0ebb 7a3d a2f9 bd3c 940d 873d
00000160: 59bc 07bd f9b8 57bd eff9 b23d 62c3 803b
00000170: efc8 8c3b ddf6 79bd 9fea 3ebb 61da c2bc
00000180: 8cd1 103d d719 df3c 5888 913d e6ac 9b3d
00000190: 15ca f2bd c739 2e3d a9a4 b23c ef46 a0bc
000001a0: bc76 1f3c e3c0 853d 4298 d1bc 3388 9e3d
000001b0: 49c6 4b3a 2ae1 7b3d ec72 fabc db10 843d
000001c0: aeb5 513d 6d7e 5d3d 1be5 973d b73b 8fbd
000001d0: 4e8e efbc 0e70 8fbd 2676 a039 9627 ad3d
000001e0: 4ba1 603d be47 97bd ff1b be3c fc79 7e3c
000001f0: ac35 8c3d e5c4 6ebd 082d 97bc 140b fdbc
00000200: c73b 843b 8771 22bd 1d29 0f3d f149 bb3d
00000210: 395a d3bd 7a52 c7bd 93ef 7c3d ee3a 5a3d
00000220: a1c8 813c cdb0 983d f69a 673d edf8 493c
00000230: 95e5 82bd 290c 91bd 467e 863c 4b16 a7bc
00000240: 1d52 5a3a fb26 74bd d3d4 f83c d563 b5bd
00000250: 3811 81bd 9741 a3bd caff adbd 26b1 c63c
00000260: 525d 543d ea68 723d 566b 0cbd 6ff1 203d
00000270: ec09 ad3b b7c8 8a3b c6a2 163c cea4 8a3d
00000280: e45b 0d3c fd14 64bd 90ef 50bd 5839 9b3d
00000290: ae1b b2bc 587e 15bc d207 8fbc 26c6 ad3c
000002a0: 9948 96bd 3dc4 013d d230 683c 6f35 f6bc
000002b0: 6f9d 983a 973a 623d 1bd1 823d fc05 05bd
000002c0: 6855 15bd e834 353d f8e8 533d c48e 0cbd
000002d0: 4c39 d4bd f796 1b3d 32ee 1abc 7321 91bd
000002e0: 7e08 24bd 0858 dcbb e0b5 5f3d 2b8c 653d
000002f0: 5a89 3e3c 80cc 6dbc 3bef 91bc a4b9 6a3c
00000300: e20f 4bbc 3491 853d 62c7 84bd 7fab b33d
00000310: 78be 6fbb 0734 a63d 23e2 9a3d 7ea3 a13d
00000320: fb44 c03a 7722 e63c ff14 04bd 2a0d a53d
00000330: 5d68 933d c76b 06bd 43a6 0a3d 8490 8dbd
00000340: 27a7 c0bc a620 723c f0ba 073d 64ea a6bd
00000350: 47db b53d 7927 6cbd 7ba7 babc 4994 1b3d
00000360: 4bb3 4abd 8028 b3bd 3f40 febc 0452 90bd
00000370: 18f6 a5bc b937 47bd 5abb 7abd f545 1f3c
00000380: 5d80 51bd 89e7 83bb 322f bc3c 3db2 c13d
00000390: fd1b b7bd 4159 5a3d 6718 8ebd d38d 863c
000003a0: 7b4c 143c 4d4b 8e3d f557 aabc 7a2c a9bc
000003b0: 63aa 9ebc 2300 833d c3a5 80bd 0d62 683d
000003c0: 3cd3 ef3b 1bfe 9f3c 63b1 0ebd 3eca 763d
000003d0: e9cd ba3c 28b1 f5bc d420 f3bc 3408 78bd
000003e0: 0a7a 9e3d 05c3 4c3d 488c 00bd 27ad b73d
000003f0: d953 80bb 2f44 283c e557 9e3d b8b4 9abd
0.057319097 -0.0599304 -0.06549902 0.019509709 -0.028840393 0.017927712 0.063616306 -0.09334048
0.014145024 -0.030625 -0.0047374954 -0.059783112 0.062197186 0.012419426 -0.017989563 -0.0239649
-0.053791244 0.07794043 -0.035855554 -0.05374072 -0.012459407 0.045907777 0.029167758 -0.053822927
-0.032423086 0.06299635 -0.019130625 -0.060537532 -0.063277364 -0.04356321 -0.08060697 -0.07947822
0.0914658 -0.039511133 0.07565025 0.052089714 -0.051109232 0.081449494 -0.030172449 0.020278156
0.090985484 0.03384062 -0.014576372 0.052608557 0.021157652 0.07392458 0.022473123 0.08333774
0.03180672 -0.05238355 -0.04695891 -0.02496325 0.043377984 -0.0407991 0.08716352 0.00978956
-0.053766914 0.06576902 0.086428344 0.029860418 0.026159057 -0.029439572 -0.0348911 0.100694306
-0.07174386 0.021446634 0.011083441 -0.047927383 0.005504266 0.015037511 -0.0860918 0.03494901
0.072242044 -0.042994995 -0.059821665 0.02183548 0.08069601 -0.029753743 0.016820576 0.07252276
0.0830384 0.07500872 0.048168425 -0.033729278 -0.08811782 0.061213546 0.023190323 0.06594387
-0.033138607 -0.052666638 0.08739077 0.0039295414 0.004296414 -0.061026443 -0.0029131544 -0.023785772
0.03535609 0.027234001 0.07106084 0.07601337 -0.1185495 0.04253557 0.021807032 -0.019565074
0.009732898 0.06530931 -0.025585297 0.07740822 0.0007773382 0.06149403 -0.030572377 0.064485274
0.051198654 0.054075647 0.07416745 -0.069938116 -0.02924266 -0.070037946 0.00030605606 0.08454816
0.05484132 -0.073867306 0.023206709 0.015532013 0.068461746 -0.058293242 -0.01845409 -0.030889072
0.0040354463 -0.03965905 0.034951318 0.091449626 -0.10319943 -0.09732528 0.061751913 0.053278856
0.015842738 0.07455597 0.056544267 0.012327415 -0.063914455 -0.070823975 0.016417634 -0.020396372
0.0008328276 -0.059607487 0.03037492 -0.08856932 -0.06302112 -0.07971495 -0.084960535 0.024254393
0.05184681 0.059182085 -0.03428205 0.03929275 0.005280724 0.004235353 0.009194082 0.06769715
0.008627865 -0.05568408 -0.051009715 0.07579297 -0.021741714 -0.009124361 -0.017459784 0.021212649
-0.07338066 0.031681288 0.014171796 -0.030054776 0.0011643599 0.055231657 0.0638754 -0.03247641
-0.036458403 0.04423991 0.05173585 -0.03431584 -0.10362491 0.03798577 -0.009456204 -0.07086458
-0.04004716 -0.0067243613 0.05461681 0.056041878 0.011629427 -0.014514089 -0.01781427 0.014326487
-0.0123939235 0.06521836 -0.06483342 0.08772945 -0.0036582034 0.08115392 0.075626634 0.07892512
0.0014668995 0.028092606 -0.032246586 0.080591515 0.0719764 -0.03281763 0.033849966 -0.0691233
-0.023517204 0.014778292 0.033137262 -0.08150175 0.088797145 -0.05765483 -0.022784939 0.037983213
-0.049487393 -0.08747959 -0.031036494 -0.07046893 -0.020258948 -0.048637126 -0.06121383 0.009721269
-0.051147807 -0.004025404 0.022971723 0.094578244 -0.08940885 0.053307775 -0.06938248 0.016425049
0.0090514375 0.06947956 -0.020793894 -0.02065109 -0.019368356 0.063965105 -0.062816165 0.056734134
0.0073188823 0.019530347 -0.034837138 0.060251467 0.022803264 -0.029991701 -0.02967874 -0.060554698
0.07738121 0.049990673 -0.031383783 0.08968573 -0.0039162454 0.0102701625 0.07731608 -0.075540006

net.6.weight f4 [2, 256]
00000000: 7628 aa3d 5e01 70bc e40c 65bd 105a bebd
00000010: 2e9e 463d fd78 2e3e e607 e2bc fb32 d1bc
00000020: 1d02 eebd 56e2 253e 6877 303c 5e95 e03d
00000030: 48a3 fe3d d668 1ebd f915 e0bd aa28 e33d
00000040: b01b 23bd b0fa c83c 6a45 d4bd 0d3a fc3d
00000050: 9836 4bbd d35e 293e 12d2 03be db10 853d
00000060: 05d5 2b3e 9287 cbbd d5de 21bc d28d 27be
00000070: 4377 29be fa60 5c3e 7f32 bebd 0de2 87bc
00000080: 22ee 07be 5841 e1bc 6fbd 233e 1a93 c2bd
00000090: 7df6 e43d eca8 1d3e a5c4 0fbe 988e 043e
000000a0: 1332 0f3e 5298 08be e325 cf3d 4363 0abe
000000b0: e99a 583e 8323 efbd 40ff 213e 7688 383e
000000c0: 0cfd f53d 488b eebc dd2d 223e 695f 4e3e
000000d0: d816 073e 9eb8 bdbc 11b7 3abe 2f7a 8f3b
000000e0: 4039 323d ef3e 17be 3d0c 063e 6dfc e8bd
000000f0: c9bd 1f3e 08fd fb3d b84c 7fbd 7f04 0bbe
00000100: 4c2b 0c3e 6873 b33c 4630 4abd 1c9d cbbc
00000110: 08d0 503e fe53 1bbd f657 33bd cee2 34be
00000120: 2464 27be 968a d3bd ae22 663d 181e 083e
00000130: 24fe 02be 4a1e 3b3e 5131 fe3d 8810 013e
00000140: 3a46 483e 3ac8 023e 7999 65bd 147c 263e
00000150: 6004 f1bc fed4 043e 55d5 073b dc23 f03d
00000160: 238b 74bd 7515 39bd 9218 e7bd 5eda 88bc
00000170: 92c2 fcbc b5b8 3a3e 6771 253e 0bbc 15bd
00000180: 9235 3dbd 205e 073e 908c 1abe 3a8e cdbd
00000190: dc77 143e 6db2 00be 40fc 13bb 563d fa3d
000001a0: 61ff 12be 9268 2d3e 9e2e 073e ddc7 093e
000001b0: 053b f13d 7902 753d 8615 313e 7a12 3cbd
000001c0: 2089 1a3e 7711 df3d 5146 de3d f625 41bd
000001d0: 88b0 613d fa2b 193e 5dfb b4bd dd22 003e
000001e0: 0511 103e 2a9d 4d3e 75da 2ebe 9128 0a3e
000001f0: c4ef bebd 47cc 5ebd 095f 153e f080 153e
00000200: 082e 03be c146 56bd 818c 173e 85a3 233e
00000210: 9fe4 223e 2921 3abd 725e 8a3d f872 bd3d
00000220: ed40 083e 38d2 f83d c208 d4bd 05c0 183e
00000230: 20df d73d 5629 82bc cabb 30be 2e5b f83d
00000240: e14d f73d c912 ec3d eb23 ecbd 49b1 05bd
00000250: 34c0 623d 6736 5fbb 3133 423e 0c7d 2dbe
00000260: c436 8f3d e390 f23d bac4 493e f27b 1bbe
00000270: d0c8 3d3e d1c3 25be a34e 4b3e 5dce d83d
00000280: 6cce 3a3e 9add edbc 4fbc 133e 2364 143e
00000290: 7165 2f3e 08b5 df3c 1842 1d3e 9466 32be
000002a0: 7d92 3c3e a46b 07be 9218 553d ad62 6fba
000002b0: 0404 5fbc 2397 0c3e 3fba e2bd 395a 833d
000002c0: e51c d9bd bbdd 10be c2f8 c6bd 628d 36be
000002d0: be43 dd3d 05c3 c43d f1e2 c3bc 90fa c33d
000002e0: 2ca5 233e 6ba0 d53d 8cb9 f9bd 8f41 023e
000002f0: 2f7c c73d d0ec e83b 92da 043e 5d7c da3d
00000300: eb89 1abd 64c7 003e b8af 75bd c81b 083e
00000310: 327b 493e 3169 1fbe 14e1 a03d 636c f9bd
00000320: 927c 20bd 8014 83bc 2dcf 093e b443 febd
00000330: 6c4a 8e3d 3cc6 71bd 6f79 1cbe 2c3b 97bc
00000340: 9814 f33d 6d48 013e acc4 1cbe bdc5 1bbe
00000350: 8738 103e d16e e2bd c7db 14bd eec0 f7bd
00000360: 597c 05be 9263 8abd cb11 d4bc 204a 0f3e
00000370: e797 b0bc 4cce 403e 9ad3 25be 43e1 7ebc
00000380: 2e08 413e e1f6 163e ccfb e23d 2687 17be
00000390: 31c0 2dbd b193 f13d 5bfa 323e 34e9 f1bc
000003a0: 8786 603e 9f26 2ebe 4dd4 0d3e 9a8e 15bd
000003b0: c7c4 253e 392d 593e edab 35be 026d ae3d
000003c0: fe8c 23be 61bd 74bd 61a0 6dbd f3c6 083e
000003d0: 6b90 bcbd 7886 363e f4b8 aa3d 3b24 10be
000003e0: d871 21be d8be 033e 0e27 083e 8bc4 a63d
000003f0: 9cf4 20be 8bc7 033e 4603 afbd 9f5c 4e3e
0.083084986 -0.014648763 -0.055920497 -0.09294522 0.048490696 0.17038341 -0.027591657 -0.025537005
-0.11621497 0.16199622 0.010770656 0.109659895 0.12433487 -0.038674198 -0.10941691 0.110917404
-0.039821327 0.0245336 -0.10364802 0.1231576 -0.04961261 0.16540079 -0.12873104 0.064973556
0.16780479 -0.09937967 -0.009879787 -0.16362694 -0.16549401 0.21521369 -0.09286975 -0.016587282
-0.13274434 -0.027496979 0.15990232 -0.09500714 0.111798264 0.1539647 -0.14039858 0.1294502
0.13983946 -0.13339356 0.10114648 -0.13514428 0.21152844 -0.11676695 0.15820026 0.18020806
0.120111555 -0.029119149 0.15837808 0.20153584 0.13192308 -0.023159321 -0.18233897 0.004378579
0.04351163 -0.14770101 0.13090606 -0.113762714 0.15599741 0.12304121 -0.062329024 -0.13575934
0.13688391 0.021905616 -0.049362443 -0.024855189 0.20391858 -0.037921898 -0.043785058 -0.17664644
-0.16346794 -0.103291675 0.056185417 0.1329273 -0.1279226 0.18273273 0.1241175 0.12603962
0.1955804 0.12771693 -0.056054566 0.1625827 -0.029421031 0.12971875 0.002072652 0.1172559
-0.059703004 -0.04518648 -0.11283983 -0.016705688 -0.030854497 0.18234523 0.16156541 -0.036556285
-0.046193667 0.132195 -0.15092683 -0.10036893 0.14498848 -0.12568064 -0.0022580773 0.1221873
-0.14355232 0.16934422 0.13201377 0.13455148 0.11778835 0.05981681 0.17293367 -0.045916058
0.15091372 0.10892003 0.108532555 -0.047155343 0.055099994 0.14958182 -0.08837006 0.125133
0.14068992 0.20079485 -0.17075522 0.13492037 -0.093230754 -0.054394033 0.14587034 0.14599967
-0.12810528 -0.05231357 0.14799692 0.15980347 0.15907525 -0.04544178 0.06756295 0.09250444
0.13306017 0.12149471 -0.10353233 0.14917 0.105406046 -0.015888851 -0.17259136 0.12126766
0.12075401 0.115270205 -0.11530288 -0.032639775 0.05535908 -0.0034059526 0.1896484 -0.16942233
0.069928676 0.11844041 0.19703951 -0.15184 0.18533635 -0.1618798 0.19854216 0.10586236
0.18242806 -0.029036332 0.14427303 0.14491324 0.1712854 0.027308002 0.15357244 -0.17421943
0.18415256 -0.13224655 0.052025385 -0.00091318303 -0.013611797 0.13729529 -0.1107068 0.06413693
-0.10601214 -0.14147083 -0.097154155 -0.17827371 0.108039364 0.096075095 -0.023911925 0.095692754
0.15980977 0.10430988 -0.121935934 0.12720321 0.09740483 0.0071083084 0.12974003 0.10668252
-0.037729185 0.12576061 -0.05998203 0.13291848 0.19675902 -0.15567471 0.0785543 -0.12178876
-0.0391813 -0.016000986 0.13457938 -0.12415257 0.069477886 -0.05902694 -0.15280698 -0.018460833
0.11869162 0.12625284 -0.153094 -0.1521215 0.14084063 -0.11056293 -0.03634241 -0.12097345
-0.13035716 -0.06757273 -0.02588739 0.1399312 -0.021556808 0.18828696 -0.16194001 -0.015556636
0.18850777 0.14742614 0.11083183 -0.14797649 -0.042419616 0.11795748 0.17478316 -0.029530145
0.21926318 -0.1700692 0.13850518 -0.03651295 0.16188346 0.21208657 -0.17741366 0.08516885
-0.15971753 -0.05975092 -0.058014277 0.13357143 -0.09207233 0.17824733 0.08336058 -0.14076321
-0.15766084 0.1286577 0.13296148 0.08142956 -0.15718311 0.12869088 -0.08545546 0.2015252

net.6.bias f4 [2]
00000000: 2ad4 003c 7ba1 793d
0.007863084 0.060945015

exp_avg f4 [64, 2]
00000000: 019d eb2f 11cd 1cb1 124c cf31 e05b 4331
00000010: e054 ae34 4116 0f35 9494 71b5 efc3 0a35
00000020: 2eac 8534 93b3 6935 fee8 98b4 2099 c3b4
00000030: 2dfc 8634 a919 f835 65d7 4a36 8fcc 8835
00000040: cdc6 8833 3fb4 8cb4 3f28 2135 b787 8837
00000050: 92ea b935 4bbd e834 ff20 0c35 ef37 1db4
00000060: f8e4 56b4 559c a2b5 ec08 93b2 ce32 0135
00000070: ef6a 0631 3b50 1b31 91a3 a735 af47 2fb5
00000080: 11a1 2735 7f31 6cb5 08ed 8f31 a478 4235
00000090: fc6f 3a34 5778 e0b3 bfa8 3ab6 a383 04b6
000000a0: 442a e2b5 8bd8 a735 a65d 2435 1322 0fb5
000000b0: da0b 86af a650 6031 e3cf f231 aea3 c0b5
000000c0: b59b 3133 9f7a 86b3 0f6e d4b0 064a beb1
000000d0: 3ea9 5135 37a5 f6b4 6468 3f34 5ec7 14b5
000000e0: 6c95 e130 1d79 9bb0 c72f a934 1660 a6b3
000000f0: a71a 1db4 ad5e b535 b2a5 c433 2c4f 8eb5
00000100: 845e a034 57a2 9a31 deb2 e0b4 9ec4 e834
00000110: 9e1b 29b1 e4b0 9fb1 cc57 7835 8ed6 dbb4
00000120: 94eb 12b4 c1a9 a734 2957 bdb4 5de9 23b5
00000130: f73d 26b4 e0bf 98b6 388b 6536 a51e 3836
00000140: 886e 28b4 38c7 6db4 0cc8 1db5 8df2 1bb5
00000150: f8c8 8d35 10d2 9335 865b 5e31 308c 0d31
00000160: 2881 b6b6 816a dab5 2e84 9933 7da0 8334
00000170: 7ee6 5434 bd84 7635 5ac4 8db4 201e f233
00000180: 0138 97b4 0131 e7b5 1321 9e35 c3d5 a535
00000190: 5391 0db5 0cfb 96b4 9931 91b4 baec 47b4
000001a0: 12b9 e934 d4e5 f2b3 acf6 10b6 168e ddb5
000001b0: c3e7 6234 243c 6035 e611 92b4 ccf6 cf33
000001c0: c16f e834 878f 5434 b151 92b5 5946 82b4
000001d0: 061f 0935 bdb8 fb34 a22d af34 0ac1 54b4
000001e0: 5284 d234 23b1 51b4 c177 1836 01c7 4ab6
000001f0: bca7 902f f087 8031 e767 a9b4 0b01 9935
4.285781e-10 -2.2817555e-09 6.033141e-09 2.842846e-09 3.247178e-07 5.3304035e-07 -8.9995706e-07 5.1694127e-07
2.4898458e-07 8.706058e-07 -2.848173e-07 -3.6432994e-07 2.5142927e-07 1.8484908e-06 3.0225722e-06 1.0192324e-06
6.369155e-08 -2.6208178e-07 6.003574e-07 1.627566e-05 1.3851843e-06 4.3351096e-07 5.220208e-07 -1.4642113e-07
-2.0013601e-07 -1.2115439e-06 -1.711711e-08 4.8130175e-07 1.9560351e-09 2.2601074e-09 1.2490074e-06 -6.5296894e-07
6.244673e-07 -8.798888e-07 4.188795e-09 7.2446187e-07 1.736334e-07 -1.04527025e-07 -2.7814383e-06 -1.9746155e-06
-1.6850613e-06 1.2505492e-06 6.123104e-07 -5.3321236e-07 -2.438288e-10 3.2642133e-09 7.066761e-09 -1.4352752e-06
4.135264e-08 -6.262166e-08 -1.5456311e-09 -5.5381433e-09 7.8104847e-07 -4.594128e-07 1.7826238e-07 -5.5424414e-07
1.6413373e-09 -1.1312157e-09 3.1513466e-07 -7.747455e-08 -1.463146e-07 1.3513105e-06 9.157101e-08 -1.0602866e-06
2.9871092e-07 4.500446e-09 -4.1853394e-07 4.3356425e-07 -2.4608435e-09 -4.647619e-09 9.251496e-07 -4.0948038e-07
-1.3683012e-07 3.1229686e-07 -3.526741e-07 -6.106182e-07 -1.5482497e-07 -4.55229e-06 3.4204695e-06 2.7435974e-06
-1.568643e-07 -2.214482e-07 -5.8778164e-07 -5.809496e-07 1.0563808e-06 1.101349e-06 3.2357277e-09 2.0597888e-09
-5.4390584e-06 -1.6273262e-06 7.148661e-08 2.4517422e-07 1.9827891e-07 9.18353e-07 -2.640616e-07 1.1274483e-07
-2.816669e-07 -1.7225103e-06 1.1781543e-06 1.2355671e-06 -5.273807e-07 -2.8122338e-07 -2.7044442e-07 -1.861944e-07
4.3534288e-07 -1.1310809e-07 -2.1601254e-06 -1.6507136e-06 2.1132205e-07 8.353402e-07 -2.7207642e-07 9.684081e-08
4.329468e-07 1.9796254e-07 -1.0901623e-06 -2.4265572e-07 5.108162e-07 4.6886808e-07 3.2629492e-07 -1.9814266e-07
3.9211824e-07 -1.9529084e-07 2.271947e-06 -3.021618e-06 2.631263e-10 3.7407446e-09 -3.1554302e-07 1.1399692e-06

exp_avg_sq f4 [64, 2]
00000000: c4eb 0f25 7623 ee24 d2b4 5525 3eff a825
00000010: 29a0 0d2d ca6e 0b2c b00f 2b2d d984 432e
00000020: d0b8 952d 0604 9e2d 5dc3 2a2e f23e 012d
00000030: 42b0 712d 73e5 0b2d 811c c72e 4d5f 092e
00000040: 4e1f 562c 1147 832d 55e5 792d 7b64 8c2f
00000050: 121b ef2e e686 e32d 3c3f 0f2d d22e cf2b
00000060: 8488 782d 6f28 aa2d cff2 942c e3a1 fc2a
00000070: 7f21 0c26 6851 de23 4644 012f 25e4 4d2e
00000080: 193b 992d 3943 912c 146f a52d d5fd ed2d
00000090: ebd8 fa2c a530 aa2d a021 b32e f51a 3b2e
000000a0: fa32 6b2f 4cce 622e 4ed8 cd2c 2466 ad2b
000000b0: b66e 0a26 74c7 f224 6e5b 3c2c 25dc 382d
000000c0: 4287 b42b 2488 132d e82b 9526 e2ba 2225
000000d0: 96b8 232e 6208 202d 0156 b92c 3f27 9d2d
000000e0: f451 0827 0d8f 8e26 d545 f02c 4996 172d
000000f0: 8458 662b 4b12 ce2e 11fa 482a 197e 2b2d
00000100: 9b9c a52c 3d9f 0429 eb18 162c 9daf 102d
00000110: 0d76 5625 a81e 9526 f220 972c bf15 8d2d
00000120: b3f1 4a2d ddec 9c2c 1c3d 142c 2d52 192c
00000130: 98b9 2f2e 81f9 b32e 69b3 5b2d ecf0 0c2d
00000140: e65c 5c2c b037 1c2c ea2a 5a2c 0559 392e
00000150: 28bf 4b2c 8513 1e2c 99f2 8925 e5a5 7f25
00000160: 2447 142e a0a4 c42d 7f04 272b 1bb9 be2a
00000170: e2b8 622b 0ca7 032d 83f3 bd2c 8e6a 122d
00000180: ea49 ed2b b702 602c b2fe 4a2d 5da0 c32d
00000190: c923 3a2d 70b2 ad2b c288 ba2c 1b88 0e2d
000001a0: 8f78 1c2d bc0c 1f2c 0a66 222e e56e 4e2c
000001b0: e9c3 232d 9881 ab2c 8c4a 852c 93a0 2d2d
000001c0: 094f 442d 525b 012d f986 1a2e 87e1 522e
000001d0: 08e9 d32c a238 c12c b8cd d82c 3a33 4f2c
000001e0: 2e43 e52b 7d05 9c2b 9670 202d 0e35 272d
000001f0: 9672 1c25 a2e5 aa24 30b5 7d2e edfa 7f2e
1.2483153e-16 1.0327612e-16 1.8536069e-16 2.9316313e-16 8.050485e-12 1.9814588e-12 9.723708e-12 4.445586e-11
1.7021412e-11 1.7964307e-11 3.8827042e-11 7.346778e-12 1.3738401e-11 7.952183e-12 9.0545356e-11 3.1234838e-11
3.0428607e-12 1.4924536e-11 1.4204933e-11 2.5537247e-10 1.087327e-10 2.5866819e-11 8.14265e-12 1.472123e-12
1.41274804e-11 1.9344719e-11 4.23337e-12 4.4876524e-13 4.8617653e-16 2.4103765e-17 1.1756737e-10 4.6814237e-11
1.742033e-11 4.128611e-12 1.8807657e-11 2.7056505e-11 7.12951e-12 1.9348365e-11 8.1459506e-11 4.254282e-11
2.1391236e-10 5.156968e-11 5.850465e-12 1.2320739e-12 4.802841e-16 1.0528866e-16 2.676716e-12 1.0508071e-11
1.2827311e-12 8.386212e-12 1.0350853e-15 1.4114579e-16 3.7225854e-11 9.096808e-12 5.2675646e-12 1.7866262e-11
1.8918218e-15 9.892003e-16 6.828963e-12 8.616726e-12 8.1835255e-13 9.371045e-11 1.7850328e-13 9.748224e-12
4.7069688e-12 2.9448005e-14 2.1330114e-12 8.224446e-12 1.8601538e-16 1.0347261e-15 4.295336e-12 1.6039501e-11
1.1536039e-11 4.4600838e-12 2.1065987e-12 2.1788224e-12 3.9955234e-11 8.1842984e-11 1.2488546e-11 8.011574e-12
3.131545e-12 2.2199846e-12 3.1003485e-12 4.2143195e-11 2.8954148e-12 2.2463986e-12 2.3930102e-16 2.2173932e-16
3.371449e-11 2.2355728e-11 5.933656e-13 3.3879223e-13 8.0547906e-13 7.48358e-12 5.3987383e-12 8.322799e-12
1.6860378e-12 3.1833822e-12 1.1538924e-11 2.2240149e-11 1.0580822e-11 1.2341916e-12 5.301621e-12 8.101987e-12
8.894343e-12 2.2602328e-12 3.6925164e-11 2.933592e-12 9.308978e-12 4.8745e-12 3.7883637e-12 9.869566e-12
1.1158859e-11 7.353078e-12 3.5135426e-11 4.794878e-11 6.0228524e-12 5.4916774e-12 6.1619286e-12 2.9444906e-12
1.6290075e-12 1.108599e-12 9.119946e-12 9.5046315e-12 1.3569666e-16 7.411476e-17 5.7686467e-11 5.8203154e-11

exp_avg f4 [64]
00000000: b9b7 8bb1 fd34 feb0 fba2 d4b4 2653 99b5
00000010: 5ee2 3cb6 dd3e a835 51a5 4036 3354 9e36
00000020: d244 31b6 7296 3137 45bd d536 c52e c8b5
00000030: 4043 28b5 99a5 9d36 fd0b 6d32 0310 9e35
00000040: 942e 0fb6 838d e234 14d2 0db6 4da5 bcb6
00000050: 893a 0f36 e009 31b5 1078 af31 b603 8eb5
00000060: 2472 ba36 68ea 11b2 e313 e735 1e02 43b6
00000070: 7fec 3231 0696 bf35 c61f 8936 4c23 5d35
00000080: 8a5d 0f35 f213 56b6 cffd 15b2 4433 a2b6
00000090: 02c6 1f35 50e3 2736 68e5 fd36 2d09 c536
000000a0: 6a94 1a34 d5ba 0cb5 1a63 0935 f7dc 3d31
000000b0: a03c 9f36 c0ae 04b3 16df 88b4 132c 7035
000000c0: 1279 4fb5 c821 7435 5b48 90b4 aa4d c335
000000d0: df2e 8fb5 6870 c9b4 76ea 9ab6 1413 51b4
000000e0: 4439 9cb5 85ad 5336 c22d e935 669b 9435
000000f0: 4d63 32b5 8810 de36 bc59 9531 1381 2136
-4.0663193e-09 -1.8495993e-09 -3.960666e-07 -1.1423588e-06 -2.8145946e-06 1.2535271e-06 2.8706456e-06 4.718569e-06
-2.6415114e-06 1.058505e-05 6.3699285e-06 -1.4914773e-06 -6.268274e-07 4.6982427e-06 1.37979415e-08 1.1776577e-06
-2.1335773e-06 4.2198744e-07 -2.1132919e-06 -5.62208e-06 2.1342732e-06 -6.595201e-07 5.10682e-09 -1.0580904e-06
5.5565197e-06 -8.493409e-09 1.7216629e-06 -2.9058497e-06 2.6036842e-09 1.4274272e-06 4.086617e-06 8.238028e-07
5.340777e-07 -3.1900095e-06 -8.730651e-09 -4.8339443e-06 5.9520255e-07 2.5017252e-06 7.566694e-06 5.8721257e-06
1.439636e-07 -5.242594e-07 5.118069e-07 2.7628724e-09 4.745627e-06 -3.089258e-08 -2.549429e-07 8.9471104e-07
-7.728969e-07 9.094624e-07 -2.6874736e-07 1.4551235e-06 -1.0667972e-06 -3.7520954e-07 -4.6168525e-06 -1.9471582e-07
-1.1639572e-06 3.1542452e-06 1.737317e-06 1.1072086e-06 -6.645467e-07 6.61804e-06 4.3466724e-09 2.4066e-06

exp_avg_sq f4 [64]
00000000: 17ff ed28 5ae4 0e29 9bd8 332d 426b 9a2e
00000010: 3745 9830 1f88 6631 c5bd 7c31 0e2f 1531
00000020: aa96 0a31 7e66 ab2e 21d6 2431 98ff bc30
00000030: a1d7 b22d 914e 2131 13a8 2629 1933 be2f
00000040: 2459 c62f 3d14 cd2f 2c84 ca31 aad7 5132
00000050: 3f21 1830 455f 712e 8be7 7826 0acc 3b2f
00000060: b675 2132 d607 6129 0d2d 5c31 2188 2631
00000070: 89b4 6b29 66ed ec2e dbcc d030 5868 bd2e
00000080: 76e0 302d 1267 7231 a1de c126 b090 5131
00000090: bdc4 c22f 575c 9b2d ea1b 5b31 58a7 212e
000000a0: d0f5 e930 a821 2831 17a7 ed2d c1d4 e729
000000b0: 8376 4430 acdf 812c 507d 8f2e a10f 5b30
000000c0: af98 bd2c eaf2 b52f 29d6 062f 6917 5231
000000d0: 1a99 112e 7ff2 a82e 5a38 d030 9346 5d2f
000000e0: b42a 792e 47f0 6c31 0093 c32e 95b6 1d31
000000f0: 1e6c 422e 8430 9a2e 67b2 9426 bd50 8131
2.6422913e-14 3.1728397e-14 1.0223068e-11 7.022162e-11 1.1079128e-09 3.354678e-09 3.6778698e-09 2.1709101e-09
2.0167286e-09 7.794386e-11 2.398686e-09 1.3751444e-09 2.0332016e-11 2.3473243e-09 3.7005186e-14 3.4597106e-10
3.6079328e-10 3.7303663e-10 5.894e-09 1.22144375e-08 5.5344523e-10 5.4881672e-11 8.6356084e-16 1.708004e-10
9.398198e-09 4.9966833e-14 3.2039822e-09 2.423356e-09 5.233707e-14 1.0774208e-10 1.5192215e-09 8.61326e-11
1.0054282e-11 3.5274224e-09 1.3452409e-15 3.0495748e-09 3.5428185e-10 1.7662467e-11 3.1884562e-09 3.6755793e-11
1.7022845e-09 2.446635e-09 2.7017983e-11 1.0295368e-13 7.14728e-10 3.691233e-12 6.525147e-11 7.9693946e-10
5.3886544e-12 3.309631e-10 1.2263314e-10 3.057233e-09 3.3105164e-11 7.6828315e-11 1.5150008e-09 2.0124906e-10
5.6653973e-11 3.4479102e-09 8.893686e-11 2.2950293e-09 4.420652e-11 7.011727e-11 1.0317919e-15 3.763573e-09

exp_avg f4 [128, 64]
00000000: e0df 0732 7d47 5b32 e0fa 4fb5 b819 77b5
00000010: a34d 9ab5 f500 92b5 0137 0e35 d01f ab33
00000020: 814b 9db4 2f53 e531 a7fc 91b4 941c 25b5
00000030: fc25 80b4 e095 f2b4 df90 ef31 24cf 08b4
00000040: 113d dcb5 90e4 91b5 ea26 15b4 4c99 b835
00000050: 1260 6531 a3ab 3db5 d9fe 3132 b3f3 5c31
00000060: d070 1e34 f635 0732 0cbc c234 fc7b 70b5
00000070: 5a0c 6832 ceb5 b031 9eb9 0c35 bef5 9d31
00000080: 6a3d e931 b833 8bb5 8ea0 2332 2679 aeb5
00000090: a129 8eb5 602e 4534 1a2f 00b5 a270 1932
000000a0: 224b 6cb5 f87e 5eb5 57a2 43b4 f29a b631
000000b0: 95eb dfb4 7e47 e732 80e7 26b4 0e33 85b5
000000c0: 4e8d e831 9375 7ab5 88c3 76b5 c2fd ebb4
000000d0: 4347 08b5 e596 f331 a35b cd33 442a 5bb5
000000e0: 5251 07b5 aed5 5433 5e03 9b34 f5f2 ab34
000000f0: e75e 8fb5 7b75 f031 1259 5e32 54a2 9633
00000100: edf8 8e32 7212 ab32 ae96 1cb6 4441 35b5
00000110: 6c0b a7b5 dd54 abb5 b07a 51b3 0dde aa34
00000120: f280 11b6 e3e4 4934 6c15 2235 5946 0db6
00000130: d543 bc33 d261 0b33 423a 7e32 eb4a 8932
00000140: a6ce 22b6 2783 22b6 b405 76b5 52e2 8bb5
00000150: 366c aab4 542d 21b6 3f5f c832 1a3c 45b4
00000160: c16b 9db5 0fbc 0033 48a1 9cb5 fbe5 22b6
00000170: 1b03 9832 d38a cf33 7515 03b4 341b 35b4
00000180: e41e e4b3 eb4e d1b5 3d0d 1632 097f 62b5
00000190: 2efd feb5 acb5 2eb4 8df9 bcb5 60af 4e34
000001a0: 220c 2cb6 0f58 dfb4 2be0 2cb3 72d1 8032
000001b0: 6475 b934 8340 7332 f646 9532 766e 19b6
000001c0: 2712 2bb3 5273 3db5 df01 42b5 e6d6 8cb5
000001d0: 1b52 c6b5 ede5 3ab4 51c6 1ab6 237a d4b4
000001e0: b0e6 93b5 6784 80b3 0850 c3b3 27a2 8cb5
000001f0: 6d31 c0b5 5e25 9434 fdd3 8c32 78fd 61b4
00000200: 0000 0000 0000 0000 0000 0000 0000 0000
00000210: 0000 0000 0000 0000 0000 0000 0000 0000
00000220: 0000 0000 0000 0000 0000 0000 0000 0000
00000230: 0000 0000 0000 0000 0000 0000 0000 0000
00000240: 0000 0000 0000 0000 0000 0000 0000 0000
00000250: 0000 0000 0000 0000 0000 0000 0000 0000
00000260: 0000 0000 0000 0000 0000 0000 0000 0000
00000270: 0000 0000 0000 0000 0000 0000 0000 0000
00000280: 0000 0000 0000 0000 0000 0000 0000 0000
00000290: 0000 0000 0000 0000 0000 0000 0000 0000
000002a0: 0000 0000 0000 0000 0000 0000 0000 0000
000002b0: 0000 0000 0000 0000 0000 0000 0000 0000
000002c0: 0000 0000 0000 0000 0000 0000 0000 0000
000002d0: 0000 0000 0000 0000 0000 0000 0000 0000
000002e0: 0000 0000 0000 0000 0000 0000 0000 0000
000002f0: 0000 0000 0000 0000 0000 0000 0000 0000
00000300: 303e 5a2f 84d4 3530 10ba e533 1cb0 15b4
00000310: 6974 8134 8895 87b3 6df3 2832 13a1 7db3
00000320: 9f49 7834 329f 26b3 5ce2 9ab1 e842 7233
00000330: 6ff3 7bb2 2981 73b2 bfe9 5cae ba60 da30
00000340: c2e0 6f34 32f0 36b3 aac4 e633 b0a3 5e34
00000350: c18d a533 40ca 9233 3b9c d62f 6f67 1734
00000360: 2d94 6ab3 4b42 d4b0 f873 2fb2 635f 8e34
00000370: 36ad f830 b0bd 3c33 9edc 1533 7aed 8b33
00000380: 1747 9532 dbb6 3d34 c603 b630 38a1 3fb3
00000390: ea0b 8132 f600 1334 701c 9634 cac7 34b3
000003a0: e621 ca33 852a 21b4 fe50 33b2 4a52 4eb0
000003b0: 83cb b8b3 c7dc eb32 51ae ffb1 9813 7d33
000003c0: ed86 b2b1 66ff abb4 e451 0fb4 ee4b e932
000003d0: f48a 0133 385a 0d33 3fd3 3e34 7019 f4b3
000003e0: ff5c 00b4 90cc 5c33 9ec4 05b3 2380 8eb2
000003f0: fabe 5732 a09a 77b3 3f30 0031 c4e9 3934
7.9089375e-09 1.2763732e-08 -7.747858e-07 -9.2052096e-07 -1.1496489e-06 -1.0878126e-06 5.2979163e-07 7.968595e-08
-2.9298465e-07 6.674234e-09 -2.7192183e-07 -6.1508877e-07 -2.3869495e-07 -4.518506e-07 6.9722854e-09 -1.2741344e-07
-1.640905e-06 -1.0869862e-06 -1.3890863e-07 1.3753684e-06 3.3378496e-09 -7.065775e-07 1.0360702e-08 3.215274e-09
1.4755938e-07 7.8703035e-09 3.6272138e-07 -8.958739e-07 1.3506986e-08 5.142943e-09 5.242417e-07 4.597239e-09
6.7881745e-09 -1.0371359e-06 9.524355e-09 -1.2999269e-06 -1.059194e-06 1.8363926e-07 -4.775226e-07 8.931382e-09
-8.8026184e-07 -8.288621e-07 -1.8219849e-07 5.3145124e-09 -4.1708395e-07 2.692445e-08 -1.5544174e-07 -9.924131e-07
6.768153e-09 -9.330335e-07 -9.1926677e-07 -4.3956794e-07 -5.076765e-07 7.0893855e-09 9.562725e-08 -8.164536e-07
-5.0409756e-07 4.9554437e-08 2.887345e-07 3.2028007e-07 -1.068195e-06 6.9982753e-09 1.2942353e-08 7.0144466e-08
1.6644174e-08 1.9915408e-08 -2.3333519e-06 -6.752273e-07 -1.2445794e-06 -1.2765191e-06 -4.8773188e-08 3.182653e-07
-2.168174e-06 1.8802852e-07 6.0380876e-07 -2.1051585e-06 8.766771e-08 3.2452427e-08 1.4797992e-08 1.5982968e-08
-2.4260166e-06 -2.4216222e-06 -9.165044e-07 -1.0422175e-06 -3.17437e-07 -2.4017254e-06 2.3326377e-08 -1.836892e-07
-1.1728772e-06 2.997336e-08 -1.1669845e-06 -2.4273747e-06 1.7696541e-08 9.6644406e-08 -1.2208132e-07 -1.6866835e-07
-1.0622696e-07 -1.5594682e-06 8.734159e-09 -8.437642e-07 -1.899816e-06 -1.6271105e-07 -1.407972e-06 1.9249046e-07
-2.563706e-06 -4.1601058e-07 -4.025075e-08 1.4996406e-08 3.4544348e-07 1.415913e-08 1.7378152e-08 -2.2863073e-06
-3.983055e-08 -7.05758e-07 -7.2273355e-07 -1.0493357e-06 -1.4776045e-06 -1.7406246e-07 -2.3063224e-06 -3.9576943e-07
-1.1019492e-06 -5.984548e-08 -9.094953e-08 -1.0478005e-06 -1.43195e-06 2.7594336e-07 1.6394546e-08 -2.104697e-07
0.0 0.0 0.0 0.0 0.0 0.0 0.0 0.0
0.0 0.0 0.0 0.0 0.0 0.0 0.0 0.0
0.0 0.0 0.0 0.0 0.0 0.0 0.0 0.0
0.0 0.0 0.0 0.0 0.0 0.0 0.0 0.0
0.0 0.0 0.0 0.0 0.0 0.0 0.0 0.0
0.0 0.0 0.0 0.0 0.0 0.0 0.0 0.0
0.0 0.0 0.0 0.0 0.0 0.0 0.0 0.0
0.0 0.0 0.0 0.0 0.0 0.0 0.0 0.0
1.9849078e-10 6.614942e-10 1.0697488e-07 -1.3940775e-07 2.4112822e-07 -6.313627e-08 9.834236e-09 -5.905265e-08
2.3123583e-07 -3.8794674e-08 -4.507724e-09 5.6405867e-08 -1.4665473e-08 -1.4173829e-08 -5.0229817e-11 1.5889079e-09
2.2340376e-07 -4.2593634e-08 1.07459826e-07 2.073491e-07 7.709196e-08 6.835444e-08 3.9037382e-10 1.41006e-07
-5.4617136e-08 -1.5443872e-09 -1.0212709e-08 2.6518964e-07 1.8093604e-09 4.394468e-08 3.4892416e-08 6.5158886e-08
1.737821e-08 1.7668519e-07 1.3243315e-09 -4.461728e-08 1.5022994e-08 1.3690791e-07 2.7960368e-07 -4.2091223e-08
9.412524e-08 -1.5009762e-07 -1.0437587e-08 -7.5059303e-10 -8.605186e-08 2.7457999e-08 -7.4412942e-09 5.8923973e-08
-5.195821e-09 -3.203706e-07 -1.3347704e-07 2.7159299e-08 3.016153e-08 3.2911174e-08 1.777198e-07 -1.13667625e-07
-1.1954761e-07 5.140879e-08 -3.1145298e-08 -1.6589246e-08 1.255807e-08 -5.76498e-08 1.8653876e-09 1.7314511e-07
