new_saved_models/v2_n1e6_sk10000.pt (torch, 529309 bytes, 24 tensors)

net.0.weight f4 [64, 2]
0	0xbe9e0821	-0.30865577
1	0xbec58a34	-0.38582003
2	0xbd29dacf	-0.041468438
3	0xbd3608df	-0.044442054
4	0x3f2e4910	0.68080235
5	0x3e73b8d9	0.23800983
6	0xbf263bcb	-0.64934987
7	0x3ee08d3b	0.4385775
8	0x3e7bc98a	0.245886
9	0x3efa0316	0.4883048
10	0xbf17bca4	-0.5927222
11	0xbec145fc	-0.37748706
12	0xbf3d0f23	-0.7385122
13	0x3f2db825	0.6785911
14	0xbf38613e	-0.7202338
15	0xbf1da8ff	-0.6158599
16	0x3f1ddd8c	0.6166618
17	0xbe0d5aaf	-0.13804124
18	0x3f0fffd3	0.5624973
19	0xbdb7b66e	-0.089703426
20	0x3f139980	0.576561
21	0x3e61babd	0.22043891
22	0xbe883918	-0.2660606
23	0xbd78671b	-0.060645204
24	0xbf154261	-0.5830441
25	0xbe31f8c1	-0.17380048
26	0x3e69f8e4	0.2284885
27	0xbe88547c	-0.26626956
28	0x3f22e882	0.6363603
29	0xbe8a21db	-0.26978955
30	0xbf20fd5b	-0.6288659
31	0xbf3526bc	-0.7076223
32	0x3f1ceb1c	0.6129625
33	0xbdd7bef3	-0.105344675
34	0xbf2234bc	-0.63361716
35	0x3c885ae2	0.016644899
36	0x3ec9f761	0.39446548
37	0x3f4177a1	0.75573164
38	0x3f133984	0.57509637
39	0x3dde3924	0.108507425
40	0x3d8e2306	0.06940274
41	0xbf3d836c	-0.7402866
42	0xbf1d0215	-0.613313
43	0x3f125942	0.57167447
44	0xbea9f585	-0.3319513
45	0x3f0bc382	0.54595196
46	0xbecc7fd5	-0.39941278
47	0x3e42d220	0.19025469
48	0x3f3200d9	0.69532543
49	0x3f27accf	0.6549806
50	0xbee48df1	-0.44639543
51	0x3e6b8c4c	0.23002738
52	0x3e8fd347	0.2809088
53	0x3dee07ce	0.116225824
54	0x3e540d27	0.20708142
55	0x3e8fb3a9	0.28066757
56	0xbe658a32	-0.22415999
57	0x3e631c64	0.22178799
58	0x3eaf727f	0.3426704
59	0xbcbab98c	-0.022793554
60	0xbd1b1e9b	-0.037870985
61	0x3f0b36ed	0.54380685
62	0xbe40a5ef	-0.18813299
63	0x3e0011ea	0.12506834
64	0x3f1e164a	0.6175276
65	0x3eb10f27	0.34581873
66	0x3f2c422c	0.6728847
67	0x3c3d82d4	0.011566836
68	0xbe99c8a0	-0.30035877
69	0x3f2c0f32	0.67210686
70	0x3ee4cc7a	0.44687253
71	0x3ea26754	0.31719458
72	0xbf0dd70b	-0.55406255
73	0xbecc569a	-0.39909822
74	0xbd92439f	-0.07141804
75	0x3eb86c41	0.3602009
76	0x3d3e2766	0.046424292
77	0xbd724f41	-0.059157614
78	0xbf34f282	-0.7068254
79	0xbe0182d6	-0.12647566
80	0x3f01eaec	0.5074909
81	0xbe45d534	-0.19319612
82	0x3e7925e1	0.24330856
83	0xbeaae8ad	-0.33380643
84	0x3e162be6	0.14665183
85	0x3f06d67e	0.5267104
86	0xbed2d90f	-0.41181228
87	0xbf354c9c	-0.7082002
88	0x3e8ab910	0.27094316
89	0x3c1e7a80	0.009672761
90	0x3e7edfe3	0.24890094
91	0xbe0ffe57	-0.14061867
92	0x3e8a5815	0.27020326
93	0xbd02c4d9	-0.03192601
94	0x3ec09e0d	0.37620583
95	0x3e0b3fda	0.13598576
96	0xbec9ff6f	-0.39452693
97	0xbed75780	-0.42058945
98	0x3f23fac9	0.6405454
99	0xbea720d0	-0.3264222
100	0x3e827793	0.25481853
101	0x3ed64f22	0.4185725
102	0x3dce21b9	0.10065026
103	0x3ef7bb42	0.48385054
104	0x3f01d5c3	0.507168
105	0xbf4355d0	-0.76302814
106	0xbf1abf75	-0.6044839
107	0xbe9f2fef	-0.31091258
108	0xbc5c5dc7	-0.013450093
109	0x3ee70142	0.45118147
110	0x3dbcb1e2	0.09213616
111	0x3ddb4d0e	0.107080564
112	0x3ed498ad	0.41522732
113	0xbf123037	-0.5710482
114	0x3e77ea9b	0.24210589
115	0x3e8e1e53	0.2775751
116	0x3d715843	0.058922064
117	0x3f035790	0.51305485
118	0x3ee849c0	0.45368767
119	0xbd27903f	-0.04090905
120	0xbc782be7	-0.015147186
121	0x3d172a54	0.0369056
122	0xbe8fb79e	-0.28069776
123	0xbefbb0a5	-0.49158207
124	0x3f071525	0.5276664
125	0x3ec2d9e7	0.3805687
126	0x3cba77cb	0.0227622
127	0xbeb1c5dd	-0.3472127

net.0.bias f4 [64]
0	0xbec9b2d4	-0.39394248
1	0xbe040d7e	-0.12895772
2	0x3deea484	0.116524726
3	0x3dcfdfc0	0.10150099
4	0xbee3e014	-0.44506896
5	0x3e458e82	0.19292644
6	0xbef8513d	-0.4849948
7	0xbf2090b5	-0.62720805
8	0xbeb3df11	-0.35131124
9	0xbc812c16	-0.015768092
10	0x3ec25c0b	0.37960848
11	0x3f0f5e01	0.56002814
12	0x3e7adaa1	0.24497463
13	0x3e30b08e	0.1725485
14	0xbecc26d0	-0.39873362
15	0x3e5816d1	0.21102454
16	0xbdd832c9	-0.105565615
17	0x3df8bb14	0.12145057
18	0x3f25cb28	0.64763117
19	0x3cd5205c	0.026016407
20	0x3f0cd122	0.5500661
21	0x3e62fbec	0.22166413
22	0xbf1cfd55	-0.61324054
23	0xbd08faf6	-0.03344246
24	0x3e82aafe	0.25521082
25	0xbf1abb93	-0.60442466
26	0x3f300e80	0.68772125
27	0xbddd2d51	-0.10799659
28	0x3f05b913	0.52235526
29	0xbe2eafd0	-0.17059255
30	0xbe575d12	-0.21031597
31	0xbf0c99ba	-0.5492207
32	0x3d97c4a6	0.074105546
33	0xbe0d24ca	-0.13783565
34	0x3e2f00c9	0.17090143
35	0x3ec74c9d	0.3892564
36	0x3f1c9ed5	0.6117986
37	0x3e1a45b8	0.15065658
38	0xbf1fc167	-0.62404484
39	0xbe8e36ae	-0.27776092
40	0x3f0eeb83	0.5582811
41	0xbf087d43	-0.53316134
42	0xbeb54de1	-0.3541098
43	0x3bc96e7a	0.006147203
44	0x3f253039	0.64526707
45	0xbf3a06b8	-0.726665
46	0x3f173686	0.5906757
47	0x3ea6f08a	0.32605392
48	0xbec319b3	-0.38105544
49	0xbf2860af	-0.6577253
50	0xbf17d6fc	-0.59312415
51	0x3de090bb	0.10965105
52	0x3df9ff6e	0.122069225
53	0x3e3584b9	0.17726411
54	0xbedaace1	-0.4271002
55	0x3f17f483	0.5935747
56	0xbede5ae7	-0.43428728
57	0xbdeb60f5	-0.114931025
58	0xbef5d24e	-0.48012012
59	0x3ecab3d7	0.39590332
60	0xbe57dd50	-0.21080518
61	0xbe0c7dfc	-0.13719934
62	0x3df8e495	0.121529736
63	0x3eddb23d	0.43300048

net.2.weight f4 [128, 64]
0	0x3d85748d	0.06516371
1	0xbdb92576	-0.09040348
2	0x3c1115b6	0.008855274
3	0x3d050e88	0.03248456
4	0x3d418172	0.04724259
5	0xbd5bb6d0	-0.05364114
6	0xbe182234	-0.14856797
7	0x3dd04cdc	0.1017091
8	0xbd4e8d1c	-0.05042754
9	0xbdca7480	-0.09885502
10	0x3d1b6c09	0.037944827
11	0xbd25beba	-0.040465094
12	0x3c34cb97	0.011034868
13	0x3e26b37d	0.16279407
14	0xbde1b84c	-0.1102148
15	0x3d5d8f5b	0.054091793
16	0x3e16dd34	0.1473282
17	0xbdbc59a7	-0.09196787
18	0x3dc12cdb	0.094323836
19	0xbddea974	-0.10872164
20	0x3da21041	0.079132564
21	0xbde3b6c7	-0.111188464
22	0xbe12f818	-0.14352453
23	0x3cbabb16	0.022794288
24	0xbde2d0d5	-0.11074988
25	0xbe1b7f9d	-0.151854
26	0xbd2233d4	-0.03960021
27	0xbda4d9ab	-0.08049329
28	0x3df52b44	0.11971143
29	0xbcdafd59	-0.026732134
30	0x3e0bb5d2	0.13643578
31	0x3cda09b8	0.026615962
32	0x3ce35055	0.027748266
33	0xbd85935c	-0.06522247
34	0x3d04b5fe	0.032400124
35	0xbd8b6db8	-0.068080366
36	0xbdb07389	-0.086157866
37	0xbdd23df3	-0.10265722
38	0x3da62f73	0.08114519
39	0xbddf581d	-0.10905478
40	0x3db62c70	0.088951945
41	0x3d479910	0.048729956
42	0x3d442342	0.047885187
43	0x3d3443f0	0.044010103
44	0x3c8d78c7	0.017269505
45	0x3d6aaaca	0.057291783
46	0xbd7d8edc	-0.06190382
47	0x3e17b08f	0.14813446
48	0x3e25a4a1	0.16176082
49	0x3e2b210b	0.16711824
50	0x3dc5875c	0.096449584
51	0xbdc98252	-0.0983931
52	0x3d6f3769	0.058402453
53	0x3b4d12fa	0.0031291828
54	0xbdfb94e8	-0.12284261
55	0x3ddb0a45	0.10695318
56	0xbdd0c58d	-0.1019393
57	0xbbe88471	-0.0070958664
58	0xbda15dcd	-0.07879219
59	0x3d6f5193	0.058427405
60	0x3d8a07e9	0.0673979
61	0xbdddbf44	-0.10827497
62	0x3dd3bed3	0.10339131
63	0xbd0d5075	-0.034500558
64	0x3db78e74	0.08962718
65	0x3de5ee64	0.1122711
66	0x3ca239e8	0.019803002
67	0xbddab094	-0.10678211
68	0x3ddd1a4a	0.1079603
69	0xbdd07d1e	-0.10180114
70	0x3c92e708	0.01793243
71	0xbb5f2e80	-0.0034054816
72	0xbd8ea2fe	-0.06964682
73	0x3db6af66	0.08920173
74	0xbd7a5584	-0.06111671
75	0xbd0a2abc	-0.03373216
76	0x3dbcee40	0.0922513
77	0xbd61c6e4	-0.055121318
78	0x3d4c8164	0.049928084
79	0xbd34fa6c	-0.044184133
80	0xbd89d986	-0.067309424
81	0xbd8fec8e	-0.07027541
82	0xbd289e50	-0.041166604
83	0xb94b4c00	-0.00019387901
84	0xbcb5b3e8	-0.022180513
85	0x3daf6614	0.08564392
86	0xbc3885d0	-0.011262372
87	0x3cc12f90	0.02358225
88	0x3c0ccee0	0.008594245
89	0xbd9430d4	-0.07235876
90	0xbd72e9a4	-0.05930485
91	0xbd439524	-0.047749653
92	0xbded1fce	-0.11578332
93	0x3d114fe0	0.035476565
94	0xbd9e2a1e	-0.07722877
95	0xbd22ac3c	-0.039715037
96	0x3dbcb224	0.09213665
97	0x3cd53110	0.026024371
98	0xbd8e01a6	-0.06933908
99	0xbd1e46d8	-0.03864178
100	0x3c69a720	0.014261037
101	0x3ca62228	0.020279959
102	0xbdbbab1a	-0.091634944
103	0x3dc50c54	0.09621492
104	0x3cd7cc00	0.026342392
105	0x3de51fdc	0.11187717
106	0xbdd2155e	-0.10257982
107	0x3ac0c380	0.0014706701
108	0xbdf3db04	-0.11907008
109	0xbd297c54	-0.041378334
110	0x3cbe7428	0.023248747
111	0x3bd1bf40	0.0064009726
112	0x3d727cfc	0.059201226
113	0x3db9f9f0	0.09080875
114	0x3c50b910	0.012739435
115	0xbcb71588	-0.022349134
116	0xbdd78374	-0.105231196
117	0xbcd36dc8	-0.025809184
118	0xbda269e8	-0.07930356
119	0xbc9e88e0	-0.019352376
120	0x3d2bcfe8	0.04194632
121	0xbc0b4ad0	-0.008501723
122	0xbb3d72c0	-0.0028907508
123	0x3ce72ce0	0.02821964
124	0x3da4e040	0.08050585
125	0xbd1c4140	-0.038148165
126	0x3c9d1a18	0.019177482
127	0xbdb3817a	-0.0876493
128	0xbd1e3a6a	-0.038629927
129	0xbcfe08eb	-0.031010112
130	0xbc4e55cc	-0.012593698
131	0xbcd063fd	-0.025438303
132	0x3d4278f5	0.047478635
133	0x3bf6b657	0.007529061
134	0xbd098f3c	-0.033583865
135	0xbd7f379a	-0.062308885
136	0x3d403390	0.046924174
137	0xbd207afa	-0.03917978
138	0x3ddc90cb	0.107698046
139	0xbd70ac94	-0.058758333
140	0xbc5fe1e3	-0.013664695
141	0xbdcb4932	-0.0992607
142	0x3d116dc8	0.035505086
143	0x3dace149	0.08441407
144	0x3de495ba	0.111613706
145	0xbd1e9ca1	-0.03872359
146	0x3d0fda76	0.03512045
147	0x3cfd7af7	0.030942423
148	0x3dcf4938	0.10121387
149	0x3dcb5b7d	0.099295594
150	0x3db1bcef	0.08678614
151	0x3d850a91	0.06496156
152	0x3da0a2e3	0.07843568
153	0xbdf143d3	-0.117805146
154	0x3dcbf8cb	0.09959563
155	0x3d4222f7	0.047396626
156	0x3d762d9e	0.060102098
157	0x3d56fda7	0.052487995
158	0x3dd43545	0.10361723
159	0x3c7df5e4	0.015500519
160	0x3d611a96	0.054956995
161	0x3d9c4832	0.07630958
162	0x3dba51b6	0.090976164
163	0xbd926876	-0.071488306
164	0x3e013290	0.12616944
165	0x3d6ce9bd	0.057840098
166	0x3d963166	0.07333641
167	0x3e232d8d	0.15935345
168	0x3da2d4df	0.07950758
169	0xbd68777f	-0.056754585
170	0xbccbb04b	-0.024864336
171	0x3df1ca22	0.11806132
172	0xbd5a284b	-0.053261083
173	0xbd55efbd	-0.052230585
174	0x3e0ef702	0.13961414
175	0xbd486112	-0.0489207
176	0x3dbdbc9d	0.09264491
177	0xbcc9645e	-0.024583992
178	0xbd62fd52	-0.055417366
179	0x3dc2190c	0.094774336
180	0x3e42dad0	0.19028783
181	0x3d1e47c1	0.03864265
182	0xbcaeadf8	-0.02132319
183	0x3dd950cb	0.10611113
184	0x3d60760b	0.054800075
185	0xbd3ab96d	-0.045586992
186	0x3b700952	0.003662665
187	0x3d11b36a	0.035571493
188	0xbe196c5e	-0.14982745
189	0x3d4ea302	0.050448425
190	0x3de7fb48	0.11327225
191	0x3b866fbb	0.004102675
192	0xbd80402d	-0.062622406
193	0x3d3c61dd	0.045991767
194	0x3daf35d6	0.0855519
195	0x3e23af86	0.15984926
196	0x3dfe6dcd	0.124232866
197	0x3d5fc02e	0.054626636
198	0xbc66084c	-0.014040064
199	0x3def722f	0.11691701
200	0x3d1ea6fa	0.03873346
201	0xbdb987e0	-0.09059119
202	0x3d824b3f	0.06362008
203	0x3dbc314f	0.09189092
204	0xbe1d8957	-0.15384422
205	0xbc86eb98	-0.016469762
206	0xbe3ccd60	-0.1843772
207	0x3cb0efb4	0.021598674
208	0xbd94e4ff	-0.0727024
209	0xbced41b9	-0.028962003
210	0x3dda8d89	0.10671527
211	0xbce8155c	-0.028330497
212	0x3cd87c55	0.026426474
213	0xbd01d171	-0.03169388
214	0xbd63e82d	-0.055641342
215	0xbe153c9b	-0.145739
216	0x3dabadd9	0.08382768
217	0xbd87a257	-0.06622761
218	0xbcc84543	-0.024447089
219	0xbd38c306	-0.045107864
220	0x3debb6e4	0.11509493
221	0xbe1edf33	-0.15514831
222	0xbd95bff3	-0.07312002
223	0x3d996de9	0.07491667
224	0xbd3bdd22	-0.045865186
225	0xbcff5ca1	-0.031172099
226	0xbdd75865	-0.10514907
227	0xbcb3b241	-0.021935584
228	0xbe06e68e	-0.13173887
229	0xbda65d9c	-0.08123323
230	0x3de8d9ea	0.11369689
231	0xbd055e42	-0.032560594
232	0xb9c12988	-0.00036842772
233	0x3d889d1d	0.06670592
234	0x3d93436d	0.07190595
235	0x3d4befa5	0.04978909
236	0xbcc56d3e	-0.024099942
237	0xbd5e9fa9	-0.054351483
238	0x3d119c76	0.035549603
239	0xbb77e8b9	-0.0037827922
240	0xbd048bca	-0.032359876
241	0x3cf5c938	0.030003175
242	0x3db171fb	0.08664318
243	0x3d2cf78b	0.042228263
244	0xbd7e8616	-0.062139593
245	0x3da91299	0.082555
246	0xbd0b8a86	-0.034067653
247	0x3da89d02	0.08233072
248	0xbdde1345	-0.10843519
249	0x3b32baa9	0.0027271903
250	0xbda9abb3	-0.08284702
251	0x3da0bcd7	0.07848518
252	0x3d71da6d	0.059046198
253	0xbe1fb9d7	-0.15598236
254	0xbbec8ff7	-0.0072193104
255	0xbda9a685	-0.08283714

net.2.bias f4 [128]
0	0xbbdfd52a	-0.006830831
1	0x3d3ad0c0	0.045609236
2	0x3e2aa0fa	0.1666297
3	0x3cff5433	0.031168079
4	0x3e1ae983	0.1512814
5	0xbd64c3fb	-0.055850964
6	0xbd8b4283	-0.067997955
7	0xbd4d31a8	-0.050096184
8	0x3d619d81	0.055081848
9	0x3d1bf8fe	0.038079254
10	0xbd18ed86	-0.037335895
11	0xbdfe2bf1	-0.12410725
12	0xbc20aac8	-0.009806342
13	0xbdbb27c8	-0.09138447
14	0x3d6375db	0.055532318
15	0xbdc4d8a0	-0.096116304
16	0x3ce50ccf	0.02796021
17	0xbd8ac3a8	-0.067756
18	0xbc1ec000	-0.009689331
19	0x3debc719	0.11512584
20	0x3d01c8da	0.031685688
21	0x3c5a2223	0.013313803
22	0x3c3697c4	0.011144582
23	0xbc223ddf	-0.0099024465
24	0x3ddce328	0.10785514
25	0xbd35e176	-0.04440447
26	0xbdbad40d	-0.09122477
27	0xbdd5683b	-0.10420271
28	0x3d98d722	0.07462908
29	0x3e095bae	0.1341388
30	0xbdad1018	-0.08450335
31	0x3bd39361	0.006456778
32	0x3db75ca7	0.08953219
33	0xbd9c55c6	-0.076335475
34	0x3d7acaff	0.06122875
35	0x3e063e4c	0.13109702
36	0xbd27eb0d	-0.040995646
37	0xbdeb5feb	-0.11492904
38	0xbdaad278	-0.08340925
39	0xbd5143cb	-0.051090043
40	0xbde40dca	-0.111354426
41	0xbd8dcfe4	-0.069244176
42	0x3d8d471c	0.06898329
43	0xbd98de0b	-0.07464226
44	0xbccdaf6f	-0.025108067
45	0xbdcb9219	-0.09939975
46	0x3dc113ac	0.0942758
47	0x3a87d705	0.0010363763
48	0x3dd9ac8d	0.106286146
49	0x3d25900b	0.040420573
50	0x3d5d212d	0.053986717
51	0x3e135891	0.14389254
52	0xbc5dac2b	-0.013529818
53	0xbded4b56	-0.11586635
54	0xbd6b7091	-0.0574804
55	0x3d0fc743	0.03510214
56	0x3c139119	0.009006762
57	0x3d0a69b1	0.0337922
58	0xbc5c9f89	-0.0134657705
59	0x3d3dd3cc	0.046344563
60	0x3d8891ca	0.06668432
61	0xbbe03a20	-0.0068428665
62	0x3da15ad8	0.07878655
63	0x3d93e19e	0.072207674
64	0xbd1926ae	-0.037390403
65	0xbd3ab898	-0.0455862
66	0x3d98cec1	0.0746131
67	0x3d7f0889	0.062264
68	0xbbf35e60	-0.007427022
69	0xbdcde995	-0.10054318
70	0x3dc8854b	0.097910486
71	0xbbaf2626	-0.005345124
72	0xbd4a1504	-0.04933645
73	0xbddab600	-0.10679245
74	0xbc30a460	-0.010781378
75	0x3dc70455	0.09717623
76	0x3e18a8d0	0.14908147
77	0x3d70ed37	0.058819976
78	0x3e09ba2d	0.13449927
79	0x3d84e9ad	0.064898826
80	0xbda76589	-0.08173663
81	0xbdc957a8	-0.09831172
82	0xbd357e93	-0.044310164
83	0x3c43ef4a	0.011958906
84	0x3c6288af	0.013826533
85	0xbb0f6efe	-0.0021886225
86	0x3d0a6b6f	0.033793863
87	0xbda832ae	-0.082127914
88	0x3d1fd9fa	0.039026238
89	0x3c853bed	0.016263926
90	0x3ca68660	0.020327747
91	0xbde812e0	-0.11331725
92	0xbc695d26	-0.0142434
93	0xbd80f780	-0.06297207
94	0x3d5e7505	0.054310817
95	0xbd43f080	-0.04783678
96	0xbdc1550c	-0.094400495
97	0xbd815179	-0.06314368
98	0x3d774cb2	0.060375877
99	0xbd758c10	-0.059948027
100	0xbb84d6b3	-0.0040539145
101	0xbdd6fff8	-0.10498041
102	0xbd51179f	-0.051047917
103	0x3dcb7d81	0.09936047
104	0xbdc7e57e	-0.09760569
105	0x3beba343	0.007191093
106	0x3bf645f9	0.0075156656
107	0xbdf806ce	-0.12110673
108	0xbe2125fb	-0.15737145
109	0xbdf89d40	-0.12139368
110	0xbd88b4af	-0.06675088
111	0xbc91516f	-0.017739026
112	0xbd3559b7	-0.044275012
113	0x3d64a09e	0.05581724
114	0x3dea0b80	0.11427975
115	0x3dae4f4e	0.0851122
116	0xbd8f3c1d	-0.069938876
117	0xbdded538	-0.10880512
118	0xbdfe2289	-0.12408931
119	0x3d5d5ad2	0.05404169
120	0xbc893659	-0.016749548
121	0xbd6f6934	-0.05844994
122	0x3e08476a	0.13308492
123	0x3d85394c	0.06505069
124	0xbc6603e0	-0.01403901
125	0x3cdfedd7	0.02733509
126	0x3dab4bf0	0.08364093
127	0x3dd5c7d0	0.10438502

net.4.weight f4 [256, 128]
0	0x3dd8a13e	0.105776295
1	0xbdb41c0a	-0.087944105
2	0xbd0ebf2b	-0.03485028
3	0x3dbefba6	0.09325342
4	0x3d5410ea	0.051773943
5	0x3e1f60c4	0.15564257
6	0xbd2dfdc6	-0.042478345
7	0x3c3c6db3	0.011500764
8	0x3d3344c7	0.043766763
9	0xbc3941ee	-0.011307223
10	0x3df95928	0.12175208
11	0xbd8ec962	-0.069720045
12	0x3db87416	0.09006517
13	0x3cbf0a72	0.02332041
14	0x3e0f417c	0.13989824
15	0x3da60a3a	0.08107419
16	0x3d236b81	0.039897446
17	0xbd25992f	-0.04042929
18	0x3de2c8bf	0.110734455
19	0x3c13ef44	0.009029213
20	0x3e13cca4	0.14433533
21	0xbbd64c86	-0.006539884
22	0x3a12eea5	0.0005605019
23	0x3deb4ee2	0.11489655
24	0xbd42b0f1	-0.047532026
25	0x3e1fc052	0.15600708
26	0x3d0d4785	0.034492034
27	0x3daeab22	0.08528735
28	0x3dfdd564	0.12394217
29	0xbd1554ab	-0.0364577
30	0x3e323890	0.1740439
31	0x3e105a8e	0.14097044
32	0x3e26a228	0.16272795
33	0x3dec27ee	0.115310535
34	0xbd81cfba	-0.06338449
35	0xbce5d43c	-0.028055303
36	0x3df789c3	0.12086823
37	0x3d818bb1	0.06325472
38	0x3e23098a	0.15921608
39	0x3c93b130	0.018028826
40	0x3d6a7582	0.05724097
41	0xbcf4fbaa	-0.029905159
42	0x3cb5971a	0.022166777
43	0x3d8d7b29	0.069082566
44	0xbcbb2698	-0.022845551
45	0x3ca1aa2e	0.019734468
46	0x3cff13e1	0.031137409
47	0x3d401e77	0.046904054
48	0xbd664311	-0.056216303
49	0x3de95701	0.11393548
50	0x3de4a40a	0.111641005
51	0x3c93b56b	0.018030843
52	0x3c5e58a5	0.013570939
53	0xbd880086	-0.06640725
54	0x3d8271da	0.06369372
55	0x3dccc241	0.099979885
56	0xbd77ce92	-0.060499735
57	0xbb1c2e2a	-0.0023831227
58	0xbd0e112e	-0.034684353
59	0x3d5aa026	0.053375386
60	0xbdabe9b6	-0.08394186
61	0x3cc9fc30	0.024656385
62	0xbce80b88	-0.028325811
63	0x3d83076c	0.063979
64	0x3e09b427	0.13447629
65	0x3d69de93	0.05709703
66	0x3d794a5b	0.060861927
67	0x3e10cf39	0.14141549
68	0x3cdf2f60	0.02724427
69	0x3d5001cf	0.050782975
70	0xbc1c4e97	-0.009540222
71	0x3e1825bf	0.14858149
72	0xbd172a94	-0.03690584
73	0x3d5b7e4b	0.05358724
74	0x3d1a94d1	0.03773958
75	0xbd4cf2a6	-0.050036095
76	0x3d8f0a1d	0.06984351
77	0x3e0bfb0b	0.13669984
78	0x3d5b614b	0.053559583
79	0xbdc0530a	-0.093908384
80	0x3e0fe36c	0.14051598
81	0x3de171e1	0.11008049
82	0x3c3612e8	0.011112906
83	0x3d97c8d2	0.0741135
84	0x3dff8bf8	0.12477869
85	0x3c15af96	0.009136101
86	0x3d9477c6	0.072494075
87	0x3e003995	0.12521966
88	0x3dd5498a	0.10414417
89	0x3be41103	0.006960036
90	0x3db25b7e	0.08708857
91	0xbc205392	-0.00978555
92	0x3e2977ec	0.16549653
93	0x3d8e3caf	0.06945168
94	0x3c8cffc6	0.017211806
95	0xbd99133a	-0.0747437
96	0x3c88d8c1	0.016704919
97	0xbdd20190	-0.10254204
98	0x3dab8377	0.08374684
99	0x3ce89062	0.02838916
100	0x3c9173d2	0.017755423
101	0xbca291c3	-0.019844895
102	0xbda62499	-0.08112449
103	0xbdd96dd7	-0.106166534
104	0x3baff328	0.0053695627
105	0xbc812d0f	-0.015768556
106	0xbde8f1aa	-0.11374219
107	0xbd9729f1	-0.073810466
108	0x3c08bb5a	0.008345449
109	0xbd90069a	-0.07032509
110	0x3e0c7e94	0.1372016
111	0x3da9b1ff	0.08285903
112	0x3df3d055	0.119049706
113	0xbd440962	-0.04786051
114	0x3c2b1a52	0.010443287
115	0x3c498f31	0.012302206
116	0x3dfd2e52	0.123623505
117	0xbd4a6dfa	-0.049421288
118	0x3dd771a2	0.105197206
119	0x3cac2ed5	0.021018425
120	0x3ca89008	0.020576492
121	0x3d666f56	0.056258522
122	0xbdefca41	-0.11708499
123	0x3cdb5a7a	0.026776541
124	0xbda7e711	-0.08198369
125	0x3c1ee06f	0.009697064
126	0x3cc01a36	0.023449998
127	0x3d7efac3	0.062250864
128	0x3d488d74	0.048963025
129	0x3d57d85f	0.052696582
130	0xbd671aa6	-0.0564219
131	0x3d536e0b	0.051618617
132	0x3c875391	0.01651934
133	0x3d9dbc0e	0.07701884
134	0x3bddcab7	0.0067685503
135	0x3df83410	0.12119305
136	0xbcd033c7	-0.025415314
137	0x3cab2754	0.020892777
138	0x3cf1b8a0	0.029506981
139	0xbcc2b8d3	-0.023769772
140	0x3dbf273c	0.09333655
141	0x3d50f788	0.051017314
142	0x3e088ce2	0.13334993
143	0x3c859cad	0.01631006
144	0x3e0bc683	0.13649945
145	0xbce5c584	-0.028048284
146	0x3d8a4f70	0.06753433
147	0x3d7f3130	0.06230277
148	0x3dbce6a5	0.092236795
149	0x3d24a957	0.040200558
150	0x3e136a98	0.14396131
151	0x3ddf9d26	0.109186456
152	0xbd00c42e	-0.03143709
153	0x3d42ce83	0.047560226
154	0x3e215c80	0.15757942
155	0x3dc47411	0.095924504
156	0x3d4484d2	0.04797823
157	0x3cf7d735	0.030253986
158	0x3ca4c86c	0.0201151
159	0x3d1de29e	0.038546197
160	0x3d7cd60e	0.061727576
161	0xbd1f8091	-0.03894097
162	0xbd259a13	-0.04043014
163	0xbd963cdb	-0.07335826
164	0x3d1899a4	0.037255898
165	0x3dd5bdab	0.10436567
166	0x3db4ccaf	0.08828103
167	0x3dc51aa1	0.0962422
168	0xbd98a309	-0.074529715
169	0xbcff580b	-0.031169912
170	0x3dd282ce	0.10278855
171	0x3e1a19fd	0.15048976
172	0x3c659fa9	0.014015117
173	0xbb6ace08	-0.003582837
174	0xbc9a6b6b	-0.018850049
175	0x3bc8e82e	0.0061311936
176	0x3c49b026	0.0123100635
177	0x3e0ed3db	0.13948004
178	0x3e17c0d0	0.14819646
179	0x3d8b71e9	0.06808836
180	0x3cddba4e	0.027066376
181	0xbab539a1	-0.0013826379
182	0x3dbda7e2	0.09260537
183	0x3db6b9a1	0.08922125
184	0x3cbe1b47	0.023206366
185	0x3db767e6	0.08955364
186	0x3b45d7c8	0.003018843
187	0x3d469dd8	0.048490375
188	0x3d119764	0.035544768
189	0x3d9b671c	0.07588026
190	0x3d1ed64c	0.03877859
191	0x3e216d44	0.15764338
192	0x3e0a6e25	0.1351858
193	0x3c414b33	0.011797714
194	0x3e2cb94d	0.16867562
195	0x3cc2e864	0.023792453
196	0xbd83158f	-0.06400596
197	0x3d864d92	0.06557764
198	0x3d8e1bf0	0.069389224
199	0x3e1b1ab7	0.1514691
200	0x3c79d34d	0.015248132
201	0xbd165a95	-0.03670748
202	0x3ca0b226	0.019616198
203	0xbcc3dde7	-0.023909522
204	0x3dc3978a	0.09550388
205	0x3e11b0e7	0.14227639
206	0x3ddb7ac6	0.107167765
207	0xbe03ff0e	-0.12890264
208	0xbc91ec3c	-0.01781284
209	0x3a821bc9	0.0009926494
210	0xbe01b4e9	-0.12666668
211	0x3ddcbeca	0.107785776
212	0x3d06b6d8	0.032889217
213	0xbc9b8d0a	-0.018988151
214	0x3d5fa806	0.0546036
215	0xbca57a68	-0.02019997
216	0x3dd22185	0.102602996
217	0xbd2a4f19	-0.04157934
218	0xbcc944f8	-0.02456902
219	0xbca5b421	-0.020227494
220	0x3dd88459	0.10572118
221	0x3de2040a	0.11035927
222	0xbdc14521	-0.094370134
223	0xbda3d14d	-0.07998905
224	0x3e1c6f7d	0.15276904
225	0xbbf4ea62	-0.0074742297
226	0x3d7f06de	0.06226241
227	0x3df161e7	0.117862515
228	0x3e05592e	0.130223
229	0x3b93e5f2	0.0045134956
230	0xbb85c9e0	-0.0040829033
231	0xbdaa5965	-0.08317832
232	0x3d492184	0.04910423
233	0x3d8638b0	0.06553781
234	0xbd3fa5d1	-0.046788994
235	0x3d800a5f	0.06251978
236	0x3cf8e85b	0.030384233
237	0x3d66c5cf	0.05634099
238	0x3d6b2761	0.0574106
239	0x3cade638	0.02122794
240	0x3e2a09d6	0.16605315
241	0x3c309fdd	0.010780302
242	0x3d99feab	0.07519277
243	0x3e02b5ca	0.1276466
244	0x3def20da	0.11676188
245	0xbd706548	-0.05869034
246	0x3d045bea	0.03231422
247	0x3d37acff	0.044842716
248	0x3daa0556	0.08301799
249	0x3daaf55e	0.08347581
250	0xbda763f0	-0.081733584
251	0x3db5441b	0.08850881
252	0xbd49d60f	-0.049276408
253	0x3d9e4434	0.077278525
254	0x3e14dbfc	0.14537042
255	0xbd941271	-0.0723008

net.4.bias f4 [256]
0	0xbd8d58fb	-0.06901737
1	0xbdbf0b29	-0.093283005
2	0x3d44a4f5	0.048008878
3	0xbd54e1a3	-0.051972996
4	0xbdae695b	-0.08516189
5	0x3cda66e7	0.026660396
6	0x3cf155c6	0.029459845
7	0x3d9b0647	0.07569557
8	0xbdb86a1f	-0.09004616
9	0xbc9e81b3	-0.019348955
10	0xbd02182e	-0.03176134
11	0xbdd87363	-0.10568883
12	0xbd3beae4	-0.045878306
13	0xbde52c70	-0.111901164
14	0xbd6ec6d9	-0.058295105
15	0xbd1bbc21	-0.03802121
16	0xbd9eab26	-0.07747488
17	0xbd2ba05f	-0.04190099
18	0xbd000350	-0.03125316
19	0xbde2a5b1	-0.110667594
20	0xbda1d865	-0.07902602
21	0xbcddae3b	-0.027060619
22	0x3d58c2b1	0.052920047
23	0xbda541f2	-0.08069219
24	0xbcd61307	-0.02613212
25	0xbd44ec37	-0.048076835
26	0xbd32df53	-0.04367001
27	0x3d311676	0.04323431
28	0xbce2afe2	-0.027671758
29	0x3ca88add	0.020574028
30	0xbd82a678	-0.06379408
31	0xbbb4696f	-0.0055057327
32	0xbd1db172	-0.038499303
33	0xbd86fba7	-0.065909676
34	0xbd6ba160	-0.057526946
35	0x3c5d7c22	0.013518365
36	0x3a4ce49e	0.0007816049
37	0xbb1b6517	-0.0023711377
38	0x3cd661ca	0.026169676
39	0x3c8276fb	0.015925875
40	0x3d89c412	0.067268506
41	0x3d3555af	0.044271167
42	0xbd167c2e	-0.03673952
43	0x3d413852	0.04717285
44	0xbd058d0a	-0.03260521
45	0x3d4e9e9c	0.05044423
46	0x3d965d0c	0.07341966
47	0x3bfa4d4b	0.0076386086
48	0xbcb9b880	-0.022670984
49	0xbcbe1092	-0.02320126
50	0x3d12b24a	0.03581456
51	0xbd5c8ca6	-0.05384507
52	0xbd4ac91a	-0.04950819
53	0x3d2291a7	0.039689686
54	0xbd30ac94	-0.043133333
55	0x3c8b35c0	0.016993403
56	0xbd8cd994	-0.06877437
57	0x3b9fc325	0.004875558
58	0xbd05db43	-0.032679807
59	0xbbe05539	-0.006846097
60	0xbc2e8b5d	-0.010653344
61	0xbdad1374	-0.08450976
62	0xbd44c9c4	-0.04804398
63	0x3cc8f767	0.024532033
64	0x3d0fa694	0.03507097
65	0xbda842f2	-0.08215894
66	0x3d304df7	0.043043103
67	0xbdad8caf	-0.08474099
68	0xbd30dc06	-0.04317858
69	0x3d3c4215	0.04596146
70	0xbde76929	-0.112993546
71	0xbdc28921	-0.094988115
72	0xbd75408b	-0.059876006
73	0xbcd894fb	-0.026438227
74	0xbdd6cbc8	-0.10488087
75	0xbc871054	-0.016487278
76	0x3c26dabe	0.010183988
77	0xbd94e486	-0.0727015
78	0xbd839048	-0.06424004
79	0x3c66d575	0.014088978
80	0xbb855cd3	-0.0040699034
81	0x3d345b55	0.044032414
82	0x3cb97643	0.0226394
83	0xbd834900	-0.06410408
84	0x3c81903a	0.015815843
85	0xbd47fb3a	-0.048823573
86	0x3d0c3bbb	0.03423665
87	0xbd25c171	-0.040467683
88	0xbdb23795	-0.08702008
89	0xbc57c972	-0.013170587
90	0xbd57b914	-0.05266674
91	0x3cbe4153	0.023224508
92	0xbd955eb4	-0.07293454
93	0xbd2bab90	-0.04191166
94	0x3ce7394e	0.028225567
95	0x3d9b9e3a	0.07598539
96	0xbcb6dd35	-0.022322277
97	0xbd8372cd	-0.06418381
98	0xbcb10901	-0.021610739
99	0x3a9643f4	0.0011464343
100	0xbd8743fc	-0.06604764
101	0xbca85d8c	-0.02055242
102	0xbd301c8e	-0.042995982
103	0xbc0c30ae	-0.008556528
104	0xbc19a791	-0.00937833
105	0xbd933cca	-0.07189329
106	0xbdaf6245	-0.08563665
107	0xbc22271f	-0.0098970225
108	0x3d2b0826	0.041755818
109	0xbcc226f4	-0.023700215
110	0xbd024997	-0.031808462
111	0xbc158f74	-0.00912844
112	0xbd2b7303	-0.04185773
113	0xbcaaeafc	-0.020864002
114	0xbdb32308	-0.08746916
115	0x3d4a04db	0.049321037
116	0xbd1b6e35	-0.0379469
117	0xbdb69813	-0.089157246
118	0x3daf9a39	0.085743375
119	0xbd194360	-0.03741777
120	0xbdead654	-0.11466661
121	0x3cb6c1a2	0.022309128
122	0xbd732821	-0.05936444
123	0x3d2a592c	0.041588947
124	0xbd8122a3	-0.063054346
125	0x3cf7d4d6	0.030252855
126	0x3d2d9ba6	0.042384766
127	0x3ae5954d	0.0017515809
128	0xbbe70f29	-0.007051368
129	0xbd2e12ad	-0.04249828
130	0xbccb711f	-0.024834214
131	0x3d31ec1e	0.04343807
132	0x3d1d4497	0.03839549
133	0x3d3b17fc	0.04567717
134	0xbd7ce098	-0.061737627
135	0x3cbcf2a2	0.023064915
136	0x3ca5d08c	0.020241044
137	0xbd919140	-0.07107782
138	0xbdcc0a26	-0.09962873
139	0xbdcc1b0f	-0.099660985
140	0x3d1d59e8	0.03841582
141	0xbccb83db	-0.024843147
142	0x3d8a0486	0.06739144
143	0xbd992937	-0.07478564
144	0x3cf761f6	0.030198079
145	0x3ce503d6	0.02795593
146	0xbda8ca04	-0.082416564
147	0x3b38f5fc	0.002822279
148	0x3b6a18a6	0.0035720258
149	0xbda11452	-0.07865204
150	0xbd07d1bb	-0.033159
151	0x3ca790d2	0.020454798
152	0xbdf4805f	-0.11938547
153	0x3cde5a3d	0.027142638
154	0xbc77d1c5	-0.015125697
155	0x3d26bc84	0.040707126
156	0x3d94afc6	0.072600886
157	0xbdbf0fb7	-0.09329169
158	0xbd45095c	-0.04810463
159	0xbd66837b	-0.056277733
160	0x3a8800c8	0.0010376209
161	0xbd69b2ba	-0.057055213
162	0xbd8a69ad	-0.06758437
163	0x3c9a42fb	0.018830767
164	0xbd5867d0	-0.05283338
165	0xbe008393	-0.12550192
166	0xbda92d0c	-0.08260545
167	0xbc9337a9	-0.017970877
168	0xbdadb2b2	-0.08481349
169	0x3cb56815	0.022144357
170	0x3c12cd0b	0.008960019
171	0xbd30e3d5	-0.043186028
172	0xbbc965ab	-0.006146153
173	0xbd5b685e	-0.05356633
174	0xbcdb8ad6	-0.0267996
175	0x3d587730	0.05284804
176	0x3c843132	0.01613674
177	0x3c7e5198	0.015522383
178	0x3d9ed407	0.07755285
179	0xbd8d8cd9	-0.0691163
180	0xbd3ddff9	-0.046356175
181	0xbd401cf8	-0.046902627
182	0x3d94d608	0.07267386
183	0xbbc9d9ce	-0.0061599975
184	0xbd98a3d7	-0.07453125
185	0xbd63c8aa	-0.05561129
186	0x3d548f84	0.05189468
187	0x3d541db5	0.051786143
188	0x3de62645	0.11237768
189	0xbd6f5c28	-0.058437496
190	0xbdb0e1c2	-0.0863681
191	0xbd955623	-0.0729182
192	0x3cbc1c65	0.022962758
193	0xbd10a557	-0.03531393
194	0x3d7ab1fe	0.061204903
195	0x3d5c2342	0.053744562
196	0xbdc6abf7	-0.097007684
197	0xbd1d7d20	-0.038449407
198	0x3b5a5395	0.003331398
199	0xbb897ec0	-0.004196018
200	0xbd64f08e	-0.055893473
201	0x3d43276e	0.047645025
202	0xbc41866b	-0.011811833
203	0xbde74f70	-0.112944484
204	0xbc11ce2a	-0.008899251
205	0x3b98ac67	0.004659224
206	0x3d901c81	0.07036687
207	0xbd42e7bb	-0.047584277
208	0xbc886310	-0.0166488
209	0xbd52c9a0	-0.051461816
210	0xbdbb01ee	-0.091312274
211	0xbdcdd75e	-0.10050844
212	0xbcccd752	-0.025005016
213	0xbcc6f8fb	-0.024288645
214	0xbcf71e41	-0.030165793
215	0xbc38b840	-0.011274397
216	0xbd153354	-0.036425903
217	0x3ca1d9b0	0.019757122
218	0x3cdded90	0.027090818
219	0xbda8669f	-0.082226984
220	0x3d5c82ac	0.053835556
221	0x3d4114e0	0.04713905
222	0xbded5b12	-0.11589636
223	0xbdb5d6db	-0.08878871
224	0x3c01773b	0.007901962
225	0xbd0a555e	-0.03377282
226	0xbd00f049	-0.031479154
227	0xbd4f2ec5	-0.050581712
228	0x3d3824cd	0.04495697
229	0xbdc4400f	-0.09582531
230	0x3ca18fc7	0.019721879
231	0xbd7d2e26	-0.06181159
232	0x3d1df954	0.038567856
233	0xbd6b36b2	-0.05742521
234	0xbd731525	-0.059346337
235	0xba844a8a	-0.0010093015
236	0xbceade02	-0.028670315
237	0xbdc94e75	-0.098294176
238	0x3cf1a778	0.0294988
239	0x3d9cd5fe	0.07658003
240	0xbdadf3de	-0.084937796
241	0xbd31ddf4	-0.04342456
242	0x3c642ed3	0.013927179
243	0xbda1b1fd	-0.07895277
244	0xbdbb1ba5	-0.09136132
245	0x3d433f8d	0.04766803
246	0xbd84245a	-0.06452246
247	0x3db1e5de	0.08686422
248	0xbd3517e4	-0.044212237
249	0xbdbd4917	-0.092424564
250	0xbdbc7f68	-0.09203988
251	0x3ceaeccf	0.028677372
252	0xbc159a13	-0.009130972
253	0xbd4332fe	-0.04765605
254	0x3d28c57f	0.041203972
255	0x3d2642e4	0.040591136

net.6.weight f4 [2, 256]
0	0xbdc2eca3	-0.09517791
1	0xbdcdccf0	-0.10048854
2	0x3d45f3e1	0.048328284
3	0x3d7dff82	0.06201125
4	0xbd4e216a	-0.050324835
5	0xbe0e854b	-0.13918035
6	0x3c5d2a45	0.013498847
7	0xbd04881f	-0.032356378
8	0xbe051e78	-0.12999904
9	0xbe256966	-0.16153488
10	0xbaa6d987	-0.0012729623
11	0xbe0b59e4	-0.1360851
12	0xbe447656	-0.19185767
13	0xbdcd5772	-0.100264445
14	0x3e2f9520	0.1714673
15	0xbd45df20	-0.04830849
16	0xbe2552d1	-0.16144873
17	0xbe28ecce	-0.16496584
18	0xbe0d22db	-0.13782828
19	0xbdc70624	-0.09717968
20	0xbe1570ae	-0.14593765
21	0xbd5f5d87	-0.054532554
22	0x3d2e4fd4	0.0425566
23	0xbd1e0de4	-0.038587466
24	0x3c817e98	0.015807435
25	0x3d6f9766	0.058493994
26	0xbe0f2509	-0.13978972
27	0xbd0205c4	-0.03174378
28	0x3dff8556	0.12476604
29	0x3d58dd38	0.052945346
30	0xbd83d2de	-0.06436704
31	0xbdcc383a	-0.09971662
32	0xbd5a19c8	-0.053247243
33	0xbe17e3ec	-0.14833039
34	0xbd585c65	-0.05282249
35	0xbd6806ce	-0.056647114
36	0x3e165b65	0.14683302
37	0xbe17bed7	-0.14818893
38	0xbe0d5ace	-0.1380417
39	0xbe28b430	-0.16474986
40	0xbc84b10c	-0.016197704
41	0x3b9d3d42	0.0047985623
42	0x3c47ed37	0.0122025525
43	0xbe0fca5a	-0.14042035
44	0xbbaf9dd5	-0.005359391
45	0xbe1e33e9	-0.1544949
46	0xbc46bda2	-0.012130173
47	0xbd874b18	-0.0660612
48	0xbe08a597	-0.13344418
49	0x3d3a551a	0.045491315
50	0xbe0fb017	-0.14032017
51	0xbe2166c0	-0.15761852
52	0xbe0d794c	-0.13815802
53	0xbe08fc4a	-0.1337749
54	0xbd4cc473	-0.049992036
55	0xbd8edc92	-0.06975664
56	0xbd709a24	-0.05874075
57	0xbd50ebe4	-0.051006213
58	0xbe198f7d	-0.14996143
59	0x3cf9358d	0.030421043
60	0xbc9a9355	-0.018869082
61	0xbe453c6f	-0.19261335
62	0xbdb00c6b	-0.085961185
63	0xbd2d08e9	-0.042244826
64	0xbe175227	-0.14777432
65	0x3d489086	0.048965953
66	0xbe191a2c	-0.1495139
67	0x3bff14f0	0.0077844784
68	0x3b9d27b0	0.004795991
69	0xbe04569c	-0.12923664
70	0xbe1f8b8e	-0.1558058
71	0x3dd785ab	0.10523542
72	0xbc147760	-0.009061664
73	0xbd49ae70	-0.049238622
74	0xbdb5b52e	-0.08872448
75	0xbe36a8ec	-0.17837876
76	0x3c933a4c	0.017972134
77	0xbb8375d0	-0.004011847
78	0xbdf9af3f	-0.12191629
79	0xbdf53bdf	-0.1197431
80	0xbdb931cf	-0.09042703
81	0xbd41a092	-0.047272272
82	0xbe1c9f04	-0.15295035
83	0xbe2760db	-0.16345541
84	0xbe21dfd8	-0.15808046
85	0x3b6ee766	0.0036453842
86	0x3a9cec92	0.0011972359
87	0xbdc652de	-0.096837744
88	0xbd4477b4	-0.04796572
89	0xbdbbaeb6	-0.09164183
90	0xbcb447e9	-0.022006946
91	0xbdeebd42	-0.11657192
92	0xbdffb582	-0.12485792
93	0xbd43147b	-0.047626954
94	0xbe15122a	-0.1455771
95	0x3cae6422	0.021287981
96	0xbe1f8887	-0.15579425
97	0xbd1e6c64	-0.038677588
98	0xbe15d27b	-0.14631073
99	0xbe2dd38b	-0.16975228
100	0xbd3b11da	-0.04567132
101	0xbe310c00	-0.17289734
102	0x3c9a6880	0.018848658
103	0xbdf582ad	-0.11987815
104	0xbcbfbf39	-0.023406612
105	0xbcb70998	-0.022343442
106	0xbd8ff55e	-0.07029222
107	0xbdbc5537	-0.09195941
108	0xbe0a1502	-0.13484576
109	0x3c650df8	0.013980381
110	0x3dfe0602	0.1240349
111	0xbdaeba4b	-0.08531626
112	0xbba88ff0	-0.005144112
113	0xbe026922	-0.12735417
114	0xbde86323	-0.11347034
115	0xbdbe13e0	-0.092811346
116	0xbd95bbfb	-0.07311245
117	0xbdea4617	-0.1143915
118	0x3d27ac34	0.04093571
119	0xbdf32136	-0.11871569
120	0x3e1f846f	0.15577863
121	0xbd42858a	-0.047490634
122	0xbcbaf2cf	-0.022820858
123	0x3de15c5d	0.11003945
124	0xbab09e3b	-0.0013474891
125	0x3d6730ca	0.056443013
126	0x3cb6ce38	0.02231513
127	0x3cbb9b88	0.022901312
128	0xbcf6a5b3	-0.030108308
129	0x3ce8b08c	0.028404497
130	0xbca632de	-0.020287927
131	0x3dbc8668	0.092053235
132	0x3dacd413	0.084388874
133	0xbd0e605d	-0.034759868
134	0x3d004812	0.03131873
135	0xbdf2ee64	-0.11861876
136	0x3c3b98ae	0.011449976
137	0xbe230a48	-0.1592189
138	0xbdcd887c	-0.10035798
139	0xbe3f2719	-0.18667258
140	0x3e111f0f	0.14172004
141	0x3d8289ba	0.063739255
142	0xbd03a644	-0.032140985
143	0x3d393554	0.045216873
144	0xbe0c9a4d	-0.13730736
145	0xbe2d5ee2	-0.16930726
146	0xbdb78a03	-0.089618705
147	0xbdb8ee5e	-0.0902984
148	0xbe0710e2	-0.13190034
149	0xbdd3e33a	-0.103460744
150	0xbe2b4583	-0.16725735
151	0xbdd61a6c	-0.10454258
152	0xbd7dfb5d	-0.062007297
153	0xbe0a4977	-0.13504587
154	0xbd86a607	-0.06574636
155	0x3da19cfd	0.07891271
156	0x3d1fb468	0.03899041
157	0xbd808fd8	-0.06277436
158	0xbccac092	-0.024750028
159	0xbdbe0ef0	-0.09280193
160	0x3d1e3690	0.038626254
161	0xbd9a20b3	-0.07525768
162	0xbe00398f	-0.12521957
163	0xbdb7af62	-0.089689985
164	0x3be55ab4	0.006999338
165	0xbe20f441	-0.15718175
166	0x3baec970	0.005334072
167	0x3de8ccc9	0.11367185
168	0xbdf03900	-0.11729622
169	0x3d429e15	0.04751404
170	0xbd753b79	-0.05987117
171	0xbe1381a4	-0.14404923
172	0x3ddaa4de	0.10675977
173	0x3bdc86a7	0.006729919
174	0xbb4dcae0	-0.003140144
175	0x3d413de9	0.047178183
176	0x3dad8324	0.08472279
177	0xbda13cfa	-0.078729585
178	0x3e1694cc	0.14705199
179	0x3bb4180a	0.0054960297
180	0x3db09201	0.08621598
181	0x3ccc323c	0.024926297
182	0x3d4b6d4d	0.049664784
183	0xbdd397d3	-0.103316925
184	0xbe1008ed	-0.14065905
185	0xbe211b57	-0.15733086
186	0x3e02d5cd	0.12776871
187	0x3d3ef088	0.046616107
188	0x3d4a50e6	0.049393557
189	0xbd5f178a	-0.054465808
190	0x3de875a8	0.11350566
191	0x3e0c5a9f	0.13706444
192	0xbdd829b9	-0.10554833
193	0xbe22c76c	-0.15896386
194	0x3daa26c6	0.08308177
195	0x3c612644	0.013742033
196	0xbe2b29dd	-0.16715188
197	0xbd277595	-0.04088362
198	0xbd38e464	-0.045139685
199	0x3b4b0699	0.0030979274
200	0xbe34ffec	-0.17675751
201	0x3d2b469a	0.041815378
202	0xbc582628	-0.013192691
203	0xbdb0455a	-0.08606978
204	0xbdb4ebca	-0.08834036
205	0xbdd5c18b	-0.10437306
206	0x3cbe111c	0.023201518
207	0x3e096506	0.13417444
208	0xbd96e10c	-0.07367143
209	0xbdc1c003	-0.094604515
210	0xbe287a25	-0.16452844
211	0xbdfa3364	-0.12216833
212	0xbde6f605	-0.11277393
213	0xbcbb0017	-0.022827191
214	0x3ce2f2af	0.027703611
215	0xbd4bc596	-0.04974898
216	0x3e11c707	0.14236079
217	0xbdb80a1c	-0.08986303
218	0x3d1db085	0.03849842
219	0xbe05c209	-0.130623
220	0x3d58a8a2	0.052895196
221	0xbe127513	-0.14302473
222	0xbe3066d1	-0.17226721
223	0xbdb1c69a	-0.08680458
224	0xbde3dd36	-0.11126177
225	0x3bc62eb0	0.006048046
226	0xbd071377	-0.032977547
227	0xbdf4d9b9	-0.1195559
228	0xbd762d9b	-0.060102087
229	0xbdc94102	-0.098268524
230	0xbd831e6e	-0.064022884
231	0x3d2c4fd4	0.042068318
232	0x3b31895f	0.0027089936
233	0x3dea5ffe	0.1144409
234	0xbe25043c	-0.16114897
235	0xbabbd833	-0.00143314
236	0xbe12c2c0	-0.14332104
237	0xbd2e045d	-0.04248463
238	0xbd7cc238	-0.06170866
239	0x3d22128c	0.03956847
240	0x3d76b502	0.060231216
241	0xbd4a8606	-0.04944422
242	0xbd1f8edc	-0.0389546
243	0x3d43b891	0.047783438
244	0xbd7fae24	-0.062421933
245	0xbd965916	-0.073412105
246	0xbde66948	-0.112505496
247	0x3d58d652	0.052938767
248	0x3db723ff	0.089424126
249	0x3d85b5e3	0.06528833
250	0xbde65c0a	-0.11248024
251	0xbe008959	-0.12552394
252	0x3e065029	0.13116516
253	0x3d7854dc	0.060627803
254	0x3d37c4ef	0.044865545
255	0xbe21556a	-0.15755239

net.6.bias f4 [2]
0	0xbc0277cd	-0.007963133
1	0xbcb40231	-0.021973701

exp_avg f4 [64, 2]
0	0x338b4b33	6.4863706e-08
1	0x34f1639c	4.4962223e-07
2	0x3138514c	2.6821736e-09
3	0xb200383f	-7.4633695e-09
4	0xb60b019d	-2.0713553e-06
5	0xb507a75a	-5.053495e-07
6	0xb784b0f6	-1.581803e-05
7	0xb6bd878c	-5.6484187e-06
8	0xb1b7ac6e	-5.345604e-09
9	0x322cf06c	1.0066383e-08
10	0xb2ee7a9f	-2.7762608e-08
11	0xb66f8b8f	-3.569501e-06
12	0x3584bf56	9.890452e-07
13	0xb512707a	-5.4552913e-07
14	0xb5c76c7a	-1.4858226e-06
15	0xb5d9c1c7	-1.6224157e-06
16	0xb63ded46	-2.8301306e-06
17	0xb4b3a2e8	-3.3459878e-07
18	0xb690fcfa	-4.3209848e-06
19	0x3512c1dc	5.467134e-07
20	0x35ddc33a	1.6522602e-06
21	0xb6361ee9	-2.7138105e-06
22	0xb55a0dd5	-8.1231457e-07
23	0x359eba91	1.1826215e-06
24	0x3417d7a6	1.4141423e-07
25	0x3597246f	1.126098e-06
26	0x35888776	1.0172214e-06
27	0xb56e1426	-8.869123e-07
28	0xb61f9fec	-2.3785933e-06
29	0xb58d1c4d	-1.0513555e-06
30	0xb610331f	-2.1487429e-06
31	0x3735046f	1.0789473e-05
32	0xb564558b	-8.50611e-07
33	0x37191db4	9.126426e-06
34	0x36060203	1.9968727e-06
35	0x351f55d9	5.935704e-07
36	0xb626565a	-2.478619e-06
37	0xb45c4db1	-2.051736e-07
38	0xb695ee58	-4.468293e-06
39	0x362ee334	2.606027e-06
40	0xb4daa2dd	-4.0724163e-07
41	0xb59d4794	-1.1718244e-06
42	0x360bdc55	2.0840864e-06
43	0x33c69bd7	9.2484406e-08
44	0xb1b86ac9	-5.367245e-09
45	0x3142cce3	2.834718e-09
46	0x3717f23e	9.056703e-06
47	0x35ddbbe1	1.6520463e-06
48	0x340538ed	1.24073e-07
49	0x3680f0fa	3.8427506e-06
50	0x32522cd5	1.2233802e-08
51	0xb20d1338	-8.21165e-09
52	0xb4f4820a	-4.5543158e-07
53	0x35925500	1.0902586e-06
54	0xb5318991	-6.6137824e-07
55	0x345ced24	2.0575368e-07
56	0xb5856c6a	-9.940825e-07
57	0x3574f95b	9.1259943e-07
58	0xb627de02	-2.5014165e-06
59	0xb5334afa	-6.67918e-07
60	0xb5354383	-6.7525997e-07
61	0x35c939a6	1.4992445e-06
62	0x31b5cf93	5.2913918e-09
63	0x2fa60e5d	3.020543e-10
64	0xb649cfaf	-3.0072222e-06
65	0xb3948875	-6.9166084e-08
66	0xb3c0724f	-8.961489e-08
67	0xb655a30e	-3.1834384e-06
68	0x36862c62	3.998678e-06
69	0xb5661b74	-8.5721626e-07
70	0xb54b0aca	-7.5639093e-07
71	0x34f169e5	4.4966797e-07
72	0xb595c673	-1.1159121e-06
73	0x3516fdf8	5.624893e-07
74	0x362636bd	2.476779e-06
75	0x34e6b3ca	4.2971652e-07
76	0xb205ba49	-7.783975e-09
77	0xb0adcfed	-1.2646503e-09
78	0xb663f048	-3.3965498e-06
79	0x36924731	4.359427e-06
80	0x36271616	2.4897795e-06
81	0xb45c1246	-2.0495744e-07
82	0x314a050d	2.939774e-09
83	0x30a5465b	1.2025326e-09
84	0x32175946	8.809655e-09
85	0xb102b75f	-1.9021724e-09
86	0x364018c7	2.8624652e-06
87	0xb54722ce	-7.4183924e-07
88	0x359b32cf	1.1563187e-06
89	0x34ed8748	4.424312e-07
90	0x311029fd	2.0978626e-09
91	0xb1c4a88e	-5.723513e-09
92	0x354a2bc3	7.5314546e-07
93	0x358f2fd0	1.0668246e-06
94	0x350d395d	5.261007e-07
95	0x33386395	4.2931408e-08
96	0x3624005a	2.443811e-06
97	0xb2cf8193	-2.4156895e-08
98	0x363a3de2	2.775218e-06
99	0xb5b7e45b	-1.3701023e-06
100	0x319b00fa	4.5112047e-09
101	0xb09b68fb	-1.1307572e-09
102	0x330d2cd3	3.2869888e-08
103	0x3588388a	1.0149245e-06
104	0xb6af4a29	-5.22404e-06
105	0x3710ac71	8.6232185e-06
106	0x349ceac2	2.9228073e-07
107	0xb606ae0c	-2.0068865e-06
108	0x317ca864	3.6766545e-09
109	0x310a01f7	2.008276e-09
110	0xb4aba595	-3.197171e-07
111	0x35733ee4	9.061607e-07
112	0xb64cac27	-3.0498575e-06
113	0xb62a242d	-2.535303e-06
114	0x3607c04a	2.0228495e-06
115	0xb43cba96	-1.7576744e-07
116	0xb0830640	-9.533281e-10
117	0x32a5d09c	1.9303393e-08
118	0x35b6689c	1.3590502e-06
119	0xb4681d1a	-2.1617271e-07
120	0x31a52723	4.8065814e-09
121	0xb286b0c2	-1.5680033e-08
122	0x35419568	7.211552e-07
123	0x3540920c	7.17381e-07
124	0xb54887a5	-7.4703195e-07
125	0xb4542f43	-1.9761232e-07
126	0xb5436264	-7.278634e-07
127	0xb3ba707c	-8.681761e-08

exp_avg_sq f4 [64, 2]
0	0x2d98aad7	1.7356267e-11
1	0x2e59d5fc	4.9530144e-11
2	0x25cd81f8	3.5649902e-16
3	0x25f5202d	4.2522528e-16
4	0x307e2b47	9.246616e-10
5	0x2c301321	2.5021723e-12
6	0x3220f25a	9.36833e-09
7	0x30f1ceb1	1.7593803e-09
8	0x283c507c	1.0453549e-14
9	0x25edafaf	4.1231994e-16
10	0x315a8b88	3.180249e-09
11	0x30a54d07	1.2027223e-09
12	0x307424d4	8.881902e-10
13	0x2fc240ed	3.5334527e-10
14	0x309bc5fb	1.1334004e-09
15	0x30a0db74	1.1703905e-09
16	0x3188335b	3.9639594e-09
17	0x3096170e	1.0920489e-09
18	0x320f2603	8.332338e-09
19	0x312352c3	2.3766666e-09
20	0x30bd51f8	1.3774857e-09
21	0x309d37a7	1.1439071e-09
22	0x2ed7c789	9.8125126e-11
23	0x2f9653b9	2.734433e-10
24	0x2fe55de3	4.1721568e-10
25	0x2f9fde3d	2.907984e-10
26	0x2ff795d2	4.5035492e-10
27	0x31b3e259	5.2353184e-09
28	0x30185e0d	5.543093e-10
29	0x2ea0b333	7.30779e-11
30	0x2fed6fff	4.3189627e-10
31	0x2fe9397c	4.2423298e-10
32	0x324ac751	1.1803267e-08
33	0x318dbee0	4.12534e-09
34	0x30be3245	1.3838607e-09
35	0x2e28fbc4	3.842239e-11
36	0x2fa700f1	3.0377792e-10
37	0x2f5a8346	1.9873622e-10
38	0x322045d0	9.329099e-09
39	0x2fe1899c	4.102504e-10
40	0x2e16495f	3.4171218e-11
41	0x31087ddc	1.9862147e-09
42	0x2d7c1bfc	1.4330755e-11
43	0x2c2896ce	2.395795e-12
44	0x26ba9652	1.2947087e-15
45	0x28575e23	1.195531e-14
46	0x32a48c21	1.9155836e-08
47	0x30a2a12d	1.183286e-09
48	0x2fe16306	4.0997622e-10
49	0x2f4f470a	1.8851778e-10
50	0x28b4bf5b	2.0067002e-14
51	0x28306c92	9.793505e-15
52	0x2c7d4d7c	3.5996475e-12
53	0x3065393b	8.3391044e-10
54	0x2c1e51c6	2.2498544e-12
55	0x2e9379ab	6.7063986e-11
56	0x305808cd	7.859285e-10
57	0x2cc90123	5.71289e-12
58	0x31c502be	5.7337664e-09
59	0x30d04917	1.5154765e-09
60	0x2f0c2d7a	1.2749082e-10
61	0x2fc0ea5d	3.5091122e-10
62	0x265b6bff	7.612725e-16
63	0x256af74c	2.0380052e-16
64	0x3067e9d0	8.436958e-10
65	0x2f9a0fd4	2.8023683e-10
66	0x318d95ab	4.1206554e-09
67	0x3098e097	1.1123288e-09
68	0x2ef69898	1.1213891e-10
69	0x30132a8f	5.353877e-10
70	0x2e482cf8	4.5514675e-11
71	0x2eba30b1	8.46695e-11
72	0x2e6965e7	5.3068574e-11
73	0x2efb070e	1.1415412e-10
74	0x30cedc23	1.5051039e-09
75	0x31a28d76	4.730903e-09
76	0x2837b451	1.01976406e-14
77	0x25ed5736	4.1172043e-16
78	0x31e5cd03	6.6880843e-09
79	0x307623c8	8.9545127e-10
80	0x3099566c	1.1156778e-09
81	0x2fac3ba3	3.1328992e-10
82	0x295d049a	4.907585e-14
83	0x250e3c85	1.2337041e-16
84	0x2823b72c	9.088037e-15
85	0x2898c568	1.6961001e-14
86	0x3028d9c4	6.142751e-10
87	0x30bec7b7	1.3881082e-09
88	0x2f38ee44	1.6819351e-10
89	0x2d7bc836	1.4312154e-11
90	0x25699606	2.0260358e-16
91	0x2820a0b6	8.916633e-15
92	0x2fadaa39	3.1589467e-10
93	0x2f100d9a	1.3101556e-10
94	0x2f88736f	2.4820276e-10
95	0x2f74fbf4	2.2281182e-10
96	0x300acde5	5.04967e-10
97	0x30726b8b	8.8191915e-10
98	0x31099e00	2.0025936e-09
99	0x2fb076cc	3.2098624e-10
100	0x25a9deb0	2.9467726e-16
101	0x27261483	2.3048247e-15
102	0x2cf9f2f9	7.103981e-12
103	0x319ed440	4.6225352e-09
104	0x3156c6e5	3.1254157e-09
105	0x31c6f9b5	5.790947e-09
106	0x30f863c8	1.8072734e-09
107	0x306faed0	8.7196117e-10
108	0x25e9566b	4.0477616e-16
109	0x26a10067	1.1171728e-15
110	0x2d333d2f	1.01885575e-11
111	0x2c6bf282	3.3530127e-12
112	0x2ed3e1dc	9.63529e-11
113	0x2ee22936	1.0284611e-10
114	0x30d4f39d	1.5494269e-09
115	0x30105c7a	5.251831e-10
116	0x292051e5	3.559817e-14
117	0x2a431fca	1.7330508e-13
118	0x2fe95da7	4.2448997e-10
119	0x2e54d463	4.8391856e-11
120	0x279b2b9c	4.3068424e-15
121	0x2944efce	4.372874e-14
122	0x2eacaabb	7.851982e-11
123	0x30921353	1.062839e-09
124	0x3047642c	7.253813e-10
125	0x2f755763	2.2313666e-10
126	0x2cbd3b70	5.378302e-12
127	0x2f497b85	1.8324726e-10

exp_avg f4 [64]
0	0x33a5642e	7.701634e-08
1	0xb34bad59	-4.742228e-08
2	0xb684ea90	-3.961213e-06
3	0xb884c102	-6.330201e-05
4	0x3309515a	3.1971787e-08
5	0x3789e125	1.6436514e-05
6	0xb6131a68	-2.1920077e-06
7	0x366d040e	3.5318112e-06
8	0xb67d0f04	-3.7708678e-06
9	0xb62cd35d	-2.5753027e-06
10	0x37d0226e	2.4811565e-05
11	0xb6b715f4	-5.4563807e-06
12	0xb72909c6	-1.00754605e-05
13	0x378d471d	1.6841625e-05
14	0xb64f2682	-3.0867818e-06
15	0x36857a9a	3.9779816e-06
16	0xb7875cc7	-1.6136457e-05
17	0x37a7ecb9	2.0018184e-05
18	0x377145f3	1.4381006e-05
19	0xb7b26076	-2.1264172e-05
20	0x36aee481	5.2122055e-06
21	0xb5bbae07	-1.3983234e-06
22	0xb2f4cd94	-2.8498825e-08
23	0xb803fe68	-3.1469768e-05
24	0xb7cd56d5	-2.4478339e-05
25	0xb327918b	-3.9015088e-08
26	0xb6f1604c	-7.19357e-06
27	0xb4ca0f54	-3.7636585e-07
28	0x37191574	9.124506e-06
29	0xb672efb0	-3.6200327e-06
30	0x3677c60a	3.6921142e-06
31	0x316e168c	3.4646375e-09
32	0xb5a7f142	-1.2512685e-06
33	0xb6d1d6a3	-6.2536724e-06
34	0x35845565	9.85962e-07
35	0x373a2a1b	1.1096267e-05
36	0xb7112cc6	-8.653098e-06
37	0xb7bc50b5	-2.2448929e-05
38	0xb32ac51d	-3.9760483e-08
39	0x3725e147	9.887218e-06
40	0x35e0ef70	1.6758986e-06
41	0xb21bb159	-9.062512e-09
42	0x334623d9	4.613307e-08
43	0x36b73a05	5.4605794e-06
44	0x35bbb13b	1.3984167e-06
45	0x3316efd7	3.514273e-08
46	0xb6472b67	-2.9678574e-06
47	0x36bf0fb6	5.6940726e-06
48	0xb61f294f	-2.371689e-06
49	0x365e029c	3.3082097e-06
50	0x3372ceda	5.6533146e-08
51	0xb8073296	-3.223362e-05
52	0x36be0fff	5.6643034e-06
53	0x371aca23	9.226179e-06
54	0xb0bf676b	-1.3926472e-09
55	0x3666453f	3.4312977e-06
56	0xb53c593a	-7.01653e-07
57	0x36cbf10d	6.0779334e-06
58	0xb31eab25	-3.6942897e-08
59	0x357cb797	9.4144474e-07
60	0x321bc059	9.065922e-09
61	0x35b00238	1.3113668e-06
62	0xb7313ae0	-1.056373e-05
63	0x3593f2cd	1.1023018e-06

exp_avg_sq f4 [64]
0	0x2f627e5b	2.0599471e-10
1	0x2c00acbf	1.8285787e-12
2	0x3286c226	1.5687942e-08
3	0x341bb8c7	1.4502722e-07
4	0x2b83cc81	9.364871e-13
5	0x3440ee85	1.7968166e-07
6	0x31ad5b3d	5.0453353e-09
7	0x31c130da	5.622593e-09
8	0x31f822d0	7.2217077e-09
9	0x33a2f4b5	7.588225e-08
10	0x34bbdf72	3.4994042e-07
11	0x32b20fed	2.072917e-08
12	0x33ee1629	1.10867695e-07
13	0x3482dd4b	2.43754e-07
14	0x306d87c0	8.641301e-10
15	0x32df851a	2.6021144e-08
16	0x3360b7bf	5.232118e-08
17	0x3216e7cc	8.783854e-09
18	0x342bc9b5	1.5998997e-07
19	0x33c55196	9.188368e-08
20	0x327ec4c0	1.4829482e-08
21	0x31cb497b	5.9164313e-09
22	0x2b63ee22	8.0977076e-13
23	0x34216297	1.503016e-07
24	0x329d4da5	1.8312514e-08
25	0x2b9c41ed	1.1102765e-12
26	0x3314a0f3	3.4605318e-08
27	0x2fd6ed01	3.9094775e-10
28	0x3389f9c4	6.424992e-08
29	0x32371690	1.0657132e-08
30	0x3131ef9b	2.589309e-09
31	0x28206c76	8.905303e-15
32	0x32c4d0c8	2.2912346e-08
33	0x3280a5f1	1.4976623e-08
34	0x328efe0e	1.6646506e-08
35	0x3393103a	6.8481725e-08
36	0x33275cd1	3.8967134e-08
37	0x3469a5ff	2.1760205e-07
38	0x2b866469	9.549142e-13
39	0x32e4db95	2.6642548e-08
40	0x317372c1	3.5426384e-09
41	0x2ac0ba12	3.4235164e-13
42	0x2c2b9823	2.4385014e-12
43	0x32128c65	8.5302405e-09
44	0x30e4adfd	1.6638634e-09
45	0x2b01d44d	4.6124633e-13
46	0x31998d05	4.468918e-09
47	0x32f2accf	2.8251092e-08
48	0x315532fb	3.1024558e-09
49	0x3146d457	2.8933493e-09
50	0x2c268108	2.3661646e-12
51	0x34067ae6	1.2524433e-07
52	0x340034ea	1.1940179e-07
53	0x33a8896c	7.8481065e-08
54	0x289ef8d9	1.7649444e-14
55	0x325463ba	1.2362699e-08
56	0x2f5636f4	1.948271e-10
57	0x326fadb1	1.3951124e-08
58	0x2bcee5e7	1.4700991e-12
59	0x30ae6bc1	1.2690792e-09
60	0x295ab9a1	4.856673e-14
61	0x3178ce46	3.6206003e-09
62	0x32ba5c41	2.1695202e-08
63	0x3119349c	2.2294335e-09
