new_saved_models/v2_n1e6_sk500.pt (torch, 529309 bytes, 24 tensors)

net.0.weight f4 [64, 2]
0	0xbecc7e7b	-0.39940247
1	0x3f10ffd2	0.5664035
2	0xbddd7b4e	-0.10814534
3	0x3ed3cdc0	0.41367912
4	0x3dcc2497	0.099679165
5	0xbeba6274	-0.3640324
6	0x3f0e9d78	0.5570903
7	0xbe2e4a70	-0.17020583
8	0x3f053df0	0.52047634
9	0xbda664b3	-0.081246756
10	0x3f044490	0.5166712
11	0xbf03a90d	-0.51429826
12	0x34f057b6	4.4767302e-07
13	0xbf0849ab	-0.5323741
14	0x3f444592	0.76668656
15	0xbf338e14	-0.7013867
16	0xbe0cb7fa	-0.13742056
17	0xbe8182bb	-0.25295052
18	0x3f1c9795	0.61168796
19	0x3e0b5b62	0.13609079
20	0xbf240885	-0.640755
21	0x3ebfce53	0.374621
22	0xbe5402fa	-0.2070426
23	0x3e7f9a1a	0.24961129
24	0xbef01581	-0.46891406
25	0x3f0186c4	0.5059626
26	0x3f250cfa	0.64472926
27	0x3ebf65f2	0.37382466
28	0xbe652a9b	-0.22379534
29	0xbf015eb0	-0.50535107
30	0x3f0f81c7	0.560574
31	0xbf27efc0	-0.65600204
32	0x3e3f3b8f	0.18675064
33	0xbf00ba2c	-0.50284076
34	0x3f4bbf20	0.7958851
35	0xbf36eba3	-0.71453303
36	0xbeb32da3	-0.34995756
37	0xbf32492b	-0.69642895
38	0x3db33aa8	0.08751422
39	0x3e5ef66f	0.21773694
40	0xbf01076e	-0.5040196
41	0x3efc9a53	0.4933649
42	0xbf3896f9	-0.72105366
43	0x3f013bd1	0.504819
44	0xbe416e21	-0.18889667
45	0x3efff39a	0.4999054
46	0x3e910d46	0.2833044
47	0x3d4c78aa	0.04991976
48	0x3c2d2e51	0.010570125
49	0xbd37c499	-0.044865225
50	0x3e785268	0.24250185
51	0x3f110520	0.56648445
52	0x3c886f62	0.016654674
53	0x3e3bdc7f	0.18345831
54	0xbf41efb2	-0.7575637
55	0xbf05d1ac	-0.5227306
56	0xbea37141	-0.31922343
57	0xbeead83c	-0.458681
58	0x3f457fbf	0.7714805
59	0x3dda48d8	0.10658425
60	0x3ee3b9e6	0.44477767
61	0xbd2c805c	-0.0421146
62	0x3e346c8f	0.17619537
63	0x3f1c124e	0.6096543
64	0xbe6e9598	-0.23299253
65	0xbde41ed7	-0.11138695
66	0x3ee64598	0.4497497
67	0xbf2ed390	-0.6829157
68	0x3d344484	0.044010654
69	0x3d85e933	0.0653862
70	0xbeb993c6	-0.36245555
71	0xbd024eda	-0.03181348
72	0xbef6f1d1	-0.48231366
73	0x3c116ca5	0.0088760005
74	0x3f1b734c	0.60722804
75	0xbe6b5800	-0.22982788
76	0xbe0fcfc7	-0.14044105
77	0x3f24e67f	0.6441421
78	0xbd8d8693	-0.069104336
79	0xbec4588f	-0.38348815
80	0xbe4a02ff	-0.19727705
81	0xbea51ad1	-0.32247022
82	0xbe613f88	-0.21996891
83	0xbf14e899	-0.58167416
84	0xbeb7fc02	-0.35934454
85	0x3f23c5a7	0.6397347
86	0xbf11a9ad	-0.5689953
87	0xbf2a7440	-0.66583633
88	0x3f1b7a68	0.6073365
89	0x3ed96dfe	0.4246673
90	0xbee42895	-0.44562212
91	0x3eab27ff	0.33428952
92	0x3edc8867	0.43072817
93	0x3edc8893	0.43072948
94	0xbdaacd85	-0.08339981
95	0x3f0dacaa	0.5534159
96	0x3f031f78	0.5121989
97	0x3ef4d6dc	0.47820175
98	0x3ebcf317	0.36904213
99	0x3f193de4	0.5986006
100	0x3f1b833a	0.6074711
101	0xbecc2390	-0.39870882
102	0x3ea48bc4	0.32137883
103	0x3ee669e4	0.45002663
104	0xbf100806	-0.5626224
105	0x3f153cd0	0.5829592
106	0x3f131453	0.5745289
107	0x3e8d6406	0.27615374
108	0xbd88872c	-0.06666407
109	0xbd9cddcb	-0.07659491
110	0x3eee0e67	0.46495363
111	0xbf02bd1f	-0.51069826
112	0xbeff0d32	-0.49814755
113	0xbebac3f0	-0.36477613
114	0x3f155dd4	0.58346295
115	0x3d8cff68	0.068846524
116	0x3e10fa29	0.14157929
117	0xbe958117	-0.2920005
118	0x3e9bb7a6	0.3041355
119	0xbf3dad4a	-0.74092543
120	0xbe11f701	-0.14254381
121	0x3f156b74	0.58367085
122	0x3df8e2b5	0.12152616
123	0x3ef1ff1e	0.4726495
124	0x3f43e4b7	0.76520866
125	0x3f0640c6	0.52442586
126	0x3f2bf15e	0.6716517
127	0xbe13ec0d	-0.14445515

net.0.bias f4 [64]
0	0xbe003161	-0.12518837
1	0x3e32ca91	0.17460085
2	0xbeeea6ff	-0.46611783
3	0xbec67e87	-0.38768408
4	0xbf3205b6	-0.69539964
5	0xbe8a2481	-0.26980975
6	0x3e48d854	0.19613773
7	0xbf19d7fe	-0.600952
8	0xbef05954	-0.46943152
9	0xbeb5472e	-0.35405868
10	0xbea2d86f	-0.3180575
11	0x3ea5546a	0.32290965
12	0x3da57758	0.08079404
13	0x3d7d26c2	0.06180454
14	0xbf2e99a5	-0.6820319
15	0xbed6b3ac	-0.41933954
16	0x3e762fcd	0.24041672
17	0x3f0a4afd	0.54020673
18	0xbf11779a	-0.5682312
19	0xbf147752	-0.5799457
20	0x3f246376	0.64214265
21	0x3e9d6a53	0.3074518
22	0x3e361c38	0.17784202
23	0xbf066d6a	-0.525107
24	0xbf15cb8a	-0.585137
25	0x3f095c77	0.53656715
26	0xbdfe073b	-0.12403723
27	0xbe9a2075	-0.30102888
28	0x3f2979d6	0.6620153
29	0x3d046439	0.032322142
30	0x3edce46d	0.43143025
31	0xbf0ee886	-0.5582355
32	0xbf13fde9	-0.5780931
33	0xbf2af9d7	-0.66787475
34	0x3efa40d7	0.48877594
35	0xbda1c93a	-0.07899709
36	0x3f33003f	0.6992225
37	0x3ed2f61a	0.41203386
38	0xbe4d2a83	-0.20035748
39	0x3e9cbf14	0.3061453
40	0xbf252e71	-0.6452399
41	0x3e68e313	0.22742872
42	0x3f2770e4	0.6540663
43	0x3f211285	0.62918884
44	0x3f0077bd	0.50182706
45	0xbee72aaa	-0.45149738
46	0xbe39b680	-0.18136024
47	0x3eef701d	0.46765223
48	0x3ee103d2	0.43948227
49	0x3efe43e3	0.49661168
50	0xbf123c39	-0.5712314
51	0x3ec4c5f0	0.38432264
52	0xbebfeb45	-0.37484184
53	0x3f2d494f	0.67689985
54	0x3ee2b1fa	0.4427641
55	0x3ddd0d27	0.10793524
56	0xbda40869	-0.080094166
57	0xbe278847	-0.1636058
58	0xbf094863	-0.5362608
59	0x3f2442aa	0.6416422
60	0x3f2a2d2d	0.6647518
61	0xbeec7fb2	-0.46191174
62	0xbea9afc9	-0.33141926
63	0xbeb14ca0	-0.34628773

net.2.weight f4 [128, 64]
0	0xbe5780fa	-0.21045294
1	0xbe056027	-0.1302496
2	0x3da124b6	0.0786833
3	0x3d1bd250	0.038042367
4	0x3df23551	0.118265755
5	0x3df9926e	0.12186132
6	0xbd3575a1	-0.044301633
7	0x3e48e747	0.19619475
8	0xbd84bb17	-0.06480997
9	0xbda5238c	-0.08063421
10	0xbc0796e1	-0.008275718
11	0x3da65ed3	0.08123555
12	0x3dddcf4f	0.108305566
13	0x3d7e5251	0.06209022
14	0xbcaae073	-0.020858979
15	0xbdbdb73b	-0.09263464
16	0xbc22a7cf	-0.009927704
17	0x3e0103bc	0.12599081
18	0x3db1bef8	0.086790025
19	0xbde2c5c7	-0.11072879
20	0x3d6d5471	0.057941858
21	0xbdc070d0	-0.09396517
22	0xbc6f50c7	-0.014606661
23	0x3d01e345	0.03171088
24	0xbdd230d8	-0.102632225
25	0xbd6788c4	-0.056526914
26	0xbdb8ec1a	-0.09029408
27	0xbd03d219	-0.032182787
28	0xbdd59f99	-0.104308315
29	0xbd7ebbb1	-0.062190715
30	0x3d2648a9	0.040596638
31	0x3d8ef775	0.069807924
32	0xbd7f3926	-0.06231036
33	0x3e59e754	0.21279651
34	0xbdd141c0	-0.10217619
35	0xbadc0d97	-0.0016788718
36	0xbd6afeee	-0.057372026
37	0x3e1bcad7	0.15214096
38	0x3d169e77	0.036772218
39	0x3e045d2c	0.12926167
40	0xbdbbbe2a	-0.0916713
41	0x3d30f681	0.043203834
42	0xbd811188	-0.06302172
43	0xbdb53abe	-0.08849095
44	0x3e1937c3	0.14962678
45	0x3e0b1997	0.1358398
46	0xbdd615a3	-0.104533456
47	0x3e0fdfac	0.14050168
48	0x3dd1fbc0	0.102530956
49	0x3e24c23e	0.16089723
50	0xbd583ae9	-0.052790556
51	0x3e1bab55	0.15202077
52	0x3e2a305a	0.16620007
53	0xbc7fae43	-0.015605512
54	0x3c9e4dd1	0.019324215
55	0xbdc44b09	-0.09584624
56	0xbd976b90	-0.07393563
57	0x3e31a2d5	0.17347272
58	0x3d821048	0.06350762
59	0x3e1eacda	0.15495625
60	0xbd4a13aa	-0.04933516
61	0xbc1c2d92	-0.009532349
62	0xbe1e2e98	-0.15447462
63	0x3d878ec2	0.06619026
64	0x3d950ae6	0.07277469
65	0xbcf7f011	-0.03026584
66	0xbd84dd2a	-0.06487496
67	0x3d8c9bc8	0.068656504
68	0xbe0dfd28	-0.13866103
69	0x3d9546ca	0.072888926
70	0x3dae6799	0.085158534
71	0xbd32b1a4	-0.043626443
72	0x3d895d0c	0.067072004
73	0xbe1e1bf1	-0.15440346
74	0xbd044307	-0.032290485
75	0x3d9c39f3	0.076282404
76	0x3cdf4f45	0.027259478
77	0xbd89ef67	-0.067351155
78	0xbd01e82b	-0.031715553
79	0x3d56add1	0.052411858
80	0x3df0d1b5	0.117587484
81	0x3e01ee67	0.126886
82	0x3a0bc69e	0.00053320255
83	0x3c724f9e	0.01478949
84	0x3dd93052	0.106049195
85	0x3e0a1e11	0.13488032
86	0xbdc0b8d5	-0.09410254
87	0x3d0c2d85	0.0342231
88	0x3dc7a5b7	0.097484045
89	0x3daaaba6	0.083335206
90	0xbd909eb4	-0.0706152
91	0x3da65aa2	0.081227556
92	0xbb5a31a5	-0.003329375
93	0x3db0d532	0.08634414
94	0x3db39f40	0.08770609
95	0x3c3c5f37	0.01149731
96	0x3d44e7a9	0.04807249
97	0xbdbc6d04	-0.092004806
98	0xbd42577b	-0.04744671
99	0xbc645cb1	-0.013938115
100	0x3e0a5a9a	0.13511124
101	0x3d7c9784	0.061667934
102	0xbcd926f0	-0.026507825
103	0xbda18881	-0.07887364
104	0x3d688fb8	0.056777686
105	0x3d7de376	0.0619845
106	0xba13492b	-0.0005618508
107	0x3df27ec9	0.118405886
108	0xbdfd6188	-0.12372118
109	0x3d966a6e	0.073445186
110	0x3e156227	0.14588223
111	0xbdc6d075	-0.09707729
112	0x3c995f34	0.018722154
113	0xbe17ff62	-0.14843515
114	0x3e3df23d	0.18549438
115	0xbd9f3b7a	-0.07775016
116	0xbd657b06	-0.056025527
117	0x3cd38abc	0.02582299
118	0x3d671da7	0.056424763
119	0x3e31087a	0.1728839
120	0xbdef5f05	-0.116880454
121	0xbe05534a	-0.13020054
122	0xbe0206a2	-0.12697843
123	0x3de67c8e	0.11254226
124	0x3bffe7b1	0.007809602
125	0xbda87cf9	-0.08226962
126	0x3e259be7	0.16172753
127	0x3d9b73db	0.07590457
128	0xbdbe0143	-0.092775844
129	0xbe39d8d8	-0.18149126
130	0xbd74cc39	-0.059765074
131	0x3d4b8def	0.049695905
132	0x3c9cbee6	0.019133996
133	0xbdcfe67f	-0.101513855
134	0xbcd9c12b	-0.026581367
135	0x3cad6bce	0.02116957
136	0xbc7ef696	-0.01556172
137	0x3d796a32	0.06089229
138	0x3da75bc6	0.08171801
139	0x3e090deb	0.13384216
140	0xbdd0e016	-0.10198991
141	0xbd9cfbe1	-0.076652296
142	0x3d1caf55	0.038253147
143	0x3c4f9056	0.01266869
144	0x3d0f75f1	0.035024587
145	0x3c009f72	0.007850515
146	0x3d0b4ea6	0.034010552
147	0xbd87a690	-0.06623566
148	0x3de8958e	0.1135665
149	0xbdff2080	-0.12457371
150	0xbd978f19	-0.074003406
151	0x3daa7e3d	0.08324859
152	0xbd860680	-0.065442085
153	0x3dcc4a1c	0.09975073
154	0xbd9baf46	-0.0760179
155	0xbe0abfbe	-0.13549706
156	0x3c62a8c1	0.013834179
157	0xbdfc1895	-0.12309376
158	0x3d915125	0.07095555
159	0xbd23e214	-0.040010527
160	0xbc9d5fe4	-0.019210763
161	0xbc58349c	-0.013196137
162	0x3cde77a7	0.027156664
163	0xbcfb5b55	-0.030683199
164	0xbdb564f4	-0.08857146
165	0x3dd0273f	0.101637356
166	0x3de731ce	0.11288796
167	0xbd779627	-0.06044593
168	0xbde372d3	-0.11105885
169	0x3cf160e6	0.02946515
170	0x3e1d7781	0.15377618
171	0xbdcdcd24	-0.10048893
172	0xbcc3e290	-0.023911744
173	0x3d90686f	0.07051169
174	0xbda9b5ed	-0.08286653
175	0xbd6ab8b1	-0.05730504
176	0xbda13abd	-0.078725316
177	0xbd9c989f	-0.07646298
178	0xbd196b68	-0.037455946
179	0x3e199d9c	0.1500153
180	0xbc9ec505	-0.019381056
181	0x3def055b	0.11670943
182	0xbd9c60b7	-0.076356344
183	0x3d8cca0a	0.068744734
184	0x3d76d463	0.06026114
185	0x3e37f004	0.17962652
186	0xbb87f66b	-0.0041492484
187	0xbdc9853e	-0.09839867
188	0x3e099e45	0.13439281
189	0x3b3b05c5	0.0028537374
190	0x3d9ad09a	0.07559319
191	0x3d1392bf	0.03602862
192	0xbd736d62	-0.059430487
193	0xbdc58035	-0.09643594
194	0xbe050d2f	-0.1299331
195	0xbdb73cef	-0.08947169
196	0xbdd99117	-0.10623377
197	0x3db820e5	0.08990649
198	0x3e1f950a	0.15584198
199	0x3d534668	0.051580817
200	0xbdd38cb7	-0.103295736
201	0xbe1b9dfb	-0.15196984
202	0x3dfe38fd	0.124132134
203	0xbcfc5381	-0.030801537
204	0xbd3af4b3	-0.04564352
205	0xbdd286b3	-0.10279598
206	0xbd8fe46f	-0.07025992
207	0x3cdeedfc	0.02721309
208	0x3daf6090	0.0856334
209	0xbd852057	-0.06500309
210	0xbd1d98f5	-0.03847595
211	0x3da45879	0.08024687
212	0x3e12fc18	0.14353979
213	0xbd94075d	-0.07227967
214	0x3a2a9c73	0.0006508298
215	0xbe0f2616	-0.13979372
216	0x3d6348cc	0.055489346
217	0xbc77659c	-0.015099909
218	0x3d42e371	0.047580186
219	0x3cfa785f	0.030574976
220	0x3d8899e5	0.06669978
221	0x3d1d8021	0.03845227
222	0x3ddf1c3f	0.108940594
223	0x3d8cb911	0.06871236
224	0xbcbb6acf	-0.022878079
225	0x3cb63aa1	0.022244753
226	0x3d464b6c	0.04841177
227	0xbdb83bc8	-0.08995777
228	0x3d1538fa	0.03643129
229	0xbd94f3de	-0.072730765
230	0xbd9ffa8e	-0.078114614
231	0xbd2685ee	-0.04065507
232	0xbc697367	-0.0142487055
233	0x3dcf89cf	0.10133707
234	0xbce45ad8	-0.027875349
235	0x3dc005cf	0.09376108
236	0x3ded3f8f	0.115843885
237	0x3d842d7c	0.06453988
238	0xbdde8507	-0.10865217
239	0xbd8a3316	-0.06748025
240	0xbd883e48	-0.06652504
241	0xbd6a72f8	-0.05723855
242	0xbe155e9c	-0.14586872
243	0x3d5392a3	0.051653516
244	0x3d154252	0.0364402
245	0x3dbb8ac8	0.0915733
246	0xbd9da869	-0.07698137
247	0xbe18f0aa	-0.14935556
248	0x3d3cd118	0.046097845
249	0x3e3a01e6	0.18164787
250	0x3d2deeb5	0.042463977
251	0x3df5365a	0.11973257
252	0xbd72ed7a	-0.059308507
253	0x3d2086d4	0.039191082
254	0x3d86f25c	0.06589195
255	0xbd2a5b97	-0.041591253

net.2.bias f4 [128]
0	0x3dc1c86e	0.09462057
1	0x3d6265a4	0.055272713
2	0x3d8fd5a8	0.070231736
3	0xbdc6e6cb	-0.09711989
4	0x3c320719	0.01086595
5	0xbd6e7f13	-0.058226656
6	0x3cc5fe42	0.024169091
7	0xbcd21455	-0.02564446
8	0x3c518ce6	0.01278994
9	0xbdd91301	-0.10599328
10	0x3d64fc63	0.055904757
11	0x3db7e718	0.089796245
12	0x3e0567a3	0.13027816
13	0xbd8b5903	-0.06804087
14	0xbc8df282	-0.01732755
15	0x3d5ca065	0.0538639
16	0xbd81cace	-0.0633751
17	0xbd753497	-0.059864607
18	0x3e018d55	0.1265157
19	0x3dbe190b	0.0928212
20	0xbe12b8fd	-0.1432838
21	0x3d968dfd	0.07351301
22	0x3dbb2e9d	0.0913975
23	0xbcb67243	-0.022271281
24	0x3db9b197	0.09067076
25	0x3c7424f3	0.0149013875
26	0x3d0238dd	0.03179251
27	0xbd2a9b01	-0.04165173
28	0xbd3c9d43	-0.046048414
29	0xbd3d3ac8	-0.046198636
30	0x3da91305	0.08255581
31	0xbd215790	-0.039390147
32	0x3de1ef4d	0.11031971
33	0x3bc7418a	0.006080811
34	0x3d67530c	0.056475684
35	0x3cf8e897	0.030384345
36	0xbd1f19a6	-0.03884282
37	0x3d972213	0.07379546
38	0x3d86edba	0.065883115
39	0xbd4e92b8	-0.05043289
40	0x3e0f8325	0.14014871
41	0x3e130d35	0.14360507
42	0x3d542a59	0.0517982
43	0xbd67b858	-0.05657229
44	0x3d5bfcd2	0.053707905
45	0x3d0f9bac	0.03506057
46	0xbcb44d70	-0.022009581
47	0xbde2e046	-0.11077933
48	0x3d1382e1	0.036013488
49	0xbbdd3788	-0.0067510046
50	0x3da39ad7	0.07988518
51	0xbdc836e3	-0.09776094
52	0xbd21c050	-0.039490044
53	0xbd9a0e74	-0.07522288
54	0x3db87ee2	0.09008576
55	0x3bef3e41	0.0073011224
56	0xbd3f89f8	-0.046762437
57	0x3d068167	0.03283825
58	0xbc5238b0	-0.012830898
59	0xbcb17040	-0.02165997
60	0x3d0012e1	0.031268004
61	0x3d9aa18b	0.07550343
62	0xbc82b229	-0.015954094
63	0x3df15e2d	0.11785541
64	0x3df253ba	0.11832376
65	0x3d1b1c3f	0.037868734
66	0xbdda449a	-0.10657616
67	0xbd9be2f3	-0.076116465
68	0x3e0be5e9	0.13661923
69	0x3cf366af	0.02971205
70	0xbc087488	-0.008328564
71	0xbcdb6e51	-0.026786001
72	0x3da8b2d1	0.082372315
73	0x3ddfc1c4	0.1092563
74	0x3d386ec7	0.04502752
75	0xbd491400	-0.04909134
76	0x3e0e978b	0.13924997
77	0x3dc19936	0.09453051
78	0xbc35b99d	-0.011091617
79	0x3d2c6019	0.042083833
80	0x3e1103e1	0.14161636
81	0xbbcb042d	-0.006195566
82	0xbbe37f68	-0.0069426782
83	0x3dc1adcc	0.09456977
84	0xbd339679	-0.043844674
85	0x3b63b5f3	0.0034745901
86	0xbc66289d	-0.014047769
87	0x3de502f5	0.11182205
88	0xbda8984b	-0.082321726
89	0x3d070d4d	0.03297167
90	0x3df969c7	0.121783786
91	0x3d4612b0	0.048357666
92	0xbe1561ce	-0.14588091
93	0x3cbf1791	0.023326667
94	0xbc867e98	-0.016417786
95	0x3df77857	0.120835
96	0xbd1941f0	-0.0374164
97	0x3d065d1c	0.03280364
98	0xbd518fe9	-0.051162634
99	0xbd360ec0	-0.04444766
100	0xbd43e3a3	-0.047824513
101	0xbdd55676	-0.10416882
102	0xbc850838	-0.01623927
103	0x3d06e546	0.032933496
104	0x3d893885	0.06700233
105	0x3c49a9cc	0.012308549
106	0x3dd9d532	0.10636367
107	0x3d90b007	0.070648246
108	0x3dc9b6df	0.09849333
109	0xbd168c5e	-0.03675496
110	0x3d53d634	0.051717952
111	0x3c54d7b8	0.0129908845
112	0xbcec996c	-0.028881751
113	0x3c885bfc	0.016645424
114	0x3da01066	0.07815628
115	0xbddfa780	-0.1092062
116	0xbdbcf0ed	-0.092256404
117	0x3d329e86	0.04360821
118	0x3b219d00	0.002466023
119	0x3c982935	0.018574337
120	0xbd94ad89	-0.07259662
121	0xbd457a07	-0.048212077
122	0x3cf0638a	0.029344339
123	0x3d9016f9	0.07035632
124	0x3dc118cf	0.0942856
125	0x3caea45e	0.02131861
126	0xbd0c9b43	-0.034327757
127	0xbdafcff8	-0.08584589

net.4.weight f4 [256, 128]
0	0xbaa7ade1	-0.0012792909
1	0x3c179fb1	0.009254382
2	0x3d661ae2	0.05617798
3	0x39a59022	0.0003157864
4	0xbda8b87e	-0.08238314
5	0x3d9d9a87	0.076954894
6	0x3c26d536	0.010182669
7	0xbb6b71db	-0.0035926017
8	0xbd7955b3	-0.060872745
9	0xbd87e1b7	-0.066348486
10	0x3da544a0	0.0806973
11	0x3ceef734	0.02917061
12	0xbcd174ad	-0.02556833
13	0x3d03bc61	0.032162074
14	0xbc3522e7	-0.011055685
15	0xbd5aeace	-0.053446583
16	0x3c96e5dc	0.018420152
17	0xbd9299be	-0.0715823
18	0x3da8ff77	0.08251851
19	0x3d5946c3	0.053046
20	0x3cd25d9a	0.025679398
21	0x3d81f48a	0.0634547
22	0x3d957ccb	0.07299193
23	0xbc0014fc	-0.007817503
24	0x3c88c8cf	0.016697315
25	0x3d8f5b2b	0.06999811
26	0xbd9e1ef3	-0.07720747
27	0xbd70ac69	-0.058758173
28	0xbd24f33f	-0.04027104
29	0x3ce064bd	0.027391786
30	0xbc8194f9	-0.015818106
31	0x3d748db5	0.059705455
32	0xbb8f159a	-0.004366589
33	0x3cb422c9	0.021989243
34	0xbc8afe17	-0.016966863
35	0xbc7d36ff	-0.015455007
36	0x3ca3962a	0.019969065
37	0x3cab1e39	0.020888435
38	0x3da6f473	0.08152094
39	0xbd5fa1f0	-0.054597795
40	0x3d9e22bc	0.07721469
41	0x3cc55cb6	0.02409206
42	0xbd64d8e0	-0.05587089
43	0xbdab2066	-0.08355789
44	0x3c821a02	0.015881542
45	0x3c7d1941	0.0154479155
46	0xbb15c8b1	-0.0022855217
47	0xbcf1abe3	-0.029500907
48	0xbd975886	-0.073899314
49	0x3d7a7b71	0.06115288
50	0xbdaad6c7	-0.08341747
51	0x3d5f5c59	0.05453143
52	0x3d7b6e65	0.061384577
53	0x3d9ef82b	0.07762178
54	0x3c8c3622	0.017115656
55	0xbda6544b	-0.08121546
56	0xbaa43d79	-0.0012530527
57	0x3d8e05a1	0.069346674
58	0xbd381c88	-0.044949085
59	0x3d442f02	0.047896393
60	0xbbc4eaed	-0.0060094506
61	0x3c840f56	0.016120594
62	0x3d6695bf	0.056295153
63	0xbd79a0fa	-0.060944535
64	0x3d8d3a78	0.06895918
65	0xbdaa0c3e	-0.08303116
66	0xbd82c9c8	-0.06386143
67	0xbd032703	-0.032019626
68	0xbc59fe84	-0.01330531
69	0xbd22e9f3	-0.039773893
70	0xbc20606e	-0.009788616
71	0xbd5020f2	-0.05081267
72	0xbd864603	-0.065563224
73	0xbd37a248	-0.044832498
74	0x3c9b0838	0.018924817
75	0x3b1cb5b4	0.0023912014
76	0xbda5744a	-0.08078821
77	0x3d710048	0.05883816
78	0xbd463972	-0.048394628
79	0xbcd8a660	-0.026446521
80	0x3d88636e	0.0665959
81	0x3c6209e9	0.013796308
82	0x3d2ec54d	0.04266863
83	0xbc9ad97a	-0.018902529
84	0x3d82f87f	0.06395053
85	0xbd8642e3	-0.065557264
86	0x3d02f1f6	0.031969033
87	0x3d72e36f	0.05929893
88	0xbd44ae05	-0.04801752
89	0xbd8735f6	-0.06602089
90	0xbd29a024	-0.041412488
91	0xbd67e5a4	-0.056615487
92	0xbd13cc4a	-0.036083497
93	0x3cc53c9c	0.024076752
94	0xbc0e76b5	-0.008695294
95	0xbd984901	-0.074357994
96	0x3d88805b	0.06665107
97	0xbd70c35d	-0.058780063
98	0xbd4091dc	-0.047014102
99	0xbd346e3e	-0.044050448
100	0xbd68d88c	-0.05684714
101	0x3d5117e2	0.051048167
102	0xbd44b2c5	-0.04802205
103	0xbd72702b	-0.059189003
104	0x3cf09add	0.02937072
105	0xbcdbf056	-0.026848
106	0xbd67b4c2	-0.05656887
107	0xbbc72b26	-0.0060781417
108	0xbdadb089	-0.08480937
109	0xbd7c6aaa	-0.06162516
110	0xbd317cef	-0.043332037
111	0xbdb77fa6	-0.08959894
112	0x3d6f7bc9	0.05846766
113	0xbd89f868	-0.06736833
114	0xbda05f1a	-0.07830639
115	0x3cb87226	0.022515368
116	0x3d943998	0.07237548
117	0xbb87d42f	-0.0041451673
118	0x3da34145	0.079714336
119	0x3d9ce4cf	0.07660829
120	0x3b976c73	0.0046210825
121	0x3cb538f3	0.022121882
122	0x3d9c67c2	0.07636978
123	0xbd5873f0	-0.05284494
124	0x3dab1a7b	0.0835466
125	0x3d512205	0.051057834
126	0xbcfffc62	-0.031248275
127	0xbc8c4f05	-0.017127523
128	0x3b6c0b64	0.0036017532
129	0x3da86c3f	0.08223771
130	0xbe1822ad	-0.14856978
131	0xbd2e4421	-0.04254544
132	0xbd34ff81	-0.04418898
133	0xbde9049d	-0.11377833
134	0xbbbf2c10	-0.00583411
135	0xbd403be8	-0.04693213
136	0x3e08f83b	0.13375942
137	0x3ca0c81b	0.019626668
138	0xbd834ac0	-0.06410742
139	0xbd3a28a5	-0.045448918
140	0x3e16e807	0.14736949
141	0xbd4fff1f	-0.05078041
142	0xbd5d6c45	-0.054058332
143	0xbcac1866	-0.021007728
144	0xbdffcfd7	-0.12490814
145	0xbdd48608	-0.10377127
146	0x3cc97398	0.024591252
147	0x3e116905	0.14200218
148	0xbcdc3cc5	-0.026884446
149	0x3dafebb8	0.08589882
150	0x38845212	6.309537e-05
151	0xbdacf0f6	-0.08444397
152	0xbab423b8	-0.0013743555
153	0xbdafa638	-0.085766256
154	0xbe01c98b	-0.12674539
155	0x3d372e2a	0.04472176
156	0x3e1d880e	0.15383932
157	0xbdd8efbd	-0.105926014
158	0x3d460e6b	0.048353594
159	0xbc663a80	-0.014052033
160	0xbbded968	-0.006800819
161	0xbd001526	-0.03127017
162	0xbdc2bf03	-0.09509089
163	0xbc52617f	-0.012840628
164	0xbc82f9a3	-0.015988177
165	0xbd339e6b	-0.04385225
166	0x3d092314	0.03348072
167	0xbc8d3e4d	-0.017241621
168	0x3d8fb4cb	0.070169054
169	0x3dbe0696	0.092786
170	0xbd04883f	-0.032356497
171	0x3d8299aa	0.06376965
172	0x3c16e8bb	0.009210761
173	0x3c2e1c85	0.010626917
174	0xbab7620f	-0.0013991016
175	0xbd917705	-0.07102779
176	0xbd5488de	-0.05188834
177	0xbc9006ac	-0.017581306
178	0x3de67e91	0.112546094
179	0x3c3eac68	0.011637785
180	0x3d959885	0.073044814
181	0x3d897b81	0.067130096
182	0xbc7c5392	-0.015400784
183	0xbbafccd2	-0.0053649927
184	0xbd749f0d	-0.059721995
185	0xbdae03cb	-0.08496817
186	0xbd30fa52	-0.043207474
187	0x3bdfabea	0.0068259137
188	0xbda084d9	-0.07837839
189	0xbdc38101	-0.0954609
190	0xbde6de84	-0.1127291
191	0xbdaabf3c	-0.08337256
192	0x3d913b95	0.070914425
193	0xbdfb15bb	-0.12260004
194	0xbd6fddee	-0.058561258
195	0xbdf6f0bc	-0.12057635
196	0xbcb52c41	-0.022115828
197	0xbde3ec8e	-0.111291036
198	0xbdd4e4d6	-0.103952095
199	0xbe072446	-0.13197431
200	0x3dcb992c	0.099413246
201	0x3e0168d1	0.1263764
202	0x3d53a51f	0.051671144
203	0x3d1770b5	0.03697272
204	0x3e160d18	0.14653432
205	0x3b8918ac	0.0041838493
206	0xbcfc8d59	-0.030829119
207	0xbdf3b1a4	-0.11899117
208	0x3c2be7c4	0.010492269
209	0xbcb8cd7a	-0.022558916
210	0x3e05b041	0.13055517
211	0xbde8b0b0	-0.113618255
212	0x3c8fe10a	0.017563362
213	0x3e32b669	0.17452396
214	0xbdb72176	-0.08941929
215	0x3e08dd9b	0.13365786
216	0xbce3abeb	-0.027791938
217	0xbdef64d3	-0.116891526
218	0xbc04643e	-0.00808054
219	0xbdf53e61	-0.119747885
220	0xbd697bce	-0.057002835
221	0x3ce89421	0.028390946
222	0x3db003f1	0.08594502
223	0xbd04966c	-0.032370016
224	0xbd8bc4f6	-0.06824677
225	0xbdd18904	-0.10231212
226	0xbe49b9d6	-0.19699797
227	0x3df93058	0.12167424
228	0xbe1bb2b9	-0.15204896
229	0x3d726e24	0.05918707
230	0xbd0a702d	-0.033798385
231	0x3dde29b9	0.10847802
232	0xbda5599f	-0.080737345
233	0x3db2ecbf	0.08736562
234	0xbd9a3c88	-0.07531077
235	0x3e03b33c	0.12861341
236	0xbdb98093	-0.09057727
237	0xbdc22669	-0.094799824
238	0xbd47d0db	-0.048783164
239	0xbe348133	-0.1762741
240	0x3bdbe00b	0.0067100576
241	0xbd9b166c	-0.07572636
242	0xbd11c9e3	-0.035592925
243	0xbe5c649f	-0.21522759
244	0x3d9c2ec6	0.07626109
245	0x3d833d03	0.064081214
246	0xbc45e0d2	-0.012077527
247	0xbc40bf5d	-0.011764375
248	0xbd76cc15	-0.06025322
249	0x3d188256	0.037233673
250	0xbd42fdfe	-0.047605507
251	0xba81998d	-0.0009887681
252	0x3cf78654	0.03021542
253	0xbe0e04cc	-0.13869017
254	0xbe1c2018	-0.15246618
255	0xbd5be2dc	-0.053683147

net.4.bias f4 [256]
0	0x3c4a5cca	0.012351224
1	0x3bb02b91	0.0053762873
2	0x3cbd98d0	0.023144156
3	0x3ddab10a	0.10678299
4	0xbd6fe0bd	-0.058563937
5	0xbb819df5	-0.0039555975
6	0x3d97eb3f	0.074179165
7	0xbca846c5	-0.020541558
8	0x3d096174	0.033540204
9	0xbc926d23	-0.017874306
10	0xbd9a059e	-0.07520603
11	0x3c5ba2a3	0.013405475
12	0xbdf11b9f	-0.117728464
13	0x3dbfd7bc	0.0936732
14	0xbdadf89f	-0.08494686
15	0x3ce88c35	0.028387168
16	0x3d245079	0.040115807
17	0xbcc401d6	-0.023926657
18	0x3d825772	0.06364335
19	0x3bfc0c69	0.007691909
20	0xbd593997	-0.053033438
21	0xbd1b1b21	-0.03786767
22	0xbcad38fe	-0.02114534
23	0x3d1c018a	0.038087405
24	0xbd0b7987	-0.034051444
25	0x3d5798c7	0.052635934
26	0x3c6bd61a	0.0143943075
27	0xbdbfed06	-0.093713805
28	0x3cd11f5b	0.025527647
29	0xbdd27318	-0.10275859
30	0x3cc82cf2	0.024435494
31	0xbccff871	-0.02538702
32	0xbbe47cf3	-0.006972903
33	0xbcf948c3	-0.030430203
34	0x3d4de042	0.050262697
35	0x3c053cb8	0.008132152
36	0x3c9e54e2	0.019327585
37	0x3beb72c8	0.007185314
38	0x3d077d09	0.033078227
39	0xbd6c40af	-0.057678875
40	0xba6874b0	-0.00088674854
41	0xbdb633f4	-0.08896628
42	0x3caaf583	0.020869022
43	0xbcb0b183	-0.02156902
44	0xbd031b63	-0.03200854
45	0xbccf5862	-0.025310699
46	0x3c5b6c36	0.013392499
47	0xbd5e2a51	-0.054239575
48	0xbbc8a720	-0.0061234385
49	0xbdd29d1b	-0.10283872
50	0x3cd7ecbb	0.026358
51	0xbde82006	-0.11334233
52	0x3cdc9d04	0.02693034
53	0xbd8617b4	-0.0654749
54	0xbdcd7c23	-0.10033443
55	0x3d0c2dcb	0.03422336
56	0xbd029880	-0.031883717
57	0xbd73e8b7	-0.059548106
58	0x3c9e2a24	0.019307204
59	0xbd466e74	-0.04844518
60	0xbc795d28	-0.015219964
61	0xbdaabe10	-0.08337033
62	0xbda4a792	-0.08039774
63	0x3d853a6e	0.06505285
64	0xbd8f9391	-0.07010568
65	0xbc7437d1	-0.014905886
66	0xbd996061	-0.07489086
67	0xbdb2a8cd	-0.087236024
68	0x3b3e6307	0.0029050724
69	0x3cf85e3a	0.030318368
70	0x3cbc64d9	0.022997307
71	0x3b4d686b	0.0031342756
72	0xbabc0521	-0.001434479
73	0xbd94b051	-0.07260192
74	0xbd8d7eb9	-0.06908936
75	0xbd386bc3	-0.045024645
76	0x3c18aa85	0.009317999
77	0x3cfce45d	0.03087061
78	0xbc839408	-0.016061798
79	0x3bcc17b7	0.006228413
80	0xbdf04ab7	-0.11733001
81	0x3d7c4a38	0.061594218
82	0x3c26b4b5	0.01017492
83	0xbda91b6d	-0.08257184
84	0x3c39fb06	0.011351353
85	0xbc2a9481	-0.010411383
86	0x3bab9b19	0.005236995
87	0x3cdee044	0.027206548
88	0xbcc2044e	-0.023683693
89	0x3becf6e5	0.0072315806
90	0xbc9395ad	-0.018015707
91	0x3d2a59bd	0.041589487
92	0x3da5a2fa	0.08087726
93	0xbd2c2b0e	-0.042033248
94	0x3d434f3e	0.047682993
95	0xbc801f64	-0.015639968
96	0x3d12132b	0.03566281
97	0xbd505740	-0.050864458
98	0xbd7c1feb	-0.061553877
99	0x3b7ff347	0.0039054917
100	0x3d148a54	0.036264732
101	0x3dd627e4	0.10456827
102	0x3d158429	0.03650299
103	0xbd6150dd	-0.055008758
104	0x3ca3f925	0.020016262
105	0xbdaa5449	-0.08316857
106	0xbcb76d12	-0.022390876
107	0x3cecdf21	0.02891499
108	0x3d894e0c	0.067043394
109	0x3b9d5996	0.0048019392
110	0xbd548226	-0.05188193
111	0xbd93fcc2	-0.07225944
112	0xbcf20342	-0.02954257
113	0xbd1b8253	-0.037966084
114	0x3cfd6c7b	0.030935517
115	0xbbeef2e5	-0.007292139
116	0xbd132cc2	-0.035931356
117	0xbb4643b9	-0.0030252768
118	0xbd23df35	-0.04000779
119	0xbdfeee53	-0.124478005
120	0xbd7c85ea	-0.061651148
121	0x3d282d51	0.041058842
122	0x3cb77ef4	0.022399403
123	0x3c9d840c	0.019228004
124	0xbd78b359	-0.060717914
125	0xbdb31284	-0.08743766
126	0xbdb20ad2	-0.0869347
127	0xbcc2b05f	-0.02376574
128	0x3c336153	0.010948497
129	0xbde7025f	-0.11279749
130	0xbda8dc2b	-0.08245119
131	0xbd4b2c70	-0.049602926
132	0xbcb8cbcc	-0.022558115
133	0xbb31a080	-0.0027103722
134	0xbd67bc23	-0.056575906
135	0xbd4e61a3	-0.050386082
136	0xbd69bb3f	-0.057063337
137	0xbd42369a	-0.047415353
138	0xbdb42f7b	-0.08798119
139	0xbd64f923	-0.055901658
140	0xbdb35b00	-0.08757591
141	0x3c370a4d	0.0111718895
142	0xbccad3f9	-0.02475928
143	0xbd01f16a	-0.03172437
144	0xbdcd63db	-0.100288115
145	0xbb534a10	-0.003224019
146	0xbdf6798d	-0.12034903
147	0xbc802b4c	-0.015645646
148	0xbddb3345	-0.10703138
149	0xbd8018e8	-0.062547505
150	0x3d4e2485	0.050327796
151	0xbc2bc87b	-0.01048481
152	0x3d8a0066	0.06738357
153	0xbd8f8946	-0.07008605
154	0x3d57b09d	0.052658666
155	0x3a1aef4b	0.0005910291
156	0x3d3e6c40	0.046489954
157	0x3c637b36	0.013884356
158	0x3c435c45	0.011923854
159	0xbb8cbf6f	-0.0042952816
160	0xbc9fe077	-0.019516213
161	0xbdd16017	-0.10223406
162	0xbc24d7cd	-0.010061217
163	0xbd24d428	-0.04024139
164	0x3d351561	0.04420984
165	0xbd5b44e0	-0.05353248
166	0xbd8888d5	-0.06666724
167	0x3d77e661	0.06052244
168	0xbbb5afce	-0.005544639
169	0x3d57a7b7	0.05265018
170	0xbdb24b9f	-0.0870583
171	0x3df8fcb9	0.12157578
172	0x3d019ecd	0.031645585
173	0xbda5aefc	-0.08090016
174	0xbc99eb7c	-0.018789046
175	0xbda8fcb6	-0.08251326
176	0xbda6ca3b	-0.08144041
177	0xbd880f38	-0.06643528
178	0xbd7e853d	-0.062138785
179	0xbd1f734b	-0.03892831
180	0xbcbe419f	-0.02322465
181	0xbdbe21ba	-0.092837766
182	0xbc8c4726	-0.01712377
183	0x3d79278f	0.06082874
184	0x3ce4ba16	0.027920764
185	0xbcabdf2b	-0.020980438
186	0xbd0d466d	-0.03449099
187	0x3d27de64	0.040983573
188	0xbdc1063c	-0.09425017
189	0xbca36e8e	-0.019950178
190	0x3d2f4449	0.04278973
191	0x3a5f666c	0.0008522037
192	0x3d55db6d	0.052211214
193	0x3c576486	0.013146525
194	0xbdb090e9	-0.086213894
195	0x3c19c99c	0.009386446
196	0xbd34bbfe	-0.044124596
197	0xbca79200	-0.02045536
198	0x3bc83fef	0.006111137
199	0xbdd0a9b7	-0.101886205
200	0x3cba38f5	0.022732237
201	0xbd32629f	-0.043551084
202	0xbd90fbdc	-0.07079288
203	0x3d312f3d	0.04325794
204	0x3cdc026c	0.026856624
205	0x3d0a342d	0.033741165
206	0xbd9f40b5	-0.07776014
207	0x3d08cb9b	0.0333973
208	0xbd8874b3	-0.066628836
209	0x3b6f4a94	0.0036512958
210	0x3c8ffc74	0.017576434
211	0xbdf0903d	-0.11746261
212	0xbcfbf220	-0.030755103
213	0x3d246e11	0.04014403
214	0xbaf78d4f	-0.0018886718
215	0xbd8c6199	-0.06854553
216	0xbbc799a0	-0.0060913116
217	0xbd977a8a	-0.07396419
218	0xbdffb894	-0.12486377
219	0xbd04b03d	-0.032394636
220	0xbd82a3c6	-0.063788936
221	0x3d84330a	0.064550474
222	0x3b983dc5	0.0046460354
223	0xbd440f2b	-0.047866028
224	0xbd912ef7	-0.07089036
225	0x3d28bd06	0.04119589
226	0xbcdf2cbf	-0.027243016
227	0xbb2994fd	-0.0025876157
228	0x3d1d8720	0.038458943
229	0xbbae4c84	-0.00531918
230	0x3ce97512	0.028498206
231	0xbcb4604f	-0.02201858
232	0x3ce1f39c	0.027581982
233	0xbd3cab2c	-0.04606168
234	0xbd62c098	-0.055359453
235	0xbdb23a79	-0.08702559
236	0x3d8e6aa5	0.069539346
237	0x3d1699db	0.03676782
238	0xbdd000e6	-0.10156421
239	0xbd10a1c7	-0.035310533
240	0xbdaf2976	-0.0855283
241	0xbc8ff1be	-0.017571326
242	0xbd74da08	-0.059778243
243	0xbcf4679a	-0.029834557
244	0xbde0a5d9	-0.10969133
245	0x3d4a5433	0.049396705
246	0x3d88c769	0.066786595
247	0xbc4f1ef3	-0.012641656
248	0xbd1246e0	-0.035712123
249	0xbdbfec7b	-0.09371277
250	0xbd22e2f0	-0.039767206
251	0xbcd4c8ea	-0.02597471
252	0x3c4c730b	0.0124786
253	0xbd3e7f71	-0.046508256
254	0xbdff3303	-0.124609016
255	0xbd7d925b	-0.061907154

net.6.weight f4 [2, 256]
0	0xbc3aa31a	-0.0113914255
1	0xbde77d75	-0.11303226
2	0xbe206a5c	-0.15665573
3	0xbe12295f	-0.14273594
4	0xbcc819d7	-0.024426384
5	0xbbcb1560	-0.0061976165
6	0x3a3b44ce	0.00071437366
7	0x3e36bbb5	0.17845042
8	0xbe0db7a7	-0.13839589
9	0x3e63ca99	0.22245254
10	0x3e4d3d55	0.20042928
11	0xbc06e80e	-0.008234037
12	0x3e07193f	0.13193224
13	0xbe20847b	-0.15675537
14	0xbca4be6c	-0.020110331
15	0x3e088a43	0.13333993
16	0xbe07661c	-0.13222545
17	0x3e2bbf4e	0.16772196
18	0x3bf2c8f6	0.0074092103
19	0xbe181c9d	-0.14854665
20	0x3d1d7a7d	0.038446892
21	0x3d988f24	0.07449177
22	0xbd4a1c6b	-0.049343508
23	0x3e1ac9b4	0.15116006
24	0x3e2862ac	0.1644389
25	0x3d3b08b0	0.045662582
26	0xbca03b18	-0.019559428
27	0x3e36e0e0	0.1785922
28	0x3e251013	0.16119413
29	0x3e18e022	0.1492925
30	0x3e4716d9	0.1944231
31	0xbd46c3fa	-0.04852674
32	0xbd35bce4	-0.044369593
33	0x3e15876e	0.14602444
34	0xbc327f18	-0.010894559
35	0xbd495a09	-0.04915813
36	0xbc6285e0	-0.013825864
37	0xbdf5a1f1	-0.119937785
38	0xbb800451	-0.0039067646
39	0x3e4f5b86	0.20249757
40	0x3e1367bb	0.14395039
41	0x3e507ce4	0.20360142
42	0xbc9ef85a	-0.019405533
43	0x3e405ad9	0.18784656
44	0x3e2760cd	0.1634552
45	0x3e1353f9	0.14387502
46	0x3e07da74	0.13266927
47	0x3e273bfb	0.16331474
48	0xbe04b2f3	-0.12958889
49	0x3dc6b8a4	0.09703186
50	0xbddf60db	-0.109071456
51	0x3e21ed84	0.15813261
52	0xbc9a043f	-0.018800853
53	0xbe2b155b	-0.16707365
54	0x3db1f893	0.0868999
55	0x3df97e3a	0.12182279
56	0x3e08392e	0.13303062
57	0x3deeeb31	0.11665953
58	0x3e293ef3	0.1652792
59	0x3e27c826	0.16384944
60	0x3bc0fc50	0.005889453
61	0xbd28d97c	-0.041223034
62	0x3e07c41c	0.13258404
63	0xbe193705	-0.14962395
64	0xbd66651d	-0.056248773
65	0x3d1b67f8	0.03794095
66	0xbe347a29	-0.17624725
67	0x3e0fca29	0.14041962
68	0xbe062f07	-0.13103877
69	0x3e239a7c	0.159769
70	0x3e034982	0.1282101
71	0x3e45eb3f	0.1932802
72	0xbd13c2dc	-0.036074504
73	0x3e2a4f71	0.16631867
74	0x3df2e96c	0.11860928
75	0xb998f500	-0.00029174238
76	0xbe1a2c9d	-0.15056081
77	0x3d22add7	0.039716568
78	0xbb91d3a7	-0.0044502798
79	0xbca34e4e	-0.0199348
80	0x3ddabd0f	0.10680591
81	0xbdf3dee1	-0.11907745
82	0x3e09ddf0	0.13463569
83	0x3e0beb8e	0.13664076
84	0xbd4040a8	-0.04693666
85	0x3e19c063	0.15014796
86	0xbe30a423	-0.17250113
87	0x3befce09	0.0073182625
88	0xbc8569f0	-0.016285866
89	0xbd646853	-0.055763554
90	0x3e2ac04b	0.16674916
91	0xbd53fe8a	-0.05175642
92	0xbdfb9754	-0.12284723
93	0x3e474586	0.19460115
94	0x3e2decd1	0.1698487
95	0x3e1fbe2b	0.15599887
96	0x3e3886dd	0.18020196
97	0xbcd33dcc	-0.025786303
98	0xbd1c0700	-0.038092613
99	0xbdd0eaf8	-0.10201067
100	0xbd042977	-0.032266106
101	0xbd944a2b	-0.07240709
102	0xbe21d797	-0.15804897
103	0xbe0adf43	-0.1356173
104	0xbd06456e	-0.032781057
105	0xbc9a7810	-0.018856078
106	0xbe040bc0	-0.12895107
107	0xbde96684	-0.113965064
108	0xbdf4b880	-0.11949253
109	0x3e2472a8	0.16059363
110	0x3d6ab9d8	0.05730614
111	0xbe017bf4	-0.1264494
112	0x3ce046ac	0.027377449
113	0xbcfcf701	-0.0308795
114	0x3e5b8c3b	0.21440212
115	0x3c3f38b8	0.011671238
116	0x3ce02a58	0.027363941
117	0x3e0928b3	0.13394432
118	0x3e0bd418	0.13655126
119	0x3e35f54b	0.17769353
120	0xbc087900	-0.00832963
121	0x3e49ea50	0.1971829
122	0xbcc5a723	-0.024127549
123	0x3de2c522	0.11072756
124	0x3e62d9f6	0.22153458
125	0x3e024444	0.12721354
126	0x3d10e080	0.03537035
127	0x3de160a4	0.11004761
128	0x3d066de6	0.03281965
129	0x3e2d433c	0.16920179
130	0x3defb6ec	0.117048115
131	0x3e510e5d	0.20415635
132	0x3e538439	0.20655908
133	0x3e1c2788	0.15249455
134	0x3895b800	7.139146e-05
135	0xbdce0c09	-0.10060889
136	0x3c76e50f	0.01506926
137	0x3e281425	0.16413935
138	0xbd6ec194	-0.05829008
139	0x3de9838c	0.11402044
140	0xbbbee1db	-0.005825264
141	0x3dee0e2a	0.11623795
142	0x3e3ba08d	0.18322964
143	0x3daed119	0.08535976
144	0x3e10a7f9	0.14126576
145	0x3e07bf34	0.13256532
146	0x3e396f77	0.18108927
147	0xbe06de65	-0.13170774
148	0x3dff47c5	0.12464861
149	0x3d086b2f	0.033305343
150	0x3e1bb592	0.15205982
151	0x3dc71925	0.09721593
152	0xbdc2dddc	-0.095149726
153	0xbd5d0eee	-0.053969316
154	0x3e1eefa8	0.15521109
155	0xbe24136f	-0.16023038
156	0xbad57c40	-0.001628764
157	0x3e2688f6	0.16263184
158	0xbce8d74c	-0.028422974
159	0x3e4223a9	0.18958916
160	0xbc47322a	-0.012157956
161	0x3e24e903	0.16104512
162	0x3e0f4148	0.13989747
163	0x3e4f42fb	0.20240395
164	0x3def3de3	0.11681726
165	0xbd0f2ff6	-0.03495785
166	0x3e4231e7	0.18964349
167	0xbe0bfaf6	-0.13669953
168	0xbcc4c246	-0.024018418
169	0x3e0a201c	0.13488811
170	0xbd68c2c5	-0.05682637
171	0xbe030fc9	-0.1279899
172	0x3e1c612b	0.15271442
173	0x3e2281c6	0.15869817
174	0xbde9eda0	-0.114222765
175	0x3ccbf9f4	0.02489946
176	0xbd512bdd	-0.051067222
177	0x3e38f9d7	0.18064056
178	0x3e09c628	0.13454497
179	0x3e3810ae	0.17975113
180	0xbe0e6216	-0.13904604
181	0x3e0e7515	0.13911851
182	0x3e0f8d3c	0.1401872
183	0xbe1d0db8	-0.15337265
184	0x3e25d020	0.16192675
185	0xbd1f6ff6	-0.038925134
186	0xbc9a6148	-0.018845215
187	0xbe3d23a6	-0.1847063
188	0x3e0e900d	0.13922139
189	0xbd4ae9e9	-0.04953948
190	0xbd3a6129	-0.045502815
191	0x3e2b86f0	0.16750693
192	0xbc75bdbf	-0.014998852
193	0xbd6b45da	-0.057439663
194	0xbd1475b4	-0.036245063
195	0x3d6d2cf8	0.057904214
196	0x3e0f5294	0.13996345
197	0x3e20ada7	0.15691243
198	0xbccc3ce8	-0.024931386
199	0x3e30ba6a	0.17258611
200	0x3e0c25e7	0.13686334
201	0x3e0af33e	0.13569352
202	0xbd8c4f10	-0.068510175
203	0xbe1f9593	-0.15584402
204	0xbde6e3ca	-0.11273916
205	0x3c611048	0.013736792
206	0xbd5e0402	-0.05420304
207	0xbe17110d	-0.14752598
208	0x3e3c9276	0.18415245
209	0x3df60116	0.12011926
210	0x3e13dede	0.14440486
211	0x3e1ae9e9	0.15128292
212	0xbe2fa7f9	-0.1715392
213	0xbd9e9f3a	-0.07745214
214	0xbe0c56f4	-0.13705045
215	0xbd0aaf68	-0.033858687
216	0x3e11f331	0.14252926
217	0x3d966a94	0.07344547
218	0x3e5c6148	0.21521485
219	0xbd28de44	-0.041227594
220	0x3dbad35b	0.09122344
221	0xbdd7f2f4	-0.105443865
222	0x3e485fb0	0.19567752
223	0xbd1abae8	-0.037775904
224	0x3e1a171c	0.15047878
225	0x3dfa5919	0.12224025
226	0x3c5d7580	0.013516784
227	0x3e1cc363	0.15308909
228	0x3e2808b3	0.16409568
229	0x3e3e2e89	0.18572439
230	0xbc87ec39	-0.016592132
231	0x3e647025	0.22308405
232	0x3c38fb98	0.011290453
233	0xbc72e930	-0.014826104
234	0xbd06ae72	-0.032881208
235	0x3b666c80	0.0035159886
236	0xbe1087b3	-0.14114265
237	0xbe2c5bd2	-0.16831902
238	0x3e04aefe	0.12957379
239	0x3d74af3a	0.05973742
240	0x3e542fed	0.20721407
241	0xbc5b02b8	-0.013367347
242	0xbd4dbf15	-0.05023106
243	0xbdeb371c	-0.11485121
244	0x3e374b76	0.1789988
245	0xbe14d9a8	-0.14536154
246	0xbdf02324	-0.117254525
247	0xbe20fe85	-0.15722091
248	0x3e108658	0.14113748
249	0x3e2f97b5	0.17147715
250	0x3df53093	0.119721554
251	0x3e4b0e12	0.19829586
252	0xbe09e86d	-0.1346757
253	0x3e1bd8b6	0.15219387
254	0x3e2696bd	0.1626844
255	0x3deacace	0.11464463

net.6.bias f4 [2]
0	0xbd177984	-0.03698112
1	0x3dae6821	0.08515955

exp_avg f4 [64, 2]
0	0x373c5245	1.1224828e-05
1	0xb7bc8c17	-2.247658e-05
2	0x36d874b9	6.45089e-06
3	0xb7c7100f	-2.3730126e-05
4	0x322062ea	9.335716e-09
5	0xb2e7e712	-2.6997018e-08
6	0xb696d4e6	-4.495133e-06
7	0xb68d626f	-4.2135866e-06
8	0xb34d0d50	-4.774239e-08
9	0xb39f7c1e	-7.426591e-08
10	0xb58ecfa5	-1.0640257e-06
11	0xb4a508fa	-3.0740176e-07
12	0xb7115a92	-8.663761e-06
13	0xb72bfa63	-1.0250692e-05
14	0x36b0dcff	5.270936e-06
15	0xb7269419	-9.928853e-06
16	0x32cb6a06	2.3680524e-08
17	0x32a7f6d8	1.955361e-08
18	0xb691cff5	-4.345546e-06
19	0xb68497c5	-3.951575e-06
20	0x380bde01	3.334694e-05
21	0x3789229d	1.634779e-05
22	0xb63006c8	-2.622999e-06
23	0x35bc17b3	1.4013989e-06
24	0xb81a8252	-3.683783e-05
25	0xb76a4ccf	-1.396537e-05
26	0xb799b4b3	-1.8323166e-05
27	0x35ca1360	1.5055812e-06
28	0x32a90e1b	1.9680604e-08
29	0xb3b42b0a	-8.389732e-08
30	0x3691f645	4.3500063e-06
31	0x36974888	4.5085944e-06
32	0xb59f9136	-1.1888685e-06
33	0xb6ab462f	-5.1043676e-06
34	0xb705804c	-7.957289e-06
35	0xb6abe12e	-5.1224115e-06
36	0x36b6e433	5.4505886e-06
37	0xb6d35648	-6.2983345e-06
38	0x33266956	3.874569e-08
39	0xb2a5fc32	-1.9323213e-08
40	0x35c17564	1.4413786e-06
41	0xb604ed8e	-1.9807808e-06
42	0x37512753	1.2466527e-05
43	0x35945674	1.105202e-06
44	0xb8072333	-3.221929e-05
45	0xb62accc6	-2.5451168e-06
46	0x318d7a26	4.1175268e-09
47	0x3278d790	1.4484513e-08
48	0xb2c2e0f7	-2.2686875e-08
49	0xb35a2f3a	-5.0800033e-08
50	0xb7eb8b05	-2.8078919e-05
51	0x351b019d	5.774435e-07
52	0x2f5968a9	1.9773218e-10
53	0xb2c352dc	-2.2738668e-08
54	0x3759c9de	1.2981209e-05
55	0xb6be3b7a	-5.6693652e-06
56	0x34de7794	4.1437727e-07
57	0x357893de	9.2602374e-07
58	0xb4a19630	-3.0097863e-07
59	0xb6bf6f7c	-5.705222e-06
60	0x368a9c1d	4.1308945e-06
61	0x3686df3c	4.019499e-06
62	0x32c7e8a4	2.3272442e-08
63	0xb0e0f2b8	-1.636713e-09
64	0xb2ec2efe	-2.7495386e-08
65	0xb329a61a	-3.9499447e-08
66	0xb7c5adcd	-2.3565162e-05
67	0xb732a74a	-1.0648577e-05
68	0xb679a274	-3.7198452e-06
69	0x33e5b40c	1.0696394e-07
70	0x37a9133b	2.0155325e-05
71	0xb3811264	-6.010376e-08
72	0x363b431d	2.7904237e-06
73	0xb5beb5be	-1.4208997e-06
74	0x37176320	9.023381e-06
75	0x37ba737b	2.2226703e-05
76	0xb74ca7aa	-1.2198385e-05
77	0xb602e1b1	-1.950288e-06
78	0x35ca3b80	1.506749e-06
79	0x3622fcb1	2.4286967e-06
80	0x32c3111d	2.270877e-08
81	0xb32e6091	-4.060036e-08
82	0x36403043	2.8638322e-06
83	0x3586fdd8	1.0057656e-06
84	0xb70bd713	-8.3351215e-06
85	0xb69a8274	-4.6047444e-06
86	0xb64804b7	-2.9805067e-06
87	0xb56419c5	-8.497412e-07
88	0x3641a69e	2.8856225e-06
89	0xb584a7cc	-9.883602e-07
90	0xb5a974e7	-1.2625504e-06
91	0x34657d40	2.1372853e-07
92	0xb58bae04	-1.0406952e-06
93	0xb63da037	-2.8256452e-06
94	0x3710e6f5	8.636843e-06
95	0x362c2cc7	2.565606e-06
96	0xb6dd945c	-6.6035846e-06
97	0x366378ef	3.3896029e-06
98	0xb4c0ffce	-3.594891e-07
99	0xb72ec969	-1.0418103e-05
100	0x38373f6a	4.368966e-05
101	0x382183a6	3.8508e-05
102	0x36f96db3	7.433549e-06
103	0xb63c16ef	-2.8027532e-06
104	0x362633f2	2.4766164e-06
105	0xb70f8534	-8.554478e-06
106	0xb75285bb	-1.2548112e-05
107	0xb797ff98	-1.8119623e-05
108	0xb67dda09	-3.782685e-06
109	0xb52b8410	-6.389464e-07
110	0x36da7813	6.5108848e-06
111	0x37a0346c	1.9097897e-05
112	0x369a4fdb	4.598854e-06
113	0x374b2f2e	1.2110728e-05
114	0x3705cd72	7.975252e-06
115	0x372e5cae	1.0392787e-05
116	0x3359d815	5.0720775e-08
117	0x327472ed	1.42288e-08
118	0xb6c6693f	-5.913112e-06
119	0x34a8a8a2	3.1415135e-07
120	0xb5f2b19d	-1.8082097e-06
121	0x353a0771	6.930123e-07
122	0x3328afd0	3.927545e-08
123	0x331b8253	3.620728e-08
124	0xb6c325b0	-5.8158403e-06
125	0x35495ec9	7.5016266e-07
126	0xb70a1035	-8.2292145e-06
127	0x35342517	6.71092e-07

exp_avg_sq f4 [64, 2]
0	0x329c1122	1.8168581e-08
1	0x320618ee	7.805495e-09
2	0x313f67d7	2.7853184e-09
3	0x31828f01	3.7997556e-09
4	0x28b4ccee	2.0072889e-14
5	0x2922ddee	3.616372e-14
6	0x31ae75bb	5.077451e-09
7	0x309eb1a8	1.1546506e-09
8	0x29fe94ab	1.1305656e-13
9	0x29d73e71	9.55875e-14
10	0x2f36e5a4	1.6634388e-10
11	0x3023e24a	5.962063e-10
12	0x30889c12	9.93966e-10
13	0x321712ca	8.793629e-09
14	0x316822cf	3.378023e-09
15	0x31e21a3f	6.5804495e-09
16	0x29390e92	4.109089e-14
17	0x29a11283	7.1530475e-14
18	0x30a174ed	1.1747524e-09
19	0x2f00fbbe	1.1730969e-10
20	0x3277483d	1.4393717e-08
21	0x3191bfde	4.241868e-09
22	0x2f5fb74e	2.0346855e-10
23	0x2f499154	1.8332474e-10
24	0x326ba7f7	1.3716991e-08
25	0x31a939b0	4.9251057e-09
26	0x31c62530	5.766786e-09
27	0x3009d512	5.01431e-10
28	0x2b916ab2	1.0332484e-12
29	0x2bec153b	1.6774701e-12
30	0x2f2586e6	1.5054588e-10
31	0x2f515e44	1.9041929e-10
32	0x2fb25b95	3.2443084e-10
33	0x2fba8150	3.3925085e-10
34	0x2fd99827	3.958018e-10
35	0x30829330	9.500578e-10
36	0x2f3e2c2f	1.7296096e-10
37	0x30940ce0	1.0772077e-09
38	0x2900c986	2.8596503e-14
39	0x282ce544	9.597632e-15
40	0x2fa48727	2.9927458e-10
41	0x3090cf1f	1.0536246e-09
42	0x305f0299	8.113062e-10
43	0x2fa80525	3.0562677e-10
44	0x30c8a799	1.4599549e-09
45	0x2f9272e6	2.6638886e-10
46	0x282a4404	9.451644e-15
47	0x28ef0fa7	2.6541118e-14
48	0x2971af84	5.3664985e-14
49	0x2878a65e	1.3802841e-14
50	0x30bae2ce	1.3597743e-09
51	0x30e5d321	1.6721949e-09
52	0x28aa8631	1.8931988e-14
53	0x291f7eaa	3.5414956e-14
54	0x31924582	4.2570614e-09
55	0x3120a5da	2.337734e-09
56	0x2f992fe2	2.786456e-10
57	0x301f1d9a	5.788593e-10
58	0x319376ca	4.291768e-09
59	0x30b57f6a	1.3205697e-09
60	0x2ff0f70b	4.383128e-10
61	0x306a0449	8.5134794e-10
62	0x294fbe6f	4.6128408e-14
63	0x29841dd3	5.867151e-14
64	0x28ddac7c	2.4610732e-14
65	0x2932cdb9	3.9702376e-14
66	0x30e75671	1.683203e-09
67	0x30d5ef78	1.5565851e-09
68	0x2fb363e2	3.263088e-10
69	0x30216f00	5.87292e-10
70	0x332df1f7	4.0499767e-08
71	0x3172f1e1	3.5353127e-09
72	0x2f3c67d0	1.7135382e-10
73	0x2f5e3fba	2.0213423e-10
74	0x3188256d	3.9623758e-09
75	0x302ce996	6.290518e-10
76	0x2f51fd4a	1.9098426e-10
77	0x2eda3157	9.922257e-11
78	0x3035877d	6.6039957e-10
79	0x2ff7cf5d	4.507638e-10
80	0x28a39e59	1.8165308e-14
81	0x29b60d3b	8.084719e-14
82	0x3156517e	3.1187422e-09
83	0x31d1bad7	6.103942e-09
84	0x2ffbf816	4.583291e-10
85	0x30fde0a5	1.8472021e-09
86	0x311c0cc9	2.2708255e-09
87	0x2f99eac8	2.799736e-10
88	0x305042e8	7.576504e-10
89	0x30063de4	4.883687e-10
90	0x2e32e61c	4.0676892e-11
91	0x2be6c1d6	1.6396283e-12
92	0x2fa6e476	3.0357555e-10
93	0x30807e7f	9.349178e-10
94	0x2f8ba5b4	2.5401692e-10
95	0x30a650b9	1.2101032e-09
96	0x301ac4f0	5.630474e-10
97	0x2f849593	2.411694e-10
98	0x303dfb46	6.911488e-10
99	0x302a2cd0	6.190932e-10
100	0x31c89e2e	5.838749e-09
101	0x3129498d	2.4634546e-09
102	0x3048c357	7.303717e-10
103	0x308de3ae	1.0323811e-09
104	0x2e2affb0	3.888062e-11
105	0x2e9b1fe2	7.0542475e-11
106	0x308906da	9.970009e-10
107	0x3100604a	1.8681185e-09
108	0x2ffdbb58	4.6153548e-10
109	0x2fb9b3ed	3.377915e-10
110	0x319d35f9	4.5754374e-09
111	0x32a02a73	1.8645755e-08
112	0x309dfd7a	1.1495296e-09
113	0x313f2d0e	2.7819769e-09
114	0x3261de2a	1.3147238e-08
115	0x312cf119	2.5166342e-09
116	0x28d5d725	2.3741054e-14
117	0x28b47773	2.0035817e-14
118	0x2f898eb3	2.502155e-10
119	0x2f3f9a5d	1.742619e-10
120	0x2faf6101	3.190124e-10
121	0x2f261dfe	1.5108267e-10
122	0x28a3e433	1.8195601e-14
123	0x28b3f032	1.997716e-14
124	0x312b3506	2.4913915e-09
125	0x2e918714	6.617831e-11
126	0x311b0eab	2.2563806e-09
127	0x30f125c6	1.7545794e-09

exp_avg f4 [64]
0	0xb833d319	-4.2873526e-05
1	0xb7d79c5f	-2.5702813e-05
2	0x344367ed	1.8198598e-07
3	0xb7748845	-1.4575261e-05
4	0x344cbf9e	1.906869e-07
5	0xb6a6f470	-4.975642e-06
6	0x378b4911	1.6604115e-05
7	0x37bb8591	2.2354334e-05
8	0xb47fa441	-2.3808481e-07
9	0xb639e2e3	-2.7699214e-06
10	0xb8071450	-3.2205426e-05
11	0x354ca006	7.6228787e-07
12	0x3807c182	3.2366726e-05
13	0x37c3f695	2.3360635e-05
14	0x33c072d8	8.961587e-08
15	0xb603d418	-1.9643976e-06
16	0x376eb290	1.422748e-05
17	0x376252e1	1.34899465e-05
18	0x3720be7c	9.581094e-06
19	0x32aa0405	1.9792433e-08
20	0x355bc054	8.186373e-07
21	0xb6c38a65	-5.827564e-06
22	0xb86a55e2	-5.5869932e-05
23	0x33031cd2	3.0527026e-08
24	0x33937e9a	6.8682496e-08
25	0xb70df86d	-8.462096e-06
26	0x33a82c44	7.8311615e-08
27	0x355e1c88	8.2742963e-07
28	0xb7ad4495	-2.0655143e-05
29	0xb737ba6b	-1.0951054e-05
30	0xb75a5d82	-1.3015584e-05
31	0x33f4ca29	1.1398908e-07
32	0x33ec8541	1.1013845e-07
33	0xb52f2432	-6.524525e-07
34	0xb6a8c0b5	-5.029224e-06
35	0xb818b9c5	-3.6412635e-05
36	0xb7cdefbc	-2.454954e-05
37	0xb715797a	-8.9093755e-06
38	0x374c8cd9	1.2192141e-05
39	0x3722a897	9.695205e-06
40	0x33a2f580	7.588369e-08
41	0x383bc681	4.4769145e-05
42	0x37618bbb	1.3443579e-05
43	0xb66bf149	-3.5158175e-06
44	0x37b78ee5	2.188184e-05
45	0x360cc6c5	2.0977325e-06
46	0x35fa8b73	1.8667037e-06
47	0x365f4ec0	3.3275428e-06
48	0x37ded991	2.6565775e-05
49	0x37d0002e	2.4795616e-05
50	0x37fdc5fe	3.0252148e-05
51	0x37f4d149	2.9184523e-05
52	0xb773b161	-1.4525228e-05
53	0x35763977	9.1725764e-07
54	0xb7559f5c	-1.2732893e-05
55	0xb7f41f01	-2.9101504e-05
56	0x3785bd5d	1.5943015e-05
57	0x3764575f	1.3610202e-05
58	0xb3652d0d	-5.335919e-08
59	0xb74f5442	-1.2357779e-05
60	0x362dbd35	2.5889142e-06
61	0x330785fd	3.1554e-08
62	0xb6b35bbe	-5.345296e-06
63	0xb7833814	-1.564253e-05

exp_avg_sq f4 [64]
0	0x342acde4	1.5907386e-07
1	0x345f5601	2.0799781e-07
2	0x2b136d1d	5.2376316e-13
3	0x32206215	9.335527e-09
4	0x2c2d6c2f	2.4644833e-12
5	0x30b48b1f	1.3136264e-09
6	0x34811dd3	2.4049822e-07
7	0x3298d21a	1.7790672e-08
8	0x2c5f855b	3.1764233e-12
9	0x3102c6f3	1.903058e-09
10	0x338c2c49	6.5273134e-08
11	0x310d3217	2.0546673e-09
12	0x34793dba	2.3212388e-07
13	0x33d2c054	9.813871e-08
14	0x2c2c0260	2.4443988e-12
15	0x302e19db	6.3337574e-10
16	0x32714009	1.4042606e-08
17	0x33822a12	6.061249e-08
18	0x3112d8ce	2.1369035e-09
19	0x2a27dbca	1.4908834e-13
20	0x332bc2e4	3.9991292e-08
21	0x32f1b8de	2.814016e-08
22	0x32780548	1.4436701e-08
23	0x29c4f61d	8.7468424e-14
24	0x29c8feb8	8.925971e-14
25	0x32a6df8a	1.9426597e-08
26	0x2c13d153	2.1006155e-12
27	0x32b3cb6f	2.0930853e-08
28	0x333812c9	4.2857923e-08
29	0x335b94fc	5.112541e-08
30	0x331b0baf	3.6099376e-08
31	0x2b1e6a4e	5.6280404e-13
32	0x2b826fd4	9.268094e-13
33	0x31858d35	3.886863e-09
34	0x32c14578	2.2499748e-08
35	0x3448a2b2	1.868564e-07
36	0x3348b371	4.672933e-08
37	0x31a297f1	4.7320943e-09
38	0x303a3013	6.7734723e-10
39	0x32a0bf9e	1.8713589e-08
40	0x2c2954ca	2.4063412e-12
41	0x34527d96	1.9603462e-07
42	0x335b29fa	5.102809e-08
43	0x323729fb	1.0661547e-08
44	0x33ca21cc	9.4125056e-08
45	0x2ecc6e27	9.296413e-11
46	0x31e566a6	6.676447e-09
47	0x33058f37	3.109673e-08
48	0x336b449c	5.47776e-08
49	0x330d397e	3.288141e-08
50	0x320ddd59	8.257609e-09
51	0x341f40ca	1.4831599e-07
52	0x2f9ba221	2.8309535e-10
53	0x33bcbdbc	8.788945e-08
54	0x31c3544f	5.6848317e-09
55	0x341e82c8	1.4762475e-07
56	0x327afaef	1.4608971e-08
57	0x331c46ce	3.6385977e-08
58	0x2a2b9988	1.5241118e-13
59	0x3289e515	1.6053074e-08
60	0x32726a24	1.41103875e-08
61	0x2aeed7f7	4.2427148e-13
62	0x31a9d77a	4.943044e-09
63	0x31e27e92	6.591855e-09
