new_saved_models/v2_n1e6_sk100.pt (torch, 529309 bytes, 24 tensors)

net.0.weight f4 [64, 2]
0	0xbd21706b	-0.03941385
1	0x3dbfb0b6	0.09359877
2	0xbf0e8a91	-0.55680186
3	0x3f05fc06	0.5233768
4	0x3f0099b6	0.50234544
5	0x3e6473fc	0.2230987
6	0x3ebb9747	0.36638853
7	0x3f1c5d2e	0.6107968
8	0xbe616f24	-0.22015053
9	0xbea34988	-0.31892037
10	0x3e285071	0.16436936
11	0x3e6f5e10	0.23375726
12	0x3d6f9665	0.058493037
13	0x3ebca667	0.36845705
14	0xbdca50af	-0.098786704
15	0xbe067ad1	-0.13132788
16	0xbf16c593	-0.58895224
17	0x3f309ae7	0.6898636
18	0x3e53bc4f	0.20677303
19	0xbd866081	-0.065613754
20	0xbeda0aee	-0.42586464
21	0x3f27e718	0.65586996
22	0x3e51425d	0.20435472
23	0xbeb7015b	-0.35743222
24	0x3f347021	0.70483595
25	0x3eb602db	0.35549054
26	0x3e9db965	0.30805507
27	0xbef698f5	-0.48163572
28	0x3e8cd0e3	0.27503118
29	0xbeb6322a	-0.35585147
30	0xbea39bc8	-0.3195479
31	0x3ecc37e6	0.39886397
32	0x3eab59e2	0.33467013
33	0xbbf63c85	-0.0075145387
34	0x3e89ba1e	0.2689981
35	0xbe28c6f2	-0.16482142
36	0x3e3408a7	0.17581426
37	0xbeee19a6	-0.46503943
38	0x3e973c36	0.29538125
39	0xbe8b2cff	-0.27182767
40	0xbdb6f6ce	-0.08933793
41	0x3e80f8a4	0.25189698
42	0x3e9ac636	0.30229348
43	0xbf0c2960	-0.54750633
44	0xbee73f53	-0.451655
45	0x3f0fc640	0.5616188
46	0x3ea7f602	0.32804877
47	0xbdf31cd7	-0.11870735
48	0xbef62f3e	-0.48082918
49	0xbdd30fc2	-0.1030574
50	0x3dc9e761	0.09858585
51	0x3f1ebe3f	0.6200904
52	0x3e69c9f3	0.22830944
53	0x3e431bb2	0.19053534
54	0x3e96678c	0.29375875
55	0x3eeef8d5	0.4667422
56	0x3f2db7b6	0.67858446
57	0xbd3491f3	-0.0440845
58	0xbf00c3ce	-0.50298774
59	0xbea69f6e	-0.3254351
60	0x3f01dfc3	0.5073206
61	0x3ed42e9b	0.41441807
62	0xbe8fda26	-0.28096122
63	0xbf2da100	-0.6782379
64	0xbe90865b	-0.28227505
65	0x3e759f4a	0.23986545
66	0xbf497342	-0.78691494
67	0xbe2fae55	-0.17156346
68	0xbf12961c	-0.572603
69	0xbed99070	-0.4249301
70	0xbe80413d	-0.25049773
71	0xbf20f834	-0.6287873
72	0x3f39cd47	0.72578853
73	0x3f082f11	0.5319682
74	0x3dca3c0b	0.098747335
75	0xbf04a477	-0.51813453
76	0xbcc2fec9	-0.023803132
77	0x3f4d50ff	0.80201715
78	0x3ee110d5	0.43958154
79	0xbd95f9f3	-0.07323065
80	0xbe78bc89	-0.2429067
81	0xbf0f1900	-0.5589752
82	0x3f071bbc	0.52776694
83	0xbf28bddf	-0.6591472
84	0xbe14b505	-0.14522178
85	0xbe606f9b	-0.21917574
86	0x3f311a23	0.69180506
87	0xbf29919c	-0.6623781
88	0x3ebfcfb3	0.3746315
89	0x3ed254b1	0.4108024
90	0x3ee0031a	0.43752366
91	0xbf37ef68	-0.7184968
92	0xbf29bca9	-0.663035
93	0x3e79c1d7	0.2439035
94	0x3f043850	0.51648426
95	0xbecacaf5	-0.3960797
96	0x3f167cb0	0.5878401
97	0xbe644fec	-0.22296113
98	0x3ea7726c	0.32704484
99	0x3d99384b	0.0748144
100	0xbea6ad1c	-0.32553947
101	0xbe817708	-0.25286126
102	0xbefe9a8c	-0.49727285
103	0xbf18c649	-0.5967756
104	0xbf0b1f17	-0.54344314
105	0xbf33c59c	-0.702234
106	0xbdae1d79	-0.08501715
107	0xbf2f5ef8	-0.68504286
108	0xbdcbee20	-0.09957528
109	0xbe4ace69	-0.19805302
110	0x3e8f4ce5	0.27988353
111	0xbf2e123c	-0.67996573
112	0xbe853bfd	-0.2602233
113	0x3ea4ddf0	0.32200575
114	0x3e8da3cd	0.27664033
115	0x3cfdd47d	0.030985111
116	0x3f205530	0.62629986
117	0xbdb4a2dc	-0.088201255
118	0x3f4683e5	0.77545005
119	0xbea91418	-0.33023143
120	0xbe27724d	-0.16352196
121	0x3f2428aa	0.6412455
122	0xbf143692	-0.5789577
123	0x3d82f8b2	0.06395091
124	0xbef4e90e	-0.47834057
125	0xbb89efd9	-0.0042095003
126	0xbdf26d4e	-0.118372545
127	0xbf348208	-0.7051091

net.0.bias f4 [64]
0	0x3e512cbe	0.20427224
1	0x3c10a4c3	0.008828345
2	0xbf384496	-0.71979654
3	0xbdb85170	-0.08999908
4	0x3e950baf	0.29110476
5	0xbf31266f	-0.6919927
6	0xbdf5dc55	-0.120049156
7	0x3e456382	0.1927624
8	0xbed89901	-0.42304233
9	0x3f09535b	0.53642815
10	0xbe1ad645	-0.151208
11	0x3ebe7076	0.37195176
12	0xbf0014e5	-0.5003188
13	0xbda6d38a	-0.081458166
14	0x3f0ccc1a	0.54998934
15	0x3e5b7566	0.21431503
16	0x3f0afcbc	0.5429189
17	0xbf215f3a	-0.6303593
18	0x3ef154d5	0.47135034
19	0xbe2bfe23	-0.16796164
20	0xbe40e0d0	-0.18835759
21	0xbf048e99	-0.51780087
22	0x3f3472a3	0.7048742
23	0x3e81eeb4	0.2537743
24	0xbf27d224	-0.65555024
25	0x3f3668ce	0.7125367
26	0xbecb8b0d	-0.39754525
27	0x3c8693ca	0.016427893
28	0xbeb9d2e4	-0.3629371
29	0xbedc8450	-0.43069696
30	0x3eb7e214	0.3591467
31	0xbec413ea	-0.38296443
32	0x3eb4c8c3	0.3530942
33	0xbdc049c7	-0.09389072
34	0x3f0e095b	0.55483025
35	0xbd8b1642	-0.06791355
36	0xbed33fe7	-0.4125969
37	0xbea04101	-0.31299594
38	0xbd92d513	-0.07169547
39	0xbf350e23	-0.70724696
40	0xbf215344	-0.6301768
41	0x3f07be3d	0.53024656
42	0x3e4d8964	0.20071942
43	0xbf0ffbec	-0.5624378
44	0xbec3bfea	-0.38232356
45	0xbe1e38d0	-0.1545136
46	0xbecee968	-0.4041245
47	0xbf1ccc08	-0.61248827
48	0xbea9299b	-0.33039555
49	0xbed7207a	-0.42016965
50	0x3e30d3e2	0.17268327
51	0xbefe9c3e	-0.49728578
52	0xbf06cb32	-0.526538
53	0x3f1c9080	0.6115799
54	0x3d99ff52	0.075194016
55	0x3ea9b406	0.3314516
56	0xbe9e9d6f	-0.30979487
57	0x3f0c3f40	0.5478401
58	0xbd1632ce	-0.036669545
59	0x3d374177	0.044740167
60	0x3f19d5c7	0.60091823
61	0xbf1e25d4	-0.6177647
62	0x3f18ee4f	0.5973863
63	0xbf035937	-0.51308006

net.2.weight f4 [128, 64]
0	0x3d8de285	0.06927971
1	0x3be1e64e	0.0068939095
2	0x3a5e01cd	0.0008468896
3	0x3dc8007f	0.097657196
4	0xbe06ece1	-0.131763
5	0xbca9cf88	-0.020728841
6	0x3ddbe0cb	0.10736235
7	0xbd914fff	-0.07095336
8	0x3d338454	0.04382737
9	0x3cff211b	0.031143716
10	0x3e439f78	0.19103801
11	0x3dcb478f	0.09925758
12	0x3e21e0cb	0.15808408
13	0xbd9e4354	-0.077276856
14	0xbcbfee6a	-0.023429114
15	0xbb23c2f3	-0.0024988025
16	0xbd481e21	-0.04885686
17	0xbd88748d	-0.06662855
18	0xbdd69ff3	-0.10479727
19	0xbe2be643	-0.16787057
20	0x3ddea8d9	0.10872049
21	0xbbe0106f	-0.0068378965
22	0x3e2b86c1	0.16750623
23	0x3cbf9098	0.023384377
24	0xbe068798	-0.13137662
25	0x3e109b53	0.14121751
26	0x3d5a8f7c	0.053359494
27	0x3d50c74a	0.050971307
28	0x3b9f1d43	0.004855783
29	0xbd67a97b	-0.056558114
30	0x3d078584	0.033086315
31	0xbd69e167	-0.057099726
32	0x3db7758c	0.08957967
33	0x3de3ea28	0.11128646
34	0x3dcc0f3f	0.099638455
35	0xbe08cb6d	-0.13358851
36	0x3df4f6f0	0.11961162
37	0xbe460a39	-0.19339837
38	0x3dcea67a	0.10090347
39	0x3d2fba77	0.042902436
40	0xbdb5eb33	-0.08882751
41	0xbd8a0a05	-0.06740192
42	0xbbe5a0d8	-0.0070076995
43	0xbc5cfceb	-0.013488035
44	0x3dc7c6ae	0.09754692
45	0xbe2a00ba	-0.1660184
46	0xbe427ba8	-0.18992484
47	0xbdc35956	-0.09538524
48	0xbe36de8f	-0.17858337
49	0xbe0356f6	-0.12826142
50	0xbdd6d7a7	-0.10490351
51	0x3d0307ac	0.03198974
52	0xbe2b41f6	-0.16724381
53	0x3b9137e9	0.004431714
54	0x3d142f0c	0.03617768
55	0xbda861ce	-0.0822178
56	0x3e005504	0.12532431
57	0xbb4c7723	-0.003119894
58	0x3da88284	0.08228019
59	0x3df58adb	0.11989375
60	0x3df7c702	0.120985046
61	0xbcc5da3b	-0.024151912
62	0xbdbc4e46	-0.09194617
63	0x3d4d2a6a	0.050089277
64	0x3d8dba15	0.06920258
65	0xbdbbf7e1	-0.091781385
66	0x3d4179c1	0.047235254
67	0x3d0b5ddd	0.034025062
68	0xbaba3ce0	-0.0014208816
69	0xbe258662	-0.16164544
70	0x3bc96dad	0.0061471076
71	0x3d8e3b91	0.06944955
72	0xbdda57cf	-0.106612794
73	0x3df58479	0.11988158
74	0x3e039e4f	0.12853359
75	0x3d7de58c	0.06198649
76	0x3dba8862	0.09108044
77	0x3d633a52	0.05547554
78	0x3dbb80b1	0.09155405
79	0xbdafc2cb	-0.08582076
80	0x3d4d7327	0.050158646
81	0xbd818953	-0.06325021
82	0x3d57257d	0.052525986
83	0x3e024031	0.127198
84	0xbd233d51	-0.039853398
85	0xbe57253b	-0.21010296
86	0x3dbd22e5	0.09235171
87	0x3dfc47d6	0.12318389
88	0xbe022eed	-0.12713213
89	0x3d4ace8a	0.049513377
90	0xbc7222a8	-0.0147787705
91	0x3e28c00a	0.16479507
92	0x3dd609c0	0.104510784
93	0xbdd6bec8	-0.104856074
94	0x3deb87ef	0.11500537
95	0xbd94017a	-0.07226844
96	0xbaa3c594	-0.0012494796
97	0x3cb9016e	0.02258369
98	0x3d9be936	0.07612841
99	0x3d1b41d8	0.03790459
100	0x3dc5bc34	0.096550375
101	0x3e19fd5e	0.15038058
102	0x3da84e98	0.082181156
103	0x3cbb3bfa	0.022855747
104	0x3cff7def	0.03118798
105	0x3e0bd1a0	0.13654184
106	0x3d80c6c0	0.062879086
107	0xbd197b21	-0.03747094
108	0xbd98344a	-0.07431848
109	0xbda360f2	-0.07977475
110	0xbd85931f	-0.06522202
111	0x3d0a7dd6	0.033811413
112	0xbd3cea30	-0.046121776
113	0x3d118b9c	0.035533533
114	0xbd8ee6b8	-0.069776
115	0x3da7f3ec	0.08200821
116	0x3e5ea2df	0.21741818
117	0xbdafa3f4	-0.085761935
118	0x3d73e864	0.059547797
119	0x3cbf9d05	0.023390302
120	0x3d5b644a	0.05356244
121	0xbca5f9d5	-0.02026073
122	0x3df857ce	0.121261224
123	0xbd7a01ac	-0.06103675
124	0x3db3d030	0.08779943
125	0xbe3e0a8a	-0.18558708
126	0x3e0cf4ef	0.1376531
127	0x3cddcdd0	0.027075678
128	0xbd24e614	-0.040258482
129	0xbd75cd73	-0.060010385
130	0xbdb25eec	-0.08709511
131	0xbd3797f2	-0.04482264
132	0x3dc0d94c	0.09416446
133	0xbd335bdc	-0.043788776
134	0xbd5cee5f	-0.053938266
135	0x3c84fa9c	0.016232781
136	0x3dba77b7	0.09104865
137	0xbd8b739a	-0.068091586
138	0x3c42648f	0.011864795
139	0xbd866479	-0.065621324
140	0xbe18432d	-0.14869376
141	0x3db39eb3	0.08770504
142	0xbd8c8918	-0.06862086
143	0xbe1c821c	-0.15284008
144	0x3cfe6666	0.031054687
145	0xbd90153b	-0.070352994
146	0xbc955b27	-0.018231941
147	0x3ca1796d	0.01971122
148	0xbdead0fa	-0.1146564
149	0xbdb7a571	-0.08967102
150	0x3e00261a	0.12514535
151	0x3e0a62cc	0.1351425
152	0x3dd74f60	0.105131865
153	0x3d0e4c0a	0.034740485
154	0xbc8b332e	-0.016992178
155	0xbe26c426	-0.16285762
156	0xb7cc218c	-2.4334317e-05
157	0x3ceb4417	0.028718991
158	0x3d6ebd22	0.05828584
159	0x3c430a18	0.011904262
160	0xbce9b3e3	-0.02852816
161	0xbe302bf8	-0.17204273
162	0xbd39bbfe	-0.0453453
163	0xbd9ca2b2	-0.07648219
164	0x3e5de1c0	0.21668148
165	0xbe2d4dc3	-0.16924195
166	0x3d953c2e	0.07286869
167	0xbdb27073	-0.08712854
168	0xbbf7c412	-0.007561215
169	0xbdd97673	-0.106182955
170	0x3ddeb9b4	0.10875264
171	0xbdbb73e3	-0.09152963
172	0xbdc646b6	-0.09681456
173	0xbdee4c7f	-0.11635684
174	0x3e41c57e	0.18922994
175	0xbde5ed1b	-0.11226865
176	0xbe7e8d21	-0.24858524
177	0x3d37e174	0.044892743
178	0x3d337860	0.04381597
179	0x3e188c58	0.14897287
180	0x3d6e3058	0.058151573
181	0x3d4bb542	0.049733408
182	0x3dc1e50b	0.094675146
183	0x3dbe3b72	0.09288682
184	0x3c27beaa	0.010238329
185	0x3ced7bad	0.028989637
186	0x3c40fe29	0.0117793465
187	0xbc50b2d2	-0.012737947
188	0x3e1be0b7	0.1522244
189	0xbc26c2ad	-0.01017825
190	0x3dc6aa10	0.097004056
191	0x3d643fdb	0.05572496
192	0x3ad51fff	0.0016260146
193	0xbe102faf	-0.1408069
194	0xbd96e928	-0.0736869
195	0xbd2c0b64	-0.04200305
196	0xbd8820cf	-0.06646883
197	0xbcef7e91	-0.029235156
198	0x3db8f311	0.09030736
199	0xbda1a7ee	-0.07893358
200	0x3e03416e	0.12817928
201	0xbbe8c3e9	-0.0071034324
202	0xbe3d5301	-0.18488695
203	0x3e019d3c	0.12657636
204	0x3c273d86	0.010207539
205	0xbdf796ef	-0.12089335
206	0x3dddfd2d	0.10839305
207	0x3d47064e	0.048589997
208	0xbd69cb36	-0.057078563
209	0x3dcddbca	0.10051687
210	0x3dd445cc	0.10364875
211	0x3d972cf7	0.07381623
212	0x3c459e8f	0.012061729
213	0x3db85640	0.09000826
214	0xbaeebe6c	-0.0018214709
215	0xbdd65677	-0.104657106
216	0x3aacb8c2	0.0013177621
217	0x3d4d2eda	0.05009351
218	0x3dcea01f	0.100891344
219	0x3dc22682	0.09480001
220	0xbcf6dea6	-0.030135464
221	0xbd0bf60d	-0.0341702
222	0x3d9735a6	0.073832795
223	0xbdef6301	-0.11688805
224	0xbd915f6f	-0.07098281
225	0x3c068be4	0.008212063
226	0xbce1b809	-0.027553575
227	0xbde947c8	-0.11390644
228	0x3d87c6b7	0.06629699
229	0xbe0b50a6	-0.13604984
230	0x3d2114c0	0.03932643
231	0x3d7fe8e0	0.062477946
232	0x3d17344f	0.03691512
233	0xbaafa978	-0.0013401946
234	0xbdae5139	-0.08511586
235	0x3c98433d	0.01858675
236	0x3cce3474	0.025171496
237	0xbc7772af	-0.015103026
238	0xbc8dc928	-0.017307833
239	0x3e030427	0.12794553
240	0xbccea314	-0.025224246
241	0xbd827170	-0.06369293
242	0x3c2e7e32	0.0106502045
243	0xbe0b5eb1	-0.1361034
244	0xbe1bf190	-0.15228868
245	0x3d8ea394	0.06964794
246	0x3daea442	0.085274234
247	0x3cf4b1ba	0.029869903
248	0xbe0dcf87	-0.13848697
249	0x3dca799a	0.09886475
250	0x3d95fcfa	0.07323642
251	0xbdd5d1e9	-0.10440428
252	0x3ddfc142	0.10925533
253	0x3dc3a38f	0.09552681
254	0x3b840749	0.004029189
255	0x3e12c287	0.14332019

net.2.bias f4 [128]
0	0x3e175da4	0.14781815
1	0x3e0e40e1	0.13891937
2	0x3c2f601d	0.010704068
3	0xbde12c5a	-0.109947875
4	0xbdbac78e	-0.09120093
5	0xbd239380	-0.03993559
6	0x3dd1cbff	0.10243987
7	0x3dbe8f75	0.09304706
8	0x3ddb925f	0.107212774
9	0xbd73e2a0	-0.0595423
10	0x3df97049	0.1217962
11	0xbbeb0a4a	-0.0071728574
12	0x3d0bc350	0.03412181
13	0x3e0d621a	0.13806954
14	0x3da19c86	0.078911826
15	0xbcbc4c93	-0.022985732
16	0x3d0c8899	0.034309957
17	0x3cd84473	0.026399827
18	0xbd0883b6	-0.033328734
19	0x3e0ea449	0.13929857
20	0xbdee412c	-0.11633524
21	0x3d3e174a	0.04640893
22	0xbc877050	-0.016533047
23	0xbd23c38c	-0.03998141
24	0xbcb619a3	-0.022229021
25	0x3c7e78df	0.015531748
26	0xbd65879c	-0.05603753
27	0xbd815890	-0.0631572
28	0x3d96848e	0.073495016
29	0xbcabdcba	-0.020979274
30	0xbd3612f0	-0.044451654
31	0x3cf99e4c	0.03047099
32	0xbdb58e94	-0.08865085
33	0x3e06160a	0.13094345
34	0x3cd653b4	0.02616296
35	0x3cb1189d	0.021618182
36	0x3dab55f6	0.08366005
37	0x3ba5494d	0.0050441385
38	0x3d688292	0.056765147
39	0x3cfe9ab8	0.031079635
40	0x3b092592	0.0020926935
41	0xbdf3a44a	-0.1189657
42	0x3e158f89	0.14605536
43	0x3cbd4d0c	0.023108028
44	0x3d422924	0.047402516
45	0xbdc202c2	-0.09473182
46	0xbc663049	-0.014049598
47	0xbdcf844b	-0.10132655
48	0x3e210d40	0.1572771
49	0x3cc0e742	0.023547772
50	0x3de5fea2	0.11230208
51	0x3cbda9d0	0.023152262
52	0xbdedd3de	-0.11612676
53	0x3d09ed00	0.033673286
54	0xbdb6d94a	-0.08928163
55	0xbe0c06bf	-0.13674448
56	0xbde7a52d	-0.11310802
57	0xbd83cc4e	-0.064354524
58	0x3e0dd461	0.13850547
59	0xbd56c88b	-0.052437346
60	0x3d3b843a	0.045780398
61	0x3d8c434d	0.06848774
62	0x3e084bd2	0.13310173
63	0x3db7d25a	0.08975668
64	0xbc34a7f0	-0.011026368
65	0xbd84bb54	-0.064810425
66	0x3d6e60f4	0.05819793
67	0x3d9af8de	0.07566999
68	0x3d8b780a	0.06810005
69	0x3db1e676	0.08686535
70	0x3d8ef789	0.06980807
71	0x3bdd2f81	0.0067500477
72	0xbdcebacf	-0.10094225
73	0x3d09dc77	0.033657517
74	0x3a93c635	0.001127428
75	0xbda2eb76	-0.07955067
76	0x3e1967f2	0.14981058
77	0x3bc2ba20	0.005942598
78	0xbd92a169	-0.07159693
79	0xbe02cc85	-0.1277333
80	0xbd28cd76	-0.041211568
81	0x3e25f847	0.16207992
82	0x3c6d0b28	0.014467992
83	0x3d888fd6	0.066680595
84	0x3de0345c	0.10947487
85	0x3d99c712	0.07508673
86	0x3cd0022f	0.025391666
87	0x3e209294	0.15680915
88	0x3ca20d32	0.019781683
89	0x3d309748	0.043113023
90	0xbdffc952	-0.12489571
91	0xbd0774ef	-0.0330705
92	0x3ca9bc76	0.020719748
93	0x3d5c0e45	0.053724546
94	0xbddb3b77	-0.107047014
95	0x3df1f685	0.11814598
96	0x3deb3d84	0.114863425
97	0xbc3f5a4e	-0.011679245
98	0x3daca5ea	0.08430083
99	0x3da53d16	0.08068292
100	0x3d08e7b4	0.033424094
101	0xbdfd8786	-0.12379365
102	0x3d19dc7c	0.037563786
103	0xbdbb32fa	-0.091405824
104	0xbd9bbe0b	-0.07604607
105	0xbb740c87	-0.0037238912
106	0xb867de41	-5.5281682e-05
107	0x3daf859a	0.08570404
108	0x3da8840d	0.08228312
109	0x3cb7ad9d	0.022421652
110	0xbcd27645	-0.025691161
111	0x3c0c6b63	0.008570525
112	0x3d1d2123	0.03836168
113	0x3e07940a	0.13240066
114	0x3de1f100	0.11032295
115	0xbd1abdb4	-0.03777857
116	0x3e0d317c	0.13788408
117	0xbdc146d0	-0.094373345
118	0x3d5cc9e2	0.053903468
119	0xbbc74ee0	-0.0060824007
120	0xbdcbdca4	-0.09954193
121	0xbd736bf4	-0.059429124
122	0xbd3e4a1b	-0.04645739
123	0xbd4311d0	-0.04762441
124	0x3cfe858c	0.03106954
125	0x3c5aa16a	0.013344148
126	0x3a720bc4	0.00092333206
127	0x3a32d544	0.000682194

net.4.weight f4 [256, 128]
0	0x3ce25292	0.027627263
1	0x3b0c710a	0.0021429681
2	0x3e26d210	0.1629107
3	0x3e3707db	0.1787409
4	0xbe0d2b23	-0.13785987
5	0x3d8da980	0.06917095
6	0x3dc926aa	0.09821828
7	0xbe12430f	-0.14283393
8	0x3e2db053	0.16961794
9	0x3d9cf86d	0.07664571
10	0x3dd22c76	0.102623865
11	0xbe1a85da	-0.15090123
12	0x3dc52a0d	0.09627161
13	0x3a541917	0.0008090897
14	0x3e37badd	0.17942376
15	0x3cff448e	0.03116062
16	0x3d43e11f	0.047822114
17	0x3e05e28c	0.13074702
18	0x3e304f7d	0.17217822
19	0x3d2a7e4c	0.041624352
20	0x3b134da7	0.0022476704
21	0x3cbf4b19	0.023351239
22	0x3d460fc9	0.048354898
23	0x3c95ceac	0.018287025
24	0x3d16a0f7	0.0367746
25	0x3dd8b7ba	0.10581918
26	0x3d5ee478	0.054417104
27	0x3d48f3d4	0.049060658
28	0x3d36f068	0.044662863
29	0xbdce68f9	-0.10078616
30	0x3dc97561	0.098368414
31	0x3e103bed	0.1408536
32	0xbcc92365	-0.02455301
33	0x3dba52f2	0.09097852
34	0x3d90cec1	0.07070685
35	0xbc5743ea	-0.013138751
36	0xbdd24185	-0.10266403
37	0x3d788d6c	0.060681745
38	0x3d453372	0.048144765
39	0x3de661d8	0.11249131
40	0x3e3696fe	0.17831036
41	0x3db80d2a	0.08986886
42	0xbdd326d6	-0.10310142
43	0x3dbf7e68	0.09350282
44	0x3d646547	0.055760648
45	0x3d4189ec	0.047250673
46	0x3ba2bcf8	0.0049663745
47	0x3ccba249	0.024857657
48	0xbcedc24f	-0.029023318
49	0x3e20e4d0	0.15712285
50	0x3d3cbfa5	0.046081204
51	0xbca7e741	-0.020496013
52	0xbdac6a69	-0.084187336
53	0x3d4d966f	0.050192293
54	0x3dc345ee	0.095348224
55	0x3d9aec7d	0.07564638
56	0x3dcac006	0.09899907
57	0x3dd15349	0.102209635
58	0x3ad953cd	0.0016580761
59	0xbded2516	-0.11579339
60	0x3c136132	0.008995341
61	0x3c236fdf	0.009975403
62	0x3d59624b	0.053072255
63	0x3dbdd612	0.09269346
64	0x3be413a9	0.0069603515
65	0x3d8161f0	0.06317508
66	0x3c30a7dc	0.010782208
67	0x3dcf52e9	0.10123236
68	0x3d03d662	0.032186873
69	0xbd946108	-0.0724507
70	0x3dbddae6	0.09270267
71	0x3e73b8d5	0.23800977
72	0x3e12e4f8	0.14345157
73	0x3d1301cc	0.035890386
74	0x3d5a69a2	0.053323396
75	0xbd223029	-0.03959671
76	0xbd0ec43c	-0.034855112
77	0x3d90785a	0.07054205
78	0xbd65c9d2	-0.056100674
79	0xbdc51ab6	-0.09624235
80	0x3e18a48a	0.14906517
81	0xbdc13c3e	-0.094353184
82	0x3d8002b9	0.06250519
83	0x3dbf8552	0.09351601
84	0x3dd2bb46	0.10289626
85	0x3e0b640e	0.13612387
86	0x3d084baf	0.033275302
87	0xbd850ead	-0.0649694
88	0x3bee62ac	0.007274946
89	0xbc8f3cb7	-0.017485006
90	0x3d8a4157	0.06750744
91	0x3d962236	0.07330744
92	0x3d06877d	0.032844055
93	0xbe004655	-0.1252683
94	0x3d05aa95	0.032633383
95	0xbc8688f2	-0.016422722
96	0xbd51f643	-0.051260244
97	0x3d8d93fc	0.069129914
98	0x3dc6de2c	0.09710345
99	0x3ca6bb0a	0.020352859
100	0x3cb47001	0.022026064
101	0xbd1e0ba2	-0.038585313
102	0xbd0caed6	-0.034346424
103	0xbd3bc710	-0.045844138
104	0x3d59d940	0.0531857
105	0x3c9e2955	0.019306818
106	0x3dbe6762	0.092970625
107	0xbcf16407	-0.029466642
108	0x3d758668	0.059942633
109	0x3cccee72	0.025016043
110	0xbc775bd8	-0.015097581
111	0x3e232b57	0.15934502
112	0x3d8f5a50	0.069996476
113	0x3e48fb46	0.19627103
114	0x3d0ed9d0	0.03487569
115	0x3e2a51c9	0.16632761
116	0xbdd5ddf1	-0.104427226
117	0x3e2ee4c7	0.17079459
118	0xbd535e5d	-0.051603664
119	0x3cf3f0dd	0.029777939
120	0x3d3327d7	0.043739166
121	0x3e090899	0.13382186
122	0x3d79cf5c	0.06098877
123	0x3e56f7fe	0.20993039
124	0x3e3fc31c	0.18726772
125	0x3d65a8b7	0.056069102
126	0x3d88a508	0.06672102
127	0x3d88dbe3	0.06682565
128	0xbdff632c	-0.124700874
129	0x3d0fb4ea	0.035084642
130	0xbdc80106	-0.0976582
131	0xbdb753d0	-0.08951533
132	0x3bdf0969	0.0068065417
133	0x3cc504a1	0.024050059
134	0xbd347c3c	-0.04406379
135	0x3d1a133f	0.03761601
136	0x3d3f5baa	0.046718277
137	0xbce8c684	-0.028414972
138	0xbdb342f6	-0.08753006
139	0xbd0f1397	-0.03493079
140	0xbe05ccb9	-0.13066377
141	0x3d8593a0	0.06522298
142	0xbc0e0035	-0.008667042
143	0xbc9a3106	-0.018822204
144	0xbdb2a13d	-0.0872216
145	0xbc1a33cd	-0.009411764
146	0xbd59c014	-0.053161696
147	0x3d4dafac	0.050216362
148	0xbccca62e	-0.024981584
149	0x3d4629de	0.04837977
150	0xbcf3670b	-0.02971222
151	0xbd13af57	-0.03605589
152	0xbd77645f	-0.060398456
153	0x3d67f289	0.056627784
154	0xbbc5af5e	-0.0060328683
155	0x3cd798d8	0.026317999
156	0xbc2e05ac	-0.0106214695
157	0xbca7b2a8	-0.020470932
158	0xbe0959a6	-0.13413104
159	0xbd9b7cbc	-0.075921506
160	0x3d2fb49c	0.042896852
161	0xbdd7edcd	-0.10543404
162	0x3c63a8a0	0.013895184
163	0xbb661919	-0.0035110174
164	0x3b78374d	0.0037874759
165	0xbdb330ab	-0.08749517
166	0x3d2d8608	0.04236415
167	0x3c0286ea	0.007966736
168	0xbccb0f2a	-0.024787504
169	0xbdaa353d	-0.08310936
170	0xbd9cd035	-0.076569
171	0xbdc9208d	-0.09820662
172	0xbd868e13	-0.06570067
173	0x3dadcf25	0.08486775
174	0x3b9d07f9	0.00479221
175	0xbd44f22c	-0.048082516
176	0x3c44781b	0.011991526
177	0xbe02c6c7	-0.1277114
178	0x3ce4e42e	0.027940836
179	0xbdb0afe0	-0.086272955
180	0xbcc693eb	-0.024240455
181	0xbd3b2839	-0.045692656
182	0x3d0e78e0	0.034783244
183	0xbd0a3de9	-0.03375045
184	0xbcadbe1d	-0.021208817
185	0xbe169d41	-0.14708425
186	0x3d92acae	0.07161842
187	0x3d9486c6	0.072522685
188	0xbd130c88	-0.035900623
189	0x3dc134d3	0.094339035
190	0x3d0225ca	0.03177432
191	0x3c32b570	0.010907516
192	0xbbdc221d	-0.006717934
193	0x3cdcec36	0.026968103
194	0x3da25cd6	0.07927863
195	0xbb44debc	-0.0030039987
196	0x3d307434	0.04307957
197	0xbd186b5b	-0.037211757
198	0xbcd0aed1	-0.025473984
199	0xbb4d5f90	-0.0031337477
200	0x393513e8	0.00017268921
201	0xbaa2c792	-0.0012419096
202	0x3cd8e984	0.026478536
203	0x3ccbe2f4	0.024888493
204	0x3c01c172	0.007919656
205	0x3db00310	0.08594334
206	0x3d30b858	0.043144554
207	0x3d77928d	0.060442496
208	0x3d333730	0.043753803
209	0xbba5592d	-0.005046031
210	0xbdd04480	-0.10169315
211	0x3d5755e4	0.052572146
212	0x3d302db4	0.043012336
213	0x3bb5dd22	0.0055500427
214	0x3cfaa136	0.03059445
215	0xbda00c64	-0.07814863
216	0xbdaf06e8	-0.08546239
217	0xbd80f404	-0.06296542
218	0x3dae7e39	0.08520169
219	0x3c3c03d6	0.011475524
220	0x3d150f2d	0.036391426
221	0xbc93212d	-0.017960155
222	0xbc965ef0	-0.018355817
223	0xbd8cdc7f	-0.06877994
224	0x3d31c235	0.0433981
225	0x3c367dc8	0.011138387
226	0xbb3d27c2	-0.0028862809
227	0x3cc2fd70	0.023802489
228	0xbd37bbc4	-0.0448568
229	0x3d9b7379	0.07590384
230	0xba975e28	-0.0011548446
231	0xbc1d47cf	-0.00959964
232	0xbd2f8dae	-0.042859726
233	0xba156d52	-0.0005700189
234	0x3d16b860	0.036796927
235	0x3ac29c45	0.0014847597
236	0xbd1227fd	-0.035682667
237	0x3c559390	0.01303567
238	0x3ca0d3e1	0.019632282
239	0x3c8fd9e3	0.017559951
240	0xbd844165	-0.064577855
241	0xbcbb20ae	-0.022842731
242	0x3ccc1f69	0.024917321
243	0xbdab007a	-0.083497
244	0xbbddd361	-0.006769583
245	0x3bc34bbf	0.0059599574
246	0xbd8edd9b	-0.06975862
247	0xbd55c213	-0.052187037
248	0xbd9d4608	-0.07679373
249	0xbd497f65	-0.04919376
250	0xba87fe62	-0.0010375495
251	0x3cd590a2	0.026069943
252	0xbda79840	-0.08183336
253	0xbd302cc2	-0.043011434
254	0xbd8f2283	-0.069890045
255	0xbc5c59f8	-0.013449185

net.4.bias f4 [256]
0	0xbd9b53cd	-0.07584343
1	0xbd949317	-0.07254618
2	0x3c32dbc3	0.010916653
3	0x3c7cc644	0.01542813
4	0x3db4490b	0.08802994
5	0x3c6ae7a1	0.014337451
6	0xbd9aeaac	-0.07564291
7	0xbcce407c	-0.025177233
8	0xbce59348	-0.02802433
9	0xbdb3840c	-0.0876542
10	0xbbfc7c8a	-0.007705276
11	0x3aebf9d2	0.0018003529
12	0x3d2efbb7	0.042720523
13	0x3c67d457	0.014149747
14	0x3b6ff07c	0.0036611846
15	0x3cca4108	0.024689212
16	0xbd93816b	-0.07202419
17	0xbc798a30	-0.0152307
18	0x3d252986	0.040322803
19	0x3cf8f019	0.030387925
20	0x3b148fe6	0.0022668778
21	0xbc9c348b	-0.019068023
22	0x3c8f50ce	0.017494585
23	0x3c919d0b	0.01777508
24	0xbd2b53c0	-0.041827917
25	0x3d47b714	0.04875858
26	0xbc121897	-0.0089169955
27	0xbdf85fc4	-0.12127641
28	0xbe00bbca	-0.12571636
29	0xbe1266f0	-0.1429708
30	0x3d63c3e6	0.055606745
31	0xbda67baa	-0.08129056
32	0x3cecb18e	0.028893258
33	0x3d52497f	0.051339623
34	0xbd9c99fa	-0.07646556
35	0xbc176964	-0.009241436
36	0xbd842c77	-0.064537935
37	0xbe0cbc40	-0.13743687
38	0xbd98ab2e	-0.07454525
39	0x3dae2b0c	0.08504304
40	0x3c48ebb3	0.012263226
41	0xbdbfcef8	-0.09365648
42	0xbd69a344	-0.057040468
43	0x3c76dd81	0.015067459
44	0xbd44f81a	-0.04808817
45	0xbdba1cbf	-0.09087514
46	0xbda489e7	-0.08034115
47	0x3cc7c5a3	0.024386233
48	0xbcd0d428	-0.025491789
49	0xbd80b164	-0.062838346
50	0x3d505074	0.050857976
51	0xbdcbfbc8	-0.09960133
52	0xbc21576c	-0.009847503
53	0xbdad12ab	-0.08450826
54	0xbcbd10a7	-0.02307923
55	0xbdcc52bd	-0.099767186
56	0xbd743736	-0.059622966
57	0xbd71d6ac	-0.059042618
58	0x3dd0caca	0.10194929
59	0x3d68744e	0.05675154
60	0x3dd9b9ae	0.10631119
61	0x3d282a1c	0.041055784
62	0x3cb78d1e	0.022406157
63	0x3d640060	0.05566442
64	0xbc023a0e	-0.007948412
65	0xbd4bb070	-0.04972881
66	0xb8346ff0	-4.3019594e-05
67	0xbd3310d6	-0.043717228
68	0xbc792f78	-0.015209071
69	0x3d02a960	0.03189981
70	0xbd6ce69e	-0.05783712
71	0x3c363fe8	0.011123635
72	0x3d8e2932	0.06941451
73	0xbda87740	-0.0822587
74	0xbd5cf6af	-0.053946193
75	0xbceb517f	-0.028725384
76	0xbd0c8b16	-0.03431233
77	0x3d8b9eb1	0.06817377
78	0xbbbc888b	-0.005753582
79	0xbcefa243	-0.029252177
80	0x3db8fb52	0.090323105
81	0xbcc8d1e6	-0.02451415
82	0xbd8257a2	-0.06364371
83	0xbccd1bc2	-0.02503765
84	0x3c48a2f4	0.012245882
85	0xbcebbfd5	-0.028777996
86	0xbb74f230	-0.00373758
87	0xbdb3eb5a	-0.08785124
88	0x3c011c92	0.007880347
89	0x3d84152b	0.0644935
90	0x3c9d66b0	0.019214004
91	0xbd929509	-0.071573325
92	0xbbf5acb2	-0.0074973935
93	0xbde53578	-0.11191839
94	0x3cede4be	0.029039737
95	0xbccdb2e4	-0.025109716
96	0xbc739d89	-0.014869102
97	0xbdbb2848	-0.091385424
98	0x3b8f9f97	0.0043830383
99	0xbdc66ab0	-0.09688318
100	0xbb356dd1	-0.0027683864
101	0x3da260c4	0.07928613
102	0xbc8dbc07	-0.017301572
103	0x3d53e2fd	0.051730145
104	0xbcb4faa0	-0.022092164
105	0xbd8cd166	-0.06875877
106	0xbd5c3c8e	-0.053768687
107	0xbd7fc893	-0.06244714
108	0xbcc82a43	-0.024434214
109	0x3d4843c0	0.048892736
110	0xbdbc2be6	-0.091880605
111	0xbd356504	-0.04428579
112	0xbd8a37ea	-0.06748946
113	0xbd427057	-0.047470417
114	0xbb9dead2	-0.0048192525
115	0x3e0eaf21	0.13933994
116	0xbca8c46f	-0.02060148
117	0xbcbb3bcb	-0.02285566
118	0xbdc65c94	-0.096856266
119	0xbd5de9db	-0.0541781
120	0xbe0f1e56	-0.13976416
121	0xbc32b301	-0.010906936
122	0x3bb02964	0.005376028
123	0xbd272d4a	-0.040814675
124	0xbd028f70	-0.031875074
125	0xbd824d14	-0.06362358
126	0xbd9b5d68	-0.07586175
127	0x3bf8161f	0.0075709964
128	0xbbdb889f	-0.006699636
129	0x3bc37022	0.005964295
130	0x3d3fefbd	0.04685949
131	0x3ca41960	0.020031631
132	0xbbdc5097	-0.0067234742
133	0xbdf97666	-0.12180786
134	0xbd85de03	-0.06536486
135	0x3cc64275	0.024201611
136	0xbd768771	-0.06018776
137	0x3bbd432c	0.00577583
138	0xbc9bb8eb	-0.019009074
139	0x3d9d1230	0.076694846
140	0x3d27556e	0.040852956
141	0x3d35b7b2	0.04436464
142	0x3d8a4a9e	0.06752513
143	0xbce514eb	-0.027964076
144	0xbd048901	-0.03235722
145	0x3ca7180d	0.02039721
146	0xbced0bc5	-0.028936276
147	0xbcf46518	-0.029833362
148	0xbd3446f4	-0.04401298
149	0xbb901ea7	-0.0043981853
150	0xbd8f371f	-0.069929354
151	0xbcca37dc	-0.024684839
152	0x3d85e7ca	0.06538351
153	0xbd0d2ffd	-0.034469593
154	0xbde3b191	-0.111178525
155	0xbc1e8bf1	-0.009676919
156	0xbda185ad	-0.07886825
157	0xbd44caf4	-0.048045114
158	0xbd5e127a	-0.05421684
159	0x3d2fd0e9	0.04292384
160	0x3d1d754f	0.038441952
161	0x3bff9f28	0.0078009553
162	0x3c6e9d77	0.01456391
163	0xbb94ac69	-0.0045371545
164	0xbcf432df	-0.029809413
165	0xbd395b4d	-0.045253087
166	0xbdb5e901	-0.088823326
167	0x3d37ed04	0.04490377
168	0x3d78c0e1	0.06073082
169	0xbd82c5d1	-0.06385387
170	0x3dd165d8	0.10224503
171	0xbdaac6c5	-0.083386935
172	0x3c89966b	0.016795358
173	0xbd17e012	-0.037078924
174	0xbdb61054	-0.08889833
175	0xbcba4d4b	-0.022741934
176	0xbc98a974	-0.018635489
177	0x3d03c125	0.03216662
178	0x3d215cb2	0.03939504
179	0xbc8042cd	-0.015656853
180	0x3d93d79c	0.072188586
181	0xbd3879c1	-0.04503799
182	0xbb12fe1b	-0.002242929
183	0xbd2c5a7c	-0.04207848
184	0xbc0c4ca9	-0.008563199
185	0x3dd10fc6	0.10208087
186	0xbdc0918c	-0.09402761
187	0x3ce833a4	0.028344937
188	0xbd236154	-0.03988774
189	0xbb8819a7	-0.0041534486
190	0xbdbff422	-0.093727365
191	0xbd880865	-0.06642226
192	0xbd9d4f4b	-0.076811396
193	0x3dcaf73f	0.0991044
194	0xbded151c	-0.11576292
195	0x3cbe0744	0.023196824
196	0xbdcc70ef	-0.09982478
197	0x3c5b998d	0.013403309
198	0xbdb644cb	-0.0889984
199	0xbd403c0f	-0.046932276
200	0xbd95e9f6	-0.07320015
201	0xbce3ed41	-0.027823092
202	0xbd996a7d	-0.07491014
203	0x3a9d7768	0.0012013735
204	0xbd7df36e	-0.06199973
205	0x3d9ad0fe	0.07559393
206	0xbd164035	-0.036682326
207	0xbe0552af	-0.13019823
208	0x3d010fa9	0.031509075
209	0xbcfb1d00	-0.030653477
210	0xbdd313e3	-0.103065275
211	0xbd356638	-0.044286937
212	0x3d141ad1	0.036158387
213	0x3c960dfe	0.018317219
214	0xbc21e444	-0.009881083
215	0xbd8d7503	-0.06907084
216	0x3cb57473	0.022150254
217	0xbd903c50	-0.07042754
218	0x3aac80e4	0.0013160971
219	0x3da7573f	0.08170938
220	0xbd1644c3	-0.03668667
221	0x3c785918	0.01515796
222	0x3d8a3716	0.06748788
223	0xbcdf1dcb	-0.027235886
224	0x3cd46249	0.025925772
225	0x3da88ff9	0.082305856
226	0xbdfeea9b	-0.12447091
227	0xbd66285c	-0.056190833
228	0xbd76cea4	-0.06025566
229	0x3d2fc6d3	0.042914223
230	0x3c823f71	0.015899392
231	0x3d82a73e	0.06379555
232	0xbd3279f8	-0.04357335
233	0xbd8c6ef7	-0.06857102
234	0xbc9e4b67	-0.019323064
235	0xbd96ccc1	-0.073632725
236	0xbdb22057	-0.086975746
237	0xbe0c4cfe	-0.13701245
238	0xbc4ed8bc	-0.012624916
239	0xbd2c4fe0	-0.042068362
240	0xbd890f48	-0.06692368
241	0x3ceaaad5	0.028645912
242	0xbd0cd5ed	-0.034383703
243	0xbd28b45d	-0.041187633
244	0x3d9185d5	0.071056046
245	0xbd1cb956	-0.038262688
246	0xbd5e7193	-0.05430753
247	0xbdace856	-0.08442752
248	0xbd401ddb	-0.046903472
249	0x3d56252f	0.052281555
250	0x3a8b7296	0.0010639008
251	0x3ca87975	0.020565728
252	0xbc849c8d	-0.01618793
253	0xbdcdcc27	-0.100487046
254	0xbd33671d	-0.04379951
255	0xbd77ac64	-0.06046714

net.6.weight f4 [2, 256]
0	0xbe45d510	-0.19319558
1	0xbe2286e6	-0.15871772
2	0x3c9173c2	0.017755393
3	0xbdfbd87b	-0.1229715
4	0x3e2644b1	0.16237141
5	0xbe5fc162	-0.21851113
6	0x3d01f01e	0.031723134
7	0xbe4c05e1	-0.19924118
8	0xbe41a1c3	-0.18909363
9	0xbe67f112	-0.22650555
10	0xbe5f11ee	-0.21784183
11	0xbe4083f7	-0.1880034
12	0xbe631a99	-0.22178115
13	0x3e438151	0.19092299
14	0xbe71ef1a	-0.23626366
15	0x3d2009d0	0.039071858
16	0x3d2cb38a	0.04216341
17	0xbe615b6a	-0.22007528
18	0x3e298f6f	0.16558622
19	0x3d899d2e	0.06719433
20	0xbe1099c8	-0.14121163
21	0x3e40f1d4	0.1884225
22	0x3d16eaa0	0.03684485
23	0xbe493990	-0.19650865
24	0x3e6393c0	0.22224331
25	0x3e1cb16a	0.15302053
26	0x3cc694ba	0.02424084
27	0xbe44301b	-0.19158976
28	0xbe69ae4b	-0.22820394
29	0xbe580803	-0.21096806
30	0x3d61cf7f	0.055129524
31	0xbe415da2	-0.18883374
32	0xbe4f310a	-0.2023355
33	0x3e27c86f	0.16385053
34	0x3d20e891	0.039284293
35	0x3e469d0e	0.19395849
36	0x3da84537	0.08216327
37	0xbe3bea06	-0.18350992
38	0xbcbfe0cc	-0.023422621
39	0x3e14e26d	0.145395
40	0xbbb15dd0	-0.0054127946
41	0xbe6def82	-0.23235896
42	0xbd079226	-0.033098362
43	0xbe51e9d5	-0.20499356
44	0x3e1475e6	0.144981
45	0x3d6d7170	0.05796951
46	0xbcc100d4	-0.023559965
47	0xbe348703	-0.17629628
48	0xbe2b16b1	-0.16707875
49	0x3ce60950	0.028080612
50	0x3e468ec2	0.19390395
51	0xbe3fe114	-0.18738204
52	0xbe40cf1e	-0.18829009
53	0xbe6c99b3	-0.23105507
54	0xbe71c515	-0.23610337
55	0xbe63fff3	-0.22265606
56	0xbc349e97	-0.011024139
57	0x3c739278	0.014866464
58	0x3e326034	0.17419511
59	0x3cda84f4	0.026674725
60	0x3e11a71a	0.142239
61	0x3d740eea	0.059584536
62	0xbe2323b9	-0.15931596
63	0x3c878f77	0.016547902
64	0xbe389964	-0.18027264
65	0xbe6c004f	-0.23046993
66	0xbe3f8257	-0.18702064
67	0xbe49bd2a	-0.19701067
68	0xbe691158	-0.22760522
69	0x3e2882c9	0.1645614
70	0x3d14890f	0.03626352
71	0xbe30dbe0	-0.17271376
72	0xbcceaea3	-0.025229758
73	0x3d0cda56	0.03438791
74	0xbe2383aa	-0.15968195
75	0xbe38eecc	-0.18059844
76	0x3d17e58f	0.03708416
77	0x3e28bed6	0.16479048
78	0x3afd8180	0.0019340962
79	0xbe287d4e	-0.1645405
80	0x3e0c1023	0.1367803
81	0xbdccac26	-0.09993772
82	0xbd3500de	-0.04419028
83	0x3d2795a9	0.04091421
84	0xbcf36ac8	-0.029714003
85	0xbe5a1722	-0.21297887
86	0xbe0f20eb	-0.13977401
87	0xbe412b84	-0.18864256
88	0xbe3dbada	-0.1852831
89	0x3e456043	0.19275002
90	0x3e459a85	0.19297226
91	0xbd6eedca	-0.058332242
92	0xbbbbf60a	-0.0057361173
93	0xbe0cdd0e	-0.137562
94	0xbe71849b	-0.23585741
95	0x3d0d7926	0.034539364
96	0xbc91e49c	-0.017809205
97	0xbe376688	-0.17910206
98	0x3cfa50d8	0.030556127
99	0xbe357ac6	-0.17722616
100	0x3d2fda45	0.042932767
101	0x3e4ab6ae	0.1979625
102	0x3d31a07f	0.04336595
103	0x3d336628	0.043798596
104	0x3e1ad1ef	0.15119146
105	0xbd713212	-0.05888564
106	0xbdc7652f	-0.09736096
107	0xbd55959e	-0.05214464
108	0xbd287e88	-0.041136295
109	0x3d212022	0.039337285
110	0xbe002e7d	-0.12517734
111	0xbe598e09	-0.21245588
112	0x3d4bee7c	0.049787983
113	0xbe4161a3	-0.18884902
114	0xbe664e4e	-0.22490808
115	0x3e032b6b	0.12809531
116	0x3c220299	0.009888315
117	0xbe551392	-0.20808247
118	0xbe088f00	-0.133358
119	0x3d7da826	0.061927937
120	0xbe2ecb14	-0.17069656
121	0x3ccb2b1c	0.02480083
122	0xbe62c1a5	-0.22144182
123	0xbe6b2f91	-0.22967364
124	0x3e21fa0d	0.15818043
125	0x3d5bec67	0.053692248
126	0x3bb9f430	0.0056748614
127	0x3d2c07da	0.041999675
128	0xbe536c38	-0.20646751
129	0xbe0d0ab0	-0.13773608
130	0x3e3c0403	0.18360905
131	0xbe2feaa0	-0.17179346
132	0x3d7c5c41	0.061611418
133	0xbe40ba16	-0.18820986
134	0xbe595ffd	-0.21228023
135	0xbe6c25c9	-0.23061289
136	0xbe2f59d9	-0.17124118
137	0x3cdbcb06	0.026830208
138	0xbe254650	-0.16140103
139	0x3e3e4497	0.18580852
140	0xbe70ddf7	-0.23522173
141	0x3d59e165	0.05319347
142	0x3d1ea4f5	0.038731534
143	0x3e3a74df	0.18208645
144	0xbe24aab6	-0.16080746
145	0xbe46afac	-0.19402951
146	0xbc93a594	-0.01802329
147	0xbd217512	-0.039418288
148	0xbe0ff8ff	-0.14059828
149	0xbe12721e	-0.14301345
150	0xbe45e69c	-0.19326252
151	0xbe64b203	-0.22333531
152	0x3e0383eb	0.12843291
153	0x3da84e44	0.08218053
154	0xbe330019	-0.17480506
155	0x3df2f73c	0.118635625
156	0x3e3a2fbb	0.1818227
157	0xbe32028b	-0.17383783
158	0x3e52e185	0.20593841
159	0xbe68ccdc	-0.22734398
160	0x3e615a8f	0.22007202
161	0x3df2eb3c	0.11861274
162	0x3db3655b	0.087595664
163	0x3d9ec2d1	0.07752002
164	0xbe193b0a	-0.14963928
165	0xbe73fd5b	-0.23827116
166	0xbe580b24	-0.21098
167	0x3e227d8f	0.1586821
168	0x3ce6a074	0.028152682
169	0xbe42aceb	-0.19011275
170	0x3e0575dd	0.13033243
171	0x3ccde394	0.025132932
172	0xbe55ad54	-0.208669
173	0x3d5a4269	0.05328599
174	0xbe3ad290	-0.18244386
175	0xbe2fd923	-0.17172675
176	0xbe5193ec	-0.20466584
177	0xbe68668d	-0.2269537
178	0x3d7cff74	0.061767057
179	0x3d67e301	0.056612972
180	0x3e3693c1	0.17829801
181	0xbe2d694e	-0.16934702
182	0x3d2e7aa6	0.042597435
183	0xbdd655ea	-0.104656056
184	0x3d112eb8	0.035444945
185	0x3e0ffd0c	0.14061373
186	0x3e055ba8	0.13023245
187	0x3e15df79	0.1463603
188	0xbe38478c	-0.17996043
189	0xbe473dba	-0.1945714
190	0xbe69c844	-0.22830302
191	0x3d384f40	0.044997454
192	0xbe2d1836	-0.16903767
193	0x3e35d286	0.1775609
194	0xbe5a8f8c	-0.21343821
195	0xbe0f01d8	-0.13965547
196	0xbe5482f8	-0.20753086
197	0xbc864a10	-0.016392738
198	0x3cf2bc18	0.029630706
199	0x3d1e36b0	0.038626373
200	0x3bf92334	0.0076030735
201	0xbe406f2b	-0.18792407
202	0x3e3e3295	0.18573983
203	0xbe48754d	-0.19575997
204	0x3e5deeaa	0.21673074
205	0x3d249998	0.04018554
206	0xbe3e398c	-0.1857664
207	0xbe737448	-0.23774827
208	0x3ca1fe82	0.01977468
209	0xbe4146f5	-0.18874724
210	0xbe65bb79	-0.22434796
211	0xbe4a9bbc	-0.1978597
212	0xbbb139eb	-0.0054085157
213	0x3c880c72	0.016607497
214	0xbd782598	-0.060582727
215	0x3e1974cf	0.14985965
216	0xbe672384	-0.22572142
217	0x3d911c39	0.07085461
218	0x3e1fa3f0	0.15589881
219	0x3e2e0bc2	0.16996673
220	0xbe6b04bf	-0.22951029
221	0xbe3a3f03	-0.181881
222	0x3e528b1f	0.20560883
223	0xbe5c1721	-0.21493198
224	0xbe66e745	-0.2254916
225	0x3e431c5c	0.19053787
226	0xbe37e63b	-0.1795892
227	0xbe42d7d5	-0.19027646
228	0x3d36f08c	0.044662997
229	0xbe113f8a	-0.14184394
230	0x3d99da5f	0.07512354
231	0xbbbe2630	-0.005802892
232	0xbdc1a83a	-0.09455915
233	0x3d314882	0.04328204
234	0xbe6f59ec	-0.23374146
235	0x3ca8a288	0.020585313
236	0xbe6b16f2	-0.22957972
237	0xbe796183	-0.24353604
238	0xbe3972fe	-0.18110272
239	0x3cc3e46b	0.02391263
240	0xbe70f5fc	-0.23531336
241	0x3c942968	0.01808615
242	0xbe6e93b4	-0.23298532
243	0xbe2dc3ca	-0.16969219
244	0x3e2f5aae	0.17124435
245	0xbe2a6c9b	-0.16642992
246	0x3d3abb15	0.04558857
247	0xbe345aa4	-0.17612702
248	0xbe1c194b	-0.15244024
249	0x3e065917	0.13119923
250	0xbe284423	-0.16432242
251	0xbe54b4fa	-0.20772162
252	0xbe694d7a	-0.22783461
253	0xbe464360	-0.19361639
254	0xbe72bdfd	-0.23705287
255	0x3e1ce590	0.15321946

net.6.bias f4 [2]
0	0x3d0265f7	0.031835523
1	0x3d11ec6f	0.03562587

exp_avg f4 [64, 2]
0	0xb5bde486	-1.4148106e-06
1	0xb60227b5	-1.9394622e-06
2	0x3651ad48	3.124429e-06
3	0xb696d2fb	-4.4949097e-06
4	0xb21db43d	-9.179584e-09
5	0xb30569e5	-3.1062786e-08
6	0x36909e93	4.309995e-06
7	0xb6a9b0a1	-5.057155e-06
8	0x36990872	4.5607385e-06
9	0x36766f0e	3.67215e-06
10	0x333a10f6	4.3321926e-08
11	0xb290329e	-1.6786824e-08
12	0x359cdb3f	1.1686715e-06
13	0x361f6ef0	2.375742e-06
14	0x3796b767	1.7966797e-05
15	0x36493356	2.9981215e-06
16	0x378cd053	1.6786309e-05
17	0x374949b8	1.1997698e-05
18	0xb65a5fc2	-3.254027e-06
19	0x34a1e02a	3.0151688e-07
20	0x37572864	1.2824403e-05
21	0xb7ceae7f	-2.463837e-05
22	0xb5c1395d	-1.4396315e-06
23	0x36096651	2.0474147e-06
24	0xb7f3c244	-2.905832e-05
25	0x372414d5	9.780012e-06
26	0xb7b5ac06	-2.1656986e-05
27	0xb67238f4	-3.6093961e-06
28	0xb799815d	-1.829926e-05
29	0x349a871b	2.8783037e-07
30	0xb719820a	-9.149788e-06
31	0x3664ec7e	3.4112304e-06
32	0x36834ab6	3.9128017e-06
33	0x36ec9852	7.0510805e-06
34	0x33d15be4	9.749036e-08
35	0x330cd900	3.279365e-08
36	0x366b99d3	3.5107266e-06
37	0x35699a6b	8.702397e-07
38	0xb65c319c	-3.281143e-06
39	0x384011ed	4.5793062e-05
40	0x339d1465	7.314592e-08
41	0x334d832d	4.7849586e-08
42	0xb90abb22	-0.00013230418
43	0xb849977a	-4.8063208e-05
44	0x36f26d4d	7.2248863e-06
45	0xb609eb0e	-2.055141e-06
46	0xb5a54c59	-1.2315678e-06
47	0x3453ecf0	1.9737104e-07
48	0x33cc6df2	9.519489e-08
49	0x3411bc71	1.3572732e-07
50	0x351b42fb	5.783947e-07
51	0xb6b4279f	-5.3690305e-06
52	0xb28a0539	-1.606769e-08
53	0xb3805a11	-5.9768475e-08
54	0xb5bdeaa5	-1.4149888e-06
55	0xb7a087d7	-1.9136742e-05
56	0x3723e514	9.7688935e-06
57	0x37ef1898	2.8502473e-05
58	0x363672c0	2.7186907e-06
59	0xb7162b5b	-8.950791e-06
60	0x37900ffb	1.717358e-05
61	0xb83c5ff4	-4.4912056e-05
62	0xb7cd095d	-2.4442264e-05
63	0x3818cf14	3.643248e-05
64	0x363100ca	2.6375515e-06
65	0x3703856e	7.839275e-06
66	0x37b2c96e	2.1313052e-05
67	0x37d88535	2.5811236e-05
68	0xb7470d85	-1.1864472e-05
69	0x3634044a	2.6824587e-06
70	0x367e77af	3.7918614e-06
71	0x3777ae67	1.47629535e-05
72	0xb6b135e3	-5.2812843e-06
73	0x36d7662a	6.419393e-06
74	0xb83c85d4	-4.494733e-05
75	0x37a24406	1.934358e-05
76	0x36f86416	7.4026275e-06
77	0xb66de528	-3.5449139e-06
78	0xb2c6b9d9	-2.3134747e-08
79	0x32023336	7.57864e-09
80	0x32b5eca7	2.117879e-08
81	0x33f9c35a	1.16305e-07
82	0xb78243df	-1.5528813e-05
83	0xb5f4068a	-1.818132e-06
84	0x36d899a9	6.45519e-06
85	0x36f5aea8	7.3219016e-06
86	0xb78dfd00	-1.6926322e-05
87	0xb7b6c5c2	-2.1788179e-05
88	0xb1d3bb82	-6.1622254e-09
89	0xb3478d91	-4.6462052e-08
90	0xb7805c0a	-1.5301648e-05
91	0x3742dfa9	1.1615376e-05
92	0xb67b5736	-3.7452678e-06
93	0xb58b2669	-1.0367486e-06
94	0xb76e8f6c	-1.42192985e-05
95	0xb7c311d8	-2.325412e-05
96	0x3804de21	3.1678126e-05
97	0x380f164e	3.411463e-05
98	0x317afb30	3.6522572e-09
99	0xb0c826d6	-1.4562953e-09
100	0xb6a8bf8a	-5.0290882e-06
101	0xb61b4560	-2.3137181e-06
102	0xb718ff83	-9.119397e-06
103	0xb5f911f2	-1.8557168e-06
104	0x37f99282	2.9751336e-05
105	0x36cdada4	6.1296905e-06
106	0x34cff9fa	3.8738636e-07
107	0x373bdac7	1.1197007e-05
108	0xb4ac5767	-3.210109e-07
109	0x36a01dd7	4.7718454e-06
110	0x3695e5b1	4.4672856e-06
111	0xb7f3c321	-2.9058721e-05
112	0x33147e22	3.4573652e-08
113	0x3285e3a8	1.5586764e-08
114	0xb5dc944e	-1.643444e-06
115	0xb69ccfa0	-4.673333e-06
116	0x37c12a09	2.3026967e-05
117	0xb77d1cf9	-1.5086721e-05
118	0x3702276a	7.757781e-06
119	0x373ae4b8	1.1139717e-05
120	0x3758b72b	1.291725e-05
121	0xb6ca044a	-6.0205684e-06
122	0xb21a23b6	-8.9720995e-09
123	0xb32c3362	-4.0093603e-08
124	0x37065162	8.005971e-06
125	0x364b0bb9	3.025618e-06
126	0xb7960ae0	-1.7886457e-05
127	0xb759af57	-1.2975032e-05

exp_avg_sq f4 [64, 2]
0	0x31373361	2.665921e-09
1	0x30b62adf	1.3254428e-09
2	0x31931344	4.2804533e-09
3	0x3094d364	1.0828498e-09
4	0x2aef47cc	4.2504748e-13
5	0x2ae84164	4.1256853e-13
6	0x3011713c	5.291161e-10
7	0x2f9abb6f	2.8145616e-10
8	0x31728dcc	3.5296237e-09
9	0x30e5dd8f	1.6724914e-09
10	0x2a908be9	2.567662e-13
11	0x29e147e7	1.000448e-13
12	0x2d9449d9	1.6858447e-11
13	0x302e7c86	6.347779e-10
14	0x3164bcf3	3.3285772e-09
15	0x3110cb2c	2.1070248e-09
16	0x3132722e	2.5967313e-09
17	0x3097c574	1.1042816e-09
18	0x313ab167	2.7167404e-09
19	0x30dd3970	1.6096191e-09
20	0x323d8059	1.1030431e-08
21	0x327ea991	1.4823301e-08
22	0x3193e183	4.303901e-09
23	0x30f14080	1.755339e-09
24	0x3234609f	1.0499348e-08
25	0x3014a3f3	5.407507e-10
26	0x305d18cf	8.0434587e-10
27	0x30900b50	1.0480594e-09
28	0x314e90ce	3.0059257e-09
29	0x31572efc	3.1313325e-09
30	0x31d8f569	6.3143273e-09
31	0x308b76cc	1.0147345e-09
32	0x30f2678e	1.7637249e-09
33	0x30ad385f	1.2603428e-09
34	0x2ab8b942	3.2813514e-13
35	0x2a212288	1.4311653e-13
36	0x3157055c	3.1289664e-09
37	0x30fa8abf	1.8229328e-09
38	0x322694db	9.6963175e-09
39	0x33c066c7	8.959392e-08
40	0x2b136e60	5.2378067e-13
41	0x2af52fd2	4.3553925e-13
42	0x33c4a483	9.156886e-08
43	0x3430ca5f	1.64649e-07
44	0x314d765a	2.9898701e-09
45	0x31159ceb	2.1771551e-09
46	0x31188c8b	2.21988e-09
47	0x30af5972	1.2758348e-09
48	0x2af4a40a	4.3456932e-13
49	0x2b073e52	4.804812e-13
50	0x318b9bb7	4.063135e-09
51	0x313e6e92	2.771149e-09
52	0x2ac61b2d	3.5190722e-13
53	0x2abf4a77	3.3980086e-13
54	0x30973328	1.1001235e-09
55	0x30af795a	1.2767416e-09
56	0x31822772	3.7879824e-09
57	0x30d6a77b	1.561815e-09
58	0x2ef11f0c	1.0964926e-10
59	0x2f1f4835	1.4486619e-10
60	0x32930530	1.7115411e-08
61	0x318434a6	3.847691e-09
62	0x336058ea	5.223493e-08
63	0x332eb434	4.0676426e-08
64	0x30fb5758	1.8287478e-09
65	0x317d7ec5	3.6888406e-09
66	0x336b7008	5.4817093e-08
67	0x328596c2	1.5551795e-08
68	0x3157044a	3.1289056e-09
69	0x31100242	2.0956041e-09
70	0x31f718c2	7.1914608e-09
71	0x321d1d13	9.1452135e-09
72	0x31a7d453	4.884478e-09
73	0x2fb86747	3.3542788e-10
74	0x328409d5	1.5371294e-08
75	0x33ba237e	8.667756e-08
76	0x2f46add8	1.8069757e-10
77	0x303e5c14	6.925245e-10
78	0x2ae0f06e	3.9957225e-13
79	0x2a33e789	1.5978724e-13
80	0x2a9e4347	2.811312e-13
81	0x2a1fa28b	1.417843e-13
82	0x3168dd2c	3.3886165e-09
83	0x30ebe68b	1.7164025e-09
84	0x31929cbd	4.2669783e-09
85	0x30f18995	1.7574161e-09
86	0x32513648	1.2177743e-08
87	0x3278d444	1.44837635e-08
88	0x2abf0492	3.3931587e-13
89	0x2abda1c9	3.3685405e-13
90	0x306431a3	8.3016455e-10
91	0x30ef434a	1.7408663e-09
92	0x30cc7b54	1.4878005e-09
93	0x2d6801a7	1.318804e-11
94	0x3015e26c	5.452765e-10
95	0x3067a739	8.427495e-10
96	0x32f8f7d4	2.8983699e-08
97	0x3283744a	1.530329e-08
98	0x2abd9b57	3.3680933e-13
99	0x2a2e3071	1.5471111e-13
100	0x325a2fcb	1.2700137e-08
101	0x32459a77	1.150203e-08
102	0x30f09332	1.7504134e-09
103	0x3100c228	1.8736817e-09
104	0x31648c50	3.3258125e-09
105	0x3226ba0d	9.704775e-09
106	0x317f43ad	3.7145853e-09
107	0x30f75457	1.7995586e-09
108	0x315ef709	3.2445675e-09
109	0x32b1eecb	2.0714102e-08
110	0x3142e7b3	2.8362421e-09
111	0x323c18be	1.0948666e-08
112	0x2ae8fff7	4.138909e-13
113	0x2a9317c2	2.612893e-13
114	0x31bb80f9	5.457079e-09
115	0x3110bd58	2.1062387e-09
116	0x323ae651	1.0878993e-08
117	0x321dc7ee	9.1840615e-09
118	0x2fb350cd	3.2617323e-10
119	0x3093a031	1.0741187e-09
120	0x31278ea7	2.4382787e-09
121	0x31a4bab0	4.794252e-09
122	0x2add7494	3.9338378e-13
123	0x2a1bc974	1.3836659e-13
124	0x31b2a947	5.1997264e-09
125	0x312bb271	2.4985207e-09
126	0x315686d9	3.121775e-09
127	0x3328d5e0	3.9310066e-08

exp_avg f4 [64]
0	0xb72110a7	-9.600225e-06
1	0x388adea4	6.621823e-05
2	0x346908f5	2.1703075e-07
3	0x36dae97a	6.5240865e-06
4	0x37fde7d0	3.0267896e-05
5	0x3188d82b	3.9826964e-09
6	0x37502687	1.24067365e-05
7	0x35463aba	7.3846206e-07
8	0x36bd958b	5.650048e-06
9	0xb7364d96	-1.086611e-05
10	0xb7b0abb2	-2.1060787e-05
11	0xb702d598	-7.798335e-06
12	0xb7e7b118	-2.7619812e-05
13	0xb873039e	-5.7939083e-05
14	0xb847c407	-4.7627862e-05
15	0xb8326aaa	-4.2537846e-05
16	0xb816f846	-3.599401e-05
17	0x34056797	1.2424276e-07
18	0x379561ca	1.780772e-05
19	0xb7cd26ec	-2.4456029e-05
20	0xb4e395f7	-4.239116e-07
21	0xb79beba4	-1.8587169e-05
22	0xb69d62a3	-4.6904474e-06
23	0xb84c3ab9	-4.869208e-05
24	0xb5064674	-5.002141e-07
25	0xb806d408	-3.214556e-05
26	0x3459693a	2.0247981e-07
27	0xb707f514	-8.103689e-06
28	0x3733739a	1.0696147e-05
29	0x36fbdd5e	7.5061535e-06
30	0x38471a30	4.7469686e-05
31	0xb8255d92	-3.942621e-05
32	0x37fa1ea5	2.9816592e-05
33	0x37ec78d0	2.818965e-05
34	0xb7ab86f5	-2.0447633e-05
35	0xb6d020ff	-6.2027243e-06
36	0x371a4f3c	9.1975635e-06
37	0xb79d9001	-1.8782916e-05
38	0xb800ac30	-3.067794e-05
39	0xb4a5ef5f	-3.090781e-07
40	0x338f9f30	6.6879124e-08
41	0xb6fcbb94	-7.532022e-06
42	0x373209bd	1.0611894e-05
43	0x37afc932	2.0955315e-05
44	0x3179cdab	3.6351178e-09
45	0xb85a11c5	-5.19918e-05
46	0x374af256	1.20965615e-05
47	0x368a870a	4.128441e-06
48	0x388b3649	6.638148e-05
49	0xb2bf3080	-2.2257382e-08
50	0x389b0263	7.3914205e-05
51	0x3778468a	1.4798376e-05
52	0xb7eca932	-2.821218e-05
53	0xb7653a0a	-1.3662977e-05
54	0x3905624a	0.00012720484
55	0xb7f4efb7	-2.9198693e-05
56	0xb425b1ad	-1.543146e-07
57	0xb806d55d	-3.21468e-05
58	0xb7ddfb96	-2.6462407e-05
59	0x378f0a1c	1.7051636e-05
60	0x384075d9	4.588612e-05
61	0x34cd5ed7	3.825323e-07
62	0x37baca6d	2.226719e-05
63	0x37c51aee	2.349677e-05

exp_avg_sq f4 [64]
0	0x328f529e	1.6684961e-08
1	0x32cf6dc0	2.414788e-08
2	0x2d30094b	1.0006505e-11
3	0x319d8fe8	4.5856616e-09
4	0x32794ffc	1.4511894e-08
5	0x2bac8005	1.2256868e-12
6	0x3197de8f	4.4199804e-09
7	0x32f23a98	2.8199153e-08
8	0x32722d5b	1.4096567e-08
9	0x328cf73e	1.6410578e-08
10	0x3432c4ea	1.6649179e-07
11	0x32832da5	1.5271164e-08
12	0x32929b4e	1.7067261e-08
13	0x31efe27d	6.981564e-09
14	0x33e45ef9	1.0634353e-07
15	0x338a65a9	6.4446176e-08
16	0x325408c3	1.2342016e-08
17	0x2bc3dbc3	1.391658e-12
18	0x32ac90b3	2.0089237e-08
19	0x34328865	1.6627162e-07
20	0x2da13566	1.8327295e-11
21	0x34b727b5	3.4115297e-07
22	0x330e0598	3.306704e-08
23	0x33221b4a	3.7743384e-08
24	0x2d478c4d	1.1342993e-11
25	0x32afa649	2.0448299e-08
26	0x2c3be784	2.6702815e-12
27	0x331fb59e	3.7185252e-08
28	0x31fe5ba3	7.402791e-09
29	0x30917e7e	1.058609e-09
30	0x344070c5	1.7922419e-07
31	0x3485f8fb	2.4954338e-07
32	0x33c0e0b2	8.9815686e-08
33	0x349e8267	2.9524674e-07
34	0x331e80d8	3.6904424e-08
35	0x335d1117	5.1471115e-08
36	0x322da230	1.01068025e-08
37	0x344df327	1.9180571e-07
38	0x31f36db2	7.0847017e-09
39	0x2bfefbca	1.8117671e-12
40	0x2c3e1d03	2.7016729e-12
41	0x32a199d0	1.8812813e-08
42	0x329a7048	1.797902e-08
43	0x334fe422	4.840343e-08
44	0x2d0f38a6	8.141187e-12
45	0x3212972d	8.532692e-09
46	0x31d83e8a	6.2935372e-09
47	0x3077a5ea	9.0093855e-10
48	0x339f77c9	7.425803e-08
49	0x2ba29d37	1.1554428e-12
50	0x351b7f9d	5.79277e-07
51	0x31f34d09	7.0809887e-09
52	0x32ea0cbb	2.7246974e-08
53	0x338b3428	6.482179e-08
54	0x34f7341c	4.604525e-07
55	0x340b356f	1.2964823e-07
56	0x2d26a3e2	9.472397e-12
57	0x32d3eb5e	2.4670666e-08
58	0x33b9e1e9	8.6558266e-08
59	0x31a2ca8d	4.737848e-09
60	0x33f98b07	1.1620255e-07
61	0x2d14f7c7	8.467844e-12
62	0x32c43f2b	2.2846129e-08
63	0x339893ed	7.104959e-08
